results/ppo/BotControllerAgent/BotControllerAgent-4499943.onnx (onnx, 197119 bytes, 11 tensors)

discrete_act_size_vector f4 [1, 2]
0	0x40400000	3.0
1	0x40400000	3.0

network_body._body_endoder.seq_layers.0.weight f4 [128, 104]
0	0xbe346a34	-0.17618638
1	0xbdf6623a	-0.12030454
2	0x3e09e46e	0.13466045
3	0x3dd9e1b0	0.106387496
4	0xbd97f39a	-0.0741951
5	0xbe07b59a	-0.13252869
6	0x3e418d08	0.18901455
7	0x3e161245	0.14655407
8	0x3b85f01c	0.004087461
9	0x3d012f4e	0.031539254
10	0x3dcd06c7	0.10011058
11	0x3d8b0889	0.06788737
12	0xbdc5e06f	-0.09661948
13	0xbd9e00bc	-0.07714984
14	0x3e4531ec	0.19257325
15	0xbdbe5704	-0.09293941
16	0xbde81b00	-0.11333275
17	0xbe7d546b	-0.24739234
18	0x3d90df33	0.07073822
19	0xbea088b7	-0.31354305
20	0x3e0e9e76	0.13927636
21	0x3d475f14	0.048674658
22	0xbdfbd444	-0.12296346
23	0x3e84bc47	0.25924894
24	0x3e6ce2b7	0.2313336
25	0x3cb44f37	0.022010429
26	0x3e8928cf	0.26788947
27	0x3dc5c12b	0.096559845
28	0x3dbff7de	0.09373449
29	0x3e63eebf	0.22259043
30	0x3d657c93	0.056027006
31	0xbc69d30a	-0.014271507
32	0x3d0a271c	0.033728704
33	0x3bcca0a8	0.0062447377
34	0x3c0e71e9	0.0086941505
35	0xbe24fc90	-0.1611197
36	0x3d30b30d	0.043139506
37	0xbc996e16	-0.01872925
38	0x3db48a50	0.088154435
39	0xbe16ebea	-0.14738432
40	0x3ebb1e21	0.36546424
41	0xbd81db00	-0.06340599
42	0x3a1afd52	0.00059123815
43	0x3e64a120	0.2232709
44	0x3d872f03	0.06600764
45	0xbceee2e2	-0.02916092
46	0x3dab144c	0.08353481
47	0x3e11c848	0.14236557
48	0xbe11c849	-0.14236559
49	0x3ec9610e	0.3933186
50	0x3e142eff	0.14471053
51	0xbe0123a2	-0.12611249
52	0x3e0eecbd	0.13957496
53	0xbdd296d2	-0.10282673
54	0x3cc58ecb	0.02411594
55	0x3d704e85	0.058668632
56	0x3e233438	0.15937889
57	0xbe0a6067	-0.13513337
58	0xbd7f89f8	-0.062387437
59	0xbe4b6d55	-0.19865926
60	0x3ee437fe	0.4457397
61	0x3e6ca70d	0.231106
62	0x3de9eb45	0.11421827
63	0x3e682b2d	0.2267272
64	0x3e389dca	0.18028942
65	0xbe286e5d	-0.1644835
66	0x3d9de9b6	0.077105924
67	0x3c50ef31	0.01275234
68	0xbdf79298	-0.120885074
69	0x3e6b0536	0.22951207
70	0x3d02d2da	0.031939365
71	0x3d5af7cb	0.05345897
72	0x3d54aaca	0.05192069
73	0x3cde82be	0.027161952
74	0x3daca773	0.08430376
75	0xbddfd536	-0.10929339
76	0x3e4c5d6b	0.19957511
77	0x3cef5a69	0.029217916
78	0xbbb0f7d5	-0.0054006376
79	0xbe94902e	-0.2901625
80	0x3e2c66f7	0.16836153
81	0x3e567566	0.20943221
82	0x3dd4bf39	0.10388035
83	0xbc193722	-0.009351524
84	0x3da74339	0.081671186
85	0xbd2a9ea6	-0.041655205
86	0xbdc8b705	-0.09800533
87	0x3e8b3217	0.27186653
88	0xbda4ac0e	-0.08040629
89	0x3ef0acc0	0.47006798
90	0x3d999910	0.074998975
91	0x3d16a914	0.03678234
92	0xbd524856	-0.051338516
93	0x3d9014df	0.07035231
94	0xbe4bc41c	-0.19899029
95	0xbed1729f	-0.4090776
96	0xbdb45b14	-0.08806434
97	0xbe0264ed	-0.12733813
98	0x3b9ee4c3	0.004849048
99	0xbe517ced	-0.20457812
100	0xbb98fe1f	-0.0046689655
101	0x3d38c39a	0.045108415
102	0xbe155df8	-0.14586627
103	0xbef14361	-0.4712172
104	0xbde8a63d	-0.113598324
105	0xbe3a74ed	-0.18208666
106	0xbe648dd7	-0.22319733
107	0xbe6abc96	-0.22923502
108	0xbc926d86	-0.01787449
109	0x3e93cfe2	0.2886954
110	0x3db5bf01	0.08874322
111	0xbed321e7	-0.41236803
112	0xbd660bdf	-0.056163665
113	0x3e25b626	0.16182765
114	0xbc51f3cc	-0.012814473
115	0x3cc4fad7	0.024045391
116	0x3e1fbc1f	0.15599106
117	0x3db638bf	0.08897542
118	0x3e1c82fa	0.15284339
119	0x3d9a13b1	0.07523287
120	0xbe1fa12b	-0.15588824
121	0xbb7a766e	-0.0038217562
122	0x3ddc68e7	0.10762196
123	0x3b341764	0.0027479762
124	0xbe72f68e	-0.23726866
125	0x3c178dae	0.009250088
126	0x3dc5f4c5	0.09665827
127	0x3c389749	0.011266538
128	0x3c450268	0.0120244995
129	0xbe798289	-0.24366201
130	0xbdf5cd41	-0.1200204
131	0xbed6d01f	-0.4195566
132	0x3ced70e1	0.028984489
133	0x3e50ccaf	0.2039058
134	0x3df031a1	0.11728216
135	0x3e54af6b	0.20770042
136	0xbd6b036a	-0.057376303
137	0x3d154aaa	0.03644816
138	0xbe0f8596	-0.14015803
139	0x3d8ab1cc	0.06772193
140	0x3d928e55	0.07156054
141	0xbdf29526	-0.11844854
142	0xbc940a01	-0.018071176
143	0x3dba0e9c	0.09084818
144	0xbdb8c772	-0.09022416
145	0x3d749f78	0.059722394
146	0xbe12809c	-0.14306873
147	0xbd8167db	-0.06318637
148	0x3cb24375	0.021760682
149	0xbde77301	-0.11301232
150	0x3df7657d	0.12079904
151	0xbea3d89f	-0.32001206
152	0x3e258dda	0.16167393
153	0xbd9941a4	-0.07483223
154	0xbe24583c	-0.16049284
155	0x3dd1d142	0.10244991
156	0x3ceebd11	0.029142888
157	0xbe3db1a5	-0.18524797
158	0xbad62743	-0.0016338605
159	0xbe3f218d	-0.18665142
160	0xbdab8c50	-0.08376372
161	0x3cf58318	0.029969737
162	0x3dc64ac8	0.09682232
163	0x3e33f5cc	0.17574233
164	0xbd1df0d3	-0.038559746
165	0x3cc14f28	0.023597315
166	0x3b0056ca	0.001958298
167	0x3d8bb3da	0.06821413
168	0xbd544203	-0.051820766
169	0xbae22b5d	-0.0017255355
170	0xbc167afb	-0.009184594
171	0xbe3e55a7	-0.18587361
172	0x3e01fd9f	0.12694405
173	0xbedd1542	-0.4318028
174	0x3e3c6de8	0.18401301
175	0x3e0048ab	0.1252772
176	0xbe331c0b	-0.17491166
177	0xbcf7cc13	-0.030248677
178	0xbdd3ee33	-0.10348167
179	0xbe95f395	-0.292874
180	0xbd462cf6	-0.04838272
181	0x3d4c61f7	0.049898114
182	0x3d47ceaf	0.048781093
183	0x3e6671e6	0.22504386
184	0x3d6d2396	0.057895266
185	0x3dcd1fcc	0.100158304
186	0x3e0f736c	0.14008874
187	0x3e7ae706	0.24502191
188	0x3dce6a5e	0.10078882
189	0xbe8f807c	-0.28027713
190	0xbd797378	-0.060901135
191	0xbe0ebae7	-0.13938485
192	0x3e230996	0.15921625
193	0xbeace93d	-0.33771697
194	0xbe3ea1bd	-0.18616386
195	0x3dff9984	0.12480453
196	0x3dcb0eb9	0.099149175
197	0x3d3eb667	0.04656067
198	0xbdf40793	-0.11915507
199	0xbdf91b18	-0.12163371
200	0xbd97ed88	-0.07418352
201	0x3c95acc8	0.018270865
202	0xbbcf94ad	-0.006334862
203	0x3dfcb144	0.12338498
204	0xbe4cb077	-0.19989191
205	0xbee52a2e	-0.44758743
206	0x3e4ec094	0.2019065
207	0xbe6f8210	-0.23389459
208	0x3e83f6f3	0.25774345
209	0xbda88634	-0.08228722
210	0xbd00467f	-0.03131723
211	0xbeb30864	-0.3496734
212	0xba9ef816	-0.0012128379
213	0x3c8334e0	0.016016424
214	0xbdca3f81	-0.09875394
215	0x3eb24846	0.34820765
216	0x3d9240aa	0.0714124
217	0xbd8b17fe	-0.067916855
218	0x3d475a54	0.048670128
219	0xbdacfb33	-0.0844635
220	0x3e31bc3b	0.1735696
221	0x3d96803f	0.0734868
222	0x3deae132	0.11468734
223	0x3e19850d	0.14992161
224	0xbd074b25	-0.033030648
225	0x3e157253	0.14594392
226	0x3c0761d5	0.008263071
227	0xbde750a6	-0.11294679
228	0xbf22543b	-0.63409775
229	0xbd9a3a57	-0.07530659
230	0x3ccd2dd8	0.025046274
231	0xbec08162	-0.3759871
232	0x3d6f717d	0.05845784
233	0xbdd892aa	-0.10574849
234	0xbe010df9	-0.12602986
235	0x3eb96748	0.3621161
236	0xbe138b32	-0.14408568
237	0x3e038099	0.12842025
238	0xbe08391f	-0.1330304
239	0x3e1a15cb	0.15047376
240	0xbd5cd29d	-0.053911794
241	0xbd69c674	-0.057074025
242	0xbdb264f1	-0.08710659
243	0xbd8a0e1c	-0.067409724
244	0x3e1063fe	0.14100644
245	0x3e556719	0.2084011
246	0x3e286bcd	0.16447373
247	0x3e0dfbdc	0.13865608
248	0xbf1b26f6	-0.60606325
249	0x3cd3be36	0.025847536
250	0x3dc17fb6	0.09448187
251	0xbee3e335	-0.44509283
252	0x3d8350f2	0.064119235
253	0xbec7a1e9	-0.38990715
254	0x3d150d94	0.036389902
255	0x3e3084c2	0.17238143

network_body._body_endoder.seq_layers.0.bias f4 [128]
0	0xbba437b4	-0.005011523
1	0x3d211a2e	0.039331608
2	0x3da1fd6f	0.07909667
3	0xbc744672	-0.014909374
4	0xbdba1743	-0.09086468
5	0xbd326a8f	-0.043558653
6	0x3d73c79f	0.059516545
7	0x3d0cb15d	0.034348834
8	0xbc2990c3	-0.010349455
9	0xbdadb2d1	-0.08481372
10	0xbd10ac07	-0.035320308
11	0x3d8d7202	0.06906511
12	0x3cdb6a93	0.026784217
13	0xbd6690c2	-0.056290396
14	0xbd5f2bf5	-0.05448528
15	0x3b314224	0.002704748
16	0x3c0b2674	0.008493055
17	0xbd4fa381	-0.05069304
18	0x3cb9f46e	0.022699561
19	0x3c77c9a9	0.015123763
20	0xbc4cee18	-0.012507938
21	0x3cb28673	0.021792626
22	0xbd11fdb8	-0.035642356
23	0xbd3fdaec	-0.04683964
24	0x3bdce9c3	0.0067417338
25	0xbd0c6c41	-0.034282926
26	0xbb0c9cef	-0.0021455844
27	0x3b5c3bfe	0.0033605094
28	0x3dd9c921	0.106340654
29	0x3dd9a316	0.10626809
30	0x3cd44ac4	0.025914557
31	0x3bd5f0e1	0.006528959
32	0xbd1fc1a7	-0.03900304
33	0xbdbf215a	-0.09332533
34	0xbbcea538	-0.0063063167
35	0xbac129e3	-0.0014737215
36	0xbc57fd6c	-0.013182979
37	0xbc1594e6	-0.009129738
38	0x3d37c947	0.044869687
39	0x3c896266	0.016770553
40	0xbcb44a1d	-0.022007996
41	0x3d0d79a3	0.03453983
42	0xbd5bb76f	-0.053641733
43	0x3de5e3cf	0.11225092
44	0x3da326f3	0.07966413
45	0x3c8f62aa	0.017503101
46	0x3e13f935	0.14450534
47	0x3d871afe	0.06596945
48	0x3d220889	0.03955892
49	0xbaa7042a	-0.001274233
50	0x3cb43227	0.02199657
51	0xbd59daf1	-0.053187314
52	0xbad40765	-0.001617652
53	0xbda8b561	-0.0823772
54	0x3c536be5	0.012904142
55	0xbcbb2dd1	-0.022848995
56	0xbbf578df	-0.0074912156
57	0x3c0c86de	0.008577077
58	0xbce0472b	-0.027377686
59	0xbcd730db	-0.026268413
60	0xbbfd638e	-0.007732815
61	0xbd2c24f7	-0.04202744
62	0xbca459f4	-0.020062424
63	0x3d4a7213	0.049425196
64	0x3d129405	0.035785694
65	0x3dc885b3	0.09791126
66	0x3e20eec5	0.15716083
67	0x3d41d56c	0.047322676
68	0xbce5738c	-0.028009199
69	0xbd976630	-0.073925376
70	0x3d0fc77a	0.035102345
71	0xbd2f85ad	-0.042852093
72	0xbd4f1235	-0.050554473
73	0xbd0bd90a	-0.03414253
74	0x3c9edd80	0.019392729
75	0x3a7478ab	0.0009325842
76	0x3e062074	0.13098317
77	0xbc731c8e	-0.014838351
78	0x3cf49932	0.029858205
79	0x3ca6799e	0.020321663
80	0x3cf4a518	0.02986388
81	0xbc0a98c7	-0.0084592765
82	0xbc0b8f40	-0.00851804
83	0x3baa319e	0.005193903
84	0x3dc8f7bf	0.09812879
85	0x39c0debf	0.00036787053
86	0xbd08fdad	-0.03344505
87	0x3c87f2a6	0.016595196
88	0xbd7fbc1b	-0.06243525
89	0xbca8e8fa	-0.020618904
90	0xbc7ed464	-0.015553568
91	0xbe1196f1	-0.14217736
92	0x3d04ed5e	0.032452933
93	0x3c9ae90a	0.01890995
94	0xbd8e6720	-0.06953263
95	0xbd855592	-0.06510462
96	0xbb86d9fc	-0.004115341
97	0x3c5747df	0.013139694
98	0x3da3746f	0.07981192
99	0xbce081e3	-0.027405685
100	0xbd318f28	-0.043349415
101	0x3d318e2e	0.043348484
102	0xbd4836b0	-0.04888028
103	0x3cbe361e	0.023219164
104	0xbcf64f03	-0.030066973
105	0x3c0b7ae0	0.008513182
106	0x3d9dfe70	0.07714546
107	0xbdb26192	-0.08710016
108	0x3c6d0790	0.014467135
109	0xbe075aaf	-0.13218187
110	0xbd4bc6b6	-0.049750052
111	0x3d8a84b4	0.06763592
112	0xbc96fc4c	-0.018430851
113	0xbd7c97dc	-0.061668262
114	0xbd06e19c	-0.03293
115	0xbd50408f	-0.050842818
116	0xbc9adf5f	-0.01890534
117	0xbce48486	-0.027895223
118	0xbd406fe6	-0.046981715
119	0xbd702058	-0.058624595
120	0x3d69822d	0.05700891
121	0xbc85c0d3	-0.016327297
122	0x3d4c9fb7	0.049957003
123	0x3bd5452b	0.0065084896
124	0xbd5ec0b7	-0.054383006
125	0xbd362117	-0.04446515
126	0x3c9a6252	0.01884571
127	0xbca14864	-0.019687839

network_body._body_endoder.seq_layers.2.weight f4 [128, 128]
0	0xbd0b4442	-0.034000643
1	0x3d91a8a7	0.07112246
2	0x3b7a4349	0.0038187078
3	0xbdd57c68	-0.10424119
4	0xbcc83c59	-0.024442839
5	0xbe1bdff4	-0.1522215
6	0xbe608dc4	-0.2192908
7	0xbc636901	-0.013880015
8	0x3e1b089a	0.1514
9	0xbc8f1656	-0.017466705
10	0x3ce4c3d8	0.027925417
11	0xbe0f0f83	-0.13970761
12	0x3e03c82e	0.12869331
13	0x3d8c7db0	0.068599105
14	0xbde9d7a9	-0.11418087
15	0x3e395114	0.18097335
16	0xbe32f5c4	-0.17476565
17	0xbcf90e97	-0.030402465
18	0x3e9c6735	0.3054749
19	0xbe29b85f	-0.16574238
20	0xbbf37310	-0.007429488
21	0x3d8cfb63	0.06883886
22	0xbe1c88b0	-0.15286517
23	0xbd1c9d51	-0.038235966
24	0x3e5cb494	0.2155326
25	0x3cde8385	0.027162323
26	0x3d909909	0.07060439
27	0xbdc6911f	-0.096956484
28	0xbdcbee79	-0.099575944
29	0xbdb36a54	-0.08760515
30	0xbda12df8	-0.07870096
31	0x3d0d3c3d	0.034481276
32	0x3e9bd979	0.30439356
33	0x3dc9c84b	0.09852656
34	0x3c9afc91	0.018919261
35	0x3e0eda3f	0.13950442
36	0x3abfbcb1	0.0014628378
37	0xbe410bc5	-0.18852146
38	0xbee0d71d	-0.43914118
39	0xbcdfe433	-0.027330494
40	0x3c701f26	0.014655864
41	0xbde54424	-0.111946374
42	0xbdf3e066	-0.11908035
43	0x3d358d52	0.044324227
44	0x3eb5d9d1	0.35517743
45	0x3e5b2eaa	0.2140452
46	0x3ea93035	0.33044592
47	0xbe0127a8	-0.12612784
48	0xbe3f48b2	-0.18680075
49	0x3dc63a46	0.096790835
50	0x3d497f2d	0.04919355
51	0xbe365867	-0.1780716
52	0xbd2d8271	-0.042360727
53	0xbd946894	-0.07246509
54	0x3e70772a	0.23482957
55	0xbe9befd6	-0.30456418
56	0x3e2948fc	0.16531748
57	0xbd85bfd2	-0.065307274
58	0xbebe0f64	-0.37121117
59	0x3e74cfdb	0.23907416
60	0x3e209922	0.15683416
61	0x3e23d38f	0.15998672
62	0xbe561423	-0.20906119
63	0xbe3cad42	-0.18425468
64	0xbe229190	-0.1587584
65	0xbebb99de	-0.3664083
66	0xbdf0b76d	-0.11753736
67	0x3d07f31b	0.033190828
68	0x3e1bb4fd	0.1520576
69	0x3ce49eb1	0.027907701
70	0xbc325334	-0.010884095
71	0xbe563ccb	-0.20921628
72	0x3e89242f	0.26785418
73	0x3d7875a5	0.06065907
74	0x3d81eaf0	0.06343639
75	0x3da697b8	0.08134407
76	0xbdfd7d1d	-0.12377379
77	0xbe4f0e03	-0.20220189
78	0x3e20c82c	0.1570136
79	0xbd2b21c6	-0.041780256
80	0xbda06507	-0.078317694
81	0x3cc51071	0.024055691
82	0x3d83f144	0.06442502
83	0x3c78b739	0.015180402
84	0xbe07be4a	-0.13256183
85	0xbe843902	-0.25824744
86	0x3df665e8	0.12031156
87	0x3c634b3e	0.01387292
88	0xbe24c627	-0.16091214
89	0x3e4723ff	0.19447325
90	0xbd9ec97e	-0.07753275
91	0x3d6fd9d9	0.058557365
92	0x3e246006	0.16052255
93	0xbe85d942	-0.26142317
94	0x3d6cf510	0.057850897
95	0xbcd0dcb8	-0.025495872
96	0xbe0c296f	-0.1368768
97	0x3d42cfca	0.047561444
98	0xbdacc024	-0.084350854
99	0x3dd9980d	0.106247045
100	0xbcc72a23	-0.024312085
101	0x3dcfaf51	0.10140861
102	0xbd0f52c6	-0.03499105
103	0x3de7be63	0.1131561
104	0x3b8e2018	0.004337322
105	0x3d3ca0d3	0.04605181
106	0x3bed6bc8	0.0072455145
107	0x3e4a1f8f	0.19738601
108	0x3da3f26a	0.08005221
109	0xbd8a8fae	-0.06765686
110	0x3db1d92f	0.086840026
111	0xbec8e45d	-0.39236727
112	0x3e4db1e4	0.20087391
113	0x3ddb7e9a	0.10717507
114	0x3d9efe08	0.07763296
115	0x3e532a6f	0.20621656
116	0xbdfc6af3	-0.123250864
117	0x3d05693a	0.032571055
118	0x3e88e5fc	0.26737964
119	0x3dc71c73	0.09722223
120	0xbe310f80	-0.17291069
121	0x3ea316bb	0.3185328
122	0x3c82293d	0.015888805
123	0xbeb2a193	-0.34888896
124	0x3e5da440	0.21644688
125	0x3de56825	0.112015046
126	0x3d2d50c4	0.042313352
127	0x3e9c90f7	0.3057935
128	0xbec48298	-0.38380885
129	0xbb90c6cb	-0.004418229
130	0x3d314d20	0.043286443
131	0x3d5f8fa4	0.054580346
132	0xbe27a4aa	-0.16371408
133	0xbd7f5675	-0.06233831
134	0xbdcce0cf	-0.10003816
135	0x3e2e6a03	0.17032628
136	0xbd7fd8e1	-0.06246269
137	0x3d308c3f	0.0431025
138	0xbe35b156	-0.1774343
139	0x3b6ae963	0.0035844676
140	0xbd51dcd2	-0.05123598
141	0xbb97d872	-0.0046339566
142	0xbe90b83f	-0.2826557
143	0x3e206296	0.15662608
144	0x3e560b9e	0.20902869
145	0xbe5d92a3	-0.21637969
146	0xbe87568b	-0.26433215
147	0x3d348de0	0.044080615
148	0xbdada918	-0.08479518
149	0xbe86cb09	-0.2632678
150	0xbe0cd90e	-0.13754675
151	0xbe37bab1	-0.17942311
152	0xbec96a27	-0.393388
153	0xbea15054	-0.31506598
154	0xbdd73f68	-0.10510141
155	0xbe9a7fd2	-0.30175644
156	0x3e0118f9	0.12607183
157	0x3e8b1f6d	0.27172413
158	0xbca89c17	-0.020582242
159	0xbe80f969	-0.25190285
160	0xbd2f3acf	-0.042780694
161	0xbea47e24	-0.32127488
162	0xbebc580d	-0.36785927
163	0xbe8a3e46	-0.27000636
164	0xbe445149	-0.19171633
165	0xbe2b1cd0	-0.1671021
166	0x3e52f466	0.20601043
167	0xbddfec9f	-0.10933804
168	0xbc4cac7d	-0.012492296
169	0xbe00f74b	-0.12594335
170	0xbd2bab10	-0.041911185
171	0x3c999d05	0.01875163
172	0xbdc298e6	-0.09501819
173	0xbdf090cf	-0.1174637
174	0xbdb2fcba	-0.0873961
175	0x3e50e06a	0.20398107
176	0xbd88a094	-0.06671253
177	0xbd2f9d17	-0.042874422
178	0xbcadba88	-0.02120711
179	0x3d7676ef	0.060172018
180	0x3d0de1e9	0.034639273
181	0x3ca0ba79	0.019620167
182	0xbe7fd41a	-0.24983254
183	0xbe1c3966	-0.15256271
184	0x3da8bbac	0.082389206
185	0xbc86c38f	-0.016450671
186	0xbe6feeef	-0.2343099
187	0x3df21eb2	0.11822261
188	0xbec50d7f	-0.3848686
189	0xbe7c9797	-0.24667202
190	0xbe0b8867	-0.13626252
191	0x3e3d6d75	0.18498786
192	0xbe0026c1	-0.12514783
193	0x3e3e48e7	0.18582498
194	0xbccd9288	-0.025094286
195	0x3e56cad0	0.20975804
196	0x3afb05ff	0.0019151567
197	0xbc79a9a8	-0.015238203
198	0xbdef99d7	-0.116992645
199	0xbdb84545	-0.08997587
200	0xbda6163b	-0.08109709
201	0x3c29075b	0.010316695
202	0xbd81e430	-0.063423514
203	0xbe48d715	-0.19613297
204	0x3e31896a	0.17337576
205	0x3dbf2c14	0.09334579
206	0xbd0b5378	-0.03401515
207	0x3dbc5980	0.09196758
208	0x3d89e948	0.06733948
209	0xbddd7443	-0.10813191
210	0x3db569ba	0.08858056
211	0xbdf8aa72	-0.12141885
212	0x3e5e573f	0.21712969
213	0x3c207ea1	0.009795816
214	0xbe7b5d77	-0.24547373
215	0xbd157832	-0.03649158
216	0xbe781e57	-0.24230324
217	0xbe0f130d	-0.13972111
218	0x3dc3260e	0.09528743
219	0xbac4f112	-0.0015025458
220	0xbe07e68d	-0.13271542
221	0x3ca1d3be	0.019754287
222	0xbd155e32	-0.036466785
223	0xbe14e238	-0.1453942
224	0x3e9ccefe	0.30626673
225	0x3d66422a	0.056215443
226	0xbe6e418f	-0.23267196
227	0xbe7c6098	-0.24646223
228	0xbd87ca16	-0.06630342
229	0xbc9a8217	-0.01886086
230	0x3d408f23	0.047011506
231	0x3c02f5bc	0.007993158
232	0xbe8e3154	-0.2777201
233	0xbe4484c7	-0.19191276
234	0x3e140b03	0.14457326
235	0xbda5e03b	-0.08099409
236	0xbdf8f9b3	-0.12157001
237	0x3daa2897	0.08308523
238	0xbe3028da	-0.17203084
239	0x3e59f8d4	0.21286327
240	0xbb1eec8d	-0.0024249882
241	0x3e5360f0	0.20642447
242	0xbd617052	-0.055038758
243	0xbe156e74	-0.14592916
244	0xbc75499c	-0.014971163
245	0xbdab6f31	-0.083708175
246	0xbe23cc7f	-0.15995978
247	0x3d4aa47d	0.049473274
248	0x3ef95e2f	0.4870467
249	0x3bc6e3dd	0.006069644
250	0xbbe01dd2	-0.0068394924
251	0xbde2691e	-0.11055206
252	0xbe839523	-0.2569972
253	0xbe893dec	-0.26805055
254	0xbe421e98	-0.18956983
255	0xbe844dc6	-0.25840586

network_body._body_endoder.seq_layers.2.bias f4 [128]
0	0xbc08fdac	-0.008361261
1	0xbdd6a1ee	-0.104801044
2	0xbceb622d	-0.028733337
3	0xbd5cfbb7	-0.05395099
4	0xbbf01b9d	-0.0073275105
5	0x3d5696d5	0.05238994
6	0x3c76f7ad	0.015073699
7	0xbd71ad6b	-0.059003275
8	0xbd341b64	-0.043971434
9	0xbd7c6068	-0.061615378
10	0x3d251572	0.040303655
11	0xbcf3e486	-0.029772054
12	0xbd800770	-0.062514186
13	0x3d93a72d	0.072096206
14	0x3ded289b	0.115800105
15	0xbcd60182	-0.026123766
16	0xbceb156b	-0.028696736
17	0xbc142c34	-0.009043742
18	0xbd2974ca	-0.041371144
19	0xbdd98e0e	-0.10622798
20	0x3c19e1e8	0.009392239
21	0x3c2d2f3f	0.010570346
22	0xbd035412	-0.032062598
23	0xbd1d223c	-0.038362727
24	0x3d8a588c	0.0675517
25	0xbcc28684	-0.023745783
26	0xbcf30119	-0.02966361
27	0xbd39dc7a	-0.04537628
28	0xbca6d751	-0.020366343
29	0x3ddc5105	0.10757641
30	0xbce7af8d	-0.028281951
31	0xbc8e3b12	-0.017362151
32	0x3dc3c4a0	0.095589876
33	0x3d978383	0.07398131
34	0xbc97fdb9	-0.018553602
35	0x3d6d1ef3	0.057890844
36	0x3da40f1f	0.080106966
37	0xbc8c5a3e	-0.017132875
38	0xbd441c7d	-0.04787873
39	0x3d513944	0.051080003
40	0x3d398a8c	0.045298144
41	0x3bfff00f	0.0078105996
42	0xbd383ec9	-0.04498175
43	0xbccd0689	-0.02502753
44	0x3d510b7f	0.051036354
45	0xbce966bf	-0.028491376
46	0x3dad7d5d	0.08471177
47	0xbca44c92	-0.020056043
48	0xbcd91b77	-0.026502354
49	0xbbb4c142	-0.005516202
50	0xbd1b1786	-0.03786423
51	0x39916c45	0.00027737222
52	0x3cea0c7f	0.028570412
53	0x3d36a391	0.044589583
54	0x3c82169a	0.015879918
55	0xbc16bc00	-0.009200096
56	0xbbf12f7d	-0.0073603974
57	0xbd0e48cf	-0.034737404
58	0xbd754be2	-0.05988682
59	0x3d5fc250	0.05462867
60	0xbd11f267	-0.035631564
61	0xbc8f5085	-0.01749445
62	0xbbef4d02	-0.007302881
63	0x3e0964e9	0.134174
64	0x3c400f0a	0.011722336
65	0xbd2438c5	-0.040093202
66	0xbd28cec2	-0.041212805
67	0x3bfa57b8	0.0076398514
68	0xbcfd5389	-0.030923622
69	0x3c4243fd	0.01185703
70	0xbd561bbd	-0.052272547
71	0x3dba38aa	0.09092839
72	0xbd1a0f07	-0.037611987
73	0x3d70a4d1	0.05875093
74	0x3d4cbc92	0.049984522
75	0x3d8f5397	0.06998365
76	0xbc2d801c	-0.010589626
77	0xbbd29964	-0.006426977
78	0xbc84f0ea	-0.016228158
79	0x3cea97ce	0.02863684
80	0x3ba5fa9e	0.0050652763
81	0x3e032cf8	0.12810123
82	0x3db3d772	0.08781327
83	0xbc2497ec	-0.010045987
84	0xbc5bb8f1	-0.013410793
85	0xbd1274c5	-0.03575589
86	0x3d30be1b	0.04315005
87	0xbd1c0af4	-0.038096383
88	0x3cebf3b2	0.028802726
89	0x3d828baa	0.06374295
90	0x3dec9ad7	0.11552971
91	0xbcbc208f	-0.022964744
92	0xbc0b5f46	-0.008506602
93	0xbc9b9917	-0.018993897
94	0xbd00ee5c	-0.031477317
95	0xbce4515b	-0.027870825
96	0x3a63cef1	0.00086901995
97	0x3d1aff4f	0.037841137
98	0xbc0615fe	-0.008183954
99	0x3c99b3e0	0.018762529
100	0x3cb11b4d	0.021619463
101	0xbd5a0f3b	-0.05323718
102	0xbd02ae61	-0.031904582
103	0xbb4f8d04	-0.0031669745
104	0xbd35a6ba	-0.044348456
105	0xbce00548	-0.027346268
106	0x3d3162ca	0.043307103
107	0x3c73814a	0.014862368
108	0xbce82a29	-0.028340416
109	0x3dbd7e23	0.09252574
110	0xbd9990fe	-0.07498358
111	0x3ba64e28	0.005075235
112	0x3df55639	0.11979336
113	0xbc368208	-0.0111394
114	0x3ace9bb6	0.0015762958
115	0xbd3d4d73	-0.04621644
116	0xbc743bc4	-0.014906827
117	0x3d4c05fc	0.049810395
118	0x3b5405b7	0.003235204
119	0xbc1bd10e	-0.009510292
120	0xbcc5dd54	-0.024153389
121	0xbc017b1b	-0.007902886
122	0xbd725ef8	-0.0591726
123	0xbd0d54da	-0.03450475
124	0xb9f4c647	-0.00046687035
125	0xbceb69fe	-0.028737064
126	0xbcc1d723	-0.023662155
127	0xbd52f9b3	-0.051507663

network_body._body_endoder.seq_layers.4.weight f4 [128, 128]
0	0x3da3506c	0.07974324
1	0xbe96862a	-0.29399234
2	0xbe3bb52a	-0.18330827
3	0xbe0f4b33	-0.1399353
4	0xbe71b343	-0.23603539
5	0x3e1434e2	0.14473298
6	0xbe85640a	-0.26052886
7	0xbe815b91	-0.25265172
8	0xbe290de3	-0.16509204
9	0xbe4de2dc	-0.20106071
10	0xbd00c895	-0.03144129
11	0x3dc8c8fe	0.09803961
12	0xbe631588	-0.22176182
13	0xbda6483d	-0.08119247
14	0x3e53c3e5	0.20680197
15	0xbb12f3a1	-0.0022423046
16	0xbd89e3e5	-0.067329206
17	0xbe0c0e6c	-0.13677377
18	0xbcf8709b	-0.030327132
19	0xbea8a953	-0.32941684
20	0xbe808b8f	-0.25106475
21	0xbbfea981	-0.0077716713
22	0xbe11098d	-0.141638
23	0xbdfff424	-0.12497738
24	0x3e1c91b9	0.15289964
25	0xbe44b790	-0.19210649
26	0xbe5ec39b	-0.21754305
27	0xbe2b86b3	-0.16750602
28	0x3e2b7f5c	0.16747802
29	0xbe140269	-0.14454044
30	0xbe0edbb3	-0.13950996
31	0xbe082e99	-0.13299026
32	0x3e06c053	0.13159303
33	0xbe12c1b4	-0.14331704
34	0xbe995bc2	-0.29952818
35	0x3e40fe6e	0.18847057
36	0x3e85665c	0.26054657
37	0xbdeca4bd	-0.11554859
38	0xbd7c6e99	-0.06162891
39	0x3e2cba1d	0.16867872
40	0xbd8dde68	-0.06927186
41	0x3bf1c433	0.007378125
42	0xbec51199	-0.38489988
43	0xbe6217b3	-0.22079353
44	0x3e88d9dc	0.26728714
45	0xbed2d60b	-0.41178927
46	0xbdf18821	-0.11793543
47	0xbe7398f7	-0.2378882
48	0xbe3e3699	-0.18575515
49	0x3ba367f3	0.004986757
50	0xbe7b6cac	-0.24553174
51	0x3e636557	0.22206627
52	0xbd0ddef3	-0.03463645
53	0x3de0afd4	0.109710366
54	0x3e21e32b	0.15809314
55	0xbdb8c38c	-0.090216726
56	0xbda5933a	-0.08084722
57	0xbe31250a	-0.17299286
58	0x3d94b1ba	0.07260461
59	0xbd8cedbd	-0.068812825
60	0x3e1af79c	0.15133518
61	0xbd1bb20e	-0.038011603
62	0xbebed5eb	-0.3727258
63	0xbc5e71f4	-0.013576973
64	0x3d22e03b	0.039764624
65	0xbcb5edc6	-0.022208106
66	0xbd163b0a	-0.036677398
67	0x3e2c5a8c	0.16831416
68	0xbe8aacd1	-0.27084973
69	0x3c952cfb	0.018209925
70	0xbeb6386d	-0.35589924
71	0x3bd24500	0.006416917
72	0x3dfb8f57	0.12283199
73	0xbe8b2ed1	-0.27184156
74	0xbca8b317	-0.02059321
75	0x3e0f0769	0.1396767
76	0xbe9e50a5	-0.30920902
77	0x3bed06e9	0.00723349
78	0x3e0ff147	0.14056884
79	0xbe053961	-0.1301017
80	0x3d53d2ad	0.051714588
81	0xbdb06086	-0.086121604
82	0x3d8dae67	0.0691803
83	0x3cf1f080	0.029533625
84	0xbd9d4e06	-0.076808974
85	0xbe7fc1a0	-0.24976206
86	0x3d2721f6	0.040803872
87	0x3d4ff4e4	0.050770655
88	0xbcd27b32	-0.02569351
89	0xbd9d8ad3	-0.07692494
90	0xbd63e20f	-0.05563551
91	0x3d325820	0.043541074
92	0xbe19d5cd	-0.15022965
93	0xbe6f6344	-0.2337771
94	0xbdd82d4b	-0.10555514
95	0x3e2ca9da	0.16861668
96	0xbe3718cb	-0.17880552
97	0x3cc1b413	0.023645436
98	0xbe40d8c0	-0.18832684
99	0xbe8b5cda	-0.27219278
100	0x3c274bc5	0.010210936
101	0xbed36382	-0.41286856
102	0xbe0c8a6d	-0.1372468
103	0x3e24c90a	0.16092315
104	0xbec545a4	-0.38529694
105	0xbe4ef429	-0.20210327
106	0xbe5a11f7	-0.21295916
107	0xbdbcc7af	-0.09217774
108	0x3e3f72ea	0.1869618
109	0xbed5a523	-0.41727552
110	0xbceab628	-0.028651312
111	0x3df16a37	0.11787837
112	0xbdbe5538	-0.09293598
113	0xbea2cb5b	-0.31795773
114	0x3e564a7a	0.20926848
115	0xbd2ee6e7	-0.042700674
116	0xbe9bd0d7	-0.3043277
117	0x3e5b3fef	0.21411107
118	0xbc7fe893	-0.015619415
119	0xbd853b50	-0.065054536
120	0x3de5194d	0.11186466
121	0xbd931d10	-0.071832776
122	0xbde88d18	-0.113550365
123	0xbe8298ca	-0.25507194
124	0xbc293635	-0.010327865
125	0x3e2ad993	0.1668456
126	0xbebcc0bc	-0.36865795
127	0xbe323b5f	-0.17405461
128	0xbd05b401	-0.03264237
129	0x3dd7e59f	0.105418436
130	0x3ddc5bc2	0.10759689
131	0x3e247410	0.160599
132	0x3d926800	0.07148743
133	0x3e1ce072	0.15319994
134	0x3b2bcc60	0.0026214346
135	0x3a06e547	0.00051458593
136	0x3d3c421a	0.045961477
137	0xbe0110ce	-0.12604067
138	0xbe166db2	-0.14690283
139	0x3d6a76b0	0.057242095
140	0x3d7611d5	0.0600756
141	0xbdc9d0e5	-0.098542966
142	0xbe714392	-0.23560932
143	0xbdb02c6b	-0.08602222
144	0xbe86814c	-0.2627052
145	0x3d9ab2d8	0.07553643
146	0xbc318899	-0.01083579
147	0x3d67aab1	0.05655927
148	0x3d89f78a	0.067366675
149	0x3e2ecfce	0.17071459
150	0x3d396007	0.045257594
151	0x3eec9d94	0.46213973
152	0x3d931714	0.07182136
153	0xbe19dbdc	-0.15025276
154	0x3d31302e	0.04325884
155	0xbd13d6e3	-0.036093604
156	0xbc8ba6dd	-0.01704734
157	0xbdbe2d88	-0.09286028
158	0xbd384197	-0.044984426
159	0xbe451e69	-0.19249882
160	0xbe8eeb7c	-0.27914035
161	0x3c7b01c3	0.015320244
162	0x3da6754f	0.081278436
163	0xbdec5eee	-0.11541544
164	0xbe06fc59	-0.131822
165	0xbd1fd17a	-0.03901813
166	0xbe11424f	-0.14185451
167	0xbe64da9f	-0.22349022
168	0xbcec2740	-0.02882731
169	0xbd906c40	-0.07051897
170	0x3da79a38	0.08183712
171	0xbdd157a4	-0.10221794
172	0x3d748bcf	0.059703644
173	0x3e469da9	0.1939608
174	0x3d9eb6c1	0.07749701
175	0x3cc68b5c	0.024236374
176	0xbe8ca533	-0.27469787
177	0xbda580bc	-0.08081195
178	0x3e232abf	0.15934275
179	0x3d8039dd	0.062610365
180	0x3e608611	0.21926142
181	0xbed4cf01	-0.4156418
182	0xbc8d5bc8	-0.017255679
183	0x3e81995c	0.25312316
184	0xbc085e4d	-0.008323264
185	0x3e712a6c	0.23551339
186	0x3dad3a5c	0.08458397
187	0xbea6d726	-0.3258602
188	0xbe485623	-0.19564109
189	0xbe12465d	-0.14284654
190	0xbe183a53	-0.14865999
191	0x3beeaeb4	0.00728401
192	0xbe58629f	-0.21131371
193	0xbd26c4de	-0.04071509
194	0x3d16910b	0.036759418
195	0x3d515e26	0.051115178
196	0xbe31a159	-0.17346705
197	0xbe092985	-0.13394745
198	0xbe7e1ca8	-0.24815619
199	0xbd5abc84	-0.05340244
200	0xbd4aa81f	-0.04947674
201	0x3da27ce0	0.07933974
202	0xbe6a8157	-0.22900902
203	0xbd8b2be2	-0.06795479
204	0x3dc14e8f	0.09438812
205	0xbea3824b	-0.31935343
206	0x3dfedfa5	0.124450006
207	0xbc62eed2	-0.0138508845
208	0xbddb6356	-0.10712306
209	0x3d0f8103	0.035035145
210	0x3cee0e69	0.029059606
211	0x3d1b430b	0.037905734
212	0x3d46ea03	0.048563015
213	0xbda22595	-0.079173245
214	0x3e6b6ba7	0.22990285
215	0xbe327983	-0.17429166
216	0xbe79d7dd	-0.24398752
217	0xbe2dae2c	-0.16960973
218	0x3d8bf758	0.068342865
219	0x3dcb70e9	0.09933645
220	0x3d0c0574	0.034184888
221	0x3d3d86f8	0.046271294
222	0xbd87288d	-0.06599531
223	0xbdbbf3e2	-0.09177376
224	0xbe7d7585	-0.24751861
225	0xbcdb3e09	-0.02676298
226	0xbe2942a1	-0.16529323
227	0xbe8e3b14	-0.27779448
228	0x3dc8ebbb	0.09810587
229	0x3e635546	0.22200498
230	0x3e42ea02	0.1903458
231	0x3e45608d	0.19275112
232	0xbdb75ac6	-0.089528605
233	0x38c35117	9.313429e-05
234	0xbeaacea8	-0.3336079
235	0xbcc619be	-0.024182197
236	0xbd58015d	-0.052735675
237	0x3e84b022	0.2591563
238	0x3c639cd5	0.013892372
239	0xbdb68194	-0.08911434
240	0xbdd678e5	-0.104722776
241	0xbdbee3f9	-0.09320826
242	0xbd98d73b	-0.07462927
243	0xbccbf38f	-0.024896411
244	0xbe19fbe7	-0.150375
245	0xbd072a73	-0.032999467
246	0x3ec5e296	0.38649434
247	0x3bffe186	0.007808867
248	0xbd257698	-0.040396303
249	0xbe7a1774	-0.24423009
250	0x3eae9036	0.340944
251	0xbe846e4c	-0.258654
252	0xbe311400	-0.17292786
253	0xbe1d8fd5	-0.15386899
254	0x3df3cbad	0.119040824
255	0x3cf3d997	0.02976684

network_body._body_endoder.seq_layers.4.bias f4 [128]
0	0x3e07e81d	0.13272138
1	0xbe5dc0e3	-0.21655612
2	0xbde9a07b	-0.11407562
3	0xbe321178	-0.17389476
4	0xbde1c0b1	-0.11023081
5	0xbdf6ece7	-0.12056904
6	0x3be8be5b	0.0071027703
7	0xbc8a4df3	-0.016882872
8	0x3d0d52e3	0.034502875
9	0xbe2ebd44	-0.17064387
10	0x3d8687d5	0.06568877
11	0x3d58a43c	0.052891
12	0x3ce68d51	0.028143557
13	0x3cd548a5	0.026035616
14	0xbc1bff37	-0.009521297
15	0xbd82cf36	-0.063871786
16	0xbd89c4d1	-0.06726993
17	0xbcbc36f6	-0.022975426
18	0xbd56b94c	-0.052422807
19	0xbe268e2f	-0.16265176
20	0xbe40d599	-0.18831481
21	0xbd03eff0	-0.032211244
22	0xbcb77062	-0.022392455
23	0x3d7b748d	0.06139045
24	0xbc5f9581	-0.013646484
25	0xbc504505	-0.012711768
26	0xbd9e8cbd	-0.077416874
27	0xbd17f338	-0.037097186
28	0xbc129c03	-0.008948329
29	0xbdbae053	-0.09124818
30	0xbe26e5e6	-0.16298637
31	0xbd66c0a7	-0.05633607
32	0xbded1657	-0.115765266
33	0xbcaf4a88	-0.021397844
34	0xbd8f67d9	-0.07002229
35	0xbdc0ebe6	-0.09419994
36	0xbd430caa	-0.0476195
37	0xbe85d6e7	-0.2614052
38	0xbd1967d0	-0.03745252
39	0xbe0262fe	-0.12733075
40	0xbd84e1ef	-0.06488406
41	0xbd803726	-0.06260519
42	0xbd7ee337	-0.062228408
43	0xbe2adc55	-0.16685612
44	0xbdf87fda	-0.12133761
45	0x3c8508c1	0.016239526
46	0xbdff2364	-0.12457922
47	0x3c768390	0.015046015
48	0xbd7505b9	-0.05981991
49	0x3c300c8d	0.01074518
50	0xbdf8bba5	-0.12145165
51	0xbd851b3b	-0.064993344
52	0x3d990d2c	0.074732155
53	0x3c4a7a96	0.012358328
54	0xbd8cc948	-0.06874329
55	0xbcb3c6f8	-0.021945462
56	0x3c9390bc	0.01801335
57	0xbe061900	-0.13095474
58	0xbe0e41cc	-0.13892287
59	0xbd2b69e8	-0.041849047
60	0x3cdda29e	0.027055081
61	0x3de174df	0.110086195
62	0x3b8bcb09	0.004266147
63	0x3d890c99	0.06691856
64	0x3cae6360	0.02128762
65	0xbd980c81	-0.0742426
66	0xbca76878	-0.020435557
67	0xbda50d93	-0.0805923
68	0xbcd8cd26	-0.02646501
69	0xbc39194f	-0.011297538
70	0xbd64225d	-0.055696834
71	0xbe44d9b9	-0.1922368
72	0xbc08a6c5	-0.008340542
73	0xbcd23a1d	-0.025662476
74	0x3b915e94	0.0044363234
75	0xbe047e15	-0.12938721
76	0xbe203dd3	-0.15648584
77	0xbcea7fe8	-0.028625444
78	0x3c5c5c76	0.013449779
79	0xbdd77c7d	-0.10521791
80	0xbdebada5	-0.115077294
81	0xbc47bd54	-0.012191135
82	0xbe399ff3	-0.18127422
83	0xbe5babd5	-0.21452267
84	0x3dd7cfaf	0.105376594
85	0x3b60d7ab	0.0034308236
86	0xbcbf007a	-0.023315657
87	0xbd6c7864	-0.057732
88	0xbd3a7159	-0.045518253
89	0xbba14f72	-0.0049228007
90	0xbd4254db	-0.047444206
91	0x3ac81bf0	0.0015267115
92	0xbde121f1	-0.10992802
93	0x3e225ba1	0.15855266
94	0xbb64c0e2	-0.0034905006
95	0x3cab701e	0.020927485
96	0x3d0571a0	0.032579064
97	0xbd072770	-0.032996595
98	0xbdb3b631	-0.08774985
99	0xbde4548d	-0.11148939
100	0x3cdbf359	0.026849436
101	0xbb8538fe	-0.004065632
102	0x3c2cf765	0.01055703
103	0x396bf5ca	0.0002250291
104	0xbc94cbb7	-0.018163545
105	0xbe5b597e	-0.21420857
106	0xb9504123	-0.00019860691
107	0x3de1e9c8	0.11030918
108	0xbe6622ad	-0.22474165
109	0xbe7ca34a	-0.24671665
110	0x3d838a6b	0.064228855
111	0x3c9d3749	0.019191401
112	0xbc5ec512	-0.01359679
113	0xbd0964bc	-0.033543333
114	0xbd354ca0	-0.04426253
115	0xbe28bbbe	-0.16477868
116	0xbdb32608	-0.08747488
117	0xbe8200f8	-0.25391364
118	0x3e016416	0.12635836
119	0xbe0e75c0	-0.13912106
120	0xbd20e947	-0.03928497
121	0x3e116956	0.14200339
122	0xbd0b3f2c	-0.033995792
123	0xbcb54f83	-0.02213264
124	0x3a7b8b55	0.0009595652
125	0xbcbe8ba7	-0.02325995
126	0x3b8a99f6	0.0042297794
127	0x3cadb8b4	0.021206237

action_model._discrete_distribution.branches.0.weight f4 [3, 128]
0	0x3dd4da35	0.10393182
1	0xbd3c9288	-0.04603818
2	0x3d4d007c	0.05004929
3	0x3eee41ff	0.46534726
4	0x3c6d4fad	0.014484328
5	0x3d497353	0.049182247
6	0xbd843b83	-0.064566635
7	0x3bbc9d45	0.0057560527
8	0xbbe304c6	-0.0069280593
9	0x3c4d77d8	0.01254078
10	0xbe6c26bf	-0.23061655
11	0xbbdf1753	-0.0068082004
12	0x3c4ddd4d	0.012564969
13	0xbcab8e1c	-0.020941786
14	0xbb3d41c3	-0.0028878308
15	0x3c2dae17	0.010600588
16	0xbd1145ba	-0.035466887
17	0xbafeb6c2	-0.0019433128
18	0xbd1daeca	-0.03849677
19	0xbc989763	-0.018626874
20	0xbdc246bf	-0.0948615
21	0x3c9ab051	0.018882902
22	0x3d238214	0.039918974
23	0xbc54b313	-0.012982148
24	0x3e96b3a7	0.2943394
25	0x3d382fa7	0.04496732
26	0x3d3e7c78	0.04650542
27	0x3c47b3cf	0.012188866
28	0x3ce1ca8f	0.027562408
29	0x3e0d368a	0.13790336
30	0x36facabe	7.474183e-06
31	0xbe277d4d	-0.16356392
32	0xbf1258bd	-0.57166654
33	0xbd0d5a8d	-0.034510184
34	0xbd8b1bf4	-0.06792441
35	0x3c5e3c28	0.013564147
36	0xbe27aa8a	-0.16373649
37	0xbd2a9478	-0.041645497
38	0xbc876129	-0.016525822
39	0xbd53b5d0	-0.05168706
40	0xbbe0136d	-0.0068382532
41	0xbaf23aa9	-0.0018480617
42	0x3cfb3691	0.030665668
43	0x3e1ad7f2	0.15121439
44	0xbf46bf45	-0.77635604
45	0x3db0b32c	0.08627924
46	0x3e1b2907	0.1515237
47	0xbee39cef	-0.44455668
48	0x3c7f8d85	0.015597706
49	0xbf13d201	-0.57742316
50	0xbe44fe40	-0.19237614
51	0xbe573925	-0.21017893
52	0xbf21a381	-0.6314011
53	0xbdb6564b	-0.08903178
54	0xbecc8616	-0.3994605
55	0xbd561aca	-0.05227164
56	0xbded4d7b	-0.11587044
57	0x3e3e34a4	0.18574768
58	0x3ba38ff5	0.0049915262
59	0x3c536105	0.012901549
60	0xbc9643d4	-0.01834289
61	0xbb2ac967	-0.0026059987
62	0xbc6f5077	-0.014606587
63	0x3c1f62ee	0.0097281765
64	0xbaea951a	-0.0017897219
65	0xbd5469fd	-0.05185889
66	0xbeb9e474	-0.36307108
67	0xbe1a0d92	-0.15044239
68	0x3beced74	0.007230455
69	0xbbae5d5c	-0.005321188
70	0x3dd7c30b	0.10535248
71	0xbc90a9fb	-0.017659178
72	0x3d22bdc4	0.039731756
73	0x3d476c75	0.048687417
74	0xbd1e42a7	-0.038637783
75	0xbe91b8f9	-0.28461435
76	0x3d512bbd	0.051067103
77	0xbcf12e2d	-0.029440964
78	0x3bf3f2f7	0.007444735
79	0xbe1ade13	-0.15123777
80	0xbbbaf02d	-0.0057049007
81	0x3a80cb60	0.0009826235
82	0x3cce2889	0.025165813
83	0x3e8025d1	0.25028852
84	0x3e247123	0.16058783
85	0x3d578752	0.052619286
86	0xbf2352ea	-0.6379839
87	0xbcdaee06	-0.026724827
88	0xbcf25a3a	-0.029584039
89	0x3d64a1d2	0.055818386
90	0xbd70d25d	-0.058794368
91	0xbbd592e1	-0.0065177535
92	0x3ed2b8d2	0.41156632
93	0xbe7b852c	-0.2456252
94	0xbd084ab9	-0.033274386
95	0xbd06ff0d	-0.03295808
96	0x3cb51876	0.02210639
97	0xbda97a14	-0.08275238
98	0xbe029910	-0.12753701
99	0x3d3e047a	0.046390988
100	0x3d92f0e6	0.07174854
101	0x3f0c5c70	0.5482855
102	0x3b194ba1	0.0023391026
103	0xbbfda08f	-0.0077400873
104	0x3e7483b6	0.23878369
105	0xbc9d4be8	-0.019201234
106	0xbd0efff5	-0.03491207
107	0xbd1882b1	-0.037234012
108	0xbd73f981	-0.059564117
109	0x3d58608d	0.052826453
110	0x3e85abd5	0.2610766
111	0xbdee2039	-0.1162724
112	0x3d43ecaa	0.047833122
113	0x3aa7b37a	0.0012794577
114	0xbc86d606	-0.016459476
115	0x3ece842c	0.40335214
116	0x3e06787e	0.13131902
117	0x3bfaadb1	0.0076501
118	0xbefcc47e	-0.49368662
119	0x3c3d9431	0.011570976
120	0xbd64c71a	-0.05585394
121	0x3e98c6d8	0.29839206
122	0xbd4824d1	-0.048863236
123	0x3d0f4c28	0.034984738
124	0x3cc303b5	0.023805479
125	0x3c84d7b9	0.016216146
126	0x3d7f3fd3	0.062316727
127	0x3a2f39a8	0.00066843117
128	0xbd98e73b	-0.07465979
129	0x3c9aa417	0.018877072
130	0xbd4647a6	-0.048408173
131	0xbed366e3	-0.41289434
132	0xbd0b9d00	-0.034085274
133	0xbd582cea	-0.05277721
134	0x3d84cbfa	0.06484218
135	0x3c241272	0.010014163
136	0xbab1acae	-0.0013555491
137	0xbd5b892a	-0.053597607
138	0x3e469ee8	0.19396555
139	0xbc5f279d	-0.013620284
140	0x3c684b80	0.014178157
141	0x3cb91930	0.022595018
142	0x3cbd9143	0.023140555
143	0xbb539fd1	-0.0032291303
144	0x3d256888	0.040382892
145	0xbb4a2984	-0.00308475
146	0x3d51441a	0.051090337
147	0xbd3c6ff7	-0.046005215
148	0x3d2266df	0.039648887
149	0xbcffd12b	-0.031227669
150	0xbd42e436	-0.04758092
151	0x3d59d70d	0.053183604
152	0xbe842aef	-0.25814006
153	0xbc0cc17c	-0.008591052
154	0xbd10e9a4	-0.035379067
155	0xbcaafc79	-0.020872341
156	0x3b1947df	0.0023388786
157	0xbe0de2b2	-0.13856009
158	0xbd295e14	-0.041349486
159	0x3e0e409f	0.13891838
160	0x3f04744f	0.5173997
161	0x3d2003e9	0.03906623
162	0x3db1fbe1	0.0869062
163	0xb9d3ef33	-0.00040423273
164	0x3de322b6	0.11090605
165	0x3bfa9ea4	0.007648306
166	0xbbbdce5a	-0.0057924213
167	0xbc803fb6	-0.01565538
168	0x3cf59727	0.029979302
169	0x3c27c815	0.010240574
170	0xbc969e08	-0.018385902
171	0xbe348bd1	-0.1763146
172	0x3f32f0ca	0.69898665
173	0xbd8d0a62	-0.06886746
174	0xbddb3501	-0.10703469
175	0x3ed7022a	0.4199384
176	0xbbe42b7d	-0.006963192
177	0x3f215066	0.63013303
178	0x3d98471d	0.07435439
179	0x3e458018	0.19287145
180	0x3f213d5e	0.62984264
181	0x3daaaf16	0.08334176
182	0x3eb6a92e	0.3567595
183	0x3d82a827	0.06379729
184	0x3e20a611	0.1568835
185	0xbe4899e6	-0.19589958
186	0xbdaea1dd	-0.08526967
187	0xbc41b70a	-0.011823425
188	0x3cb74f55	0.022376696
189	0x3ce36dc7	0.027762307
190	0x3d5990db	0.05311666
191	0x3d2d4940	0.042306185
192	0x3c33641d	0.010949162
193	0xbb46360d	-0.003024462
194	0x3ead4b36	0.33846444
195	0x3da6a340	0.08136606
196	0xbd2caf13	-0.04215915
197	0x3d52de17	0.051481333
198	0xbd274734	-0.04083939
199	0xbd288c29	-0.041149292
200	0xbd516fe6	-0.051132105
201	0xbd2ce195	-0.04220732
202	0x3cf722bd	0.030167932
203	0x3e5c7dbc	0.21532339
204	0xbd56bf90	-0.052428782
205	0x3cd9a13c	0.02656614
206	0xbcaaba82	-0.020840887
207	0x3dce5ed9	0.100766845
208	0xbd002515	-0.031285364
209	0x3c666168	0.014061309
210	0xbd4ec1f4	-0.050477937
211	0xbe7f4482	-0.24928477
212	0xbde2e512	-0.11078848
213	0xbd445f39	-0.047942374
214	0x3f19fc44	0.6015055
215	0x3c85ddc5	0.0163411
216	0x3ceb1977	0.028698666
217	0xbd589309	-0.0528746
218	0x3d143279	0.036180947
219	0x3d089813	0.033348154
220	0xbea1d36c	-0.31606615
221	0x3e977c9b	0.29587254
222	0x3c5e46e1	0.013566704
223	0x3d5cb13a	0.053879954
224	0x3d03d4fe	0.032185547
225	0x3d92cb79	0.071677156
226	0x3e09c65c	0.13454574
227	0xbda81c16	-0.08208482
228	0xbd9a52c5	-0.07535318
229	0xbefcc524	-0.49369156
230	0xbc9c93fc	-0.019113533
231	0x3d0fd45c	0.03511463
232	0xbe3a9a51	-0.1822293
233	0xbcb8595d	-0.02250355
234	0x3d8c7c98	0.06859702
235	0x3d06df2c	0.032927677
236	0x3cff6f05	0.031180868
237	0xbd666c83	-0.05625583
238	0xbe5757b1	-0.21029545
239	0x3dde6c5a	0.1086051
240	0xbd9678dc	-0.07347271
241	0x3c2706d0	0.010194495
242	0x3ce5dd74	0.028059699
243	0xbe9aefa4	-0.30260956
244	0xbdb5a9db	-0.08870288
245	0xbca6c785	-0.02035881
246	0x3f0c083a	0.5470005
247	0xbd26d373	-0.040728997
248	0x3d67e3a0	0.056613564
249	0xbe52d09f	-0.20587395
250	0x3c91f401	0.017816545
251	0xbcb80078	-0.022461161
252	0xbd33b83f	-0.043876883
253	0x3bb4c682	0.005516828
254	0xbc5fc650	-0.013658121
255	0x3c6ee810	0.014581695

action_model._discrete_distribution.branches.0.bias f4 [3]
0	0x3c9eac21	0.019369187
1	0x3c10925d	0.008823958
2	0xbe062ff1	-0.13104226

action_model._discrete_distribution.branches.1.weight f4 [3, 128]
0	0x3d8bd0da	0.06826945
1	0x3c793bd2	0.015212016
2	0x3d63ef8c	0.05564837
3	0x3e049fcf	0.12951587
4	0xbd888880	-0.0666666
5	0x3be4bc7d	0.0069804774
6	0xbd0200ae	-0.03173893
7	0xbc3ee71e	-0.011651782
8	0xbc9248f7	-0.017857058
9	0xbd10d89f	-0.035362836
10	0xbd837832	-0.0641941
11	0xbd1fb9c1	-0.038995508
12	0x3e622598	0.22084653
13	0xbd085dd4	-0.033292606
14	0xbb83b039	-0.00401881
15	0xbdc18b47	-0.09450393
16	0x3c264cd7	0.010150156
17	0x3cb3bbcc	0.021940134
18	0x3bcc95a3	0.006243424
19	0xbd659e9a	-0.056059457
20	0x3db0b0cd	0.08627472
21	0xbc8d57ce	-0.017253783
22	0xbcce643f	-0.025194285
23	0xbc1fa751	-0.009744481
24	0x3a4addf6	0.0007738763
25	0xbd26320e	-0.04057508
26	0x3d0bf37e	0.03416776
27	0x3d9c5f67	0.07635384
28	0xba72dc14	-0.00092643616
29	0xbe17eea3	-0.14837126
30	0xbc3eb231	-0.011639164
31	0x3c58f5d5	0.013242205
32	0xbd20d67f	-0.03926706
33	0xbb7fdef3	-0.00390428
34	0xbddc8e39	-0.10769314
35	0xbc0b14a7	-0.008488811
36	0x3dac18a6	0.08403139
37	0xbd9ced48	-0.07662445
38	0xbb1cb473	-0.0023911267
39	0xbd9f8d5a	-0.077906325
40	0x3d5cd399	0.053912733
41	0xbb5fe0c5	-0.0034161073
42	0x3cffaf5c	0.031211548
43	0x3d5582eb	0.052126806
44	0xbd9c0ced	-0.07619653
45	0xbd2da156	-0.04239019
46	0xbe6bf206	-0.23041543
47	0xbe10c400	-0.14137268
48	0x3e0c66f9	0.13711156
49	0xbcff04b7	-0.031130178
50	0x3c8aa8f5	0.016926268
51	0xbe3124cd	-0.17299195
52	0x3ea8f893	0.33002147
53	0xbd3135c0	-0.04326415
54	0x3cb21f11	0.02174333
55	0x3c4bf253	0.012447911
56	0xbc250b38	-0.010073476
57	0x3d9a36d6	0.075299904
58	0xbd9b2f2d	-0.075773574
59	0xbbd6bbaa	-0.006553133
60	0xbd1e7baa	-0.038692154
61	0xbc7f4ee6	-0.015582776
62	0x3cb26013	0.021774327
63	0x3d2f9b23	0.04287256
64	0x3a50e72d	0.0007969018
65	0xbc9c56f7	-0.019084437
66	0x3b961538	0.004580166
67	0xbdd99e81	-0.10625935
68	0x3af864eb	0.0018950974
69	0x3daefebd	0.08544681
70	0xbd5dc77d	-0.054145325
71	0xbd925d95	-0.071467556
72	0xbd0415b4	-0.03224726
73	0xba418b79	-0.0007383149
74	0xbc63f02c	-0.013912242
75	0x3c9a4919	0.018833684
76	0xbd3dc066	-0.046326064
77	0x3cfc060d	0.030764604
78	0xbd118813	-0.03553016
79	0x3cc27f32	0.023742292
80	0x3c10ead3	0.008845049
81	0xbcc11a5c	-0.02357214
82	0xbcb6ce50	-0.022315174
83	0xbd0bce20	-0.034132123
84	0x3da9dcb9	0.08294053
85	0xbdafe72e	-0.08589016
86	0x3c8d2200	0.017228127
87	0x3d51d321	0.05122674
88	0x3cd883c0	0.02643001
89	0xbc6fa10a	-0.014625797
90	0x3b3f319b	0.0029173854
91	0x3b899560	0.004198715
92	0x3de7349a	0.1128933
93	0x3d188bd7	0.037242737
94	0x3d3e3dfc	0.04644583
95	0xbd0fe0a8	-0.03512636
96	0x3d561db0	0.052274406
97	0x37b56813	2.1625345e-05
98	0xbe376f48	-0.17913544
99	0xbdc6c6c9	-0.09705884
100	0xbeaa2157	-0.3322856
101	0x3c15cb4c	0.009142708
102	0xbd1f38dc	-0.038872585
103	0xbd80c057	-0.06286686
104	0xbe340c48	-0.1758281
105	0xbd9ae4ba	-0.075631574
106	0x3d2e116f	0.042497095
107	0x3b98ccd9	0.0046630916
108	0x3e2226fa	0.15835181
109	0xbd05748b	-0.032581847
110	0x3d9da0d9	0.07696695
111	0x3b9e6a36	0.0048344387
112	0xbd54f7d1	-0.05199415
113	0x3c3b15b7	0.011418751
114	0x3c124f57	0.008930049
115	0xbadf731d	-0.0017047856
116	0xbe04aef5	-0.12957366
117	0xbd8d55be	-0.0690112
118	0x3e21c140	0.15796375
119	0xbca2ce43	-0.019873744
120	0xbd798091	-0.060913626
121	0x3d994d0e	0.074854
122	0x3de2d10c	0.11075029
123	0x3c82676b	0.015918454
124	0xbd7490d6	-0.05970844
125	0xbb8c183a	-0.004275349
126	0x3d92c0ba	0.07165666
127	0x3d4ea9cd	0.050454903
128	0x3dd1f608	0.10252005
129	0x3de59a53	0.11211076
130	0x3d80775c	0.06272766
131	0xbe6c9ce1	-0.2310672
132	0x3dc85ec0	0.09783697
133	0x3de45b82	0.11150266
134	0xbe011486	-0.12605485
135	0xbdcf5d93	-0.1012527
136	0xbe0e8892	-0.13919285
137	0x3e0ed663	0.1394897
138	0x3e41ce67	0.18926392
139	0xbe5f1aba	-0.21787539
140	0x3c7a324d	0.015270782
141	0xbe17821a	-0.14795724
142	0x3dcab32f	0.09897458
143	0x3e247fd6	0.1606439
144	0x3c7f124b	0.015568326
145	0x3cde1c30	0.02711305
146	0x3ddc161f	0.10746407
147	0x3daaf0f5	0.0834674
148	0x3db1efd4	0.08688322
149	0xbd8eb68d	-0.069684125
150	0x3e2b7b90	0.16746354
151	0xbe00fa32	-0.12595442
152	0x3e318b74	0.17338353
153	0x3d8f6406	0.070015
154	0x3d288dcd	0.041150857
155	0x3cbb1b0d	0.022840047
156	0xbd734cf7	-0.05939957
157	0x3e56624c	0.20935935
158	0x3e0080ed	0.12549181
159	0x3d104348	0.035220414
160	0x3db13047	0.08651786
161	0xbde98d01	-0.114038475
162	0x3df4ad39	0.11947102
163	0x3b242b1a	0.0025050105
164	0xbe1d2766	-0.1534706
165	0x3e0d9b65	0.1382881
166	0xbb424898	-0.002964532
167	0x3d83288f	0.0640422
168	0x3db2eac9	0.08736188
169	0x3d73319c	0.059373483
170	0x3ccaf150	0.02477327
171	0xbe2ce657	-0.16884743
172	0x3d7d0dfe	0.061780922
173	0xbde6fba5	-0.11278466
174	0x3e54d77a	0.20785323
175	0x3e3fd464	0.18733364
176	0xbd474a6c	-0.04865496
177	0xbd690f77	-0.056899514
178	0x3ded7db2	0.1159624
179	0x3df1cfd8	0.11807221
180	0xbee6eeec	-0.45104158
181	0xbe24db99	-0.16099395
182	0x3d583f8e	0.052794985
183	0x3d910a4c	0.07082042
184	0xbdd14eb3	-0.10220089
185	0xbd985e0f	-0.07439815
186	0x3df646b6	0.12025206
187	0xbd23b1b4	-0.039964393
188	0xbe13931d	-0.14411588
189	0xbe431ab6	-0.19053158
190	0x3d36018b	0.044435065
191	0x3d00b847	0.03142574
192	0xbde6c384	-0.112677604
193	0x3dd2f6da	0.103009894
194	0xbcefd1cb	-0.029274842
195	0x3e320d29	0.17387833
196	0xbb5691c8	-0.00327407
197	0x3d9505cd	0.07276497
198	0x3de513cd	0.11185417
199	0x3def45bd	0.116832234
200	0x3ddbfec9	0.10741956
201	0x3daebc2e	0.08531986
202	0xbda2c905	-0.07948498
203	0x3d01f1ee	0.031724863
204	0x3cbd3f32	0.023101423
205	0xbd808e73	-0.0627717
206	0xbe231a31	-0.1592796
207	0xbceff9ba	-0.029293884
208	0x3ddff542	0.10935451
209	0xbde640c1	-0.112428196
210	0x3e18b0a7	0.14911138
211	0xbac33175	-0.0014892059
212	0x3d8db58c	0.06919393
213	0x3e32894f	0.17435192
214	0x3d2bbfc5	0.041930933
215	0x3cca3910	0.024685413
216	0x3d37fb1b	0.044917207
217	0xbdaa472c	-0.08314356
218	0xbd582e64	-0.052778617
219	0x3df39227	0.11893111
220	0xbee5556e	-0.4479174
221	0x3e3352ab	0.17512004
222	0x3d7be970	0.06150192
223	0xbe0b281e	-0.13589522
224	0x3d035408	0.03206256
225	0xbdd7ded0	-0.10540545
226	0x3e11dd88	0.14244664
227	0x3dfb8c79	0.122826524
228	0x3b8ba68a	0.0042617964
229	0xbe69593a	-0.22787943
230	0x3e095666	0.13411865
231	0x3e269ab6	0.16269955
232	0x3e75167f	0.23934363
233	0x3df4b675	0.119488634
234	0x3d8afb68	0.06786233
235	0xbe67a2b3	-0.22620659
236	0x3dd22733	0.10261383
237	0x3d91ca92	0.07118715
238	0x3df2672f	0.11836087
239	0xbe18254c	-0.14857978
240	0x3e11c521	0.14235355
241	0x3d3dad8e	0.046308093
242	0x3cc58c52	0.024114762
243	0xbe69b1a9	-0.22821678
244	0x3d748fc1	0.059707407
245	0x3deb87cd	0.11500511
246	0xbd2608fc	-0.040535912
247	0x3de0e6b8	0.10981506
248	0xbd8e162f	-0.06937825
249	0xbd4bd787	-0.04976609
250	0x3d1c64ae	0.038181953
251	0xbd25a75b	-0.040442806
252	0xbe1b4e2e	-0.15166542
253	0xbc147319	-0.009060645
254	0x3dafc804	0.08583072
255	0x3dd5e35e	0.104437575

action_model._discrete_distribution.branches.1.bias f4 [3]
0	0x3bf84a41	0.007577211
1	0xbde7ff1f	-0.11327957
2	0x3d829ecb	0.063779436
