results/ppo/BotControllerAgent/BotControllerAgent-2773483.onnx (onnx, 130130 bytes, 9 tensors)

discrete_act_size_vector f4 [1, 2]
00000000: 0000 4040 0000 4040
3.0 3.0

network_body._body_endoder.seq_layers.0.weight f4 [128, 104]
00000000: fd14 23be 1097 3cbd 2c30 3cbd 8acc 57bd
00000010: 2427 303e 2ad3 29be bdeb 38bd 9705 0a3d
00000020: 0645 12be e839 27be 1533 d6bd 357d 033e
00000030: 8a94 6a3d 3955 333f 0f20 cf3c 3c20 153e
00000040: 16fe 76bd 7898 4f3f 7e95 b13c d9ea abbe
00000050: 1e0f 863c 5b51 53bd 09b9 d23d 51ef 303e
00000060: 9542 be3d 4b8b afbe 1cd5 4a3d 8601 b0bc
00000070: 4e7c 923b fb06 5cbd 6f30 8f3e 5937 1b3d
00000080: f123 533e bce1 2e3f 7f30 923d d3dd 7b3e
00000090: 99fd 4f3e a4aa 2c3f 2cd1 9dbd 2aa7 ddbc
000000a0: a936 af3e e5ee b1bc 979a 683d 353a d2bc
000000b0: 46ac ab3d fe01 aebe fd6c 023e ebd9 8d3d
000000c0: c8c2 063d f9e0 b4bc dcc6 1bbe 8131 86bd
000000d0: 257c cc3d 1300 8dbd c76c 16bd 375b 443e
000000e0: fa19 babd 8878 533f 4caf b03c d6bd 15be
000000f0: 1805 8b3e 8128 bc3c 3b89 763c 80c7 bd3d
00000100: 55a7 3fbe 8de9 8dbd daf9 a53c c147 963e
00000110: 0bf6 683c 7e00 193e 7fcb adbd feda 20be
00000120: 8005 f3bd 2a7f 23be 6b0e 1e3d 2737 b8bd
00000130: c1f3 bbbd 62c0 343f 2d4c 99bb c4e3 383e
00000140: 2670 5d3e a03a 1a3e 6f36 3b3e 07a1 183f
00000150: b09a b23d cafc af3d 9bfb f4bd 3643 a83e
00000160: 05a4 98bc dfe6 98bd e8dd b33d 4039 4a3d
00000170: fb85 2f3e 570b 1bbf 3ad3 59bc dbae 85be
00000180: a45e 25be 01bd 493f d82f 52bd c2f6 883e
00000190: 80e6 d3bd a809 7a3d cd69 01bd 6857 81bf
000001a0: 7ea0 a83e f9bf ee3c 5985 d53c 331c 22be
000001b0: c8ae aebe 2704 853e 67c5 1e3e 0b15 adbe
000001c0: e904 19be 6654 c63e 3706 043d 682a 0fbd
000001d0: 2d4d 8a3d fffe 88be 3963 013e 5b45 9ebe
000001e0: 59da d53c e082 f5bd 2367 9fbd 95b0 06bd
000001f0: dbaf 4abe 0fb8 0cbe 7d40 0bbd ebe5 493d
00000200: f0bf b23c 7f9b c73d c4a0 623c 14be aebe
00000210: 0ae6 47be 2b07 9b3e 351f cf3b e141 05bd
00000220: ef8a 19be c6c6 ba3e 82c6 e23d 6790 9cbe
00000230: 7a71 d53b d48b d4bd 125c a83d ccb6 2e3d
00000240: 4909 63be 59eb 5a3c 76aa cabd f0c7 9a3d
00000250: 4e27 e7bd 9150 1d3e 453e f3bd 9797 f3be
00000260: 9d31 abbd 8790 423e 8511 1c3d aac6 f1bc
00000270: 76a1 debd 7b01 1ebe 7c64 a03d d25b a2be
00000280: 6596 4fbd 47a5 9fbe ee57 88bc 419c 17bb
00000290: 5e0a 46bd 6419 573d 16fd 063e d387 58be
000002a0: 75ce 8abe 6764 7f3e cc69 00bd d59c d1be
000002b0: d18e 6fbe e6d1 383e 9155 5f3d e507 6bbd
000002c0: 5563 4dbe d684 773e 4cd8 aa3d c761 91be
000002d0: 3c57 ed3d 40a6 8dbe 0ff2 d43c b705 e33d
000002e0: 7901 fe3e f461 20be 1019 353d fc78 40be
000002f0: e202 37bd 3764 423f 76b4 7b3d b461 babd
00000300: 5d18 333e 9407 cd3c 96a5 80bc a915 ccbc
00000310: 13d9 993c 6bfa f93e 08b2 a13c f1d2 213d
00000320: 6e8a d33d b509 f2be 5940 66be 511b 4f3e
00000330: 647e 21bc dd64 edbe 2302 6dbd a594 e5be
00000340: b0ee 143e 1cc0 b83d c6e2 8bbd 87d3 5d3e
00000350: f48f 28bc 1d7b fc3d cfe7 64bd f046 a73d
00000360: 12ad 963d 135f 303e 7bcc 173d 2b0e e6bd
00000370: e60d f7bd f6f4 abbe 1d47 103e d989 f5bd
00000380: 596e 883d 42ed bebe 4ca9 9abd 3621 653d
00000390: bac9 bbbd 8a73 7cbe bbf0 973d d324 02bd
000003a0: 30df 70bc 46c8 3a3e e0f2 e43d b6d5 c4bd
000003b0: aea9 bd3c 48a8 49bd 57d8 f9bd 752d 983d
000003c0: 7232 113e f71e 06be 9994 413e 8493 c8be
000003d0: b481 f7bd b06a ac3c 30d8 883c a5ee 0d3e
000003e0: cfe8 cf3d d86d 29be 573b ec3d e66e 84bd
000003f0: 7701 053e aed9 753e eb8c f2bd 25a6 99be
-0.15925975 -0.046042502 -0.045944378 -0.052685298 0.17202431 -0.16584459 -0.045146693 0.033696737
-0.14284143 -0.16330683 -0.10458962 0.12840731 0.057270564 0.70051914 0.025283841 0.14563078
-0.06030091 0.81092024 0.021677729 -0.33577612 0.01636463 -0.05159126 0.10289199 0.17278792
0.09290043 -0.3428596 0.049519643 -0.021485101 0.0044703847 -0.053717595 0.2796664 0.03789458
0.2061918 0.68313193 0.07138156 0.24596338 0.20311584 0.67447877 -0.07705912 -0.02705725
0.3422139 -0.02172036 0.056788053 -0.02566252 0.08382468 -0.33985895 0.12736888 0.0692633
0.0329006 -0.022079932 -0.15212578 -0.06552411 0.09984616 -0.0688478 -0.036724832 0.1917542
-0.09086986 0.8260579 0.021567963 -0.14623198 0.27152324 0.022968533 0.015047367 0.09266567
-0.18716176 -0.06929312 0.02026074 0.2935162 0.014218817 0.14941594 -0.084860794 -0.15708539
-0.118662834 -0.15966478 0.03858797 -0.089948945 -0.09177352 0.7060605 -0.0046782703 0.18055636
0.21624812 0.15061426 0.18282484 0.5962071 0.087209105 0.085931376 -0.119620524 0.32863778
-0.018632898 -0.0746591 0.0878256 0.049371004 0.17140953 -0.6056418 -0.013294989 -0.26109967
-0.16149384 0.7880402 -0.05131516 0.2675076 -0.10346699 0.061044365 -0.03159504 -1.0104799
0.32934946 0.029144274 0.026064562 -0.1583107 -0.34117723 0.2597973 0.1550499 -0.33805117
-0.1494328 0.38736266 0.03223249 -0.03495255 0.06753001 -0.26757047 0.12635507 -0.3091229
0.026105093 -0.11987853 -0.07783344 -0.032883245 -0.19793646 -0.13742088 -0.033997048 0.049291532
0.021820039 0.097464554 0.013832275 -0.34129393 -0.19521347 0.30278906 0.006320859 -0.03253353
-0.14994405 0.36479777 0.110730186 -0.3057892 0.0065137716 -0.103782326 0.08220686 0.042654797
-0.22171511 0.013361775 -0.09895794 0.07557666 -0.11286794 0.15362765 -0.11877111 -0.4757659
-0.08359072 0.19000445 0.038102645 -0.029513676 -0.1087064 -0.15430252 0.07831666 -0.31710678
-0.050680537 -0.31180784 -0.01664349 -0.0023133906 -0.04834973 0.05251445 0.13182482 -0.21145563
-0.2711064 0.24940644 -0.031350896 -0.40939966 -0.23394324 0.1804882 0.05452496 -0.057380576
-0.20057423 0.24171767 0.083420366 -0.2839491 0.11588904 -0.276659 0.025994329 0.110850744
0.496105 -0.15662366 0.044213355 -0.18796152 -0.044680484 0.75934166 0.061451398 -0.09100667
0.17489763 0.025028028 -0.015703958 -0.024912672 0.018780267 0.48823866 0.019738212 0.03950781
0.10329138 -0.4727303 -0.22485484 0.20225264 -0.009856794 -0.46366015 -0.057863366 -0.4483997
0.14544177 0.09021017 -0.06830363 0.21662723 -0.010288227 0.123281695 -0.055885132 0.08167827
0.07357229 0.17223768 0.037060242 -0.11233171 -0.12063198 -0.33585328 0.14089628 -0.11989183
0.06661672 -0.37290388 -0.07551822 0.055939876 -0.09169336 -0.2465345 0.074189626 -0.0317734
-0.01470165 0.18240461 0.11179137 -0.096110746 0.023152199 -0.04923275 -0.12199467 0.07430545
0.141794 -0.1309775 0.18904342 -0.39175045 -0.12085286 0.021046966 0.016704649 0.13860567
0.101518266 -0.16545808 0.11534756 -0.06466465 0.1298884 0.2400882 -0.11843284 -0.3000957

network_body._body_endoder.seq_layers.0.bias f4 [128]
00000000: 0c7b b13d b757 003e 929e 033d 3594 c03d
00000010: 9f67 b73d 0923 e43d b759 593d 2553 76bd
00000020: d3e9 da3c ddea 133d e17b 77bc 9863 873d
00000030: c053 5bbd 9276 60bc 4bd6 a73c ed4c 863d
00000040: 23fc ae3d a7dc 1d3d ff1a 1d3d 2681 a73d
00000050: b9b0 3b3d 015e 3a3d 47c6 6e3d 4727 d93c
00000060: 1760 c73c 15ba 38bd f591 4f3d 6a0e 843d
00000070: d508 2f3d c805 c9bb bd82 17be a775 153d
00000080: 89f9 373e 7ada 86bd 7292 bf3d 78dd a13d
00000090: b43f 973c a09e 373d a606 353d 2ff8 b738
000000a0: d1ed 223d e132 993d 476a 53bc 01cf 89be
000000b0: b967 fe3c 4055 e03c b1ba 893d 0afb 293d
000000c0: 9435 b23c f06c 32bc a8a7 ba3d 1d4a a7bc
000000d0: e13f 073d 585f 523c 0109 ccbc 10aa 6b3d
000000e0: 577e 093c d8e9 f53c c6b9 1a3d d8cd 283d
000000f0: 2b5b 7a3d a151 a43d e6e8 0f3d 01be d7bc
00000100: 2c81 14bd 28da 453d 9b15 cf3d 4013 503d
00000110: 2f7a a73c 4e99 c9bc f65c ee3d 4165 033d
00000120: 6d96 463d b760 dfba 81d2 aebd af0e b03d
00000130: a3da d63d 0071 c33d 4246 8dbd 68e3 e73c
00000140: fa5a 053d 14a7 303d 6863 0d3e 9b3d ed3c
00000150: 8a7e ac3d cb42 223d b259 ec3c 5e76 4e3c
00000160: 5cc0 443d 0bd8 a63d d029 e93c cee2 59be
00000170: a56b c43d 0a97 5bbc 9fcd 253d 2527 6c3d
00000180: 6999 523d 7096 9e3d 0790 c2bd 586b e7ba
00000190: 2555 9c3d f472 c53d 8d38 2d3d 067e 223d
000001a0: 7254 633d 1c69 223b 0139 fbbd 95c8 2a3d
000001b0: b683 4d3c 7c59 c6bd 4821 49bb 6dc1 703d
000001c0: 0383 d83c 57a3 7d3c 94f2 323d 59b0 d33d
000001d0: 4be9 1d3d 266c 033d 44c4 e6bc 2d04 ea3c
000001e0: 6080 073d 4296 4e3d 4e39 3c3d 9c6a 213d
000001f0: c5a1 eb3c 98cd 4f3d f4a5 423d 332a b83c
0.086660475 0.1253346 0.032133646 0.09403268 0.08955311 0.11139495 0.053064074 -0.060137887
0.026722824 0.036112655 -0.015105219 0.06610793 -0.053546667 -0.013700144 0.020487925 0.06557641
0.08544185 0.03854051 0.038355824 0.0817893 0.045822833 0.045499805 0.05829456 0.026507987
0.024337811 -0.045099337 0.050676305 0.06448062 0.042733032 -0.0061347224 -0.14795966 0.036489155
0.17966284 -0.0658464 0.09354104 0.0790357 0.018462993 0.04482901 0.044195794 8.772348e-05
0.03977758 0.074804075 -0.012903756 -0.26915744 0.031055318 0.0273844 0.06725062 0.041499175
0.021754064 -0.010890231 0.09114009 -0.020421082 0.033019904 0.0128401145 -0.024906637 0.05753523
0.008391938 0.030018732 0.037774824 0.041211933 0.0611221 0.08023382 0.03513422 -0.026335718
-0.036256 0.048303753 0.10111543 0.05079961 0.020444004 -0.024609234 0.11638825 0.032078985
0.0484833 -0.0017042373 -0.08536244 0.08596551 0.104909204 0.095430374 -0.06898166 0.028306678
0.032557465 0.043128088 0.13807452 0.02896004 0.08422573 0.03961448 0.028851364 0.012601463
0.04803501 0.08146676 0.02846232 -0.21277925 0.09590844 -0.01340271 0.0404793 0.05765452
0.051415835 0.077435374 -0.09500127 -0.0017655892 0.076334275 0.09641066 0.04229026 0.039670967
0.055500455 0.0024781888 -0.12266732 0.041695196 0.012543609 -0.096850365 -0.0030690003 0.058778215
0.026429659 0.015480838 0.04368837 0.1033637 0.038552564 0.03208556 -0.028169759 0.028566444
0.033081412 0.050436266 0.045953088 0.03940831 0.028763661 0.05073318 0.047521546 0.02248106

network_body._body_endoder.seq_layers.2.weight f4 [128, 128]
00000000: 28f6 ad3c 887a 8d3e b724 08be 31b4 953d
00000010: c8bd 0fbe 18ce b53d de70 bcbd b9a2 303e
00000020: dd18 b9be 0f32 4dbd c633 70be 7d54 4cbe
00000030: e784 913e 528d 33be e7fa 70be 46aa d3bc
00000040: b42d a53c 4b6b 6d3e c7d0 d8bc 776a 89bd
00000050: c0b1 cd3d ee6b 943d 125e 57be dcd6 133e
00000060: 2fc7 b1bc 8d8a 943d 24c3 e7bc dc9e 2b3d
00000070: ec10 d93d b857 2a3d 8224 26bd cc5c c9bd
00000080: 53e3 3e3e 4be8 84be 374b e63b 4066 fe3d
00000090: 577d 00be 3fe4 0ebd d888 703b d51c 063e
000000a0: 0f8a 733e d21e 1bbe 5307 d73c 2aca 9e3d
000000b0: 63a1 9d3d 481e a43d bf3f f7bd 8989 52bd
000000c0: f5be f9bd 3b92 a3be 2e0f f83b 612d f63d
000000d0: cd4d 69bd 6cc3 10bd 0db7 96bd d24f b9bc
000000e0: cefa bcbd 3133 a43d 86b4 21be 8501 2dbc
000000f0: 4d5f 27be 6c24 da3d 3350 ac3d 9392 3f3e
00000100: 6e76 25bd 65f9 5bbd 41b6 e83d 4c03 36bd
00000110: e5b8 dbbc 1895 02be ccdc 9c3d 88e2 69bc
00000120: f222 85be 5e99 7b3e 440b a1be 8f04 703a
00000130: 9481 b13c d5a7 363d 6998 c03e c35f 20bc
00000140: b269 54be 337f 98bd 070b 263e fdb3 4bbe
00000150: 6059 44be d328 113e 3ece 033d 3470 d7bd
00000160: bced 673d 4225 283d 40be 843b ff7e 44bd
00000170: 4154 adbe f704 4c3d 138d a83d 84a2 073d
00000180: 42dd 7a3c 7f45 17be a755 07be f1a7 88be
00000190: 3dc2 743b fa80 813e 17b9 f53d 858c c2bc
000001a0: ac55 86be 536b 1f3e 46c2 3a3d 9a10 e5bd
000001b0: df25 243d 1185 af3d 65bf 00be 459c f4bd
000001c0: afba 0dbe b6a2 5ebe 3f03 90be caf9 fd3d
000001d0: c812 8d3d 0453 a33c c022 50bc 0a95 9ebe
000001e0: 3e30 e0bd 2c2e 8dbe 0fd3 d8bd f932 f8bd
000001f0: 7e16 aabd d6b9 3cbc 4212 46be 4df5 20bd
00000200: 3fe8 003e 671e 403d 58ce a9bd 0614 7e3d
00000210: baa5 57be fb08 993b 7282 1a3e 4528 5dbe
00000220: 9be4 4cbe 2834 2c3d 152e 603e ef22 8bbb
00000230: dced 12be e6b3 693e 7459 713e baab 223d
00000240: 62f4 12be 4aad 35be 8722 1f3d bfa9 e63d
00000250: 5114 223e 2e60 ae3d 3ea6 b53c d8fc 773e
00000260: 35f5 283d b184 dfbd 0223 e1bc 711a eb39
00000270: e756 993d f274 1cbe 5e99 f6bd 19b5 273e
00000280: a296 72be b5d5 c6bd 16ab 81bd 911d ffbc
00000290: 7c94 593d 4a07 113d b9b6 433d 8726 b33c
000002a0: b113 8abe b47b 02bd 6456 be3d 5bf8 67be
000002b0: bf64 913d c5e8 3cbd 71e2 5a3d 3873 4ebd
000002c0: bb1c 5a3d be74 00be 208b 373e be48 a6be
000002d0: a04d 183d 3a55 963d 7c8a 9cbe 6c66 c3ba
000002e0: dab6 bbbd 561d 993d 9ef9 013e 2b20 563d
000002f0: 02cc 013e c1de a4be b655 d73d 089d 8e3d
00000300: 67a5 5cbd 5600 813e 235a 8fbd a1c3 61bd
00000310: 6de5 5abe 57fa 4abd b704 1cbd 87ef c9bd
00000320: a445 7b3c ef6d 0abe 15cf 1e3e cdd0 223e
00000330: 6e72 09be eb24 b1bd a090 863c a706 233e
00000340: e740 36be 810d 65bd 1771 a83c 1fc1 fe3d
00000350: 1094 a53c f534 96bc 0e4a 04be 2bc7 ccbd
00000360: 81c9 cfbd e1db 113e a70a 043d 4325 3fbe
00000370: 637b 693e 629b 073d ac10 08be abf7 8ebd
00000380: b1fd 62bd 2c03 13bb 3651 36be 8d31 3a3c
00000390: 5a47 223d 80ef 78be 831f 19be ae1a 9dbc
000003a0: 8a58 4ebe fb28 5bbe 368e 6b3b 28cf 30be
000003b0: d750 a23c 8faf 10be 57c5 6cbd 4bb5 f03d
000003c0: fb0b d1bc 09c7 a2bd 0261 99be 9289 aabc
000003d0: de2c 8bbd a89a 553e 5d7d b2be fa21 16bd
000003e0: a95e 323e a91b 49be 0e1c 7fbd bee8 4bbc
000003f0: 170d 37bc e7c8 613d edb1 e2bd 6fbb 4e3d
0.02123554 0.27632546 -0.13295256 0.073097594 -0.1403724 0.088772 -0.09201215 0.17249574
-0.36151782 -0.050096568 -0.2345725 -0.19954105 0.2842171 -0.17534378 -0.23533212 -0.025838029
0.020163395 0.2318546 -0.02646674 -0.0670976 0.10043669 0.072471485 -0.21031979 0.14437431
-0.021701423 0.07252989 -0.028291292 0.041899547 0.10598931 0.04158756 -0.04056216 -0.09832153
0.18641405 -0.25958475 0.0070280093 0.124218464 -0.12547813 -0.03488564 0.003670266 0.13096936
0.23783134 -0.15148476 0.02624861 0.077534035 0.07696798 0.08013588 -0.120727055 -0.051400695
-0.12194625 -0.31947502 0.007570169 0.12020374 -0.056958962 -0.03534262 -0.07359133 -0.02262107
-0.09227525 0.080175765 -0.1579152 -0.010559444 -0.16344948 0.10651478 0.08413734 0.18708257
-0.040396146 -0.053704638 0.11362887 -0.044436738 -0.026821563 -0.12752187 0.07659301 -0.014275201
-0.26003224 0.24570224 -0.31453907 0.0009155953 0.021668233 0.04459365 0.3761628 -0.009788456
-0.20743445 -0.07446136 0.16215144 -0.19892879 -0.19174719 0.1417573 0.03217911 -0.10519448
0.056623206 0.041051157 0.004051 -0.047972675 -0.33853343 0.049809422 0.08230033 0.03311397
0.015311541 -0.14772604 -0.13216268 -0.2669063 0.003734722 0.25293714 0.11998194 -0.023748646
-0.26237237 0.15568285 0.04559543 -0.11184807 0.04007518 0.08570302 -0.12573011 -0.119438685
-0.13840745 -0.21741757 -0.28127477 0.12401159 0.06888348 0.019937046 -0.012703598 -0.30973083
-0.109467015 -0.2757429 -0.10587131 -0.12119097 -0.08305071 -0.011518916 -0.19342902 -0.039296437
0.12588595 0.046903994 -0.0829131 0.062030815 -0.21059313 0.00467026 0.15088823 -0.21597393
-0.20009081 0.042041928 0.21892579 -0.004246108 -0.14348549 0.22822532 0.2356928 0.039714552
-0.14351037 -0.17741886 0.038851287 0.11262845 0.15828063 0.085144386 0.022173997 0.24217546
0.041249473 -0.10913981 -0.027482513 0.00044842393 0.074872784 -0.15278986 -0.12040971 0.16377677
-0.23690274 -0.0970873 -0.0633146 -0.031142028 0.05312012 0.035407342 0.04778168 0.021868957
-0.26968148 -0.031856254 0.092938215 -0.22653334 0.07099294 -0.046120424 0.053438608 -0.05040285
0.053250056 -0.12544534 0.17924166 -0.32477373 0.037183404 0.073404744 -0.30574405 -0.0014907843
-0.091657355 0.074762985 0.12692878 0.05227677 0.12675479 -0.32201198 0.10514395 0.06963545
-0.053868677 0.2519557 -0.06999614 -0.055118207 -0.21376581 -0.04955515 -0.038090434 -0.09860139
0.015336428 -0.13518499 0.15508683 0.15899964 -0.13422558 -0.0864962 0.016426384 0.15920506
-0.17798196 -0.05592108 0.020561738 0.12439179 0.020212203 -0.018335799 -0.12918875 -0.09998926
-0.10145856 0.14244033 0.03223672 -0.18666558 0.22800975 0.03310717 -0.1328761 -0.06980833
-0.05541772 -0.002243231 -0.17804417 0.011364353 0.039618827 -0.24310112 -0.14953427 -0.01917776
-0.20150962 -0.21402352 0.0035942919 -0.17266524 0.019813938 -0.1412947 -0.057805385 0.11753329
-0.025518408 -0.07948119 -0.29956824 -0.020817552 -0.06795667 0.20859778 -0.3486127 -0.036653496
0.17418922 -0.19639458 -0.062282614 -0.012445627 -0.011172554 0.055123236 -0.11069093 0.05047172

network_body._body_endoder.seq_layers.2.bias f4 [128]
00000000: 3405 74bd e98e af3d 19d9 38bc a02b 67bd
00000010: 025e 7cbd 692a 16bd d2e0 03bb 6814 08bc
00000020: 4469 973d c54a a43d ca41 6ebd 2fdc 383d
00000030: f482 4fbd d2c0 e93d b46d 763d 077f 6e3b
00000040: 7dff 273c 2f1b 743d 99c3 203d fd5c 413d
00000050: d777 e83c 258b febc 6dd2 3fbc 5c81 693d
00000060: e007 9f3d d222 8a3d 3659 e63c 198d 5a3d
00000070: 7d69 8ebc 745d 28bd 987a 973d 4b12 78bb
00000080: 343e a23d a918 c3b9 54f2 96bd 588d 683d
00000090: 01e4 54bd d6fd 3f3d 6fb3 623d 4b27 cb3c
000000a0: 1f27 813d 9108 42bd 27ff c6bc 55a4 b3bd
000000b0: 4e26 243d af03 3f3d e796 f5bd cbad 873d
000000c0: 382f 8d3d eb7b 923d b9c9 65bd 47a4 713d
000000d0: 8d8e 383c f835 eeba 3982 a0bc 416d aabc
000000e0: 5b3b a23d 09a6 a9bb c49c c03b 5f31 2f3d
000000f0: 48a8 983d a7fe a6bd 5c3e 6cbd 8f1d e33c
00000100: 3439 743d 8430 9fbd d4fe abba 3f43 b13d
00000110: 0796 41bd 4e2b b33d fbbe c3bc 1ffa 91bd
00000120: a485 4e3d 0c0a 173d 4880 8dbd f966 fd3c
00000130: bb99 20bd d6f3 c5bb a1ec 78bd bda2 ab3d
00000140: ab5b 5b3d e909 983d 24b7 f83c c33a 6e3d
00000150: eb19 a73c 2be8 d93c 6886 5dbd 0dce 763d
00000160: e8e3 2f3c 6430 883d ce9d a63c 465f 303d
00000170: 8f31 703d 70fc 663d 5a8b 85bd 8403 8b3d
00000180: 1e6b 393d 2e7c eb3b a786 6d3d ee55 07bd
00000190: 5402 9339 6459 d13d 902c 8f3d 07ac 7d3d
000001a0: 375d aa3d be4a d93b 276e 28be 82b1 8b3d
000001b0: b4d7 84bd d711 e03c 150b 603d 5c06 973c
000001c0: 4bc2 43bd a91c a4bc 97b0 95be 8977 8cba
000001d0: 106d 1a3d 3845 72bd 5567 1c3d ee8e 103b
000001e0: 3288 b13c 2a56 793d a9ed a7bd c21f 49bd
000001f0: de16 3ebd 8159 073a 854c 7d3d a3f0 80bd
-0.059575275 0.0857218 -0.011282229 -0.05643809 -0.06161309 -0.03666154 -0.0020123017 -0.0083056465
0.07393125 0.08022074 -0.05816821 0.04513186 -0.050661996 0.11413731 0.060163215 0.0036391632
0.010253784 0.059596237 0.039249036 0.04720782 0.028377457 -0.031072209 -0.011707884 0.057008132
0.07765174 0.06744923 0.028118711 0.053357217 -0.017384285 -0.04110475 0.0739643 -0.00378527
0.079220206 -0.00037211672 -0.07370439 0.05677542 -0.051975254 0.046872936 0.055346902 0.02479901
0.0630629 -0.04737145 -0.024291588 -0.08771578 0.040075593 0.046634372 -0.11991673 0.06624945
0.06893772 0.07152542 -0.05610058 0.058994558 0.0112644555 -0.0018174043 -0.019593345 -0.02080405
0.079214774 -0.0051772636 0.005878063 0.042771693 0.07453972 -0.0815404 -0.057676658 0.027724056
0.059624866 -0.077729255 -0.0013122209 0.08655404 -0.047262218 0.08748494 -0.023894778 -0.07127785
0.05042042 0.036874816 -0.06909233 0.03093289 -0.03920911 -0.0060410304 -0.060772542 0.08380649
0.05355422 0.07423765 0.030360766 0.05816151 0.0203981 0.026599964 -0.054083258 0.0602551
0.010735489 0.06649855 0.020338919 0.04305961 0.058641013 0.056393087 -0.0652072 0.0678778
0.04526817 0.007186434 0.057989743 -0.033040933 0.0002803976 0.10222128 0.069909215 0.061931636
0.083185606 0.0066312244 -0.1644827 0.06820966 -0.064864546 0.027352257 0.05469807 0.01843565
-0.047792714 -0.020033197 -0.2923629 -0.0010716777 0.037701666 -0.059148043 0.038184483 0.002205785
0.021671388 0.060873188 -0.08199627 -0.049102552 -0.046408527 0.00051631784 0.061840553 -0.06295898

action_model._discrete_distribution.branches.0.weight f4 [3, 128]
00000000: b397 c73c 6285 5d3a add3 4abd cd30 f83d
00000010: 6c69 69be b8f6 7f3e 24e0 05bf b4fc 1fbd
00000020: b12e 90be 07c3 abbd 8cb7 6c3d a937 63bd
00000030: 0f40 183e d17f 17be a377 06be 9242 ea3c
00000040: 7180 a3bc 871a babd cc10 bd3c 92b9 a1bb
00000050: f2bd ef3b e300 b13c b086 133d 8747 57be
00000060: 26b4 3abd 821d bebd 8b9a 10bd 11fc 00bf
00000070: 0997 b03d e852 c73d 4c51 0cbe c698 033e
00000080: f668 5fbd dfb7 37bd 2d79 213e 822f 84bd
00000090: 05ad 8e3d 46fa 35bd 741d 0dbd 2350 603e
000000a0: 0301 1bbe bf06 8bbd 7a60 893e 82b7 f33d
000000b0: 6f73 b2bd ab63 0ebe bfc5 ec3d 2d1a acbd
000000c0: e67f 06bd ff03 94bc abf9 1d3d 696a d33c
000000d0: 7b6e dc3c 45b1 7dbc 0f45 853d a0ef 69bd
000000e0: 962a 4abc 2311 45ba 9b44 4dbc d744 d73d
000000f0: b592 0f3e 2f60 fc3d e2ff eebc d2ef 213e
00000100: 443c 20bd c9ac 4a3e 2ae1 b2bd 2785 c53d
00000110: 3518 963c 8334 a13d 7b58 58bc 2dc1 2fbe
00000120: 2fae f13d 97a8 8abd e13d f83e 4cb1 73bd
00000130: 50f5 793d 2162 50bd 9eab d73d aa52 2abd
00000140: 05db 42bd 5489 9cbd 4eea 8abe 49ee b7bd
00000150: 74f4 e8be 1afe 14bd 23d0 4cbd f65e cbbc
00000160: 5ddc 34bb f4e1 c5bd 60a9 f3bc 5ec7 acbc
00000170: 30df 6abc 89b1 fcbb 23c5 ce3c 11ee c3bb
00000180: e168 59be 0555 debd f1bc a0bd b441 b53e
00000190: 35bf 5eba 506d bdbc d538 acbe 2120 0cbe
000001a0: 42d7 8abe 491f 11be 957c 9c3e f4dd 09be
000001b0: f9bb 2f3f 5133 563e 3125 49bd bda4 563d
000001c0: 2b27 d03e b975 d13e 142f 1a3f a0fb e4bd
000001d0: 8f77 1cbd 5925 403e d435 17be 6bf0 dd3c
000001e0: 80ee 0cbd c23d 39be f559 9c3d 8d7c 4e3d
000001f0: 08c7 133e 2d5f 1c3d 6e88 da3c 6d7b b63d
00000200: 35f5 4cbd ad89 6c3d 07bf a43c e539 4ebe
00000210: 8f32 273e 08d3 95be aeae e53e bf9a 2abc
00000220: 279b 953e 944e a73d 3d22 03be 34f4 c33d
00000230: 0e9a 56be 7024 1f3e b33a 293e 836c 663c
00000240: 9c4f 48bd 121a ed3d 9205 a9bb 9f93 713d
00000250: 30d4 d03c 7739 0cbd fe26 97bd 3fca 383e
00000260: d20d b43d 261f ec3d ee3d 543d c2e7 d23e
00000270: 24c6 04be 293a 0bbe e593 1b3e 85c2 f3bd
00000280: 79a8 c93d 0a8d 11bb 7621 53be f815 7c3d
00000290: f3c5 e1bd a270 673d caf0 d53d fd78 1ebe
000002a0: ec11 1e3e ef40 0abc b5be 5abe fb83 0dbe
000002b0: e31f 693d 9e79 203e 23f9 fbbd db33 c03d
000002c0: 5925 4c3d f457 843d 9cdd aabd 7d77 333d
000002d0: a627 b8ba 42c2 743d e9f0 b5bd 4033 d33c
000002e0: f87f 593d fc88 5cbd a694 84bd 6941 19bd
000002f0: a9db 4abd febb 31be 7fe3 a73c d573 26be
00000300: 48b5 973d b6a5 6abe 524b 8b3d fd5b 7ebc
00000310: 2f66 1dbd acf3 223b 8f51 fc3c 58a7 f73d
00000320: 5993 67bd 4c9d 013e 85be f7be f342 c73d
00000330: e9e2 93bd 36d1 f6bc 2a25 09be 8026 cd3d
00000340: 2f22 9e3d 3882 f43d 0ffc 7b3e d014 fe3d
00000350: 6c8b c93e 9071 813d e0ea d73b 0b4a 8e3d
00000360: ecb8 f13c c455 e23d 2d8e 863d de78 0d3d
00000370: cc0c 513d ed36 823d 8f40 b7bd 351a 283d
00000380: 6874 5f3e 3ca8 d03d 56af ab3d 26c2 98be
00000390: 85f0 bfbc 9f25 9b3d 1290 9e3e 22ef 113e
000003a0: ac86 9b3e 9948 dd3d 9acc 9fbe 2b79 313e
000003b0: 38ac 31bf 8ddd 23be 42ad c53d 0f85 44bc
000003c0: 70d3 e0be 790a e2be c445 29bf 3e50 4c3d
000003d0: c2db 6b3d e1dc 6bbe e375 203e 2826 95bd
000003e0: 8628 883d 8e2e 403e 5377 27be 6c68 cbbd
000003f0: e55d 2fbe 0c98 d0bd 418e 313c bf22 35be
0.024364328 0.00084503565 -0.049518276 0.12118683 -0.22794122 0.2499646 -0.52295136 -0.039059356
-0.28160623 -0.08386808 0.05779223 -0.055473004 0.14868186 -0.14794852 -0.13131575 0.028596196
-0.019958707 -0.09087091 0.023079298 -0.004935452 0.0073163444 0.021606868 0.03601712 -0.2102338
-0.04558196 -0.09282972 -0.035303634 -0.5038462 0.08622558 0.0973261 -0.13702887 0.12851247
-0.054543458 -0.044853088 0.15768881 -0.06454374 0.069665946 -0.044428132 -0.034451917 0.2190557
-0.15137105 -0.06788396 0.26831418 0.11900236 -0.087134235 -0.13905208 0.115611546 -0.0840343
-0.032836817 -0.018068312 0.03856818 0.025807576 0.02690815 -0.015484159 0.065073125 -0.05711329
-0.012339255 -0.0007517507 -0.012528564 0.10511177 0.14020808 0.12323033 -0.029174749 0.1581414
-0.039119974 0.19792475 -0.08734353 0.096445374 0.01832209 0.07871344 -0.013204689 -0.17163534
0.11800801 -0.06770437 0.4848471 -0.059495255 0.061024964 -0.050874833 0.1053078 -0.04158274
-0.047572155 -0.07643381 -0.27131885 -0.08980996 -0.45499003 -0.036375143 -0.050003182 -0.024825554
-0.0027597167 -0.09662238 -0.02974385 -0.02109116 -0.014335439 -0.0077115935 0.025240486 -0.0059793075
-0.21231414 -0.1085606 -0.07848538 0.3540169 -0.000849712 -0.023123413 -0.3363711 -0.13684131
-0.27117354 -0.1417209 0.305638 -0.13463575 0.686462 0.20918013 -0.049107734 0.0524032
0.40654883 0.40910128 0.60228086 -0.11180806 -0.038199957 0.18764247 -0.14766628 0.02709218
-0.03440714 -0.18089965 0.076343454 0.05041175 0.14431393 0.038176704 0.026676383 0.0891026
-0.050038535 0.057748485 0.02011062 -0.20139273 0.1632788 -0.29262567 0.44859833 -0.010412871
0.29219934 0.081692845 -0.1280603 0.095680624 -0.20957205 0.15541244 0.16526298 0.014063957
-0.048904046 0.11577238 -0.0051581347 0.058978673 0.025491804 -0.03423449 -0.07380484 0.18045901
0.087916985 0.115293786 0.051816873 0.41192442 -0.1296621 -0.13596405 0.15193136 -0.11902336
0.09846587 -0.002220931 -0.20618233 0.06154439 -0.11024084 0.0565039 0.104463175 -0.15475841
0.15436524 -0.008438333 -0.21361811 -0.13819878 0.056915175 0.15671393 -0.123033784 0.09384891
0.049840305 0.06462088 -0.0834305 0.043815125 -0.0014049902 0.05975557 -0.088838406 0.025781274
0.053100556 -0.053841576 -0.06473665 -0.037415896 -0.04952589 -0.1735687 0.02049422 -0.16255124
0.074076235 -0.22914776 0.068014756 -0.015524861 -0.038427528 0.0024864478 0.030800609 0.12092465
-0.056537006 0.1265766 -0.48387542 0.097295664 -0.07221014 -0.030129056 -0.13393083 0.10017109
0.07721364 0.119389 0.24607871 0.124063134 0.39364183 0.063204885 0.0065892786 0.06947716
0.029507123 0.11051515 0.06570087 0.034539096 0.051037595 0.063581325 -0.089478604 0.041040618
0.21821749 0.10188338 0.08383052 -0.29835624 -0.023430118 0.07575535 0.30969292 0.14251378
0.30376184 0.108048625 -0.31210786 0.17331378 -0.6940341 -0.16002484 0.09652187 -0.011994614
-0.43911314 -0.44148615 -0.6612208 0.049881212 0.057582624 -0.23033477 0.1566997 -0.07282668
0.06648354 0.18767759 -0.16354112 -0.09932026 -0.17125662 -0.10185251 0.010837139 -0.17689036

action_model._discrete_distribution.branches.0.bias f4 [3]
00000000: 3a27 09bd 88ba 913d 8e6b 34be
-0.033484675 0.07115656 -0.17619154

action_model._discrete_distribution.branches.1.weight f4 [3, 128]
00000000: 89f5 60bd 93c8 20bd 5834 14be daff a0bc
00000010: 9cf2 22be ac05 493d 51eb 31be 8586 37bd
00000020: d991 26bc 97e0 293d 7a41 60bd b04a 0b3d
00000030: e830 d3bd 8918 09bd 5927 683b 77dd 9f3c
00000040: 4a0f cebd b2af 353d 1f7e ab3d 3117 e73c
00000050: fb04 073d 3cad d33c 4c52 b3bc e57a 903d
00000060: c41f 373d 9503 b0ba 4c8c a03d f6e2 773d
00000070: 69f0 24be 281e 8dbd 5db4 4b3d f788 d0be
00000080: d917 033c a549 b0bd fd11 66bd 4ac0 1b3d
00000090: c131 29bb 7df1 8dbb 170b c73c 0539 96bd
000000a0: 25e1 023b 2307 e0bb 0d36 973c 03dd 28be
000000b0: 1fa3 f33b 9ad1 803d 00a1 1dbe c130 7ebb
000000c0: 6f8b 9e3c 2585 dd3c 010e b6bd 530b fc3c
000000d0: f0a6 a03c 9203 99bc 2422 debd 93a9 c83c
000000e0: ddf3 843c 03f2 8fbd b54d 833d b327 be3d
000000f0: e168 393d a8f4 51bd 5aa3 acbe b811 89be
00000100: ea98 613d 15e7 673c 47af 833d 2729 e93d
00000110: e961 e8bd d3c0 403d 4120 13bd ffeb 44be
00000120: 9537 1a3e 623e 2e3d 26c6 563e a5d3 df3c
00000130: efea c2bd f841 e6bd a91b adbd 8c80 a43b
00000140: 3374 563c 0966 343d 4cb1 04bd 9425 a23d
00000150: 79f7 7d3d 7b8f 673d cc38 adbd 19db 513d
00000160: b06c d6bd 00c2 0ebd 5e5a 433d 3b33 193d
00000170: 424c 9b3c 731f 8b3d 480d e8bc a6f6 c33c
00000180: 0ddc 93bc ca51 fb3d 3e9a 0b3d 1837 123d
00000190: 6ef2 333d f7a2 223c 6125 163d 13bc 8b3d
000001a0: d22b 0f3d 5f83 3dbd 9b04 54be 0984 4e3b
000001b0: 8bb0 c8bd 3e02 b3bd 92c4 9f3b 3dac df3c
000001c0: 1b6f 77be 0b9c 5e3b 6464 7fbe bdd8 91bd
000001d0: 9b62 843c f4d2 b4bb 8c9e a03b c077 dfbd
000001e0: cde0 5d3d 4db3 aa3c 2798 83bd 9920 64bd
000001f0: aea8 edbc e4a6 dcbd 1cc1 ad3d d203 4fbd
00000200: 6486 53bb f5ad 293d 7ddc ae3d 076b 5a3c
00000210: 4a6d c7bd d4fe 61be d541 1abe 59ac 3e3e
00000220: 20d6 21bd fefe 45be d479 1b3d cba6 933c
00000230: c292 573e 5e75 123d 4a84 48bd ab4a aa3c
00000240: b568 c33d 23bb 9b3b 61fe 3ebe c803 893c
00000250: 9908 97bd 7903 edbd 0e47 febc 4f4c ca3e
00000260: e06f e03c ee45 99bd e452 1fbd 81b2 a6be
00000270: ade0 113e acb5 653d 5fb2 40bc c875 023f
00000280: 5048 9a3c c372 63bd 7698 d03d a552 64be
00000290: 1d3b ad3d 0fa4 623c 9046 bc3b fa85 463e
000002a0: c935 42bb f598 443c aa03 8f3d 57d0 ae3d
000002b0: 2603 85be c275 18be 2134 2c3e e41e 27bd
000002c0: aba7 333d 7cd0 983d 5ae6 8f3d df05 fcbd
000002d0: 2c9d 363c 60fd 4ebc 82b1 c93d ab5a a0bd
000002e0: 8e69 9abc cd31 883d 3670 68be 367e eabd
000002f0: 3be4 80be 7229 503d c31c 8c3e 5974 fa3e
00000300: 437f 0fbe 0378 da3c 6411 f6bd 3096 3ebe
00000310: c473 d53d 1df5 113e 9c89 933d cc81 f3bc
00000320: 2bb5 debd cc1d 2dbb bb6d c5be 8e12 82bd
00000330: afa5 843d 1398 403c 1d77 1b3d 5059 47bc
00000340: 4b85 303b 4e6e f8bb 8840 43be 5ef8 153b
00000350: b819 b23e 3a53 203c 3bbc 4ebc bf9f d43c
00000360: 4ba9 7e3d 5608 063e ea5e 683c d662 18be
00000370: 2193 7c3d cb63 8ebc e305 203c 724c 0dbe
00000380: 4c0f 043d 02fb e1bd 3f41 08bc 715f ab3b
00000390: 323d 5c3d 4351 a83d 797f 1ebd 0c32 36bc
000003a0: d0bc 70bd ee1d aebe d21f 593e ebc5 ffbc
000003b0: d9c4 223e 2afe 3fba 33a9 0ebc 8590 25be
000003c0: 91e9 0fbc 10d6 093d eca8 3abe c94d 593d
000003d0: 2930 c2bc babb e13c ef23 5abc 8ae3 9c3d
000003e0: 5dd2 6bbe 1cb3 9abc 9cb5 da3d f842 213d
000003f0: b4e9 9f3c bce5 5d3d c7bc b03d a8d5 593c
-0.05492166 -0.039253782 -0.14473093 -0.01965325 -0.1591286 0.049077675 -0.17374922 -0.044806022
-0.010166609 0.04147395 -0.054749943 0.034006774 -0.103120625 -0.033470664 0.0035423844 0.019514782
-0.1006151 0.04435701 0.08373665 0.0282093 0.032963734 0.02583944 -0.021889828 0.0705469
0.04470803 -0.0013428802 0.078392595 0.06051918 -0.16107334 -0.068905175 0.049732555 -0.40729496
0.008001291 -0.086077966 -0.0561695 0.038025178 -0.002581701 -0.004331766 0.02429728 -0.07335094
0.0019970622 -0.0068367883 0.01845839 -0.1649056 0.007435217 0.06289978 -0.15393448 -0.0038786384
0.019353596 0.027041027 -0.0888939 0.030767119 0.019610852 -0.01867846 -0.108463556 0.024494922
0.016229564 -0.07028582 0.06411306 0.09284916 0.045266036 -0.051258713 -0.33718377 -0.2677133
0.05507747 0.014154215 0.06429916 0.11384802 -0.113468 0.04705889 -0.03591943 -0.1923065
0.15060265 0.04253996 0.20974025 0.0273226 -0.09517466 -0.11243051 -0.084525414 0.005020207
0.0130892275 0.04404262 -0.032395646 0.07917324 0.062003586 0.056533318 -0.08458099 0.05123434
-0.10469949 -0.03485298 0.047693603 0.037402373 0.018957261 0.06793108 -0.028326645 0.023921322
-0.018049264 0.122714594 0.034082644 0.035697073 0.04393237 0.009926549 0.03665674 0.06822982
0.0349539 -0.046267863 -0.20704882 0.0031511805 -0.09799298 -0.08740662 0.004875728 0.02730381
-0.24163477 0.003396752 -0.2494064 -0.07121418 0.0161603 -0.0055183116 0.0049017128 -0.109115124
0.054169465 0.02083745 -0.06425505 -0.05569515 -0.029011097 -0.10774019 0.08484098 -0.050540753
-0.0032276148 0.041425664 0.085381486 0.013331181 -0.09737642 -0.22069865 -0.15064175 0.18620433
-0.039510846 -0.19335553 0.03795798 0.018023869 0.21052077 0.03575646 -0.048954286 0.020787558
0.09541456 0.004752533 -0.18651725 0.016725436 -0.07374687 -0.11572928 -0.03103974 0.39511344
0.027397096 -0.07484041 -0.03889741 -0.32558063 0.14245863 0.05608146 -0.011761277 0.5096097
0.01883331 -0.055529367 0.101853296 -0.22297151 0.084585406 0.01383306 0.0057457164 0.19387046
-0.002963411 0.011999358 0.06983121 0.085358314 -0.25978965 -0.14888671 0.1681676 -0.040800944
0.043861073 0.0746164 0.07026358 -0.12305807 0.011145871 -0.0126336515 0.0984831 -0.078297935
-0.01884916 0.06650124 -0.22699055 -0.11449854 -0.25174126 0.050820775 0.27365693 0.4891689
-0.1401339 0.026668554 -0.12015036 -0.1861198 0.10422471 0.1425366 0.07203981 -0.029724978
-0.10874399 -0.0026415465 -0.3856028 -0.06351195 0.06476914 0.011755007 0.037955392 -0.01216729
0.0026934918 -0.0075815087 -0.19067585 0.0022883634 0.34785247 0.009785468 -0.01261812 0.02595508
0.06217317 0.13089117 0.0141827855 -0.14881453 0.06166375 -0.01738157 0.0097670285 -0.13798693
0.03224115 -0.11034204 -0.008316337 0.0052298834 0.053769298 0.082186244 -0.038695786 -0.011120331
-0.058773816 -0.3400721 0.21203545 -0.031222304 0.15895404 -0.0007323945 -0.008707332 -0.16168411
-0.008783714 0.03365141 -0.18228501 0.053052697 -0.023704605 0.027555335 -0.013314231 0.07660587
-0.23029466 -0.018884234 0.106791705 0.039370507 0.019520618 0.05417417 0.086297564 0.0132955685

action_model._discrete_distribution.branches.1.bias f4 [3]
00000000: c662 1e3d d4e4 94bc c5b0 82bd
0.038668416 -0.01817552 -0.06381372
