results/ppo/BotControllerAgent/BotControllerAgent-999983.onnx (onnx, 130130 bytes, 9 tensors)

discrete_act_size_vector f4 [1, 2]
3.0 3.0
00000000: 0000 4040 0000 4040

network_body._body_endoder.seq_layers.0.weight f4 [128, 104]
-0.110917896 -0.08965029 -0.045944378 -0.082044736 0.15993035 -0.1400066 -0.045146693 0.07618686
-0.11218252 -0.094123766 -0.10458962 0.18337594 0.06250661 0.59412926 0.025283841 0.05042301
-0.051887333 0.4245524 0.021677729 -0.29624832 0.022693578 -0.07525365 0.10289199 0.16029863
0.08757876 -0.12566717 0.049519643 -0.015065835 0.02846686 -0.0076253833 0.2796664 0.10245784
0.19425464 0.3819926 0.07138156 0.15986875 0.21327011 0.37204912 -0.07705912 -0.00952336
0.32372913 -0.02633431 0.056788053 -0.05086024 0.088091835 -0.20735638 0.12736888 0.045802608
0.03949258 0.084625416 -0.15212578 0.020021413 0.09914573 -0.055109717 -0.036724832 0.1516475
-0.06672419 0.540339 0.021567963 -0.13733336 0.23391636 -0.009707394 0.015047367 0.041643225
-0.16272609 -0.12168759 0.02026074 0.25362012 0.032136053 0.19995527 -0.084860794 -0.08307237
-0.11985361 -0.048858438 0.03858797 -0.10071173 -0.050723873 0.39230666 -0.0046782703 0.16573963
0.21321411 0.16257672 0.18282484 0.4715098 0.1157291 0.004440744 -0.119620524 0.2563335
0.00031645846 -0.056384277 0.0878256 0.067825384 0.16664231 -0.26391613 -0.013294989 -0.26409963
-0.13214475 0.56955284 -0.05131516 0.26169023 -0.09670975 0.10134007 0.033212673 -0.7337282
0.30249324 0.10432021 0.026064562 -0.029990515 -0.26669306 0.0554936 0.1550499 -0.09205938
-0.058359712 0.20609021 0.03223249 -0.0845844 0.14862385 -0.3579346 0.12635507 -0.22277091
0.043136764 -0.12431811 -0.07783344 -0.082661584 -0.29481074 -0.039218646 -0.033997048 0.13614725
0.07505431 -0.07675588 0.013832275 -0.06497908 -0.114462435 0.14302161 0.006320859 -0.1363082
-0.087671585 -0.07386449 0.110730186 -0.1685759 0.0038545849 -0.030188283 0.08220686 -0.029249486
-0.3118283 0.07512919 -0.09895794 0.12034563 -0.0630841 -0.10104494 -0.11877111 -0.17793968
-0.025142545 0.05674875 0.038102645 -0.1934999 -0.028250251 -0.051199727 0.07831666 -0.12082365
-0.07439577 -0.11839992 -0.01664349 -0.09468932 -0.2168693 0.14511801 0.13182482 -0.019660532
-0.08803596 0.020283043 -0.031350896 -0.1637128 -0.10820828 -0.024772175 0.05452496 -0.030375043
-0.059495512 0.0046568685 0.083420366 0.024861123 0.16028456 -0.06411588 0.025994329 0.065768294
0.2917722 -0.16261818 0.044213355 -0.13754411 -0.027177887 0.18691657 0.061451398 0.010443152
0.13656154 -0.03554735 -0.015703958 -0.040080823 0.029896654 0.086779624 0.019738212 0.12753274
0.03982007 -0.24607648 -0.22485484 0.120003454 0.015419914 -0.40323403 -0.01096645 -0.053562228
0.03921328 0.119550355 -0.06830363 0.22313306 0.024209077 0.08397111 -0.055885132 0.074957795
0.05246817 0.15298186 0.037060242 -0.10467619 -0.11152351 -0.19416553 0.14089628 -0.0045034103
0.10309481 -0.2729277 -0.07551822 0.08960537 -0.22704665 -0.20439975 0.074189626 -0.020074265
0.03742103 0.024682421 0.11179137 -0.045595337 0.013676443 -0.029007426 -0.12199467 0.056531023
0.17069554 -0.15609542 0.18904342 -0.28474462 -0.09894742 0.06004724 0.016704649 0.17380235
-0.014756427 -0.127482 0.11534756 -0.027298763 0.18855667 0.014334338 -0.11843284 -0.19164924
00000000: ec28 e3bd 929a b7bd 2c30 3cbd 1207 a8bd
00000010: c8c4 233e e45d 0fbe bdeb 38bd db07 9c3d
00000020: f3bf e5bd f6c3 c0bd 1533 d6bd e7c6 3b3e
00000030: 7703 803d db18 183f 0f20 cf3c 5c88 4e3d
00000040: d087 54bd ef5e d93e 7e95 b13c dcad 97be
00000050: e2e7 b93c 961e 9abd 09b9 d23d 5325 243e
00000060: 7e5c b33d e5ae 00be 1cd5 4a3d b1d6 76bc
00000070: 5533 e93c 5ade f9bb 6f30 8f3e 6bd5 d13d
00000080: b0ea 463e 8994 c33e 7f30 923d a2b4 233e
00000090: 7b63 5a3e 397d be3e 2cd1 9dbd de07 1cbc
000000a0: d3bf a53e 0dbb d7bc 979a 683d d452 50bd
000000b0: 7e69 b43d 3b55 54be fd6c 023e 849b 3b3d
000000c0: f9c2 213d 1750 ad3d dcc6 1bbe f203 a43c
000000d0: eb0c cb3d baba 61bd c76c 16bd 7b49 1b3e
000000e0: b1a6 88bd a853 0a3f 4caf b03c 1ea1 0cbe
000000f0: c587 6f3e c30b 1fbc 3b89 763c 1692 2a3d
00000100: aba1 26be 5837 f9bd daf9 a53c 7fda 813e
00000110: 18a1 033d 13c1 4c3e 7fcb adbd d921 aabd
00000120: cf75 f5bd c91f 48bd 6b0e 1e3d f441 cebd
00000130: d6c3 4fbd 6bdc c83e 2d4c 99bb a6b7 293e
00000140: cd54 5a3e 837a 263e 6f36 3b3e bc69 f13e
00000150: 6103 ed3d a983 913b 9bfb f4bd 253e 833e
00000160: 56ea a539 33f3 66bd e8dd b33d 09e8 8a3d
00000170: 48a4 2a3e 0420 87be 3ad3 59bc 1138 87be
00000180: f450 07be 37ce 113f d82f 52bd 43fc 853e
00000190: c30f c6bd 628b cf3d 030a 083d 9cd5 3bbf
000001a0: 65e0 9a3e d6a5 d53d 5985 d53c abae f5bc
000001b0: fe8b 88be 424d 633d 67c5 1e3e a189 bcbd
000001c0: 980a 6fbd 5009 533e 3706 043d 963a adbd
000001d0: da30 183e 3443 b7be 3963 013e 0f1e 64be
000001e0: 2db0 303d 7e9a febd 2367 9fbd 7a4a a9bd
000001f0: 6ff1 96be bba3 20bd 7d40 0bbd 2f6a 0b3e
00000200: 13b6 993d 3032 9dbd c4a0 623c c013 85bd
00000210: 486b eabd 4274 123e 351f cf3b 6094 0bbe
00000220: 298d b3bd 4446 97bd 82c6 e23d 299f 2cbe
00000230: 349d 7c3b 6b4d f7bc 125c a83d 9e9c efbc
00000240: f5a7 9fbe 55dd 993d 76aa cabd c577 f63d
00000250: 3d32 81bd a6f0 cebd 453e f3bd d235 36be
00000260: bdf7 cdbc 6171 683d 8511 1c3d d624 46be
00000270: 126d e7bc ceb6 51bd 7c64 a03d 6472 f7bd
00000280: cf5c 98bd a87b f2bd ee57 88bc 79ec c1bd
00000290: fc12 5ebe d199 143e 16fd 063e 200f a1bc
000002a0: 334c b4bd a028 a63c cc69 00bd 54a4 27be
000002b0: 4d9c ddbd 04ef cabc 9155 5f3d 15d5 f8bc
000002c0: 91b1 73bd a598 983b 4cd8 aa3d 8ea9 cb3c
000002d0: a321 243e 304f 83bd 0ff2 d43c 87b1 863d
000002e0: 2a63 953e 6185 26be 1019 353d 5dd8 0cbe
000002f0: 29a4 debc 0f67 3f3e 76b4 7b3d c119 2b3c
00000300: cad6 0b3e 199a 11bd 96a5 80bc ca2b 24bd
00000310: d4e9 f43c 84b9 b13d 08b2 a13c f197 023e
00000320: 5f1a 233d 79fb 7bbe 5940 66be 5fc4 f53d
00000330: cfa3 7c3c b174 cebe a0ac 33bc 1164 5bbd
00000340: 1b9e 203d d1d6 f43d c6e2 8bbd fe7c 643e
00000350: 1d52 c63c 0cf9 ab3d cfe7 64bd 7983 993d
00000360: dde8 563d 47a7 1c3e 7bcc 173d 7860 d6bd
00000370: 7066 e4bd 54d3 46be 1d47 103e 5891 93bb
00000380: 5f23 d33d 2ebd 8bbe 4ca9 9abd 0583 b73d
00000390: eb7e 68be 2b4e 51be bbf0 973d c972 a4bc
000003a0: cb46 193d ca32 ca3c e0f2 e43d 2dc2 3abd
000003b0: 2913 603c fba0 edbc 57d8 f9bd 138d 673d
000003c0: d0ca 2e3e 7ad7 1fbe 9994 413e 0cca 91be
000003d0: f2a4 cabd 18f4 753d 30d8 883c 3ef9 313e
000003e0: f1c4 71bc a48a 02be 573b ec3d a8a1 dfbc
000003f0: 0015 413e 92da 6a3c eb8c f2bd b33f 44be

network_body._body_endoder.seq_layers.0.bias f4 [128]
0.101937436 0.03204748 0.03562559 0.05413942 0.016946327 0.06414967 0.062133536 -0.05407214
-0.0035611168 0.03676203 0.023031795 0.0685609 -0.054333623 -0.0022335916 0.045612 0.08683602
0.047184777 0.01064958 0.03940777 0.097906694 0.043725647 0.03755042 0.060226645 0.04105136
0.012747564 -0.023971997 0.040376764 0.05168052 0.07088381 -0.01803481 -0.080423385 0.011842278
0.1454378 -0.06300695 0.002714909 0.07031654 0.046380874 0.02631342 0.024409492 -0.04221957
-0.007927117 0.027127996 -0.009822806 -0.24685402 0.045085948 0.031241957 0.044937987 0.028062014
0.041517466 -0.0158995 0.046836827 -0.019137163 0.009091914 0.028173909 -0.013660847 -0.01522453
0.03781467 0.032154765 0.04463648 0.050916392 0.013067718 0.046180207 0.044133857 0.0028236706
-0.037772458 0.04347864 0.0335069 0.021272007 0.030055435 0.0009034761 0.09764521 -0.014703133
0.0045568016 -0.007692655 -0.046171486 0.07298208 0.07572616 0.043628026 -0.11702868 0.017626408
0.0128197465 0.024523092 0.07713761 0.023746705 0.0790352 0.043424312 0.0062111653 0.049558945
0.014392339 0.080913216 0.040485255 -0.14427485 0.079518974 -0.045165617 0.04633784 0.026469367
0.034973245 0.08168701 -0.06041185 0.00465331 0.0431498 0.04852992 0.0339993 0.042085808
0.006424961 -0.01081145 -0.13518943 0.036861736 0.023480492 -0.10411577 0.015436 0.050971415
0.034673456 -0.031523082 0.0151116755 0.102651194 0.035044022 0.019069605 -0.0026355584 0.010079232
0.047998816 0.016589407 0.03629307 0.043508183 0.046602916 0.06382004 0.035163846 0.010150159
00000000: 93c4 d03d 3844 033d 23ec 113d 4cc1 5d3d
00000010: 06d3 8a3c e760 833d bc7f 7e3d c07a 5dbd
00000020: a061 69bb c893 163d 2dad bc3c a869 8c3d
00000030: ef8c 5ebd 7361 12bb a6d3 3a3d 15d7 b13d
00000040: d344 413d 937b 2e3c 0b6a 213d 4e83 c83d
00000050: aa19 333d 78ce 193d 37b0 763d 7925 283d
00000060: 29db 503c ec60 c4bc 1b62 253d f4ae 533d
00000070: 882b 913d bdbd 93bc 04b5 a4bd 1d06 423c
00000080: a6ed 143e ca09 81bd 9dec 313b 1e02 903d
00000090: dff9 3d3d 3e8f d73c 6af6 c73c 6eee 2cbd
000000a0: bde0 01bc 883b de3c d6ef 20bc 4dc7 7cbe
000000b0: 0bac 383d 22ef ff3c e510 383d 4fe2 e53c
000000c0: 380e 2a3d ab3f 82bc f9d7 3f3d 8ac5 9cbc
000000d0: 40f6 143c f8cc e63c bfd1 5fbc 4f70 79bc
000000e0: 8ee3 1a3d b7b4 033d bed4 363d b58d 503d
000000f0: fb19 563c 7527 3d3d b4c5 343d 550d 393b
00000100: 4bb7 1abd a916 323d 883e 093d a242 ae3c
00000110: d136 f63c 41d7 6c3a 36fa c73d 69e5 70bc
00000120: 3951 953b ab12 fcbb 501e 3dbd a177 953d
00000130: 5116 9b3d 4db3 323d bcac efbd 4265 903c
00000140: ea09 523c a7e4 c83c 53fa 9d3d 7388 c23c
00000150: 35dd a13d b1dd 313d 0887 cb3b 52fe 4a3d
00000160: d8cd 6b3c d4b5 a53d ded3 253d c9bc 13be
00000170: d8da a23d 95ff 38bd bfcc 3d3d 49d6 d83c
00000180: 1b40 0f3d 854b a73d 6b72 77bd cb7a 983b
00000190: d8bd 303d 4fc7 463d da42 0b3d 2b62 2c3d
000001a0: 7b88 d23b 8222 31bc 196f 0abe 55fc 163d
000001b0: 295a c03c a63a d5bd 47e7 7c3c 67c7 503d
000001c0: c105 0e3d 591e 01bd f696 773c ca3a d23d
000001d0: 528a 0f3d dc37 9c3c 55b9 2cbb 5d23 253c
000001e0: 689a 443d 82e6 873c 0ba8 143d a335 323d
000001f0: b3e2 3e3d 15b4 823d f707 103d da4c 263c

network_body._body_endoder.seq_layers.2.weight f4 [128, 128]
0.031821243 0.18141495 -0.071679465 0.045843586 -0.07097694 0.13309477 -0.12850805 0.10889213
-0.31039533 -0.11166752 -0.19999444 -0.2070564 0.13596956 -0.1353697 -0.16173528 -0.055781316
0.051774226 0.2260653 0.035017136 -0.06290781 0.13406663 0.09255407 -0.17334926 0.17034014
-0.038610667 0.027094757 -0.0139392065 0.11675631 0.07767149 -0.039606802 -0.025283348 -0.041405875
0.19008571 -0.21177274 0.07192126 0.11002191 -0.13373412 -0.0006329487 -0.01379365 0.13704081
0.2097905 -0.121207826 0.026427712 0.0058322633 0.10698491 0.08404755 -0.11712188 0.04607521
-0.10563941 -0.17272468 0.022437522 0.13746403 -0.034262713 -0.023069704 0.0022099444 -0.047090072
-0.051573742 0.10993492 -0.108088024 0.028324394 -0.13794835 0.17926961 0.16524172 0.16606773
0.032469105 -0.045574848 0.19664548 0.038481906 -0.027982274 -0.19119525 0.14870392 0.071938075
-0.052842136 0.18655725 -0.26405433 0.018618794 -0.0073081367 0.014329116 0.18194349 0.025489321
-0.025794357 -0.016340261 0.21757844 -0.16208665 -0.19325505 0.15414548 0.14456122 -0.14215848
0.05257218 0.0017938828 0.08634166 -0.09267166 -0.23205134 0.07842104 0.12039127 0.0971377
0.07538812 -0.19465524 -0.10106135 -0.15030548 0.03498584 0.31181112 0.14232107 -0.029286435
-0.21952675 0.15228449 -0.04656015 -0.05958731 0.041444387 0.026212001 -0.15924963 -0.06413299
-0.16057037 -0.072001 -0.16349547 0.16794357 0.08717592 0.12690492 -0.046730723 -0.24851564
-0.111808605 -0.13828753 -0.062480655 -0.1738186 -0.122818395 0.02091266 -0.16626596 0.023345847
0.16709425 -0.0076245745 -0.08323706 -0.028654076 -0.1995326 -0.019121189 0.16534062 -0.1520086
-0.2114154 0.10380661 0.2951425 0.03631377 -0.10514496 0.2795952 0.27019963 0.081758365
-0.084521905 -0.110733986 0.05644302 0.1286849 0.14419226 0.09290025 -0.016650833 0.22295944
0.15813686 -0.070135504 0.092590116 0.008760614 0.10989753 -0.11675397 -0.062787935 0.1628335
-0.21650772 -0.086371675 -0.18299803 0.010432901 0.08530911 -0.000913196 0.03810913 0.0051000775
-0.17443755 -0.025613997 0.10782209 -0.15813579 0.067829765 -0.0076508033 0.02853017 -0.09082622
0.065796524 -0.16756333 0.07185425 -0.27985892 0.09714514 0.0404656 -0.19356503 -0.12845376
-0.081829324 0.053471584 0.08194134 0.059541598 0.12234992 -0.30698347 0.059753638 0.05471487
-0.03848719 0.28427526 -0.10443246 -0.08547732 -0.15464568 0.012337655 -0.06864381 -0.08169131
-0.02865062 -0.11849461 0.09340031 0.10043585 -0.10106365 -0.054915752 0.006798844 0.14190283
-0.15532398 -0.08864895 -0.0103516895 0.14970216 0.031680956 0.0039745905 -0.081917904 -0.08084682
-0.089903116 0.1574924 0.009683362 -0.17153077 0.24606426 -0.013599025 -0.16733268 -0.10279281
-0.026182884 0.032808688 -0.15559967 0.02900652 0.063934036 -0.259501 -0.16935815 -0.026676094
-0.15543568 -0.23422422 0.004372407 -0.1498058 -0.020047843 -0.081806265 -0.045451295 0.10382149
-0.036363777 -0.10473283 -0.28814155 -0.065830685 -0.06382228 0.20670779 -0.27147377 -0.001747134
0.15792014 -0.2493644 -0.0611534 0.017102722 0.028469658 0.065422595 -0.109368764 0.056425225
00000000: fe56 023d d7c4 393e afcc 92bd 7cc6 3b3d
00000010: 5c5c 91bd ff49 083e 9d97 03be d602 df3d
00000020: 23ec 9ebe f1b1 e4bd 58cb 4cbe 9806 54be
00000030: 9b3b 0b3e 5b9e 0abe ef9d 25be f37a 64bd
00000040: 3611 543d a97d 673e 216e 0f3d cfd5 80bd
00000050: c348 093e fd8c bd3d 7882 31be a56d 2e3e
00000060: 3826 1ebd d3f5 dd3c 4561 64bc ef1d ef3d
00000070: 3b12 9f3d be3a 22bd 061f cfbc 3599 29bd
00000080: d4a5 423e f4da 58be 744b 933d 2b53 e13d
00000090: 99f1 08be 78ec 25ba c3fe 61bc 6d54 0c3e
000000a0: 52d3 563e cf3b f8bd ee7e d83c 921c bf3b
000000b0: e81a db3d 1f21 ac3d 99dd efbd 5cb9 3c3d
000000c0: 7a59 d8bd bdde 30be e5ce b73c 5fc3 0c3e
000000d0: 0f57 0cbd adfc bcbc b7d4 103b 85e1 40bd
000000e0: fd3e 53bd 8f25 e13d 415d ddbd 8f08 e83c
000000f0: 5542 0dbe 7492 373e 2035 293e a90d 2a3e
00000100: 53fe 043d b1ac 3abd 6f5d 493e 349f 1d3d
00000110: 153b e5bc b0c8 43be d745 183e 4554 933d
00000120: ff70 58bd dd08 3f3e 2132 87be 7186 983c
00000130: 1879 efbb abc4 6a3c 654f 3a3e fbce d03c
00000140: b04e d3bc 03dc 85bc e2cc 5e3e 0bfa 25be
00000150: a7e4 45be 50d8 1d3e db07 143e fe91 11be
00000160: ed55 573d b820 eb3a e5d3 b03d a4ca bdbd
00000170: de9e 6dbe 369b a03d b38f f63d 21f0 c63d
00000180: 1665 9a3d b453 47be 41f9 cebd aee9 19be
00000190: 504d 0f3d b5a5 9f3e 9dbc 113e 1bea efbc
000001a0: 9fcb 60be 77f0 1b3e dbb5 3ebd d311 74bd
000001b0: 97c1 293d 8dba d63c 5612 23be 2858 83bd
000001c0: 8f6c 24be 4375 93bd 5b6b 27be 66f9 2b3e
000001d0: 4a89 b23d 5df3 013e b768 3fbd e27a 7ebe
000001e0: e9fb e4bd 3f9b 0dbe b7eb 7fbd 81fd 31be
000001f0: 3688 fbbd 0751 ab3c a041 2abe ca3f bf3c
00000200: c11a 2b3e 91d7 f9bb 3178 aabd f4bb eabc
00000210: 4652 4cbe 0aa4 9cbc 0d4f 293e 24a8 1bbe
00000220: 477d 58be 8f98 d43d eb1c 973e bfbd 143d
00000230: 3e56 d7bd 1a27 8f3e 9b57 8a3e ee70 a73d
00000240: d219 adbd 80c8 e2bd cc30 673d f9c5 033e
00000250: 23a7 133e 7c42 be3d 5467 88bc 7b4f 643e
00000260: a1ee 213e 34a3 8fbd e39f bd3d ae88 0f3c
00000270: f511 e13d b51c efbd f696 80bd d3bd 263e
00000280: 33b4 5dbe a2e3 b0bd d663 3bbe c2ee 2a3c
00000290: 8bb6 ae3d 8c63 6fba 5218 1c3d 8d1e a73b
000002a0: c29f 32be 72d4 d1bc d4d1 dc3d 59ee 21be
000002b0: 55ea 8a3d 97b3 fabb 1ab8 e93c 1903 babd
000002c0: 54c0 863d b995 2bbe 5228 933d ab49 8fbe
000002d0: 08f4 c63d 42bf 253d e935 46be 6289 03be
000002e0: 2296 a7bd 0505 5b3d dcd0 a73d e4e1 733d
000002f0: 9892 fa3d f02c 9dbe 3bc0 743d b31c 603d
00000300: bea4 1dbd 878c 913e b0e0 d5bd bc0e afbd
00000310: 705b 1ebe e023 4a3c 2095 8cbd c64d a7bd
00000320: b4b4 eabc 4dad f2bd a948 bf3d 50b1 cd3d
00000330: 75fa cebd 57ef 60bd d6c8 de3b fa4e 113e
00000340: 400d 1fbe 958d b5bd 229a 29bc 864b 193e
00000350: e4c3 013d 483d 823b 93c4 a7bd 0493 a5bd
00000360: 201f b8bd b045 213e f7a6 1e3c c3a5 2fbe
00000370: 45f8 7b3e 72ce 5ebc 4259 2bbe 0985 d2bd
00000380: 7d7d d6bc 6762 063d 8555 1fbe 159f ed3c
00000390: d9ef 823d 51dd 84be 396c 2dbe d387 dabc
000003a0: 882a 1fbe 79d8 6fbe 6946 8f3b b166 19be
000003b0: 603b a4bc 0b8a a7bd 232b 3abd 5da0 d43d
000003c0: 2ff2 14bd 2a7e d6bd 4a87 93be 3dd2 86bd
000003d0: 41b5 82bd 35ab 533e 9cfe 8abe 1700 e5ba
000003e0: d1b5 213e 6259 7fbe fd7b 7abd 021b 8c3c
000003f0: 3339 e93c 48fc 853d bbfc dfbd 231e 673d

network_body._body_endoder.seq_layers.2.bias f4 [128]
-0.02165555 0.066781774 -0.0389523 -0.037191425 -0.048910618 -0.05119824 -0.011924638 -0.022823555
0.0553691 0.03609704 -0.07310767 0.021527518 -0.03096616 0.06726017 0.037250027 0.026830744
-0.03312919 0.042174995 0.040349755 0.044202905 0.052764807 0.0025103195 -0.021231472 0.0348164
0.040043607 0.052844644 0.0368171 0.009633448 -0.052157715 -0.03381058 0.042106673 -0.039173927
0.06077622 -0.006059765 -0.053289175 0.035723045 -0.03072845 0.021262823 0.049596716 0.02547604
0.04465783 -0.074821286 -0.0047987453 -0.07675299 0.0005935529 0.02513108 -0.07657728 0.03858203
0.047205642 0.04517327 -0.036117885 0.055333264 0.035452493 0.021591669 -0.013652532 -0.03353242
0.04395204 -0.008483613 -0.026403671 0.055908456 0.07873624 -0.066957936 -0.04185186 -0.046524115
0.0507139 -0.06079246 0.00886417 0.07681205 -0.023988286 0.0695574 -0.00970857 -0.051817406
0.053498738 0.037737258 -0.03999384 0.031676263 -0.05558665 -0.032984696 -0.046536263 0.08105529
0.042344954 0.05600263 0.006789883 0.048161734 0.024067808 0.04178138 -0.024657218 0.03901298
0.01793597 0.04780496 0.037389707 0.027703041 0.042828325 0.0574863 -0.07403403 0.040794585
0.042157248 0.011383073 0.0507713 -0.0042475252 0.0118498085 0.06526203 0.0134554915 0.039262235
0.044436518 -0.002997288 -0.068964906 0.0468549 -0.041149452 0.021542886 0.0483235 0.0335063
-0.07809215 -0.026362883 -0.135432 -0.04198361 0.02194028 -0.026097983 0.016820367 -0.029760908
0.017935498 0.03722574 -0.05738974 -0.051706094 -0.050434195 -0.033652373 0.04671521 -0.04286707
00000000: fb66 b1bc e2c4 883d 728c 1fbd 0956 18bd
00000010: 8056 48bd 3fb5 51bd 8f5f 43bc 77f8 babc
00000020: b6ca 623d 7dda 133d 79b9 95bd 7a5a b03c
00000030: bfac fdbc b3bf 893d 7c93 183d 26cc db3c
00000040: 79b2 07bd b0bf 2c3d c945 253d 1b0e 353d
00000050: e91f 583d 2c84 243b a0ed adbc a49b 0e3d
00000060: c404 243d a073 583d 87cd 163d 9cd5 1d3c
00000070: 54a3 55bd f67c 0abd 0c78 2c3d d774 20bd
00000080: 7cf0 783d fe90 c6bb c045 5abd 5452 123d
00000090: 3bba fbbc 5f2f ae3c ed25 4b3d 21b3 d03c
000000a0: 21eb 363d e73b 99bd cb3e 9dbb ac30 9dbd
000000b0: a998 1b3a b2df cd3c 8dd4 9cbd 3108 1e3d
000000c0: b45a 413d 9b07 393d 59f0 13bd 22a5 623d
000000d0: a236 113d 03e1 b03c dfae 5fbc 4a59 09bd
000000e0: 0e07 343d dafe 0abc 834c d8bc 4400 653d
000000f0: 7740 a13d 3e21 89bd db6c 2bbd 1290 3ebd
00000100: 61b9 4f3d 8401 79bd 063b 113c a34f 9d3d
00000110: 1583 c4bc 1c74 8e3d b210 1fbc 7d3e 54bd
00000120: 7e21 5b3d 6292 1a3d 95d0 23bd f8be 013d
00000130: d4ae 63bd f61a 07bd cf9c 3ebd 5100 a63d
00000140: e771 2d3d 0463 653d ab7d de3b 3d45 453d
00000150: da29 c53c f422 2b3d effd c9bc 13cc 1f3d
00000160: 75ee 923c 22cf 433d f325 193d 7df1 e23c
00000170: c16c 2f3d c176 6b3d 279f 97bd 3918 273d
00000180: 14ad 2c3d 1280 3a3c 91f5 4f3d d32e 8bbb
00000190: b325 423c 19a8 853d 6c74 5c3c 70d1 203d
000001a0: 1103 363d 266e 44bb 793d 8dbd ecea 3f3d
000001b0: 548c 28bd b57a b03c ddee 453d e73d 093d
000001c0: c7ee 9fbd f9f6 d7bc b0ae 0abe 01f7 2bbd
000001d0: 1abc b33c 70cb d5bc deca 893c 26cd f3bc
000001e0: 77ed 923c 047a 183d 8111 6bbd c5c9 53bd
000001f0: 1694 4ebd 12d7 09bd 7358 3f3d 6195 2fbd

action_model._discrete_distribution.branches.0.weight f4 [3, 128]
0.00808433 -0.06458791 -0.051612556 -0.038312003 -0.21532825 -0.08172609 -0.3491181 -0.14635314
-0.11799159 -0.025245268 -0.028894447 -0.011640811 -0.040487584 -0.11061149 -0.04852447 0.022802591
-0.051856987 -0.034717202 0.0043546907 -0.0090784645 0.014415314 0.034887385 -0.022577107 -0.14356841
-0.022891296 -0.049142905 -0.036290817 -0.28826287 -0.01787326 -0.03435502 -0.053537633 0.15083809
-0.017758192 -0.056377694 -0.016473057 -0.026608566 -0.06793537 -0.030050721 0.0045169895 0.09074767
-0.073578276 -0.06772897 0.09333846 0.019772489 -0.04912393 -0.038792722 0.02015687 -0.052085616
-0.06344061 -0.05644083 -0.081423014 0.03148977 0.022001732 -0.042790458 -0.02890792 -0.05659881
-0.00024055866 -0.05571676 -0.13388097 0.098325096 0.14906366 -0.023080928 0.00183444 0.13115084
-0.014513235 -0.0011490312 -0.05258122 0.13726424 -0.03292932 0.088009134 -0.024447044 -0.20168453
0.120045595 -0.026724294 0.089227475 -0.050812483 -0.0052060816 -0.076778226 -0.0070602666 -0.04259163
-0.03770627 -0.05098491 -0.26592216 -0.040997304 -0.3224074 -0.018054131 -0.012524758 0.0006307696
0.012957766 -0.18778464 -0.010934116 -0.010335695 -0.09000939 0.014580016 -0.030433692 -0.018098589
-0.1042349 -0.03677551 -0.039259158 0.13916408 0.0018024063 -0.0039562383 -0.0916609 -0.08269811
-0.07057297 -0.22581433 0.093192704 -0.04183577 0.04851111 0.1461061 -0.02078218 0.07591198
-0.0023345542 0.076293245 0.0598867 -0.06351809 -0.0373766 0.0156115 -0.053893823 -0.037189644
0.0067717037 -0.05507332 -0.16931339 -0.024457999 -0.0073707732 -0.03707813 0.036653876 -0.03502631
-0.03261546 0.12107438 0.025468593 -0.03957729 0.15266702 0.041289974 0.27706847 0.097404316
0.12195259 0.025231361 -0.032910924 0.0524635 -0.014486815 0.11528444 0.07481699 0.0205919
-0.010870235 0.056276884 0.013908757 0.06137223 0.018499669 -0.042938285 -0.010766152 0.095573805
0.06288871 0.068372466 0.059535015 0.19753629 -0.0198202 -0.003710135 0.065340176 -0.14251335
0.057676084 0.012649198 -0.029026158 0.026889496 0.026928663 0.04234401 0.060880613 -0.038460962
0.082177475 -0.0031603994 -0.047710933 -0.04453093 0.023029713 0.060325146 -0.043053713 0.06581785
0.07894461 0.10217722 0.04316004 0.03174601 0.003611385 0.08727145 -0.009055517 0.030344393
0.040632013 0.008685709 0.058711868 -0.03353293 -0.05716766 -0.023488503 -0.019145759 -0.13645126
0.04606766 -0.02747022 0.039410226 -0.056559958 0.011320198 -0.008293638 0.043532513 0.15206853
-0.057691455 0.08028208 -0.08847076 0.08042381 -0.008834733 -0.0007834531 -0.01878153 0.09744089
0.06319123 0.09035119 0.23964885 0.072000474 0.23681653 0.043072235 -0.027181845 0.04186637
0.0131105175 0.20056203 0.044250958 0.023040336 0.12628908 0.03712095 -0.024599934 0.051964894
0.11248579 0.038826916 0.04922826 -0.08404745 -0.027481383 0.054694843 0.07515653 0.087501936
0.10252037 0.19068117 -0.100482896 0.07368033 -0.07021791 -0.10094485 0.063400194 -0.033690892
-0.04313878 -0.10839628 -0.11621352 0.0053594806 0.06278418 -0.059311993 0.062144116 -0.00053482794
0.029322801 0.06495802 0.08831153 -0.016202351 -0.013294471 -0.01943598 -0.0013224436 -0.046609998
00000000: 2374 043c ab46 84bd b067 53bd 0ced 1cbd
00000010: 027f 5cbe 0260 a7bd 9cbf b2be 99dd 15be
00000020: 93a5 f1bd 2acf cebc 0cb4 ecbc 1ab9 3ebc
00000030: 4fd6 25bd 4788 e2bd 98c1 46bd 80cc ba3c
00000040: fe67 54bd a033 0ebd cbb1 8e3b d7bd 14bc
00000050: 362e 6c3c 13e6 0e3d a0f3 b8bc 9903 13be
00000060: 8786 bbbc 124a 49bd aea5 14bd 3197 93be
00000070: f16a 92bc d9b7 0cbd 474a 5bbd 4d75 1a3e
00000080: a179 91bc 4cec 66bd 81f2 86bc 35fa d9bc
00000090: b321 8bbd ee2c f6bc 4103 943b ead9 b93d
000000a0: 35b0 96bd 7cb5 8abd 3c28 bf3d eaf9 a13c
000000b0: 2d36 49bd 1ee5 1ebd 0520 a53c ba57 55bd
000000c0: 27ed 81bd 802e 67bd 1cc1 a6bd 6bfb 003d
000000d0: fa3c b43c 0c45 2fbd 4dd0 ecbc 27d4 67bd
000000e0: 793e 7cb9 4237 64bd 1818 09be ab5e c93d
000000f0: 25a4 183e 3714 bdbc 9871 f03a 684c 063e
00000100: ebc8 6dbc 179b 96ba 685f 57bd ff8e 0c3e
00000110: e5e0 06bd 223e b43d 2b45 c8bc 6486 4ebe
00000120: 77da f53d e8ec dabc e5bc b63d c020 50bd
00000130: c797 aabb e73d 9dbd cf59 e7bb 9074 2ebd
00000140: e471 1abd 8ed5 50bd f326 88be caec 27bd
00000150: 9512 a5be 42e6 93bc a534 4dbc 3b5a 253a
00000160: cf4c 543c 9e4a 40be 0225 33bc 0c57 29bc
00000170: d856 b8bd 05e1 6e3c 1450 f9bc 7e43 94bc
00000180: 1b79 d5bd eba1 16bd 36ce 20bd 0781 0e3e
00000190: b83e ec3a 55a3 81bb b6b8 bbbd a05d a9bd
000001a0: 9088 90bd df3b 67be d1db be3d fc5b 2bbd
000001b0: 96b3 463d d69c 153e 643f aabc bd77 9b3d
000001c0: 52ff 18bb a23f 9c3d c24b 753d c615 82bd
000001d0: 3518 19bd 60c7 7f3c c5bf 5cbd 2b54 18bd
000001e0: 2be5 dd3b 9094 61bd 7d60 2dbe 245c c8bc
000001f0: 8786 f1bb 3ddf 17bd 6022 163d bf77 0fbd
00000200: ca97 05bd d8f5 f73d 83a3 d03c cc1b 22bd
00000210: be54 1c3e ad1f 293d ebdb 8d3e ea7b c73d
00000220: 48c2 f93d 00b2 ce3c 9bcd 06bd f8e3 563d
00000230: 1b5a 6dbc 401a ec3d a639 993d 58b0 a83c
00000240: 1219 32bc 9782 663d 8ee1 633c 7361 7b3d
00000250: 9e8c 973c 0ee0 2fbd 8464 30bc 33bc c33d
00000260: cccb 803d dd06 8c3d fdda 733d f446 4a3e
00000270: f95d a2bc bc25 73bb 12d1 853d 05ef 11be
00000280: c23d 6c3d 953e 4f3c 44c8 edbc 5c47 dc3c
00000290: 8099 dc3c ea70 2d3d f35d 793d 3e89 1dbd
000002a0: aa4c a83d b41e 4fbb 8a6c 43bd 1166 36bd
000002b0: cfa8 bc3c 8017 773d 1759 30bd 82cb 863d
000002c0: b6ad a13d 4a42 d13d 95c8 303d 1b08 023d
000002d0: fcac 6c3b 60bb b23d 975d 14bc ce94 f83c
000002e0: c16d 263d 814e 0e3c db7b 703d d359 09bd
000002f0: a328 6abd f66a c0bc 91d7 9cbc e1b9 0bbe
00000300: 71b1 3c3d 3a09 e1bc 9e6c 213d 6aab 67bd
00000310: 5a78 393c 0ae2 07bc 264f 323d dab7 1b3e
00000320: e04d 6cbd ee6a a43d 2830 b5bd 3db5 a43d
00000330: 8ebf 10bc a660 4dba b9db 99bc 178f c73d
00000340: 676a 813d 0b0a b93d 8266 753e fc74 933d
00000350: 0880 723e 836c 303d 76ac debc 127c 2b3d
00000360: 7fcd 563c 2260 4d3e 7e40 353d 16bf bc3c
00000370: ed51 013e 230c 183d cd85 c9bc 24d9 543d
00000380: f35e e63d f908 1f3d 92a3 493d 1221 acbd
00000390: a320 e1bc b307 603d abeb 993d 3734 b33d
000003a0: 33f6 d13d ed41 433e fac9 cdbd b6e5 963d
000003b0: 68ce 8fbd 2cbc cebd f6d7 813d 76ff 09bd
000003c0: 4ab2 30bd defe ddbd 5b01 eebd 959e af3b
000003d0: fe94 803d 22f1 72bd d48a 7e3d b233 0cba
000003e0: 5f36 f03c b608 853d addc b43d cbba 84bc
000003f0: 0ed1 59bc 3438 9fbc d855 adba 20ea 3ebd

action_model._discrete_distribution.branches.0.bias f4 [3]
0.013470874 0.01736949 -0.098404385
00000000: f1b4 5c3c 764a 8e3c 3d88 c9bd

action_model._discrete_distribution.branches.1.weight f4 [3, 128]
-0.056471873 -0.05861977 -0.13315943 -0.019938603 -0.061187502 -0.03443413 -0.10651689 -0.055124044
-0.00946988 0.039737012 -0.03216263 0.012470701 -0.09714879 -0.037564646 0.013238249 0.036837064
-0.02110055 0.032252595 0.04730533 0.033238202 0.052395225 0.007876752 -0.0120000485 0.006606905
0.026556466 0.015024152 0.014626046 0.015814673 -0.042507105 -0.04618407 0.040650852 -0.09257987
0.00909479 -0.09882752 -0.039248116 0.028450739 -0.061778996 -0.0027969158 0.011712325 -0.030130217
-0.0010166243 -0.021288805 0.010380554 -0.022449462 0.009276824 0.044193033 -0.0044020168 0.0017317035
0.0003469961 0.01184399 -0.028692113 0.019572401 0.03431957 -0.03474097 -0.06371318 0.0022201126
0.008600253 -0.047105778 -0.03472118 0.090187356 0.027790604 -0.039800223 -0.0692095 -0.08121739
0.055562332 0.018340658 0.013780381 0.11581453 -0.07817132 0.03737819 -0.009339393 -0.10683028
0.09522628 0.04385387 0.055638563 0.028521571 -0.03500865 -0.10426016 -0.04226571 -0.0033788616
-0.0040193317 0.028734053 -0.06901448 0.025767794 -0.026977608 0.026037851 -0.058077324 0.036773447
-0.05635403 -0.07633889 0.020110525 0.024686059 0.00078993186 0.039844945 -0.014009738 0.03908819
-0.019263916 0.040002614 0.029236568 0.0027184628 0.023868576 -0.002138332 0.015451616 0.04306797
0.022660349 -0.07643738 -0.06698048 -0.00689245 -0.035977066 -0.07058604 0.013483996 0.021159919
-0.050292432 0.028935993 -0.101422295 -0.028522901 0.008093541 -0.027677726 0.024813887 -0.03580099
0.031520262 0.023113685 -0.085309334 -0.03023969 -0.020881813 -0.022630328 0.061163217 -0.04021163
-0.0054771807 0.0569063 0.05538633 -0.0015480309 -0.09279533 -0.0035255232 -0.116632536 0.18116727
-0.0040501696 -0.07128579 0.0091822045 -0.015523657 0.09310167 0.042589154 -0.041490316 0.013805633
0.011517496 -0.0010952868 -0.072615795 -0.013571003 -0.059863538 -0.0692025 -0.018571038 0.26699263
0.017907063 -0.0121146105 -0.0071274284 -0.04794644 0.012297638 0.01190114 -0.021848988 0.1228487
0.022642834 0.009268743 0.03331671 -0.16157883 0.118777 0.010673506 0.0078021586 0.045820028
-0.007075708 0.014855747 -0.003504376 0.04683372 -0.16789769 -0.07912609 0.013980843 -0.046735473
0.048928216 0.058521334 0.043274786 -0.06499972 -0.003681193 0.02425068 0.058274433 -0.04346351
0.0034413752 0.03906658 0.016205631 -0.081139974 -0.18932642 0.013231849 0.1046208 0.12022529
-0.07649222 -0.029885799 -0.04556282 -0.1574028 0.026458148 0.14332943 0.036512572 -0.0416013
-0.041928746 -0.020428134 -0.23194554 -0.058163133 0.010008918 0.013732525 -0.013281264 -0.015887568
0.0005823277 2.1749993e-06 -0.07314623 0.005421306 0.21725748 0.020682998 0.0011545598 0.018927852
0.09968128 0.15955932 0.0061990144 -0.082959436 0.05395849 0.001033298 0.010003291 -0.060761157
0.01408143 -0.022535224 -0.022481859 0.0069343206 0.050021183 0.08417845 -0.009631067 -0.020401321
-0.020747233 -0.14179581 0.06668913 -0.012698011 0.126989 -0.032591235 -0.022171244 -0.11586202
0.014396591 0.01565448 -0.036387544 0.015943121 -0.015290564 0.0048499615 -0.013775723 0.007278246
-0.15858047 -0.027029024 0.10545488 0.018521009 0.0071805925 -0.010764899 0.08738165 0.0011879249
00000000: 0d4f 67bd 491b 70bd f25a 08be 4856 a3bc
00000010: bf9f 7abd cd0a 0dbd 8725 dabd c0c9 61bd
00000020: 8e27 1bbc 47c3 223d f6bc 03bd e951 4c3c
00000030: f2f5 c6bd 63dd 19bd 3ee5 583c 76e2 163d
00000040: 10db acbc 4c1b 043d 3cc3 413d c824 083d
00000050: 609c 563d 7e0d 013c da9b 44bc bc7e d83b
00000060: f28c d93c dc27 763c 15a2 6f3c c68d 813c
00000070: ee1b 2ebd 822b 3dbd 8281 263d 849a bdbd
00000080: 5002 153c 1566 cabd a2c2 20bd 8611 e93c
00000090: f90b 7dbd 764c 37bb 0de5 3f3c a5d3 f6bc
000000a0: 4040 85ba dc65 aebc 3313 2a3c efe7 b7bc
000000b0: d2fd 173c c103 353d cb3e 90bb 54fa e23a
000000c0: 07ed b539 4b0d 423c b90b ebbc 4d56 a03c
000000d0: ad92 0c3d 8c4c 0ebd 0e7c 82bd 4f7f 113b
000000e0: 13e8 0c3c fdf1 40bd cc37 0ebd 26b4 b83d
000000f0: 1fa9 e33c 8f05 23bd b6bd 8dbd 4e55 a6bd
00000100: 5495 633d 263f 963c 1bc7 613c 2b30 ed3d
00000110: 4918 a0bd df19 193d 4104 19bc d5c9 dabd
00000120: ff05 c33d 1ea0 333d 43e5 633d 12a6 e93c
00000130: 3b65 0fbd 5a86 d5bd cf1e 2dbd e46f 5dbb
00000140: 99b4 83bb ad63 eb3c 7757 8dbd fb16 d33c
00000150: 2500 ddbc 554d d53c 7de2 6dbd c19f 163d
00000160: 7cd3 66bd 9057 9cbd d4be a43c 6b3a ca3c
00000170: 6e13 4f3a 7434 233d 1a89 65bc f01a 203d
00000180: 5ccf 9dbc c8d9 233d 8781 ef3c 3d28 323b
00000190: 0888 c33c 4223 0cbb c628 7d3c 0a68 303d
000001a0: 32a2 b93c 338b 9cbd 102d 89bd 10da e1bb
000001b0: b05c 13bd 6a8f 90bd faeb 5c3c 9157 ad3c
000001c0: 70ff 4dbd 2d0b ed3c 7eb6 cfbd dca8 e9bc
000001d0: c59a 043c 66bc e2bc 7e46 cb3c 0fa4 12bd
000001e0: 641b 013d e958 bd3c a9b6 aebd 3ab9 f7bc
000001f0: 5610 abbc 3d63 b9bc 4886 7a3d f3b4 24bd
00000200: ec79 b3bb 9516 693d c7dc 623d 4ce7 caba
00000210: 7a0b bebd 770c 67bb 0add eebd ea83 393e
00000220: 49b7 84bb 49fe 91bd f570 163c f056 7ebc
00000230: 17ac be3d f771 2e3d c0f1 29bd 0631 623c
00000240: e1b3 3c3c ba8f 8fba 97b7 94bd ea58 5ebc
00000250: 7833 75bd 0aba 8dbd 4a22 98bc 42b3 883e
00000260: d5b1 923c 5c7c 46bc 348d e9bb 7c63 44bd
00000270: 087c 493c 00fd 423c a6fc b2bc 1998 fb3d
00000280: 777d b93c eddb 173c 1a77 083d ec74 25be
00000290: 5b41 f33d eedf 2e3c 40a9 ff3b c8ad 3b3d
000002a0: 57db e7bb 8565 733c aca9 65bb b7d4 3f3d
000002b0: 5fed 2bbe dc0c a2bd e80f 653c b26d 3fbd
000002c0: f468 483d 11b4 6f3d e740 313d 931e 85bd
000002d0: 2c40 71bb 5da9 c63c 2cb1 6e3d cb06 32bd
000002e0: b288 613b 4704 203d acc1 843c b72c a6bd
000002f0: c9de 41be 66ca 583c 6e43 d63d ad38 f63d
00000300: f4a7 9cbd 10d3 f4bc 14a0 3abd 332e 21be
00000310: c2be d83c f3c4 123e 358e 153d 2066 2abd
00000320: 7abd 2bbd e758 a7bc 2283 6dbe 773c 6ebd
00000330: 72fc 233c 62fe 603c a999 59bc a526 82bc
00000340: 5aa7 183a 34f6 1136 b1cd 95bd 36a5 b13b
00000350: bf78 5e3e 646f a93c 9954 973a 950e 9b3c
00000360: b325 cc3d 8563 233e 1a21 cb3b a3e6 a9bd
00000370: 9403 5d3d ba6f 873a d8e4 233c b1e0 78bd
00000380: ccb5 663c ca9b b8bc e02b b8bc 4c39 e33b
00000390: 03e3 4c3d c065 ac3d 9fcb 1dbc ac20 a7bc
000003a0: 1af6 a9bc ec32 11be 5094 883d 510b 50bc
000003b0: 6809 023e 637e 05bd 78a0 b5bc 1149 edbd
000003c0: aedf 6b3c d33d 803c 1b0b 15bd 269b 823c
000003d0: 4685 7abc 6dec 9e3b 92b3 61bc 5a7e ee3b
000003e0: eb62 22be f96b ddbc baf8 d73d 5fb9 973c
000003f0: 2d4b eb3b 425f 30bc 27f5 b23d 25b4 9b3a

action_model._discrete_distribution.branches.1.bias f4 [3]
0.02682064 -0.0077140746 -0.047977086
00000000: f5b6 db3c 59c6 fcbb 9f83 44bd
