results/ppo/BotControllerAgent/BotControllerAgent-1499990.pt (torch, 752146 bytes, 40 tensors)

discrete_act_size_vector f4 [1, 2]
3.0 3.0
00000000: 0000 4040 0000 4040

network_body._body_endoder.seq_layers.0.weight f4 [128, 104]
-0.110452935 -0.07808547 -0.045944378 -0.06888518 0.16833209 -0.14289288 -0.045146693 0.053201802
-0.122774236 -0.115809545 -0.10458962 0.17799751 0.06820948 0.61774397 0.025283841 0.09285845
-0.04822623 0.5475206 0.021677729 -0.3035663 0.04222846 -0.06982397 0.10289199 0.16282965
0.08984649 -0.19256088 0.049519643 -0.024992844 0.022074336 -0.023872636 0.2796664 0.09261223
0.19871512 0.52310485 0.07138156 0.20035487 0.21076214 0.47332206 -0.07705912 -0.012079765
0.34960386 -0.017392362 0.056788053 -0.046844963 0.08465151 -0.24266241 0.12736888 0.042807143
0.038125735 0.03984754 -0.15212578 0.0029626929 0.101971865 -0.033775613 -0.036724832 0.1734289
-0.0790459 0.68338716 0.021567963 -0.14146008 0.29398364 0.003969226 0.015047367 0.055084974
-0.17277661 -0.09016458 0.02026074 0.25966144 0.027725838 0.17210506 -0.084860794 -0.091509044
-0.11921419 -0.035451453 0.03858797 -0.08663323 -0.062200684 0.5401177 -0.0046782703 0.17554864
0.21155979 0.16294794 0.18282484 0.51249444 0.09939843 0.04839064 -0.119620524 0.28634757
-0.0020923875 -0.056433894 0.0878256 0.07618984 0.16644347 -0.27945223 -0.013294989 -0.25861847
-0.13805628 0.72281265 -0.05131516 0.2726637 -0.09804992 0.07557137 0.0006344942 -0.8645244
0.30564523 0.08203279 0.026064562 -0.029449595 -0.30778843 0.07491647 0.1550499 -0.1880324
-0.10687452 0.27272174 0.03223249 -0.12007565 0.09995272 -0.29520425 0.12635507 -0.28027904
0.008051123 -0.1489313 -0.07783344 -0.12596199 -0.24389982 -0.07022881 -0.033997048 0.15285505
0.046795458 -0.06805278 0.013832275 -0.16034304 -0.15582727 0.19975342 0.006320859 -0.1562065
-0.13177949 -0.041516036 0.110730186 -0.23591664 -0.016380003 -0.043061584 0.08220686 -0.058895756
-0.2629725 0.04233927 -0.09895794 0.14309773 -0.0938503 -0.0478383 -0.11877111 -0.27908882
-0.061515637 0.096813954 0.038102645 -0.19284266 -0.062113047 -0.0023683882 0.07831666 -0.19517107
-0.08094625 -0.117966294 -0.01664349 -0.11493935 -0.19687726 0.09514209 0.13182482 -0.06076762
-0.12995666 0.03798406 -0.031350896 -0.25413182 -0.15643924 0.032812864 0.05452496 -0.06450418
-0.106638655 0.07316859 0.083420366 -0.062884204 0.1284032 -0.05275651 0.025994329 0.025674725
0.41021812 -0.13554025 0.044213355 -0.13048157 -0.0054282607 0.2799819 0.061451398 -0.042923294
0.17682321 -0.041281596 -0.015703958 0.004487234 0.05575343 0.13251616 0.019738212 0.12695864
0.07164527 -0.21407604 -0.22485484 0.16010119 -0.024618447 -0.4456249 -0.05153724 -0.16769037
0.05043867 0.12170581 -0.06830363 0.22218245 0.007989743 0.12723906 -0.055885132 0.07529006
0.06325948 0.15923266 0.037060242 -0.12285334 -0.12178686 -0.21891347 0.14089628 -0.037468597
0.0807462 -0.28911892 -0.07551822 0.074591495 -0.18484764 -0.21003242 0.074189626 -0.020678168
0.018182352 0.09895536 0.11179137 -0.061618853 0.015006378 -0.036936667 -0.12199467 0.051382676
0.15735301 -0.17692788 0.18904342 -0.31782433 -0.10945415 0.029955525 0.016704649 0.15904957
0.014076872 -0.13538483 0.11534756 -0.037339497 0.1683338 0.06616654 -0.11843284 -0.22570443
00000000: 2635 e2bd 46eb 9fbd 2c30 3cbd ac13 8dbd
00000010: 3f5f 2c3e 8352 12be bdeb 38bd 22ea 593d
00000020: 0f71 fbbd 8e2d edbd 1533 d6bd fb44 363e
00000030: 69b1 8b3d 7824 1e3f 0f20 cf3c 922c be3d
00000040: de88 45bd 4f2a 0c3f 7e95 b13c 0b6d 9bbe
00000050: c0f7 2c3d dfff 8ebd 09b9 d23d d1bc 263e
00000060: 7001 b83d ae2e 45be 1cd5 4a3d cbbd ccbc
00000070: 3dd5 b43c 8c90 c3bc 6f30 8f3e 7bab bd3d
00000080: fa7b 4b3e 33ea 053f 7f30 923d d429 4d3e
00000090: 08d2 573e 4557 f23e 2cd1 9dbd 35ea 45bc
000000a0: 47ff b23e 6d7a 8ebc 979a 683d 81e0 3fbd
000000b0: c55d ad3d 7f7c 78be fd6c 023e 8b56 2f3d
000000c0: bb29 1c3d 2d37 233d dcc6 1bbe bd29 423b
000000d0: a0d6 d03d 4c58 0abd c76c 16bd 5897 313e
000000e0: d1e2 a1bd 76f2 2e3f 4caf b03c e9da 10be
000000f0: 0685 963e 4810 823b 3b89 763c c8a0 613d
00000100: 5aec 30be 35a8 b8bd daf9 a53c 58f2 843e
00000110: 4c21 e33c 4f3c 303e 7fcb adbd 1869 bbbd
00000120: 9226 f4bd 8b35 11bd 6b0e 1e3d c36c b1bd
00000130: 25c6 7ebd 2745 0a3f 2d4c 99bb 06c3 333e
00000140: 21a3 583e d3db 263e 6f36 3b3e d632 033f
00000150: 6791 cb3d 4435 463d 9bfb f4bd 269c 923e
00000160: 7020 09bb 3a27 67bd e8dd b33d 6b09 9c3d
00000170: 2870 2a3e 5d14 8fbe 3ad3 59bc a469 84be
00000180: a05e 0dbe 400a 393f d82f 52bd 949a 8b3e
00000190: 65ce c8bd 2ac5 9a3d 2f54 263a 7951 5dbf
000001a0: 887d 9c3e cf00 a83d 5985 d53c 4740 f1bc
000001b0: 7296 9dbe ce6d 993d 67c5 1e3e 918b 40be
000001c0: 07e1 dabd 2fa2 8b3e 3706 043d 39ea f5bd
000001d0: 03b4 cc3d 0325 97be 3963 013e bc80 8fbe
000001e0: dbe8 033c 7281 18be 2367 9fbd 2efc 00be
000001f0: e0c0 79be 1fd4 8fbd 7d40 0bbd 0986 1c3e
00000200: 98ac 3f3d 425f 8bbd c4a0 623c f730 24be
00000210: 2f91 1fbe 298c 4c3e 351f cf3b 99f4 1fbe
00000220: 34f1 06be b80c 2abd 82c6 e23d 2294 71be
00000230: 5b2f 86bc 5861 30bd 125c a83d ad3c 71bd
00000240: 55a4 86be f16b 2d3d 76aa cabd 3688 123e
00000250: 9634 c0bd 18f2 43bd 453e f3bd bbe4 8ebe
00000260: d2f7 7bbd 6546 c63d 8511 1c3d 8c78 45be
00000270: 406a 7ebd f636 1bbb 7c64 a03d edda 47be
00000280: 26c7 a5bd 5098 f1bd ee57 88bc 5265 ebbd
00000290: 319a 49be dbd9 c23d 16fd 063e 78e7 78bd
000002a0: 5c13 05be 2c95 1b3d cc69 00bd 911d 82be
000002b0: 9c31 20be c866 063d 9155 5f3d c41a 84bd
000002c0: 5e65 dabd 6ad9 953d 4cd8 aa3d 6fc9 80bd
000002d0: 217c 033e 3617 58bd 0ff2 d43c cd53 d23c
000002e0: 1c08 d23e 10cb 0abe 1019 353d f69c 05be
000002f0: 8ddf b1bb ca59 8f3e 76b4 7b3d 56d0 2fbd
00000300: 2511 353e e416 29bd 96a5 80bc a609 933b
00000310: b55d 643d 51b2 073e 08b2 a13c 7201 023e
00000320: c1ba 923d c036 5bbe 5940 66be 91f1 233e
00000330: a0ac c9bc f228 e4be b718 53bd 06b7 2bbe
00000340: c798 4e3d e540 f93d c6e2 8bbd cc83 633e
00000350: 69e7 023c f54a 023e cfe7 64bd ad31 9a3d
00000360: 308e 813d e30d 233e 7bcc 173d 889a fbbd
00000370: 646b f9bd da2a 60be 1d47 103e ac78 19bd
00000380: 445e a53d 6507 94be 4ca9 9abd 6dc3 983d
00000390: b348 3dbe bd12 57be bbf0 973d 4365 a9bc
000003a0: 28f3 943c 1ca9 ca3d e0f2 e43d 0d64 7cbd
000003b0: 50dd 753c e74a 17bd 57d8 f9bd a476 523d
000003c0: 2621 213e 952c 35be 9994 413e dfb9 a2be
000003d0: 7f29 e0bd 4a65 f53c 30d8 883c e4dd 223e
000003e0: aea2 663c 52a2 0abe 573b ec3d 4df1 18bd
000003f0: b25f 2c3e 5382 873d eb8c f2bd 101f 67be

network_body._body_endoder.seq_layers.0.bias f4 [128]
0.09991633 0.071392655 0.030162858 0.068394296 0.04863767 0.089237995 0.06107067 -0.05608263
-0.007892194 0.02750108 0.014589624 0.06336319 -0.05607511 -0.0050148824 0.04038965 0.080412194
0.052807156 0.034725208 0.038849875 0.09541192 0.04950368 0.036450006 0.06013918 0.041739903
0.015503565 -0.021694636 0.04696401 0.0629836 0.06552113 -0.030733353 -0.112299845 0.009600216
0.17991991 -0.09008848 0.046961404 0.068016745 0.040008225 0.023142535 0.013315083 -0.020436985
-0.0024446626 0.03163646 -0.024915518 -0.27378356 0.042096402 0.023115152 0.05993564 0.022640347
0.03659572 -0.018838482 0.054989856 -0.028310236 0.015991872 0.023397518 -0.023857651 0.018406833
0.028467987 0.027691338 0.04598585 0.04637341 0.029530069 0.05760436 0.043652963 -0.0039752135
-0.034859672 0.04428289 0.058628447 0.02803604 0.022950498 -0.0071076676 0.10829565 -0.004572631
0.018181417 -0.016301822 -0.06561865 0.07725051 0.084801726 0.052254327 -0.09569452 0.012670788
0.005414765 0.03344273 0.093459375 0.022360435 0.08186756 0.042785052 0.006897562 0.036632925
0.009349085 0.0776005 0.038546756 -0.17293127 0.087332934 -0.010981982 0.046552457 0.034274578
0.036884382 0.07879148 -0.07882973 0.0012623788 0.047949716 0.06344986 0.030221263 0.038398765
0.013687859 -0.009685431 -0.11652613 0.043171518 0.01620462 -0.10446427 0.005748313 0.05921449
0.029714491 -0.015899858 0.026856853 0.10645621 0.033088025 0.02601452 -0.0088659115 0.015829315
0.041930094 0.022876864 0.03598774 0.045300845 0.042606577 0.05977946 0.038991425 0.0038701904
00000000: efa0 cc3d 5036 923d 1918 f73c 4f12 8c3d
00000010: 4b38 473d 69c2 b63d 3d25 7a3d e6b6 65bd
00000020: 434e 01bc f249 e13c 5109 6f3c 8fc4 813d
00000030: 04af 65bd e253 a4bb 9e6f 253d 26af a43d
00000040: 514c 583d 053c 0e3d 0c21 1f3d 5367 c33d
00000050: 5fc4 4a3d 9a4c 153d 8054 763d 76f7 2a3d
00000060: aa02 7e3c f3b8 b1bc 555d 403d 8cfd 803d
00000070: f12f 863d 83c4 fbbc 76fd e5bd 394a 1d3c
00000080: ed3c 383e 4f80 b8bd 9a5a 403d 5d4c 8b3d
00000090: aadf 233d 6a95 bd3c 8227 5a3c 776b a7bc
000000a0: a236 20bb 3c95 013d a11b ccbc 5c2d 8cbe
000000b0: 476d 2c3d fd5b bd3c 137f 753d 4078 b93c
000000c0: 65e5 153d 2953 9abc 0b3d 613d deea e7bc
000000d0: 6301 833c 27ac bf3c 1f71 c3bc edc9 963c
000000e0: b235 e93c f2d8 e23c a95b 3c3d 0bf2 3d3d
000000f0: 0be9 f13c 8df2 6b3d 73cd 323d 8242 82bb
00000100: 04c9 0ebd fa61 353d 6224 703d d6ab e53c
00000110: af02 bc3c 70e7 e8bb 1cca dd3d 02d6 95bb
00000120: 32f1 943c 668b 85bc 1263 86bd 8435 9e3d
00000130: 87ac ad3d a208 563d 7dfb c3bd 2399 4f3c
00000140: 576e b13b 3efb 083d a167 bf3d 3b2d b73c
00000150: 2eaa a73d 613f 2f3d f204 e23b 680c 163d
00000160: e82c 193c 03ed 9e3d 34e3 1d3d e514 31be
00000170: 9cdb b23d c5ed 33bc caad 3e3d 8063 0c3d
00000180: 1414 173d 6d5d a13d 7b71 a1bd 6776 a53a
00000190: ec66 443d 00f2 813d 9592 f73c 0648 1d3d
000001a0: 0b43 603c a4af 1ebc 40a5 eebd 9ed4 303d
000001b0: 8dbf 843c 5df1 d5bd 585c bc3b e58a 723d
000001c0: ce6b f33c 6b40 82bc e702 dc3c b705 da3d
000001d0: 4f87 073d 671c d53c 5442 11bc 7bac 813c
000001e0: e4be 2b3d 4368 bb3c e167 133d 618d 393d
000001f0: 3c84 2e3d 4fdb 743d 79b5 1f3d 05a3 7d3b

network_body._body_endoder.seq_layers.2.weight f4 [128, 128]
0.04548602 0.23413284 -0.102832444 0.04937166 -0.09313619 0.12227063 -0.0891891 0.14148854
-0.33773407 -0.09012803 -0.22092901 -0.19920088 0.16961558 -0.1333852 -0.18141901 -0.030358713
0.053654477 0.2599762 0.026180554 -0.05456152 0.14278631 0.09436615 -0.18821622 0.16082473
0.0078062573 0.038980037 0.02898336 0.09057014 0.091368504 -0.011885972 -0.04275331 -0.060807154
0.20432779 -0.22689208 0.0621991 0.1263148 -0.1336293 -0.016533526 -0.01598998 0.12615037
0.25616765 -0.12648502 0.021677807 0.022294246 0.09056187 0.09235739 -0.105222285 0.022338305
-0.11036754 -0.2124706 0.0188003 0.14598188 -0.044372376 -0.0356482 0.009767245 -0.032034576
-0.06387124 0.10976169 -0.13251121 0.030423826 -0.1689337 0.16932511 0.14832483 0.1646677
0.004626275 -0.044706356 0.1679575 -0.00050623436 -0.049889453 -0.18485972 0.12130211 0.033958938
-0.10524486 0.23014805 -0.29235104 0.013672046 0.024386583 0.017784275 0.21513414 0.0021130242
-0.09555214 -0.042964578 0.19784516 -0.18037759 -0.17489307 0.17104252 0.119808115 -0.13538116
0.05336232 0.037060276 0.05753497 -0.088631086 -0.24708194 0.08100244 0.100452565 0.07289116
0.041632324 -0.18334262 -0.1119548 -0.17285465 0.023943836 0.29670075 0.109406516 -0.04191904
-0.26112285 0.15899326 -0.026376076 -0.07114199 0.030355634 0.0328102 -0.16909114 -0.09019002
-0.15859392 -0.14621459 -0.22615972 0.15394422 0.06704153 0.07752927 -0.043492988 -0.25604278
-0.12185294 -0.19354324 -0.08825614 -0.12725776 -0.10544528 0.022107532 -0.18434253 0.0051084054
0.15952444 0.024095338 -0.081644885 0.020913193 -0.18350455 -0.0053379233 0.17358957 -0.17730348
-0.20982312 0.08373997 0.2716974 0.02787912 -0.11675862 0.25722983 0.26051655 0.06493915
-0.10944338 -0.122555435 0.056899328 0.11914741 0.17901069 0.102314785 -0.0049165534 0.23735814
0.11678717 -0.107847326 0.055252004 0.013791805 0.10387682 -0.13423665 -0.0730142 0.17442733
-0.22178145 -0.08052014 -0.17032282 0.0049777213 0.082493804 0.011021746 0.037804153 0.0077862553
-0.20205513 -0.031768136 0.10085438 -0.19912902 0.08135706 -0.0025571578 0.028458713 -0.076038696
0.068354405 -0.16350138 0.10792822 -0.30049732 0.06539135 0.04995679 -0.2240109 -0.0855928
-0.074254915 0.07135984 0.08532462 0.06640964 0.111544766 -0.30555 0.081929125 0.05774853
-0.05502766 0.2723376 -0.1040839 -0.08443134 -0.16208123 -0.0075926064 -0.06674582 -0.08344995
-0.025634523 -0.12705022 0.12854744 0.112508975 -0.10132325 -0.07218209 -0.012529544 0.16140947
-0.16205211 -0.09358687 3.1772237e-05 0.14115858 0.034769148 0.0042544263 -0.09253322 -0.08417146
-0.088334806 0.16191176 0.0110077085 -0.1851241 0.2577304 -0.00078231236 -0.1575796 -0.10336601
-0.0327993 0.026206177 -0.1442166 0.018040925 0.052805115 -0.25773647 -0.1672104 -0.012312427
-0.17892568 -0.23370685 -0.009917457 -0.15558676 -0.011690806 -0.11716107 -0.053943496 0.11310428
-0.033114485 -0.118722275 -0.30079183 -0.043357532 -0.066255 0.20913732 -0.31697804 -0.010454496
0.16375777 -0.23983298 -0.04542376 0.006999989 0.02614524 0.072063945 -0.105232514 0.04837895
00000000: 8d4f 3a3d 85c0 6f3e d199 d2bd f039 4a3d
00000010: 30be bebd 0669 fa3d c6a8 b6bd 5fe2 103e
00000020: 7beb acbe 0b95 b8bd 373b 62be 51fb 4bbe
00000030: b5af 2d3e 2196 08be e8c5 39be d6b2 f8bc
00000040: ccc4 5b3d 9a1b 853e 9a78 d63c e77b 5fbd
00000050: 9336 123e 0a43 c13d c1bb 40be 3daf 243e
00000060: a2cb ff3b 88a9 1f3d 836e ed3c d67c b93d
00000070: 691f bb3d 61bd 42bc 181e 2fbd ec10 79bd
00000080: 4e3b 513e 6656 68be 7cc4 7e3d ab58 013e
00000090: 1fd6 08be 5171 87bc 6bfd 82bc 902d 013e
000000a0: 6828 833e 4a85 01be a895 b13c 6ca2 b63c
000000b0: 8078 b93d df25 bd3d c87e d7bd d2fe b63c
000000c0: 6008 e2bd e591 59be 1603 9a3c 467c 153e
000000d0: cfbf 35bd d903 12bd cb06 203c b036 03bd
000000e0: edce 82bd bdca e03d 05b1 07be 633b f93c
000000f0: f5fc 2cbe 9063 2d3e 77e2 173e a69e 283e
00000100: 0298 973b 031e 37bd 0dfd 2b3e d0b4 04ba
00000110: e258 4cbd de4b 3dbe 3e6d f83d 8718 0b3d
00000120: 9e8a d7bd eeab 6b3e 09af 95be b800 603c
00000130: 5fc6 c73c 54b0 913c 204c 5c3e aa7a 0a3b
00000140: d7b0 c3bd a0fb 2fbd ec97 4a3e e7b4 38be
00000150: 2b17 33be c525 2f3e f55d f53d 5ca1 0abe
00000160: 7392 5a3d 84cc 173d caa9 6b3d 3784 b5bd
00000170: 0c03 7dbe 9be4 a53d 13ba cd3d f647 953d
00000180: a886 2a3d 2bbe 3bbe 8f48 e5bd cf00 31be
00000190: dd25 c43c 29e9 973e 8610 e03d 4db3 2bbd
000001a0: e5b1 85be 21cf 223e a412 d8bc e4b2 91bd
000001b0: 61ac f83c fd63 063d 3a26 2dbe 8cb5 b8bd
000001c0: 7266 22be 47b9 15be 6a96 67be 8ea3 1d3e
000001d0: 124d 893d aac7 9e3d b425 32bd 0a18 83be
000001e0: 098e f9bd 3330 46be a3bf b4bd dc4f 02be
000001f0: b2f3 d7bd db1a b53c 4ac4 3cbe 6964 a73b
00000200: 605a 233e 9663 c53c 6f35 a7bd 2552 ab3c
00000210: 9ee8 3bbe bfe9 aebb 77c1 313e 0b8f 35be
00000220: dfdb 56be dd7f ab3d ec1b 8b3e c162 e43c
00000230: 251f efbd a1b3 833e 6d62 853e d1fe 843d
00000240: da23 e0bd 58fe fabd 450f 693d 8f03 f43d
00000250: 944e 373e 6a8a d13d 0a1b a1bb 030e 733e
00000260: 1d2e ef3d 0fdf dcbd ed4f 623d 06f7 613c
00000270: 5fbd d43d 5575 09be 7888 95bd 149d 323e
00000280: ad1a 63be bee7 a4bd 1b69 2ebe 271c a33b
00000290: 83f2 a83d 8e94 343c 87d8 1a3d d823 ff3b
000002a0: 8ae7 4ebe 4e1f 02bd be8c ce3d 7ae8 4bbe
000002b0: 889e a63d fd95 27bb 3f22 e93c 2dba 9bbd
000002c0: 65fd 8b3d e86c 27be 7809 dd3d c9da 99be
000002d0: e6eb 853d 7e9f 4c3d 1d63 65be 474b afbd
000002e0: f612 98bd 1c25 923d adbe ae3d c701 883d
000002f0: 9571 e43d 0d71 9cbe 75ca a73d b989 6c3d
00000300: af64 61bd d56f 8b3e f129 d5bd 57ea acbd
00000310: 9ff8 25be 66cb f8bb 08b2 88bd cfe7 aabd
00000320: 7eff d1bc 7419 02be f1a1 033e 1b6b e63d
00000330: 9082 cfbd 34d4 93bd b748 4dbc 8648 253e
00000340: fdf0 25be 79aa bfbd 2e43 0538 e08b 103e
00000350: 186a 0e3d b768 8b3b 0f82 bdbd 1662 acbd
00000360: e1e8 b4bd 32cc 253e ad59 343c 2c91 3dbe
00000370: 3df5 833e 1814 4dba 8c5c 21be 8fb1 d3bd
00000380: 8f58 06bd 56ae d63c 84ad 13be 90ca 933c
00000390: 2d4a 583d 09f6 83be 3439 2bbe 10ba 49bc
000003a0: 4b38 37be d950 6fbe d47c 22bc 2352 1fbe
000003b0: cb8a 3fbc 25f2 efbd dbf3 5cbd 37a3 e73d
000003c0: 0ea3 07bd aa24 f3bd 6301 9abe ab97 31bd
000003d0: b4b0 87bd 1828 563e f24a a2be 5649 2bbc
000003e0: 1eb0 273e c796 75be 440e 3abd 2a60 e53b
000003f0: 8b2e d63c 4396 933d 2584 d7bd 0229 463d

network_body._body_endoder.seq_layers.2.bias f4 [128]
-0.027801914 0.07880725 -0.016195385 -0.035026297 -0.05951483 -0.048514083 -0.023835463 -0.011172342
0.05948799 0.035440095 -0.073781036 0.030226493 -0.04105023 0.08297841 0.0407202 0.016187474
-0.0102691855 0.047654282 0.03345589 0.043883923 0.043364476 -0.0002649605 -0.008085541 0.05495372
0.048650604 0.05070602 0.0359676 0.031029414 -0.043483935 -0.028952425 0.050243016 -0.023263687
0.06303609 0.008714467 -0.06881926 0.055212617 -0.028415862 0.026291216 0.04991466 0.02191824
0.049178354 -0.062633045 0.0033774625 -0.08368594 0.023668919 0.030821392 -0.1049857 0.0411882
0.05535354 0.059147205 -0.04192459 0.058957785 0.025740208 0.017646514 -0.030938543 -0.02847991
0.047952764 -0.008960456 -0.007465338 0.05373784 0.08099371 -0.06641346 -0.0738047 -0.02785021
0.05086142 -0.06307367 0.010661065 0.08969909 -0.03278439 0.07242866 -0.014763985 -0.05522543
0.049271498 0.04004429 -0.03978997 0.032695327 -0.059934914 -0.012530987 -0.046568405 0.09080432
0.04716425 0.06412358 0.011068259 0.050602164 0.014857917 0.04113771 -0.02643955 0.04046399
0.013805337 0.06397462 0.031710543 0.038083926 0.05808315 0.057026748 -0.053574685 0.039508123
0.04002883 0.0065834774 0.04346869 -0.0018735715 0.0052190125 0.07766956 0.03355542 0.049513847
0.054287307 0.003656883 -0.0938866 0.05513496 -0.030204676 0.030930558 0.051564157 0.035144147
-0.053038154 -0.027006583 -0.20397255 -0.013494815 0.029600456 -0.026983766 0.017991291 -0.0167056
0.02735769 0.044344854 -0.06394912 -0.05889005 -0.045081418 -0.023028005 0.049722772 -0.04004728
00000000: d7c0 e3bc b265 a13d 2fac 84bc bc77 0fbd
00000010: d3c5 73bd b4b6 46bd 9742 c3bc 330c 37bc
00000020: aea9 733d a229 113d 831a 97bd 8d9d f73c
00000030: 4924 28bd 96f0 a93d 39ca 263d 989b 843c
00000040: 1640 28bc 2331 433d 0b09 093d a1bf 333d
00000050: f39e 313d 65ea 8ab9 3879 04bc 2717 613d
00000060: db45 473d 1eb1 4f3d c352 133d 6631 fe3c
00000070: 361c 32bd a32d edbc 9fcb 4d3d 7d93 bebc
00000080: 1119 813d 20c7 0e3c 1df1 8cbd a026 623d
00000090: 62c8 e8bc ad60 d73c 5173 4c3d e18d b33c
000000a0: 3e6f 493d c145 80bd 6b58 5d3b 8963 abbd
000000b0: 52e5 c13c 257d fc3c be02 d7bd f5b4 283d
000000c0: 65ba 623d 5744 723d 1eb9 2bbd b87d 713d
000000d0: 21dd d23c 6c8f 903c d472 fdbc b34e e9bc
000000e0: 1e6a 443d e0ce 12bc cb9f f4bb 361c 5c3d
000000f0: 08e0 a53d c803 88bd eb26 97bd 2026 e4bc
00000100: 1054 503d c52c 81bd bfab 2e3c 28b4 b73d
00000110: ed48 06bd 7a55 943d a4e4 71bc 0f34 62bd
00000120: e9d0 493d 7b05 243d cffa 22bd 89eb 053d
00000130: 507e 75bd c54e 4dbc 83be 3ebd 9ef7 b93d
00000140: 4d2f 413d 3953 833d a557 353c 3744 4f3d
00000150: 9f6e 733c 0480 283d c197 d8bc 92bd 253d
00000160: c82f 623c 2005 833d eae2 013d e4fd 1b3d
00000170: 99e8 6d3d e194 693d 2171 5bbd 45d3 213d
00000180: 45f5 233d 36ba d73b 3a0c 323d a192 f5ba
00000190: 4004 ab3b 3811 9f3d 6871 093d 08cf 4a3d
000001a0: 5e5c 5e3d 51a8 6f3b 9e47 c0bd 32d5 613d
000001b0: cc6f f7bc 1562 fd3c f034 533d 4ff3 0f3d
000001c0: 893e 59bd e93c ddbc 2ede 50be 5b19 5dbc
000001d0: a87c f23c 0f0d ddbc 7962 933c 2fda 88bc
000001e0: 3c1d e03c f3a2 353d c2f7 82bd b136 71bd
000001f0: 4ba7 38bd 3aa5 bcbc 1baa 4b3d 9e08 24bd

action_model._discrete_distribution.branches.0.weight f4 [3, 128]
0.0002827882 -0.052540686 -0.045683984 -0.0013892347 -0.21684189 -0.033617027 -0.40290615 -0.09880273
-0.15184236 -0.032078546 -0.013715415 -0.035925925 0.022867428 -0.12470455 -0.052289017 0.028647078
-0.019985577 -0.04988211 0.020081539 -0.011772773 0.01500541 0.028840367 -0.01557156 -0.11837364
-0.033737343 -0.038105063 -0.044388108 -0.35125744 0.0075553223 -0.00064403313 -0.07986883 0.1599121
-0.025845803 -0.06483638 0.0465712 -0.039999567 -0.002028283 -0.034733806 -0.004164181 0.1755882
-0.0846442 -0.060527902 0.22033817 0.03237763 -0.071422845 -0.05317779 0.06587587 -0.07179947
-0.0655858 -0.04329032 -0.049157064 0.04880106 0.040224716 -0.038311947 0.03191849 -0.07354491
-0.0050344095 -0.049435325 -0.09800345 0.12031078 0.15738554 0.012905846 0.024968954 0.14985758
-0.01448617 0.032431785 -0.07138692 0.1392216 -0.025705105 0.092652105 -0.038568594 -0.17438075
0.13148144 -0.035076357 0.2317224 -0.04170195 0.032764345 -0.051061947 0.030413454 -0.05019592
-0.047074035 -0.06425681 -0.26406786 -0.056614835 -0.3094853 -0.019742517 -0.027589146 -0.0022412606
0.019732617 -0.1362545 -0.011992332 0.006597558 -0.06764306 0.016857544 -0.029650113 -0.008406441
-0.12775649 -0.06212904 -0.052933604 0.23943633 0.016804602 -0.006334627 -0.16013137 -0.09941588
-0.110979155 -0.22094826 0.1414001 -0.0628045 0.27913094 0.18748248 -0.028797157 0.07807348
0.09611661 0.22224475 0.2513773 -0.077222854 -0.05432431 0.07779064 -0.07307909 -0.034142546
0.00019274943 -0.08039247 -0.09777183 -0.015836513 0.022107765 -0.031775817 0.044124305 -0.015510347
-0.025561193 0.1105607 0.01674354 -0.080530286 0.15149248 -0.011788779 0.3279274 0.048946287
0.15950742 0.02940157 -0.053805213 0.0764661 -0.08181782 0.13118647 0.08313126 0.014448093
-0.046978515 0.07378805 -0.0029611553 0.06612153 0.017697614 -0.040163584 -0.02027673 0.08591198
0.07574302 0.06097456 0.06266635 0.25779915 -0.050323278 -0.03691005 0.09406999 -0.14960648
0.0689074 0.018565843 -0.09559332 0.037156854 -0.038802635 0.04648946 0.07333717 -0.1123652
0.08907878 -0.014153967 -0.16534199 -0.052777354 0.04237258 0.070459954 -0.077398166 0.082537696
0.08202318 0.08947896 0.006478698 0.018555582 -0.014776266 0.08228579 -0.05815318 0.04387993
0.04555714 -0.0027180377 0.018823702 -0.05325763 -0.06667105 -0.06319118 -0.03580012 -0.15348172
0.048310418 -0.061864417 0.053746954 -0.058893904 0.0039272765 -0.011753323 0.05663256 0.123206906
-0.0699987 0.0926308 -0.23094149 0.07717704 -0.045900486 -0.02911407 -0.058512304 0.10788499
0.07546645 0.106562376 0.23819187 0.09014631 0.24558842 0.046173893 -0.014718337 0.046577536
0.0070630317 0.14949657 0.04740725 0.004931098 0.10400163 0.038484666 -0.031571567 0.043275952
0.13383754 0.057657763 0.05954036 -0.18197793 -0.041331936 0.05850785 0.13454549 0.10480132
0.1430207 0.18567508 -0.14783923 0.099510364 -0.28984243 -0.14003 0.075026706 -0.037252236
-0.13207407 -0.25404835 -0.3107673 0.016015934 0.07526561 -0.124068186 0.08154484 -0.0092904875
0.03291598 0.08777575 0.012666798 -0.030591568 -0.047688387 -0.029707994 -0.0070002056 -0.07179083
00000000: 3143 9439 e734 57bd 211f 3bbd fb16 b6ba
00000010: cd0b 5ebe 02b2 09bd b749 cebe 1659 cabd
00000020: 907c 1bbe cb64 03bd 9fb6 60bc 1027 13bd
00000030: 7954 bb3c 1965 ffbd 022d 56bd 47ad ea3c
00000040: cbb8 a3bc 2f51 4cbd 0a82 a43c 97e2 40bc
00000050: 40d9 753c a242 ec3c db1f 7fbc e16d f2bd
00000060: 2b30 0abd 0e14 1cbd 4ed0 35bd 04d8 b3be
00000070: a392 f73b 55d4 28ba 4592 a3bd ffbf 233e
00000080: 94ba d3bc f0c8 84bd 71c1 3e3d 96d6 23bd
00000090: f1ec 04bb 0945 0ebd af73 88bb 65cd 333e
000000a0: f059 adbd 1bec 77bd 54a0 613e 689e 043d
000000b0: 2446 92bd f4d0 59bd eee9 863d 9a0b 93bd
000000c0: d951 86bd 3151 31bd eb58 49bd 9fe3 473d
000000d0: acc2 243d fdec 1cbd f6bc 023d b79e 96bd
000000e0: b0f7 a4bb b27c 4abd 08b6 c8bd 8065 f63d
000000f0: ad29 213e 0b73 533c b18b cc3c 4474 193e
00000100: 6757 6dbc 31d7 043d 4e33 92bd 1b90 0e3e
00000110: 8393 d2bc 63c0 bd3d 1afa 1dbd de90 32be
00000120: 12a3 063e 3aac 0fbd a348 6d3e aacf 2abd
00000130: e833 063d 5526 51bd a325 f93c 3d9a 4dbd
00000140: b4d0 40bd 1399 83bd e733 87be f5e4 67bd
00000150: db74 9ebe 0fbb a1bc a202 e2bc 1de2 12bb
00000160: 4ca6 a13c 4d86 0bbe 7c7b 44bc 5430 d83b
00000170: 7288 8abd d518 8a3c cbe4 f2bc 2bbb 09bc
00000180: 99d2 02be 057b 7ebd e8d0 58bd cc2e 753e
00000190: cea9 893c b492 cfbb 7af9 23be 8e9a cbbd
000001a0: 0a49 e3bd 4340 62be 30cb 103e a59f 80bd
000001b0: 40ea 8e3e 68fb 3f3e 04e8 ebbc fde4 9f3d
000001c0: c9d8 c43d 2194 633e 87b4 803e 0427 9ebd
000001d0: 2b83 5ebd b350 9f3d 7daa 95bd 0ed9 0bbd
000001e0: c81c 4a39 cfa4 a4bd 993c c8bd 93bb 81bc
000001f0: 581b b53c 5c27 02bd b0bb 343d 1c1f 7ebc
00000200: b565 d1bc a66d e23d c029 893c 10ed a4bd
00000210: d820 1b3e b925 41bc 1ae6 a73e e77b 483d
00000220: ea55 233e 90db f03c db62 5cbd 429a 9c3d
00000230: 1a90 a7bd bf55 063e b940 aa3d b2b7 6c3c
00000240: 8b6c 40bd 301e 973d f10f 42bb ba6a 873d
00000250: 96fa 903c 9282 24bd 631b a6bc 9ff2 af3d
00000260: 281f 9b3d 76c0 793d 3757 803d 40fe 833e
00000270: c81f 4ebd fe2e 17bd c4a7 c03d 7132 19be
00000280: 531f 8d3d 6517 983c 6ec6 c3bd c931 183d
00000290: 83ef 1ebd bb6b 3e3d cc31 963d ba1f e6bd
000002a0: ef6e b63d 0ae6 67bc 694f 29be 112d 58bd
000002b0: df8e 2d3d 4f4d 903d ee82 9ebd 8609 a93d
000002c0: c5fb a73d bf40 b73d 424b d43b e001 983c
000002d0: 2718 72bc 7485 a83d 0732 6ebd 71bb 333d
000002e0: 209a 3a3d 1b21 32bb 2a34 9a3c ac24 5abd
000002f0: d58a 88bd 616a 81bd 26a3 12bd 502a 1dbe
00000300: 25e1 453d 8b65 7dbd c425 5c3d bc3a 71bd
00000310: 62b0 803b 0291 40bc 8bf7 673d e753 fc3d
00000320: 7a5b 8fbd 38b5 bd3d ed7b 6cbe ff0e 9e3d
00000330: 2602 3cbd a180 eebc 99aa 6fbd cef2 dc3d
00000340: 278e 9a3d 603d da3d 92e8 733e a19e b83d
00000350: 887b 7b3e d620 3d3d 2e25 71bc 16c8 3e3d
00000360: 0171 e73b a115 193e 1b2e 423d 0c95 a13b
00000370: cefe d43d 19a2 1d3d 3051 01bd 2042 313d
00000380: b50c 093e 8c2a 6c3d 98e0 733d 6c58 3abe
00000390: ad4b 29bd eda5 6f3d 4bc6 093e 13a2 d63d
000003a0: 0574 123e 9c21 3e3e 2b63 17be 17cc cb3d
000003b0: 3a66 94be 0664 0fbe 9aa7 993d cd95 18bd
000003c0: 6d3e 07be a012 82be e41c 9fbe d933 833c
000003d0: db24 9a3d 7617 febd fb00 a73d 2137 18bc
000003e0: e8d2 063d c6c3 b33d 6788 4f3c 2b9b fabc
000003f0: e654 43bd 2e5e f3bc fb61 e5bb 1207 93bd

action_model._discrete_distribution.branches.0.bias f4 [3]
0.006073111 0.029592717 -0.1285525
00000000: f300 c73b 6d6c f23c 44a3 03be

action_model._discrete_distribution.branches.1.weight f4 [3, 128]
-0.047667563 -0.047571942 -0.13504165 -0.024717387 -0.09165755 -0.022629248 -0.13391177 -0.06046229
-0.009483469 0.039647005 -0.036642216 0.008430193 -0.101427026 -0.029674372 0.01569349 0.02777006
-0.042380713 0.035482585 0.047252126 0.027573667 0.056668505 -0.000385082 -0.019854508 0.0488925
0.034470547 0.014131908 0.019290848 0.03222531 -0.062587604 -0.06611936 0.032570913 -0.16788094
0.012461739 -0.09392838 -0.04791072 0.035192817 -0.024462042 -0.004397034 0.015105332 -0.04771622
0.00079731405 -0.016339673 0.006447864 -0.053005833 0.0072404207 0.05207353 -0.012244001 0.00024029001
0.011088517 0.018424092 -0.03514237 0.026373902 0.02282728 -0.031642232 -0.07886209 0.007692855
0.016295137 -0.050084013 -0.022385009 0.09878865 0.031700835 -0.047180854 -0.13294321 -0.16413847
0.061004486 0.014691521 0.017029596 0.123662695 -0.063648276 0.041359544 -0.03191357 -0.120987326
0.121359125 0.041714568 0.12343947 0.034575313 -0.043323494 -0.106679454 -0.06529113 -0.0007753572
0.0028421301 0.034331944 -0.052002814 0.03259735 0.028324518 0.031390112 -0.06661125 0.042368334
-0.05505385 -0.052929413 0.022532558 0.033066183 0.0056464616 0.043822102 -0.02581891 0.03903692
-0.020265449 0.044234447 0.028492052 0.008483882 0.030256167 0.006640843 0.025600668 0.040992297
0.02486669 -0.061905812 -0.08680125 -0.0036279003 -0.09931065 -0.07153453 0.0128469905 0.015341298
-0.061863385 0.02359059 -0.15893714 -0.04267628 -0.0015059917 -0.021814598 0.014154957 -0.050705202
0.038001068 0.02245413 -0.054735627 -0.030295758 -0.028506562 -0.030812478 0.073177435 -0.04671365
-0.023587875 0.04819019 0.07399255 0.0013509744 -0.1147036 -0.06488459 -0.14243306 0.1950247
-0.011645876 -0.084730506 0.014787409 0.00025931836 0.12629338 0.036730003 -0.043062687 0.023914346
0.027897006 -0.0013450934 -0.08302408 -0.002180945 -0.067317896 -0.08014721 -0.027174138 0.35422584
0.018257614 -0.017829536 0.0028427774 -0.23366578 0.025775345 0.027537981 -0.012140712 0.22424929
0.017499475 -0.0054804212 0.047381558 -0.20854796 0.09774949 0.010307184 0.0022063693 0.0878541
0.003926799 0.026970843 0.014915642 0.056036603 -0.20045096 -0.10673058 0.047144722 -0.041415595
0.044337846 0.06779493 0.04612186 -0.088649504 0.011606388 0.024576606 0.075747706 -0.035258893
-0.0013983487 0.05219715 -0.09924681 -0.096826196 -0.2198496 0.018360857 0.12777965 0.22945787
-0.087925725 -0.011926812 -0.057815026 -0.1810607 0.03661509 0.15244918 0.05638699 -0.06229315
-0.067436546 -0.015652824 -0.31129283 -0.059644096 0.022212088 0.01879444 -0.010766628 -0.014128803
-0.0055718035 -0.003856423 -0.13758285 0.011441964 0.31550235 0.02161702 0.0017288157 0.02331606
0.07626265 0.15051784 0.005853685 -0.121006355 0.059040263 0.0001536334 0.011438515 -0.07255697
0.023835348 -0.029792104 -0.017231047 0.008115332 0.0564309 0.08459642 -0.030530186 -0.0113824075
-0.0235555 -0.22797118 0.082135394 -0.017998789 0.18743111 -0.026985724 -0.019895848 -0.129201
0.0069176136 0.03313102 -0.10734557 0.04360838 -0.00061134796 0.010223463 -0.0033124627 0.0116864145
-0.19371933 -0.023209026 0.10548008 0.02017116 0.005648995 -0.0052344236 0.09087634 0.0043050135
00000000: 103f 43bd ccda 42bd 5c48 0abe 1e7c cabc
00000010: f4b6 bbbd f960 b9bc 2b20 09be 4ea7 77bd
00000020: 8d60 1bbc e664 223d 2616 16bd cb1e 0a3c
00000030: f9b8 cfbd ab17 f3bc a28f 803c 097e e33c
00000040: 6697 2dbd 3056 113d 728b 413d 2ce2 e13c
00000050: 3c1d 683d d5e4 c9b9 eca5 a2bc 8143 483d
00000060: fd30 0d3d 8589 673c d707 9e3c b0fe 033d
00000070: ee2d 80bd 9669 87bd 1469 053d fbe8 2bbe
00000080: 522c 4c3c 865d c0bd 083e 44bd 5826 103d
00000090: 9f64 c8bc ff14 90bb 5b7c 773c 1572 43bd
000000a0: d702 513a c7da 85bc 9b48 d33b a51c 59bd
000000b0: 0d41 ed3b 0e4b 553d 109b 48bc 5cf6 7b39
000000c0: 9cac 353c 1fee 963c 72f1 0fbd 150e d83c
000000d0: 4700 bb3c 499b 01bd 7382 a1bd 5814 fc3b
000000e0: 617d 853c e524 4dbd c460 b7bc b451 ca3d
000000f0: bcd8 013d b640 41bd 4422 08be ea13 28be
00000100: d7df 793d b5b4 703c a781 8b3c de42 fd3d
00000110: 075a 82bd a068 293d ceb7 02bd 34c8 f7bd
00000120: 228b f83d e5dc 2a3d d5cd fc3d d89e 0d3d
00000130: fa73 31bd c27a dabd 5bb7 85bd 5741 4bba
00000140: 0843 3a3b a79f 0c3d e700 55bd cd84 053d
00000150: d208 e83c eb92 003d 7b6b 88bd 6b8a 2d3d
00000160: 2580 61bd 83cc 58bd 3396 b83c 6870 073d
00000170: f405 b93b ce7e 333d 2e82 d3bc 2de5 1f3d
00000180: ba03 a6bc 2e2f 353d 2a68 e93c fbff 0a3c
00000190: c8db f73c 6e9b d93b 7eb8 d13c 8ae7 273d
000001a0: 3bb5 cb3c f390 7dbd dbc4 b1bd 11c2 6dbb
000001b0: 6263 cbbd b280 92bd 2f7c 523c 115a 7b3c
000001c0: 7664 7dbd 0e41 c13c 6bc0 22be 53cd 2ebd
000001d0: b264 c5ba 87b4 b2bc 31ea 673c 42b0 4fbd
000001e0: 02a7 1b3d b9f1 b73c 7732 60bd cf2e f8bc
000001f0: 9886 e9bc 736a fcbc 0dde 953d d056 3fbd
00000200: 5c3b c1bc 1463 453d 6889 973d 2e13 b13a
00000210: b9e9 eabd 36e2 84bd f9d9 11be 8eb4 473e
00000220: 58ce 3ebc 3087 adbd e446 723c 1ff5 8739
00000230: 0d53 013e 3372 163d 8062 30bd 05e8 c33c
00000240: 4388 e43c d84d b0ba 8708 aabd 2fee 0ebb
00000250: f7dd 89bd 3824 a4bd 4c9c debc 175d b53e
00000260: fe90 953c 3f0f 92bc e44d 3a3b 1546 6fbe
00000270: d126 d33c 5597 e13c d6e9 46bc 9ba1 653e
00000280: 0f5b 8f3c 1b95 b3bb 2a13 423d 998d 55be
00000290: e230 c83d 77df 283c bc98 103b daec b33d
000002a0: 61ac 803b f5f1 dc3c bd60 743c a386 653d
000002b0: 0443 4dbe 9095 dabd d31a 413d 66a3 29bd
000002c0: 9a9b 353d 11d8 8a3d 47ea 3c3d df8d b5bd
000002d0: b828 3e3c e154 c93c 9d21 9b3d a16b 10bd
000002e0: cc48 b7ba aecc 553d e941 cbbd d04c c6bd
000002f0: 4120 61be 8269 963c abd8 023e 01f7 6a3e
00000300: 6712 b4bd ad68 43bc 73cf 6cbd fa67 39be
00000310: b4f9 153d a31b 1c3e 0bf6 663d 1a27 7fbd
00000320: 2c1c 8abd 5a3a 80bc c661 9fbe 5e4d 74bd
00000330: 20f6 b53c ccf6 993c 8366 30bc 7f7c 67bc
00000340: ad93 b6bb 0bbc 7cbb 85e2 0cbe 1377 3b3c
00000350: 8689 a13e 2d16 b13c 6e99 e23a 5201 bf3c
00000360: 982f 9c3d 5921 1a3e 45d0 bf3b 2ed2 f7bd
00000370: 34d4 713d a718 2139 9c68 3b3c c098 94bd
00000380: 5942 c33c 920e f4bc 2028 8dbc 2bf6 043c
00000390: 1624 673d e340 ad3d 711a fabc 477d 3abc
000003a0: 77f7 c0bc 4771 69be 9a36 a83d 3272 93bc
000003b0: f1ed 3f3e 2a11 ddbc 9efc a2bc 444d 04be
000003c0: 26ad e23b 64b4 073d ffd7 dbbd b39e 323d
000003d0: de42 20ba 5080 273c e715 59bb 6078 3f3c
000003e0: 5c5e 46be db20 bebc f105 d83d fd3d a53c
000003f0: 341b b93b 8785 abbb 601d ba3d 1211 8d3b

action_model._discrete_distribution.branches.1.bias f4 [3]
0.035103925 -0.016979845 -0.050091643
00000000: 22c9 0f3d 5119 8bbc e52c 4dbd

exp_avg f4 [128, 104]
-0.0004423894 -0.00072167255 0.0 -9.5533695e-05 -0.0010600399 -0.00010208871 0.0 -0.00015777587
-0.0008473993 -0.00031316731 0.0 -0.00039717442 -0.0006349785 -0.00050165755 0.0 -0.0004360951
-0.0014352303 0.00027527253 0.0 -0.00066729204 -0.0005526039 -0.00062583404 0.0 -9.829455e-05
-0.0010032214 -0.0001853182 0.0 -0.00016315082 -0.00085387676 -0.000325119 0.0 -0.00040272143
-0.00062870973 -0.00054248684 0.0 -0.00045059697 -0.0014002013 0.00023391123 0.0 -0.0006614914
-0.00071721955 -0.0004745177 0.0 -9.060541e-05 -0.000983196 -0.00020362248 0.0 -0.00015613071
-0.0007161336 -0.00042725296 0.0 -0.00040368494 -0.0005757668 -0.0005569185 0.0 -0.00043945748
-0.0014495574 0.0002762211 0.0 -0.00066439324 -0.0007796199 -0.00044964472 0.0 -9.3631046e-05
-0.0010282941 -0.0002697632 0.0 -0.00018627271 -0.0007975969 -0.0004095931 0.0 -0.00041769593
-0.0005568121 -0.0005040402 0.0 -0.00042151197 -0.0013752062 0.00022992598 0.0 -0.0006712792
-0.00097069115 -0.00021776807 0.0 -8.8960165e-05 -0.00096476637 -0.00030488565 0.0 -0.00022670075
-0.00070811395 -0.00055097847 0.0 -0.00037419415 -0.0007095543 -0.0005907939 0.0 -0.0004856005
-0.0012314026 8.260046e-05 0.0 -0.00057910406 0.0010468472 -0.00044224248 0.0002998586 0.00050169614
-7.8776604e-05 -5.7277415e-05 0.0 -4.5961388e-05 -4.430173e-05 -9.164001e-05 0.0 -3.097024e-05
-0.0001282536 -8.502068e-06 0.0 -4.8223505e-05 -0.00014545285 7.092372e-06 0.0 -3.1203657e-05
-0.00015175043 3.5281669e-06 0.0 -5.0927258e-05 -6.151916e-05 -7.517019e-05 0.0 -4.4059103e-05
-2.0614705e-06 -0.00013520358 0.0 -2.8070212e-05 -0.00012984045 -5.5869455e-06 0.0 -5.9824273e-05
-0.00013741267 3.4040177e-06 0.0 -3.0145777e-05 -0.00014269457 7.798681e-06 0.0 -4.744777e-05
-6.3903426e-05 -7.2774885e-05 0.0 -4.142912e-05 -5.6175594e-07 -0.00013612684 0.0 -2.460114e-05
-0.00013505775 -2.5798386e-06 0.0 -7.035776e-05 -0.00015326515 1.1564853e-06 0.0 -3.8400027e-05
-0.00015576468 1.0470502e-05 0.0 -5.0597282e-05 -7.5126416e-05 -3.092289e-05 0.0 -3.3160213e-05
4.3095868e-05 -0.0001495941 0.0 -2.0595602e-05 -0.000107743945 1.4054427e-06 0.0 -5.6236306e-05
-0.00014250357 1.2229729e-05 0.0 -4.5980916e-05 -0.000108224674 5.6252534e-06 0.0 -2.6473459e-05
-0.00011821804 4.200481e-05 0.0 -1.9567442e-06 8.565626e-05 -0.00016188723 0.0 1.0824461e-05
-8.437215e-05 9.765693e-06 0.0 -7.4221636e-05 3.4013337e-05 -0.00010664652 0.0 -2.4273495e-06
-8.121489e-05 1.7172715e-05 0.0 -4.119814e-05 7.490894e-05 -1.1391843e-06 -4.7361442e-05 0.00017560192
-0.00011703039 9.407135e-05 0.0 -5.4614637e-05 5.1690986e-05 -7.550284e-05 0.0 -7.069229e-05
-0.00015424554 0.00013028733 0.0 1.7852568e-05 7.918564e-06 -3.1003678e-05 0.0 3.8458587e-05
0.000101620855 -0.00015220739 0.0 5.8664235e-05 -6.5920576e-05 4.008198e-05 0.0 -4.604038e-05
8.242831e-05 -0.00010780977 0.0 -7.175554e-05 -0.00015096362 0.00013165807 0.0 5.5077085e-06
-1.6617914e-05 6.999944e-08 0.0 3.5692203e-05 9.803803e-05 -0.00012558975 0.0 5.6001212e-05
-6.452654e-05 4.020326e-05 0.0 -4.249524e-05 8.9639325e-05 -0.000112275084 0.0 -7.0271715e-05
00000000: 80f0 e7b9 a02e 3dba 0000 0000 4359 c8b8
00000010: 09f1 8aba 7518 d6b8 0000 0000 a370 25b9
00000020: 0124 5eba 9b30 a4b9 0000 0000 d93b d0b9
00000030: b074 26ba ab81 03ba 0000 0000 b2a3 e4b9
00000040: 561e bcba 7452 9039 0000 0000 36ed 2eba
00000050: 9fdc 10ba 030f 24ba 0000 0000 7c23 ceb8
00000060: 867e 83ba fa51 42b9 0000 0000 7713 2bb9
00000070: b3d6 5fba bc74 aab9 0000 0000 5b24 d3b9
00000080: ffcf 24ba ad35 0eba 0000 0000 1a3e ecb9
00000090: f686 b7ba 1146 7539 0000 0000 f067 2dba
000000a0: ca03 3cba b0c8 f8b9 0000 0000 6903 beb8
000000b0: 95de 80ba 7e83 55b9 0000 0000 05b7 23b9
000000c0: eaba 3bba ec00 e0b9 0000 0000 ada5 d3b9
000000d0: 0eef 16ba 2bfe 11ba 0000 0000 fc66 e6b9
000000e0: 13ff bdba c5d1 9039 0000 0000 ad2a 2eba
000000f0: 685f 4cba 4bbe ebb9 0000 0000 c95b c4b8
00000100: d3c7 86ba 016f 8db9 0000 0000 3352 43b9
00000110: d215 51ba a8be d6b9 0000 0000 33fe dab9
00000120: 07f7 11ba 9121 04ba 0000 0000 61fe dcb9
00000130: 4340 b4ba 4918 7139 0000 0000 c9f8 2fba
00000140: fb75 7eba ac58 64b9 0000 0000 2090 bab8
00000150: 60e8 7cba 0fd9 9fb9 0000 0000 85b6 6db9
00000160: b9a0 39ba 8a6f 10ba 0000 0000 7d2f c4b9
00000170: 6201 3aba 82df 1aba 0000 0000 3298 feb9
00000180: 0467 a1ba c939 ad38 0000 0000 04cf 17ba
00000190: 5d36 893a c8dc e7b9 5736 9d39 4284 033a
000001a0: de34 a5b8 283d 70b8 0000 0000 aac6 40b8
000001b0: 9fd0 39b8 db2e c0b8 0000 0000 0be6 01b8
000001c0: d07b 06b9 1ba4 0eb7 0000 0000 9843 4ab8
000001d0: b484 18b9 03fb ed36 0000 0000 ace0 02b8
000001e0: 321f 1fb9 72c5 6c36 0000 0000 ba9a 55b8
000001f0: d903 81b8 b0a4 9db8 0000 0000 1acc 38b8
00000200: cb57 0ab6 6fc5 0db9 0000 0000 5278 ebb7
00000210: c825 08b9 7f77 bbb6 0000 0000 d3eb 7ab8
00000220: 6f16 10b9 9470 6436 0000 0000 90e1 fcb7
00000230: 48a0 15b9 14d7 0237 0000 0000 a802 47b8
00000240: e403 86b8 b89e 98b8 0000 0000 2ec4 2db8
00000250: 93cb 16b5 45bd 0eb9 0000 0000 8c5e ceb7
00000260: 4a9e 0db9 4a21 2db6 0000 0000 098d 93b8
00000270: cdb5 20b9 8838 9b35 0000 0000 b70f 21b8
00000280: c354 23b9 77aa 2f37 0000 0000 6b38 54b8
00000290: 308d 9db8 33b3 01b8 0000 0000 8215 0bb8
000002a0: d6c1 3438 5cdc 1cb9 0000 0000 b8c4 acb7
000002b0: 97f4 e1b8 a5a2 bc35 0000 0000 46df 6bb8
000002c0: 036d 15b9 492e 4d37 0000 0000 a2db 40b8
000002d0: aef6 e2b8 8fc0 bc36 0000 0000 5213 deb7
000002e0: d4eb f7b8 522e 3038 0000 0000 9c50 03b6
000002f0: 5ba2 b338 46c0 29b9 0000 0000 b59a 3537
00000300: f4f0 b0b8 55d7 2337 0000 0000 70a7 9bb8
00000310: 8ba9 0e38 6aa7 dfb8 0000 0000 8ce5 22b6
00000320: e951 aab8 200e 9037 0000 0000 2acc 2cb8
00000330: 6e18 9d38 13e6 98b5 f6a5 46b8 c821 3839
00000340: 366e f5b8 2c48 c538 0000 0000 0512 65b8
00000350: c6ce 5838 4757 9eb8 0000 0000 a240 94b8
00000360: f9bc 21b9 bd9d 0839 0000 0000 19c2 9537
00000370: f9d9 0437 f209 02b8 0000 0000 984e 2138
00000380: 481d d538 dc99 1fb9 0000 0000 3e0e 7638
00000390: d73e 8ab8 b31d 2838 0000 0000 7b1b 41b8
000003a0: 5ddd ac38 ee17 e2b8 0000 0000 767b 96b8
000003b0: fd4b 1eb9 b20d 0a39 0000 0000 dbce b836
000003c0: b366 8bb7 9952 9633 0000 0000 36b4 1538
000003d0: c499 cd38 beb0 03b9 0000 0000 d8e2 6a38
000003e0: 6c52 87b8 ec9f 2838 0000 0000 eb3c 32b8
000003f0: bffc bb38 3a75 ebb8 0000 0000 d75e 93b8

exp_avg_sq f4 [128, 104]
1.114554e-05 8.538945e-06 0.0 2.1907947e-06 1.6039246e-05 3.6443844e-06 0.0 1.2505024e-06
1.803405e-05 2.7204599e-06 0.0 2.3018551e-06 1.6927183e-05 3.3939025e-06 0.0 2.6671748e-06
2.079688e-05 1.6729204e-07 0.0 3.3143072e-06 1.13489405e-05 8.434268e-06 0.0 2.0960474e-06
1.5987058e-05 3.801498e-06 0.0 1.2447441e-06 1.8036264e-05 2.8237835e-06 0.0 2.3320197e-06
1.6772276e-05 3.5827798e-06 0.0 2.7193669e-06 2.0937969e-05 1.5055122e-07 0.0 3.3609354e-06
1.1691852e-05 8.202629e-06 0.0 2.004068e-06 1.5887053e-05 3.887196e-06 0.0 1.2452525e-06
1.7941607e-05 2.9449807e-06 0.0 2.3499008e-06 1.674201e-05 3.7305535e-06 0.0 2.7773176e-06
2.0958809e-05 1.5813904e-07 0.0 3.4198356e-06 1.2229227e-05 7.853231e-06 0.0 1.9224199e-06
1.5846465e-05 3.9218166e-06 0.0 1.2395157e-06 1.8014141e-05 3.0354483e-06 0.0 2.3597859e-06
1.651839e-05 3.937863e-06 0.0 2.8445365e-06 2.079487e-05 1.9293257e-07 0.0 3.4805514e-06
1.2629034e-05 7.821489e-06 0.0 1.8859579e-06 1.6258984e-05 3.889783e-06 0.0 1.2652255e-06
1.8542003e-05 3.0500842e-06 0.0 2.4277635e-06 1.6637088e-05 4.172424e-06 0.0 2.9283967e-06
2.1067506e-05 2.9474816e-07 0.0 3.6222127e-06 1.7213728e-05 4.062117e-06 1.1189342e-05 9.357944e-06
1.5256326e-07 5.129559e-08 0.0 1.02576845e-08 1.2727283e-07 6.785999e-08 0.0 8.272583e-09
1.0310333e-07 9.443865e-08 0.0 2.1010013e-08 1.9121333e-07 9.435413e-09 0.0 3.9057877e-08
1.9074622e-07 6.382905e-09 0.0 3.9087887e-08 1.4890202e-07 5.323758e-08 0.0 9.438304e-09
1.2384848e-07 7.096429e-08 0.0 7.831478e-09 1.03211455e-07 9.449548e-08 0.0 2.2573609e-08
1.8935884e-07 1.0248917e-08 0.0 4.0437193e-08 1.8665347e-07 6.3571655e-09 0.0 3.8081776e-08
1.5127716e-07 5.358926e-08 0.0 8.862525e-09 1.2237648e-07 7.349707e-08 0.0 7.492383e-09
1.0320601e-07 9.59221e-08 0.0 2.4562745e-08 1.8881667e-07 1.04996625e-08 0.0 4.1947292e-08
1.8573154e-07 6.460319e-09 0.0 3.776651e-08 1.565659e-07 6.661531e-08 0.0 1.06218865e-08
1.3974147e-07 7.594635e-08 0.0 7.700317e-09 1.1871223e-07 9.7566755e-08 0.0 2.6756473e-08
1.9579875e-07 1.6059037e-08 0.0 4.429536e-08 2.0743781e-07 6.85967e-09 0.0 4.2276422e-08
1.7820719e-07 2.1043778e-07 0.0 4.217027e-08 3.128568e-07 7.532729e-08 0.0 1.7623615e-08
2.9011233e-07 9.8490354e-08 0.0 4.1805986e-08 3.5042373e-07 3.256027e-08 0.0 6.114195e-08
3.8013158e-07 7.609176e-09 0.0 6.9490476e-08 3.0764875e-07 8.2667896e-08 2.53337e-07 1.2834127e-07
1.690226e-06 1.4105294e-06 0.0 3.3534172e-07 2.93327e-06 9.4716924e-08 0.0 1.4621804e-07
1.8019321e-06 1.1834418e-06 0.0 2.9790345e-07 3.0334345e-06 2.2647084e-08 0.0 5.342286e-07
2.8176605e-06 1.6864139e-07 0.0 4.4936735e-07 1.671666e-06 1.4178547e-06 0.0 3.2453778e-07
2.929168e-06 1.10327754e-07 0.0 1.470695e-07 1.8158224e-06 1.1783673e-06 0.0 2.8883596e-07
3.0617489e-06 1.905674e-08 0.0 5.4917876e-07 2.7956826e-06 1.7457303e-07 0.0 4.5175565e-07
1.6745134e-06 1.4201353e-06 0.0 3.1413805e-07 2.9322534e-06 1.106515e-07 0.0 1.4693293e-07
00000000: bbfd 3a37 7d42 0f37 0000 0000 9105 1336
00000010: 058c 8637 0c92 7436 0000 0000 efd6 a735
00000020: d447 9737 2591 3636 0000 0000 9279 1a36
00000030: d9fe 8d37 cdc2 6336 0000 0000 b7fd 3236
00000040: f674 ae37 e3a0 3334 0000 0000 5d6b 5e36
00000050: 5467 3e37 e880 0d37 0000 0000 d2a9 0c36
00000060: f21b 8637 3d1d 7f36 0000 0000 1511 a735
00000070: 954c 9737 3b80 3d36 0000 0000 cb7f 1c36
00000080: 30b2 8c37 b06f 7036 0000 0000 5e7e 3636
00000090: f2a3 af37 34a7 2134 0000 0000 6e8c 6136
000000a0: 1f28 4437 069e 0937 0000 0000 a07d 0636
000000b0: 3045 8537 c26e 8236 0000 0000 8d22 a735
000000c0: 4f81 9637 62a2 4536 0000 0000 fdb2 1d36
000000d0: 3171 8c37 6c5a 7a36 0000 0000 f461 3a36
000000e0: b3d0 af37 eecc 2934 0000 0000 5480 6536
000000f0: 212c 4d37 5fc1 0337 0000 0000 ec02 0136
00000100: 06ee 8437 2698 8336 0000 0000 6f5d a635
00000110: 131d 9737 9bb4 4b36 0000 0000 d05c 1e36
00000120: f990 8a37 fc21 8436 0000 0000 c4e4 3e36
00000130: a570 ae37 e728 4f34 0000 0000 6b93 6936
00000140: 4ae1 5337 0a39 0337 0000 0000 0521 fd35
00000150: e763 8837 fb84 8236 0000 0000 d1d0 a935
00000160: a68a 9b37 0cb0 4c36 0000 0000 a9ec 2236
00000170: e08f 8b37 d900 8c36 0000 0000 7985 4436
00000180: 20ba b037 e13d 9e34 0000 0000 2415 7336
00000190: 3366 9037 524d 8836 dcb9 3b37 1000 1d37
000001a0: 45d0 2334 1950 5c33 0000 0000 c639 3032
000001b0: 7da8 0834 6dba 9133 0000 0000 341f 0e32
000001c0: a869 dd33 32ce ca33 0000 0000 8279 b432
000001d0: 5250 4d34 6319 2232 0000 0000 97c0 2733
000001e0: eccf 4c34 a050 db31 0000 0000 96e1 2733
000001f0: e0e1 1f34 57a7 6433 0000 0000 1a26 2232
00000200: 36fb 0434 0865 9833 0000 0000 348b 0632
00000210: 19a5 dd33 71ed ca33 0000 0000 e4e7 c132
00000220: 9052 4b34 3713 3032 0000 0000 2aad 2d33
00000230: ea6a 4834 386e da31 0000 0000 5b8f 2333
00000240: c06e 2234 042a 6633 0000 0000 cc41 1832
00000250: 9766 0334 71d5 9d33 0000 0000 d9b7 0032
00000260: 1ba2 dd33 bbfd cd33 0000 0000 0cfe d232
00000270: 88bd 4a34 0162 3432 0000 0000 8929 3433
00000280: 7f6d 4734 91f9 dd31 0000 0000 b834 2233
00000290: 821c 2834 270e 8f33 0000 0000 8d7b 3632
000002a0: d80b 1634 f317 a333 0000 0000 5a4a 0432
000002b0: bdee fe33 e485 d133 0000 0000 1bd6 e532
000002c0: c03c 5234 32f2 8932 0000 0000 433f 3e33
000002d0: 12bc 5e34 4cb2 eb31 0000 0000 6b93 3533
000002e0: 3859 3f34 b2f4 6134 0000 0000 b41e 3533
000002f0: b6f6 a734 9ec3 a133 0000 0000 bd62 9732
00000300: bcc0 9b34 a581 d333 0000 0000 2b8e 3333
00000310: df21 bc34 65d8 0b33 0000 0000 244d 8333
00000320: e314 cc34 83b9 0232 0000 0000 cb3a 9533
00000330: ec2a a534 2887 b133 5f02 8834 2ece 0934
00000340: b9db e235 6c51 bd35 0000 0000 0409 b434
00000350: 32d9 4436 2e67 cb33 0000 0000 1c00 1d34
00000360: ead9 f135 c0d6 9e35 0000 0000 8aef 9f34
00000370: 0292 4b36 7789 c232 0000 0000 e967 0f35
00000380: 0a17 3d36 cb13 3534 0000 0000 9440 f134
00000390: 025e e035 1e4d be35 0000 0000 223c ae34
000003a0: b992 4436 53ed ec33 0000 0000 28ea 1d34
000003b0: 2fb7 f335 6428 9e35 0000 0000 5011 9b34
000003c0: 7278 4d36 37b2 a332 0000 0000 476b 1335
000003d0: 769d 3b36 4572 3b34 0000 0000 d388 f234
000003e0: d8bf e035 7a9b be35 0000 0000 cea6 a834
000003f0: bbc7 4436 4e9f ed33 0000 0000 9ec4 1d34

exp_avg f4 [128]
-0.0012043869 -7.642693e-05 5.756909e-05 0.00025827682 -0.00051034405 -0.0006267849 -0.0009387835 0.00026812856
-0.0002666533 -2.097237e-05 -0.00044470563 -0.0012052715 0.00042134212 0.0014384333 -0.0011222976 -0.0007917292
-0.00043752775 -0.00026106767 -0.00014102232 0.00030368567 -0.0010111823 -0.00037833012 6.38882e-05 -0.00081467663
0.0018539345 0.0020780633 0.00050823705 -0.0009372012 -0.0006045484 -0.00021081984 0.0024028874 -0.00021140884
0.00019544971 -8.1527774e-05 0.00035570806 -0.00080054754 -0.0010249494 -0.0003619742 -0.00023264227 0.00019987165
-9.448527e-05 0.0013758327 -0.0002939379 0.00020197994 -0.0005608236 -0.0008606714 0.0005242738 -7.655294e-06
-0.000984223 0.00021188895 -0.0007451133 -0.00024401325 0.0016529468 -0.00020319707 0.002634672 0.00015670714
-0.00077042746 -1.8991555e-05 -0.0002114604 0.00026724604 -0.0004691582 -0.00022522248 -1.6825647e-05 0.0002510071
-0.0003658045 0.0006767916 -0.00076284085 -0.00014265825 -0.00022852782 -0.00042706507 0.00023893146 -0.00092782197
-0.000223526 -0.0004803639 -0.001235565 -0.0002166479 0.00023723638 0.00081382296 0.00015981284 0.00010606636
0.00018769816 0.0005300584 -0.0007980989 3.9820687e-05 -0.00031592994 -0.00083293574 -0.00010442065 -0.000422538
-0.000117568525 -0.0006191513 0.0005195969 0.00023908463 0.00064953236 0.00016925372 0.0004927341 -0.00019055011
-0.0010829194 1.597808e-05 0.00270348 -0.00012877591 0.0011958069 -0.0006314732 0.00015802692 -0.00030488064
0.0010468031 -0.00049458863 0.00036515438 0.001398651 0.00032037238 0.0004007998 -6.472757e-05 -0.0006086423
-8.66589e-05 0.00045897436 0.0006251005 -0.00082566624 0.0005067525 -0.0006773495 0.0012435935 0.00028776453
-0.00038217127 -0.0004918653 -8.808883e-05 -0.00072282244 0.00027033768 -0.0011901098 0.0003787416 0.00042058493
00000000: 85dc 9dba 6547 a0b8 5776 7138 5469 8739
00000010: 9cc8 05ba d34e 24ba b218 76ba 9b93 8c39
00000020: 9acd 8bb9 d2ed afb7 6127 e9b9 33fa 9dba
00000030: 95e7 dc39 d089 bc3a 0f1a 93ba 0c8c 4fba
00000040: fb63 e5b9 e9df 88b9 64df 13b9 0038 9f39
00000050: a689 84ba 9c5a c6b9 b7fb 8538 0690 55ba
00000060: b8ff f23a 1e30 083b 363b 053a 82ae 75ba
00000070: 8e7a 1eba 850f 5db9 c379 1d3b a1ad 5db9
00000080: a2f1 4c39 e4f9 aab8 547e ba39 d6db 51ba
00000090: 9857 86ba 5bc7 bdb9 6ff1 73b9 a394 5139
000000a0: 6526 c6b8 4955 b43a ad1b 9ab9 94ca 5339
000000b0: 3c04 13ba ae9e 61ba 6b6f 093a 3d6f 00b7
000000c0: 0b01 81ba 822e 5e39 b553 43ba cfdd 7fb9
000000d0: b1a7 d83a 4c11 55b9 76aa 2c3b c151 2439
000000e0: 83f6 49ba 0e50 9fb7 78bb 5db9 281d 8c39
000000f0: 59f9 f5b9 b329 6cb9 cd24 8db7 9a99 8339
00000100: 73c9 bfb9 b76a 313a 62f9 47ba 8896 15b9
00000110: f8a0 6fb9 b4e7 dfb9 ad89 7a39 1439 73ba
00000120: 4e62 6ab9 5ad9 fbb9 aff2 a1ba fa2b 63b9
00000130: a8c2 7839 bc56 553a 6f93 2739 f26f de38
00000140: d7d0 4439 9ef3 0a3a 8337 51ba 2305 2738
00000150: 66a3 a5b9 5f59 5aba 69fc dab8 1788 ddb9
00000160: 1f8f f6b8 8a4e 22ba 8f35 083a cbb2 7a39
00000170: 6145 2a3a b379 3139 d32a 013a 68ce 47b9
00000180: bff0 8dba aa08 8637 de2c 313b 0508 07b9
00000190: 9fbc 9c3a 7389 25ba 07b4 2539 63d8 9fb9
000001a0: e234 893a 48a7 01ba 3172 bf39 f152 b73a
000001b0: a7f7 a739 7022 d239 59be 87b8 4b8d 1fba
000001c0: a5bc b5b8 7fa2 f039 c9dd 233a 8671 58ba
000001d0: 96d7 043a 2890 31ba 1300 a33a 1adf 9639
000001e0: 295e c8b9 86f0 00ba 55bc b8b8 cb7b 3dba
000001f0: 1cbc 8d39 75fd 9bba d691 c639 f481 dc39
