results/ppo/BotControllerAgent/BotControllerAgent-7999964.onnx (onnx, 384082 bytes, 9 tensors)

discrete_act_size_vector f4 [1, 2]
0	0x40400000	3.0
1	0x40400000	3.0

network_body._body_endoder.seq_layers.0.weight f4 [256, 104]
0	0xbd38ad07	-0.045086887
1	0x3e05d41e	0.13069198
2	0x3dcb2cd8	0.09920663
3	0x3eab804e	0.33496326
4	0x3bead8ef	0.007166974
5	0xbd19a827	-0.03751388
6	0xbd76f0be	-0.060288183
7	0x3e3dac72	0.18522814
8	0x3e32ed72	0.1747339
9	0x3e665017	0.2249149
10	0xbe003237	-0.12519155
11	0xbdc756de	-0.097333655
12	0xbd2dcd72	-0.042432256
13	0x3e11de01	0.14244844
14	0x3dc60d1e	0.09670471
15	0xbd568480	-0.052372456
16	0x3d766cf8	0.060162514
17	0xbd4e927a	-0.05043266
18	0xbd1344e6	-0.03595438
19	0x3cb7973f	0.022410987
20	0x3e831fc5	0.25610176
21	0x3df6ddce	0.12054025
22	0xbd0e794d	-0.03478365
23	0x3ee5db79	0.44894007
24	0xbbc9218f	-0.0061380337
25	0x3d365761	0.044516925
26	0x3d3ff427	0.0468637
27	0x3cb3b2e3	0.021935886
28	0xbc2d033c	-0.010559853
29	0x3ea53a6b	0.32271132
30	0x3e15dc1d	0.14634748
31	0xbd7b7beb	-0.061397474
32	0x3cadb5c3	0.021204835
33	0x3dad46d8	0.08460778
34	0xbe6c3951	-0.2306874
35	0x3c5cc399	0.0134743685
36	0x3d7f6cdf	0.062359687
37	0x3c400c49	0.011721679
38	0xbd6f2787	-0.058387306
39	0xbdfa290b	-0.122148596
40	0xbcf218b3	-0.029552793
41	0xbdb65a49	-0.08903939
42	0xbdf2372a	-0.11826928
43	0x3ef3e5a4	0.4763614
44	0x3df5e72b	0.120069824
45	0xbe17c108	-0.1481973
46	0x3dcc0b13	0.0996305
47	0x3dc62f0b	0.096769415
48	0xbe0edb0a	-0.13950744
49	0x3c470085	0.01214612
50	0x3e2e7d98	0.17040098
51	0xbe7ae21f	-0.24500321
52	0xbe1c2af2	-0.15250757
53	0xbd2f4c81	-0.04279757
54	0x3d003cce	0.031307988
55	0x3e567bb0	0.2094562
56	0xbe84f137	-0.25965282
57	0x3d5fc8c8	0.05463484
58	0xbd3c8014	-0.046020582
59	0x3e1fa91f	0.15591858
60	0xbe1e2f06	-0.15447626
61	0xbea856c5	-0.328787
62	0x3d8b140f	0.06790935
63	0x3ec6493a	0.38727742
64	0xbdb99808	-0.09062201
65	0x3c910956	0.017704647
66	0x3df67e41	0.120358
67	0x3db9b5d5	0.09067885
68	0x3c48026b	0.012207608
69	0x3d09ce87	0.033644225
70	0xbdc76413	-0.097358845
71	0xbc8deafa	-0.01732396
72	0xbd783f43	-0.060607206
73	0x3d81cbf7	0.06337731
74	0xbd3d1394	-0.04616125
75	0x3e67826d	0.22608347
76	0x3dcec4a1	0.10096098
77	0xbcf872e4	-0.030328222
78	0xbe4a9de6	-0.19786796
79	0x3d88ad93	0.06673732
80	0xbedc3503	-0.43009195
81	0xbe91749c	-0.28409278
82	0x3d071521	0.032979134
83	0x3ecc26ad	0.39873257
84	0x3c882c26	0.016622614
85	0x3e67da17	0.22641788
86	0xbd1dfae7	-0.038569357
87	0x3cde912a	0.027168829
88	0xbc833477	-0.016016228
89	0x3d17a1db	0.03701959
90	0xbd159c71	-0.036526147
91	0xbdafb792	-0.08579935
92	0xbd5c3665	-0.053762812
93	0x3d97f6e2	0.07420136
94	0x3d829877	0.063767366
95	0x3bc7bb3c	0.006095318
96	0xbd6d8aa7	-0.057993557
97	0xbe39ce6a	-0.18145147
98	0x3c2e2fd8	0.010631524
99	0x3dcf8e46	0.101345584
100	0xbccd0577	-0.02502702
101	0x3e10e1d3	0.14148645
102	0xbe5f21a6	-0.2179018
103	0x3eab5308	0.33461785
104	0x3b4a7848	0.0030894447
105	0xbdd474b4	-0.10373822
106	0xbe0540f8	-0.13013065
107	0xbc868635	-0.016421417
108	0xbe0b95b5	-0.13631327
109	0x3e67863a	0.22609797
110	0x3d6bb872	0.057548948
111	0xbe80c5a7	-0.25150797
112	0xbe623c29	-0.22093262
113	0x3e27970e	0.16366217
114	0x3cb44500	0.022005558
115	0xbe4104bd	-0.18849464
116	0x3dfdc7c4	0.12391618
117	0xbebbfb33	-0.36715087
118	0xbde9b573	-0.11411562
119	0x3ec827c3	0.39092836
120	0xbd59954b	-0.053120892
121	0x3e5e30dd	0.21698327
122	0x3d6675b2	0.056264587
123	0x3d2fd880	0.04293108
124	0x3dc175a0	0.09446263
125	0x3e9bde54	0.3044306
126	0x3e0c2279	0.13685025
127	0x3e2c7cec	0.16844529
128	0x3d89031a	0.06690045
129	0x3ed2bd75	0.4116017
130	0xbd3d9d13	-0.046292376
131	0xba56fb8f	-0.00082009373
132	0xbdb4c16c	-0.08825955
133	0x3e64f05c	0.22357315
134	0x3e251d72	0.16124514
135	0x3b859b74	0.0040773693
136	0x3e3baf63	0.18328623
137	0xbe8636a9	-0.26213577
138	0x3cd038e4	0.025417753
139	0x3dcdb3e3	0.10044076
140	0xbdaf4599	-0.085581966
141	0x3e13a053	0.14416628
142	0xbe1e55d6	-0.15462431
143	0x3dffa54f	0.12482702
144	0x3e618471	0.22023179
145	0x3e8f7896	0.28021687
146	0xbd2d504e	-0.042312913
147	0x3e2cfa7e	0.1689243
148	0xbd06885d	-0.03284489
149	0x3dccf92a	0.10008462
150	0xbd6ffaec	-0.058588907
151	0xbd7c4187	-0.06158593
152	0xbdc84a1f	-0.097797625
153	0xba9be10f	-0.0011892634
154	0x3c85002e	0.016235437
155	0xbeb0b8b8	-0.3451593
156	0x3bf598fe	0.0074950447
157	0xbe95fd07	-0.29294607
158	0x3dd44a8f	0.103657834
159	0xbe06e580	-0.13173485
160	0xbd03cdc3	-0.03217865
161	0x3db255c2	0.08707763
162	0x3db29e6e	0.08721624
163	0xbdeef77a	-0.11668296
164	0x3ea8f21e	0.3299722
165	0x3ee9cb24	0.45662796
166	0xbc655331	-0.013996885
167	0x3e434e37	0.19072805
168	0xbe4f43d0	-0.20240712
169	0xbe6c9e16	-0.2310718
170	0xbdfcbfca	-0.12341268
171	0x3e3e72f2	0.18598536
172	0x3de83727	0.113386445
173	0x3e352a1c	0.17691845
174	0x3ca63d6b	0.020292958
175	0xbdb12f94	-0.08651653
176	0xbe1a6a1d	-0.15079542
177	0x3d41161a	0.04714022
178	0x3debdbd0	0.11516535
179	0xbdaaf48b	-0.08347424
180	0xbdcd2c75	-0.10018245
181	0x3d39a739	0.04532549
182	0x3e1d92c4	0.15388018
183	0xbe6d5ae4	-0.23179203
184	0x3e89848f	0.26858947
185	0x3e949ec7	0.29027387
186	0x3dc10ef4	0.0942668
187	0x3e2d07e7	0.16897546
188	0xbd3457c0	-0.044028997
189	0xbe2ebdec	-0.17064637
190	0xbd7db9d1	-0.061944786
191	0xbcb861ce	-0.022507574
192	0x3d65e8f6	0.056130372
193	0x3df5a7c9	0.11994893
194	0xbc375430	-0.011189505
195	0xbe262d3d	-0.16228195
196	0x3cce612a	0.025192816
197	0x3cbc15d9	0.022959637
198	0x3dfa9651	0.12235702
199	0xbe1eb6c4	-0.15499407
200	0xbdc9150d	-0.09818468
201	0x3e6012d8	0.21882188
202	0x3c05961e	0.0081534665
203	0xbd28c5e6	-0.041204356
204	0xbdce0695	-0.10059849
205	0xbebba071	-0.36645845
206	0xbc691e12	-0.014228361
207	0xbf393b7b	-0.72356385
208	0x3e10ab91	0.14127947
209	0x3ea7d864	0.3278228
210	0x3e5af771	0.21383454
211	0x3ea29447	0.31753752
212	0xbdc29b52	-0.09502281
213	0x3cb8f2ae	0.022576656
214	0x3de5ac88	0.11214548
215	0xbe31c404	-0.1735993
216	0x3d3b4410	0.045719206
217	0xbe1ce789	-0.15322699
218	0xbc1011d1	-0.00879331
219	0xbe44efc1	-0.19232084
220	0x3bdb3561	0.006689713
221	0x3e9d8a34	0.30769503
222	0x3ce9f4a4	0.028559037
223	0xbc9c5825	-0.019085
224	0xbc8ae60e	-0.016955402
225	0x39e1b612	0.00043050997
226	0x3ce32345	0.027726779
227	0x3e094766	0.13406143
228	0xbd8bd776	-0.06828205
229	0x3de47392	0.11154856
230	0x3ddf292b	0.10896524
231	0x3e57fdf4	0.21092969
232	0x3cc23a4d	0.02370944
233	0x3da0e80e	0.07856761
234	0xbd5d275f	-0.053992625
235	0xbdea3b31	-0.11437071
236	0x3e769040	0.24078465
237	0xbe68893d	-0.22708602
238	0xbd7a8f7d	-0.061171997
239	0x3da4f4f4	0.080545336
240	0x3da016af	0.078168266
241	0x3e07e504	0.13270956
242	0xbe3f2eba	-0.18670169
243	0xbe9cc571	-0.30619386
244	0x3dcedb82	0.101004615
245	0xbd7cbb7f	-0.061702248
246	0xbcffa472	-0.031206343
247	0x3c90e60c	0.01768782
248	0xbea7284f	-0.3264794
249	0xbe76cb14	-0.24100906
250	0xbd77a27b	-0.060457688
251	0x3de0faf3	0.10985365
252	0xbcb8fd28	-0.022581652
253	0xbd0e8d00	-0.034802437
254	0x3d91db65	0.07121924
255	0xbdc83add	-0.09776852

network_body._body_endoder.seq_layers.0.bias f4 [256]
0	0xbd2c825c	-0.042116508
1	0x38d7215b	0.00010258212
2	0xbb7176e5	-0.0036844548
3	0x3de07e79	0.10961623
4	0x3da29acd	0.07939682
5	0x3e0ad827	0.13559018
6	0xbd0cf877	-0.034416642
7	0x3d8cd975	0.06877414
8	0xbd00cbbd	-0.0314443
9	0xbcd173c7	-0.025567902
10	0x3e0a0efe	0.13482282
11	0xbd1393eb	-0.036029737
12	0xbcbe9cc0	-0.023268104
13	0x3d8f7372	0.07004441
14	0x3d6de65d	0.05808102
15	0x3de43284	0.111424476
16	0xbd6bf6b7	-0.057608332
17	0x3e0207a1	0.12698223
18	0x3ca04144	0.019562371
19	0x3cafbff0	0.021453828
20	0x3cba6221	0.02275187
21	0xbc9053da	-0.017618109
22	0xbd2a65a2	-0.04160083
23	0x3db718c1	0.08940268
24	0x3cfbd650	0.03074184
25	0x3cdc27ad	0.026874388
26	0x3b56c2dc	0.0032769954
27	0x3cbed3d6	0.02329437
28	0x3d9394ff	0.07206153
29	0x3d6527e8	0.05594626
30	0x3c7757e8	0.015096642
31	0x3c862b91	0.016378196
32	0xbd0b4c48	-0.034008294
33	0x3d096ec3	0.033552896
34	0x3bddef69	0.0067729247
35	0x3d99b35d	0.07504914
36	0x3dbed127	0.093172364
37	0xbca1b139	-0.019737827
38	0x3adf5aba	0.0017040588
39	0xbcc72f66	-0.024314594
40	0x3cd84da8	0.026404217
41	0x3d74287b	0.059608918
42	0xbcd5c220	-0.026093543
43	0x3e7ccc4c	0.24687308
44	0x3d5c3dca	0.053769864
45	0xbd44c3f1	-0.048038427
46	0x3dda7275	0.10666362
47	0xbd238987	-0.03992608
48	0xbc3c5b81	-0.011496426
49	0xbd1539f4	-0.03643222
50	0xbcc230d6	-0.023704927
51	0xbc562b34	-0.013071824
52	0xbd317453	-0.043323826
53	0x3dcba0bf	0.09942769
54	0x3c8a1795	0.016856948
55	0x3d795b7c	0.060878262
56	0xbc51b1b3	-0.012798714
57	0xbd7a7a11	-0.061151568
58	0xbb9677d8	-0.004591923
59	0x3e0cbd00	0.13743973
60	0x3eb2724b	0.34852824
61	0xbbb6043f	-0.0055547054
62	0x3c885ea5	0.016646693
63	0xbdbef74f	-0.09324514
64	0xbcbb9437	-0.022897823
65	0xbb1a9022	-0.0023584445
66	0x3e40778d	0.18795605
67	0x3da9ac3d	0.08284805
68	0x3c3324d5	0.010934074
69	0xbdb76464	-0.08954695
70	0x3d39ed9d	0.04539262
71	0x3ce65964	0.028118797
72	0xbd333327	-0.043749955
73	0xbc1ca209	-0.009560117
74	0xbd8dba97	-0.06920355
75	0x3c13ed76	0.009028783
76	0xbcba1912	-0.022717033
77	0x3dbfa47f	0.09357547
78	0x3e1c7a71	0.15281083
79	0xbce9def0	-0.028548688
80	0x3d252b8d	0.040324736
81	0xbc77b43f	-0.015118658
82	0x3dc03cd3	0.09386601
83	0x3b07d16a	0.0020724186
84	0x3da41b62	0.08013035
85	0x3ca52470	0.020158976
86	0xbd242ae2	-0.04007996
87	0xbd217f6f	-0.03942817
88	0xbcc77397	-0.02434711
89	0x3d7bab12	0.061442442
90	0xbaf56bf4	-0.0018724189
91	0x3e0a5e4f	0.13512538
92	0xbd8cf0e5	-0.068818845
93	0xbbac7428	-0.0052628703
94	0xbd3a405f	-0.045471545
95	0xbda01b26	-0.07817678
96	0x3daeab37	0.085287504
97	0xbb4fb5a4	-0.003169396
98	0xbd2dcbc8	-0.04243067
99	0xbda6685b	-0.08125373
100	0x3cb6bfb8	0.022308215
101	0xbca4eac1	-0.02013147
102	0xbc2d14bb	-0.010564025
103	0xbd4cdd86	-0.05001595
104	0x3d068059	0.032837246
105	0x3da46906	0.08027844
106	0x3d126e24	0.03574957
107	0x3b237655	0.0024942358
108	0xbcbc5885	-0.022991428
109	0x3bc5b73f	0.0060338075
110	0xbd29a6e4	-0.041418925
111	0x3d6b49d3	0.05744345
112	0x39e77979	0.00044150258
113	0x3d385afc	0.045008644
114	0xbc17c627	-0.009263552
115	0xbd23fe6b	-0.040037554
116	0xbd035bda	-0.03207002
117	0x3c95aae0	0.018269956
118	0x3d800d85	0.06252579
119	0x3af98de4	0.0019039479
120	0x3b0ca9e5	0.002146357
121	0x3da7efdf	0.08200049
122	0x3c7167a9	0.014734187
123	0x3da54509	0.08069808
124	0x3ddf483d	0.1090245
125	0xbc08471a	-0.008317733
126	0xbbcfc8ad	-0.006341061
127	0x3d0c0284	0.034182087
128	0x3dd9e92e	0.106401786
129	0xbd1df5fa	-0.03856466
130	0xbd81b5dc	-0.06333515
131	0xbd4a2c69	-0.04935876
132	0xbd06dff9	-0.03292844
133	0x3df73c43	0.12072041
134	0x3e125b53	0.1429265
135	0x3ccd2b05	0.025044927
136	0x3c55414d	0.013016057
137	0xbd135221	-0.035966996
138	0x3cffded3	0.03123418
139	0x3d1799a1	0.037011746
140	0x3e1b50ff	0.15167616
141	0x3dfc5d53	0.12322488
142	0xbc423a84	-0.0118547715
143	0x3cabb821	0.020961823
144	0x3df75e50	0.120785356
145	0x3c9bf1e0	0.019036233
146	0xbd84ef69	-0.06490976
147	0xbd253311	-0.040331904
148	0x3c264ad2	0.0101496745
149	0x3e06e753	0.1317418
150	0xbd153efb	-0.036437016
151	0xbd55b518	-0.052174658
152	0xbcd69fc0	-0.026199222
153	0x3dc71bb0	0.09722078
154	0xbbabf148	-0.005247269
155	0xbd84ff74	-0.06494036
156	0x3b206ca8	0.0024478827
157	0x3d1d2119	0.038361643
158	0xbd90eaa3	-0.070760034
159	0x3d58f215	0.052965242
160	0xbd16ad5a	-0.036786415
161	0xbc17314b	-0.009228061
162	0x3dca8928	0.09889442
163	0x3d6ce9f6	0.05784031
164	0x3ca93946	0.020657193
165	0x3c9857ec	0.018596612
166	0xbd33d9de	-0.043908946
167	0x3e167cb4	0.14696008
168	0xbcd8e6df	-0.026477275
169	0xbd9a2596	-0.075267
170	0x3dc87626	0.0978816
171	0xbd065022	-0.032791264
172	0x3d938908	0.07203871
173	0x3d5d1c19	0.053981874
174	0xbd70c7c5	-0.058784265
175	0x3d267f15	0.04064854
176	0x3d8bc7ae	0.06825195
177	0x3bf7dfac	0.0075645056
178	0xbd95fbae	-0.07323395
179	0x3e0873c8	0.13325417
180	0x3e2f5d31	0.17125393
181	0x3d2d5669	0.042318735
182	0xbca9c3e7	-0.020723296
183	0x3d62a6fa	0.055335023
184	0x3d9816d9	0.07426233
185	0x3e02688c	0.12735194
186	0xbd28fb2b	-0.041255157
187	0x3d063804	0.032768264
188	0xbb2596a3	-0.0025266788
189	0x3c1d9c70	0.009619817
190	0xbd0b3b70	-0.03399223
191	0x3d270a81	0.0407815
192	0x3d9f5ce7	0.077813916
193	0x3cc4750e	0.023981597
194	0x3e215cf9	0.15758123
195	0x3bd952cd	0.006632185
196	0xbd742821	-0.059608582
197	0xbcfd98db	-0.030956676
198	0xbd007716	-0.03136357
199	0x3c139869	0.009008505
200	0xbcb7d9ac	-0.022442661
201	0xbc687c92	-0.014189856
202	0x3d4fac61	0.050701503
203	0x3e62c139	0.22144021
204	0xbcd532f4	-0.026025273
205	0x3c1a5b8b	0.00942124
206	0xbc2fcda3	-0.01073018
207	0xbd631b1d	-0.05544578
208	0x3d54f43e	0.05199074
209	0x3d469efd	0.048491467
210	0x3c8fdda3	0.01756174
211	0xbc6f54a6	-0.014607584
212	0x37822ce4	1.5518111e-05
213	0x3d3ba40b	0.04581074
214	0xbd019432	-0.03163547
215	0x3d3ad82e	0.04561632
216	0x3da09f2d	0.0784286
217	0x3d6659ef	0.05623811
218	0xbb16e613	-0.0023025319
219	0xbcdbaab2	-0.026814792
220	0xbcbebcae	-0.023283329
221	0x3d5babcd	0.05363064
222	0x3d4119b2	0.047143646
223	0x3c143517	0.009045861
224	0xbac2717d	-0.0014834848
225	0xbcc927e6	-0.024555158
226	0xbde6681c	-0.11250326
227	0x3d62711b	0.055283647
228	0x3cd9eadf	0.026601253
229	0xbb66833d	-0.003517344
230	0x3dca8d1e	0.09890197
231	0xbc21f530	-0.009885117
232	0xbcd2d15c	-0.025734596
233	0xbc46bb45	-0.0121296095
234	0x3d7c295b	0.061562877
235	0x3e186b4f	0.14884685
236	0xbc774d5f	-0.01509413
237	0x3c97b149	0.018517153
238	0xbc7745fb	-0.015092368
239	0x3c8afb83	0.016965633
240	0xbd02c0e7	-0.031922247
241	0x3d035024	0.03205885
242	0x3cef1fe5	0.029190013
243	0x3beabf19	0.007163894
244	0xbc12872d	-0.008943361
245	0xbd964d8a	-0.07339008
246	0xbe0e252a	-0.13881364
247	0x3ddf832b	0.1091369
248	0x3d2ed410	0.042682707
249	0x3d132617	0.035924997
250	0x3c3cd1a4	0.011524592
251	0xbd452b96	-0.04813727
252	0x3cdcbf8e	0.02694681
253	0xbb15bd19	-0.0022848307
254	0x3dd8bcff	0.10582923
255	0x3c0c4ecf	0.008563711

network_body._body_endoder.seq_layers.2.weight f4 [256, 256]
0	0x3d48eabd	0.04905199
1	0x3ce374ef	0.02776572
2	0xbe048639	-0.12941827
3	0x3d8a3070	0.0674752
4	0xbd115019	-0.035476778
5	0xbd949fb6	-0.07257025
6	0x3d316d74	0.043317273
7	0x3d0631a1	0.032762174
8	0x3e1ff0e1	0.15619232
9	0x3db57bbd	0.08861492
10	0x3e55cc7e	0.20878789
11	0xbdff7cb4	-0.12474957
12	0xbe0e3870	-0.13888717
13	0x3db6a30a	0.08917816
14	0xbe52ac35	-0.20573504
15	0xbb823757	-0.003973882
16	0xbd06bdc7	-0.03289583
17	0x3e23d9d3	0.16001062
18	0x3e000da3	0.12505202
19	0xbd8208e2	-0.063493505
20	0xbe2e175a	-0.17001095
21	0xbe0dca34	-0.13846666
22	0xbe4bc279	-0.19898404
23	0xbe10a800	-0.14126587
24	0xbc11a442	-0.00888926
25	0xbe0f6d72	-0.14006594
26	0xbc175a16	-0.009237787
27	0xbe8563fd	-0.26052848
28	0x3dd58480	0.10425663
29	0xbe0bf213	-0.13666563
30	0xbd899fbc	-0.0671992
31	0xbdd71c87	-0.10503488
32	0xbcf1e4bc	-0.029528014
33	0xbd1cded2	-0.038298436
34	0xbe2c6bc8	-0.1683799
35	0xbc3d4fcc	-0.01155467
36	0xbe1d10db	-0.15338461
37	0x3c6d779d	0.01449385
38	0x3d3d9ec8	0.046294004
39	0xbe7029e6	-0.23453483
40	0x3d38815a	0.045045234
41	0x3d2eb94c	0.04265718
42	0xbd8359a2	-0.064135805
43	0xbde47832	-0.11155738
44	0xbe407702	-0.18795398
45	0x3e0ab796	0.13546595
46	0x3aa4b833	0.0012567103
47	0x3d08c7ba	0.0333936
48	0xbc827a16	-0.015927356
49	0xbd921748	-0.07133347
50	0xbce915a6	-0.028452706
51	0xbdb93944	-0.09044126
52	0x3b21eda4	0.0024708295
53	0xbbe53279	-0.006994542
54	0x3c7ad65a	0.015309894
55	0xbcb11b75	-0.021619538
56	0x3d8b9ba5	0.06816796
57	0xbca72f52	-0.020408306
58	0x3bf04e6b	0.007333567
59	0x3b8a58f2	0.004222029
60	0xbd0dce98	-0.03462085
61	0xbc7ad789	-0.015310177
62	0xbd0b5aa8	-0.034022003
63	0xbcadac63	-0.021200364
64	0x3da78003	0.08178713
65	0xbd07eb9e	-0.033183686
66	0xbe0ccf30	-0.13750911
67	0x3d659484	0.05604984
68	0xbc2777ca	-0.010221431
69	0xbb112e07	-0.0022152679
70	0x3d62d49c	0.05537854
71	0x3e51c7d5	0.20486386
72	0x3b62fb49	0.003463464
73	0xbdea1f2b	-0.11431726
74	0x3b685843	0.0035452999
75	0x3d3e69cf	0.046487626
76	0x3b39812a	0.0028305748
77	0xbda2089f	-0.079118006
78	0x3d3f2a39	0.046671126
79	0x3d8f4402	0.06995393
80	0x3d2aa1e1	0.041658286
81	0x3c9b84ac	0.018984161
82	0x3c0b3ddb	0.008498634
83	0x3d08abe4	0.033367053
84	0xbdaee194	-0.08539119
85	0xbde71003	-0.11282351
86	0xbda986e2	-0.0827768
87	0xbe9d24a4	-0.30692017
88	0x3d8c9a3c	0.06865355
89	0xbdcba1a7	-0.09942942
90	0x3d9fb14d	0.07797489
91	0xbd8d3eac	-0.06896719
92	0xbc04d7ec	-0.00810812
93	0xba9baa1e	-0.001187626
94	0x3e099652	0.13436249
95	0x3e66dee1	0.22545959
96	0x3cbf7990	0.023373395
97	0xbd64d4ea	-0.055867113
98	0x3d9ab806	0.07554631
99	0x3dfd7dfe	0.12377547
100	0xbd8611d6	-0.06546371
101	0xbc881b0c	-0.01661446
102	0xbc9853d0	-0.018594652
103	0x3da19086	0.07888894
104	0x3d9094f6	0.07059662
105	0xbd844b9e	-0.06459735
106	0x3c91c0a6	0.017792057
107	0x3d1689b8	0.036752433
108	0x3bf72b66	0.0075430153
109	0x3d5e594a	0.05428437
110	0xbc80bd31	-0.015715213
111	0x3d49fb22	0.049311765
112	0x3d5d1be6	0.053981684
113	0xbde49803	-0.111618064
114	0xbddefa89	-0.108876295
115	0xbd979bc0	-0.07402754
116	0x3d892613	0.06696715
117	0x3d8a4599	0.06751556
118	0x3dd6c82b	0.10487398
119	0xbe0c214e	-0.1368458
120	0x3dc0cd3f	0.094141476
121	0xbe04a245	-0.12952526
122	0x3e41b308	0.18915951
123	0x3e05d862	0.13070825
124	0x3e0c7876	0.13717827
125	0xbadad286	-0.0016694821
126	0xbd941c2b	-0.07231935
127	0x3c8c23f1	0.017106982
128	0xbd4afe9b	-0.049559217
129	0xbbb648b6	-0.005562867
130	0x3d4606d7	0.048346367
131	0xbe5cda97	-0.2156776
132	0xbcfbec6c	-0.030752383
133	0x3cb4c98f	0.022068767
134	0xbd1d05af	-0.0383355
135	0x3e3ec101	0.18628313
136	0xbddbabd1	-0.10726131
137	0x3e2840e5	0.16431005
138	0x3db66add	0.08907101
139	0xbe841054	-0.25793707
140	0xbcc3d443	-0.023904925
141	0xbd884a8d	-0.066548444
142	0x3df89ff5	0.121398844
143	0xbe248737	-0.16067205
144	0x3dff6f34	0.12472382
145	0xbe14ccd5	-0.14531262
146	0xbccecf87	-0.025245441
147	0xbd8f9c14	-0.070121914
148	0x3db1c876	0.08680813
149	0xbdb97967	-0.09056359
150	0xbd98a6b8	-0.07453674
151	0x3b079a14	0.0020691203
152	0xbe75a608	-0.23989117
153	0xbd541262	-0.051775344
154	0x3d39e6ee	0.045386247
155	0xbda3d924	-0.08000401
156	0xbdb43b9f	-0.08800434
157	0xbcc0249a	-0.023454953
158	0x3dc2d9e5	0.09514216
159	0x3d2185d9	0.039434288
160	0xbe1632ed	-0.14667864
161	0x3c98cfdf	0.018653808
162	0xbdf423bc	-0.11920878
163	0xbc029dcc	-0.007972192
164	0xbe5cd4be	-0.2156553
165	0x3d08b068	0.03337136
166	0x3e52728c	0.20551509
167	0xbe07b046	-0.13250837
168	0x3dfc4086	0.12316994
169	0x3e50e0c4	0.20398241
170	0xbd02d401	-0.031940464
171	0xbc203430	-0.0097780675
172	0x3d17b658	0.03703913
173	0xbe5fd640	-0.21859074
174	0xbdca0436	-0.098640844
175	0xbe0230e1	-0.12713958
176	0xbd1c8597	-0.03821334
177	0x3d2bf72c	0.04198377
178	0xbc9367b4	-0.017993785
179	0x3a71c6e1	0.00092230557
180	0x3cfe1342	0.031015042
181	0xbd28ff9b	-0.04125939
182	0xbd821bab	-0.063529335
183	0x3de27be8	0.110587895
184	0xbd7ec67a	-0.062201
185	0xbd9d65ad	-0.07685409
186	0x3d04a622	0.032385
187	0xbc898757	-0.016788168
188	0xbd2fb5fe	-0.04289817
189	0xbe39863d	-0.18117614
190	0x3e141e03	0.14464574
191	0xbe225d0c	-0.15855807
192	0x3d23302f	0.039840873
193	0x3c864142	0.01638854
194	0xbe04b0fa	-0.12958136
195	0xbdb9d467	-0.09073716
196	0xbd4df0c0	-0.050278425
197	0x3d9725b3	0.073802374
198	0x3d087706	0.033316635
199	0xbe2dca5c	-0.16971725
200	0x3ccca852	0.024982605
201	0x3d934c59	0.071922965
202	0xbe2bc02c	-0.16772527
203	0xbcee1830	-0.029064268
204	0x3dad465e	0.08460687
205	0x3c8356fd	0.01603269
206	0xbe240a36	-0.1601952
207	0xbd613cab	-0.054989498
208	0xbdee0d1f	-0.116235964
209	0x3db25181	0.08706952
210	0x3cf6b11c	0.03011375
211	0xbe3c4c68	-0.18388522
212	0x3ce6b9f6	0.028164845
213	0x3a612610	0.00085887406
214	0xbba33bcb	-0.004981493
215	0xbca7aa32	-0.020466898
216	0x3dad7539	0.08469624
217	0xbe0f9179	-0.14020337
218	0xbe3b314f	-0.18280528
219	0xbdde15c6	-0.10843997
220	0xbbf2ed26	-0.007413524
221	0x3d30da82	0.043177135
222	0x3e023646	0.12716016
223	0xbc0a93ca	-0.008458087
224	0xbcaca6cb	-0.021075627
225	0x3d3bafba	0.045821883
226	0x3bdce257	0.006740849
227	0xbcad9b6b	-0.021192273
228	0x3d7f2efb	0.062300663
229	0xbcb49237	-0.022042377
230	0xbe05e6fd	-0.13076396
231	0x3c3483ff	0.011017798
232	0xbdae655a	-0.08515425
233	0xbd4a5d27	-0.049405243
234	0x3d2d4a69	0.04230729
235	0x3dfabc6f	0.12242972
236	0x3e33023e	0.17481324
237	0xbd685906	-0.056725524
238	0x3d2f643b	0.042820197
239	0xbcffe891	-0.031238826
240	0xbe12e533	-0.14345245
241	0xbe68cc9b	-0.22734301
242	0x3d37aa39	0.04484007
243	0xbe1c634a	-0.15272251
244	0xbb6600cf	-0.0035095697
245	0xbd875d3c	-0.0660958
246	0x3c9d7dee	0.019225087
247	0xbd48aa0c	-0.048990294
248	0x3d9b4e5e	0.07583307
249	0x3d5cb2f9	0.05388162
250	0xbc63f5ff	-0.0139136305
251	0x3bd05abf	0.006358474
252	0xbde81edf	-0.11334013
253	0xbe1b2c7f	-0.15153693
254	0x3e363168	0.17792284
255	0xbc82b3ed	-0.015954936

network_body._body_endoder.seq_layers.2.bias f4 [256]
0	0xbd43164d	-0.04762869
1	0xbe1111f6	-0.14167008
2	0xbd938c3a	-0.072044805
3	0xbd480a37	-0.048837867
4	0xbd8d802f	-0.06909215
5	0xba92077b	-0.0011141145
6	0xbd2c8b3c	-0.04212497
7	0xbdb4b9e3	-0.088245176
8	0x3c837a02	0.016049389
9	0xbd875d36	-0.066095755
10	0xbda89dc5	-0.08233217
11	0xbe014b96	-0.1262649
12	0xbdd52f81	-0.10409451
13	0x3c118110	0.008880869
14	0xbcbc25e1	-0.02296728
15	0xbb05b0a6	-0.002039948
16	0xbdfb572e	-0.122724876
17	0xbda003cc	-0.07813224
18	0xbd578c8d	-0.052624274
19	0xbd3558c3	-0.044274103
20	0xbd570560	-0.05249536
21	0xbd86a9b6	-0.065753385
22	0xbd353e27	-0.044248726
23	0xbd2402c1	-0.04004169
24	0xbe12e743	-0.14346032
25	0xbd859f33	-0.065245055
26	0x38ec0b18	0.00011255423
27	0xbd8205ce	-0.063487634
28	0xbdb38d8e	-0.08767234
29	0xbcf7eaab	-0.030263266
30	0xbe8abfd1	-0.2709947
31	0xbd26642d	-0.04062288
32	0xbe6dba8f	-0.23215698
33	0xbd1e0f8b	-0.03858904
34	0xbd19eb47	-0.037577894
35	0x3b7bcda7	0.003842214
36	0xbc63d45e	-0.013905613
37	0xbda0e6c7	-0.07856517
38	0xbc335ba2	-0.01094714
39	0xbbb76e2a	-0.0055978494
40	0x3b129fe6	0.002237314
41	0xbd04d12e	-0.03242605
42	0xbe3a0083	-0.18164258
43	0x39c04a0a	0.00036676257
44	0x3c2b5beb	0.010458927
45	0xbe40d4dd	-0.18831201
46	0xbd93c08a	-0.07214458
47	0x3c8d1c43	0.01722539
48	0xbd07c694	-0.033148363
49	0x3e0d050d	0.13771458
50	0xbdd85c88	-0.10564524
51	0x3d191755	0.037375767
52	0xbc1f108e	-0.009708537
53	0xbd7fcd97	-0.062451925
54	0xbcd8a62c	-0.026446424
55	0xbe172626	-0.14760646
56	0xbda9e4a4	-0.08295563
57	0xbd558aa2	-0.052134164
58	0xbdaa369d	-0.08311198
59	0xbcf607f5	-0.030033091
60	0xbd90b28c	-0.07065305
61	0xbe0dd2a9	-0.13849892
62	0xbe06f64f	-0.13179897
63	0xb8a2ca27	-7.762416e-05
64	0xbdcd1794	-0.10014263
65	0xbe1a11c9	-0.15045847
66	0xbd7a0ddd	-0.061048377
67	0xbccbb7f6	-0.024867993
68	0xbd752a2b	-0.059854668
69	0xbd867879	-0.06565947
70	0x3c90476f	0.017612187
71	0xbd32b57f	-0.04363012
72	0xbd55a8d2	-0.052162953
73	0x3bcd54a9	0.006266196
74	0xbd06c567	-0.0329031
75	0x3d4e7759	0.050406788
76	0x3c8813ca	0.016610999
77	0x3d49e66f	0.049292024
78	0xbdfbde52	-0.122982636
79	0xbe1b722d	-0.15180273
80	0xbcc18646	-0.023623597
81	0x3c064e48	0.008197375
82	0xbd089f76	-0.0333552
83	0xbc9d712d	-0.019219005
84	0xbd903619	-0.07041568
85	0x3d4d3978	0.050103635
86	0xbe5f1055	-0.21783574
87	0xbc8fe779	-0.01756643
88	0xbca889a4	-0.020573445
89	0xbc54ab50	-0.012980297
90	0x3d2a9bdd	0.04165255
91	0x3c856bc5	0.01628674
92	0xbd739561	-0.05946863
93	0xbcc4da57	-0.024029894
94	0x3c8e263f	0.017352222
95	0x3cec1615	0.028819123
96	0xbe2c62d4	-0.16834575
97	0xbccfcfb1	-0.02536759
98	0x3ce955cb	0.028483292
99	0xbb8f45b1	-0.0043723215
100	0xbdbfc702	-0.093641296
101	0xbd41485d	-0.04718815
102	0x3d8bbf28	0.068235695
103	0x3cc77c28	0.024351195
104	0xbd0a68f8	-0.033791512
105	0xbb83fd61	-0.004028008
106	0xbdaab903	-0.083360694
107	0xbcce28b8	-0.0251659
108	0xbdd1b2b7	-0.10239165
109	0xbdb26f5c	-0.08712646
110	0x3cb03f73	0.02151463
111	0x3d836d38	0.06417316
112	0x3d95f9f3	0.07323065
113	0xbd17bc87	-0.037045028
114	0xbd3a6380	-0.045505047
115	0x3cc0c41c	0.023531012
116	0xbdb9b773	-0.09068193
117	0x3cffd2be	0.03122842
118	0xbdc44421	-0.09583307
119	0xbd8c16c6	-0.06840281
120	0xbddae786	-0.10688691
121	0xbd37b0f0	-0.044846475
122	0xbdae7046	-0.08517508
123	0x3d8533f6	0.065040514
124	0xbd4373cd	-0.047717858
125	0x3d8a66e7	0.06757908
126	0x3cb1add5	0.021689335
127	0x3e06423a	0.13111201
128	0xbdd0d540	-0.10196924
129	0xbdac34f0	-0.084085345
130	0x3c4919a4	0.01227418
131	0x3c979766	0.01850481
132	0xbdc4abf0	-0.09603107
133	0xbd808197	-0.06274717
134	0xbe1e9bab	-0.1548907
135	0xbc9765ef	-0.018481223
136	0xbc6eaa54	-0.014566977
137	0xbbc26e0b	-0.0059335283
138	0x3d4c3550	0.04985553
139	0xba616467	-0.000859803
140	0xbe10bd92	-0.14134815
141	0xbdb404c5	-0.08789972
142	0xbd6aa3d8	-0.05728516
143	0xbac479b5	-0.0014989885
144	0xbe076922	-0.13223699
145	0x3e0c8236	0.13721547
146	0xbe1dd3e0	-0.15412855
147	0xbc8c4188	-0.017121091
148	0xbde9a912	-0.11409201
149	0xbd98e01c	-0.074646205
150	0xbe1f0ad3	-0.15531473
151	0xbd06f9b7	-0.03295299
152	0xbc4283c2	-0.011872234
153	0xbe16f16d	-0.14740534
154	0x3cc0bf81	0.023528816
155	0x3d7df123	0.061997544
156	0xbcf5e313	-0.030015504
157	0xbc9bac9b	-0.019003203
158	0xbd8c1bae	-0.06841217
159	0xbdbcbaf6	-0.092153475
160	0xbcf8b734	-0.030360796
161	0xbd82f287	-0.06393915
162	0x3d5dfea9	0.05419794
163	0xbd8fda18	-0.0702402
164	0x3c13783d	0.009000835
165	0xbdf75a23	-0.12077739
166	0x3d07ab2b	0.033122223
167	0xbc65bd6a	-0.014022211
168	0xbdafc55c	-0.08582565
169	0xbcd3dbdb	-0.025861671
170	0xbcefc260	-0.02926749
171	0xbb175b63	-0.0023095242
172	0xbce15d7a	-0.027510393
173	0xbdd0654c	-0.10175571
174	0x3be3364d	0.0069339634
175	0xbdd45845	-0.103683986
176	0x3c7e9c65	0.015540217
177	0xbdbf36ea	-0.09336646
178	0x3cb36acb	0.021901509
179	0xbe05b415	-0.13056977
180	0xbcf4e52f	-0.02989444
181	0x3d4ff035	0.05076619
182	0xbd50c5ed	-0.050970007
183	0x3d75c13c	0.059998736
184	0xbe1a7781	-0.1508465
185	0xbcec3a25	-0.02883632
186	0xba9aa84c	-0.0011799424
187	0xbd22ca2e	-0.039743595
188	0xbddfb856	-0.10923831
189	0xbc2fc69f	-0.010728507
190	0xbd8d77be	-0.06907605
191	0x396a920e	0.00022370389
192	0xbe14e093	-0.14538793
193	0x3dc70276	0.09717266
194	0xbdb27b00	-0.08714867
195	0x3c022b62	0.007944914
196	0x3cee858c	0.029116414
197	0xbcd91901	-0.02650118
198	0xbd9743d2	-0.073859826
199	0xbd99e864	-0.07515028
200	0xbe00c776	-0.12576088
201	0xbd7e56fd	-0.062094677
202	0xba9528ee	-0.0011379996
203	0xbd5a748e	-0.05333381
204	0x3bad1dc4	0.0052830894
205	0xbd49926b	-0.0492119
206	0xbd821808	-0.0635224
207	0xbd2bf355	-0.041980106
208	0xbdb0bf0d	-0.0863019
209	0xbd2b2647	-0.04178455
210	0xbd2f443b	-0.04278968
211	0x3cf2880b	0.029605886
212	0xbc9c8a57	-0.019108934
213	0xbda05d46	-0.078302905
214	0xbd97e781	-0.07417203
215	0xbdb8a805	-0.09016422
216	0x3ae8c535	0.0017758968
217	0xbdd37e66	-0.10326843
218	0xbc2138f3	-0.009840238
219	0xbe37ee6b	-0.17962043
220	0xbd80bcd2	-0.062860146
221	0xbc671379	-0.014103764
222	0xbbe4f70e	-0.006987459
223	0xbd883fa3	-0.06652763
224	0xbdaa20d8	-0.08307046
225	0xbc50604a	-0.01271827
226	0x3d5e1a08	0.054224044
227	0xbd835edc	-0.06414577
228	0x3d3c1217	0.04591569
229	0xbcfa3414	-0.03054241
230	0xbd6996cd	-0.05702858
231	0x3c441a6a	0.011969188
232	0xbca0d721	-0.019633831
233	0xbd105e61	-0.035246257
234	0x3d2978ce	0.041374974
235	0x3de19d0f	0.11016285
236	0x3bdc0574	0.0067145173
237	0xbe0cb3e6	-0.13740501
238	0xbd253a70	-0.040338933
239	0xbac3fe5e	-0.0014953127
240	0xbdda8e4b	-0.106716715
241	0xb9b9e7e0	-0.0003545871
242	0xbe02449a	-0.12721482
243	0xbd6a6ef7	-0.05723473
244	0xbd30e6a9	-0.043188725
245	0xbd0f6a1b	-0.0350133
246	0x3d86a5d1	0.06574596
247	0xbd2eea49	-0.0427039
248	0xbd1abbb5	-0.037776668
249	0xbca743d5	-0.020418087
250	0xbdbd90fe	-0.09256171
251	0xbc93efc6	-0.018058669
252	0xbe193ee6	-0.149654
253	0x3ddf1c2f	0.108940475
254	0x3d5f6681	0.054541115
255	0xbd166b8a	-0.03672365

action_model._discrete_distribution.branches.0.weight f4 [3, 256]
0	0x3bb10d23	0.0054031773
1	0x3ce79950	0.028271347
2	0x3dbbd56a	0.09171565
3	0x3e575e80	0.21032143
4	0xbd36d2a9	-0.044634495
5	0xbddd9c95	-0.10820881
6	0xbc8fc82b	-0.017551502
7	0xbd1dcb9e	-0.038524263
8	0xbe138ed2	-0.1440995
9	0x3e2eb673	0.17061786
10	0x3cc35d69	0.023848252
11	0x3dd9cfc7	0.106353335
12	0xbdcdca93	-0.100484036
13	0xbce542e4	-0.027985997
14	0x3eba2cab	0.36362204
15	0x3c821941	0.015881183
16	0xbd823c96	-0.06359212
17	0x3d17f6a4	0.03710045
18	0xbe5bb10e	-0.2145426
19	0xbd8471e9	-0.06467039
20	0x3e51f9c3	0.20505433
21	0xbf113925	-0.5672782
22	0xbd7617a3	-0.060081135
23	0xbca00017	-0.019531293
24	0xbd8b9425	-0.06815366
25	0x3d2d3dc5	0.042295236
26	0x3ddc0463	0.10743024
27	0xbceb373d	-0.028712863
28	0x3b07444f	0.002064008
29	0xbd8ceba4	-0.068808824
30	0x3b7f2bec	0.0038936092
31	0xbd4ef4ac	-0.050526306
32	0xbc7238b7	-0.01478403
33	0xbb59d703	-0.003323973
34	0xbc1d6309	-0.009606131
35	0xbeabbf92	-0.33544594
36	0x3e20eb7a	0.15714827
37	0xbcce4301	-0.025178434
38	0x3df76518	0.12079829
39	0x3e89fa77	0.26948902
40	0x3e6a4d57	0.22881065
41	0xbced484b	-0.028965136
42	0x3c83262b	0.01600941
43	0x3e28a038	0.16467369
44	0xbe73f320	-0.23823214
45	0xbac0ff86	-0.001472459
46	0xbd46cf96	-0.048537813
47	0x3c4515b1	0.012029097
48	0xbf744ca6	-0.95429456
49	0x3eac4df1	0.33653215
50	0x3ce09379	0.02741407
51	0xbdf4a938	-0.119463384
52	0xbda26275	-0.079289354
53	0xbcd6f71e	-0.026240882
54	0xbbb55b27	-0.005534548
55	0xbe11d5cf	-0.14241718
56	0x3d3416eb	0.04396717
57	0x3de03386	0.10947327
58	0xbcb2986d	-0.021801198
59	0x3d373e25	0.044737
60	0xbded58e5	-0.11589221
61	0xbd490401	-0.049076084
62	0xbf0a5fa9	-0.54052216
63	0xbe783c11	-0.24241664
64	0xbde47a58	-0.11156148
65	0x3ceb5d18	0.028730914
66	0x3ea48f53	0.32140598
67	0x3e284865	0.16433866
68	0xbe3bfd85	-0.18358429
69	0x3c18fb26	0.009337222
70	0xbdabcb69	-0.08388407
71	0x3d830766	0.063978955
72	0x3d9b5983	0.075854324
73	0x3e64032e	0.22266838
74	0x3b216aaf	0.0024630239
75	0x3d454914	0.048165396
76	0x3da2a98a	0.07942493
77	0xbd9fa47b	-0.07795044
78	0xbce147fd	-0.027500147
79	0x3e06d9f6	0.13169083
80	0x3e396088	0.1810323
81	0xbd83201f	-0.06402611
82	0x3af34162	0.0018558914
83	0xbeffd207	-0.49964926
84	0x3d6c821e	0.057741277
85	0x3cef4885	0.029209385
86	0xba9bcce7	-0.0011886627
87	0xbe2f77c5	-0.17135532
88	0xbcae88c9	-0.021305459
89	0x3e712582	0.23549464
90	0x3d70b511	0.05876643
91	0x3a17670d	0.00057755486
92	0x3e1b8dd4	0.15190822
93	0x3e2ab20a	0.16669479
94	0x3e7e8a39	0.24857415
95	0x3e4bdd2b	0.19908588
96	0xbbb42415	-0.0054974654
97	0xbdb9eb34	-0.090780646
98	0x3c446232	0.011986302
99	0xbd477912	-0.048699446
100	0xbd3e9830	-0.046531856
101	0x3d2d5059	0.042312954
102	0x3cc13e0e	0.02358916
103	0x3d3ac3fa	0.045597054
104	0x3e6d0b64	0.23148876
105	0x3cdaf746	0.026729237
106	0x3d930dea	0.07180388
107	0xbd4c2115	-0.049836237
108	0x3e371702	0.1787987
109	0xbd59ba65	-0.053156275
110	0x3d8ce767	0.06880074
111	0xbdf2c8af	-0.118546836
112	0xbf9b6c2c	-1.2142386
113	0xbdc02cef	-0.093835704
114	0x3dbfda6f	0.09367835
115	0x3d9a9949	0.07548768
116	0x3cc4cae9	0.024022536
117	0x3e062a49	0.13102068
118	0xbd494bae	-0.04914444
119	0xbda729a6	-0.08162241
120	0x3d3c3632	0.045950122
121	0x3db5d1d5	0.08877913
122	0xbd5bce1b	-0.053663354
123	0xbd574b11	-0.052561823
124	0x3e4e948c	0.20173854
125	0xbdb59ee6	-0.08868198
126	0xbe4dd0b0	-0.20099139
127	0x3ea0074a	0.3125556
128	0x3e0a2872	0.13491991
129	0xbe5eb8ce	-0.21750185
130	0xbca6d346	-0.020364415
131	0x3e21618f	0.15759872
132	0x3cc06fa1	0.023490729
133	0xbbc60e1f	-0.006044164
134	0x3e4ce3f1	0.20008828
135	0xb9a9a911	-0.00032360156
136	0xbcbe7cb8	-0.02325283
137	0xbf165ca7	-0.58735126
138	0x3ee51493	0.4474226
139	0xbd7d3328	-0.061816365
140	0x3d0c86af	0.03430813
141	0xbb5035b6	-0.0031770295
142	0x385e315c	5.2974894e-05
143	0x3dcce3bd	0.10004375
144	0xbb82aa06	-0.0039875535
145	0x3e673e2b	0.22582309
146	0xbb899985	-0.004199209
147	0x3f06bea7	0.5263466
148	0x3d06e99d	0.032937635
149	0xbd8c3724	-0.06846455
150	0x3e112bf8	0.14176929
151	0xbe2877f4	-0.16452008
152	0x3e4b2848	0.19839585
153	0x3e5ffab4	0.2187298
154	0xbf7de18e	-0.99172294
155	0xbc7472b7	-0.014919928
156	0xbe5d71d1	-0.21625449
157	0xbdc7b995	-0.09752194
158	0x3e677329	0.22602524
159	0x3dc3c46d	0.095589496
160	0x3c1e7f2c	0.009673875
161	0x3b6a349b	0.0035736922
162	0xbd069967	-0.03286114
163	0xbed028ca	-0.4065612
164	0x3dc4910f	0.0959798
165	0x3d7a46bb	0.06110261
166	0x3e7e1fd0	0.24816823
167	0x3aca30d7	0.0015425932
168	0xbd0f0498	-0.03491649
169	0xbcaf31ec	-0.02138611
170	0xbbf08863	-0.0073404773
171	0x3da71ed6	0.08160178
172	0x3e2457f3	0.16049175
173	0x3e159d22	0.14610723
174	0xbd19b191	-0.037522856
175	0x3dacffd8	0.08447236
176	0x3e554f2f	0.20830987
177	0x3dad9a31	0.08476675
178	0x3e31ea50	0.1737454
179	0xbc91622e	-0.017747011
180	0xbd943782	-0.0723715
181	0xbdb365ae	-0.08759628
182	0x3b172a77	0.0023066083
183	0x3e4bbf3b	0.19897167
184	0xbddd0400	-0.107917786
185	0xbdfd3cc5	-0.123651065
186	0x3b6b400e	0.0035896334
187	0xbc17d32f	-0.009266659
188	0x3e414867	0.18875276
189	0x3e33af33	0.17547302
190	0xbc9b3d49	-0.018950121
191	0x3d8f298b	0.069903456
192	0x3ec4cdcd	0.38438264
193	0x3ed75485	0.4205667
194	0x3dec9e49	0.11553628
195	0xbda33688	-0.079693854
196	0xbc975fe1	-0.018478336
197	0x3d8f7c01	0.07006074
198	0x3d62fceb	0.055416983
199	0x3d1dd63b	0.038534384
200	0xbdb91ed5	-0.09039084
201	0xbdda755a	-0.10666914
202	0x3d923955	0.071398415
203	0xbdaa169c	-0.08305094
204	0xb9883420	-0.00025978778
205	0xbef24e5c	-0.47325408
206	0xb8a4472d	-7.833387e-05
207	0xbd9c85e8	-0.07642728
208	0x3ce235ea	0.027613599
209	0xbc571fb7	-0.01313012
210	0x3eedbac3	0.4643155
211	0x3eaa3cd0	0.3324952
212	0x3e1a7a49	0.1508571
213	0xbd97be6c	-0.07409367
214	0x3d44990a	0.047997512
215	0xbe282f93	-0.16424398
216	0x3bee2601	0.007267714
217	0xbd1dc8fd	-0.038521755
218	0x3e098735	0.13430484
219	0x3ba7e7e1	0.0051240777
220	0xbc6b197a	-0.014349336
221	0x3b5f39ff	0.0034061668
222	0xbdc288e3	-0.09498765
223	0xbc89fe84	-0.016844995
224	0xbdea5154	-0.11441293
225	0xb97e618d	-0.00024259668
226	0xbcbf249d	-0.023332888
227	0xbdc4cf40	-0.09609842
228	0xbd8890dd	-0.066682555
229	0x3dc043e9	0.09387953
230	0xbcd42bd4	-0.025899805
231	0xbd05343b	-0.032520514
232	0xbce2a11c	-0.027664714
233	0xbe5b25ef	-0.2140119
234	0xbe128aed	-0.14310808
235	0xbe7528ba	-0.23941317
236	0xbe642eb9	-0.22283448
237	0xbd9434e7	-0.07236653
238	0xbe3ca0b8	-0.18420684
239	0x3cdf1e0b	0.027236005
240	0xbfa98c2c	-1.3245902
241	0xbf000027	-0.5000023
242	0x3cd07a31	0.02544889
243	0xbe375649	-0.17904009
244	0x3eeee23c	0.46656978
245	0x3e4d1b7f	0.2003002
246	0x3ea0f362	0.31435686
247	0x3d141f88	0.036162883
248	0xbeabae94	-0.3353163
249	0xbdcbccf9	-0.09951205
250	0x3db9221c	0.09039709
251	0xbe05d963	-0.13071208
252	0x3d309ccb	0.04311828
253	0xbf70dbba	-0.94085276
254	0xbdbe2ffd	-0.09286497
255	0xbde9a721	-0.114088304

action_model._discrete_distribution.branches.0.bias f4 [3]
0	0xbd451abc	-0.0481212
1	0x3d93bfe5	0.07214335
2	0xbe07f4fb	-0.13277046

action_model._discrete_distribution.branches.1.weight f4 [3, 256]
0	0x3c51c9f8	0.012804501
1	0x3ea26663	0.3171874
2	0xbdb67516	-0.08909051
3	0x3f2135f7	0.6297297
4	0xbc90083d	-0.017582053
5	0xbdcd7f12	-0.10034002
6	0x3d91eaeb	0.07124885
7	0x3de5de8f	0.1122409
8	0xbde6dd9c	-0.112727374
9	0xbde750f9	-0.11294741
10	0xbb6be8fa	-0.003599702
11	0xbbc6620b	-0.006054168
12	0xbd161296	-0.03663882
13	0x3c75a6bc	0.014993366
14	0x3d94a5f9	0.07258219
15	0xbc71f5ba	-0.014768058
16	0xbc7d7ef9	-0.015472167
17	0xbc7d41f5	-0.01545762
18	0x3dcbf8d2	0.09959568
19	0xbbf4add8	-0.007467013
20	0xbe8191d4	-0.2530657
21	0x3e78ddf9	0.24303426
22	0xbdcf8571	-0.10132874
23	0xbc531a2e	-0.01288466
24	0xbe1a54de	-0.15071437
25	0xbd9447fb	-0.07240292
26	0xbe16d648	-0.1473018
27	0x3cbde3ec	0.02317997
28	0x3af69447	0.0018812501
29	0xbe1f6e3b	-0.15569393
30	0x3d424c45	0.047436018
31	0x3ad96248	0.0016585076
32	0x3cc6dd69	0.024275498
33	0xbde10c06	-0.109886214
34	0xbc0eb6c6	-0.008710569
35	0x3d60a832	0.054847904
36	0x3c393c17	0.01130583
37	0xbd7a0b90	-0.061046183
38	0x3de8a7c2	0.11360122
39	0xbe06c602	-0.13161471
40	0x3b9724d8	0.0046125464
41	0xbc965e85	-0.018355617
42	0xbb7eaf41	-0.0038861784
43	0xbe6c3772	-0.23068026
44	0xbcf927ca	-0.03041448
45	0x3c4863db	0.012230839
46	0xbde11586	-0.109904334
47	0xbe072c5f	-0.1320052
48	0x3d417e5f	0.047239657
49	0x3dbb3ad6	0.091420814
50	0xbb28ebcd	-0.0025775314
51	0xbbbb3388	-0.00571293
52	0x3d44d1e7	0.04805174
53	0x3b086599	0.002081251
54	0x3be529b0	0.006993495
55	0xbc26247a	-0.010140533
56	0x3c99f7d0	0.018794924
57	0xbddb1a46	-0.10698371
58	0xbd9b99ff	-0.07597732
59	0xbcc5ee91	-0.024161609
60	0xbd797c3a	-0.060909487
61	0x3cd77f94	0.026305951
62	0x3c586c8f	0.013209476
63	0xbd9d20c5	-0.07672266
64	0xbd89d8e7	-0.06730824
65	0xbde6fe0f	-0.112789266
66	0xbdc4551e	-0.09586547
67	0x3d61ccc2	0.055126913
68	0xbe0cb0cd	-0.13739319
69	0xbc9a99cc	-0.018872164
70	0xbe01043b	-0.1259927
71	0xbe0e4906	-0.13895044
72	0x3d7fd92d	0.062462974
73	0xbd908418	-0.07056445
74	0x3c417bd9	0.011809313
75	0xbe701bc6	-0.23448095
76	0xbe0b4c91	-0.13603427
77	0xbd592bbd	-0.053020228
78	0x3c4fc544	0.012681309
79	0xbceda31f	-0.029008446
80	0x3e09c495	0.13453896
81	0x3da11b14	0.07866493
82	0x3c642da1	0.013926894
83	0xbcaed66a	-0.021342475
84	0x3d20ab96	0.039226137
85	0xbe4888fc	-0.19583505
86	0xbc940478	-0.018068537
87	0xbdd6cb83	-0.104880355
88	0x3c80be52	0.015715752
89	0xbe499789	-0.19686712
90	0x3e972dec	0.29527223
91	0x3c0700ff	0.008239984
92	0xbe635a35	-0.2220238
93	0x3d8704d0	0.06592715
94	0x3eb9ae44	0.36265767
95	0xbe52c90f	-0.2058451
96	0xbc9cf1e5	-0.019158313
97	0x3cb2a09b	0.021805098
98	0xbd883d70	-0.06652343
99	0x3d5dca0f	0.054147776
100	0x3d4162fb	0.047213536
101	0xbc71bd0f	-0.014754548
102	0xbe490b56	-0.1963323
103	0x3d2ace17	0.04170045
104	0xbeb8faa7	-0.36128733
105	0x3b03fe34	0.002014053
106	0x3e0a3b39	0.13499154
107	0x3cb8846f	0.022524087
108	0xbe719acb	-0.23594205
109	0xbdb1f3e3	-0.08689096
110	0x3cdfe8a8	0.027332619
111	0x3e86e5f1	0.26347306
112	0x3db04caf	0.08608376
113	0x3c75c8fe	0.015001534
114	0x3c70a3a2	0.014687451
115	0xbe018000	-0.12646484
116	0xbd69ce2e	-0.057081394
117	0xbdc02045	-0.09381155
118	0xbe581412	-0.21101406
119	0x3ceb8790	0.028751165
120	0xbbb71dd9	-0.005588275
121	0xbe1de2c6	-0.15418538
122	0xbc4e7958	-0.012602173
123	0xbe9e5e12	-0.30931145
124	0x3c970877	0.018436654
125	0x3daf6e73	0.085659884
126	0xbe774176	-0.24146065
127	0x3e1e4e9a	0.15459672
128	0xbe6714bc	-0.22566503
129	0xbe2ac090	-0.1667502
130	0xba7a70fb	-0.00095535786
131	0xb92324a1	-0.00015558537
132	0xbe67058b	-0.22560708
133	0xba4ca91b	-0.0007807181
134	0x3eb23efe	0.34813684
135	0x3c6afba6	0.014342224
136	0xbe54fbf2	-0.20799235
137	0x3bb0a8f8	0.0053912364
138	0xbde22c4b	-0.110436045
139	0x3d212cd7	0.039349403
140	0xbe06d6e3	-0.1316791
141	0x3a831cea	0.0010003124
142	0x3c82dc77	0.015974266
143	0xbcf9df4f	-0.03050199
144	0xbc9636b1	-0.018336626
145	0x3e679e13	0.22618894
146	0xbcae5fa3	-0.021285838
147	0x3ea1b952	0.315867
148	0xbdf0a4ac	-0.11750159
149	0x3ddf49c4	0.109027416
150	0xbde5a4b9	-0.11213059
151	0xbd2b3d2f	-0.041806396
152	0xbe30de7b	-0.1727237
153	0x3ebeda23	0.372758
154	0x3d00e8dc	0.031472072
155	0xbbe75e56	-0.0070608063
156	0x3d1e253c	0.03860973
157	0xbe0f8677	-0.14016138
158	0xbe9c5bb4	-0.30538714
159	0x3ddbd6c5	0.107343234
160	0x3cff0e1b	0.031134656
161	0xbe2968d3	-0.16543894
162	0x3ca3b751	0.019984873
163	0x3e514eb5	0.2044018
164	0x3c9da31c	0.019242816
165	0xbe0c2a4c	-0.1368801
166	0x3d8fdaef	0.0702418
167	0x3c9a0024	0.018798895
168	0x3ca7c748	0.020480767
169	0xbcee7c8d	-0.029112125
170	0x3b8b83c6	0.004257652
171	0x3d3f7a41	0.04674745
172	0xbe70ea33	-0.2352684
173	0x3eb04f2f	0.34435412
174	0x3d512207	0.05105784
175	0xbcb65b7a	-0.022260416
176	0x3e2e2b85	0.17008789
177	0x3d23621d	0.03988849
178	0xb9b0d791	-0.00033729945
179	0x3dd9a7c0	0.10627699
180	0xbdffa6d8	-0.12482995
181	0xbca64267	-0.020295335
182	0x3c7c5f80	0.015403628
183	0x3e7f4355	0.24928029
184	0xbe6033c8	-0.21894753
185	0x3cbaba04	0.022793777
186	0x3cea94ca	0.028635401
187	0x3bfa1d24	0.0076328684
188	0x3e04794b	0.12936895
189	0xbd776f83	-0.06040908
190	0x3ecd40b2	0.4008842
191	0xbe3978c1	-0.1811247
192	0x3efabb4b	0.48971018
193	0x3cf588eb	0.029972514
194	0xbdc8657e	-0.09784983
195	0xbe174e07	-0.14775859
196	0xbd425475	-0.047443826
197	0x3c1b319a	0.009472275
198	0xbd0c63cb	-0.034274857
199	0xbc984ae8	-0.018590406
200	0xbe1f8c4e	-0.15580866
201	0xbe653175	-0.22382148
202	0xbd4d471a	-0.050116636
203	0xbd7ddea2	-0.061979897
204	0xbc5f21dc	-0.013618913
205	0xbd9ad8b9	-0.07560868
206	0xbdc20095	-0.09472767
207	0xbd355569	-0.044270907
208	0xbc7839d8	-0.01515051
209	0x3ba99fa7	0.0051765027
210	0x3ed1d2ac	0.40981042
211	0x3e299b92	0.16563252
212	0xbd98b4e4	-0.07456377
213	0xbe8a881e	-0.27056974
214	0x3c2e5734	0.010640908
215	0xbe1f8b81	-0.1558056
216	0x3de0de82	0.1097994
217	0x3cf44e68	0.029822543
218	0x3e8af73f	0.2714176
219	0x3c4d55b3	0.012532639
220	0xbc117c24	-0.008879695
221	0xbc338553	-0.01095708
222	0xbd4f3cda	-0.050595142
223	0xbe0518a3	-0.1299768
224	0xbe9eaf54	-0.3099314
225	0x3c9f8a7c	0.019475214
226	0x3c813249	0.015771048
227	0xbe0c78b3	-0.13717918
228	0xbd622392	-0.055209704
229	0x3d8f113f	0.06985711
230	0x3c324aa3	0.010882053
231	0xbe0a3e17	-0.13500248
232	0xbc0d8824	-0.0086384155
233	0x3dbd1b82	0.09233762
234	0x3d12bc07	0.035823848
235	0x3e3475cd	0.17623062
236	0x3c3abd23	0.011397633
237	0x3af8a235	0.001896924
238	0xbe6bbc0a	-0.2302095
239	0x3d1496b7	0.036276545
240	0x3c7e835d	0.015534249
241	0x3cea024c	0.028565548
242	0xbd8fccad	-0.07021461
243	0xbc96a586	-0.018389475
244	0x3eb62f0d	0.35582772
245	0xbf0bede3	-0.5465986
246	0x3d945245	0.07242254
247	0xbe4e9d31	-0.20177151
248	0xbdf601cd	-0.12012062
249	0x3c326bf3	0.010889995
250	0xbe371797	-0.17880093
251	0xbd6bac33	-0.05753727
252	0xbc32e70c	-0.010919344
253	0x3e27124f	0.16315578
254	0x3be6271b	0.0070237047
255	0x3d59b3ab	0.05314986

action_model._discrete_distribution.branches.1.bias f4 [3]
0	0x3d735212	0.05940444
1	0xbdb22a29	-0.08699448
2	0xbd008ff9	-0.031387303
