results/ppo/BotControllerAgent/BotControllerAgent-7499987.onnx (onnx, 130130 bytes, 9 tensors)

discrete_act_size_vector f4 [1, 2]
3.0 3.0
00000000: 0000 4040 0000 4040

network_body._body_endoder.seq_layers.0.weight f4 [128, 104]
0.61693954 0.20902894 0.18348487 0.032219157 0.060335882 -0.030467208 0.037807044 0.07805421
0.11380566 0.35981953 0.078068085 -0.47018164 -0.048277814 0.003088843 0.12637466 -0.11377083
-0.23149446 -0.11176628 0.10708613 0.11513487 0.17806014 0.1555347 -0.048359934 0.019939631
-0.05983797 -0.06088725 0.08470906 -0.25189722 -0.003301682 -0.031133402 0.15611196 -0.23977868
0.01108405 -0.03886263 -0.097009785 -0.049739957 -0.10272741 -0.049771514 0.18768704 0.18442759
-0.11256942 -0.043904327 0.026396586 0.095245436 -0.11440585 -0.10975179 0.101198 -0.16151729
0.15085782 0.2605381 0.028121712 -0.09261518 -0.076829806 0.24756446 -0.04010214 0.09955031
-0.17679372 -0.018056339 -0.19110589 0.06517291 -0.25782636 -0.061339833 0.083425924 0.038546998
-0.0532389 0.46159005 0.086873755 -0.04303268 0.14336364 0.3434904 -0.13713437 0.1075171
-0.003530984 0.08569701 0.021670504 0.27380526 0.14533536 0.10341299 0.032526594 0.11416978
-0.2496943 -0.3888635 0.03619796 -0.10918678 -0.09033458 0.25773752 0.11636384 0.18265378
-0.18139432 0.29213902 -0.07030882 0.11910142 0.15412425 -0.05959163 -0.018769119 -0.07993085
0.25538582 -0.029893376 -0.07430465 0.095992334 0.24893194 0.15087843 -0.15375677 0.26869926
0.24622495 0.01760896 -1.7718698e-05 -0.023807801 0.072586276 0.068713926 -0.09917928 -0.25101715
-0.13524789 -0.13215746 -0.26866606 -0.10593351 -0.14182086 -0.19277841 -0.102603644 -0.16280073
-0.093336836 -0.047182634 -0.03966531 0.07260541 0.22941452 -0.16760421 -0.0037589492 -0.03927399
-0.17425646 0.24117814 -0.2625039 -0.12540923 -0.087170035 -0.14462693 -0.032845996 0.012549561
0.0030809822 -0.10556086 0.18700305 -0.22026141 -0.045935024 -0.18083562 0.13770102 -0.030357003
-0.101063795 -0.047001746 -0.052984316 0.059381794 0.17487857 -0.0041166088 0.20358358 -0.17436135
0.08119024 0.29133558 0.09626869 0.00018540506 -0.052735228 0.043558583 -0.06989713 0.042040683
-0.12857977 -0.08810751 -0.06868349 0.10404858 -0.65065736 0.018624514 -0.11166717 0.21230833
0.032661963 0.2388594 -0.107292145 -0.08438731 -0.059523776 -0.0875105 -0.056086775 0.19383581
0.054247793 -0.028922202 0.12832889 0.03184831 0.2683262 -0.06938468 0.06378282 0.1555764
-0.4717251 0.057493437 0.07146414 0.09513144 0.012429125 -0.24498989 -0.05403612 -0.2645425
0.089604855 0.10883074 0.20928517 0.0022963057 -0.054053776 -0.16215682 0.20934238 -0.144687
-0.009710301 -0.27226114 0.11837457 0.07360866 -0.1317848 -0.088651426 -0.2481099 0.7479733
-0.71881527 0.076587506 -0.085416205 0.18800922 0.02684204 0.9058572 -0.043563694 -0.081279606
0.009039454 -0.22666948 -0.0037934335 0.04522825 0.04601297 -0.2338575 -0.039184358 0.401771
0.16162907 -0.20181158 0.023019845 0.23932117 -0.73576516 0.14557883 0.015467774 0.081705675
0.08093567 0.40561166 -0.10610633 -0.044015106 -0.08947116 -0.09389088 -0.08717776 -0.19067146
-0.16104154 -0.036812514 -0.19170408 0.06970795 -0.209419 -0.17775464 0.08303761 0.09374559
-0.17045473 0.07511963 0.042611696 0.10060649 0.1176212 0.21236517 -0.08554065 0.0046849493
00000000: c0ef 1d3f af0b 563e 75e3 3b3e 3cf8 033d
00000010: c222 773d 5e96 f9bc 8fdb 1a3d e3da 9f3d
00000020: f112 e93d 443a b83e 29e2 9f3d a6bb f0be
00000030: f5be 45bd 306e 4a3b 5c68 013e ae00 e9bd
00000040: e20c 6dbe b8e5 e4bd f94f db3d d5cb eb3d
00000050: 6655 363e 7d44 1f3e 1115 46bd 7058 a33c
00000060: a918 75bd e964 79bd f27b ad3d acf8 80be
00000070: 0861 58bb 7a0b ffbc d0db 1f3e 8b88 75be
00000080: e099 353c 6c2e 1fbd 11ad c6bd 20bc 4bbd
00000090: c062 d2bd 37dd 4bbd 0831 403e 96da 3c3e
000000a0: cc8a e6bd 06d5 33bd a73d d83c 0a10 c33d
000000b0: 9d4d eabd 8cc5 e0bd e640 cf3d ca64 25be
000000c0: 797a 1a3e 4065 853e 815f e63c 07ad bdbd
000000d0: f258 9dbd 8a81 7d3e 2442 24bd 08e1 cb3d
000000e0: 6a09 35be e3ea 93bc 43b1 43be 6079 853d
000000f0: d101 84be 7a3f 7bbd 36db aa3d 75e3 1d3d
00000100: 0811 5abd 8855 ec3e deea b13d 0943 30bd
00000110: ebcd 123e f9dd af3e f46c 0cbe ed31 dc3d
00000120: 1568 67bb ea81 af3d 5786 b13c 3430 8c3e
00000130: cbd2 143e 31ca d33d 9b3a 053d d8d1 e93d
00000140: ddaf 7fbe 1e19 c7be 5044 143d 529d dfbd
00000150: 5601 b9bd 2cf6 833e 2a50 ee3d 9809 3b3e
00000160: 6fbf 39be 3f93 953e 12fe 8fbd 72eb f33d
00000170: bfd2 1d3e 5a16 74bd b2c1 99bc c9b2 a3bd
00000180: eec1 823e f4e2 f4bc 092d 98bd a197 c43d
00000190: 04e8 7e3e e07f 1a3e 6a72 1dbe f392 893e
000001a0: 6522 7c3e aa40 903c 9da2 94b7 9408 c3bc
000001b0: 1da8 943d e3b9 8c3d 821e cbbd 5285 80be
000001c0: 6c7e 0abe 4954 07be 998e 89be abf3 d8bd
000001d0: 7d39 11be b467 45be dc21 d2bd 3cb5 26be
000001e0: 6227 bfbd 9442 41bd 1878 22bd 25b2 943d
000001f0: a4eb 6a3e 70a0 2bbe b458 76bb c3dd 20bd
00000200: 4970 32be 67f7 763e e966 86be 476b 00be
00000210: 3486 b2bd 1519 14be 8689 06bd ad9c 4d3c
00000220: 4eea 493b 4b30 d8bd ba7d 3f3e 358c 61be
00000230: 5d26 3cbd f92c 39be 7f01 0d3e 40af f8bc
00000240: 89fa cebd e784 40bd 1506 59bd 533a 733d
00000250: 5e13 333e 9ee4 86bb 3778 503e c88b 32be
00000260: 1247 a63d f029 953e 8528 c53d 4b69 4239
00000270: e500 58bd 7c6a 323d 3a26 8fbd da32 2c3d
00000280: 6aaa 03be b671 b4bd eea9 8cbd 6c17 d53d
00000290: 7b91 26bf 7092 983c c2b1 e4bd 5b67 593e
000002a0: 8dc8 053d 8f97 743e fcbb dbbd 41d3 acbd
000002b0: 34cf 73bd b438 b3bd 3fbb 65bd e57c 463e
000002c0: ef32 5e3d 41ee ecbc a668 033e 6073 023d
000002d0: 0d62 893e 8e19 8ebd 91a0 823d 6b4f 1f3e
000002e0: f485 f1be 3d7e 6b3d cb5b 923d 46d4 c23d
000002f0: 87a3 4b3c a1de 7abe fb54 5dbd 1d72 87be
00000300: c082 b73d a7e2 de3d da4e 563e 9e7d 163b
00000310: 7e67 5dbd 700c 26be d95d 563e d428 14be
00000320: f417 1fbc d065 8bbe 5e6e f23d 23c0 963d
00000330: 98f2 06be e18e b5bd 8610 7ebe 2e7b 3f3f
00000340: 4704 38bf e9d9 9c3d b1ee aebd 7d85 403e
00000350: d6e3 db3c 42e6 673f d86f 32bd ec75 a6bd
00000360: 381a 143c 0b1c 68be 419b 78bb 4241 393d
00000370: 1978 3c3d 5778 6fbe c77f 20bd eeb4 cd3e
00000380: 1782 253e b2a7 4ebe 1d94 bc3c 9c10 753e
00000390: 1b5b 3cbf 9e12 153e 8c6c 7d3c 4e55 a73d
000003a0: 9ac1 a53d 55ac cf3e 474e d9bd 2f49 34bd
000003b0: a83c b7bd dd49 c0bd 418a b2bd 613f 43be
000003c0: 13e8 24be b8c8 16bd 134e 44be 0bc3 8e3d
000003d0: ef71 56be 5005 36be 9f0f aa3d b0fd bf3d
000003e0: af8b 2ebe 52d8 993d 9a89 2e3d c70a ce3d
000003f0: 62e3 f03d 4176 593e f02f afbd 3484 993b

network_body._body_endoder.seq_layers.0.bias f4 [128]
0.0039374754 -0.043377846 0.07609004 0.017790413 0.006243381 -0.014935193 -0.044984747 0.015182255
0.20564508 0.100697376 0.16516857 0.017641822 0.06997151 -0.029855145 0.24160665 0.0053064195
0.004817788 0.19141328 0.003224067 0.1569307 -0.003805934 -0.10482438 -0.049341615 0.20041522
0.038587492 -0.0016959269 -0.08670828 0.07478376 -0.14438513 0.25360632 -0.044911567 0.03698231
-0.029417602 0.014911175 -0.008895194 -0.099842995 -0.042776935 0.16008723 0.009297616 -0.06852189
-0.07459866 -0.02402323 -0.09776352 -0.035767704 0.011221767 0.16449939 0.11480492 -0.026897483
-0.086724624 -0.04888935 -0.10396652 0.19837451 0.042119518 0.15961683 0.021635376 -0.030100595
0.0068234242 0.14639379 -0.049018864 0.017615892 0.2011626 0.21289074 -0.11593782 0.030879876
0.15567769 -0.049877763 0.1430525 -0.09922542 -0.008829076 0.0319798 0.08208229 0.092989035
-0.07367496 -0.019961488 -0.0937345 0.011556925 0.018144557 0.074691996 0.038898267 0.23786351
-0.028336875 0.07493733 0.047856614 -0.0750486 0.055052962 -0.044560064 -0.050787438 0.14297852
0.14196326 -0.020444103 -0.07720956 0.0019582007 -0.060519002 0.00033957098 -0.035672415 -0.011644972
0.35643592 0.06510784 0.008944445 0.17549793 0.11884016 -0.03651146 -0.015178483 -0.051963747
0.0075822547 -0.013141583 0.10216037 0.05298311 0.059038095 0.06580686 0.013929525 0.041681383
0.068871096 0.17067127 0.0009117416 0.04315178 -0.05549283 -0.074654944 -0.030289998 -0.05370692
0.048588026 0.046327025 -0.027002737 0.025558623 -0.038234536 -0.117405646 0.007271605 0.14422947
00000000: f005 813b f8ac 31bd 18d5 9b3d 33bd 913c
00000010: 4795 cc3b bdb2 74bc ed41 38bd febe 783c
00000020: a094 523e 6d3a ce3d f321 293e 9585 903c
00000030: 394d 8f3d c792 f4bc bc67 773e 79e1 ad3b
00000040: 89de 9d3b d801 443e de4a 533b 71b2 203e
00000050: fa6c 79bb 2aae d6bd 6f1a 4abd a639 4d3e
00000060: eb0d 1e3d dd49 deba 1c94 b1bd 3a28 993d
00000070: b2d9 13be b0d8 813e 31f5 37bd c37a 173d
00000080: 2ffd f0bc 004e 743c 26bd 11bc 7c7a ccbd
00000090: de36 2fbd e8ed 233e 0755 183c 3455 8cbd
000000a0: 2fc7 98bd 5dcc c4bc 3e38 c8bd 2881 12bd
000000b0: 81db 373c 8772 283e d81e eb3d 1c58 dcbc
000000c0: ae9c b1bd 3340 48bd 66ec d4bd b022 4b3e
000000d0: 8485 2c3d 9872 233e ac3c b13c 8695 f6bc
000000e0: 0897 df3b 41e8 153e 01c8 48bd 344f 903c
000000f0: 92fd 4d3e 0800 5a3e cf70 edbd cbf7 fc3c
00000100: f969 1f3e a04c 4cbd 5b7c 123e b236 cbbd
00000110: d4a7 10bc 40fd 023d c21a a83d 0971 be3d
00000120: e6e2 96bd 4686 a3bc e0f7 bfbd 4259 3d3c
00000130: e5a3 943c 1ef8 983d ca53 1f3d 7e92 733e
00000140: bc22 e8bc be78 993d 4c05 443d 15b3 99bd
00000150: 377f 613d 9d84 36bd 7d06 50bd f668 123e
00000160: d15e 113e 647a a7bc 0c20 9ebd 2855 003b
00000170: c6e2 77bd 7208 b239 3d1d 12bd 8dca 3ebc
00000180: c57e b63e 4257 853d b98b 123c bbb5 333e
00000190: 7862 f33d 0a8d 15bd 2caf 78bc f0d7 54bd
000001a0: 9074 f83b cb4f 57bc 7539 d13d d104 593d
000001b0: eed1 713d bfc5 863d aa38 643c 19ba 2a3d
000001c0: 4a0c 8d3d 73c4 2e3e f101 6f3a ecbf 303d
000001d0: 734c 63bd b1e4 98bd bb22 f8bc cafb 5bbd
000001e0: 3d04 473d 68c1 3d3d d834 ddbc 5160 d13c
000001f0: d19b 1cbd 5f72 f0bd a546 ee3b e4b0 133e

network_body._body_endoder.seq_layers.2.weight f4 [128, 128]
0.1090322 -0.14163177 -0.077490024 -0.12660837 0.2125929 0.0039744475 -0.010862164 -0.2553277
-0.48174176 0.31184557 -0.0037911609 -0.24766806 -0.1297698 -0.03477623 0.16434138 -0.00090850407
-0.2908158 -0.37565032 -0.52546984 -0.0038793427 0.04917919 0.0928848 0.06887835 -0.5413416
0.13454522 0.26502386 -0.10219144 0.029619783 0.12701815 -0.33576563 0.10701065 0.16399474
-0.14336562 0.038610935 -0.07117113 0.025080627 0.08235378 -0.049933165 -0.25395644 0.08301546
0.047815636 0.3081474 0.26047352 -0.021443592 0.20860992 0.10442455 -0.19860774 -0.13412155
-0.008286701 -0.19328596 0.06931147 -0.16734506 0.075793214 -0.095044985 -0.16701768 -0.17295486
-0.164109 0.060171336 -0.004233902 -0.32238302 -0.20061009 -0.34387848 -0.10471517 -0.22910228
-0.039747808 -0.04083249 -0.51353234 0.027202033 0.4430005 -0.15850061 0.02232764 -0.0026692583
0.039344016 -0.038619976 0.19051209 -0.02203745 -0.033239424 -0.12967163 0.15266356 -0.016282402
-0.09570099 -0.052342046 -0.012701051 0.22417687 -0.08766032 0.17551649 -0.34041256 -0.15100561
0.0064193406 0.054014854 0.21416743 -0.14031687 0.25341198 -0.009553824 0.05441861 -0.237518
0.08349117 -0.03861973 -0.28003654 -0.10533019 -0.17320715 0.034623694 -0.19097938 0.18406068
0.18288009 -0.060141195 -0.17212266 0.087393895 -0.24351607 0.22658749 0.011490655 0.024697224
0.11654727 0.16578577 -0.18898804 -0.21386588 0.023923613 -0.15239576 0.0938659 -0.22431394
-0.094140336 0.16719554 0.09647355 0.05138565 0.015118311 -0.15979086 -0.005091691 -0.26901838
0.057245683 -0.167529 0.05160608 -0.27741286 0.39820635 -0.07639534 -0.3106923 -0.17620924
0.011302528 -0.11573361 -0.061461296 -0.086384475 0.050748333 0.12520726 0.051528733 -0.3003236
0.07522383 -0.043745954 -0.0037652787 0.17001331 -0.113581195 0.05619889 0.012450594 -0.0012231151
-0.0399761 -0.2937855 0.46971512 -0.25838417 0.2667513 -0.06188673 -0.20401698 -0.055041675
0.014441456 0.018838104 -0.16374883 0.06473156 0.10275121 0.016093241 0.15327862 -0.006955466
0.040373847 -0.014387592 0.17603177 -0.101456776 -0.07065225 -0.4450384 -0.23029076 -0.13682589
0.10071541 -0.35477212 -0.1303872 -0.03603446 0.13049792 0.081467964 -0.1308593 0.06750188
-0.41131508 -0.12557882 -0.368416 -0.39017844 -0.041915063 0.1442014 0.059199914 0.39204395
-0.0424482 0.2065267 0.21764717 -0.07158702 0.27363485 -0.1454614 -0.18234514 -0.26051104
0.10982634 -2.7101466e-06 0.45811537 0.043937188 -0.26948702 -0.08177168 0.21617666 -0.14396349
-0.09477236 0.03228484 -0.26414084 0.23523887 -0.15444367 0.19854 -0.0052692783 -0.043648906
-0.24938849 -0.19110356 -0.011149894 0.028947245 0.60142237 -0.08169095 0.09402056 -0.39478016
-0.19392583 0.050709568 -0.2816962 -0.11842704 0.035446275 0.26274413 -0.14292084 0.064404815
-0.07097115 0.09222158 -0.44541657 0.15935728 0.042607956 0.051058576 0.12758009 0.022069464
0.13089554 -0.13182823 0.18849316 0.068085335 0.19558786 -0.20696566 0.07790894 -0.019517694
-0.19565505 -0.02194151 0.13647911 0.055648085 -0.18819074 0.051462032 -0.46072325 -0.010146859
00000000: 464c df3d eb07 11be 17b3 9ebd a0a5 01be
00000010: f4b1 593e 153c 823b 38f7 31bc 50ba 82be
00000020: dba6 f6be 39aa 9f3e 2075 78bb b29c 7dbe
00000030: 60e2 04be 8571 0ebd 1b49 283e ad28 6eba
00000040: cfe5 94be 3d55 c0be 3185 06bf 923c 7ebb
00000050: 1e70 493d 633a be3d 1810 8d3d 5d95 0abf
00000060: 39c6 093e 35b1 873e bf49 d1bd 30a5 f23c
00000070: 0c11 023e 79e9 abbe 6628 db3d 3dee 273e
00000080: 70ce 12be 8026 1e3d 2bc2 91bd e375 cd3c
00000090: 19a9 a83d b886 4cbd 9406 82be 0204 aa3d
000000a0: 54da 433d 7fc5 9d3e c95c 853e 79aa afbc
000000b0: d79d 553e 8adc d53d d45f 4bbe 2957 09be
000000c0: f1c4 07bc c1ec 45be 2cf3 8d3d 815c 2bbe
000000d0: 7939 9b3d f2a6 c2bd af06 2bbe 141b 31be
000000e0: 310c 28be 3876 763d 8bbc 8abb 630f a5be
000000f0: bb6c 4dbe d710 b0be e874 d6bd ca99 6abe
00000100: 99ce 22bd f83f 27bd db76 03bf ccd6 de3c
00000110: f6d0 e23e fc4d 22be 74e8 b63c b9ee 2ebb
00000120: 3127 213d fb2f 1ebd 9a15 433e e287 b4bc
00000130: 1026 08bd a4c8 04be d653 1c3e ac62 85bc
00000140: e1fe c3bd 9d64 56bd 1218 50bc 9f8e 653e
00000150: 4187 b3bd 98ba 333e 8e4a aebe 37a1 1abe
00000160: 5559 d23b ae3e 5d3d b54e 5b3e 3aaf 0fbe
00000170: 37bf 813e a487 1cbc 0ce6 5e3d eb37 73be
00000180: 6bfd aa3d b92f 1ebd f360 8fbe 5bb7 d7bd
00000190: 375d 31be 93d1 0d3d 1990 43be 677a 3c3e
000001a0: eb44 3b3e 9d56 76bd ec40 30be 92fb b23d
000001b0: 475c 79be 8d06 683e 4d43 3c3c d551 ca3c
000001c0: 56b0 ee3d bfc3 293e 1586 41be a8ff 5abe
000001d0: 74fb c33c a20d 1cbe c43c c03d 8eb2 65be
000001e0: a6cc c0bd 4f35 2b3e ed93 c53d c279 523d
000001f0: cbb2 773c 37a0 23be 33d8 a6bb c7bc 89be
00000200: 737a 6a3d b98c 2bbe e660 533d 0f09 8ebe
00000210: b4e1 cb3e 2975 9cbd 1013 9fbe 3270 34be
00000220: 3d2e 393c be05 edbd d7be 7bbd 58ea b0bd
00000230: 7cdd 4f3d 5536 003e cb0f 533d 04c4 99be
00000240: f40e 9a3d f52e 33bd e5c2 76bb f817 2e3e
00000250: 429d e8bd cf30 663d 94fd 4b3c ef50 a0ba
00000260: fbbd 23bd 0e6b 96be 807e f03e ee4a 84be
00000270: a093 883e f17c 7dbd d4e9 50be 6173 61bd
00000280: db9b 6c3c 5e52 9a3c c6ad 27be fb91 843d
00000290: 3a6f d23d f9d5 833c 12f5 1c3e adea e3bb
000002a0: 0c5f 253d efb9 6bbc ac41 343e 92c8 cfbd
000002b0: 20b2 90bd 13dc e3be 57d1 6bbe 161c 0cbe
000002c0: e243 ce3d b1a4 b5be 3984 05be df98 13bd
000002d0: 3fa1 053e add8 a63d fbff 05be 6d3e 8a3d
000002e0: e497 d2be bc97 00be 06a1 bcbe 78c5 c7be
000002f0: 21af 2bbd 88a9 133e 9c7b 723d fcb9 c83e
00000300: 2ade 2dbd bc7b 533e e6de 5e3e 379c 92bd
00000310: de19 8c3e d5f3 14be afb8 3abe b461 85be
00000320: a2ec e03d f7df 35b6 198e ea3e 7bf7 333d
00000330: 34fa 89be e977 a7bd 6a5d 5d3e 2a6b 13be
00000340: 0318 c2bd 1c3d 043d 783d 87be 75e2 703e
00000350: 7b26 1ebe 124e 4b3e e9a9 acbb 32c9 32bd
00000360: b25f 7fbe a7b0 43be 0cae 36bc c622 ed3c
00000370: d1f6 193f 964d a7bd da8d c03d a020 cabe
00000380: 7e94 46be d6b4 4f3d 7c3a 90be e089 f2bd
00000390: 1d30 113d 6686 863e d759 12be ace6 833d
000003a0: 5359 91bd abde bc3d a40d e4be 8e2e 233e
000003b0: ae85 2e3d cc22 513d 5ba4 023e 05cb b43c
000003c0: 7b09 063e fbfd 06be 5a04 413e 5370 8b3d
000003d0: 2f48 483e ceee 53be b98e 9f3d 92e3 9fbc
000003e0: cc59 48be aebe b3bc 2ec1 0b3e 3fef 633d
000003f0: 13b5 40be dac9 523d ebe3 ebbe 033f 26bc

network_body._body_endoder.seq_layers.2.bias f4 [128]
0.030745855 -0.054827422 0.19596834 -0.031717595 -0.024578342 0.10251836 0.0071248566 0.008048526
-0.031273715 0.08249851 -0.0678727 -0.06064362 0.0005492802 -0.044522785 -0.08743861 -0.013978551
-0.04492213 0.039593723 -0.053563904 -0.07261232 0.001207455 0.05160123 0.038307365 0.025867904
-0.02510934 0.039535385 -0.09457827 -0.05824514 -0.06154405 0.0026098336 0.006155021 -0.0011403208
-0.001781023 -0.043696214 0.2077724 -0.08816149 -0.052104287 -0.12641455 -0.009997193 0.20733018
-0.046283774 -0.01552774 -0.12469279 -0.063738845 -0.07081135 0.008727571 -0.05190051 -0.0736919
-0.038801283 -0.0595692 0.02335748 -0.013365696 -0.08823301 -0.030403959 -0.001903308 0.08073322
-0.094322376 -0.11259532 -0.044438515 -0.07625619 -0.020636031 0.025257275 -0.018297099 -0.057461884
-0.053258575 0.027742753 0.043740943 -0.054993294 -0.0505975 -0.104899146 -0.056314427 -0.09491297
0.05888307 0.035662893 0.007835373 -0.013586569 -0.10456341 0.04657834 -0.03541076 -0.047499128
-0.10306908 -0.009354865 -0.00042766874 -0.065536335 0.019301603 0.039054926 0.31464928 -0.038038395
-0.088864565 0.055754405 -0.013484375 -0.086477615 0.04603826 0.037293255 -0.02253197 0.03248857
0.080974564 -0.123362124 -0.07673148 -0.026150564 -0.07479077 0.04475177 -0.0582221 -0.017658912
-0.038907614 -0.043329313 0.3671716 0.2472789 -0.086711004 -0.01981124 -0.12102495 -0.12665616
-0.015069285 -0.018349452 -0.043325208 -0.0119254375 -0.124298476 0.024719555 0.11919369 -0.066033356
0.038604327 -0.14132558 -0.07573746 -0.23805937 -0.0061083143 -0.04562499 -0.016378427 0.010805325
00000000: bbde fb3c b892 60bd edab 483e 4fea 01bd
00000010: 8558 c9bc 25f5 d13d a177 e93b f7dd 033c
00000020: de18 00bd fbf4 a83d d800 8bbd 7265 78bd
00000030: 92fd 0f3a 865d 36bd 0413 b3bd 4b06 65bc
00000040: 4400 38bd 072d 223d d365 5bbd c5b5 94bd
00000050: 7743 9e3a d05b 533d 2fe8 1c3d ede8 d33c
00000060: 1ab2 cdbc dbef 213d 41b2 c1bd 7592 6ebd
00000070: 9d15 7cbd be09 2b3b 0fb0 c93b d176 95ba
00000080: 3771 e9ba cdfa 32bd 4ac2 543e 038e b4bd
00000090: 4e6b 55bd d172 01be 44cb 23bc 5d4e 543e
000000a0: 0e94 3dbd 1068 7ebc ef5e ffbd 8389 82bd
000000b0: 8b05 91bd 16fe 0e3c a195 54bd c7eb 96bd
000000c0: 18ee 1ebd d5fe 73bd 3058 bf3c cbfb 5abc
000000d0: 82b3 b4bd b911 f9bc 6b78 f9ba 7557 a53d
000000e0: 172c c1bd 6098 e6bd 2905 36bd 352c 9cbd
000000f0: e50c a9bc 58e8 ce3c cce3 95bc 275d 6bbd
00000100: aa25 5abd c544 e33c b429 333d a640 61bd
00000110: 533f 4fbd 5dd5 d6bd f5a9 66bd bb61 c2bd
00000120: 602f 713d 4113 123d f05f 003c 339a 5ebc
00000130: 5725 d6bd eec8 3e3d e00a 11bd 728e 42bd
00000140: e215 d3bd 2645 19bc ba38 e0b9 ea37 86bd
00000150: 651e 9e3c 0ff8 1f3d b619 a13e 26ce 1bbd
00000160: a0fe b5bd bb5e 643d 91ed 5cbc 2d1b b1bd
00000170: 9d92 3c3d d0c0 183d f794 b8bc bc12 053d
00000180: fed5 a53d 48a5 fcbd 6525 9dbd b539 d6bc
00000190: e72b 99bd a24d 373d 4c7a 6ebd 6ca9 90bc
000001a0: 975d 1fbd 147a 31bd eafd bb3e ae36 7d3e
000001b0: 8a95 b1bd 2e4b a2bc eedb f7bd 27b2 01be
000001c0: 2ae5 76bc 9751 96bc c675 31bd e962 43bc
000001d0: 3390 febd aa80 ca3c d21b f43d 7f3c 87bd
000001e0: 921f 1e3d a7b7 10be 3e1c 9bbd d6c5 73be
000001f0: 4128 c8bb 45e1 3abd 0d2c 86bc d108 313c

action_model._discrete_distribution.branches.0.weight f4 [3, 128]
0.0077457544 -0.11580699 0.17939045 0.17023997 0.12214809 0.39677292 -0.09782651 -0.031848177
-0.7561054 0.35967025 -0.09505818 0.097761765 -0.13379337 -0.00031933695 -0.781526 0.0017460027
-1.2071116 -0.018189214 -0.1455944 -0.021585742 -0.27774402 -0.18208665 -0.11733428 -0.1645833
0.0739091 -0.114692815 -0.06817364 -0.124114774 0.027253188 -0.087761536 -0.004511524 -0.04850292
-0.15216015 0.0063671223 0.4864245 -0.51361215 0.105801076 -0.07597491 -0.05564828 0.3494965
-0.040682163 -0.06649533 -0.002540833 -0.14327817 -0.110354744 -0.0870388 0.043792978 -0.084557205
-0.042075902 0.09757077 0.20806023 -0.08348481 -1.6693316 0.09890372 -0.21573465 -0.04008264
0.020644698 -0.03105793 0.019857708 -0.110926755 0.018337633 -0.22190017 0.021511693 -0.19271423
0.030579532 0.089269154 -0.1957226 -0.049830798 0.10356354 0.048947982 0.0185641 -0.89090157
0.025313579 0.15178277 -0.05296605 0.0691486 -0.08241031 0.26953363 -0.047509175 -0.058064073
-0.037837807 0.006591582 0.086110644 0.107706636 0.07478279 0.020177854 0.2667897 0.07433326
-0.05715346 0.17992161 0.1937247 -0.18335025 -0.020070119 0.11891874 -0.07823652 -0.11870261
0.23138902 0.009255077 0.10933935 -0.09330935 -0.10193933 0.08542822 -0.2430921 0.07542802
-0.044964198 -0.45631003 0.64611983 -1.2494773 -0.039467268 0.073637895 -0.12218082 -0.013636949
-0.17245683 0.10077913 -0.26987356 0.08137166 -0.07836324 0.0446808 0.048032213 0.041462593
0.024998508 -0.08085953 0.05230138 -0.013844272 -0.49624813 -0.016019724 0.17417794 -0.048357517
-0.030246366 0.11354252 -0.12871647 -0.14507483 -0.09674616 -0.36793888 0.13557693 0.028008625
0.64934355 -0.2750963 0.11942516 -0.10121071 0.16966936 0.008115066 0.7595187 -0.011289839
1.1916343 -0.009312259 0.12782393 0.0041249245 0.28328097 0.18435867 0.07535467 0.15712689
-0.061367743 0.1071729 0.055321608 0.1359218 0.0068933615 0.09836676 -0.014601684 0.0122198835
0.12885118 -0.007607691 -0.4626738 0.5172587 -0.053878393 0.07217091 0.043095984 -0.27840897
0.026705114 0.08006982 0.03904723 0.13509792 0.14366306 0.07431615 -0.05270574 0.06736627
0.054949768 -0.074329644 -0.1804486 0.065651186 1.703688 -0.0921552 0.19151269 0.011921741
-0.018890718 0.02296036 0.019981246 0.16290835 0.04854177 0.18868853 0.02587545 0.17824045
-0.02850562 -0.068732336 0.19093628 -1.765995e-05 -0.11223049 -0.0021386174 -0.004343277 0.96535707
-0.02282888 -0.097942546 0.11425458 -0.09186129 0.051505804 -0.21096829 0.04965261 0.006962443
0.03835033 0.029740704 -0.052715022 -0.09755103 -0.094944604 -0.01442936 -0.21838516 -0.06434161
0.057197113 -0.16017692 -0.16031669 0.17530917 0.0481611 -0.09375677 0.0976607 0.15262707
-0.20631544 0.01325571 -0.07370915 0.112473175 0.1133157 -0.041000526 0.25440553 -0.03826424
0.079767115 0.47184208 -0.6176488 1.2898829 0.055375032 -0.017463893 0.12708838 0.079107955
0.16639982 -0.02889358 0.27824318 -0.06178136 0.062143486 -0.017649893 0.008426551 0.0016136935
0.0059419507 0.10785653 -0.061943706 0.06561113 0.54826015 0.011586382 -0.19254762 0.007946258
00000000: 19d0 fd3b 372c edbd 21b2 373e 6353 2e3e
00000010: c728 fa3d d225 cb3e 4459 c8bd 3c73 02bd
00000020: 2090 41bf b326 b83e ddad c2bd 5237 c83d
00000030: 2101 09be ae6c a7b9 1712 48bf 21da e43a
00000040: a282 9abf 8c01 95bc b316 15be 95d4 b0bc
00000050: 7734 8ebe ec74 3abe f44c f0bd 8688 28be
00000060: a75d 973d 11e4 eabd 9f9e 8bbd e32f febd
00000070: 1442 df3c 52bc b3bd 68d5 93bb ffaa 46bd
00000080: dfcf 1bbe 4ba3 d03b a20c f93e 167c 03bf
00000090: 3cae d83d bc98 9bbd 73ef 63bd 35f1 b23e
000000a0: 57a2 26bd b42e 88bd 1b84 26bb 83b7 12be
000000b0: ab01 e2bd 6641 b2bd 4460 333d 542c adbd
000000c0: c857 2cbd 2fd3 c73d be0d 553e 16fa aabd
000000d0: a8ac d5bf 098e ca3d 8be9 5cbe b22d 24bd
000000e0: 121f a93c 336d febc a2ac a23c 912d e3bd
000000f0: ce38 963c cc39 63be 4a39 b03c e156 45be
00000100: ed81 fa3c bfd2 b63d 816b 48be 611b 4cbd
00000110: 1f19 d43d ae7d 483d bd13 983c 2012 64bf
00000120: 6c5e cf3c f16c 1b3e eef2 58bd c89d 8d3d
00000130: bdc6 a8bd 5000 8a3e fb98 42bd 98d4 6dbd
00000140: d1fb 1abd 33fe d73b c75a b03d 4c95 dc3d
00000150: b827 993d 074c a53c a998 883e 093c 983d
00000160: bf19 6abd 5f3d 383e c55f 463e 2bc0 3bbe
00000170: 176a a4bc ab8b f33d 783a a0bd 5b1a f3bd
00000180: 3ef1 6c3e 9ba2 173c 4fed df3d f918 bfbd
00000190: 91c5 d0bd fef4 ae3d 23ed 78be 017a 9a3d
000001a0: 612c 38bd 78a1 e9be 1c68 253f dfee 9fbf
000001b0: 6ea8 21bd 77cf 963d f039 fabd 826d 5fbc
000001c0: 8698 30be 4a65 ce3d de2c 8abe 2fa6 a63d
000001d0: e87c a0bd 3703 373d 6dbd 443d aed4 293d
000001e0: acc9 cc3c ae99 a5bd f939 563d 16d3 62bc
000001f0: 3c14 febe cc3b 83bc b45b 323e 8812 46bd
00000200: 3ac7 f7bc fb88 e83d 40ce 03be 7f8e 14be
00000210: da22 c6bd 7c62 bcbe aed4 0a3e 5872 e53c
00000220: 613b 263f 6cd9 8cbe 2e95 f43d 9047 cfbd
00000230: cebd 2d3e 0ef5 043c d16f 423f 04f9 38bc
00000240: 7987 983f 7292 18bc 47e4 023e 602a 873b
00000250: 340a 913e 85c8 3c3e 8d53 9a3d dfe5 203e
00000260: be5c 7bbd 777d db3d e998 623d 162f 0b3e
00000270: b5e1 e13b 8374 c93d e73b 6fbc e835 483c
00000280: 90f1 033e f049 f9bb 95e3 ecbe 116b 043f
00000290: 97af 5cbd 58ce 933d 6a85 303d 9f8b 8ebe
000002a0: afc4 da3c a5fb a33d fdef 1f3d 1c57 0a3e
000002b0: 691c 133e 1133 983d f9e1 57bd 54f7 893d
000002c0: 0213 613d 243a 98bd 85c7 38be 2174 863d
000002d0: 7312 da3f debb bcbd e71b 443e 6853 433c
000002e0: b5c0 9abc 5d17 bc3c b6af a33c 72d1 263e
000002f0: bcd3 463d 9137 413e c0f8 d33c aa84 363e
00000300: 9e84 e9bc 8ac3 8cbd cd84 433e 7424 94b7
00000310: 19d9 e5bd 0c28 0cbb 0c52 8ebb a421 773f
00000320: a203 bbbc 1a96 c8bd 4efe e93d c621 bcbd
00000330: c0f7 523d 1208 58be 8960 4b3d 3425 e43b
00000340: 3c15 1d3d c7a2 f33c b5eb 57bd d6c8 c7bd
00000350: 5172 c2bd 1f69 6cbc 5ca0 5fbe 89c5 83bd
00000360: 8547 6a3d 6b05 24be 0f2a 24be 3f84 333e
00000370: 9344 453d 8d03 c0bd 5502 c83d 454a 1c3e
00000380: 5b44 53be 7a2e 593c d3f4 96bd 5658 e63d
00000390: 1012 e83d 2bf0 27bd 7141 823e f7ba 1cbd
000003a0: f15c a33d 4995 f13e 3b1e 1ebf e21a a53f
000003b0: eed0 623d 7010 8fbc 7523 023e 5a03 a23d
000003c0: b764 2a3e 3bb2 ecbc e475 8e3e 740e 7dbd
000003d0: 2b8a 7e3d 8296 90bc 840f 0a3c 9282 d33a
000003e0: b2b4 c23b e2e3 dc3d afb8 7dbd 215f 863d
000003f0: c75a 0c3f cfd4 3d3c 342b 45be 0631 023c

action_model._discrete_distribution.branches.0.bias f4 [3]
0.07931385 -0.05689437 -0.4202044
00000000: 4d6f a23d 120a 69bd 0825 d7be

action_model._discrete_distribution.branches.1.weight f4 [3, 128]
-0.175733 0.05250552 0.36752713 0.42096537 0.15775105 0.7096558 -0.0037113284 -0.033187248
-0.055593856 0.17798963 -0.012441168 0.20266695 -0.114931986 0.023483314 -0.05444568 0.061626967
-0.06731395 -0.25248945 0.024303507 0.059984576 -0.1145869 -0.20841448 0.25639364 -0.25463235
-0.054041166 -0.0616843 0.24076681 -0.07172157 0.15050392 -0.010673296 0.0012242625 -0.15925461
-0.0030681319 0.018129418 0.04129593 0.023757758 0.019188246 0.084938064 0.111770436 0.34349075
0.10708748 0.0067214854 0.08948206 -0.00019830393 -0.06169279 -0.026375344 -0.008336365 0.032528628
-0.0730518 0.019133192 0.15209927 0.10098197 -0.079773545 -0.011540835 -0.015485285 0.21248302
0.22588766 0.03131865 0.024238057 0.0059421966 0.11319636 -0.037223965 0.09984156 -0.07920028
0.037978914 -0.10711143 -0.04167941 0.024607355 0.107919276 -0.009040306 0.021931006 -0.008710696
-0.062784456 0.09861375 -0.031883918 0.061409064 -0.03088043 0.2937486 -0.13129328 -0.021538341
0.09751736 -0.18078637 0.30522293 0.020636735 0.0460972 0.14923486 0.15251316 0.06950854
0.06371577 0.115658894 0.16304632 -0.02510637 0.0517058 0.17788433 -0.15693797 -0.10656588
0.10183526 0.00047147996 0.13736103 0.04316632 -0.053356778 -0.017223278 0.062823646 0.060495306
-0.0526368 -0.03064225 0.11665473 0.26193133 0.012991211 0.16234775 0.031143816 -0.11213355
-0.007251246 0.03855484 0.074512795 -0.092699975 0.06297411 -0.0052509494 0.008090732 0.04149519
0.05449956 0.040360417 0.023499468 0.0071896 -0.07712878 -0.114619836 0.14138757 0.42728353
0.13859992 -0.25489876 -0.047009207 0.014892228 -0.11659914 -0.23869957 -0.08557912 -0.33708018
-0.031010332 -0.13839877 -0.017079955 0.19758253 0.15221834 -0.02721717 0.045788307 -0.2084296
0.056559786 -0.023773197 -0.025178635 0.08203537 -0.10695735 0.22609498 -0.2738189 0.09187676
-0.26672 -0.16707207 -0.12776831 -0.26479974 -0.07979583 -0.14732318 -0.13605541 0.05090085
-0.10123004 -0.029941348 0.053529922 0.081251144 0.061629467 0.00049759116 -0.3038949 -0.66707647
-0.19305325 -0.12191159 -0.009138783 -0.32609555 -0.07061784 -0.0687612 0.067609265 -0.15939051
-0.27054548 0.11519711 0.0355739 -0.2787858 0.20349593 0.1654878 -0.1035072 -0.40158254
-0.21929957 -0.28253376 -0.16395263 -0.06912979 -0.096673846 -0.066492155 -0.2257867 0.074392766
-0.054151144 -0.36823693 -0.06689212 -0.21302797 -0.3239517 -0.058228 0.12007897 0.08957657
-0.43904892 0.07294694 0.028887158 -0.19537088 -0.16971333 -0.25785086 -0.17688389 -0.29555452
-0.17576297 -0.21248683 -0.14470202 0.095125094 -0.1420629 -0.17363954 -0.09955889 0.2697557
-0.05257133 -0.124913804 -0.16511577 -0.030144824 -0.37847462 -0.2315003 0.14446427 0.047954388
-0.025503118 -0.07996791 -0.3531482 -0.26734713 -0.37807915 -0.19376825 -0.02120202 -0.029277612
-0.32648185 0.13503595 0.29021397 -0.065642625 -0.15662637 -0.0920457 0.021184132 0.06979396
-0.03883754 0.01797661 -0.028593838 -0.34908748 -0.10093285 -0.41966593 -0.49850458 -0.24374472
-0.29665184 0.0024645538 -0.22611855 0.024380963 0.08158413 -0.30605972 0.087922744 -0.45446047
00000000: 5af3 33be 0710 573d 842c bc3e c688 d73e
00000010: 7e89 213e 01ac 353f c239 73bb 5aef 07bd
00000020: 62b6 63bd ea42 363e 0ad6 4bbc ed87 4f3e
00000030: 7661 ebbd 1460 c03c 6f02 5fbd 8f6c 7c3d
00000040: e5db 89bd 4c46 81be 2618 c73c 63b2 753d
00000050: 89ac eabd 9b6a 55be 0746 833e 2c5f 82be
00000060: 455a 5dbd ada8 7cbd 938b 763e c2e2 92bd
00000070: b31d 1a3e 0cdf 2ebc 6f77 a03a a413 23be
00000080: b612 49bb 2584 943c ec25 293d a19f c23c
00000090: ab30 9d3c 02f4 ad3d e6e7 e43d 05de af3e
000000a0: ae50 db3d e83f dc3b 5f42 b73d ceef 4fb9
000000b0: 94b1 7cbd 1b11 d8bc 4095 08bc bd3c 053d
000000c0: 2f9c 95bd 36bd 9c3c e9bf 1b3e a3cf ce3d
000000d0: 5060 a3bd c515 3dbc feb5 7dbc 2695 593e
000000e0: 184f 673e fc47 003d e48e c63c c2b6 c23b
000000f0: 7ed3 e73d 2878 18bd bb79 cc3d c233 a2bd
00000100: c78f 1b3d 3d5d dbbd 07b8 2abd 5d95 c93c
00000110: c804 dd3d cb1d 14bc a7a8 b33c 4fb7 0ebc
00000120: 2395 80bd 01f6 c93d b698 02bd 1288 7b3d
00000130: f5f8 fcbc 3766 963e bf71 06be 2d71 b0bc
00000140: 2eb7 c73d 1020 39be 2e46 9c3e 5f0e a93c
00000150: 6bd0 3c3d 06d1 183e 692c 1c3e 7e5a 8e3d
00000160: 6a7d 823d 92de ec3d 9df5 263e e0ab cdbc
00000170: 76c9 533d 4f27 363e 59b4 20be 363f dabd
00000180: 018f d03d f830 f739 5fa8 0c3e 2bcf 303d
00000190: a38c 5abd d517 8dbc afa9 803d edc9 773d
000001a0: af99 57bd 7505 fbbc ade8 ee3d dd1b 863e
000001b0: 17d9 543c 7d3e 263e 5121 ff3c 46a6 e5bd
000001c0: dc9b edbb aeeb 1d3d 2a9a 983d 7cd9 bdbd
000001d0: 92f8 803d 2810 acbb fd8e 043c dcf6 293d
000001e0: ee3a 5f3d f750 253d f581 c03c bc96 eb3b
000001f0: b2f5 9dbd cebd eabd e7c7 103e e8c4 da3e
00000200: 23ed 0d3e 1782 82be ba8c 40bd 88fe 733c
00000210: 88cb eebd a96d 74be 1b44 afbd c695 acbe
00000220: 6109 febc 68b8 0dbe 43eb 8bbc 1353 4a3e
00000230: 20df 1b3e 8bf6 debc 858c 3b3d 926e 55be
00000240: 3cab 673d 02c0 c2bc 6d43 cebc 2902 a83d
00000250: 750c dbbd 7185 673e fe31 8cbe e229 bc3d
00000260: 868f 88be f114 2bbe b2d5 02be d593 87be
00000270: ff6b a3bd e3db 16be 1c52 0bbe 697d 503d
00000280: b251 cfbd 8f47 f5bc 3142 5b3d 0067 a63d
00000290: 2e6f 7c3d c770 023a 1d98 9bbe 86c5 2abf
000002a0: c0af 45be c9ac f9bd d6ba 15bc fff5 a6be
000002b0: 16a0 90bd acd2 8cbd ba76 8a3d 4437 23be
000002c0: f084 8abe 76ec eb3d f0b5 113d 03bd 8ebe
000002d0: 3d61 503e a275 293e 95fb d3bd 3a9c cdbe
000002e0: 1190 60be 44a8 90be 33e3 27be eb93 8dbd
000002f0: f0fc c5bd 0a2d 88bd a134 67be 3c5b 983d
00000300: 97cd 5dbd 8d89 bcbe bcfe 88bd 0124 5abe
00000310: ffdc a5be 7c80 6ebd f7eb f53d ec73 b73d
00000320: 05cb e0be 3565 953d c3a4 ec3c 4e0f 48be
00000330: 55c9 2dbe 0705 84be 0d21 35be ec52 97be
00000340: 35fb 33be 2696 59be c42c 14be f2d0 c23d
00000350: f078 11be 90ce 31be 88e5 cbbd 6b1d 8a3e
00000360: 0955 57bd cfd2 ffbd 1c14 29be 47f2 f6bc
00000370: 6dc7 c1be 6a0e 6dbe 71ee 133e d26b 443d
00000380: eaeb d0bc 37c6 a3bd d7cf b4be b9e1 88be
00000390: 9793 c1be 2f6b 46be dcaf adbc 9ad7 efbc
000003a0: a128 a7be dd46 0a3e ed96 943e a46f 86bd
000003b0: aa62 20be 7582 bcbd 588a ad3c 23f0 8e3d
000003c0: 1d14 1fbd af43 933c a03d eabc 98bb b2be
000003d0: e2b5 cebd 74de d6be fe3b ffbe 3798 79be
000003e0: c0e2 97be 5a84 213b 9f8b 67be 96ba c73c
000003f0: 9515 a73d dcb3 9cbe d710 b43d 0baf e8be

action_model._discrete_distribution.branches.1.bias f4 [3]
-0.07494444 0.027719632 0.036358953
00000000: 787c 99bd 4814 e33c 20ed 143d
