results/ppo/BotControllerAgent/BotControllerAgent-6999991.onnx (onnx, 384082 bytes, 9 tensors)

discrete_act_size_vector f4 [1, 2]
000000 00 00 40 40 00 00 40 40
       3.0 3.0

network_body._body_endoder.seq_layers.0.weight f4 [256, 104]
000000 6a 6e 01 bc f0 42 17 3e d8 2c cb 3d 62 d9 a4 3e
       -0.00789986 0.14771628 0.09920663 0.321971
000010 5c 25 b7 3c cf e6 82 bc be f0 76 bd 20 ed 45 3e
       0.022356682 -0.015979199 -0.060288183 0.19328737
000020 11 cb 2b 3e f6 bb 86 3e 37 32 00 be a5 d5 a9 bd
       0.16776682 0.26315278 -0.12519155 -0.082927026
000030 d1 6c 0a bd a2 66 0b 3e 1e 0d c6 3d 61 0c 51 bd
       -0.03379518 0.1361337 0.09670471 -0.051037196
000040 ed e1 68 3d a9 a6 ac bc e6 44 13 bd 19 40 16 3d
       0.056856085 -0.021075564 -0.03595438 0.036682222
000050 08 7e 93 3e 27 6a 08 3e 4d 79 0e bd ea d2 dd 3e
       0.28807092 0.13321744 -0.03478365 0.43324977
000060 62 a1 00 3c c1 40 0f 3d 27 f4 3f 3d b2 f2 f4 3c
       0.007850977 0.034973864 0.0468637 0.029900882
000070 10 84 a3 bb fa 10 ae 3e 1d dc 15 3e 9c 29 2f bd
       -0.0049901083 0.33997327 0.14634748 -0.04276429
000080 ad 70 fa 3c 7d 1c bf 3d 51 39 6c be 52 e9 1d 3c
       0.030571306 0.093316056 -0.2306874 0.009638147
000090 ef 05 7b 3d 3b af 04 3d 87 27 6f bd 4a 57 d8 bd
       0.061284956 0.032393675 -0.058387306 -0.10563524
0000a0 25 f3 16 3c 49 af 87 bd 2a 37 f2 bd e8 82 ef 3e
       0.009213244 -0.0662523 -0.11826928 0.4677956
0000b0 e8 36 0d 3e 37 ab 2b be 13 0b cc 3d 33 54 e7 3d
       0.13790476 -0.16764532 0.0996305 0.112953566
0000c0 33 d0 04 be 52 47 e3 3c 98 7d 2e 3e 2e f8 68 be
       -0.12970047 0.02774397 0.17040098 -0.22750923
0000d0 a0 54 14 be 25 bc 75 bc ce 3c 00 3d c5 12 4b 3e
       -0.14485407 -0.01499847 0.031307988 0.19831379
0000e0 4d e0 81 be 65 24 69 3d 14 80 3c bd 6a 94 29 3e
       -0.2536644 0.056919474 -0.046020582 0.16560522
0000f0 e8 9f d9 bd db 76 9f be 0f 14 8b 3d c8 a2 bf 3e
       -0.10626203 -0.31145367 0.06790935 0.3742888
000100 cd cb 94 bd 51 d1 5e 3c 41 7e f6 3d fc 5f ee 3d
       -0.072654344 0.01359971 0.120358 0.11639401
000110 ea ab ac 3c 6a 36 56 3d 13 64 c7 bd 05 02 01 bc
       0.021078069 0.052297987 -0.097358845 -0.007874017
000120 e2 92 57 bd 6d 0d aa 3d 94 13 3d bd 52 47 5f 3e
       -0.052630313 0.08303342 -0.04616125 0.2180455
000130 17 02 d3 3d 7d 4f 34 bc e6 9d 4a be 5c b0 ad 3d
       0.10303133 -0.01100528 -0.19786796 0.084809035
000140 cd 1e c2 be e5 e1 8e be 21 15 07 3d b8 60 c3 3e
       -0.37914124 -0.2790672 0.032979134 0.38159728
000150 34 52 0f 3d b5 7a 4b 3e e7 fa 1d bd 20 f9 57 3d
       0.034990504 0.19871028 -0.038569357 0.05272782
000160 ce 41 18 3a a6 de 5c 3d 71 9c 15 bd 35 63 96 bd
       0.00058081455 0.05392327 -0.036526147 -0.07343141
000170 4a 89 26 bd cb 8c b8 3d 77 98 82 3d aa b3 ff 3b
       -0.040658273 0.09011229 0.063767366 0.0078034
000180 9f 81 4c bd 22 8e 19 be d8 2f 2e 3c dc ab f9 3d
       -0.049928304 -0.14995626 0.010631524 0.12190983
000190 1c 53 1e bd 32 d7 e8 3d b3 93 61 be 1b b2 9f 3e
       -0.038653478 0.1136917 -0.22028999 0.3119057
0001a0 51 75 da b9 fe 3c c6 bd f8 40 05 be ac 31 15 3c
       -0.00041667608 -0.09679602 -0.13013065 0.009106081
0001b0 a4 3f fe bd 39 6f 4b 3e 72 b8 6b 3d 30 56 86 be
       -0.12414482 0.19866647 0.057548948 -0.2623763
0001c0 63 f8 67 be b1 eb 24 3e 00 45 b4 3c a8 5b 35 be
       -0.22653346 0.16105534 0.022005558 -0.17710745
0001d0 1e 3d dd 3d 6b 0e ae be 73 b5 e9 bd 07 80 b7 3e
       0.10802673 -0.33995375 -0.11411562 0.35839865
0001e0 ec 9c 4f bd e3 6a 40 3e b2 75 66 3d e7 3d 30 3c
       -0.05068676 0.18790774 0.056264587 0.010756946
0001f0 f9 52 be 3d 79 09 99 3e 79 22 0c 3e 1c 79 31 3e
       0.092931695 0.2989004 0.13685025 0.17331356
000200 f7 08 93 3d 1e 94 c8 3e 13 9d 3d bd 4d b5 ce bc
       0.07179444 0.39175504 -0.046292376 -0.025232935
000210 82 31 b8 bd 06 97 49 3e 72 1d 25 3e a0 58 b1 3c
       -0.08993818 0.19686517 0.16124514 0.021648705
000220 42 50 2c 3e 16 b8 59 be e4 38 d0 3c 6b 68 99 3d
       0.16827491 -0.2126163 0.025417753 0.07490619
000230 7e f9 a7 bd 41 77 d9 3d d6 55 1e be 1e 07 ea 3d
       -0.08201884 0.10618449 -0.15462431 0.11427139
000240 aa cb 58 3e d8 d5 88 3e 4e 50 2d bd db 60 26 3e
       0.21171442 0.2672565 -0.042312913 0.16247885
000250 31 a6 11 bd 87 ce fd 3d ec fa 6f bd a8 0f ae bd
       -0.035558883 0.123929076 -0.058588907 -0.0849908
000260 e0 c8 c5 bd 7c af b1 bc 2e 00 85 3c 6a 9d a2 be
       -0.096574545 -0.021690123 0.016235437 -0.31760722
000270 ff 30 d5 b9 96 77 76 be 8f 4a d4 3d db cc 12 be
       -0.0004066303 -0.24069056 0.103657834 -0.14335959
000280 2a 77 b6 bc fa 01 07 3d 6e 9e b2 3d 65 1d df bd
       -0.022273619 0.03296087 0.08721624 -0.108942784
000290 a7 5c 9f 3e 04 fe e3 3e 31 53 65 bc 1b 9e 33 3e
       0.31125376 0.44529736 -0.013996885 0.17540781
0002a0 68 67 4a be 25 85 88 be ca bf fc bd 41 43 24 3e
       -0.19766009 -0.2666408 -0.12341268 0.1604128
0002b0 be d4 d9 3d 7a 08 35 3e 6b 3d a6 3c a2 92 7d bd
       0.106362805 0.17679015 0.020292958 -0.061907418
0002c0 85 c0 24 be bb 26 89 3d d0 db eb 3d fb cb b9 bd
       -0.16089065 0.066968404 0.11516535 -0.09072109
0002d0 13 e4 b6 bd 4e 53 40 bc c4 92 1d 3e 13 2a 61 be
       -0.089302205 -0.011738611 0.15388018 -0.21988706
0002e0 a4 42 88 3e 54 49 8e 3e f4 0e c1 3d a8 f6 1b 3e
       0.26613343 0.2779032 0.0942668 0.1523081
0002f0 97 cb 2f bd 4a b4 3c be d1 b9 7d bd 05 2a 39 bd
       -0.042918768 -0.1842815 -0.061944786 -0.04520609
000300 fa c4 53 3d 01 e7 d4 3d 30 54 37 bc 71 48 09 be
       0.051701523 0.10395623 -0.011189505 -0.1340654
000310 a3 ef 53 3c 05 56 0d 3d 51 96 fa 3d e1 bc 22 be
       0.012935552 0.034505863 0.12235702 -0.15892364
000320 40 52 a8 bd 0c 81 27 3e 1e 96 05 3c 63 91 00 bd
       -0.08218813 0.16357821 0.0081534665 -0.03138865
000330 61 e5 c3 bd 9e 44 ab be 19 fa 7b bc 67 36 2e bf
       -0.09565235 -0.33450788 -0.015379452 -0.6805176
000340 31 94 e9 3d 1f ff a2 3e 71 f7 5a 3e 6b 6b 95 3e
       0.114052184 0.31835267 0.21383454 0.29183516
000350 60 66 cf bd 9d e5 02 bd 88 ac e5 3d 52 d8 42 be
       -0.10126948 -0.031957258 0.11214548 -0.19027832
000360 a2 0d 19 3d 79 f1 eb bd d1 11 10 bc 5e 47 3d be
       0.037366517 -0.11520667 -0.00879331 -0.18484256
000370 39 a1 1f 3b 3a e9 86 3e a4 f4 e9 3c 15 39 87 bb
       0.002435757 0.26349813 0.028559037 -0.0041266778
000380 67 c9 ea bc 96 8f 88 3c 45 23 e3 3c 24 64 09 3e
       -0.02866049 0.01667003 0.027726779 0.13417107
000390 8f 8c ab bd b9 5a cf 3d 2b 29 df 3d 9a f1 3d 3e
       -0.08376419 0.10124726 0.10896524 0.18549195
0003a0 9c 85 68 3c 4c 6a 6c 3d 5f 27 5d bd 00 73 02 be
       0.014192011 0.05771856 -0.053992625 -0.12739182
0003b0 ba 0d 70 3e 3a d5 40 be 7d 8f 7a bd 66 2c ac 3d
       0.23442736 -0.1883134 -0.061171997 0.08406906
0003c0 07 a1 94 3d 1f f6 de 3d ba 2e 3f be 00 5c 9d be
       0.07257276 0.108867876 -0.18670169 -0.30734253
0003d0 b4 bb b7 3d fe e3 6b bd 72 a4 ff bc 8e ab 59 3c
       0.089713484 -0.057590477 -0.031206343 0.013285531
0003e0 b6 a6 a4 be 91 80 76 be 7b a2 77 bd be 76 c4 3d
       -0.3215844 -0.24072482 -0.060457688 0.09592961
0003f0 ec a1 0a bd eb a8 55 bd 65 db 91 3d 2a 25 ca bd
       -0.033845827 -0.052163046 0.07121924 -0.0987037

network_body._body_endoder.seq_layers.0.bias f4 [256]
000000 2a 3c e2 bc 1e 23 c8 bb 02 ca 3d bc bb 89 db 3d
       -0.02761658 -0.006107702 -0.011583807 0.107196294
000010 82 ea a8 3d f7 44 0b 3e a1 a9 0d bd 06 cc 8f 3d
       0.08247854 0.13600527 -0.0345856 0.07021336
000020 24 c3 0d bd 91 47 03 bd e5 ef 16 3e 2e 24 02 bd
       -0.03460993 -0.032050673 0.1473995 -0.031772785
000030 6f b9 d4 bc 7d da 8c 3d c0 d8 6c 3d a4 cb f4 3d
       -0.025967328 0.06877611 0.057823896 0.11952904
000040 eb 9c 49 bd 25 ea 02 3e a5 65 7c 3c 7d 80 b2 3c
       -0.049221914 0.12784632 0.015405093 0.021789784
000050 e3 6c a2 3c e1 a2 26 bc be 5b 37 bd 37 2e c0 3d
       0.019827312 -0.010170669 -0.044765227 0.09383815
000060 d5 11 02 3d 90 7a b2 3c ef 45 8e b9 30 a9 82 3c
       0.031755287 0.021786958 -0.00027136455 0.015949816
000070 75 ff 91 3d c3 5c 4a 3d f9 86 43 3c 66 e6 0f 3c
       0.07128803 0.04940487 0.011934035 0.008782959
000080 44 65 02 bd f5 dc 94 3c 61 47 de 3b f9 57 4c 3d
       -0.031834856 0.018171767 0.0067834114 0.049888585
000090 08 ef ca 3d f2 85 be bc f4 78 d3 bb cb 8f 25 bc
       0.09908873 -0.02325723 -0.0064536277 -0.010105084
0000a0 c2 cf af 3c ae cc 3e 3d a5 46 e1 bc 67 b7 75 3e
       0.021461371 0.046581917 -0.027499506 0.23995744
0000b0 89 f2 3d 3d db 78 64 bd 5d fb cb 3d c3 db 18 bd
       0.046373878 -0.05577932 0.09960053 -0.037318956
0000c0 17 dc 7e bc 15 53 0a bd e4 41 e5 bc 8e 13 4b bc
       -0.015555403 -0.03377064 -0.02798552 -0.012394799
0000d0 5c b4 50 bd e0 37 ce 3d c4 4b ab 3b 08 2a 63 3d
       -0.050953254 0.10069251 0.005227538 0.055460006
0000e0 97 6d c0 bc 5e f1 99 bd 18 e5 26 3a f2 9f 0e 3e
       -0.023489757 -0.0751674 0.0006366535 0.13928202
0000f0 05 2e a9 3e b0 ef 6c bb 1a 11 cc 3c 32 65 ad bd
       0.33042923 -0.0036153607 0.024910498 -0.08466567
000100 d9 76 00 bd a2 a5 25 bc e9 dd 34 3e d8 f4 a5 3d
       -0.031363342 -0.010110291 0.17662777 0.08103341
000110 7d 40 22 3c a0 fe b0 bd 4e 19 0e 3d ca 7f d2 3c
       0.0099030705 -0.08642316 0.0346921 0.0256957
000120 93 ce 63 bd 21 6a 76 bc 2e 28 ac bd bd 15 aa 3b
       -0.055616926 -0.015039952 -0.08406101 0.0051905797
000130 33 bf be bc e1 3c c8 3d dd 71 16 3e e8 c7 1a bd
       -0.02328453 0.09777237 0.14691873 -0.0377883
000140 e7 93 18 3d 55 dd 81 bc 1c 86 9e 3d a9 52 d3 3a
       0.037250426 -0.01585261 0.07740423 0.0016122657
000150 02 98 8e 3d 82 ff aa 3c ec c9 23 bd c7 31 24 bd
       0.06962587 0.020873789 -0.03998749 -0.040086534
000160 d3 58 d9 bc b4 0a 47 3d 35 2f c0 bb a5 0c f6 3d
       -0.026531613 0.04859419 -0.0058650025 0.120141305
000170 66 b5 95 bd a6 a2 a1 bc 04 c3 27 bd 08 3d 9d bd
       -0.0730999 -0.019730877 -0.040957466 -0.076776564
000180 33 cf c1 3d 35 ce 85 bb dd 16 51 bd f0 e8 aa bd
       0.09463348 -0.0040834197 -0.051047195 -0.083452106
000190 98 23 d8 3c 8c af d6 bc 80 46 2d bc bd db 40 bd
       0.02638416 -0.026206754 -0.010575891 -0.04708456
0001a0 ce 4c a3 3c 40 9a a4 3d e3 82 fc 3c 4e ec b9 bb
       0.019934084 0.08037233 0.03082413 -0.0056739217
0001b0 17 41 b1 bc 55 13 e1 bb 8b ad 45 bd 23 8b 7d 3d
       -0.021637483 -0.0068687596 -0.048261207 0.06190027
0001c0 38 30 0e bc 59 e3 2d 3d 36 c9 cc bb bc 67 23 bd
       -0.008678488 0.042453144 -0.006249572 -0.03989385
0001d0 23 4d 87 bc 80 1d af 3c 70 9b 80 3d 1b 09 6f 3b
       -0.016516274 0.021376371 0.06279647 0.0036473933
0001e0 bf e1 b5 3b 52 a2 96 3d 2c d1 6c 3b dc 26 a2 3d
       0.0055505927 0.07355179 0.0036135418 0.07917568
0001f0 6e ae d1 3d ba dd 9c bc 3b 6f a8 bb 41 dd 2c 3d
       0.10238348 -0.019148696 -0.005140213 0.04220319
000200 b6 cb e8 3d ee 0e 33 bd b0 62 58 bd 83 b2 6f bd
       0.1136698 -0.04371541 -0.05282849 -0.05851985
000210 6b 36 fe bc 62 4b e7 3d fc 84 fd 3d f9 f2 e4 3c
       -0.031031808 0.11293675 0.123788804 0.02794789
000220 b3 d0 24 3c 4e 33 16 bd e1 55 10 3d d4 5d 09 3d
       0.010059523 -0.03667002 0.03523815 0.033536747
000230 f0 e5 1d 3e 68 a5 fc 3d 32 6e 93 bc 66 da 49 3c
       0.15419745 0.12336236 -0.017996881 0.012320137
000240 72 99 f8 3d 06 75 b1 3c 78 bc 8e bd ff 07 21 bd
       0.12138642 0.021662246 -0.06969541 -0.039314266
000250 ca 70 05 bd 76 7e fa 3d 9b ac 1e bd 9c 24 42 bd
       -0.032578267 0.12231152 -0.03873883 -0.047398195
000260 68 2b d3 bc ae 24 d1 3d 7d f2 50 ba 23 06 85 bd
       -0.025777534 0.10212074 -0.0007970704 -0.06495311
000270 69 c1 ed 3b 29 ee e9 3c 53 a8 93 bd 8a 88 3a 3d
       0.0072557223 0.028555946 -0.0720984 0.04554037
000280 94 c1 32 bd 4b fa 85 ba 65 52 ba 3d b9 2c 73 3d
       -0.04364164 -0.0010221688 0.09097747 0.059368823
000290 e1 d1 d3 3c bd 04 4b 3c 64 ed 4f bd be ab 19 3e
       0.025856914 0.012391266 -0.050763503 0.1500692
0002a0 4f e2 04 bd 50 4f 8b bd 34 d5 c4 3d 13 8e 1a bd
       -0.032442387 -0.06802237 0.09610978 -0.03773315
0002b0 df ef 7a 3d 97 29 7f 3d 5c de 5c bd 51 71 1b 3d
       0.061263915 0.062295523 -0.053922996 0.037949864
0002c0 6f 61 72 3d c6 7b f7 3a a0 a9 8e bd ac 97 eb 3d
       0.05917495 0.0018881492 -0.06965947 0.115035385
0002d0 dc 54 32 3e bd 00 19 3d 28 a9 29 bc 6f bc 55 3d
       0.17415184 0.03735422 -0.010355271 0.052181657
0002e0 39 47 a0 3d 13 e3 f8 3d e8 e1 35 bd 69 d7 47 bc
       0.07826085 0.12152686 -0.044404894 -0.012197354
0002f0 2d 22 13 3c e4 4e 04 3b 23 ff 0d bd b2 39 39 3d
       0.008980316 0.0020188624 -0.034667145 0.04522104
000300 26 0d 97 3d 93 7d 90 3c 96 79 1f 3e 92 7f 8f 3c
       0.07375555 0.017638003 0.15573725 0.017516885
000310 fe 9a 43 bd af dd 28 bd d6 1c d4 bc 0a 84 9f 3c
       -0.047755234 -0.04122704 -0.025892656 0.01947214
000320 a9 ca d4 bc 14 62 ea bc ce ff a9 3c 5e eb 39 3e
       -0.025975542 -0.02861122 0.02075186 0.18156192
000330 04 5a f5 bc ae 5e db bb 23 5e 92 bc f2 c5 85 bd
       -0.02995015 -0.0066946363 -0.017867154 -0.06531896
000340 4e 26 40 3d 3f 8a 1b 3d 08 a9 a1 3c 4e df a9 bc
       0.04691153 0.03797364 0.01973392 -0.020736363
000350 cc d5 03 bc ba 20 46 3d 29 8f b3 bc 9f 0e 4f 3d
       -0.008046579 0.048371054 -0.02191885 0.050551053
000360 0b e6 a4 3d 77 41 3d 3d af 8b 12 3b ac dc ea bc
       0.0805169 0.04620501 0.002236109 -0.028669678
000370 55 f2 e0 bc 42 69 64 3d 16 51 38 3d 79 94 ba 3c
       -0.027459303 0.055764444 0.044999205 0.022775875
000380 95 bd 00 3a dd fd 03 bd 06 f1 d1 bd a0 bf 3c 3d
       0.00049110624 -0.032224525 -0.1025105 0.046081185
000390 9a eb 0b 3d 6e 5b 6c bc 02 de b8 3d 45 bb 14 bc
       0.034160234 -0.014426095 0.0902672 -0.009077852
0003a0 ae 24 7d bc 2f cc 11 bc 2d e5 78 3d d7 94 11 3e
       -0.01545064 -0.008898779 0.060765434 0.14216934
0003b0 b4 26 d7 bc ba 3f 6b 3c 00 3b 0f bd 5f 62 52 3c
       -0.026263572 0.014358455 -0.034968376 0.012840836
0003c0 42 7a db bc ca 9d 1e 3d d3 c6 a3 3c a6 1c 30 3c
       -0.026791696 0.038724698 0.019992268 0.010749018
0003d0 f4 a4 46 bc bf 0a 7c bd 32 fe f3 bd 3a 44 e3 3d
       -0.012124289 -0.061533686 -0.11913718 0.110969976
0003e0 10 1e 1a 3d 07 5d 1e 3d fb b6 38 3c 09 ad 1a bd
       0.037626326 0.038662937 0.011274095 -0.037762675
0003f0 e2 0f 82 3c 22 a8 9a 3b 60 06 cd 3d a3 f5 3c 3c
       0.015876714 0.00471975 0.100109816 0.011533174

network_body._body_endoder.seq_layers.2.weight f4 [256, 256]
000000 08 c3 4a 3d dc 14 31 3d 3a fd f1 bd 56 bf b5 3d
       0.049502403 0.043232784 -0.11815877 0.08874385
000010 6c 32 08 bd 1c 6e ab bd 24 82 83 3c 79 78 11 3d
       -0.03325121 -0.08370611 0.016053267 0.035515282
000020 12 2a 0a 3e 99 25 ae 3d 50 81 62 3e 4d ce fc bd
       0.13492611 0.08503265 0.22119641 -0.12344036
000030 67 8b e8 bd ad b2 9e 3d f7 cc 51 be d5 36 ba bc
       -0.11354714 0.077489235 -0.20488344 -0.022731224
000040 e2 fe fe bc 6c 7d 08 3e 59 e5 e6 3d 4b ff 77 bd
       -0.031127397 0.13329095 0.11274213 -0.0605462
000050 4d 22 3c be bc 21 c3 bd 61 75 3e be 13 54 0e be
       -0.1837246 -0.09527919 -0.18599464 -0.1389926
000060 d8 ad e8 bc 0e 6c 0f be 83 47 a2 3b 9f 6a 86 be
       -0.028403208 -0.14006063 0.0049523725 -0.2625322
000070 a8 1f a6 3d 82 41 e6 bd 57 a4 a4 bd 6f 28 ef bd
       0.08111507 -0.112429634 -0.08039158 -0.11677634
000080 70 00 16 bd a7 fd 21 bd fc e0 0c be 9a fb 3f bc
       -0.03662151 -0.039548542 -0.137577 -0.011717701
000090 73 59 13 be 47 b2 56 3c b2 97 60 3d 80 be 6f be
       -0.14389591 0.013104028 0.054832168 -0.23412514
0000a0 83 dd 01 3d e3 6f 5e 3d ad af 13 bd 87 cd cd bd
       0.03170539 0.054305922 -0.03605621 -0.10048967
0000b0 73 16 35 be fc c4 08 3e ba 1b 16 3d ac 0b a3 3b
       -0.17684345 0.13356394 0.036647536 0.0049757566
0000c0 47 21 6b bb d8 bb 93 bd d6 3b ec bc 39 21 9f bd
       -0.003587799 -0.07213563 -0.028837126 -0.077700086
0000d0 5a fb f9 3b 96 0a 25 bd 3a a8 10 3c bc f0 b8 bc
       0.0076288404 -0.0402933 0.008829171 -0.022575729
0000e0 99 99 8c 3d b7 37 3b bc 40 08 18 3d 01 cd 9b bc
       0.06865234 -0.011426858 0.037117243 -0.019018652
0000f0 19 1b 63 bd 72 ad 23 bc 96 21 83 bc a8 4e 5e bc
       -0.055445764 -0.009990083 -0.016007226 -0.013568558
000100 b8 79 9a 3d 5e b8 9d bc 32 9f 26 be 04 23 8b 3d
       0.07542747 -0.019252952 -0.16271666 0.06793788
000110 51 a8 9d 3c ff 64 5c 3c f5 c5 3f 3d 38 b3 48 3e
       0.019245299 0.013451814 0.046819646 0.19599617
000120 fc 0e 2c 3c ab fa ba bd cf 38 97 3c 48 6f 42 3d
       0.010501619 -0.09129842 0.018459706 0.047469407
000130 18 41 84 3c 21 13 9f bd bc d8 99 3c fc ec 07 3d
       0.01614432 -0.077673204 0.018780105 0.03318499
000140 72 34 32 3d 63 9d 0d 3d 05 a2 aa bb 98 07 3f 3c
       0.043507047 0.034573924 -0.0052073025 0.011659525
000150 5d 4e 53 bd ef 95 b1 bd 63 aa 6f bd 6f e2 8f be
       -0.051588405 -0.08671176 -0.058512103 -0.28102443
000160 6b fe 22 3d 9a 25 af bd 2e 36 98 3d a0 dd 92 bd
       0.039793413 -0.08552094 0.07432209 -0.07171178
000170 80 08 34 bc cf dd d8 bc 42 e7 ed 3d bf 8f 46 3e
       -0.010988355 -0.026472954 0.116163746 0.19390772
000180 9e 52 45 3d d8 59 24 bd 5b b5 6d 3d 7e 90 bd 3d
       0.048174493 -0.040124744 0.058034282 0.09256075
000190 c0 1c b0 bd aa f6 e1 bb 69 92 ec bc 12 e2 61 3d
       -0.085992336 -0.0068958597 -0.028878408 0.055147238
0001a0 d8 2d 9e 3d 49 a5 99 bd 49 e7 a5 3c 91 af cf 3c
       0.07723588 -0.07502229 0.020251887 0.025352271
0001b0 f9 8c 00 bc d0 fc 55 3d ad e7 c5 bc 41 81 c2 3c
       -0.0078461105 0.052243054 -0.024158323 0.023743274
0001c0 8f 0d 78 3d 9e 6a e6 bd 6b c2 c3 bd 05 28 a0 bd
       0.060559805 -0.11250804 -0.09558567 -0.07820133
0001d0 cb 6d 8d 3d 79 b6 a4 3d 28 11 b5 3d 51 51 1e be
       0.06905707 0.080426164 0.08841163 -0.15460707
0001e0 43 12 14 3d a2 39 b4 bd 83 59 3d 3e 8b e4 f0 3d
       0.03615023 -0.08800055 0.18491177 0.11762341
0001f0 44 5f 05 3e 56 4c a8 3b 27 a3 62 bd a1 1c 03 3c
       0.13024622 0.005136053 -0.055331375 0.008002431
000200 24 12 c9 bc 8d 39 8d 3c b8 3f 36 3d 0f 6e 5b be
       -0.024544783 0.017239356 0.04449436 -0.21428703
000210 84 46 07 bc 08 28 46 3c c6 91 66 bd 24 94 46 3e
       -0.008256558 0.012094505 -0.056291364 0.19392449
000220 b0 f5 00 be 25 90 39 3e c6 c3 b6 3d 5b 15 81 be
       -0.12593722 0.18121393 0.089240596 -0.25211605
000230 7f e5 e4 bc 7c 9e 3c bd 8e fb b3 3d d2 9e 1e be
       -0.027941464 -0.04604958 0.087882146 -0.15490273
000240 cd c8 ff 3d 11 c6 1e be 54 99 f4 bc a2 fc 99 bd
       0.124894716 -0.15505244 -0.029858269 -0.07518889
000250 f4 6f ab 3d 0d 86 c5 bd 6c 5b a4 bc f3 13 c0 bc
       0.08370963 -0.09644709 -0.020063125 -0.023447013
000260 78 45 77 be 6e 85 3d bd 63 1c 3c 3d 40 63 8d bd
       -0.24147594 -0.046269827 0.04592551 -0.06903696
000270 4a d0 8a bd 73 7d 0b bc 53 13 ac 3d 02 27 13 3d
       -0.06778009 -0.008513796 0.08402123 0.035925873
000280 47 8e 00 be f0 79 c4 3b ea 07 11 be 3c 44 be bc
       -0.12554274 0.0059959814 -0.14163175 -0.023225896
000290 12 df 63 be 92 b4 1e 3d 61 b0 47 3e a0 37 09 be
       -0.22253063 0.038746424 0.19500877 -0.13400126
0002a0 ae fd e5 3d c5 ae 31 3e b9 ac bb bc b8 1f 97 bc
       0.11230026 0.17351826 -0.022909509 -0.018447742
0002b0 66 90 6a 3d ca b9 65 be e9 76 c3 bd ea 11 0c be
       0.057266615 -0.22434154 -0.09544165 -0.13678709
0002c0 6b 12 14 bd 00 46 8d 3d 2f 5b 8b bc 92 9c bd bc
       -0.036150377 0.06898117 -0.017011253 -0.023145948
0002d0 da 07 81 38 02 12 66 bd cc 06 a8 bd cf a1 f5 3d
       6.152662e-05 -0.056169517 -0.082044214 0.11993753
0002e0 bd 29 21 bd c4 70 5f bd ba 1b 13 3d ce 46 01 bd
       -0.039346445 -0.0545509 0.035915114 -0.031561665
0002f0 94 10 22 bd c8 4e 20 be e9 7f 15 3e a4 f9 37 be
       -0.03956659 -0.15655053 0.14599575 -0.17966324
000300 65 e0 8a 3c 23 9a ad 3c 7f a5 f4 bd d0 71 84 bd
       0.016952703 0.021191662 -0.119456284 -0.064670205
000310 2d 14 8c bd 08 1f 95 3d 8f 1d 1b 3c 76 be 39 be
       -0.06839786 0.07281309 0.009467497 -0.18139061
000320 59 4a d9 3c e2 9e 52 3d 1b 58 21 be b9 e2 f6 bc
       0.02652471 0.051421054 -0.15756266 -0.030137407
000330 92 8b a8 3d 69 64 81 3c 0d 76 16 be 84 79 0e bd
       0.08229746 0.01579495 -0.1469347 -0.034783855
000340 00 f9 dd bd 2d 3a 97 3d 2b 77 93 3c 9a cb 3f be
       -0.108385086 0.07384143 0.01800116 -0.18730012
000350 ee f7 bc 3c c4 31 82 bc 75 f9 35 bb 7c 65 18 bd
       0.02306744 -0.01589287 -0.0027767096 -0.037206158
000360 3b dd b1 3d 6c df 20 be db 85 2c be 51 e3 6d bd
       0.086847745 -0.15710229 -0.16847937 -0.058078114
000370 2e c6 13 3c f5 89 41 3d 94 a1 11 3e f8 ab e2 3b
       0.009019418 0.047250707 0.14221793 0.006917473
000380 56 f9 ed bc b2 e6 95 3d ee ef 82 bb da 36 c0 bc
       -0.029049557 0.07319392 -0.003995887 -0.023463655
000390 d7 08 dc 3d 80 e7 90 bc b8 98 ff bd 6b ec 3e 3c
       0.107438736 -0.017688513 -0.12480301 0.011653046
0003a0 ec a5 8c bd a9 87 63 bc 23 b9 88 3c 47 78 05 3e
       -0.068675846 -0.013887324 0.016689843 0.13034163
0003b0 67 74 35 3e e8 cf f8 bc 6e 40 2a 3d fd 6a 08 bd
       0.17720185 -0.030372575 0.04156535 -0.033305157
0003c0 d1 23 00 be a3 90 35 be 0b 6b 2e 3d c3 bf 09 be
       -0.12513663 -0.17730956 0.042582553 -0.13452058
0003d0 ef fe 48 3a b2 c9 7d bd e8 f1 06 3d 8b 2f 7a bd
       0.00076673826 -0.06195993 0.032945544 -0.061080497
0003e0 19 09 b9 3c 23 45 e3 3d 72 92 62 bc 6c 8f a9 bb
       0.022587346 0.11097171 -0.013828861 -0.005174568
0003f0 bd 9b e2 bd 7a d9 16 be 65 15 32 3e a5 78 a5 bc
       -0.11064861 -0.14731398 0.17390974 -0.02019913

network_body._body_endoder.seq_layers.2.bias f4 [256]
000000 ee 35 0c bd 69 2c ff bd fe c3 92 bd a2 a6 11 bd
       -0.03423112 -0.124596424 -0.07166289 -0.035559304
000010 8a 3d 70 bd 15 43 06 bc 58 4d 06 bd ee 1b b8 bd
       -0.05865244 -0.008194705 -0.032788604 -0.08989702
000020 41 f5 7c 3c a8 20 35 bd ff f2 f0 bc 78 46 b6 bd
       0.015439332 -0.044220597 -0.029412745 -0.089001596
000030 b3 2b dd bd 6c 29 33 3c b4 21 0d bd fe 56 c1 3b
       -0.107993506 0.010935169 -0.03445597 0.005900263
000040 a9 dd 06 be ac 9a a1 bd 3e 41 8a bd aa 39 24 bd
       -0.13170494 -0.078908294 -0.06750725 -0.040094055
000050 90 61 5c bd d1 60 89 bd ee cf 63 bd 92 15 06 bd
       -0.05380398 -0.067079194 -0.05561822 -0.032735415
000060 94 4c 0d be 7b 4e 84 bd 2e a3 51 3c 17 95 7d bd
       -0.13798743 -0.064602815 0.012795253 -0.06190976
000070 58 10 b9 bd 07 0f e5 bc 84 3b 84 be 46 b9 2a bd
       -0.090363204 -0.027961267 -0.25826657 -0.041680597
000080 ec ab 51 be db ea 31 bd fb 8f 14 bd 62 76 ba 39
       -0.20475739 -0.043436866 -0.036270123 0.00035564887
000090 b1 2c 00 bd 8b 5f 92 bd ab b2 c8 bb ee cc 37 3a
       -0.03129262 -0.071471296 -0.0061248145 0.0007011433
0000a0 9c 63 8c 3c 93 fd 1d bd 47 21 f6 bd 97 c3 31 3c
       0.017137341 -0.038571905 -0.12018066 0.010849855
0000b0 8c f7 97 bc 6d 5c 13 be ae b7 98 bd c6 28 a4 3c
       -0.018550657 -0.14390726 -0.07456909 0.020038974
0000c0 39 f3 19 bd 12 28 14 3e 52 a5 77 bd 6d be 15 3d
       -0.03758547 0.1446841 -0.060460396 0.036558557
0000d0 94 c4 ef bc 88 aa 88 bd fb 42 36 bc 22 89 07 be
       -0.02926854 -0.06673151 -0.011124368 -0.13235906
0000e0 a2 e3 a3 bd 5e 86 20 bd 0c 70 99 bd 3d 2b 48 bd
       -0.08002402 -0.039190643 -0.07492074 -0.04886936
0000f0 01 2c 94 bd 43 0f d7 bd fd 0f d8 bd af a1 6b bc
       -0.072349556 -0.10500958 -0.105499245 -0.01438181
000100 62 52 c9 bd fe 1a 0e be e1 d7 87 bd 76 ab 8b bc
       -0.098301664 -0.13877484 -0.066329725 -0.017049532
000110 2a 08 7a bd 73 d9 bd bc 67 97 82 3c 07 19 28 bd
       -0.061042942 -0.023174977 0.015941335 -0.041039493
000120 80 46 69 bd 19 3d ac bc 12 49 18 bd a0 46 26 3d
       -0.056952 -0.021025227 -0.03717906 0.040594697
000130 99 79 1c 3d 36 90 ee 3c 9a 2b ce bd 2c d2 f7 bd
       0.038201902 0.0291215 -0.1006691 -0.12100634
000140 24 2a 9f bc d1 fa ce bb 5b e6 05 bd c7 32 12 bd
       -0.019429274 -0.0063165207 -0.032690387 -0.035692956
000150 e8 93 9a bd bc 5b 34 3d 58 54 44 be d9 32 2b bd
       -0.07547742 0.044032797 -0.191728 -0.04179654
000160 7a 15 be bc 41 96 2f bc 98 e7 d8 3c f1 ed 45 3c
       -0.0232036 -0.010716976 0.02647762 0.012080655
000170 8b 78 55 bd 4e 5d 88 bb d2 b4 ab 3c 77 ab d8 3c
       -0.05211691 -0.0041615134 0.020960245 0.026448948
000180 5b 7d d5 bd 1e 0c 5a bd 7d 0c c0 3c 51 28 33 3c
       -0.104243 -0.053234212 0.023443455 0.010934905
000190 2e fc a4 bd 24 69 19 bd 17 54 4b 3d 5f 76 0d 3d
       -0.08055912 -0.037453786 0.04964074 0.034536716
0001a0 56 ef 96 bc cf 07 38 3c f7 10 a4 bd 2a 59 03 bd
       -0.018424671 0.01123233 -0.08011048 -0.032067455
0001b0 38 d2 c8 bd 34 e0 95 bd 50 dd a1 ba 5b 69 86 3d
       -0.09805721 -0.07318154 -0.0012349281 0.06563064
0001c0 c9 26 b8 3d 1f d2 24 bd 50 51 46 bd 0e 2c 21 3c
       0.08991773 -0.04023945 -0.04841739 0.009837164
0001d0 32 b9 6c bd 12 4c 30 3d 34 cb b4 bd 8e 4f 6e bd
       -0.057793804 0.043041296 -0.088278204 -0.058181338
0001e0 76 65 3d bd 16 f5 3c bd c8 da 9d bd c9 7e 80 3d
       -0.04623934 -0.04613217 -0.07707745 0.06274182
0001f0 6b 96 59 bd 58 9b ae 3d 91 bb 81 3c 67 7f 0d 3e
       -0.053121965 0.08525723 0.015836509 0.13818131
000200 bb 09 d6 bd d1 95 aa bd 53 11 dd 3c b0 bd 8d 3c
       -0.10451075 -0.083293565 0.0269858 0.017302364
000210 0c 11 bb bd a7 34 4c bd 91 98 0d be 32 2d 37 3c
       -0.09134111 -0.0498549 -0.1382773 0.011180209
000220 eb 8e 0b bc cf db a1 bc 87 bd 68 3d 1b 0b c7 bb
       -0.008517961 -0.019758133 0.056821372 -0.006074322
000230 84 db 0a be a0 02 c1 bd ee 3a 82 bd ad ec d0 3b
       -0.13560301 -0.09424329 -0.06358896 0.00637587
000240 c3 54 ca bd ba 9e 01 3e 02 c3 a7 bd 30 0d d7 bb
       -0.09879448 0.12658206 -0.08191492 -0.0065628514
000250 bd 11 e1 bd 1f 94 a2 bd 94 34 1d be b8 d0 28 bd
       -0.109897114 -0.07938408 -0.15352088 -0.041214675
000260 17 94 40 bc 70 90 10 be 95 02 16 3d c7 29 69 3d
       -0.011754057 -0.14117599 0.036623556 0.056924608
000270 64 50 e7 bc 66 2e d1 bc 4e 6c 67 bd b4 00 ac bd
       -0.028236575 -0.02553482 -0.05649977 -0.083985716
000280 7f b1 05 bd 96 81 57 bd a8 e3 31 3d 20 7d 93 bd
       -0.032639977 -0.052613817 0.04343 -0.072016
000290 02 5f 85 3b 36 e9 c3 bd e2 8d 4f 3d dd 24 e3 bb
       0.0040701637 -0.09565966 0.05067242 -0.0069318847
0002a0 de 15 92 bd 46 f0 3c bd ec e2 be bc 87 45 8b bc
       -0.07133077 -0.04612758 -0.023301564 -0.017000927
0002b0 1e 06 06 bd ff 21 a7 bd eb c3 00 3c ae 5d bd bd
       -0.032720678 -0.08160781 0.0078592105 -0.092463836
0002c0 d5 69 9a 3c 89 25 b6 bd c0 3a 69 bc 55 07 08 be
       0.018849293 -0.08893878 -0.0142351985 -0.13284047
0002d0 68 9a 33 bd 16 e7 1a 3d 92 c9 46 bd d6 fe 56 3d
       -0.043848425 0.037818037 -0.048532076 0.052489124
0002e0 96 3d 0d be 78 38 3e bd 3b c7 df bb ac 08 f5 bc
       -0.13793024 -0.04644057 -0.00682917 -0.029911362
0002f0 9e 64 eb bd c6 b3 3b bc 84 6d 5f bd 67 ef 46 3b
       -0.114938006 -0.011456436 -0.0545478 0.0030355097
000300 4b 50 14 be 2e 4d c6 3d 93 4b 9a bd 0d ec a2 3b
       -0.14483754 0.096826896 -0.07533946 0.004971987
000310 80 9f 9e 3c 48 88 6e bc 2d 6d 9f bd d6 1a 92 bd
       0.019363165 -0.014558859 -0.077844955 -0.07134025
000320 8a e0 f7 bd 43 95 80 bd e0 14 b3 3b 39 60 98 bd
       -0.12103374 -0.062784694 0.005465135 -0.07440228
000330 10 57 e6 3b 37 0f 5f bd 8d 38 6e bd 89 60 fd bc
       0.0070294216 -0.05445787 -0.0581594 -0.03092982
000340 d4 4b 58 bd 53 43 49 bd c7 0f 07 bd d1 eb 11 3d
       -0.05280669 -0.04913647 -0.03297403 0.035625283
000350 9b ca e7 bc 00 03 a4 bd 4e f6 b4 bd 5e 6f a9 bd
       -0.028294852 -0.08008385 -0.088360414 -0.08273195
000360 2b 5d 00 3c d9 71 d4 bd 59 51 36 bc f6 91 14 be
       0.007834713 -0.10373277 -0.011127793 -0.14508805
000370 3f 23 79 bd 04 66 c0 bb c3 84 1c bd 55 54 71 bd
       -0.06082463 -0.005871536 -0.03821255 -0.058918316
000380 4f 31 a8 bd d1 b4 b6 bc 0c e1 62 3d 89 ac 7b bd
       -0.0821253 -0.022303017 0.055390403 -0.06144384
000390 99 09 11 3d e3 f0 6d bc ad c2 7c bd 44 2f 0e 3c
       0.035409544 -0.014522764 -0.061709095 0.008678261
0003a0 44 0f 1a bc 98 1a 37 bd 78 d9 3c 3d 0c c4 04 3e
       -0.009403054 -0.044703096 0.04610583 0.12965411
0003b0 1c a9 ea 39 62 e1 c7 bd 57 92 4f bd 87 cf 07 3a
       0.00044757954 -0.09759785 -0.05067667 0.00051807653
0003c0 1c 39 c0 bd 8c d2 38 b9 09 32 12 be bb 2a 4b bd
       -0.09385893 -0.00017626042 -0.142769 -0.049601298
0003d0 a6 3a 10 bd 2e 4f ae bc 4f 74 9e 3d 7f 34 1e bd
       -0.03521218 -0.02127799 0.07737028 -0.038624283
0003e0 33 00 2a bd e3 d5 06 bd 66 77 b3 bd fd d4 6b bc
       -0.041504096 -0.032918822 -0.08763008 -0.014394042
0003f0 98 69 ed bd ea 32 ef 3d 5c 78 11 3d c5 7f 21 bd
       -0.11592406 0.11679633 0.035515174 -0.03942849

action_model._discrete_distribution.branches.0.weight f4 [3, 256]
000000 38 08 0d bd 44 3b be 3c c4 fd b0 3d 66 d4 59 3e
       -0.034431666 0.02322162 0.08642152 0.2127243
000010 cb c6 c5 bd 9a 55 82 bd 1b 45 12 3d ed a4 5d bd
       -0.096570574 -0.063639835 0.035710435 -0.054112364
000020 4f 83 3a be 37 9a 22 3e 85 90 af 3c 60 0b e1 3d
       -0.18214153 0.15879141 0.021431217 0.10988498
000030 29 79 be bd 56 d7 44 bc fa ae a9 3e e4 fd 83 3c
       -0.09300453 -0.012014231 0.3314131 0.016112275
000040 a5 1d 5b bd 50 a4 6b bb 47 2d 3c be c7 5e bb bd
       -0.053495068 -0.0035956092 -0.18376647 -0.09148937
000050 1a fe 40 3e ec 9e 01 bf c3 44 80 bd 75 26 5e bd
       0.18846932 -0.5063312 -0.06263115 -0.054235894
000060 cb 1b 6c bd 07 94 67 3d 10 7d ca 3d 12 ef a8 bc
       -0.057643693 0.056537654 0.09887135 -0.02062181
000070 16 a7 cf 3c b1 13 4b bd 03 11 cc bc 7c 39 79 bd
       0.025348227 -0.049579326 -0.024910456 -0.060845837
000080 85 70 b6 bc c4 f2 e9 bc ba 1e b1 b9 b0 ee 9e be
       -0.02227045 -0.028558142 -0.00033782964 -0.3104148
000090 c8 fc 0a 3e 8a 72 8e bc 90 a8 cf 3d f8 cd 89 3e
       0.13572991 -0.0173886 0.101395726 0.26914954
0000a0 29 2e 53 3e 98 b1 02 bd 43 69 8f 3a e9 6f f5 3d
       0.20623077 -0.031907648 0.0010941405 0.11984236
0000b0 39 ea 5a be 95 63 e9 bc 02 41 13 bd 75 5c f0 3c
       -0.21378411 -0.028489867 -0.03595067 0.029340962
0000c0 db be 66 bf 99 6f b3 3e e4 7e da 3c 11 15 c1 bd
       -0.9013497 0.3504608 0.026671834 -0.09427846
0000d0 9d 3f fe bc a4 71 10 bd 57 b2 13 bc 93 7e 3a be
       -0.031036193 -0.035264626 -0.0090146875 -0.18212347
0000e0 98 72 d7 3c 04 4a f8 3d bb 1c d0 bc aa 06 a0 3c
       0.02629976 0.12123492 -0.025404325 0.019534428
0000f0 9f 79 0c be 8e dc ae bd 35 b4 01 bf 06 ba 82 be
       -0.1371827 -0.08538161 -0.506656 -0.2553255
000100 77 ff b0 bd b7 ce 6f 3d df 55 9d 3e c9 82 17 3e
       -0.08642476 0.058546748 0.30729577 0.14795984
000110 33 79 3d be 9d f2 56 3c 2c 98 7b bd bd bd b5 3d
       -0.18503265 0.013119367 -0.06142442 0.0887408
000120 28 e8 eb 3c bb 20 5b 3e 2b 57 30 bc 2d 9f 84 3d
       0.028797224 0.21399204 -0.01076297 0.06475673
000130 ee 13 92 3d 44 59 85 bd fa e0 d9 bc 44 b9 cc 3d
       0.071327075 -0.06511167 -0.026596535 0.09996274
000140 ff c3 03 3e 8d c4 60 bd c3 3c 20 3b a0 8c ef be
       0.12867735 -0.054874945 0.002445028 -0.46786976
000150 08 23 ef 3c 21 5e 51 3d 7c 8d ec bb 80 bd 3b be
       0.029191509 0.05111516 -0.0072190147 -0.18334007
000160 3a 3b 14 bc 04 a1 6e 3e 3e bc 01 bd 83 26 1b 3c
       -0.009047324 0.2330361 -0.031673662 0.009469631
000170 0f 4c f2 3d cd b1 29 3e 7e a1 3f 3e 4b a4 43 3e
       0.11830913 0.16571732 0.18713948 0.19105642
000180 dc 4d b2 bc 8b 99 bc bd c9 5a 15 3d eb 36 af bd
       -0.021765642 -0.092089735 0.036463533 -0.08555397
000190 dc aa 3d bd 33 ca 2f 3d 37 05 57 3d 4c ad 7a 3d
       -0.046305522 0.04291744 0.052495208 0.061200425
0001a0 67 eb 30 3e de bf e0 3c b7 30 98 3d 95 e5 61 bd
       0.17277299 0.02743524 0.074311666 -0.055150587
0001b0 25 ad 2a 3e a1 73 99 bd d2 ff 87 3d 39 5c ac bd
       0.16667612 -0.074927576 0.06640591 -0.084160276
0001c0 d9 17 8c bf 8a a3 f8 bd 02 1a 13 3d da f8 41 3d
       -1.0944778 -0.121405676 0.035913475 0.047356464
0001d0 58 a5 f2 bc 9c 6e 08 3e c6 d3 e1 3c d9 1c ee bd
       -0.029619858 0.13323444 0.027566802 -0.11626596
0001e0 f8 0d 3a 3d bf 68 42 3d 74 e0 66 bd d1 ba 55 bc
       0.045423478 0.047463175 -0.0563664 -0.013045029
0001f0 44 e0 41 3e 94 ab b0 bd 6e 0f 43 be 45 8f 9e 3e
       0.18933207 -0.08626476 -0.19048855 0.3096868
000200 c3 be 01 3e ac 3a 24 be cf 0c f3 bb b8 34 20 3e
       0.12670426 -0.16038007 -0.0074172984 0.1564511
000210 d4 a6 59 3d ad 35 4b bc db f4 21 3e 49 4d f5 bb
       0.053137615 -0.012402934 0.15816061 -0.0074860197
000220 64 2d 44 bc 73 22 0d bf 0b 8d d8 3e 27 0b 88 bd
       -0.011973713 -0.5513069 0.42295107 -0.06642752
000230 d7 62 90 3d da 39 1f bc 77 08 34 3c ac 05 92 3d
       0.07050102 -0.009718383 0.010988346 0.07129988
000240 b1 a2 74 3c 48 86 47 3e b5 96 c2 bc 49 15 06 3f
       0.014931367 0.19484818 -0.023753503 0.5237623
000250 05 f6 d6 b9 36 92 91 bd 95 61 10 3e 6b 90 43 be
       -0.0004100056 -0.07107966 0.14099725 -0.1909806
000260 0c a3 49 3e 14 b5 67 3e e8 92 6e bf 40 9e 7b 3b
       0.19691104 0.2262767 -0.9319291 0.0038393885
000270 56 ac 3b be 86 fb 9a bd 06 c4 5c 3e ac 61 e0 3d
       -0.1832746 -0.075675055 0.21559152 0.109561294
000280 2e cc bd bb 6a 28 c7 3c 25 9c d8 bc 3a dc a7 be
       -0.0057921624 0.024311263 -0.026441643 -0.32785207
000290 25 ca 47 3d ed 74 87 3d cc 33 6f 3e 02 af 7e b9
       0.048776764 0.06614099 0.23359603 -0.00024288523
0002a0 50 8d 64 bd ed 57 29 bd 5c de 2a bc c0 cb 54 3d
       -0.05579883 -0.04134362 -0.010428991 0.051952124
0002b0 3c 18 0d 3e b0 6e 27 3e ae 2e 67 bd 4b 01 98 3d
       0.13778776 0.16350818 -0.056441 0.074221216
0002c0 bc bf 55 3e 0b f3 9b 3d e3 01 0b 3e f1 e9 86 bc
       0.20873922 0.07614716 0.13574938 -0.016468974
0002d0 59 1c 77 bd 8d 7c 82 bd 6f c0 04 bc 98 0f de 3d
       -0.06032977 -0.063714124 -0.00810252 0.10842818
0002e0 98 48 e2 bd 7e a0 d6 bd 6a d5 5e bb 0e 71 11 3c
       -0.110490024 -0.1047983 -0.0034001716 0.008877052
0002f0 30 b6 26 3e 7f 8a 25 3e 7a 12 cf bc fc ad a1 3d
       0.16280437 0.16166113 -0.025277365 0.07894513
000300 9a 03 a7 3e 66 58 e0 3e 0b 99 0e 3e c0 10 a0 bd
       0.32619935 0.43817443 0.13925569 -0.07815695
000310 f4 60 8d bc 97 f1 26 3d 1c c9 75 3d de 3d 41 3d
       -0.017258145 0.04075774 0.060006246 0.04717814
000320 92 7f d4 bd e5 30 dd bd ea 89 b9 3d 73 b1 af bd
       -0.103758946 -0.108003415 0.09059508 -0.08578768
000330 db a7 36 bc 4f a3 e1 be a1 86 38 bd 99 29 87 bd
       -0.011148418 -0.44069907 -0.045050267 -0.06599731
000340 e0 bd 68 3c aa 3b 9e bc 48 90 e9 3e f2 c4 a9 3e
       0.014205426 -0.01931556 0.4561789 0.3315807
000350 f7 6f 1e 3e 01 a3 a8 bd 07 22 27 3b 2f 90 29 be
       0.15472399 -0.082342155 0.002550246 -0.16558908
000360 0f d2 4e bc 3b cd 6b bd 93 2c 0a 3e 23 c5 74 bb
       -0.012623324 -0.05756877 0.13493566 -0.0037348948
000370 f9 7e ae bc a1 da 9d bb 06 c4 e1 bd d3 17 d9 bc
       -0.02130078 -0.0048173224 -0.11023717 -0.026500618
000380 36 f6 d8 bd a2 c2 3e 39 06 92 9f bb d6 2c c0 bd
       -0.10593836 0.00018192318 -0.0048697023 -0.09383552
000390 5b 84 8c bd 28 dc de 3d 6f 18 09 bd 80 a0 a3 bb
       -0.06861182 0.10881835 -0.033470567 -0.0049934983
0003a0 6e 2e a3 bc 05 bb 56 be c3 09 15 be 3a 13 86 be
       -0.0199196 -0.2096978 -0.14554505 -0.26186544
0003b0 f1 46 6a be 44 80 a2 bd 2d 06 26 be 4a da fe 3c
       -0.22878624 -0.07934621 -0.16213293 0.031109948
0003c0 71 72 a7 bf 25 db ff be a8 1a 17 3c 76 51 50 be
       -1.30818 -0.49971882 0.009222664 -0.20343575
0003d0 7d 2a e9 3e 87 51 32 3e 73 6a a9 3e b8 99 2a 3d
       0.45540228 0.17413913 0.33089027 0.041650504
0003e0 4f 7d b2 be a2 6a f6 bd 29 6d 6b 3d 30 4d 07 be
       -0.34861228 -0.12032057 0.05747715 -0.13213038
0003f0 70 9d 18 3d f7 77 5f bf 78 74 90 bd 7d 8a d7 bd
       0.03725952 -0.87292427 -0.07053465 -0.105244614

action_model._discrete_distribution.branches.0.bias f4 [3]
000000 5d 0f aa bc 1b 90 68 3d 15 8d 1e be
       -0.020759279 0.056778055 -0.15483506

action_model._discrete_distribution.branches.1.weight f4 [3, 256]
000000 6c 01 be 3b 50 de 83 3e 60 45 7e bd 76 40 1a 3f
       0.0057985093 0.25755548 -0.06207788 0.6025461
000010 7a 3f 93 bc 7e 6f 8b bd c9 43 a2 3d 37 94 ec 3d
       -0.017974604 -0.06808375 0.07923085 0.11551707
000020 99 9f ed bd 9f 2a e6 bd a1 8e b1 3c 36 9c 92 3c
       -0.116027065 -0.11238598 0.021674456 0.017896753
000030 34 ec 00 bd 8a 51 30 3c 22 d8 8a 3d cf 39 8b bc
       -0.03147526 0.010761628 0.06779505 -0.016995339
000040 cd cf ca 3b 30 24 89 ba 91 f9 8a 3d f8 ce 1c 3a
       0.0061893226 -0.0010463055 0.06785882 0.00059817685
000050 5a 5a 45 be b6 d7 63 3e 36 26 9c bd a5 ab 4c 3c
       -0.19272748 0.22250256 -0.07624476 0.012492095
000060 d2 d5 14 be d9 b4 a3 bd 86 14 17 be ac bb aa 3c
       -0.14534691 -0.07993478 -0.14753923 0.020841442
000070 4e 3b b7 3c 48 ae 20 be 73 9c f1 3c 2e ba 89 3c
       0.022367146 -0.15691483 0.029493546 0.01681241
000080 d9 b1 80 3c 3e 11 78 bd 6b 4c ed bb e1 1e ee 3c
       0.015709804 -0.06056332 -0.0072417757 0.029067459
000090 5e 45 e4 3b 1f bc 1a bd 32 27 fb 3d 75 ba db bd
       0.006966277 -0.037777063 0.12263335 -0.10728923
0000a0 89 8a aa 3b 82 38 8a bc 12 cc 12 bc 6d c5 64 be
       0.005204503 -0.016872648 -0.008959787 -0.22340937
0000b0 ce 24 d7 bc 2f 0d 86 3b 8d 2e b0 bd 9b 0e 03 be
       -0.026262667 0.004090927 -0.08602629 -0.1279854
0000c0 f1 8c 1c 3d 6c 66 ab 3d 3e 0d 41 bc 52 78 11 bb
       0.03822035 0.08369145 -0.011782942 -0.002219696
0000d0 72 8d 69 3d b0 06 d7 3c ba a7 65 3b 0a dc 51 bc
       0.05701966 0.026248306 0.00350426 -0.012808809
0000e0 b3 74 49 3c c9 e5 c1 bd dc 46 65 bd 2a 6d 47 bd
       0.01229589 -0.09467656 -0.05597578 -0.04868809
0000f0 f9 2f 41 bd b5 0b 54 3c b2 74 10 3c 7d 8b 32 bd
       -0.04716489 0.012942244 0.008816885 -0.043590058
000100 0d 62 9d bd c5 01 c6 bd 7e 3a 43 bd 5c 95 13 3d
       -0.07684717 -0.09668306 -0.047663204 0.036031112
000110 29 53 02 be 46 f4 62 bc 36 ff df bd 3a 59 06 be
       -0.12727036 -0.013852185 -0.109373495 -0.13119975
000120 01 f2 67 3d db 7c 33 bd fc ed 92 3c 13 de 61 be
       0.056627277 -0.043820243 0.017935745 -0.22057371
000130 fb 32 18 be 4b 89 3b bd e6 1d 8b ba 78 aa 48 bc
       -0.14863198 -0.04578523 -0.0010613769 -0.012247674
000140 49 7e f0 3d 2e 80 8e 3d 0d 83 6a 3c 58 64 8c bc
       0.11742837 0.06958042 0.0143134715 -0.017137691
000150 72 49 cf 3c b3 f5 3b be 4f 4f 98 bb 0a b7 f4 bd
       0.025303576 -0.18355446 -0.004648126 -0.119489744
000160 73 99 7d 3c 01 f7 34 be 47 cb 7b 3e b4 85 11 3c
       0.01547848 -0.1767235 0.24589263 0.008881975
000170 b2 ac 3c be 52 84 bf 3d eb 66 9c 3e 63 30 30 be
       -0.18425253 0.0935141 0.3054727 -0.17205958
000180 96 2b cb bc 43 41 d3 3c 31 8e cb bd e4 37 56 3d
       -0.024801057 0.025787955 -0.0993923 0.052299395
000190 5d 05 01 3d 96 63 c6 bc e1 4f 3f be 25 38 34 3d
       0.031499255 -0.024217408 -0.18682815 0.043998856
0001a0 06 f4 92 be 80 0d b3 3a aa 56 e4 3d 31 44 4f 3c
       -0.287018 0.001366064 0.11149342 0.012650535
0001b0 bb 2b 1f be 34 56 95 bd d2 f9 34 3d 4e 4b 85 3e
       -0.15544026 -0.072918326 0.04418356 0.26034015
0001c0 75 21 ab 3d 9d f2 e3 3c e0 2b 64 3c a6 9d ec bd
       0.08355991 0.027825648 0.013926476 -0.115535066
0001d0 a7 6a a7 bd ca 07 ca bd 60 88 37 be e9 64 48 3d
       -0.08174639 -0.09864767 -0.17923117 0.04892436
0001e0 c2 98 46 bc 32 77 17 be a7 f9 16 bb 7a 0a a0 be
       -0.012121381 -0.14791563 -0.0023036988 -0.31257993
0001f0 44 cd 48 3c 2c a5 a8 3d 56 d6 7a be 70 f5 f3 3d
       0.01225597 0.08234629 -0.24495825 0.11912048
000200 36 b7 6b be 4f e4 25 be 09 00 35 bb b2 e9 0d 3c
       -0.23019108 -0.16200374 -0.002761843 0.008661674
000210 60 17 63 be da d5 a6 ba 01 2a 94 3e 41 c1 20 3c
       -0.22176886 -0.0012728528 0.28938296 0.0098117
000220 a8 df 4f be eb c3 24 3c 70 fd 8d bd 13 27 35 3d
       -0.20300162 0.010056476 -0.06933105 0.044226717
000230 7a 8f 00 be bd 0e 38 bb 6f 4c 97 3c c1 a6 88 bc
       -0.12554732 -0.0028084957 0.018469064 -0.016681077
000240 23 54 0f bd 7d 3c 6a 3e 90 1b 81 bc 0b ce 95 3e
       -0.03499235 0.22874637 -0.015760213 0.2925876
000250 df 75 a2 bd 51 51 c2 3d 61 7e 5b bd 83 11 52 bd
       -0.079326384 0.09488166 -0.05358732 -0.05128623
000260 ae c9 16 be 9e 62 9e 3e 7d 2a ad 3c ef 43 3f 3c
       -0.14725372 0.30934614 0.021138424 0.0116739115
000270 e3 c8 f5 3c ed 7a 0e be 7f a4 74 be ba 14 c0 3d
       0.030003017 -0.1391408 -0.23890875 0.09378953
000280 e1 e9 04 3d 95 dc 41 be ff 84 a9 3c 8f 76 3b 3e
       0.032449607 -0.18931802 0.0206933 0.18306945
000290 2c a1 f5 3c dd 5e 01 be 67 d0 8f 3d 1e df 6f 3c
       0.02998408 -0.12633844 0.070221715 0.014640598
0002a0 5e 49 18 3d 4c 16 5c bb 38 c9 49 3b df 29 1b 3d
       0.037179343 -0.0033582626 0.0030790102 0.03788173
0002b0 61 0e 56 be 1b 45 a4 3e f6 06 46 3d f9 eb f0 bc
       -0.20903923 0.32083973 0.048346482 -0.029409396
0002c0 cc f7 25 3e e0 c8 10 3d bd 55 32 3c a6 1b 90 3d
       0.16207808 0.03534782 0.010884699 0.070365235
0002d0 eb 66 f9 bd f7 c8 a2 bc 38 a6 81 3c 8c 7b 59 3e
       -0.12177833 -0.019871218 0.01582633 0.21238536
0002e0 92 bf 66 be cd a2 c7 3c e1 b6 e2 3c 5f da 9a 3b
       -0.22534016 0.024369622 0.027675094 0.004725739
0002f0 eb 53 e6 3d cf 34 8a bd 33 9e c0 3e f3 76 20 be
       0.11246475 -0.06748354 0.37620696 -0.15670376
000300 08 99 e0 3e 8a b8 fb 3c d9 fe 6d bd e0 f5 14 be
       0.43866754 0.030727644 -0.05810437 -0.14546919
000310 ab 9d 1f bd 49 69 cd 3c eb 71 0b bb ef 41 02 bb
       -0.038968723 0.025074618 -0.0021277617 -0.0019875725
000320 51 ba fa bd 5e 9d 2e be f5 9b 33 bd ce db c1 bc
       -0.12242568 -0.17052218 -0.043849904 -0.023664381
000330 3f ca 64 bc 88 10 94 bd 0a 3e 9d bd 08 4b 6f bd
       -0.013964235 -0.072297156 -0.07677849 -0.058421165
000340 00 45 a6 bb 77 39 0c 3c d6 61 af 3e 4d d5 27 3e
       -0.0050741434 0.008558623 0.3425433 0.16389962
000350 4a 2d 2a bd bd 48 77 be 5f 5c e9 3a a5 30 16 be
       -0.041547097 -0.24148841 0.0017804018 -0.14666994
000360 6e a6 c9 3d 5b b8 04 3c 43 c3 47 3e 70 99 38 3c
       0.09846197 0.008100594 0.1950808 0.011267051
000370 77 b9 44 bc 60 59 4e bc 1c d3 34 bd 46 d0 f0 bd
       -0.012007109 -0.012594551 -0.044146642 -0.11758475
000380 8c 0d 8e be 18 7a ce 3c 07 12 24 3c 93 f2 f9 bd
       -0.2774471 0.025204703 0.010014064 -0.122044705
000390 eb 3b 43 bd 39 83 85 3d 74 30 09 3c 7b 9e e9 bd
       -0.047664564 0.06519169 0.0083733685 -0.11407181
0003a0 76 de fd bb cd b1 9f 3d cb 23 0f 3d 94 e9 33 3e
       -0.0077474667 0.07797585 0.034946244 0.17569572
0003b0 cb c7 a4 3c 5d a3 0e 3b a8 24 4b be 66 8d 08 3d
       0.0201148 0.0021764853 -0.19838202 0.033337973
0003c0 b3 be a9 3b f5 d9 d2 3c a7 9f cb bc 0e 04 66 bb
       0.005180204 0.025738696 -0.024856402 -0.0035097632
0003d0 ae 6c ac 3e ac c9 e1 be 1c dd a3 3d 54 a5 12 be
       0.33676666 -0.44099176 0.08001158 -0.1432088
0003e0 25 4b e6 bd 40 1c 87 3c 20 77 e0 bd 33 62 94 bd
       -0.112448014 0.016492963 -0.10960221 -0.072452925
0003f0 99 e5 0f bc fb 6b 1e 3e 1f 0e 26 3c 4c 67 4d 3d
       -0.008782768 0.15470879 0.010135203 0.05014734

action_model._discrete_distribution.branches.1.bias f4 [3]
000000 cd e9 4e 3d f5 1e b2 bd 3f 23 99 bc
       0.05051594 -0.08697311 -0.018693564
