results/ppo/BotControllerAgent/BotControllerAgent-1999958.onnx (onnx, 130130 bytes, 9 tensors)

discrete_act_size_vector f4 [1, 2]
00000000: 0000 4040 0000 4040
3.0 3.0

network_body._body_endoder.seq_layers.0.weight f4 [128, 104]
00000000: d4a7 07be 32d6 71bd 2c30 3cbd 4e6d 8cbd
00000010: cf9e 293e 0125 0ebe bdeb 38bd d7d0 4a3d
00000020: 1bbe 05be 6d12 1bbe 1533 d6bd 8d78 173e
00000030: 755e 813d 1d8b 243f 0f20 cf3c 96f5 f13d
00000040: 8ee5 5fbd 54a4 2c3f 7e95 b13c a4ad a0be
00000050: bc5b 0b3d 76bf 6bbd 09b9 d23d 2325 2b3e
00000060: 6d5f b43d ad4a 7dbe 1cd5 4a3d 055a 88bc
00000070: e5be 943c 6da6 31bd 6f30 8f3e ee18 833d
00000080: a2a8 533e 3876 153f 7f30 923d dd8e 653e
00000090: a9d3 553e 9b66 113f 2cd1 9dbd 3316 86bc
000000a0: 640b b33e 317b 84bc 979a 683d 2e10 12bd
000000b0: 78c1 b93d b3b7 92be fd6c 023e af28 7b3d
000000c0: 21f3 223d 5080 8e3b dcc6 1bbe c789 02bd
000000d0: 304f d73d 2cf7 63bd c76c 16bd 090a 3e3e
000000e0: dac9 abbd 7caa 443f 4caf b03c f186 17be
000000f0: eadb 9b3e 4763 813c 3b89 763c e5e1 913d
00000100: cfda 31be 216a adbd daf9 a53c 7d23 8d3e
00000110: ec7d da3c 9bdc 183e 7fcb adbd f6e0 f1bd
00000120: d500 f6bd d11c c7bd 6b0e 1e3d 3ee5 a9bd
00000130: e742 93bd 041c 173f 2d4c 99bb d171 333e
00000140: f07a 683e bbdf 203e 6f36 3b3e e63c 0c3f
00000150: 9212 cf3d 7900 693d 9bfb f4bd 001a 9c3e
00000160: f91c 26bc fdc3 82bd e8dd b33d fb9e 883d
00000170: bc1b 2f3e f44e e5be 3ad3 59bc 01a3 81be
00000180: b106 14be d376 463f d82f 52bd 4aa4 893e
00000190: fdbb c9bd 8d7d 8b3d 2b3e a2bc f448 6fbf
000001a0: 4f63 a73e 8941 a33d 5985 d53c e11a 8fbd
000001b0: 70d5 b3be 0cd3 683e 67c5 1e3e 2d2d 97be
000001c0: 74e8 25be a332 ae3e 3706 043d f438 e4bd
000001d0: 6c7e 7e3d ac5c 37be 3963 013e 5fb7 a8be
000001e0: 3765 85bb 4e68 2ebe 2367 9fbd beb4 f3bd
000001f0: 704b 47be c444 b3bd 7d40 0bbd b412 043e
00000200: cc78 183c b0b3 ba3d c4a0 623c ec93 8cbe
00000210: b70c 4fbe 5d12 843e 351f cf3b 49d2 08be
00000220: 8604 0dbe 5286 de3d 82c6 e23d 4157 97be
00000230: bbcc b0bc fac9 a7bd 125c a83d acd7 53bd
00000240: 0197 53be 50a5 143d 76aa cabd bb15 0b3e
00000250: 29b2 f9bd 31f4 ff3d 453e f3bd 72f9 cdbe
00000260: 5994 d4bd 1221 193e 8511 1c3d c9c1 19be
00000270: 6c34 93bd 52f2 a3bd 7c64 a03d 1936 8cbe
00000280: 46e7 a0bd 9c52 47be ee57 88bc f76f c9bd
00000290: e66d acbd c030 763d 16fd 063e b11c f0bd
000002a0: 0810 3dbe cb2f 183e cc69 00bd 51b4 b1be
000002b0: 6a35 5cbe 895b ca3d 9155 5f3d 0c38 bfbd
000002c0: d90e 11be 88ae 713e 4cd8 aa3d f253 20be
000002d0: 5dd2 d23d 72d0 eabd 0ff2 d43c de1e 01bb
000002e0: d318 d83e 24d9 02be 1019 353d 3ec9 1cbe
000002f0: 0fe7 83bc e317 043f 76b4 7b3d 9609 a7bd
00000300: 2685 293e 4243 19bc 96a5 80bc 5a59 a2bc
00000310: d0cc 1b3d dd8f d23e 08b2 a13c b886 c63d
00000320: a409 833d de0c 81be 5940 66be a42e 213e
00000330: 95f9 6abc 9df8 e5be ea53 a2bd 80c2 96be
00000340: 7ac4 e73d 1cfc e83d c6e2 8bbd 81a5 643e
00000350: eb9a ddb9 cc3e 0b3e cfe7 64bd bbe0 913d
00000360: 93e1 803d 96a6 383e 7bcc 173d 1aac e4bd
00000370: 4320 fdbd d60c 72be 1d47 103e d860 8dbd
00000380: fdf1 963d 1495 9fbe 4ca9 9abd 12c8 953d
00000390: 6ba4 dfbd da97 65be bbf0 973d e89d e1bc
000003a0: e142 483a 2396 1d3e e0f2 e43d 99ce a9bd
000003b0: 07ef 663c fcbe 16bd 57d8 f9bd e6c9 823d
000003c0: e0d1 193e 0d3a 0abe 9994 413e 634f b1be
000003d0: a9d9 e9bd a3ed a43c 30d8 883c 0852 203e
000003e0: 016b bd3d 749b 1abe 573b ec3d 3674 5fbd
000003f0: c1ce 133e a4b4 293e eb8c f2bd a822 87be
-0.13247615 -0.059042163 -0.045944378 -0.06856786 0.16564487 -0.13881303 -0.045146693 0.04951557
-0.130608 -0.15143748 -0.10458962 0.1479208 0.063168444 0.6427477 0.025283841 0.1181442
-0.05466228 0.67438245 0.021677729 -0.31382477 0.03402303 -0.05755564 0.10289199 0.16713385
0.088072635 -0.24735518 0.049519643 -0.016644487 0.018157432 -0.043371607 0.2796664 0.06401239
0.20669797 0.5838351 0.07138156 0.2241778 0.20881523 0.5679719 -0.07705912 -0.016368007
0.34969628 -0.016172023 0.056788053 -0.03565996 0.09070104 -0.28655776 0.12736888 0.061318096
0.039782647 0.004348792 -0.15212578 -0.031869676 0.10513151 -0.055655643 -0.036724832 0.18558516
-0.083881095 0.7682264 0.021567963 -0.1479757 0.3044122 0.01579441 0.015047367 0.07123164
-0.17368625 -0.08467508 0.02026074 0.27566138 0.026671372 0.14927904 -0.084860794 -0.11810486
-0.120118774 -0.09722293 0.03858797 -0.082956776 -0.07190495 0.59027123 -0.0046782703 0.17523886
0.22703147 0.15710346 0.18282484 0.54780424 0.10110964 0.056885216 -0.119620524 0.30488586
-0.010138744 -0.06385038 0.0878256 0.06670948 0.17100424 -0.447868 -0.013294989 -0.25319675
-0.14455678 0.7752506 -0.05131516 0.26883155 -0.09850309 0.06811056 -0.019805035 -0.9347069
0.32692954 0.07971484 0.026064562 -0.069875486 -0.35123777 0.22736758 0.1550499 -0.29526654
-0.16201955 0.34023008 0.03223249 -0.111436754 0.062132284 -0.17906445 0.12635507 -0.329524
-0.0040709036 -0.17031977 -0.07783344 -0.11899708 -0.19462371 -0.087533504 -0.033997048 0.1289776
0.009306144 0.09116304 0.013832275 -0.27456605 -0.20219694 0.2579526 0.006320859 -0.13361467
-0.13771257 0.10865463 0.110730186 -0.29558757 -0.021581998 -0.08192821 0.08220686 -0.051719353
-0.20663072 0.036290467 -0.09895794 0.13582508 -0.121921845 0.12497748 -0.11877111 -0.40229374
-0.103798576 0.14954022 0.038102645 -0.1501533 -0.07187733 -0.08005203 0.07831666 -0.27385023
-0.07856612 -0.19465107 -0.01664349 -0.09835809 -0.08419399 0.060105085 0.13182482 -0.117242225
-0.18463147 0.14861982 -0.031350896 -0.34707883 -0.21504751 0.0988074 0.05452496 -0.09336862
-0.1416582 0.23601735 0.083420366 -0.15657023 0.1029403 -0.11465539 0.025994329 -0.0019702236
0.4220644 -0.12778145 0.044213355 -0.15311143 -0.016101388 0.5159895 0.061451398 -0.08156125
0.16554698 -0.009354414 -0.015703958 -0.019817997 0.03803712 0.41125384 0.019738212 0.09693664
0.06398323 -0.2520513 -0.22485484 0.15740448 -0.014341732 -0.4491624 -0.079261616 -0.29445267
0.11316772 0.11376211 -0.06830363 0.2232876 -0.00042267828 0.13598174 -0.055885132 0.07122942
0.06293025 0.18032297 0.037060242 -0.11165638 -0.12359669 -0.23637709 0.14089628 -0.06903237
0.07370374 -0.31168425 -0.07551822 0.07313551 -0.10920032 -0.22421208 0.074189626 -0.027541116
0.000763936 0.15389304 0.11179137 -0.082913585 0.0140950745 -0.03680323 -0.12199467 0.06386165
0.15021467 -0.13498707 0.18904342 -0.3463088 -0.114184685 0.020132845 0.016704649 0.15656292
0.09248925 -0.15098363 0.11534756 -0.054554187 0.14434339 0.16572815 -0.11843284 -0.26393628

network_body._body_endoder.seq_layers.0.bias f4 [128]
00000000: fea6 bf3d 5cf2 a53d 9580 ef3c 4377 a73d
00000010: 8278 873d 960a d93d 27ff 583d 0cb2 76bd
00000020: 5e59 4d3b 738f f93c b359 b2ba 7d2a 843d
00000030: 50e7 67bd 55cc 0bbc f0af 003d 7039 983d
00000040: 266f 853d 99a6 1c3d 561f 203d 7c93 b43d
00000050: 4c3c 243d e5ee 1d3d 7ee3 763d 6059 143d
00000060: 2a12 923c c719 e6bc 1a7d 423d e4de 853d
00000070: 6c1f 593d f99c 7ebc c51b 03be 9b43 c43c
00000080: c743 333e eaee bfbd beb0 9d3d 9c56 883d
00000090: b3be fe3c a2e1 183d 744c bf3c cc65 9cbb
000000a0: dc45 b43c 72e5 493d b49c d9bc dad7 8fbe
000000b0: 9316 193d 5171 b53c 8063 7f3d ff40 e03c
000000c0: de55 003d d4e5 84bc ce5d 993d 4f62 c5bc
000000d0: 2c73 b63c befb ac3c a0bf 02bd a32e 183d
000000e0: f951 913c d917 ca3c abbd 253d 7ac1 293d
000000f0: c3e0 1c3d f35d 833d 5ff0 403d c192 40bc
00000100: 63f4 e1bc d12a 343d ff59 9d3d 29f6 2b3d
00000110: 7724 9a3c e7b1 5cbc 2383 ed3d 7575 e93b
00000120: 99aa 103d 3dd0 643a 66c6 9dbd 9dc4 aa3d
00000130: 6d4e c03d 92ea 903d 93ec aebd e283 973c
00000140: 41f8 a63c b78c 253d efbc eb3d 33ca b63c
00000150: 94fd ad3d cff9 2d3d 675a 763c a663 c63c
00000160: 8b87 a53c a28d 9b3d 1a60 063d 4b62 3bbe
00000170: 23c3 b73d 4f27 babb 5514 353d 59e6 413d
00000180: ea8e 2e3d c8f3 9b3d e056 b6bd a951 bcb9
00000190: 279f 723d ad77 963d b0f5 0c3d 5ab8 193d
000001a0: 984c 003d 7fdb 11bc 3eca e8bd d490 313d
000001b0: 0c89 8a3c 9291 c5bd 16f3 16bb 491d 763d
000001c0: d08a d53c 13a6 ffbb 6b8d 183d 834b d53d
000001d0: bfd1 183d 8f4f df3c 9181 a4bc e1d9 c73c
000001e0: d54d 003d 104d 1f3d dc4e 203d 5223 243d
000001f0: c42c 173d c8dd 663d cf5c 2b3d 59d0 d83b
0.09358023 0.08102867 0.029236117 0.08177044 0.06614782 0.10597722 0.052977707 -0.060228392
0.0031333785 0.03046391 -0.0013607055 0.064534165 -0.05661708 -0.008532603 0.031417787 0.0743283
0.065153405 0.038244817 0.039092384 0.08817193 0.040096566 0.038557906 0.060275547 0.036218047
0.017830927 -0.028088463 0.047482587 0.06536654 0.05300848 -0.015540355 -0.12803562 0.023958018
0.17506324 -0.09371741 0.076997265 0.066571444 0.031096792 0.037324555 0.023351885 -0.0047728773
0.022005968 0.04929108 -0.02656398 -0.2809437 0.037375044 0.02214876 0.06235075 0.027374743
0.03133189 -0.016222872 0.07488595 -0.024094729 0.022271715 0.021116134 -0.03192103 0.03715385
0.017739283 0.024669575 0.040464085 0.04144428 0.038300287 0.06414404 0.047104236 -0.011753739
-0.027582353 0.043986145 0.07683181 0.041982803 0.018816216 -0.01347015 0.11597278 0.0071245977
0.035318945 0.00087285397 -0.07703857 0.08338282 0.093899585 0.07075991 -0.08541217 0.018495504
0.020382049 0.0404174 0.115106456 0.022313213 0.08495632 0.042474564 0.015036202 0.024217438
0.020206233 0.07595374 0.032806493 -0.18299215 0.08972766 -0.0056809555 0.044208843 0.047338817
0.042616762 0.07614857 -0.08903289 -0.00035918996 0.05923381 0.07347045 0.034413993 0.037529327
0.031323045 -0.00890243 -0.113667 0.04335101 0.016911052 -0.09646906 -0.0023033074 0.060086522
0.026067168 -0.00780178 0.03724424 0.10414793 0.037309404 0.027259616 -0.020081313 0.024395885
0.031324226 0.038891852 0.039137706 0.040072747 0.036907926 0.05636385 0.041836556 0.006616634

network_body._body_endoder.seq_layers.2.weight f4 [128, 128]
00000000: 2fd4 5e3d be23 753e 9277 e9bd 0337 423d
00000010: 9ec0 dbbd 770c de3d 9778 8bbd 32a9 123e
00000020: 66db b8be afbf 46bd 07a1 5fbe 9c94 3ebe
00000030: 04be 4a3e 0a65 fdbd 457b 46be bc9b a1bc
00000040: 3a98 7a3d a20d 663e b65b b03c 1b23 56bd
00000050: ad10 183e f52f d83d e8d5 48be 2820 273e
00000060: 417c 103d fa68 a13d 4a86 093d c375 af3d
00000070: b973 f03d bfbe 4d3d 08a8 05bd b802 b1bd
00000080: 5e1f 4f3e 8aa5 6ebe d534 8a3d a8e5 143e
00000090: 9130 febd edd5 e6bc a3f5 3bbb a862 de3d
000000a0: 0538 813e 949b e5bd 7f9b ca3c 6cdb 143d
000000b0: 5cce a73d 8e64 d83d 2880 cdbd 10a3 8c3c
000000c0: 8491 e2bd 6820 86be 684d 283d d4ee 173e
000000d0: bcaf 04bd 6e09 14bd f741 3c3b a0a9 b5bc
000000e0: f2f5 8fbd c3b9 eb3d a423 08be 0b75 0a3d
000000f0: f260 32be b421 2a3e eb6f 073e 388f 463e
00000100: 7e3a 5fbd a3c0 22bd 6423 133e 935c 28bb
00000110: 23a4 70bd 8872 25be 3a6c dd3d 5309 893c
00000120: b5d8 50be 63c6 8c3e 81f8 a3be 7983 243c
00000130: 9422 613d c5e4 3e3d 0700 773e cd24 cabb
00000140: 021d 15be f439 58bd 4c18 3b3e 75ba 38be
00000150: ee8b 2cbe d57d 343e e0cc f03d 9852 02be
00000160: dce2 533d 02ef 8d3d 7a48 263d 41df b0bd
00000170: 1744 83be 9854 e13c 921c ba3d e5ca 6b3d
00000180: 2d43 bb3c b63a 29be 80d7 cdbd f949 3bbe
00000190: 3000 0a3d 858c 953e 84e6 c93d dbc0 ffbc
000001a0: 4a1f 82be a49d 123e 8f7d 00bd 3d25 85bd
000001b0: 23ae cf3c a651 333d d6ed 26be 06f4 b9bd
000001c0: cdca 08be f888 57be 8c90 66be 4f47 183e
000001d0: a72d 713d 1c5c 743d f66a 83bc 9bf7 7ebe
000001e0: a4e9 f3bd edb4 6fbe 9d3c bcbd 1d9c 01be
000001f0: 6b6e a0bd 1d4d 9d3c e374 32be dcb0 c83c
00000200: c5e7 173e 6f11 0d3d 9029 a8bd bd0b 093d
00000210: d965 44be 381c 09ba 0e63 2c3e e85b 4bbe
00000220: 7851 59be 6d90 883d 9bbf 833e ace8 713c
00000230: 7fc9 05be db1b 7e3e d36b 823e e751 543d
00000240: cba6 01be 96dc 0bbe 300b 403d 336d ee3d
00000250: f786 323e abe5 be3d a8d3 433b 1d9f 7d3e
00000260: eeeb a33d 400f febd b125 ca3c 9b08 1f3c
00000270: e325 bf3d e017 24be 2d53 b6bd ed86 3f3e
00000280: 8057 65be fcbc 99bd 5fe7 0dbe 9a12 2abc
00000290: 6969 923d edb3 8c3c 7da3 1f3d 731e 5a3c
000002a0: 0b4e 81be 4bb0 08bd eb3e d33d 920a 5ebe
000002b0: d23c a13d ea62 84bc 96a2 273d 4bce 72bd
000002c0: 94ae 813d 4cd8 16be c4a1 0c3e c6af a3be
000002d0: b957 673d 2dd4 6e3d 03c4 83be cdf1 56bd
000002e0: f2e6 a1bd d089 9c3d 9a3c d73d 947e 853d
000002f0: b929 e43d 48bf a0be 4bb5 c83d 1c67 793d
00000300: e649 83bd 4a70 863e 95f3 b8bd be00 86bd
00000310: 4d25 33be f477 84bc b898 50bd 091d b5bd
00000320: d834 b6bb ba92 05be da27 163e ec06 093e
00000330: d645 edbd f3f7 afbd fc3f 96bc 2336 2f3e
00000340: ad12 25be c2cd a5bd 4f70 143c 95a7 073e
00000350: c673 fc3c d4fe b4ba f869 cebd 34ac b7bd
00000360: ed6d ccbd e759 1c3e 639a 963c 7cc6 49be
00000370: a3b8 7b3e 2f41 143c 7c6c 10be 5bfc b3bd
00000380: af92 10bd eb57 8c3c ce26 0fbe 852b 753c
00000390: a69a 363d 7e53 81be 7343 20be deb3 27bc
000003a0: bf72 44be e377 6abe aa49 80bc 92f1 23be
000003b0: 770d 873a 1d8c 02be 0a44 58bd de5a e83d
000003c0: 1f6a e7bc e3e3 c5bd 9e22 96be 0ff8 d3bc
000003d0: c66b 82bd 994d 573e 0237 adbe baef 88bc
000003e0: 157a 2b3e 4d68 64be b5db 53bd 3e51 e43a
000003f0: 7bab 593c f77f 8e3d 44f9 d3bd 3dd5 143d
0.054401573 0.23939416 -0.11399759 0.047415745 -0.10730098 0.10842221 -0.0681011 0.14322355
-0.36104888 -0.048522647 -0.21838771 -0.18611377 0.19799048 -0.12372787 -0.19382961 -0.01972758
0.06118033 0.22466138 0.021528106 -0.052279573 0.14850111 0.10556022 -0.19612849 0.1632086
0.035274748 0.07881351 0.033575334 0.08567383 0.11740822 0.050230738 -0.03263095 -0.08643097
0.2022681 -0.23305336 0.06748358 0.14540732 -0.12411607 -0.02817818 -0.0028680346 0.10858661
0.25238052 -0.11211315 0.02473235 0.03634207 0.08193657 0.10566054 -0.100342095 0.017167598
-0.11062911 -0.261966 0.041089445 0.148372 -0.032394156 -0.036141805 0.0028725842 -0.02217561
-0.07029332 0.115100406 -0.13294846 0.033803027 -0.17419794 0.16614419 0.13226287 0.19390571
-0.054499142 -0.039734494 0.14368969 -0.0025689944 -0.058750283 -0.16156971 0.10811658 0.016728079
-0.20395167 0.27495107 -0.3202553 0.010041111 0.054964617 0.04660489 0.24121104 -0.006168938
-0.14561847 -0.052789643 0.18270987 -0.18039878 -0.16850254 0.17626126 0.11757827 -0.1272682
0.05173002 0.06930353 0.040596463 -0.08636332 -0.25637886 0.027506158 0.090874806 0.057566542
0.02285918 -0.16526303 -0.10050869 -0.18289937 0.033691585 0.2920877 0.098584205 -0.03121989
-0.25414497 0.14317948 -0.031369742 -0.06501243 0.02535159 0.043779038 -0.16301665 -0.09079747
-0.13358612 -0.21048343 -0.22516078 0.14870952 0.058881428 0.059658155 -0.016042214 -0.24899141
-0.11909798 -0.23408861 -0.091912486 -0.12657209 -0.078335606 0.01920181 -0.17427401 0.024498396
0.14834507 0.034440454 -0.082110524 0.03345846 -0.19179477 -0.000523034 0.16834661 -0.19859278
-0.21222484 0.06668172 0.2573212 0.014764946 -0.13065146 0.24815314 0.25472888 0.05183592
-0.12661283 -0.13658366 0.04688567 0.11641922 0.17434298 0.093211494 0.0029880796 0.24767728
0.080039844 -0.124052525 0.024676176 0.009706642 0.09333398 -0.16024733 -0.08902583 0.18703814
-0.2239666 -0.07506749 -0.13857792 -0.0103804115 0.07149012 0.017175639 0.038974274 0.013312924
-0.25254855 -0.03337125 0.10314735 -0.2168372 0.07872929 -0.016160447 0.04092654 -0.059278768
0.06332126 -0.14730948 0.13733584 -0.31970042 0.056480143 0.058307815 -0.25735483 -0.052476693
-0.079053774 0.07643473 0.10509606 0.065182835 0.111407705 -0.31395936 0.09800204 0.06088935
-0.064105794 0.26257545 -0.090308346 -0.0654311 -0.17494698 -0.01617048 -0.050926894 -0.08843429
-0.0055604987 -0.13044253 0.1466364 0.13381547 -0.11585586 -0.085922144 -0.018341057 0.17110495
-0.16120405 -0.08095886 0.00905998 0.13247521 0.030816924 -0.0013808855 -0.10078806 -0.08968392
-0.09981904 0.1526867 0.018384164 -0.19704622 0.24582152 0.009048744 -0.14103884 -0.08788367
-0.03529614 0.017131766 -0.13979647 0.014963989 0.044581078 -0.25259012 -0.1565073 -0.010235755
-0.19184397 -0.22897296 -0.015660126 -0.1601012 0.0010303695 -0.12748761 -0.052799262 0.113454565
-0.028248845 -0.096626066 -0.29323286 -0.02587512 -0.063682124 0.21025695 -0.3383103 -0.016715873
0.1674579 -0.22305413 -0.0517232 0.0017419232 0.013285513 0.06958001 -0.10350278 0.036336172

network_body._body_endoder.seq_layers.2.bias f4 [128]
00000000: 6292 f4bc 0718 b03d df73 22bc 04d3 26bd
00000010: 8049 7bbd 8602 29bd 60ce a3bc 5a9c 2cbc
00000020: 1e1c 823d 7398 4b3d ff84 89bd 01f8 243d
00000030: f7ae 4abd 1176 c93d 8dc8 283d 20ca 3b3c
00000040: c887 1b3a 9d50 663d abbf ff3c 24b9 393d
00000050: ccc3 1f3d 7f27 6ebc ad88 0cbc 6b45 5f3d
00000060: 915a 7f3d 5c24 473d 0d39 073d 4c75 2b3d
00000070: f957 e9bc 8f4d 0fbd 2916 773d 7787 82bc
00000080: 17f1 903d e1a1 0d3c df92 87bd 2c20 673d
00000090: 9b12 17bd 0455 183d eeba 5b3d 65b8 f73c
000000a0: e805 5c3d 01e8 44bd 6515 03bc 8c0c a5bd
000000b0: f49a 013d 60f6 233d 7a51 c6bd 887f 5c3d
000000c0: f917 813d 04e0 803d aabe 52bd 318a 703d
000000d0: f5eb af3c 828c 7b3c 2a3c e0bc e054 b8bc
000000e0: e9af 5e3d bb5c b0bc c81c 7ab9 2b52 5a3d
000000f0: e72f a03d c44f 8abd a699 94bd 2fa8 40bb
00000100: 25c1 5c3d 9d72 97bd 7ea0 053c 9737 b53d
00000110: d154 15bd d3a3 963d f6c7 95bc 5d55 81bd
00000120: 9f65 4b3d 5ba2 223d 32bb 55bd ec0b 0f3d
00000130: c4b8 10bd df0d 9abb f12e 3bbd f935 bf3d
00000140: 66e8 563d bd4a 953d 32fd 973c dbb1 783d
00000150: a27f 493c fb02 263d 4e5a 03bd 906b 4e3d
00000160: 714d e83b bf46 883d 4ed0 ed3c 10fe 193d
00000170: 557a 733d 79f0 763d 8f8b 57bd 6da0 2f3d
00000180: 34b3 2e3d 91e9 ef3b 2394 4f3d 2947 8fbc
00000190: 6bb5 863b 703b b23d e998 5b3d 8abe 733d
000001a0: 19a4 833d 4c6a 523c 0e36 03be fef8 7e3d
000001b0: 61dc 41bd e2aa 0c3d 5248 5b3d 16f0 e83c
000001c0: 6a12 44bd 3ce5 e1bc bd00 7fbe 8db8 093a
000001d0: c36c 0f3d 404f 0fbd ad23 b03c b5bc 15bc
000001e0: 8c4c c63c 846b 563d 006f 91bd 8b76 5bbd
000001f0: ac2b 2ebd c28e 36bc cabb 513d 5439 38bd
-0.029854957 0.08598333 -0.009915321 -0.040728584 -0.061349392 -0.041262172 -0.019995868 -0.010535324
0.06353019 0.049705934 -0.0671482 0.040275577 -0.049483266 0.098369725 0.041206885 0.011461765
0.0005933014 0.056229223 0.031219324 0.04534258 0.039005086 -0.014535784 -0.008577508 0.05450956
0.06234223 0.04861866 0.033013392 0.04185991 -0.028484331 -0.034986075 0.060323868 -0.015933735
0.07077234 0.008644552 -0.0661981 0.056427166 -0.036882978 0.037190452 0.053645067 0.030239293
0.05371657 -0.04807282 -0.008000706 -0.08059034 0.031641915 0.040029883 -0.09683509 0.05383256
0.063034005 0.062927276 -0.051451363 0.05872554 0.021474818 0.015353324 -0.027372438 -0.022501409
0.05436698 -0.021528592 -0.0002385258 0.053301018 0.07821637 -0.06753495 -0.072558686 -0.002939712
0.053895134 -0.073949076 0.00815594 0.088484935 -0.03645784 0.07355466 -0.018283825 -0.0631511
0.04965746 0.039705615 -0.052180476 0.03492348 -0.035332456 -0.0047013606 -0.045699064 0.09336466
0.052467726 0.07289646 0.01855335 0.06071649 0.012298496 0.040530186 -0.032068543 0.05039555
0.00708931 0.06654119 0.029029991 0.03759581 0.059442837 0.060287926 -0.052623328 0.042877603
0.04265137 0.0073215445 0.050678384 -0.017489986 0.004110982 0.08702743 0.053612623 0.059507884
0.064277835 0.012842726 -0.12813589 0.062249176 -0.04732931 0.034342654 0.053535767 0.028434794
-0.047869124 -0.027575128 -0.24902625 0.00052536355 0.035015833 -0.034987688 0.021501387 -0.00913923
0.024206422 0.05234863 -0.0710125 -0.05357985 -0.042522117 -0.011142435 0.05120448 -0.044976547

action_model._discrete_distribution.branches.0.weight f4 [3, 128]
00000000: 380e 133b 6fdf 07bd 8c70 30bd 34f1 943d
00000010: 3cc2 4dbe a4ae 943d 501a e1be 6699 51bd
00000020: 2ad7 58be aa4a 1fbd 4ab7 963c 446d 4abd
00000030: bd7a db3d 317d 0ebe ec2c 98bd d8ee f23c
00000040: 49ad 37bc e758 8ebd 216d 9d3c 225e b3bb
00000050: f061 7e3b bec5 ad3c 6075 3939 2898 07be
00000060: 01f1 13bd 5711 49bd 0782 37bd fe89 d0be
00000070: 91cb 673d 3e05 4c3d cb61 dcbd 43e0 103e
00000080: 6451 23bd aae3 50bd de61 f13d 13bb 4cbd
00000090: f53f 273d e505 17bd 61f3 93bc b063 643e
000000a0: c5ff dabd d0ac 81bd 31a9 753e ae6f 723d
000000b0: 416d a1bd 769c cebd 8920 e73d 2a4f a6bd
000000c0: a4eb 5fbd 92fb bdbc e637 88bb b69e 483d
000000d0: 58ec 313d d682 3abd 9920 733d a95a 7abd
000000e0: de5a 963b 10df 11bd a615 70bd fb91 e13d
000000f0: 7516 1e3e 8ae7 aa3d 3ab9 0f3d 81a7 1a3e
00000100: dae1 a1bc 0796 d93d 5c6f a6bd b816 fd3d
00000110: 4c86 8cba 67f5 bb3d 6704 1cbd a2e2 04be
00000120: d811 013e 2e20 3dbd 6a79 b43e b5d9 39bd
00000130: 7e18 543d eca8 49bd 7ed0 973d a698 5fbd
00000140: 7d09 6ebd a590 95bd bfa3 87be fafb 8ebd
00000150: 3ee8 aebe 4233 bebc e012 f9bc a494 10bc
00000160: 445a 4a3b ff14 dabd 1e41 9abc 38a9 713b
00000170: f2d0 26bd 2882 363c b578 09bc f09b 03bc
00000180: 681c 26be 9f2b acbd bd41 8cbd 595d 963e
00000190: 623f 853c eb69 2dbc f17c 80be 833e ebbd
000001a0: 2653 32be 75ff 39be 12f3 523e 4af2 bbbd
000001b0: a72e 023f 3de6 4e3e 4946 17bd b606 893d
000001c0: facd 833e e5f8 943e 564e e13e 6670 b0bd
000001d0: 9653 62bd df36 143e c427 dabd e642 92ba
000001e0: b2cc 46bc 5ee6 ebbd b9c2 bd3a 2900 7f3c
000001f0: 56e0 bb3d 20eb 0abc a1db 353d 9de0 373d
00000200: 6a90 e5bc c7c4 bb3d e929 5f3c 05b8 1cbe
00000210: 238b 0b3e c3e5 ecbd 7a07 bb3e 3d4c d63a
00000220: 936f 633e f014 163d a7d4 b4bd d974 b73d
00000230: b5de 2bbe 48fd 153e 4085 dd3d 4635 563c
00000240: 57e1 6bbd 71e6 c03d a595 b4ba 92e2 733d
00000250: 53eb ec3c 3e88 09bd 81a2 1bbd 1911 d23d
00000260: 0b6b a03d 44cd 923d e590 7b3d 1156 a13e
00000270: bae5 ccbd a8f3 b4bd e592 fa3d 71df 06be
00000280: ec5f ab3d 78c2 8a3b 5f75 2abe 9366 413d
00000290: 34d3 a6bd 9906 483d 7a24 b43d cf90 22be
000002a0: 0941 e13d 5321 55bc 25a1 3dbe a8a8 a0bd
000002b0: 647c 483d dbcf f23d f3d9 f6bd d64b ba3d
000002c0: f88d 923d 5f97 8e3d 071e 26bd 6154 a83c
000002d0: ee53 93bc 44fa b73d 37ca aabd 7a5d f63c
000002e0: df27 143d 47ad 98bc 7f7e 9bbc 8cb3 2dbd
000002f0: 1828 82bd eaf1 08be dde2 33bd bdf1 1ebe
00000300: 0829 603d 30e8 0cbe 064a 7e3d 6967 2ebd
00000310: 03db 9cbc 8e81 2ebc d87a 643d 43f0 a13d
00000320: 3f3b 84bd d0db d63d affc b3be 5b27 aa3d
00000330: b02b 81bd 6e63 02bd c4ae d2bd 864f e73d
00000340: a230 b33d d047 ed3d bdea 753e 0bc3 d43d
00000350: 8179 8f3e 4791 4c3d 0bee 55bc 11a9 5a3d
00000360: c123 c23c ea37 f63d 62ed 5f3d 50a4 1f3c
00000370: 4d6c 9e3d ba9b 363d 4c98 63bd ed4b 303d
00000380: cb36 2c3e 42b6 9e3d a135 973d 47a3 73be
00000390: 3374 26bd 313b 813d 8b63 653e f1ad f63d
000003a0: 4cc8 533e a9f9 173e e085 59be b23c 053e
000003b0: 6223 04bf 129e 1cbe b396 ac3d ee2c d7bc
000003c0: f3ac 94be ab7a a5be 3e78 ffbe 2342 c63c
000003d0: 0efc 983d ee5e 40be 89a9 ec3d c02f 35bd
000003e0: 5d4b 373d 77e5 f93d ca69 b4bd 94c3 83bd
000003f0: 7ff4 f2bd 5f02 61bd 9b1d e5bb beea 07be
0.0022438895 -0.033172067 -0.043076083 0.07272568 -0.20093626 0.072598726 -0.43965387 -0.051171683
-0.21175829 -0.038889565 0.018397946 -0.04942061 0.1071677 -0.13914944 -0.07430443 0.029654905
-0.011210748 -0.069505505 0.019217076 -0.005473868 0.00388157 0.021212455 0.000176867 -0.13241637
-0.03611851 -0.049088802 -0.044801738 -0.4073028 0.05659062 0.049809687 -0.1076084 0.14148049
-0.039872542 -0.050998367 0.11786245 -0.049983095 0.04083248 -0.036870856 -0.018060388 0.22303653
-0.106933154 -0.063317895 0.23990323 0.059188537 -0.07882167 -0.10088436 0.112855025 -0.08120568
-0.054668084 -0.023191247 -0.0041570542 0.048979484 0.043438286 -0.04553493 0.05935726 -0.061121617
0.004588469 -0.03561312 -0.058614396 0.11014172 0.15438254 0.08344944 0.035088755 0.1510296
-0.019761015 0.106243186 -0.08126709 0.12357849 -0.0010721176 0.09177666 -0.038090136 -0.12977079
0.12604463 -0.046173267 0.35248882 -0.045373637 0.05178117 -0.049233362 0.074128136 -0.054588936
-0.058114517 -0.073029794 -0.26492116 -0.069816545 -0.34161562 -0.023217801 -0.030404508 -0.008824501
0.0030876556 -0.10648536 -0.018829878 0.0036874544 -0.04072661 0.01113943 -0.008390595 -0.008032784
-0.16221774 -0.084067576 -0.06848476 0.29368094 0.016265575 -0.010584335 -0.25095323 -0.114865325
-0.17414531 -0.18163855 0.20600536 -0.09177072 0.50852436 0.20205016 -0.036932264 0.06690733
0.25743085 0.2909614 0.44005078 -0.08615188 -0.055255495 0.14474057 -0.10652116 -0.0011158853
-0.012133764 -0.115185484 0.0014477588 0.015564003 0.09173648 -0.00847891 0.044398908 0.044891942
-0.028022964 0.09168392 0.013620832 -0.15304573 0.13627295 -0.11567261 0.36529142 0.0016349625
0.22210531 0.03664106 -0.08829623 0.08957834 -0.16784175 0.146474 0.10816431 0.013074225
-0.057587948 0.09418953 -0.0013777508 0.059542246 0.028920805 -0.033577196 -0.037996773 0.10257167
0.07832917 0.071680576 0.06141748 0.31510976 -0.10004754 -0.08835536 0.12235049 -0.13171174
0.08367905 0.0042346083 -0.16646336 0.047216963 -0.081457525 0.048834417 0.0879602 -0.15875553
0.109987326 -0.013008433 -0.18518503 -0.078446686 0.048946753 0.118560515 -0.12053289 0.09096496
0.07155985 0.069624655 -0.04055598 0.020548047 -0.017984357 0.08983281 -0.08339351 0.03007387
0.036170837 -0.018637313 -0.018981216 -0.042407557 -0.063553035 -0.13373533 -0.043917526 -0.15521903
0.05472663 -0.13760448 0.062082313 -0.04257909 -0.019147402 -0.010651005 0.055781215 0.079071544
-0.06456613 0.10491145 -0.3515372 0.08308288 -0.06307161 -0.031833105 -0.1028724 0.11294465
0.0874951 0.11585963 0.24015327 0.10388764 0.28022388 0.049943235 -0.013057242 0.05338389
0.02369869 0.120223835 0.054669745 0.009743765 0.077355005 0.044582106 -0.055565163 0.04304116
0.16817777 0.07749607 0.07383276 -0.23792754 -0.04063816 0.06310118 0.22401254 0.120448954
0.20681876 0.14841332 -0.21242476 0.13011435 -0.5161649 -0.15294674 0.08427181 -0.026266541
-0.290382 -0.3232015 -0.49896425 0.024201458 0.074699506 -0.18786213 0.11555774 -0.04423499
0.044749606 0.1220197 -0.0880924 -0.06433788 -0.1186304 -0.054933902 -0.0069920546 -0.13273141

action_model._discrete_distribution.branches.0.bias f4 [3]
00000000: f046 fabb b6ed 383d 9ad1 2cbe
-0.007637851 0.045148574 -0.16876832

action_model._discrete_distribution.branches.1.weight f4 [3, 128]
00000000: cb5c 6fbd 808f 47bd 9d3a 11be 4c19 f8bc
00000010: 960e f6bd f7bf b0bb 4fac 22be 4567 64bd
00000020: 8c54 7ebc 9359 053d 34b7 3bbd 7cee 0c3c
00000030: 6af4 c7bd 10ad 0cbd a4f9 c83b 17b3 ed3c
00000040: b593 8fbd 5552 133d 651c 633d 8a83 813c
00000050: 16ab 4d3d 8098 4a3c db6a bdbc 2a17 913d
00000060: 1966 233d 4d89 b83b bf69 043d dd0d 2a3d
00000070: b6d7 bebd 0b17 96bd d654 113d 830d 80be
00000080: 4ca9 2e3c ae11 aabd 81b4 5dbd 5a04 1c3d
00000090: fc9a 5bbc ede7 9cbb e533 8c3c 77b6 86bd
000000a0: 5103 abbb 9560 5bbc d2e4 7e3c 06b1 06be
000000b0: 3686 103c 593f 763d a805 88bd dfd3 16bc
000000c0: 62b9 5b3c f613 c83c 67db 3ebd 666a ca3c
000000d0: eeba cd3c d266 22bd b783 b1bd 1b4f c93c
000000e0: 4038 a53b 8dcd 60bd 6b4d a23c 3143 d33d
000000f0: d2a0 1e3d f285 6bbd 3737 80be e1f0 63be
00000100: 5839 6d3d f013 233c ec7a ae3c 5495 fe3d
00000110: c254 a8bd 4137 3b3d c8d0 2cbd b74b 13be
00000120: d3bb 123e d328 253d 55fa 263e 7e67 163d
00000130: 1284 58bd d4b1 e6bd d1f1 a7bd d433 c6bb
00000140: b876 353b e54f 163d 72f8 14bd ab00 523d
00000150: b6bd 693d c544 1f3d 9ffc a4bd 2990 543d
00000160: a402 b3bd 5a00 3bbd 8a06 ef3c c5ce 133d
00000170: 74d9 2c3c 82e4 643d cf5f 0fbd 8aeb 003d
00000180: 7944 07bd b830 733d c782 cf3c b3eb 363c
00000190: 320c 2a3d 1e65 0f3c 8f27 ef3c 294a 3b3d
000001a0: 4dab d43c 9370 53bd 48d6 0bbe 15ba 25bc
000001b0: 88d6 ecbd e681 93bd 633c c23b 1860 a33c
000001c0: 93d1 21be e78c be3b 2df6 6abe f9a1 6dbd
000001d0: d7d5 26bb fa73 5cbc 818e 3f3b 25b9 99bd
000001e0: b3a4 3f3d 23e5 7b3c 9480 32bd 787f 1cbd
000001f0: 193f 0abd 0d48 54bd c0cb a93d ddec 66bd
00000200: 233c 0dbc 29e2 2f3d 1371 b03d f193 133c
00000210: 6790 e6bd bab4 f3bd 951f 0fbe b80c 453e
00000220: 4071 8dbc ce85 ecbd 319d b73c 8d7f 553c
00000230: 04db 1a3e 05b5 0f3d 1086 07bd a0e9 2e3c
00000240: c92b 803d 7f2f 8a3b 52fd d7bd ad88 843c
00000250: 19a0 91bd e9f3 bebd 1e6c bdbc be57 c03e
00000260: b9fa b93c 6295 a7bc 8e9d a7bc f7a3 a0be
00000270: b9c5 613d 7b59 123d 0f31 ccbb cb83 ae3e
00000280: b54c 833c cf1f 3abd 8b54 8b3d 7136 64be
00000290: 31de b63d e87f 243c d044 133b bda4 083e
000002a0: 080c abbb 32f9 e73c 59df b23c 310a 853d
000002b0: 61a3 61be bc9d 04be b8b8 be3d eb9e 2bbd
000002c0: a6e7 333d 5490 8e3d 3145 433d e635 c4bd
000002d0: d26e 1e3c ee68 8c3c 2e45 a43d c2c4 6fbd
000002e0: 8a7a 423a 2c6a 533d 3606 0bbe 83ec dbbd
000002f0: e2f0 78be 79aa 1b3d ad7d 313e 1215 b23e
00000300: efc6 c2bd 7a0c 00bc b5c9 86bd 4749 43be
00000310: f05a 843d 7fd5 153e b74e 7e3d aa92 57bd
00000320: ab4c b6bd a25f 4fbc 68ce afbe 30d6 67bd
00000330: 80a6 ec3c 232d b33c cefb 9f3c 00de 0cbc
00000340: 27c3 6fbb 6c52 c0bb bd4a 2fbe 7254 cf3b
00000350: 803c ab3e 2dfa 8c3c 6b58 c63b 52ac af3c
00000360: 9b25 663d dd78 123e cbad fc3b 61c0 05be
00000370: d203 753d 57e1 8bbb bc2f 6d3c e2e7 bdbd
00000380: 13f8 bc3c a627 20bd e4c8 afbb 2c3f cb3b
00000390: b4c3 583d fece a73d ba6c 05bd c16f 0fbc
000003a0: 1fa5 00bd 22b9 92be 8e9a 113e 8169 78bc
000003b0: 7b88 473e da93 cbbc d65f 57bc 76fd 17be
000003c0: a2b4 133c 5a18 463d 4854 0ebe a5b8 4d3d
000003d0: 6eec 28bc 8926 003d 5c14 8f3b 9643 fd3c
000003e0: f05b 5cbe b4a7 4fbc f2c5 aa3d 5ac7 bf3c
000003f0: 79bf 5f3c 9019 ab3b ffe3 b13d b0bb 3f3c
-0.058438104 -0.048720837 -0.14182515 -0.0302855 -0.12014501 -0.0053939777 -0.15886043 -0.055762548
-0.015523087 0.032556128 -0.045829013 0.008601781 -0.09763415 -0.034344733 0.006133275 0.02901606
-0.07010595 0.03596719 0.055447 0.015809793 0.05021199 0.01236546 -0.023122242 0.07084496
0.03989229 0.005631602 0.03232741 0.041517127 -0.09318487 -0.07328614 0.035481296 -0.2501031
0.010660481 -0.083041534 -0.05412722 0.038090087 -0.01340365 -0.00478839 0.017114589 -0.06577771
-0.005218901 -0.013389726 0.015557485 -0.13153467 0.008821061 0.060119007 -0.06641704 -0.009205787
0.013410898 0.02442358 -0.046595957 0.024708938 0.02511355 -0.03964884 -0.08667701 0.024573853
0.005042106 -0.05488353 0.019812306 0.1031555 0.03872759 -0.057500787 -0.25042126 -0.22259857
0.057916015 0.009953484 0.021298848 0.12430826 -0.08219291 0.04570699 -0.042191297 -0.14384352
0.14329462 0.040322136 0.16306432 0.03671979 -0.052860327 -0.11264387 -0.0820042 -0.006048659
0.002768917 0.036697287 -0.03636975 0.05127017 0.057065688 0.038883943 -0.08055996 0.051895294
-0.08740738 -0.045654632 0.029177923 0.036085863 0.010549892 0.055881985 -0.03500348 0.031474628
-0.033024285 0.059372634 0.025330914 0.0111645935 0.041515537 0.008752136 0.029193668 0.04572502
0.025960589 -0.05162103 -0.1365596 -0.010115166 -0.11564356 -0.072025105 0.005927609 0.019943282
-0.15802602 0.0058151367 -0.22945471 -0.058015797 -0.0025457048 -0.013455385 0.0029229226 -0.07506017
0.04678793 0.015374455 -0.043579653 -0.0382075 -0.03375158 -0.051826525 0.08290815 -0.056378234
-0.008620295 0.042940293 0.08615317 0.00900744 -0.11258011 -0.11899705 -0.13976891 0.19243133
-0.017265916 -0.11548959 0.022413822 0.013030899 0.1512261 0.035084743 -0.033086836 0.010675818
0.06258351 0.0042170878 -0.10546364 0.016178453 -0.07110614 -0.09323866 -0.023122843 0.37566942
0.022702562 -0.020456973 -0.02046087 -0.31375095 0.055120204 0.035729866 -0.006231434 0.34084925
0.016027788 -0.04544049 0.06803235 -0.22286393 0.089290984 0.010040261 0.0022471435 0.13344093
-0.00521994 0.028317068 0.021835016 0.064960845 -0.2203498 -0.12950796 0.09312576 -0.041899603
0.04392209 0.06961122 0.047673408 -0.09580593 0.009669976 0.017139878 0.080210075 -0.058537252
0.00074187724 0.051614925 -0.13576588 -0.107384704 -0.2431064 0.038004372 0.17333098 0.347817
-0.095106 -0.007815475 -0.06581441 -0.19070922 0.064626575 0.14632224 0.062086787 -0.052630104
-0.08901342 -0.012657078 -0.34337163 -0.05660075 0.028887987 0.021872109 0.01952925 -0.008597851
-0.0036584826 -0.0058692005 -0.17118354 0.0063272053 0.33444595 0.017209137 0.0060530207 0.021444473
0.056188207 0.14303918 0.0077111474 -0.13061668 0.059818096 -0.004268806 0.014476713 -0.09272744
0.02306751 -0.03910031 -0.005364524 0.006202599 0.052921012 0.081937775 -0.032574393 -0.008754672
-0.03140747 -0.2865687 0.14219114 -0.015161873 0.19485657 -0.024850775 -0.013145408 -0.14842781
0.009015234 0.048363067 -0.13899338 0.05022492 -0.0103102755 0.03128675 0.0043664407 0.030916017
-0.21519446 -0.012674261 0.08338536 0.023410488 0.0136564905 0.005221553 0.08686065 0.011702463

action_model._discrete_distribution.branches.1.bias f4 [3]
00000000: 8e88 203d 1dcf a3bc b289 69bd
0.03919273 -0.01999622 -0.057016082
