results/ppo/BotControllerAgent/BotControllerAgent-65499963.onnx (onnx, 384082 bytes, 9 tensors)

discrete_act_size_vector f4 [1, 2]
0	0x40400000	3.0
1	0x40400000	3.0

network_body._body_endoder.seq_layers.0.weight f4 [256, 104]
0	0x3e3a4483	0.18190198
1	0x3d586f0d	0.05284028
2	0x3ec53faf	0.3852515
3	0x3eef74c7	0.46768782
4	0xbdf05bca	-0.117362574
5	0x3d3f13bf	0.04664969
6	0xbe801c03	-0.2502137
7	0x3f1b0863	0.6055967
8	0x3e989d26	0.29807395
9	0x3c825bb3	0.015912866
10	0xbf9c8bbe	-1.2230146
11	0xbf66aa19	-0.901033
12	0x3e05c6a2	0.13064054
13	0x3d6ede43	0.058317434
14	0xbeaf26f9	-0.3420942
15	0x3e8b9625	0.2726299
16	0xbec57fc3	-0.38574037
17	0x3e46045b	0.19337599
18	0xbdc34e30	-0.095363975
19	0xbe0b3a61	-0.13596489
20	0x3eb32126	0.34986228
21	0x3c6cef32	0.0144613255
22	0xbe43acd1	-0.19108893
23	0x3f1b0aae	0.6056317
24	0xbdbcdd6a	-0.09221919
25	0xbd8aa18f	-0.06769096
26	0xbd73d9dc	-0.05953394
27	0x3e9f7cb4	0.31149828
28	0xbe5684fc	-0.20949167
29	0x3f02074e	0.50792396
30	0x3f00c7ec	0.50305057
31	0xbf0cefd4	-0.5505345
32	0x3e32cd7f	0.17461203
33	0x3e29d5e0	0.16585493
34	0xbf24e4e7	-0.6441178
35	0x3ee47f11	0.44628194
36	0x3ecdde8b	0.4020885
37	0x3d30c76e	0.04315894
38	0xbf3351e1	-0.7004681
39	0x3e465dc7	0.1937171
40	0xbf1aaace	-0.6041688
41	0xbc9b5548	-0.018961564
42	0xbe94662d	-0.28984204
43	0x3e947214	0.28993285
44	0xbd9d6fd2	-0.07687344
45	0xbe614312	-0.21998242
46	0xbe0a8da4	-0.13530594
47	0xbdade920	-0.08491731
48	0xbe5c5b56	-0.21519217
49	0xbcf1c474	-0.029512621
50	0x3fba5363	1.4556698
51	0xbe77d172	-0.24200991
52	0xbda55e2f	-0.08074605
53	0xbd1f2ceb	-0.038861196
54	0xbea04100	-0.3129959
55	0x3eab37fd	0.33441153
56	0xbd709789	-0.058738265
57	0x3e9c5a9b	0.30537876
58	0x3ef78437	0.4834306
59	0x3f0c6b5e	0.5485133
60	0xbe340e64	-0.17583615
61	0xbeb69108	-0.35657525
62	0xbe9bae7a	-0.30406553
63	0x3e8eb63b	0.27873406
64	0xbeb81d65	-0.35959926
65	0x3e7fba01	0.24973299
66	0xbe86133e	-0.26186556
67	0x3e48cbc7	0.19608985
68	0x3dc68124	0.096926
69	0x3cc0d8ff	0.023540972
70	0x3f3f4baa	0.7472483
71	0x3dd7d569	0.10538752
72	0x3e41ea88	0.18937123
73	0xbd230de6	-0.039808176
74	0xbc594c02	-0.013262751
75	0x3e4bea89	0.19913687
76	0x3ea2d5e1	0.31803802
77	0xbe609536	-0.2193192
78	0xbd820c02	-0.063499466
79	0x3ede4e3e	0.4341907
80	0xbee0239e	-0.43777174
81	0xbf2826cd	-0.65684205
82	0xbebfe761	-0.37481216
83	0x3e74be67	0.23900758
84	0x3d001e76	0.03127905
85	0xbc68ab31	-0.014200971
86	0xbe189c90	-0.14903474
87	0x3e3f33f8	0.18672168
88	0xbe18168d	-0.14852352
89	0x3e0b55aa	0.13606897
90	0x3f5aa1ff	0.85403436
91	0x3e35b6f7	0.17745577
92	0x3e90baf3	0.2826763
93	0xbe07f71a	-0.13277856
94	0xbda5b848	-0.080917895
95	0xbea02296	-0.31276387
96	0x3dfa8b29	0.12233574
97	0xbe048285	-0.12940414
98	0xbdd31c8d	-0.1030818
99	0x3e524fa3	0.20538191
100	0xbde677f2	-0.112533465
101	0x3eaf0658	0.34184527
102	0xbf49bdcd	-0.7880524
103	0x3d82cdf7	0.06386941
104	0x3d016255	0.031587917
105	0xbf08d619	-0.5345169
106	0x3ea08293	0.3134962
107	0xbedae42c	-0.42752206
108	0xbebf19ff	-0.3732452
109	0x3ee976d1	0.45598462
110	0xbdfd7400	-0.12375641
111	0xbf161265	-0.5862182
112	0xbe4b7b44	-0.19871241
113	0x3eb19ecb	0.34691462
114	0x3eaf5f19	0.3425224
115	0xbeebba6f	-0.46040675
116	0x3e27144d	0.16316338
117	0xbf0afe3d	-0.54294187
118	0xbef3c1fd	-0.4760894
119	0x3d040b3b	0.032237273
120	0xbe9e25a7	-0.308881
121	0x3ec0e8cb	0.37677607
122	0xbf180b01	-0.5939179
123	0xbbe6748b	-0.007032936
124	0x3f2eca57	0.68277496
125	0x3e80f4cb	0.25186762
126	0x3ed34a0a	0.41267425
127	0xbe37184d	-0.17880364
128	0xbe1d8460	-0.15382528
129	0x3f376bf6	0.7164911
130	0xbe196973	-0.14981632
131	0x3f155c6f	0.5834417
132	0xbddc8cb0	-0.107690215
133	0xbd520aec	-0.051279947
134	0x3f513ec7	0.81736416
135	0x3d94c082	0.072632805
136	0x3e98fda3	0.2988101
137	0xbead50ba	-0.33850652
138	0xbe455e77	-0.19274317
139	0x3e69092c	0.22757405
140	0xbf020120	-0.50782967
141	0x3e8a95ce	0.27067417
142	0xbeed3800	-0.46331787
143	0xbe1e6797	-0.15469204
144	0xbe96a361	-0.29421523
145	0x3f2c23de	0.6724223
146	0x3e4c4753	0.19949083
147	0x3d9558ab	0.07292303
148	0xbe71ebd8	-0.23625124
149	0x3eb370a0	0.35046864
150	0xbebbcec5	-0.3668119
151	0x3ead6288	0.33864236
152	0xbe19da09	-0.1502458
153	0x3df31016	0.118683025
154	0xbe070384	-0.13184935
155	0xbf11130c	-0.5666969
156	0xbe75f0eb	-0.24017684
157	0xbd8ef47c	-0.069802254
158	0x3e2092f7	0.15681063
159	0x3e358b49	0.17728914
160	0x3dcab907	0.098985724
161	0xbd4d35af	-0.050100025
162	0x3e44fb3e	0.19236466
163	0xbecd41fa	-0.400894
164	0x3f4fc54d	0.8116043
165	0x3ef15dac	0.47141778
166	0x3ec85626	0.39128226
167	0x3e8faaec	0.2806009
168	0xbecceaa0	-0.40022755
169	0x3d09e089	0.0336614
170	0xbeb5ab3d	-0.35482207
171	0x3edce8f0	0.43146467
172	0x3e4b08c2	0.1982756
173	0x3daba674	0.08381358
174	0xbe57d5c7	-0.21077643
175	0x3d593c19	0.05303583
176	0xbe88f9b9	-0.26753023
177	0x3e219ba6	0.15782031
178	0x3c9ea100	0.01936388
179	0xbe93fc5f	-0.2890348
180	0x3cb2120c	0.021737121
181	0x3dba3e6f	0.090939395
182	0x3eaeb439	0.34121874
183	0xbf1e30c4	-0.6179316
184	0x3e29c4c9	0.16578974
185	0x3edc19b7	0.4298837
186	0x3f037b95	0.51360446
187	0x3e742cac	0.23845166
188	0xbdb43b14	-0.08800331
189	0xbe9b5a3d	-0.30342284
190	0xbea661ea	-0.32496578
191	0x3e141485	0.14460953
192	0x3ea3d32a	0.31997043
193	0xbc34d167	-0.0110362535
194	0x3e0aca72	0.1355379
195	0xbe4768e0	-0.194736
196	0xbe10a850	-0.14126706
197	0x3e2088f5	0.15677245
198	0xbda74a38	-0.08168453
199	0xbe8c6499	-0.274205
200	0xbcde3ffe	-0.027130123
201	0xbe013414	-0.12617522
202	0x3f2c2c1e	0.6725482
203	0xbe88ac5b	-0.26693997
204	0xbd73c0c0	-0.059509993
205	0xbed1a3e3	-0.40945348
206	0x3ea687fe	0.3252563
207	0xbf118e2b	-0.56857556
208	0xbdbfbb4f	-0.09361898
209	0x3e92f7c6	0.2870466
210	0x3ea3598e	0.31904262
211	0x3eb6bbbc	0.35690105
212	0x3d2fe8c9	0.04294661
213	0xbcb158f1	-0.021648856
214	0x3cda5b16	0.026654761
215	0x3eb5c022	0.35498148
216	0x3da20e5c	0.07912895
217	0xbe7defd2	-0.24798515
218	0xbdee1646	-0.11625342
219	0xbeda8c5d	-0.42685214
220	0xbc345920	-0.011007577
221	0x3f0a1a08	0.5394597
222	0xbef04efb	-0.46935257
223	0x3de9b493	0.11411395
224	0x3d9a5c1d	0.075371005
225	0x3d83b7f9	0.064315744
226	0x3e8ca2cd	0.27467957
227	0x3d81e286	0.06342034
228	0x3e331363	0.17487864
229	0x3d9f2c8c	0.077721685
230	0x3eb14d5d	0.34629336
231	0x3ebcf841	0.36908153
232	0x3c55749c	0.01302829
233	0x3e06aba7	0.13151418
234	0xbcbe48f2	-0.023228142
235	0x3ee520f8	0.44751716
236	0x3e212bd6	0.15739378
237	0xbe0294aa	-0.12752023
238	0x3e3e9283	0.18610577
239	0xbc94998d	-0.018139625
240	0x3e7a3fe8	0.24438441
241	0x3dafbae4	0.085805684
242	0xbede4435	-0.43411413
243	0xbe906a2b	-0.28206
244	0x3d9c8bee	0.07643877
245	0xbe2fb11d	-0.17157407
246	0x3df534f9	0.11972994
247	0xbd672a96	-0.056437097
248	0xbe431d23	-0.19054084
249	0xbe82ef12	-0.2557302
250	0x39af3e04	0.00033424806
251	0x3e236d9b	0.1595978
252	0xbe0c7568	-0.13716662
253	0x3e7bf9f3	0.24607067
254	0x3c275818	0.010213874
255	0xbb979700	-0.004626155

network_body._body_endoder.seq_layers.0.bias f4 [256]
0	0xbcc69c31	-0.0242444
1	0x3db96172	0.09051789
2	0x3d43a0cf	0.04776078
3	0x3e297f07	0.16552363
4	0xbc393d32	-0.011306094
5	0x3e57855e	0.2104697
6	0x3d9fe31d	0.0780699
7	0x3d14478e	0.036201052
8	0xbd72ecf5	-0.05930801
9	0xbde1afc8	-0.11019856
10	0x3e119cdf	0.14219998
11	0xbd8200ee	-0.063478336
12	0xbe3c48db	-0.18387167
13	0x3d713395	0.058887083
14	0xbe0f0a60	-0.13968801
15	0x3cfd201c	0.0308991
16	0xbdc5916d	-0.096468784
17	0x3ad112dc	0.0015951055
18	0xbd1c4efd	-0.038161267
19	0xbe0e177f	-0.1387615
20	0xbe2d1584	-0.16902739
21	0x3d7b6f62	0.06138552
22	0xbe0d6656	-0.1380857
23	0x3bdad0b6	0.0066777123
24	0xbcc9c46c	-0.024629794
25	0xbcded35e	-0.027200397
26	0xbdd73bb8	-0.10509437
27	0xbdde762f	-0.108623855
28	0x3b251f60	0.0025195703
29	0xbd2c512d	-0.042069603
30	0x3da3cbc0	0.079978466
31	0xbc65c7f6	-0.014024725
32	0xbd82ab8e	-0.06380378
33	0xbd8c9c24	-0.06865719
34	0x3d4ed873	0.05049939
35	0x3eb619e7	0.35566637
36	0x3e455b2b	0.19273059
37	0xbd8ce09a	-0.06878777
38	0xbe1976de	-0.1498675
39	0xbd8ae13e	-0.06781243
40	0x3b9a8a5f	0.004716202
41	0x3d92ba0a	0.071643904
42	0xbdde4715	-0.108534016
43	0x3ec75641	0.38932994
44	0xbad5dc59	-0.0016316279
45	0xbde10a64	-0.1098831
46	0x3e28bbc3	0.16477875
47	0xbdbbcb78	-0.09169668
48	0x3d905502	0.07047464
49	0xbe237a35	-0.15964587
50	0xbd7985ed	-0.060918737
51	0xbe025219	-0.1272663
52	0xbd1f6d0c	-0.038922355
53	0x3d7b66e6	0.06137743
54	0xbdd1a765	-0.10237006
55	0x3e2dddca	0.16979137
56	0xbde83e91	-0.113400586
57	0xbd9b0356	-0.07568996
58	0xbda79661	-0.081829794
59	0x3cd43ffe	0.02590942
60	0x3f035c5d	0.5131281
61	0xbdd202a9	-0.10254414
62	0xbcb523b3	-0.02211175
63	0xbd7cf4c3	-0.06175686
64	0xbd574619	-0.052557085
65	0xbd05d810	-0.032676756
66	0x3e51fe56	0.20507178
67	0x3e8002ae	0.25002044
68	0xbc32149b	-0.010869171
69	0xbe36e66d	-0.17861338
70	0xbcb7d020	-0.022438109
71	0xbd8efab6	-0.06981413
72	0xba7a36b8	-0.0009544897
73	0xbe037bac	-0.12840146
74	0xbd58c36c	-0.052920744
75	0x3cd396b3	0.025828695
76	0xbdbbd8cd	-0.09172211
77	0x3d9b24d5	0.075753845
78	0x3dce3e11	0.10070432
79	0xbd963e40	-0.07336092
80	0xbdc2d3fb	-0.09513088
81	0x3d9c6587	0.07636552
82	0x3e16cd0c	0.14726657
83	0xbc5db1ee	-0.013531191
84	0x3e06f448	0.13179123
85	0x3da1086e	0.07862936
86	0xbdefa6dc	-0.11701748
87	0xbd8ad743	-0.06779339
88	0xbe534b37	-0.20634161
89	0x3d0f159f	0.03493273
90	0x3df18cff	0.11794471
91	0x3e58d78f	0.21175979
92	0xbdbdf74c	-0.09275684
93	0xbe155a0d	-0.14585133
94	0xbde4b12f	-0.111666076
95	0xbe3eb5ea	-0.18624082
96	0x3ccdcefc	0.025123112
97	0xbe01fed4	-0.12694865
98	0x3db6a49e	0.08918117
99	0x3cc076c4	0.023494132
100	0x3c5d6883	0.013513687
101	0xbe2c4662	-0.16823724
102	0xbe287f68	-0.16454852
103	0xbe28f918	-0.16501272
104	0x3b87dc60	0.004146144
105	0x3cfcb3f9	0.030847536
106	0x3d43c7b9	0.047797892
107	0x3dda4150	0.106569886
108	0xbdd8f244	-0.105930835
109	0x3df68f32	0.12039031
110	0xbd4dd85a	-0.050255157
111	0xbd7c48c7	-0.061592843
112	0xbd04c896	-0.032417856
113	0x3c95c617	0.018282933
114	0x3ca81143	0.020516044
115	0xbd1eb2ba	-0.038744666
116	0xbd2fa672	-0.042883344
117	0x3d4c0768	0.04981175
118	0x3d06a5e1	0.03287304
119	0x3cc386f0	0.023868054
120	0xbd42129f	-0.04738104
121	0x3db90f53	0.09036126
122	0xbaf9e16f	-0.0019064377
123	0xbd9075f3	-0.07053747
124	0x3ea008d4	0.31256735
125	0x3c1d13a0	0.0095871985
126	0xbc1c053d	-0.009522733
127	0x3dd42626	0.10358839
128	0x3e0a4421	0.13502552
129	0xbdaeef01	-0.0854168
130	0xbdadbc5f	-0.084831946
131	0xbd812365	-0.06305579
132	0xbe04b64f	-0.1296017
133	0x3da45147	0.08023315
134	0x3dbdc94b	0.09266909
135	0xbd34ebbc	-0.044170126
136	0x3d8cf6a3	0.0688298
137	0xbb4ba2f0	-0.003107246
138	0xba27aa46	-0.0006395917
139	0x3e1903ed	0.14942904
140	0x3dbfa24b	0.09357127
141	0x3dbb2b4a	0.09139116
142	0xbd544b1a	-0.051829435
143	0x3d2ea610	0.04263884
144	0x3d095381	0.0335269
145	0x3d5d309f	0.054001447
146	0xbdf368c9	-0.118852206
147	0xbdc58f1b	-0.09646436
148	0x3e0f4a68	0.13993227
149	0x3ec58470	0.38577604
150	0x3ddab75d	0.10679505
151	0xbddd5f31	-0.10809172
152	0x3d95828f	0.07300293
153	0x3e0b84c8	0.13624871
154	0xbd61e3c5	-0.05514886
155	0xbe188f58	-0.14898431
156	0xbb6aabe0	-0.0035808012
157	0x3e04f3c5	0.12983616
158	0xbd2f1a05	-0.042749424
159	0xbd369602	-0.044576652
160	0x3d14a79e	0.036292665
161	0xbd17f433	-0.03709812
162	0x3e3118f1	0.1729467
163	0xbd8a6178	-0.06756872
164	0x3dd8dc04	0.1058884
165	0xbc8f749a	-0.017511655
166	0x3d8b6d47	0.068079524
167	0x3e63d9c3	0.22251038
168	0xbe1fb8b5	-0.15597804
169	0xbe303a3b	-0.17209713
170	0x3d5155f9	0.05110738
171	0xbdc47a2d	-0.09593616
172	0x3c93e599	0.018053817
173	0x3c048a06	0.008089548
174	0xbe523f91	-0.20532061
175	0x3dbc19b8	0.09184593
176	0x3dfb7fcc	0.12280235
177	0xbc980efd	-0.018561834
178	0xbde33b83	-0.11095335
179	0x3da0d4f4	0.078531176
180	0x3e258567	0.1616417
181	0x3d04314c	0.032273576
182	0xbe0ef9ac	-0.1396243
183	0x3e971d04	0.29514325
184	0x3d9b4695	0.07581822
185	0x3e0b4ca5	0.13603456
186	0xbda933cc	-0.082618326
187	0x3cf39a92	0.02973679
188	0xbdcd00e4	-0.100099355
189	0xbccc0f61	-0.024909677
190	0xbdcd484f	-0.100235574
191	0x3d94e592	0.072703496
192	0x3e383f62	0.17992929
193	0xbdde915e	-0.1086757
194	0x3e5aae8a	0.21355644
195	0x3c5f8460	0.0136424005
196	0x3d999839	0.07499737
197	0xbd9341e9	-0.07190306
198	0xbe429423	-0.19001822
199	0x3da47c7f	0.08031558
200	0xbd686cbe	-0.05674433
201	0x3cdabd2c	0.026701532
202	0x3e566db5	0.20940287
203	0x3e91f4b0	0.28506994
204	0x3d993fb7	0.07482856
205	0xbdbe9b02	-0.09306909
206	0xbd80e1d9	-0.06293077
207	0xbe07d214	-0.13263732
208	0x3d3333e3	0.043750655
209	0xbd24356b	-0.040090006
210	0xbd6208b8	-0.055184096
211	0xbd060ab3	-0.032725047
212	0xbdd7363d	-0.10508392
213	0x3da2b4ce	0.07944642
214	0xbcd4de22	-0.025984827
215	0x3d9b5376	0.07584278
216	0x3e917a60	0.28413677
217	0x3e18438f	0.14869522
218	0xbda43b12	-0.08019079
219	0x3d60d41c	0.054889783
220	0xbe153cc7	-0.14573966
221	0x3e4cf549	0.20015444
222	0xbcbcb4b1	-0.02303538
223	0xbd738f5f	-0.0594629
224	0xbe11ad1e	-0.14226195
225	0xbd747572	-0.059682317
226	0xbe16053f	-0.14650439
227	0x3dd0ceac	0.101956695
228	0x3d47a730	0.048743427
229	0xbcbe52b3	-0.023232793
230	0x3d1ac5be	0.037786238
231	0x3d50bf70	0.05096382
232	0xbdc32b90	-0.09529793
233	0x3e0b59de	0.136085
234	0x3cdb5ad5	0.02677671
235	0x3e5cd5a7	0.21565877
236	0x3c97785e	0.018490013
237	0xbe23d9c8	-0.16001046
238	0xbe1c9cea	-0.15294233
239	0xbdc6818e	-0.09692679
240	0xbdd91101	-0.10598946
241	0x3c1848c7	0.009294695
242	0x3dd99167	0.106234364
243	0xbdc89821	-0.09794641
244	0xbb5a455e	-0.0033305506
245	0x3e2b1c89	0.16710104
246	0x3de59dc4	0.11211732
247	0x3d2c57da	0.04207597
248	0xbcee1e0c	-0.029067062
249	0x3d079359	0.033099506
250	0xbd23dad8	-0.040003628
251	0xbd8bea3b	-0.06831785
252	0xbd13f4c4	-0.0361221
253	0x3c2e862a	0.010652104
254	0x3e3dd5df	0.18538617
255	0x3dd1be53	0.102413796

network_body._body_endoder.seq_layers.2.weight f4 [256, 256]
0	0x3e8f9f91	0.28051427
1	0xbc81f05e	-0.015861686
2	0xbb4ee4a2	-0.0031569381
3	0xbe517d14	-0.2045787
4	0x3e85c757	0.26128647
5	0x3dbd189c	0.092332095
6	0x3e08ad78	0.13347423
7	0x3f0709cd	0.5274933
8	0x3edce77e	0.43145365
9	0x3e210067	0.1572281
10	0x3e727054	0.23675662
11	0xbcfc0dc4	-0.030768283
12	0x3e7dea24	0.24796349
13	0x3e7c1126	0.24615917
14	0xbc99b0c4	-0.018761046
15	0x3d71eadf	0.05906188
16	0x3cfd5aa8	0.030927017
17	0x3e8dcb5e	0.2769422
18	0x3ef754e1	0.48306945
19	0x3e5af876	0.21383843
20	0xbc62b697	-0.013837478
21	0xbe0700b6	-0.13183865
22	0x3c153fb6	0.009109428
23	0x3d6099ae	0.05483406
24	0x3d8a9589	0.06766803
25	0xbec84093	-0.39111766
26	0x3eba9cd3	0.36447772
27	0xbe39dc37	-0.18150412
28	0x3d7f869a	0.062384225
29	0xbded9450	-0.11600554
30	0x3e0ab112	0.1354411
31	0xbf18f0d6	-0.59742486
32	0x3b3aa8b6	0.0028481907
33	0x3e91f0d8	0.28504062
34	0xbf149109	-0.58033806
35	0xbe702251	-0.2345059
36	0xbece26e5	-0.4026405
37	0xbd4547d6	-0.04816421
38	0xbcc112ee	-0.023568597
39	0xbf0273a3	-0.509577
40	0xbd2058e7	-0.039147284
41	0x3cc0079a	0.023441125
42	0x3d1d8091	0.03845269
43	0xbf128ad5	-0.5724309
44	0xbe7d5aa8	-0.24741614
45	0x3efb72ed	0.4911112
46	0xbe976728	-0.2957089
47	0x3e96d0ef	0.2945628
48	0xbe203832	-0.15646437
49	0x3e823914	0.25434172
50	0x3e0f04a7	0.13966618
51	0xbda3489f	-0.07972836
52	0x3d2e8178	0.04260394
53	0x3e81eac9	0.2537444
54	0x3ea4b757	0.32171127
55	0xbdb2a620	-0.08723092
56	0x3e62dba5	0.221541
57	0x3ec45ab6	0.38350457
58	0xbd65db62	-0.056117423
59	0x3df54c2c	0.11977419
60	0xbdac35c6	-0.08408694
61	0x3e121340	0.14265156
62	0xbea5ab3f	-0.32357213
63	0x3ea8eae2	0.329917
64	0x3e7a48c2	0.24441817
65	0xbef2f76a	-0.47454387
66	0xbe75dd89	-0.2401029
67	0x3c393428	0.011303939
68	0x3de90c58	0.113793075
69	0x3e9bf6ab	0.3046163
70	0x3f319604	0.6936953
71	0x3ec6a9d3	0.3880144
72	0x3dd4bb2b	0.10387262
73	0x3d85c29a	0.06531258
74	0xbe8d6b99	-0.27621153
75	0x3e7c965a	0.2466673
76	0x3ea481b8	0.32130218
77	0x3e7e1694	0.248133
78	0xbdadd82d	-0.08488498
79	0xbd21361d	-0.039358247
80	0x3d1edf8f	0.03878742
81	0x3d00131a	0.031268217
82	0x3dced7d9	0.100997634
83	0xbe9b7fc8	-0.30370927
84	0xbf2941a0	-0.6611576
85	0xbec7918b	-0.38978228
86	0xbc8cd958	-0.017193481
87	0xbf16d3d2	-0.5891696
88	0x3f460fd0	0.7736788
89	0xbd81f815	-0.06346146
90	0x3e2f40cb	0.1711456
91	0x3e871316	0.2638175
92	0x3e5a8e69	0.21343388
93	0x3efb1beb	0.49044737
94	0xbea0cfa1	-0.31408408
95	0x3f09dc9c	0.5385225
96	0xbcebbfba	-0.028777946
97	0xbe0755b2	-0.13216284
98	0xbea0a7f6	-0.31378144
99	0xbeafebf6	-0.3435971
100	0xbf007d01	-0.5019074
101	0xbca65787	-0.020305408
102	0x3c83ab4d	0.016072894
103	0xbe84ae87	-0.25914404
104	0x3ebb2886	0.36554354
105	0x3e6a42f6	0.22877106
106	0x3e2b07ff	0.16702269
107	0x3ebe11de	0.37123007
108	0x3dcd5bad	0.100272514
109	0xbdc8a6bf	-0.09797429
110	0xbe62b7cd	-0.22140427
111	0x3e54a5eb	0.20766418
112	0x3e8c6679	0.2742193
113	0x3eeb26c9	0.45928028
114	0x3d8c5e72	0.068539515
115	0x3df57703	0.1198559
116	0x3ea0c35c	0.31399047
117	0x3dcbfbdc	0.09960148
118	0x3e8f5256	0.27992505
119	0xbd99f1e2	-0.075168386
120	0x3ef0eef0	0.47057295
121	0xbc774320	-0.015091687
122	0x3f164e80	0.5871353
123	0x3ed4643a	0.41482717
124	0x3d4199e3	0.0472659
125	0xbe5e2c69	-0.21696629
126	0x3e131088	0.14361775
127	0xbc92d414	-0.017923392
128	0x3e4b95b3	0.19881324
129	0x3d808b18	0.0627653
130	0x3e98d315	0.29848543
131	0xbf006a29	-0.5016199
132	0xbe125f09	-0.14294066
133	0x3e35ac83	0.17741589
134	0x3e82fbf0	0.25582838
135	0x3e992b08	0.29915643
136	0xbdcf64a5	-0.10126618
137	0x3e74e1fa	0.23914328
138	0x3e95718b	0.2918819
139	0xbf12ab2c	-0.5729244
140	0x3de5013c	0.11181876
141	0x3ea32fac	0.31872308
142	0x3e4dd0c2	0.20099166
143	0xbf39609f	-0.7241306
144	0x3d3b25be	0.04569029
145	0xbe1b6aa6	-0.15177402
146	0xbdfd1c69	-0.123589344
147	0xbcb5cf35	-0.02219353
148	0xbe573876	-0.21017632
149	0xbf1c6dfc	-0.6110532
150	0xbe959450	-0.29214716
151	0x3d8c60fa	0.06854434
152	0x3d2d52d6	0.042315327
153	0xbd8199cb	-0.06328162
154	0x3e03819b	0.1284241
155	0xbe5d4648	-0.21608841
156	0xbd841d52	-0.06450905
157	0xbd959811	-0.07304395
158	0x3e9d6373	0.30739936
159	0xbdb73f69	-0.089476414
160	0xbd81762d	-0.06321368
161	0x3e464ac2	0.19364455
162	0x3edb71ec	0.42860353
163	0x3c8b5fac	0.017013393
164	0x3ea0d542	0.31412703
165	0xbdf37680	-0.118878365
166	0x3f044dc0	0.5168114
167	0x3e964443	0.29348955
168	0xbecd3efc	-0.40087116
169	0x3e1fd85b	0.15609877
170	0x3f03262d	0.51230127
171	0x3ebb8aef	0.36629435
172	0x3ec0f087	0.37683508
173	0x3d3f325d	0.04667889
174	0xbdcbc6b5	-0.0995001
175	0xbcfeb329	-0.03109129
176	0xbd98cb2d	-0.07460628
177	0xbf2a6895	-0.6656583
178	0x3e16849b	0.14699022
179	0x3ea21874	0.3165928
180	0x3e6bce86	0.23028001
181	0x3daa1418	0.08304614
182	0xbd845612	-0.06461729
183	0x3e32d4d8	0.17464006
184	0x3e09722e	0.13422462
185	0xbd0c2dc4	-0.034223333
186	0xbe494680	-0.196558
187	0x3e3621f8	0.17786396
188	0xbc19bd50	-0.0093835145
189	0xbe4caf70	-0.19988799
190	0x3ea4e521	0.3220606
191	0xbf0321e1	-0.5122357
192	0xbedb7358	-0.42861438
193	0x3e24f121	0.16107608
194	0xbbc71a1e	-0.0060761115
195	0x3d072e85	0.03300335
196	0xbf38dd04	-0.72212243
197	0x3e12926f	0.14313672
198	0x3d3fadc0	0.04679656
199	0xbeb65ce8	-0.35617757
200	0x3db523e0	0.08844733
201	0x3df9bb95	0.121939816
202	0xbf1876d2	-0.59556305
203	0xbeee0025	-0.46484485
204	0xbec99e2a	-0.39378482
205	0x3e91faf9	0.2851179
206	0x3d963421	0.073341615
207	0x3e4bf034	0.19915849
208	0xbdede351	-0.11615623
209	0x3e8a0f6b	0.26964888
210	0x3ec6bd57	0.3881633
211	0xb9f2f41f	-0.0004633972
212	0x3e8dac3a	0.2767046
213	0xbdc3f5b6	-0.0956835
214	0xbe5a8f97	-0.21343838
215	0xbeee1520	-0.46500492
216	0xbce94348	-0.028474465
217	0xbeab7643	-0.33488664
218	0x3d9f380c	0.07774362
219	0xbebad2ba	-0.36488897
220	0x3d394174	0.045228437
221	0x3d83366f	0.06406867
222	0x3e8e6703	0.27812967
223	0x3c1c3519	0.009534144
224	0x3efd1887	0.49432775
225	0x3e2a3c89	0.16624655
226	0x3dae7a2b	0.085193954
227	0x3d597576	0.053090535
228	0x3ee0409f	0.43799302
229	0x3e0bef1a	0.13665429
230	0xbe6f0f46	-0.2334567
231	0xbf0623e8	-0.5239854
232	0x3edff253	0.43739566
233	0xbde34804	-0.1109772
234	0x3ecaae44	0.3958608
235	0x3e9119a4	0.28339875
236	0x3e85851d	0.2607812
237	0x3eaaf1b6	0.33387536
238	0x3ea601c3	0.3242322
239	0xbdfe5e5f	-0.124203436
240	0x3ca6ed4f	0.02037683
241	0xbf2d2d7b	-0.6764752
242	0x3d98c6d2	0.07459797
243	0x3e48ea11	0.19620539
244	0x3e5f3414	0.2179721
245	0x3e152c6c	0.14567727
246	0x3e2d60e2	0.16931489
247	0xbe582b96	-0.21110377
248	0x3e962308	0.29323602
249	0xbed1a57f	-0.40946576
250	0x3bc60ffb	0.0060443855
251	0xbe8003b6	-0.2500283
252	0xbe1c807a	-0.15283385
253	0xbe6c9f6b	-0.23107688
254	0x3e3d346b	0.18477027
255	0xbd5515a4	-0.05202259

network_body._body_endoder.seq_layers.2.bias f4 [256]
0	0xbdd7dc27	-0.105400376
1	0xbe99e432	-0.30056912
2	0xbdce55fb	-0.10074993
3	0xbd8c6f0d	-0.06857119
4	0xbe65b610	-0.22432733
5	0xbdd62470	-0.10456169
6	0xbdecae35	-0.11556665
7	0xbe365783	-0.1780682
8	0xbe3daf16	-0.18523821
9	0xbd85b794	-0.065291554
10	0xbd946f22	-0.072477594
11	0xbe0ad93d	-0.13559432
12	0xbe076db0	-0.13225436
13	0xbde4265a	-0.111401275
14	0xbd930d03	-0.07180216
15	0x3c67f417	0.014157317
16	0xbe50505a	-0.20343152
17	0xbd27dab6	-0.040980063
18	0xbe45d993	-0.19321279
19	0xbe20ceb6	-0.15703854
20	0xbed05c93	-0.4069563
21	0xbe3fe751	-0.18740584
22	0x3b2aa538	0.002603842
23	0xbd8c4d46	-0.06850676
24	0xbdcee7bc	-0.101027936
25	0xbe29bd7c	-0.16576189
26	0xbda67598	-0.08127898
27	0xbd94eb21	-0.0727141
28	0xbe8eb7d0	-0.27874613
29	0xbd3f2c90	-0.046673357
30	0xbec9bd8a	-0.3940242
31	0xbdb3c47f	-0.08777713
32	0xbea1b342	-0.31582075
33	0xbcf79a0a	-0.030224819
34	0xbe47e24f	-0.19519924
35	0x3d89ae7f	0.067227356
36	0xbe2d43af	-0.1692035
37	0xbd9111c8	-0.0708347
38	0xbb8115e7	-0.0039393785
39	0xbdd5bc82	-0.10436346
40	0xbe99e156	-0.3005473
41	0xbd958be7	-0.07302075
42	0xbe528571	-0.20558716
43	0xbde56234	-0.112003714
44	0xbdd25455	-0.10269991
45	0xbea0ab78	-0.3138082
46	0xbd9be18d	-0.0761138
47	0x3d0130c2	0.03154064
48	0xbe7da046	-0.2476817
49	0xbcc52aec	-0.024068318
50	0xbe303282	-0.17206767
51	0x3eb6d578	0.3570974
52	0xbe30729d	-0.17231221
53	0xbdc1771a	-0.09446545
54	0xbdc36d45	-0.09542326
55	0xbe0c4a27	-0.13700162
56	0xbd97c1fa	-0.07410045
57	0xbdb9ab55	-0.09065882
58	0xbe6edf5e	-0.23327395
59	0x3e25fe1a	0.16210213
60	0xbe0bd85a	-0.1365675
61	0xbd4ebdcf	-0.050473984
62	0xbe826889	-0.2547038
63	0xbe3b446e	-0.18287823
64	0xbe516475	-0.20448478
65	0xbe88056b	-0.26566634
66	0xbe081687	-0.13289843
67	0xbd4a4ce5	-0.04938974
68	0xbe54022d	-0.20703955
69	0xbe001a22	-0.12509969
70	0xbdf4501d	-0.11929343
71	0xbe287d8b	-0.16454141
72	0xbd33f6f5	-0.04393669
73	0xbe230062	-0.15918115
74	0xbde50f79	-0.11184592
75	0x3da96c12	0.08272566
76	0xbdcd694c	-0.100298494
77	0x3d991eef	0.07476603
78	0xbe8dd224	-0.27699387
79	0x3e24b05d	0.16082902
80	0xbcdb6c25	-0.026784966
81	0xbbce4a5c	-0.0062954854
82	0xbdbd0358	-0.092291534
83	0xbe22c114	-0.15893966
84	0xbd14e0f7	-0.036347356
85	0x3d596244	0.05307223
86	0xbd928509	-0.07154281
87	0x3c0bbdb3	0.008529115
88	0xbd7a6d12	-0.061139174
89	0xbe134438	-0.14381492
90	0xbd26822f	-0.040651496
91	0xbd0d4bde	-0.03449618
92	0xbdd9b75a	-0.10630675
93	0xbe2caf2e	-0.16863701
94	0xbdcb9673	-0.09940805
95	0xbda5ce9c	-0.08096048
96	0xbe664701	-0.22488023
97	0xbe43870e	-0.19094488
98	0x3cd213ec	0.025644265
99	0x3c774db1	0.015094207
100	0xbe8ab8a7	-0.27094004
101	0x3c96b635	0.01839743
102	0xbd55eb07	-0.052226093
103	0xbe410528	-0.18849623
104	0xbe1a6c0b	-0.15080278
105	0xbd2744f2	-0.040837236
106	0xbe332b1e	-0.17496917
107	0x3af7b59c	0.0018898728
108	0xbe36650c	-0.17811984
109	0xbe211b70	-0.15733123
110	0xbd9f7a32	-0.07786979
111	0x3d83e689	0.064404555
112	0xbe15149e	-0.14558646
113	0xbdb7c5ea	-0.08973296
114	0xbbbe156f	-0.005800895
115	0xbd993b3f	-0.074820034
116	0xbdb9f906	-0.090807006
117	0x3d8d52ff	0.06900596
118	0xbe4212ac	-0.18952435
119	0xbe351b13	-0.17686109
120	0xbe754e95	-0.23955758
121	0x3db7cec4	0.08974984
122	0xbe33f91b	-0.17575495
123	0x3d9d330e	0.076757535
124	0xbec36cf4	-0.38169062
125	0x3d0bce8a	0.034132518
126	0xbe56a4d1	-0.2096131
127	0x3e4d9363	0.20075755
128	0xbe3b5a22	-0.18296102
129	0xbe2e340e	-0.17012045
130	0xbdca15d5	-0.098674454
131	0xbdb383e0	-0.087653875
132	0xbdcc56b3	-0.09977474
133	0xbd95cf2d	-0.07314906
134	0xbe92729d	-0.28603068
135	0xbd99aaba	-0.07503267
136	0xbe3b7de0	-0.18309736
137	0xbda87132	-0.08224715
138	0xbdbfeb55	-0.09371058
139	0x3bd26b83	0.006421508
140	0xbd57dc3f	-0.052700277
141	0xbe808305	-0.2509996
142	0xbe57fb26	-0.210919
143	0xbb8a6e1f	-0.0042245532
144	0xbe467666	-0.19381103
145	0x3dcc7cff	0.099847786
146	0xbdca3cab	-0.09874853
147	0xbe1316e2	-0.14364198
148	0xbe304f5c	-0.17217773
149	0xbd3e546f	-0.04646724
150	0xbdde2e8b	-0.10848721
151	0xbce43a43	-0.027859813
152	0xbe868c80	-0.26279068
153	0xbe31222e	-0.17298195
154	0xbe304042	-0.17212012
155	0xbd9baab1	-0.07600916
156	0xbe072ba3	-0.1320024
157	0xbe3e37f3	-0.1857603
158	0xbe6d247d	-0.2315845
159	0xbdfc07cb	-0.12306174
160	0xbe02de9b	-0.1278023
161	0xbe5d130c	-0.21589297
162	0x3e8a774f	0.2704415
163	0xbe436414	-0.19081146
164	0xbd7695bf	-0.060201403
165	0xbe702c8f	-0.23454498
166	0xbe4205bf	-0.18947504
167	0xbe0e1284	-0.1387425
168	0xbe9665d0	-0.29374552
169	0xbc93e3df	-0.018052993
170	0xbdc5927d	-0.09647081
171	0xbd8593f7	-0.06522363
172	0xbe02d697	-0.12777172
173	0xbea25a5a	-0.31709558
174	0xbcd591c3	-0.026070481
175	0xbe85a350	-0.2610116
176	0x3e29af77	0.16570841
177	0xbe468e93	-0.19390325
178	0xbb348306	-0.0027543916
179	0xbe7904ab	-0.24318187
180	0x3ba84935	0.00513568
181	0x3bbb9aa4	0.0057252217
182	0xbe8078f5	-0.25092283
183	0x3dd98594	0.10621181
184	0xbe6735fc	-0.22579187
185	0xbdedc4cf	-0.11609804
186	0x3d8ef196	0.069796726
187	0xbdb1b33a	-0.08676763
188	0xbe938618	-0.28813243
189	0xbe648139	-0.2231492
190	0xbe5df300	-0.21674728
191	0xbc634953	-0.013872462
192	0xbe80bcf8	-0.25144172
193	0xbe1edff7	-0.15515123
194	0xbc9ec3f2	-0.019380543
195	0xbe026235	-0.12732776
196	0xbbfd16e3	-0.0077236756
197	0xbc8d94cd	-0.017282868
198	0xbe4daed8	-0.20086229
199	0xbe7232dd	-0.23652215
200	0xbea1047b	-0.3144873
201	0xbe22b952	-0.15891007
202	0x3e1586bd	0.1460218
203	0xbdf7b799	-0.12095565
204	0x3d1e9c6d	0.038723398
205	0xbe8b918e	-0.27259487
206	0xbe404627	-0.18776761
207	0xbd1394a2	-0.03603042
208	0xbe0bc9ac	-0.1365115
209	0xbd82c2e0	-0.06384826
210	0xbd735f9c	-0.059417352
211	0xbd48ee52	-0.049055405
212	0xbed0a4d5	-0.40750757
213	0xbdcd7697	-0.10032385
214	0xbd525d32	-0.05135841
215	0xbdeafc1f	-0.114738695
216	0x3ddf31d1	0.108981736
217	0xbd4c6fcd	-0.04991131
218	0x3d5e32aa	0.054247536
219	0xbd27acd3	-0.040936302
220	0xbe3046cc	-0.17214507
221	0xbdac4af2	-0.08412732
222	0x3d86529f	0.065587275
223	0x3e097b56	0.13425955
224	0xbe483cca	-0.19554439
225	0xbe2754ae	-0.16340896
226	0xbd214e87	-0.03938153
227	0xbe221b21	-0.15830661
228	0x3da3fb4f	0.08006918
229	0xbe1ed2a8	-0.15510046
230	0xbdb98de3	-0.09060266
231	0xbe243511	-0.16035868
232	0xbcb15ddc	-0.021651201
233	0xbd8183ea	-0.06323989
234	0xbd49dc4b	-0.049282353
235	0xbe55b5ce	-0.20870134
236	0x3cd8a3ee	0.026445355
237	0xbe328bf6	-0.17436203
238	0x3b6bcbe7	0.003597969
239	0xbe1415e7	-0.1446148
240	0xbf16fff2	-0.5898429
241	0xbe9e8825	-0.30963245
242	0xbe3e8ad6	-0.18607649
243	0xbe2d687e	-0.16934392
244	0xbda3b057	-0.079926185
245	0x3cb6e43c	0.022325628
246	0xbe053663	-0.13009028
247	0xbe7da1eb	-0.24768798
248	0xbeab99ac	-0.3351568
249	0x3d0b27b3	0.033973407
250	0xbe7cc51f	-0.2468457
251	0xbb8cf71f	-0.00430192
252	0xbe4d5e15	-0.2005542
253	0xbcfc3f9a	-0.030792046
254	0xbd8ec249	-0.06970651
255	0xbddb766f	-0.10715949

action_model._discrete_distribution.branches.0.weight f4 [3, 256]
0	0x3dc8cf90	0.098052144
1	0x3f3faeb7	0.7487597
2	0x3eafb6ca	0.34319144
3	0xbe187109	-0.1488687
4	0xbf3ad9cf	-0.729886
5	0xbf7e1600	-0.9925232
6	0xbe364134	-0.1779831
7	0x3d4a320a	0.049364127
8	0x3e56a7ab	0.20962398
9	0x3f54fa86	0.8319477
10	0x3e3cb6d8	0.18429124
11	0x3e5a5540	0.21321583
12	0x3f4bfe80	0.7968521
13	0xbc401d99	-0.011725807
14	0x3eb27c73	0.34860572
15	0x3e159f01	0.14611436
16	0xbf2f47f0	-0.6846914
17	0xbbcc2452	-0.0062299157
18	0xbf716d45	-0.9430736
19	0xbf129273	-0.57254714
20	0x3f5e88ba	0.8692738
21	0xbe87536f	-0.26430842
22	0x3ef42b4b	0.4768928
23	0xbdc97ea5	-0.09838609
24	0x3efec936	0.49762887
25	0xbde91619	-0.11381168
26	0x3f2bf1fd	0.6716612
27	0xbed8e93d	-0.42365447
28	0x3f36eb97	0.7145323
29	0xbf981338	-1.1880865
30	0xbf56685c	-0.8375299
31	0xbf0d0be9	-0.550963
32	0xbf823169	-1.0171329
33	0xbe8879c3	-0.26655397
34	0xbe8b2ea5	-0.27184024
35	0xbf5fb0ec	-0.87379336
36	0x3f543bfb	0.8290402
37	0xbdee18f4	-0.11625853
38	0x3eafc130	0.34327078
39	0x3ff1caa1	1.8889962
40	0x3f6676fe	0.9002532
41	0x3e863353	0.26211032
42	0x3ebdda5f	0.37080666
43	0x3e2c181c	0.16806072
44	0xbfe1c620	-1.7638588
45	0xbf2d2217	-0.6763014
46	0xbe37357f	-0.17891501
47	0xbea2fff3	-0.318359
48	0xc01b45fb	-2.4261463
49	0x3eb5db04	0.35518658
50	0x3d82eb45	0.0639253
51	0xbd49cc3e	-0.049267046
52	0xbff70a33	-1.9299988
53	0xbf1030bf	-0.5632438
54	0xbd9a772d	-0.07542262
55	0xbf962ff8	-1.1733389
56	0x3fb9fd73	1.4530472
57	0x3fe0b9b8	1.7556677
58	0xbe89f543	-0.26944932
59	0xbe0dc529	-0.13844742
60	0xbfa02e36	-1.2514102
61	0xbfb29149	-1.3950588
62	0xbffa9e45	-1.957955
63	0xbec6adfb	-0.38804612
64	0xbe4aa129	-0.1978804
65	0xbd601784	-0.054709926
66	0x3f593fae	0.8486279
67	0x3f59761a	0.84945834
68	0xbfa91e3c	-1.3212352
69	0x3e5a85cd	0.21340103
70	0xbe2d4669	-0.1692139
71	0xbe02b7ec	-0.12765473
72	0x3e979d30	0.29612112
73	0x3f8fcd2d	1.123449
74	0xbdc424d0	-0.09577334
75	0x3f354028	0.7080102
76	0x3fad51c3	1.3540577
77	0xbf1bc93e	-0.60853946
78	0xbf9c4a40	-1.2210159
79	0x3fb5ffb0	1.4218655
80	0x3ed30d9f	0.4122133
81	0xbeb33353	-0.35000095
82	0x3ddd27ef	0.10798632
83	0xbf8f7a98	-1.1209288
84	0x3e258e6e	0.16167614
85	0x3de3a77a	0.11115928
86	0xbfdc25b9	-1.7199012
87	0xbf8906e4	-1.0705228
88	0x3f4350f0	0.76295376
89	0x3e632282	0.22181132
90	0x3ede945d	0.43472567
91	0xbedda444	-0.43289387
92	0x3d74a03c	0.059723124
93	0x3f88d838	1.0690985
94	0x3c500090	0.012695447
95	0x3d4f16ac	0.05055873
96	0x3f88fa93	1.0701469
97	0xbec5c6b3	-0.38628158
98	0xbec955fb	-0.3932341
99	0xbdd2f7e7	-0.1030119
100	0x3f93f2bc	1.1558452
101	0x3e89fdb7	0.26951382
102	0xbde7d0ac	-0.11319098
103	0x3e718768	0.2358681
104	0x3f8f7fc1	1.1210862
105	0xbebf491b	-0.37360463
106	0x3e86b264	0.26307976
107	0x3d9f7b79	0.077872224
108	0xbbb516c7	-0.005526397
109	0xbf1daa05	-0.61587554
110	0xbda657f5	-0.08122245
111	0xbe508515	-0.20363267
112	0xc013f409	-2.3117697
113	0xbf1b5d5b	-0.60689324
114	0x3e901810	0.28143358
115	0x3e837e6b	0.25682387
116	0x3ed51923	0.4162074
117	0x3f522875	0.8209298
118	0xbe6099b2	-0.2193363
119	0xbefdae72	-0.49547154
120	0xbf9cc071	-1.2246228
121	0x3ef6128d	0.48061028
122	0xbf026a6d	-0.5094364
123	0x3d981758	0.074263275
124	0x3f2dc15a	0.67873156
125	0xbe2742bd	-0.16334052
126	0x3e88cb88	0.26717782
127	0x3e77fe85	0.24218185
128	0x3eebbd72	0.46042973
129	0xbfb0969a	-1.379596
130	0xbf35ca07	-0.71011394
131	0x3e327715	0.17428239
132	0x3fa64540	1.2989883
133	0xbe00b0c9	-0.12567438
134	0x3e39669a	0.18105546
135	0x3edf62f2	0.43630177
136	0x3e61b466	0.22041473
137	0xbfac14a8	-1.3443804
138	0x3f399531	0.72493273
139	0xbe129673	-0.14315204
140	0x3f3ae067	0.7299866
141	0x3ea6968e	0.3253674
142	0xbec3f6a6	-0.38274115
143	0x3f0744df	0.52839464
144	0x3fb4ced0	1.4125614
145	0xbc45e26d	-0.01207791
146	0xbedfe86d	-0.43732014
147	0x3f5a94e6	0.8538345
148	0x3e2850c0	0.16437054
149	0xbf5eedf1	-0.8708182
150	0x3f7bc1f0	0.983428
151	0xbc40537d	-0.011738655
152	0x3f09a41f	0.53766054
153	0xbd1ccdad	-0.038282085
154	0xbf44973f	-0.76793283
155	0xbe9005b9	-0.28129366
156	0xbff17b3d	-1.8865734
157	0xbe898fe2	-0.26867586
158	0x3fdb72c4	1.7144399
159	0x3eb0e22b	0.34547552
160	0xbeba23c9	-0.36355427
161	0xbcc6cea4	-0.024268456
162	0x37cb5bd6	2.424225e-05
163	0xbe684724	-0.22683388
164	0x3ccf91ab	0.025338015
165	0x3f1c5d3b	0.6107976
166	0x3f845c71	1.0340711
167	0xbda2dc39	-0.079521604
168	0xbf90266d	-1.1261727
169	0x3dd2e1cc	0.102969736
170	0xbeec5af5	-0.46163145
171	0xbe80e4cc	-0.25174558
172	0x3cf7beac	0.030242287
173	0x3e050997	0.1299194
174	0xbe960e94	-0.29307997
175	0x3ec94adc	0.39314926
176	0x3f2b84f5	0.6699975
177	0x3da3448d	0.079720594
178	0x3fad7e83	1.3554233
179	0x3edbad78	0.42905784
180	0x3ced1923	0.02894265
181	0xbd5a9bee	-0.053371362
182	0xbe6c6c30	-0.23088145
183	0x3ecc0040	0.3984394
184	0xbf5c2b4a	-0.86003554
185	0xbf98a051	-1.1923925
186	0x3ea0637b	0.31325898
187	0x3dafc24e	0.085819826
188	0xbf4a7e6d	-0.7909916
189	0x3e9aabbb	0.30209145
190	0x3f084713	0.5323345
191	0xbeba536f	-0.3639178
192	0x3eb53d40	0.35398293
193	0x4001b6e1	2.026787
194	0x3c83b984	0.016079672
195	0x3f31acb4	0.6940415
196	0x3ef3d0e2	0.47620302
197	0x3fab0235	1.3360049
198	0xbca427bd	-0.02003848
199	0xbea64bed	-0.32479802
200	0xbd31b33b	-0.043383818
201	0xbf25d0ec	-0.64771914
202	0x3e074834	0.13211137
203	0x3e49c25f	0.19703053
204	0x3ea2453c	0.31693447
205	0xbeaa3816	-0.33245915
206	0xbe0de913	-0.13858442
207	0xbeeeab62	-0.4661513
208	0x3e73331f	0.2374997
209	0x3e44b484	0.19209486
210	0x3ee36134	0.44410098
211	0x3e83cf43	0.25744066
212	0xbd89ac4f	-0.067223184
213	0x3e3b22ff	0.18275069
214	0x3e035a8d	0.12827511
215	0x3db17830	0.08665502
216	0x3e1cd649	0.15316118
217	0x3b607014	0.0034246491
218	0x3e815489	0.25259808
219	0xbf9a03ad	-1.2032372
220	0x3e876706	0.26445788
221	0x3f907d56	1.128825
222	0xbeb5e9f0	-0.35530043
223	0x3f00da43	0.5033304
224	0xbf857b0e	-1.0428178
225	0x3d52fec7	0.051512506
226	0x3c5d211d	0.013496664
227	0xbcc13b54	-0.02358786
228	0xbe0af4c5	-0.13569935
229	0x3f88aa3e	1.0676954
230	0xbe796fcb	-0.24359052
231	0x3ec27fa3	0.37988004
232	0x3e5b8172	0.21436098
233	0xbf4918eb	-0.78553647
234	0xbe41e8ca	-0.18936458
235	0xbedbb139	-0.42908648
236	0x3ec26f64	0.3797561
237	0xbf4004a9	-0.7500711
238	0xbf0b4242	-0.54397976
239	0xbe5391f4	-0.20661145
240	0xbfe64281	-1.7989045
241	0xbf1f93c7	-0.62334865
242	0xbeabdfcf	-0.3356919
243	0xbea51d50	-0.32248926
244	0x3f765b0d	0.9623268
245	0x3e89db99	0.26925352
246	0x3ee7e699	0.4529312
247	0xbe22f775	-0.1591471
248	0xbe9e6e6f	-0.3094363
249	0xbe869c01	-0.26290897
250	0x40098dab	2.1492717
251	0xbf966c33	-1.175177
252	0x38d5a5ba	0.000101875004
253	0xbfa54aca	-1.2913449
254	0x3c350b40	0.0110500455
255	0xbfe1b1dc	-1.7632403

action_model._discrete_distribution.branches.0.bias f4 [3]
0	0x3e96b3e3	0.29434118
1	0xbe515a2c	-0.20444554
2	0xbeaa09fe	-0.33210748

action_model._discrete_distribution.branches.1.weight f4 [3, 256]
0	0x3d5527c6	0.052039884
1	0x3fb4b085	1.411637
2	0xbfb13dfa	-1.3847039
3	0x400ed5ea	2.2318063
4	0x3ec9d7bf	0.39422414
5	0x3ece718b	0.40321
6	0x3e6ab12c	0.22919148
7	0x3f87c0ab	1.0605673
8	0xbf6fbd76	-0.9364847
9	0xbec003c9	-0.37502888
10	0x3f8abc47	1.0838708
11	0xbe79a565	-0.243795
12	0xbf7d5dc3	-0.98971194
13	0x3d200e91	0.03907639
14	0x3d45fda2	0.048337586
15	0x3eaeecc6	0.3416502
16	0xbf01357c	-0.50472236
17	0xbc0deab7	-0.008661917
18	0x3f0e7ec0	0.55662155
19	0xbfadd445	-1.3580405
20	0xbfc894ec	-1.5670447
21	0x3e90988e	0.2824139
22	0x3e68982b	0.22714297
23	0xbdc7cd27	-0.097559266
24	0xbfbe2f34	-1.4858155
25	0x3d62bda0	0.05535662
26	0xbedf6d6c	-0.4363817
27	0x3c7984da	0.015229428
28	0xbf3c31b1	-0.73513323
29	0xbeb39f48	-0.3508246
30	0x3fde243f	1.7354811
31	0xbec80aa4	-0.39070618
32	0x3fcc5537	1.5963506
33	0xbfef5506	-1.8697822
34	0xbf0ec024	-0.55761933
35	0xbe5f25ba	-0.21791735
36	0x3e5020ae	0.20324966
37	0xbe446cbb	-0.19182102
38	0x3e3e8c8b	0.186083
39	0x3d924ced	0.07143579
40	0xbf36ceb3	-0.7140915
41	0x3dfb9ad4	0.122853905
42	0xbed08683	-0.40727624
43	0xbebb9f5b	-0.36645016
44	0xbec519ff	-0.38496396
45	0x3fab2cb7	1.3373021
46	0x3f06c5ce	0.52645576
47	0xbffd4a2d	-1.9788262
48	0x3e5a21bc	0.21301931
49	0x3dea142a	0.11429627
50	0xbf950590	-1.1642323
51	0xbc14931e	-0.009068279
52	0x3c12fa76	0.008970847
53	0x3e3593be	0.1773214
54	0xbe29ecd4	-0.16594249
55	0x3eac64d1	0.33670667
56	0xbf3f4ce8	-0.74726725
57	0xbe3166cd	-0.17324372
58	0xbd5a2f1a	-0.053267576
59	0xbf90abd4	-1.1302438
60	0xbead4629	-0.3384259
61	0x3f5066f3	0.8140709
62	0xbe81d9ff	-0.2536163
63	0xbeeeff37	-0.46679088
64	0xbd585860	-0.052818656
65	0xbf6e6641	-0.9312478
66	0x3e99d680	0.30046463
67	0x3f07d4e6	0.5305923
68	0xbeb27ac1	-0.3485928
69	0x3e212c5e	0.15739581
70	0x3f948dba	1.1605752
71	0xbf275384	-0.6536181
72	0x3bfa66bf	0.007641643
73	0xbf8aebda	-1.0853226
74	0x3e6a2850	0.2286694
75	0xbe8ba3df	-0.2727346
76	0xbfb037b2	-1.3766997
77	0x3e8537e0	0.26019192
78	0x3fe4c20d	1.787172
79	0xbe6d25e6	-0.23158988
80	0x3f0f746f	0.5603704
81	0x3e484c1a	0.1956028
82	0xbf4d61bc	-0.80227256
83	0x3eb0ed12	0.3455587
84	0x3daf818d	0.08569632
85	0xbf309966	-0.6898407
86	0x3ec60682	0.3867684
87	0x3eaf2a20	0.34211826
88	0xbf6bd160	-0.92116356
89	0xbfbea371	-1.4893628
90	0x3f0a19e9	0.53945786
91	0xbef22430	-0.47293234
92	0xbf079182	-0.529564
93	0x3ea56ced	0.32309666
94	0x3f78f45b	0.97247857
95	0xbeea1725	-0.45720783
96	0x3f8bcd22	1.0921977
97	0x3ef432e2	0.4769507
98	0x3dc42a82	0.0957842
99	0x3e705300	0.23469162
100	0xbf6229dc	-0.8834512
101	0x3e9899c2	0.29804808
102	0xbee9bfca	-0.45654136
103	0x3fd1a988	1.6379862
104	0xbf1e0825	-0.6173118
105	0x3e5b03f2	0.21388224
106	0x4010676d	2.2563126
107	0x3e671422	0.22566274
108	0xbecaabf2	-0.3958431
109	0x3d5733ab	0.05253951
110	0xbd4ff76d	-0.050773073
111	0x3f11a119	0.5688644
112	0x3c85ac8b	0.016317626
113	0x3ef4835d	0.47756472
114	0x3ea5a626	0.32353324
115	0xbed4f04e	-0.41589588
116	0x3bf955d5	0.007609109
117	0x3df5d145	0.120028056
118	0xbf13b1ed	-0.5769337
119	0xbd6ee462	-0.05832327
120	0xbf26c9ff	-0.6515197
121	0x3d6477a3	0.055778157
122	0xbdb00aac	-0.085957855
123	0xbf987048	-1.1909266
124	0xbf99be48	-1.2011194
125	0xbc17f2d1	-0.009274201
126	0xbf1b0406	-0.60553014
127	0x3e89eae8	0.26937032
128	0xbf95d816	-1.1706569
129	0xbcf947d4	-0.030429758
130	0xbe564081	-0.20923044
131	0xbc28cc33	-0.010302591
132	0xbfb813ff	-1.4381102
133	0x3d38d015	0.045120317
134	0x3fbd7e18	1.4804106
135	0x3f5894cc	0.84602046
136	0xc036e493	-2.857701
137	0x3e8d6977	0.27619526
138	0xc02301f4	-2.5469942
139	0x3e1d18e8	0.15341532
140	0xbebc2260	-0.36744976
141	0x3eccb00f	0.39978072
142	0x3a90cabd	0.0011046749
143	0xbe4ef488	-0.20210469
144	0xbfdfc615	-1.7482325
145	0x3f16a449	0.5884443
146	0xbe3f4bc5	-0.18681248
147	0x3e9db21a	0.30799943
148	0xbf40cd1d	-0.7531298
149	0x3fea161d	1.8287998
150	0x3e839f7a	0.25707608
151	0xbced0141	-0.028931262
152	0xbfa589f9	-1.2932731
153	0x3fcb390b	1.5876783
154	0xbe44b96c	-0.19211358
155	0xb8d68b8f	-0.0001023031
156	0x3e84334e	0.25820392
157	0xbf925fb6	-1.1435459
158	0xbf2a5efa	-0.6655117
159	0x3ec6f845	0.3886129
160	0xbe9c2e31	-0.3050399
161	0xbf9b8767	-1.2150697
162	0x3d3a7c8a	0.045528926
163	0x3dfad8f7	0.12248414
164	0xbe38e5f4	-0.1805647
165	0xbf3271f3	-0.6970512
166	0x3f53e34d	0.8276871
167	0xbeaefea7	-0.3417866
168	0x3faab828	1.333745
169	0x3dbd2e88	0.09237391
170	0xbe06d388	-0.1316663
171	0x3f6a0404	0.9141238
172	0xbf954ffe	-1.1665037
173	0x3fb01631	1.3756772
174	0x3f25293e	0.64516056
175	0xbf800aeb	-1.0003332
176	0x3f26c300	0.65141296
177	0xbf8f6b0f	-1.1204547
178	0x3f0c54c8	0.54816866
179	0x3f15d5be	0.5852927
180	0xbf918d9e	-1.1371343
181	0x3d9f951f	0.077921145
182	0xbed4efc4	-0.41589177
183	0x3f165628	0.58725214
184	0xbfda6913	-1.7063316
185	0xbd4603b0	-0.04834336
186	0x3e7c5681	0.24642374
187	0xbe36caf0	-0.17850852
188	0x3f84f68a	1.0387738
189	0xbf2a10d4	-0.6643193
190	0x3f53daf7	0.8275599
191	0xbf0cf2dd	-0.5505808
192	0x3ec70879	0.38873652
193	0xbf17c5e4	-0.5928633
194	0xbc7e00ef	-0.015503152
195	0xbeaee93b	-0.34162316
196	0xbe415347	-0.18879424
197	0x3f00bb7b	0.5028607
198	0x3e32d680	0.17464638
199	0x3f6d0cf4	0.9259789
200	0xbf8781dc	-1.0586505
201	0xbf80e1fa	-1.0068963
202	0xbe15c32b	-0.14625232
203	0xbe8efe55	-0.27928415
204	0x3cf4bb4e	0.02987447
205	0xbf84b898	-1.0368834
206	0xbe6fcc81	-0.23417856
207	0xbf91f265	-1.1402098
208	0xbfe13f85	-1.759751
209	0x3e36060b	0.17775743
210	0x3e041f80	0.12902641
211	0x3e6be592	0.23036793
212	0xbe63e689	-0.22255911
213	0xbface9e7	-1.3508881
214	0x3eb631d1	0.35584882
215	0xbd836504	-0.064157516
216	0x3e975ce5	0.2956306
217	0x3f38adf6	0.72140443
218	0x3f537372	0.8259803
219	0x3ec502e1	0.3847876
220	0xbf18373c	-0.5945928
221	0xbf12fc18	-0.57415915
222	0xbdb55f15	-0.08856026
223	0xbf57d83e	-0.84314334
224	0xbe93939b	-0.28823552
225	0xbe1592fa	-0.14606848
226	0x3aa167fa	0.0012314313
227	0xbf272d1a	-0.65303195
228	0x3def9e8e	0.11700164
229	0x3f0ffd2c	0.56245685
230	0x3ede2a31	0.43391564
231	0xbf030b20	-0.5118885
232	0xbe14a7e8	-0.14517176
233	0x3e4616ba	0.19344607
234	0x3d17ebe3	0.037090193
235	0x3ea9d572	0.33170658
236	0x3e5c5114	0.21515304
237	0xbe38c140	-0.18042469
238	0xbe565839	-0.20932092
239	0xbe4480d2	-0.19189766
240	0xbf157c27	-0.58392566
241	0x3e323eb2	0.17406729
242	0xbf15d9f4	-0.58535695
243	0xbeee25bd	-0.46513167
244	0x3f0c94b4	0.549144
245	0xbe812645	-0.2522451
246	0xbee20136	-0.4414155
247	0xbfb26c65	-1.3939329
248	0xbed8a16d	-0.42310658
249	0xbf599629	-0.8499475
250	0xbf8e3386	-1.1109474
251	0xc0065a49	-2.0992606
252	0x3e1e2e6d	0.15447398
253	0xbf1349a9	-0.5753427
254	0x3e428b59	0.1899847
255	0x3edf2d2f	0.4358916

action_model._discrete_distribution.branches.1.bias f4 [3]
0	0x3e8cf6a7	0.2753193
1	0xbd745895	-0.05965479
2	0xbea92cbc	-0.33041942
