results/ppo/BotControllerAgent/BotControllerAgent-12999945.onnx (onnx, 384082 bytes, 9 tensors)

discrete_act_size_vector f4 [1, 2]
3.0 3.0
00000000: 0000 4040 0000 4040

network_body._body_endoder.seq_layers.0.weight f4 [256, 104]
-0.020475706 0.17563209 0.13411462 0.27523872 0.028604636 -0.06854649 -0.11992859 0.21008618
0.18294622 0.16173261 -0.28727296 -0.30239433 -0.046886716 0.15817945 0.25506535 0.07486481
-0.11049153 0.0064776866 0.056411467 -0.031946816 0.12831376 0.24262628 0.02119622 0.4209949
0.00014686373 0.08504092 0.0064745923 -0.026377408 -0.15689996 0.4082907 0.18387173 -0.17874886
0.07650453 0.08399059 -0.30043942 0.11359702 0.0057499316 0.061036874 -0.48013547 -0.049796894
-0.26561958 0.06553927 -0.26031917 0.3250756 0.13993277 -0.13843001 0.033039875 -0.044421073
-0.18540633 0.022850791 0.48498687 -0.18053189 -0.076568894 -0.07476197 -0.11380927 0.19631122
-0.22992 0.18548441 -0.093585745 0.30293173 -0.19094206 -0.2492401 -0.07095692 0.30332506
-0.11083978 0.12470073 0.009213744 0.014182691 -0.030585894 0.07396696 0.13146889 0.006362405
0.09512941 -0.050401296 -0.030070543 0.26353538 0.041612294 0.076156534 -0.13437124 0.3406212
-0.438485 -0.27421457 -0.11286337 0.26869434 0.022733284 0.24575827 -0.010516594 0.070110604
-0.017358594 0.13992108 0.40505812 0.035716783 0.027910352 0.026274312 0.125747 -0.10215444
-0.09845607 -0.0493961 -0.25410768 0.29274884 0.0063533997 0.19141252 -0.278011 0.20088193
0.10730952 -0.22583285 -0.03698489 -0.10801262 -0.25216693 0.32162222 0.102471076 -0.25485653
-0.1760271 0.17911126 0.099052444 -0.19277972 0.14718415 -0.4395881 -0.32258916 0.19672932
-0.19818601 0.35335216 0.24533305 -0.07279635 0.21173812 0.32295102 0.32390717 0.15576899
0.024288595 0.4550105 -0.08676148 0.18498173 -0.15352698 0.22466718 0.40519807 -0.021393867
0.215272 -0.33644044 -0.122427806 0.05422698 -0.2567602 0.21042426 0.21756697 -0.0381351
0.13669024 0.40236753 0.014629384 0.2018658 -0.054912228 0.11597312 -0.16669431 0.0037163394
-0.205706 0.099999845 0.18309611 -0.44027534 -0.044859048 -0.22168227 0.057655897 -0.037053093
-0.06655938 0.09989018 0.47504884 -0.28274083 0.38415226 0.44016916 0.09271254 0.2606397
-0.24330972 -0.14139222 -0.35414338 0.22207595 0.11358536 0.12747641 -0.04479502 -0.12393658
-0.22754644 0.17483215 -0.029435046 -0.10632581 -0.054788772 0.06313051 0.6123993 -0.35887662
0.3261782 0.2826433 0.29385182 0.26750827 -0.017151961 -0.2199449 -0.08182237 -0.046614725
0.05127702 0.023644133 0.121483155 -0.2030356 0.032706533 0.04989724 0.013783625 -0.08487941
-0.053105135 0.18179554 0.3636068 -0.08638447 -0.046943836 -0.36512208 0.089437656 -0.6474176
-0.03903788 0.33144453 0.21652916 0.4195356 -0.034386206 -0.05330984 0.18081805 -0.019068055
0.013763548 -0.0091330195 -0.106085256 -0.20842734 0.05332573 0.33911592 -0.084702566 0.024070133
-0.030351454 0.092630915 0.15098831 0.13718176 -0.20313433 0.14915855 0.15096134 0.34117717
0.053652834 0.042376935 -0.12460619 0.0155296605 0.21075375 -0.20634523 -0.07004975 0.0670748
0.1454487 0.14714593 -0.3241611 -0.26669762 0.14253713 -0.0021298793 0.012775459 -0.012590445
-0.51955354 -0.15546994 -0.14301525 0.074262805 -0.034011368 0.01769231 0.09802235 -0.09908001
00000000: abbc a7bc e6d8 333e 5855 093e 17ec 8c3e
00000010: 4554 ea3c 1a62 8cbd 1f9d f5bd d520 573e
00000020: 4156 3b3e 3c9d 253e 7115 93be 6ed3 9abe
00000030: 490c 40bd cbf9 213e ed97 823e b952 993d
00000040: 6249 e2bd c642 d43b b60f 673d aada 02bd
00000050: af64 033e 0673 783e b2a3 ad3c a58c d73e
00000060: 6fff 1939 ef29 ae3d d128 d43b 6f15 d8bc
00000070: 62aa 20be 7b0b d13e df48 3c3e f109 37be
00000080: 68ae 9c3d 4203 ac3d 32d3 99be 8ea5 e83d
00000090: ec69 bc3b cd01 7a3d 51d4 f5be d4f7 4bbd
000000a0: 4aff 87be 7439 863d 8e48 85be 4f70 a63e
000000b0: 894a 0f3e 99c0 0dbe d254 073d dff2 35bd
000000c0: 28db 3dbe 9531 bb3c 3350 f83e 5add 38be
000000d0: 27d0 9cbd ce1c 99bd d614 e9bd cf05 493e
000000e0: 2670 6bbe a0ef 3d3e e2a9 bfbd de19 9b3e
000000f0: 5186 43be cc38 7fbe dd51 91bd 6c4d 9b3e
00000100: f7ff e2bd 1963 ff3d 3ef5 163c 855e 683c
00000110: 458f fabc fd7b 973d c89f 063e b97b d03b
00000120: 35d3 c23d 9771 4ebd 8056 f6bc 1cee 863e
00000130: a771 2a3d f5f7 9b3d 9d98 09be e765 ae3e
00000140: 1b81 e0be da65 8cbe e924 e7bd 4e92 893e
00000150: 273b ba3c 0ea8 7b3e cb4d 2cbc 2696 8f3d
00000160: 9c33 8ebc 7947 0f3e c763 cf3e c34b 123d
00000170: 40a4 e43c 3a3d d73c d2c3 003e 5936 d1bd
00000180: 56a3 c9bd 9153 4abd 671a 82be 2de3 953e
00000190: 2e30 d03b a501 443e 7557 8ebe feb3 4d3e
000001a0: 18c5 db3d ba40 67be 787d 17bd b835 ddbd
000001b0: 061c 81be abab a43e 5bdc d13d 8e7c 82be
000001c0: 7340 34be f168 373e 02dc ca3d 0c68 45be
000001d0: 71b7 163e b111 e1be 682a a5be 6973 493e
000001e0: 46f1 4abe 93ea b43e 9638 7b3e 4116 95bd
000001f0: e1d1 583e d659 a53e 29d7 a53e e881 1f3e
00000200: e0f8 c63c 23f7 e83e 01b0 b1bd da6b 3d3e
00000210: 2d36 1dbe 270f 663e 1f76 cf3e 3142 afbc
00000220: 4370 5c3e ec41 acbe 6ebb fabd 1c1d 5e3d
00000230: 1376 83be 7579 573e e0c9 5e3e 8d33 1cbd
00000240: 87f8 0b3e 1e03 ce3e 15b0 6f3c e9b5 4e3e
00000250: a5eb 60bd 5183 ed3d eab1 2abe d48d 733b
00000260: 98a4 52be b8cc cc3d 8c7d 3b3e c56b e1be
00000270: 1fbe 37bd ad00 63be 9728 6c3d fcc4 17bd
00000280: 4950 88bd 3993 cc3d 9a39 f33e 68c3 90be
00000290: 9baf c43e da5d e13e 12e0 bd3d 9172 853e
000002a0: 2f26 79be 1fc9 10be 4852 b5be e167 633e
000002b0: 719f e83d 2d89 023e fc7a 37bd 76d2 fdbd
000002c0: ef01 69be 3307 333e c421 f1bc 59c1 d9bd
000002d0: 316a 60bd 924a 813d 33c6 1c3f adbe b7be
000002e0: d400 a73e 9fb6 903e bf73 963e d8f6 883e
000002f0: 4582 8cbc 3c39 61be 7d92 a7bd 15ef 3ebd
00000300: da07 523d 57b1 c13c 29cc f83d 90e8 4fbe
00000310: 49f7 053d 0c61 4c3d b7d4 613c 42d5 adbd
00000320: c584 59bd 9c28 3a3e ac2a ba3e 57ea b0bd
00000330: 2e48 40bd 48f1 babe 172b b73d 29bd 25bf
00000340: 2fe6 1fbd 19b3 a93e d2b9 5d3e 5fcd d63e
00000350: 8dd8 0cbd 6b5b 5abd 5e28 393e 9c34 9cbc
00000360: 8180 613c a9a2 15bc 3a43 d9bd fa6d 55be
00000370: 156c 5a3d 9aa0 ad3e 8a78 adbd ba2e c53c
00000380: 9da3 f8bc 47b5 bd3d ae9c 1a3e 6079 0c3e
00000390: 7202 50be 05bd 183e 9c95 1a3e c6ae ae3e
000003a0: 13c3 5b3d 7093 2d3d 8831 ffbd 1e70 7e3c
000003b0: d5cf 573e 2a4c 53be 3e76 8fbd 835e 893d
000003c0: 81f0 143e 6cad 163e 72f8 a5be 978c 88be
000003d0: 41f5 113e 7295 0bbb 2950 513c 2748 4ebc
000003e0: 7601 05bf 8333 1fbe 9772 12be 1917 983d
000003f0: 814f 0bbd 77ef 903c f1bf c83d 76ea cabd

network_body._body_endoder.seq_layers.0.bias f4 [256]
-0.033313297 -0.0072264317 0.04914431 0.07772863 0.04593509 0.1288202 -0.116126694 0.023068395
-0.042903222 -0.025450312 0.14552125 -0.026837602 -0.098743856 0.00913079 -0.12386233 0.10203605
-0.03310945 0.05669467 0.036270753 -0.044676106 -0.044348367 0.022039728 -0.06703264 0.07314203
-0.023650175 0.030458795 -0.062436692 0.031229485 0.04657975 -0.0064558354 0.04223065 0.001098934
-0.012874076 0.06397121 -0.05838681 0.19541688 0.09096046 -0.021789622 -0.048574034 -0.03917463
0.03516548 0.08024361 -0.060192022 0.2476657 -0.0069240555 -0.090673655 0.13506249 -0.16967624
0.011018697 -0.13734062 -0.048535895 -0.080019 -0.043806728 0.10616874 -0.012585392 0.05696274
-0.017867211 -0.082490414 0.013397659 0.12433095 0.3760974 -0.0245815 -0.09136424 0.04788379
-0.017222203 -0.010816719 0.22142701 0.051304955 0.07743424 -0.11387719 0.009212347 0.004379174
-0.041862577 -0.10287225 -0.053267922 -0.003675452 -0.09801611 0.05659792 0.147461 -0.09517187
0.046086207 0.043184265 0.106785655 -0.030288532 0.040803082 0.02586698 -0.09939991 -0.028407784
-0.07820867 0.11117362 0.039127376 0.1695058 -0.12951888 -0.03844775 -0.09115203 -0.08795621
0.0493176 -0.036891345 -0.07898057 0.012345423 -0.032998968 -0.04836566 -0.020367203 -0.12392894
-0.06768803 0.031806204 0.1304252 0.03204494 -0.044213545 0.03272458 -0.103691384 -0.018134993
0.021217892 0.02348336 -0.000992308 -0.02864883 -0.022206748 0.00051709614 -0.022832248 0.0012175902
0.055735342 0.0740471 -0.080121934 0.05311631 0.12646902 0.019325301 0.022550587 0.032535546
0.09837761 -0.097800225 -0.16840196 -0.10526956 -0.03196801 0.15220593 0.23719023 0.031952385
0.012196313 -0.09380402 -0.019285439 0.06306954 0.121848434 0.05731291 -0.021040764 0.07426762
0.107488185 -0.06570274 -0.082313195 -0.10428446 0.043361925 0.11528541 -0.011160521 -0.092988156
-0.024971066 0.16538744 -0.0547185 -0.12838237 0.03333239 0.026496572 -0.05572375 0.024477178
0.006382491 -0.019757459 0.09570057 0.10493442 -0.072500244 0.005066562 -0.026026303 0.098653145
-0.08445323 -0.12753268 0.06261846 -0.005232805 0.031368524 0.08135682 -0.1083527 0.07662857
0.095469214 -0.020526428 -0.119390465 0.1540066 0.16604608 0.05537971 -0.059665248 0.08821037
-0.006875106 0.115529 -0.060829096 0.11378941 -0.004792839 0.04860665 -0.082402684 0.045493383
0.076117374 0.009909433 0.12249694 0.0020467606 -0.05972848 -0.08716965 -0.082770176 0.035811495
-0.08793812 0.014981699 0.17183703 0.325815 0.063939 0.036079917 -0.07369479 -0.037645675
0.080410056 0.019496692 -0.005958695 -0.011305795 0.004365303 0.03880879 0.0015635211 -0.016180744
0.079757586 0.13780953 -0.102845244 0.00774345 0.007660462 0.071293116 -0.0062095607 -0.009323959
-0.05650456 -0.06604652 -0.18048665 0.11434947 -0.09648243 -0.014090298 0.085419565 -0.0018278592
-0.034697756 0.0031625757 0.0076496955 0.1859391 0.036205623 -0.057744913 -0.04118007 -0.0628697
-0.070257746 -0.0041024927 0.016508589 0.010307896 -0.007849506 0.09021564 -0.047334336 0.08566926
-0.00314402 0.045169674 -0.010077103 -0.062392827 0.023319317 0.0080586085 0.07281832 0.05923706
00000000: 8673 08bd b4cb ecbb 8b4b 493d 3030 9f3d
00000010: 6f26 3c3d 71e9 033e d5d3 edbd eef9 bc3c
00000020: 4abb 2fbd 2c7d d0bc 8603 153e 88da dbbc
00000030: 383a cabd 4f99 153c 89ab fdbd 47f8 d03d
00000040: c69d 07bd ac38 683d a490 143d 4bfe 36bd
00000050: a2a6 35bd a98c b43c 6948 89bd 7dcb 953d
00000060: 03be c1bc b984 f93c 9ebd 7fbd fad4 ff3c
00000070: 68ca 3e3d 798b d3bb 0cfa 2c3d 1b0a 903a
00000080: caed 52bc 5603 833d 0227 6fbd 5d1b 483e
00000090: 7a49 ba3d 2680 b2bc 91f5 46bd 9475 20bd
000000a0: ae09 103d c356 a43d e98b 76bd 149c 7d3e
000000b0: 30e3 e2bb 1cb3 b9bd d24d 0a3e 9cbf 2dbe
000000c0: c487 343c 05a3 0cbe 93cd 46bd 00e1 a3bd
000000d0: af6e 33bd ff6e d93d f632 4ebc c351 693d
000000e0: 425e 92bc bcf0 a8bd db81 5b3c 3aa1 fe3d
000000f0: d78f c03e 245f c9bc 2d1d bbbd cb21 443d
00000100: 9415 8dbc 9c38 31bc c3bd 623e 2525 523d
00000110: d895 9e3d 7238 e9bd 62ef 163c 2d7f 8f3b
00000120: 1878 2bbd b0ae d2bd 772f 5abd dadf 70bb
00000130: acbc c8bd 38d3 673d 0400 173e 78e9 c2bd
00000140: e4c4 3c3d fce1 303d 70b2 da3d a81f f8bc
00000150: 2221 273d fde6 d33c 2e92 cbbd 71b7 e8bc
00000160: de2b a0bd ffae e33d 0744 203d ee92 2d3e
00000170: 99a0 04be 637b 1dbd eaad babd 6322 b4bd
00000180: 4001 4a3d 611b 17bd 91c0 a1bd 7544 4a3c
00000190: ed29 07bd 121b 46bd 1fd9 a6bc 75ce fdbd
000001a0: 06a0 8abd 3947 023d 2f8e 053e 8e41 033d
000001b0: 4319 35bd 360a 063d 265c d4bd d68f 94bc
000001c0: 25d1 ad3c 2d60 c03c 5510 82ba f3b0 eabc
000001d0: edea b5bc bc8d 073a b20a bbbc 8c97 9f3a
000001e0: be4a 643d 02a6 973d f816 a4bd 7d90 593d
000001f0: 1881 013e 1850 9e3c 02bc b83c fe43 053d
00000200: 337a c93d 7c4b c8bd 9071 2cbe 9197 d7bd
00000210: e3f0 02bd dfdb 1b3e ffe1 723e 81e0 023d
00000220: 0bd3 473c 521c c0bd 7ffc 9dbc 9a2a 813d
00000230: ac8b f93d f1c0 6a3d ae5d acbc 9f19 983d
00000240: c422 dc3d 288f 86bd d293 a8bd 1793 d5bd
00000250: 469c 313d c21a ec3d 9eda 36bc 9370 bebd
00000260: 1f90 ccbc 535b 293e 8120 60bd ab76 03be
00000270: 8b87 083d 570f d93c 963e 64bd 5d84 c83c
00000280: 3724 d13b 65da a1bc a9fe c33d dbe7 d63d
00000290: 027b 94bd 6705 a63b 1d35 d5bc a90a ca3d
000002a0: d1f5 acbd ed97 02be 1b3e 803d f377 abbb
000002b0: 487c 003d 689e a63d 05e8 ddbd 71ef 9c3d
000002c0: 5d85 c33d 0a27 a8bc fd82 f4bd e8b3 1d3e
000002d0: fc07 2a3e d6d5 623d 8c63 74bd a3a7 b43d
000002e0: 9248 e1bb 789a ec3d ee27 79bd 6c0a e93d
000002f0: 3f0d 9dbb c417 473d bdc2 a8bd 4557 3a3d
00000300: 6de3 9b3d 2d5b 223c addf fa3d f222 063b
00000310: daa5 74bd 0086 b2bd 6983 a9bd 13af 123d
00000320: e718 b4bd cd75 753c 0cf6 2f3e 39d1 a63e
00000330: 73f2 823d 89c8 133d 4bed 96bd 5a32 1abd
00000340: 07ae a43d 87b7 9f3c 2841 c3bb f13b 39bc
00000350: d10a 8f3b f7f5 1e3d 10ef cc3a 7b8d 84bc
00000360: f257 a33d f11d 0d3e 87a0 d2bd c4bc fd3b
00000370: 9d04 fb3b 2002 923d 9279 cbbb 85c3 18bc
00000380: 5371 67bd 6643 87bd 7ed1 38be 0e30 ea3d
00000390: 9598 c5bd feda 66bc 74f0 ae3d c794 efba
000003a0: 3c1f 0ebd 3743 4f3b 4caa fa3b d266 3e3e
000003b0: 594c 143d ee85 6cbd 6fac 28bd d4c1 80bd
000003c0: 4be3 8fbd 346e 86bb 053d 873c 73e2 283c
000003d0: 379b 00bc fac2 b83d a6e1 41bd 5d73 af3d
000003e0: e70b 4ebb d603 393d 6f1a 25bc 9f8f 7fbd
000003f0: 2708 bf3c 4108 043c c521 953d 8fa2 723d

network_body._body_endoder.seq_layers.2.weight f4 [256, 256]
0.14154404 0.016234618 -0.0937208 -0.0006135891 0.19882636 -0.04744748 0.092840426 0.09728849
0.15087467 0.36273438 0.045835055 -0.17553625 0.0131025035 0.18327013 -0.25629312 0.0020786056
0.035332695 0.14406356 0.22367577 0.034086607 0.12014109 -0.11653175 0.07218858 -0.036178578
0.15909871 -0.18024758 0.22676393 -0.19680272 0.11931149 -0.13749973 0.044762086 -0.112002134
0.0041415934 0.13201556 -0.19880815 -0.119676135 -0.37423965 -0.014869761 0.03040954 -0.24544123
0.044284444 0.038348928 0.12967312 -0.37215263 -0.13936487 0.15634896 -0.087865226 0.10681699
-0.111717746 0.018504256 -0.04600509 0.0049452214 0.04955462 0.1013287 -0.0330665 -0.11747613
0.11144593 0.3076814 0.05787232 0.030454539 -0.07121642 -0.069997035 -0.1491005 0.14359362
0.07676162 -0.07861966 -0.11335534 -0.04236965 0.02918068 0.10034077 0.22712019 0.3125344
0.031539742 0.080392994 0.0040834434 0.010113243 -0.014685986 -0.0063760527 0.04904877 0.12696847
0.05785171 0.028474642 -0.027409734 0.008230044 -0.29331842 -0.36471942 -0.015371765 -0.30546832
0.27755585 -0.07449564 0.17985633 -0.06480174 0.1374765 0.22627519 0.105012685 0.35495958
-0.023325061 -0.05027838 0.032687865 0.056966335 0.037840057 0.018855693 -0.09532999 0.093428105
0.17873152 0.1677339 0.056890026 0.19708264 0.09789336 -0.12731884 -0.11160317 0.12224993
0.13252096 0.07676128 0.0006096795 0.0481053 0.10499226 -0.01906686 0.21645567 -0.0964473
0.20072682 -0.108306676 0.26326284 0.35979947 0.08790773 -0.08465861 0.008025631 -0.14675762
0.0011988378 0.12490194 0.1944545 -0.19025172 0.09608598 0.09239176 0.1320442 0.21687655
-0.042898387 0.13180852 0.18675387 -0.24101247 -0.044921223 0.022327147 0.15566835 -0.3149861
0.10321009 -0.10378387 -0.07668061 -0.10880947 0.0018097622 -0.13386251 -0.018472882 -0.03629449
-0.15902355 0.0019770607 0.15580775 -0.038536932 -0.07466931 -0.07778987 -0.03379821 0.13835125
-0.26087555 0.1736756 -0.09758508 0.036417972 -0.050440583 0.06726793 0.2835801 -0.10325441
0.1023068 0.12589599 0.11265406 0.02897341 0.074083045 -0.1618349 -0.19449733 -0.08978001
0.01051275 -0.10311631 0.09922154 0.13990666 0.12681906 0.13196853 -0.11398842 0.08879514
0.061195917 -0.050741643 0.08624143 -0.007931306 -0.13446003 -0.2974939 0.33096197 -0.22120395
-0.16702302 0.007866617 -0.15204304 -0.02530385 -0.18046825 0.104797296 -0.05535161 -0.0770736
0.031757426 0.14529926 -0.23075558 -0.1829918 0.072926916 0.11781371 0.03683573 0.049595926
-0.105696276 0.09483445 0.056478344 -0.14271846 0.15628284 0.010109646 -0.01532515 0.048646156
0.14228891 -0.17849797 -0.17712025 -0.18752192 0.020859966 -0.01173248 0.20756987 0.048814956
0.06602708 0.24333298 0.03470626 -0.0072424803 0.10767173 -0.16671531 -0.19749087 -0.090694174
0.050781842 -0.03623472 0.106826104 0.013522375 0.1263103 0.17672539 0.0906654 -0.0013625626
-0.056784283 -0.32440183 -0.040470716 -0.06803618 0.12402303 -0.015579558 0.14237367 -0.079605564
0.19783339 -0.14075555 -0.02200473 -0.060411986 -0.08586219 -0.046802547 0.16896756 -0.0823786
00000000: ecf0 103e 76fe 843c b1f0 bfbd 44d9 20ba
00000010: 2399 4b3e 4a58 42bd 1f23 be3d 303f c73d
00000020: e47e 1a3e 52b8 b93e 8abd 3b3d c6bf 33be
00000030: e2ab 563c 2aab 3b3e da38 83be 3739 083b
00000040: 04b9 103d 6685 133e 430b 653e 669e 0b3d
00000050: 880c f63d 33a8 eebd 9bd7 933d fd2f 14bd
00000060: c6ea 223e d292 38be ce34 683e a786 49be
00000070: 9559 f43d bbcc 0cbe 7358 373d 6061 e5bd
00000080: 34b6 873b 162f 073e 5d94 4bbe c318 f5bd
00000090: 579c bfbe 4ca0 73bc 6d1d f93c f254 7bbe
000000a0: 9b63 353d c413 1d3d 08c9 043e ca8a bebe
000000b0: aab5 0ebe f119 203e aff2 b3bd dec2 da3d
000000c0: 46cc e4bd 3d96 973c d56f 3cbd 860b a23b
000000d0: c9f9 4a3d 6c85 cf3d bd70 07bd 5397 f0bd
000000e0: c43d e43d 6b88 9d3e 870b 6d3d cc7b f93c
000000f0: ead9 91bd 9b5a 8fbd cdad 18be 350a 133e
00000100: 3235 9d3d 5803 a1bd d826 e8bd cc8b 2dbd
00000110: 520c ef3c 767f cd3d 3292 683e 8204 a03e
00000120: d12f 013d 15a5 a43d 68ce 853b 04b2 253c
00000130: 7d9d 70bc 35ee d0bb 5de7 483d 0604 023e
00000140: eaf5 6c3d a743 e93c 618a e0bc 4ed7 063c
00000150: d52d 96be 81bc babe dbd9 7bbc 5866 9cbe
00000160: cd1b 8e3e 2c91 98bd 422c 383e c6b6 84bd
00000170: a4c6 0c3e afb4 673e e410 d73d 43bd b53e
00000180: 3314 bfbc b4f0 4dbd b6e3 053d 8855 693d
00000190: 2dfe 1a3d 4177 9a3c 5f3c c3bd 3c57 bf3d
000001a0: 6505 373e 6fc2 2b3e 8405 693d 08d0 493e
000001b0: 507c c83d df5f 02be 3490 e4bd 2c5e fa3d
000001c0: 93b3 073e 0535 9d3d e6d2 1f3a 100a 453d
000001d0: 2f06 d73d 1b32 9cbc 8ea6 5d3e 2986 c5bd
000001e0: 558b 4d3e e4cf ddbd 63ca 863e a337 b83e
000001f0: f808 b43d 7e61 adbd f07d 033c a147 16be
00000200: 5222 9d3a 97cc ff3d 151f 473e 59d1 42be
00000210: bac8 c43d e437 bd3d 9836 073e e314 5e3e
00000220: 38b6 2fbd d0f8 063e 683c 3f3e f9cb 76be
00000230: 51ff 37bd 6ce7 b63c 8667 1f3e dc45 a1be
00000240: d05f d33d a38c d4bd b90a 9dbd 80d7 debd
00000250: 8b35 ed3a 4113 09be 7154 97bc 88a9 14bd
00000260: 12d7 22be 9391 013b 118c 1f3e e7d8 1dbd
00000270: 39ec 98bd 4c50 9fbd fe6f 0abd f3ab 0d3e
00000280: 7b91 85be 04d8 313e b0da c7bd 032b 153d
00000290: c99a 4ebd c5c3 893d 6931 913e 0c77 d3bd
000002a0: 3a86 d13d e1ea 003e 2cb7 e63d a559 ed3c
000002b0: dab8 973d 0cb8 25be 4f2a 47be 95de b7bd
000002c0: ab3d 2c3c a52e d3bd aa34 cb3d b143 0f3e
000002d0: dbdc 013e c222 073e c372 e9bd 3ada b53d
000002e0: 92a8 7a3d 78d6 4fbd 599f b03d 4ff2 01bc
000002f0: e4af 09be 1f51 98be d973 a93e 4a83 62be
00000300: 1508 2bbe fce2 003c 2cb1 1bbe 054a cfbc
00000310: abcc 38be f79f d63d 5fb8 62bd c3d8 9dbd
00000320: 1314 023d 54c9 143e 314b 6cbe 3462 3bbe
00000330: b55a 953d 5048 f13d 10e1 163d 1925 4b3d
00000340: 4a77 d8bd 9038 c23d d655 673d ca24 12be
00000350: 9c08 203e eea2 253c 5716 7bbc 3141 473d
00000360: 2fb4 113e 2cc8 36be 035f 35be bf05 40be
00000370: 85e2 aa3c 9639 40bc 328d 543e 31f2 473d
00000380: 3539 873d 482c 793e 2728 0e3d 5452 edbb
00000390: ff82 dc3d 6bb7 2abe 0c3b 4abe debd b9bd
000003a0: 9f00 503d dc6a 14bd a5c7 da3d f48c 5d3c
000003b0: 7d57 013e 80f7 343e c8ae b93d 0498 b2ba
000003c0: a396 68bd ff17 a6be 9fc4 25bd 8e56 8bbd
000003d0: c9ff fd3d 6741 7fbc 67ca 113e 3e08 a3bd
000003e0: d694 4a3e 3922 10be 4343 b4bc 8f72 77bd
000003f0: 84d8 afbd 07b4 3fbd d505 2d3e 1db6 a8bd

network_body._body_endoder.seq_layers.2.bias f4 [256]
-0.082834005 -0.15800315 -0.04583996 -0.063991316 -0.1400766 -0.026641663 -0.047214083 -0.07559993
-0.1051853 -0.046241138 -0.056670234 -0.11543712 -0.15246028 -0.030369492 -0.03759524 0.02143597
-0.09269869 -0.020261228 -0.067274034 -0.06803768 -0.14956464 -0.097861886 -0.049280103 0.013756334
-0.12269715 -0.07627078 -0.014981786 -0.0266038 -0.14247575 -0.03845467 -0.26876047 -0.03426559
-0.2458561 -0.036842827 -0.081439294 -2.2244129e-05 -0.013083605 -0.07108437 -0.028618572 -0.056258187
-0.06259948 -0.07519443 -0.29173684 0.004557569 -0.028920872 -0.18313985 -0.11563296 0.0326643
-0.1713008 0.10637557 -0.06548981 0.09384615 -0.019926481 -0.011107076 -0.03599446 -0.09890182
-0.09353924 -0.04899539 -0.09900931 0.036102973 -0.059697747 -0.04636311 -0.21154228 -0.010094732
-0.09123933 -0.1557419 -0.022686927 -0.052777916 -0.09024921 -0.010068435 0.027269792 -0.014179349
-0.048122235 -0.009201709 -0.080081716 0.049104497 0.010590607 0.07255494 -0.1000661 -0.06677572
-0.011877154 -0.0142371245 -0.05058697 -0.06657117 -0.026156522 0.075094014 -0.15420379 -0.03148139
-0.035465743 -0.0834302 0.03642241 -0.010733681 -0.059110787 -0.07263349 -0.090384245 -0.08413898
-0.21803555 -0.13153051 0.05624629 -0.0471946 -0.12796243 0.009297558 0.070901416 -0.12742965
-0.010689025 0.009424763 -0.09903486 0.023431754 -0.14086518 -0.10423435 0.004926335 0.05001558
0.027309513 -0.02574792 -0.013151791 0.053718857 -0.07504134 0.055733107 -0.1405481 -0.06954475
-0.13189499 -0.018935012 -0.080571815 0.058147557 -0.1556505 0.06126503 -0.059288032 0.15694651
-0.16027778 -0.13003185 -0.024840115 -0.0047883405 -0.11965118 -0.062242746 -0.2241426 -0.02999563
-0.03169021 -0.06868326 0.057770565 0.016115248 -0.10429925 -0.112837985 -0.07683786 0.024902586
-0.1271538 0.09208035 -0.09439259 -0.059265427 -0.14451656 -0.026200946 -0.1485883 -0.03476151
-0.104298756 -0.17327043 -0.026396235 0.062139444 -0.05900659 -0.088728845 -0.14856829 -0.049191043
-0.09854677 -0.10044279 0.123007484 -0.074722685 0.03894164 -0.13817194 -0.08689072 -0.051375344
-0.1914076 -0.009063028 -0.03865208 -0.027866922 0.02252421 -0.20080511 0.014478445 -0.22320892
0.07258176 -0.11895041 -0.055009335 -0.13534835 -0.01067748 0.053938705 -0.10464612 0.031525873
-0.15762906 -0.015809055 -0.00016484088 -0.06004938 -0.18969421 -0.040153567 -0.11606668 0.042519245
-0.21257947 0.033137605 -0.025436003 0.027528735 0.026160305 -0.043578662 -0.11519852 -0.09324851
-0.18091018 -0.12535192 0.07109441 -0.062568925 0.027263261 -0.20097949 -0.11151453 -0.04913898
-0.1340874 -0.028882643 -0.085077785 0.037333585 -0.044347387 -0.091888346 -0.024012523 -0.11613751
-0.02005025 -0.029957805 -0.014589193 -0.12963046 -0.0639139 -0.09084161 0.02582923 -0.015206549
-0.0970174 -0.024224062 0.016936352 -0.073328875 0.075114414 -0.056315396 -0.034912176 -0.05321072
-0.022322237 -0.061600864 -0.010789225 0.056255404 0.0058170524 -0.11345393 -0.034687616 -0.071436554
-0.24774343 -0.021491965 -0.14911704 -0.06119694 -0.14194986 -0.0250629 -0.009087371 -0.14912197
-0.085581064 0.04306553 -0.11312954 -0.074079596 -0.13650165 0.08319166 0.033355523 -0.03409185
00000000: e0a4 a9bd 94cb 21be afc2 3bbd e10d 83bd
00000010: 3d70 0fbe 9e3f dabc 8e63 41bd 23d4 9abd
00000020: 646b d7bd 5967 3dbd 0c1f 68bd 4c6a ecbd
00000030: 8c1e 1cbe 71c9 f8bc 77fd 19bd 7d9a af3c
00000040: d0d8 bdbd e0fa a5bc f8c6 89bd 5757 8bbd
00000050: 7927 19be d06b c8bd efd9 49bd 3f62 613c
00000060: a548 fbbd db33 9cbd 2a76 75bc 36f0 d9bc
00000070: 2ae5 11be a582 1dbd f99a 89be 135a 0cbd
00000080: b4c1 7bbe 81e8 16bd a5c9 a6bd e798 bab7
00000090: 9e5c 56bc af94 91bd 7f71 eabc fc6e 66bd
000000a0: 2834 80bd 8aff 99bd 885e 95be a957 953b
000000b0: 77eb ecbc 0389 3bbe f9d0 ecbd 00cb 053d
000000c0: 7a69 2fbe 6fdb d93d 861f 86bd 6932 c03d
000000d0: dc3c a3bc 74fa 35bc ed6e 13bd 0a8d cabd
000000e0: 8091 bfbd 64af 48bd 65c5 cabd b6e0 133d
000000f0: a085 74bd 3fe7 3dbd 8a9e 58be 6064 25bc
00000100: b0db babd ce7a 1fbe efd9 b9bc a82d 58bd
00000110: 94d4 b8bd 14f6 24bc e664 df3c 8050 68bc
00000120: d21b 45bd c4c2 16bc e201 a4bd cc21 493d
00000130: 3a84 2d3c af97 943d 75ef ccbd b5c1 88bd
00000140: 6598 42bc d442 69bc 4834 4fbd 7756 88bd
00000150: 3446 d6bc e4ca 993d 99e7 1dbe a1f2 00bd
00000160: 8744 11bd 74dd aabd aa2f 153d 52dc 2fbc
00000170: 271e 72bd dec0 94bd 601b b9bd 0f51 acbd
00000180: b644 5fbe efaf 06be 8362 663d 204f 41bd
00000190: 9508 03be c954 183c c334 913d eb7c 02be
000001a0: 0521 2fbc 526a 1a3c cad2 cabd f3f3 bf3c
000001b0: f63e 10be d278 d5bd 186d a13b 23dd 4c3d
000001c0: 33b8 df3c 4ded d2bc 9c7a 57bc 4e08 5c3d
000001d0: 46af 99bd 6648 643d d7eb 0fbe 7a6d 8ebd
000001e0: 7b0f 07be 991d 9bbc d602 a5bd 222c 6e3d
000001f0: d862 1fbe 0af1 7a3d 02d8 72bd 96b6 203e
00000200: dc1f 24be 1227 05be 7f7d cbbc 83e7 9cbb
00000210: ae0b f5bd 40f2 7ebd a385 65be 65b9 f5bc
00000220: 98cd 01bd cfa9 8cbd d4a0 6c3d 2004 843c
00000230: d89a d5bd 9a17 e7bd 2b5d 9dbd 8200 cc3c
00000240: 9b34 02be 9f94 bc3d e750 c1bd 4ec0 72bd
00000250: 26fc 13be 5ea3 d6bc 8827 18be 1662 0ebd
00000260: 969a d5bd ce6d 31be eb3c d8bc ee85 7e3d
00000270: e5b0 71bd 78b7 b5bd 4922 18be 8c7c 49bd
00000280: e4d2 c9bd f3b4 cdbd 59eb fb3d 3508 99bd
00000290: 4581 1f3d f27c 0dbe c3f3 b1bd f46e 52bd
000002a0: 5b00 44be 187d 14bc a551 1ebd 2c49 e4bc
000002b0: b184 b83c db9f 4dbe 0037 6d3c e190 64be
000002c0: bfa5 943d 469c f3bd 7851 61bd c298 0abe
000002d0: 99f0 2ebc d5ee 5c3d b450 d6bd 4621 013d
000002e0: 8369 21be fe81 81bc 23d9 2cb9 57f6 75bd
000002f0: 333f 42be 1178 24bd 5eb4 edbd a928 2e3d
00000300: 6fae 59be 4cbb 073d 2a5f d0bc f183 e13c
00000310: 234e d63c 8a7f 32bd 34ed ebbd 13f9 bebd
00000320: 8540 39be 415c 00be f299 913d 2324 80bd
00000330: 3457 df3c 91cd 4dbe bb61 e4bd f545 49bd
00000340: 354e 09be 4b9b ecbc 433d aebd 1aeb 183d
00000350: 9ba5 35bd f52f bcbd e9b5 c4bc 81d9 edbd
00000360: 6c40 a4bc 126a f5bc 8307 6fbc d9bd 04be
00000370: 4ae5 82bd 2b0b babd d297 d33c e424 79bc
00000380: 0fb1 c6bd 8a71 c6bc 1bbe 8a3c 732d 96bd
00000390: 96d5 993d f9aa 66bd 1200 0fbd 7cf3 59bd
000003a0: 20dd b6bc 3051 7cbd 4ac5 30bc 116c 663d
000003b0: f99c be3b 895a e8bd 9a14 0ebd 544d 92bd
000003c0: 74b0 7dbe eb0f b0bc 23b2 18be a4a9 7abd
000003d0: 4e5b 11be b650 cdbc 32e3 14bc 6eb3 18be
000003e0: 2045 afbd 7b65 303d 76b0 e7bd 0bb7 97bd
000003f0: 17c7 0bbe 6460 aa3d cd9f 083d e5a3 0bbd

action_model._discrete_distribution.branches.0.weight f4 [3, 256]
0.030958917 0.23341195 0.32174328 0.06230736 -0.2157363 -0.17364645 -0.20158713 0.006425194
0.02948671 0.4359862 0.18510595 0.25865778 -0.049557664 -0.0055001695 0.56317073 0.13673398
-0.24751334 0.11291191 -0.29813635 -0.16736607 0.33384994 -0.4566904 0.18793383 -0.090689346
0.040471837 -0.04606977 0.23175283 -0.19804549 0.03454782 -0.46022066 -0.04588671 -0.23346917
-0.10829383 0.012317367 -0.018380862 -0.36363482 0.27483496 -0.14011429 0.19673483 0.41415012
0.40977815 -0.010016241 0.065736376 0.28788176 -0.31243548 0.02197926 -0.08678087 0.047781795
-1.002885 0.270047 0.1447677 -0.12875606 -0.5105443 -0.19970031 0.018089332 -0.42898765
0.32576102 0.29894325 -0.013291613 -0.06606237 -0.34431428 -0.35100517 -0.6341539 -0.20561904
-0.18781163 -0.012520996 0.41156596 0.44412032 -0.29049507 0.20388867 -0.10957446 0.028700367
0.07882815 0.43730715 -0.13327932 0.07861189 -0.029860279 -0.19302446 -0.17457138 0.33679858
0.2929977 -0.13370945 0.017655129 -0.53934586 0.11371306 0.09773836 -0.16966681 -0.37071937
0.057289474 0.25899574 0.092397094 -0.100889616 0.23444545 0.33682573 0.34403312 0.30540806
0.056140706 -0.028636489 0.0123262275 -0.09659621 0.005501698 0.09487347 -0.0006940584 0.078476146
0.32071263 -0.11752099 0.14827694 0.039139275 0.05973926 -0.24093562 0.073800474 0.03173141
-1.3734236 -0.2419724 0.17421076 0.122334056 0.17321737 0.40189323 -0.29985815 -0.23615356
-0.023878993 0.19985777 -0.19164243 -0.13323554 0.26530084 -0.13982658 -0.20934409 0.19916165
0.20899712 -0.5811939 -0.04248291 0.16900228 0.26792037 -0.039330497 0.10584678 0.08471885
-0.028461553 -0.7587677 0.63409185 -0.10051424 0.22246453 0.117967434 -0.17972498 0.27848092
-0.18438783 0.24587601 -0.29762542 0.6396805 0.07386448 -0.26545975 0.35162753 -0.1064791
0.2752862 0.10005761 -0.87836945 -0.10388151 -0.31339598 0.020940656 0.6225554 0.25176367
0.00063967047 -0.038639314 -0.0056692837 -0.3496824 0.113952115 0.18103962 0.26854423 -0.012154646
-0.03311312 0.09095073 -0.119477384 -0.008427751 0.048757393 0.17271078 -0.11942033 0.13480839
0.31766582 0.055671737 0.21511948 -0.017545007 -0.01765013 -0.05772706 -0.13968328 0.249882
-0.31057426 -0.40527478 0.13264444 0.028044356 0.31343004 0.17272979 0.043200117 0.016058842
0.511744 0.5646485 0.053518765 0.09480616 0.14385034 0.24908845 3.909356e-05 0.08314591
-0.10163159 -0.16168925 0.13345392 -0.035812963 0.14338869 -0.36385405 0.08445427 -0.21566
-0.017870987 0.03194793 0.60956585 0.5245322 0.19773531 0.035850108 0.13868748 -0.004464724
-0.0014566031 -0.18733989 0.17240648 -0.40111697 0.08971593 0.006122023 -0.15338236 0.08115459
-0.2263992 0.036179867 -0.03996015 -0.05512412 -0.043084595 0.2807766 -0.10257234 0.10370231
0.17383529 -0.20097533 -0.18288447 -0.23233047 -0.14505455 -0.34781846 -0.24050556 0.059106335
-1.3201749 -0.42324916 -0.06548999 -0.20928769 0.6369611 0.2367179 0.22124286 0.0342133
-0.36971572 -0.2855814 0.13737164 -0.20134711 -0.08692431 -1.0123518 0.044754297 -0.31436428
00000000: 8e9d fd3c 8b03 6f3e 89bb a43e 0136 7f3d
00000010: fae9 5cbe 60d0 31be db6c 4ebe 6f8a d23b
00000020: 1d8e f13c 9539 df3e 6a8c 3d3e cb6e 843e
00000030: fafc 4abd c43a b4bb f52b 103f fe03 0c3e
00000040: 2374 7dbe 5c3e e73d 54a5 98be 0362 2bbe
00000050: 61ee aa3e 53d3 e9be ba71 403e 56bb b9bd
00000060: ccc5 253d a8b3 3cbd 9d50 6d3e 70cc 4abe
00000070: 0482 0d3d 0ba2 ebbe b4f3 3bbd 8b12 6fbe
00000080: 28c9 ddbd c8ce 493c 7693 96bc 582e babe
00000090: 2bb7 8c3e 1f7a 0fbe db74 493e 7c0b d43e
000000a0: 71ce d13e 291b 24bc cba0 863d 3d65 933e
000000b0: 8bf7 9fbe d90d b43c 2bba b1bd d8b6 433d
000000c0: 895e 80bf 9a43 8a3e fc3d 143e a1d8 03be
000000d0: 08b3 02bf 3d7e 4cbe 1430 943c 45a4 dbbe
000000e0: 26ca a63e 170f 993e 11c5 59bc b54b 87bd
000000f0: f649 b0be f3b6 b3be e957 22bf cc8d 52be
00000100: b151 40be dd24 4dbc c6b8 d23e bd63 e33e
00000110: c5bb 94be 31c8 503e 9368 e0bd 081d eb3c
00000120: a770 a13d b9e6 df3e 607a 08be 45ff a03d
00000130: 8b9d f4bc 34a8 45be d7c2 32be dd70 ac3e
00000140: cb03 963e 21eb 08be 7da1 903c 9212 0abf
00000150: 65e2 e83d 0d2b c83d 23bd 2dbe eece bdbe
00000160: 5ea8 6a3d 179b 843e b03a bd3d 379f cebd
00000170: 7812 703e 6c74 ac3e 1c25 b03e 725e 9c3e
00000180: ccf3 653d 1297 eabc f2f3 493c 3cd4 c5bd
00000190: 9647 b43b 064d c23d 79f1 35ba 1ab8 a03d
000001a0: 7234 a43e d8ae f0bd e9d5 173e 8150 203d
000001b0: 27b1 743d d4b7 76be b424 973d ccf8 013d
000001c0: 58cc afbf 9dc7 77be 4e64 323e 478a fa3d
000001d0: e55f 313e f3c4 cd3e 0287 99be 3dd2 71be
000001e0: e19d c3bc 84a7 4c3e ea3d 44be e66e 08be
000001f0: 83d5 873e b32e 0fbe 4c5e 56be 08f1 4b3e
00000200: 5703 563e 20c9 14bf 8f02 2ebd ef0e 2d3e
00000210: dc2c 893e 0419 21bd 32c6 d83d 1481 ad3d
00000220: 3428 e9bc 9a3e 42bf d853 223f 69da cdbd
00000230: becd 633e e998 f13d d309 38be 0d95 8e3e
00000240: 2ad0 3cbe ecc6 7b3e 5c62 98be 1ac2 233f
00000250: 4346 973d 57ea 87be 8608 b43e b711 dabd
00000260: 50f2 8c3e 01eb cc3d d2dc 60bf d4bf d4bd
00000270: 7075 a0be bd8b ab3c ca5f 1f3f 2be7 803e
00000280: 8faf 273a 4244 1ebd 66c5 b9bb 9209 b3be
00000290: ba5f e93d 7362 393e a17e 893e 4824 47bc
000002a0: 9fa1 07bd 6044 ba3d 8fb0 f4bd 8d14 0abc
000002b0: d5b5 473d 18db 303e a592 f4bd 360b 0a3e
000002c0: 18a5 a23e 0c08 643d 4848 5c3e 8cba 8fbc
000002d0: 0197 90bc 3673 6cbd 2209 0fbe 11e1 7f3e
000002e0: 9703 9fbe 2d80 cfbe f2d3 073e 47bd e53c
000002f0: e779 a03e 14e0 303e 9bf2 303d d58d 833c
00000300: a801 033f ce8c 103f 7e36 5b3d bb29 c23d
00000310: 814d 133e 0b11 7f3e 64f8 2338 6748 aa3d
00000320: 3924 d0bd de91 25be 25a8 083e 9db0 12bd
00000330: 7cd4 123e 144b babe 5cf6 ac3d fad5 5cbe
00000340: 2d66 92bc d5db 023d 820c 1c3f be47 063f
00000350: 207b 4a3e 90d7 123d 1704 0e3e d24c 92bb
00000360: 7deb beba 07d6 3fbe 538b 303e 345f cdbe
00000370: fcbc b73d 409b c83b 4410 1dbe 6134 a63d
00000380: 31d5 67be 5731 143d 41ad 23bd d4c9 61bd
00000390: 7979 30bd f3c1 8f3e 7211 d2bd e061 d43d
000003a0: e101 323e 7acc 4dbe 1146 3bbe 0ae8 6dbe
000003b0: 2e89 14be 4315 b2be 1747 76be 7c19 723d
000003c0: 7efb a8bf 1db4 d8be 9e1f 86bd 834f 56be
000003d0: e20f 233f 2d66 723e 7d8d 623e 3f23 0c3d
000003e0: 614b bdbe ba37 92be 27ab 0c3e f02d 4ebe
000003f0: 5f05 b2bd be94 81bf 4850 373d 5bf4 a0be

action_model._discrete_distribution.branches.0.bias f4 [3]
-0.05353807 0.081591934 -0.069280185
00000000: bc4a 5bbd ac19 a73d c5e2 8dbd

action_model._discrete_distribution.branches.1.weight f4 [3, 256]
-0.0015801075 0.46525535 -0.23803145 0.89624244 -0.061901096 -0.015409703 0.17479149 0.38160485
-0.14871457 -0.15569383 0.17994513 -0.06671468 -0.19738173 -0.016004406 0.21520434 0.061083727
-0.24435695 -0.0071500735 0.08855696 -0.24796787 -0.5412257 0.24904774 -0.05984321 -0.031833272
-0.4250447 -0.18919373 -0.25618565 -0.0041992124 -0.1516596 -0.2646938 0.4010208 -0.1491194
0.18175654 -0.4138559 -0.08461249 -0.06621048 0.032840457 0.004696053 0.114518896 -0.06794727
-0.2216921 -0.03447557 0.062184688 -0.15044355 -0.2502028 0.11743896 -0.038340364 -0.45327914
0.1348284 0.15741143 -0.34067187 -0.014121576 0.05569444 0.029395357 -0.09707933 0.011177582
-0.05529532 -0.11495963 -0.20299934 -0.2630015 -0.18987362 0.14961477 -0.059211947 -0.124287635
-0.13409707 -0.2531417 -0.080174744 0.15897298 -0.019800259 0.021124436 0.08760384 -0.24065968
0.06500809 -0.31619814 0.17454308 -0.29105055 -0.358431 -0.053905003 0.18659714 -0.020281374
0.16187233 0.090738624 -0.2329641 0.14184093 0.091073014 -0.26118138 -0.14288236 0.06676246
-0.29165927 -0.36083522 0.27855453 -0.13533805 -0.3168591 0.088900544 0.32048565 -0.276215
0.026855526 0.04175956 -0.05355677 0.17756602 0.024055224 0.0850476 -0.24757928 0.019818282
-0.5572911 0.085022084 0.36861965 0.107713796 -0.31519824 -0.0705616 0.0060412455 0.3841414
-0.03636198 0.13555534 0.08825872 -0.24352103 0.04247342 0.012367208 -0.47624588 0.0433818
-0.07003167 -0.12151668 0.0077117975 -0.4346002 -0.17720295 0.07460279 -0.20941913 0.18462825
-0.44548488 -0.16587569 -0.009159971 0.006910332 -0.5356034 0.019102924 0.55958265 0.055912375
-0.66069895 0.084513545 -0.36546427 0.086379506 -0.19764812 0.094771326 0.037687458 -0.25254378
-0.4175458 0.2279414 -0.11219543 0.32244962 -0.32268864 0.24138287 -0.25816283 -0.030977527
-0.36681235 0.53017586 -0.046539303 -0.03521111 0.049362607 -0.19478746 -0.39702332 0.2335515
0.025975898 -0.46226415 0.040656812 0.20982714 -0.12794837 -0.39854634 -0.0031042171 -0.0973954
0.03877994 0.061388824 0.005559219 0.23672661 -0.45031074 0.6375617 0.32259792 -0.3344764
0.22108531 -0.26080477 0.085155256 0.31036103 -0.47578335 -0.035090186 -0.12184893 0.30350617
-0.40020418 -0.0006188148 0.07374612 -0.056438815 0.22765535 -0.2534471 0.5372538 -0.39272505
0.51184005 -0.20597331 -0.24550322 -0.34326172 -0.067553 0.06294719 0.004746152 0.19662268
-0.38355345 -0.25465927 -0.039128866 -0.12361863 0.10370173 -0.1347741 -0.14161097 -0.17745568
-0.13494106 0.044999715 0.27960896 0.0138322795 -0.22781956 -0.40430817 0.14008138 -0.12350187
0.23435287 0.26376417 0.4506416 0.31219167 -0.2612482 -0.13591503 -0.111335784 -0.36881566
-0.22564936 -0.012725266 -0.014696584 -0.28959954 -0.049927156 0.15085314 0.177759 -0.28154588
-0.0892819 0.078578964 0.08315739 0.14423941 -0.013574592 -0.07111946 -0.22280242 0.01896668
-0.20775451 0.0899079 -0.224081 -0.20115615 0.3965747 -0.33584642 -0.0728107 -0.62939733
-0.22171976 -0.12876181 -0.25898978 -0.2010955 -0.01921824 0.030625602 0.10485932 0.12355977
00000000: 9c1b cfba f335 ee3e 84be 73be 2570 653f
00000010: 018c 7dbd fb78 7cbc 8afc 323e b661 c33e
00000020: a248 18be 346e 1fbe 8943 383e b5a1 88bd
00000030: 701e 4abe ac1b 83bc 875e 5c3e ee32 7a3d
00000040: b538 7abe 2a4b eabb 5a5d b53d 4aeb 7dbe
00000050: c48d 0abf 5f06 7f3e 271e 75bd 9b63 02bd
00000060: 759f d9be 00bc 41be c42a 83be 8c99 89bb
00000070: a74c 1bbe f285 87be 9952 cd3e c2b2 18be
00000080: 631e 3a3e ece4 d3be 5049 adbd 5c99 87bd
00000090: b783 063d 59e1 993b e288 ea3d f027 8bbd
000000a0: 4103 63be 4136 0dbd 5fb5 7e3d e00d 1abe
000000b0: 951a 80be d683 f03d c90a 1dbd 3414 e8be
000000c0: 7510 0a3e 7630 213e 8b6c aebe 2f5e 67bc
000000d0: da1f 643d 88ce f03c 87d1 c6bd 2d22 373c
000000e0: 587d 62bd f46f ebbd 0fdf 4fbe 22a8 86be
000000f0: 3b6e 42be 9d34 193e 3a88 72bd 848a febd
00000100: be50 09be ca9b 81be a832 a4bd d0c9 223e
00000110: 2734 a2bc 270d ad3c a469 b33d 7e6f 76be
00000120: f622 853d b9e4 a1be 6cbb 323e 9404 95be
00000130: 4584 b7be 7ecb 5cbd 5213 3f3e 2025 a6bc
00000140: dcc1 253e 2cd5 b93d 248e 6ebe c03e 113e
00000150: 7d84 ba3d 91b9 85be c14f 12be c2ba 883d
00000160: 5d54 95be 65bf b8be b39e 8e3e 0f96 0abe
00000170: 5b3b a2be 7d11 b63d b216 a43e 0d6c 8dbe
00000180: 1f00 dc3c 130c 2b3d 585e 5bbd ded3 353e
00000190: 760f c53c 702d ae3d 6c85 7dbe f359 a23c
000001a0: a1aa 0ebf 0f20 ae3d b7bb bc3e 0d99 dc3d
000001b0: aa61 a1be 9a82 90bd a4f5 c53b 2eae c43e
000001c0: 4df0 14bd 05cf 0a3e fdc0 b43d 945d 79be
000001d0: 9cf8 2d3d d49f 4a3c 80d6 f3be 1db1 313d
000001e0: c46c 8fbd bddd f8bd 3fb3 fc3b eb83 debe
000001f0: b174 35be 59c9 983d f871 56be 300f 3d3e
00000200: 9816 e4be 51db 29be b413 16bc 1170 e23b
00000210: 4e1d 09bf bc7d 9c3c cf40 0f3f 6004 653d
00000220: 9123 29bf 7015 ad3d 221e bbbe bde7 b03d
00000230: 4564 4abe 7817 c23d 2a5e 1a3d 6b4d 81be
00000240: 90c8 d5be 7869 693e b8c6 e5bd 1e18 a53e
00000250: 7237 a5be 122d 773e eb2d 84be 95c4 fdbc
00000260: d4ce bbbe 9bb9 073f ff9f 3ebd 8639 10bd
00000270: 7230 4a3d 5d76 47be a446 cbbe 2028 6f3e
00000280: 68cb d43c e3ad ecbe c287 263d eddc 563e
00000290: e604 03be 440e ccbe 1f70 4bbb 3d77 c7bd
000002a0: b7d7 1e3d d972 7b3d 1c2a b63b 7668 723e
000002b0: 218f e6be 3e37 233f 8e2b a53e 7e40 abbe
000002c0: 3064 623e 3488 85be e165 ae3d a4e7 9e3e
000002d0: e099 f3be baba 0fbd ef8b f9bd 2965 9b3e
000002e0: 90e7 ccbe f537 22ba 3508 973d 632c 67bd
000002f0: 7c1e 693e d1c3 81be 7789 093f 4213 c9be
00000300: f307 033f abea 52be 3265 7bbe 00c0 afbe
00000310: 3a59 8abd 75ea 803d 9c85 9b3b 7557 493e
00000320: 1e61 c4be b362 82be 9745 20bd c42b fdbd
00000330: 9361 d43d 3902 0abe 7702 11be f1b6 35be
00000340: fd2d 0abe 9f51 383d e828 8f3e c9a0 623c
00000350: 8849 69be 7b01 cfbe 7e71 0f3e 8cee fcbd
00000360: 33fa 6f3e 190c 873e 7fba e63e 96d7 9f3e
00000370: 53c2 85be 4f2d 0bbe 0404 e4bd 68d5 bcbe
00000380: a010 67be a27d 50bc f1c9 70bc 6446 94be
00000390: 6b80 4cbd 3f79 1a3e 7506 363e c826 90be
000003a0: 6ed9 b6bd 02ee a03d 6c4e aa3d 7fb3 133e
000003b0: f767 5ebc 14a7 91bd 5126 64be 0360 9b3c
000003c0: 99bd 54be a221 b83d 7d75 65be e1fb 4dbe
000003d0: d70b cb3e 10f4 abbe c71d 95bd 2f20 21bf
000003e0: 810a 63be 23da 03be 4f9a 84be fbeb 4dbe
000003f0: 926f 9dbc 8be2 fa3c 7cc0 d63d e80c fd3d

action_model._discrete_distribution.branches.1.bias f4 [3]
0.095848516 -0.10923621 -0.069571085
00000000: 3a4c c43d 3cb7 dfbd 497b 8ebd
