results/ppo/LoopAgent.onnx (onnx, 384082 bytes, 9 tensors)

discrete_act_size_vector f4 [1, 2]
0	0x40400000	3.0
1	0x40400000	3.0

network_body._body_endoder.seq_layers.0.weight f4 [256, 104]
0	0x3e149c5e	0.14512774
1	0x3d8a835d	0.06763337
2	0x3ea5c73c	0.32378566
3	0x3ee8b417	0.45449898
4	0xbe00517a	-0.12531081
5	0x3c973a29	0.01846035
6	0xbe808d71	-0.2510791
7	0x3f126667	0.57187504
8	0x3e94f6fe	0.2909469
9	0xbc12e87d	-0.008966562
10	0xbf8f97ac	-1.1218162
11	0xbf6d4fef	-0.92700094
12	0x3dd6c1e7	0.10486203
13	0x3d46dccc	0.048550412
14	0xbe9d83f0	-0.30764723
15	0x3e8e04ef	0.2773814
16	0xbebdaee1	-0.37047485
17	0x3e240214	0.16016418
18	0xbddb414c	-0.10705814
19	0xbe3c4d09	-0.18388762
20	0x3ea40069	0.32031563
21	0x3bc45696	0.005991767
22	0xbe4655f9	-0.19368733
23	0x3f1c14fb	0.60969514
24	0xbdb0749f	-0.08615994
25	0xbdd8ecd1	-0.10592044
26	0xbd2df601	-0.042470936
27	0x3e94d6b7	0.29070064
28	0xbe58d030	-0.21173167
29	0x3efa968d	0.48942986
30	0x3f0bef0a	0.5466162
31	0xbf11e05f	-0.5698299
32	0x3e233f8a	0.15942207
33	0x3e1610d6	0.1465486
34	0xbf281e8a	-0.656716
35	0x3ee69535	0.4503571
36	0x3ed3304d	0.41247788
37	0x3c540a13	0.012941855
38	0xbf342d9e	-0.70382106
39	0x3e1f6683	0.15566449
40	0xbf1b6eed	-0.60716134
41	0xbd165630	-0.03670329
42	0xbe9d526c	-0.30726945
43	0x3e9b63b1	0.30349496
44	0xbd7ebe87	-0.06219342
45	0xbe82b982	-0.25532156
46	0xbe0fd87b	-0.14047424
47	0xbdcde5ac	-0.10053572
48	0xbe594415	-0.21217377
49	0xbd6e0698	-0.058111757
50	0x3fb7b48d	1.4351975
51	0xbe7e5efe	-0.24840924
52	0xbda6babe	-0.08141087
53	0xbd9c9208	-0.07645041
54	0xbe9dbe78	-0.3080938
55	0x3eac1ef0	0.33617353
56	0xbd3df279	-0.046373818
57	0x3e9413a6	0.2892124
58	0x3ef04bc4	0.46932805
59	0x3f02b021	0.5105
60	0xbe2fa727	-0.17153607
61	0xbeb980f5	-0.362312
62	0xbe9172a5	-0.2840778
63	0x3e96f274	0.29481852
64	0xbeb6f94d	-0.35737076
65	0x3e6d8be2	0.23197892
66	0xbe68f3d4	-0.22749263
67	0x3e361b1f	0.17783783
68	0x3dbe9099	0.093049236
69	0x39d7cd0c	0.00041160767
70	0x3f33d044	0.70239663
71	0x3db207bc	0.086928815
72	0x3e338cb9	0.1753415
73	0xbd0de224	-0.034639493
74	0x3b9590f6	0.0045644
75	0x3e50c0ee	0.20386097
76	0x3ea16900	0.3152542
77	0xbe63a6e4	-0.22231632
78	0xbd0fcc65	-0.035107035
79	0x3ecea7dc	0.40362442
80	0xbee60d51	-0.44932035
81	0xbf28a324	-0.6587393
82	0xbebe7773	-0.37200508
83	0x3e8a7b3b	0.27047142
84	0x3c6568c1	0.014002026
85	0xbca6a88c	-0.020344041
86	0xbe2a808a	-0.16650596
87	0x3e325a9c	0.17417377
88	0xbe167bb5	-0.14695628
89	0x3dc4aa79	0.096028276
90	0x3f5d6db4	0.8649552
91	0x3e1f68a2	0.15567258
92	0x3e85e679	0.261524
93	0xbe045c9e	-0.12925956
94	0xbdc0bf50	-0.0941149
95	0xbea2c54e	-0.31791157
96	0x3e068abc	0.1313886
97	0xbe0dc900	-0.13846207
98	0xbe0c3c53	-0.13694887
99	0x3e2b3885	0.16720779
100	0xbdb57e99	-0.08862037
101	0x3eaf225f	0.3420591
102	0xbf4c2fdc	-0.7976053
103	0x3db424b8	0.08796066
104	0x3d222728	0.039588124
105	0xbefd7f91	-0.49511388
106	0x3e997388	0.29970956
107	0xbed96ed9	-0.42467383
108	0xbeb518df	-0.35370538
109	0x3eed7788	0.46380258
110	0xbdcdf582	-0.100565925
111	0xbf148aa1	-0.5802403
112	0xbe21b49b	-0.15791552
113	0x3eab7706	0.33489245
114	0x3e9d5be5	0.30734172
115	0xbeec7f3e	-0.46190828
116	0x3e38e5ee	0.18056461
117	0xbf0cc17a	-0.5498272
118	0xbef7a4cc	-0.48367918
119	0x3d367262	0.044542678
120	0xbe9cc4c3	-0.30618867
121	0x3ebe8792	0.37212807
122	0xbf14604e	-0.5795945
123	0x3c978e8a	0.018500585
124	0x3f340b5b	0.7032983
125	0x3e902204	0.28150952
126	0x3eda4e1e	0.42637724
127	0xbe2fbbfb	-0.17161553
128	0xbde520ad	-0.11187873
129	0x3f336beb	0.70086545
130	0xbe17f2e2	-0.14838746
131	0x3f14c543	0.581135
132	0xbd98bde5	-0.074580945
133	0xbda9b0d8	-0.082856834
134	0x3f4cc756	0.7999166
135	0x3d79a3c9	0.060947213
136	0x3e9824e4	0.29715645
137	0xbea47183	-0.32117853
138	0xbe39e932	-0.18155363
139	0x3e68c2f1	0.22730614
140	0xbef959ea	-0.4870141
141	0x3e7e4d4d	0.24834175
142	0xbef5d1d1	-0.4801164
143	0xbe0d210e	-0.1378214
144	0xbe8f9c81	-0.2804909
145	0x3f2f3266	0.68436277
146	0x3e30d4a5	0.17268617
147	0x3da1414f	0.07873785
148	0xbe515ea7	-0.20446263
149	0x3ea7d4ef	0.32779643
150	0xbe87e58d	-0.2654232
151	0x3eafe656	0.3435542
152	0xbe0ae243	-0.13562874
153	0x3dccad5e	0.09994005
154	0xbe4919b8	-0.19638717
155	0xbf1a7cb8	-0.60346556
156	0xbe71bf70	-0.23608184
157	0xbd817dc1	-0.06322814
158	0x3e2ac02c	0.1667487
159	0x3e384db7	0.17998396
160	0x3dca2a20	0.09871316
161	0xbd398251	-0.045290295
162	0x3e51ab32	0.20475462
163	0xbec63c85	-0.38718048
164	0x3f51056e	0.8164891
165	0x3ef5d9e7	0.4801781
166	0x3ec81ab3	0.3908287
167	0x3e988983	0.29792413
168	0xbec489ff	-0.38386533
169	0x3d052c89	0.032513175
170	0xbebbd679	-0.36687067
171	0x3ed858d5	0.42255273
172	0x3e4abd05	0.19798668
173	0x3dcad2eb	0.09903511
174	0xbe6e4ac8	-0.23270714
175	0x3c9c9ab9	0.019116746
176	0xbe895d55	-0.2682902
177	0x3e246be1	0.16056778
178	0x3ce877ff	0.028377531
179	0xbe9a5076	-0.30139512
180	0x3cd1bda6	0.025603127
181	0x3dfadcbc	0.12249133
182	0x3ea05255	0.31312814
183	0xbf1e0a45	-0.6173442
184	0x3e1fdb7f	0.15611075
185	0x3ee3be5f	0.4448118
186	0x3ef26a97	0.47346947
187	0x3e80fbc5	0.25192085
188	0xbd82d41c	-0.06388113
189	0xbe9f8f62	-0.3116408
190	0xbe7da07b	-0.2476825
191	0x3e1288e9	0.1431004
192	0x3e9eb41c	0.30996788
193	0x3bd689bf	0.0065471823
194	0x3e321fe3	0.17394976
195	0xbe4e9865	-0.20175321
196	0xbe108c33	-0.14115982
197	0x3e3497df	0.17636059
198	0xbd8a6789	-0.06758029
199	0xbe898270	-0.26857328
200	0xbd03f843	-0.032219183
201	0xbddaeeab	-0.106900536
202	0x3f30a401	0.6900025
203	0xbe86630c	-0.26247442
204	0xbd1c83f7	-0.03821179
205	0xbed55460	-0.41665936
206	0x3ea0c8fe	0.31403345
207	0xbf0eb132	-0.5573913
208	0xbe0e2949	-0.13882937
209	0x3e9d5e41	0.30735973
210	0x3e90c1cb	0.28272852
211	0x3eb23b21	0.34810737
212	0x3d341e7d	0.04397439
213	0xbcee803b	-0.02911388
214	0x3da9ed82	0.08297254
215	0x3eaf5098	0.34241176
216	0x3daf4d38	0.0855965
217	0xbe82d177	-0.25550434
218	0xbdf17d1a	-0.11791439
219	0xbed8e00c	-0.42358434
220	0xbc1fca9a	-0.009752894
221	0x3f0c417d	0.5478743
222	0xbef89131	-0.48548272
223	0x3e040a08	0.12894452
224	0x3d9e5c96	0.07732503
225	0x3d59f7fd	0.053215016
226	0x3e81f6d4	0.25383627
227	0x3d35ba01	0.04436684
228	0x3e0ea56b	0.1393029
229	0x3d9dd999	0.07707519
230	0x3eaacdea	0.33360225
231	0x3ebc57b6	0.36785668
232	0x3c41025b	0.011780347
233	0x3df50cfe	0.11965369
234	0x3bb7ca17	0.005608808
235	0x3ee52328	0.44753385
236	0x3e30e50a	0.17274871
237	0xbe1df531	-0.15425564
238	0x3e7c9e19	0.24669684
239	0xbc705dc3	-0.014670792
240	0x3e8104a3	0.2519885
241	0x3da387e7	0.07984906
242	0xbeed506f	-0.46350428
243	0xbe8c8acf	-0.27449653
244	0x3dac7716	0.08421151
245	0xbe3f3392	-0.18672016
246	0x3e063f64	0.13110119
247	0xbd8a78f3	-0.067613505
248	0xbe3757f1	-0.1790464
249	0xbe8d6fbe	-0.27624315
250	0x3d7f54e3	0.062336814
251	0x3e2c1ff2	0.16809061
252	0xbdc74731	-0.097303756
253	0x3e5ec45a	0.2175459
254	0x3bdee662	0.006802366
255	0x3c3a5605	0.011373048

network_body._body_endoder.seq_layers.0.bias f4 [256]
0	0xbd27b3ff	-0.040943142
1	0x3dc4eca8	0.09615451
2	0x3d7b0812	0.061286993
3	0x3e1d519f	0.15363167
4	0xbcf3185c	-0.029674701
5	0x3e62fced	0.22166796
6	0x3db29353	0.08719506
7	0x3d0410da	0.032242633
8	0xbd8ea518	-0.06965083
9	0xbe012eda	-0.12615529
10	0x3e0918a9	0.13388313
11	0xbd7edc84	-0.06222202
12	0xbe40e29c	-0.18836445
13	0x3d926435	0.07148019
14	0xbe0da23f	-0.13831423
15	0x3cea0a68	0.028569415
16	0xbdd001a7	-0.10156565
17	0xbb4bf26c	-0.0031119836
18	0xbd0763ff	-0.033054348
19	0xbe184088	-0.14868367
20	0xbe18a6aa	-0.14907327
21	0x3d997940	0.0749383
22	0xbe038326	-0.12842998
23	0x3bc9f919	0.006163728
24	0xbcaa07e7	-0.020755721
25	0xbd09ccc7	-0.033642557
26	0xbdced8bc	-0.100999326
27	0xbda9c8fd	-0.082902886
28	0xbb9dafa5	-0.004812198
29	0xbd52f79e	-0.051505677
30	0x3da86916	0.082231686
31	0xbc23695a	-0.009973848
32	0xbd93d81c	-0.07218954
33	0xbd92da18	-0.07170504
34	0x3d6e7de0	0.058225513
35	0x3eb62988	0.3557856
36	0x3e516e41	0.20452215
37	0xbd88c4ce	-0.066781625
38	0xbe10c0a3	-0.14135985
39	0xbd812d81	-0.06307507
40	0xbc2f8357	-0.010712466
41	0x3d711f47	0.05886772
42	0xbdb7bf9f	-0.08972096
43	0x3eb80c90	0.35947084
44	0x3cb4d82d	0.022075737
45	0xbe01c4c9	-0.12672724
46	0x3e190391	0.14942767
47	0xbdea7c33	-0.1144947
48	0x3da40738	0.08009189
49	0xbe2c3ab6	-0.16819271
50	0xbd9a5a3d	-0.07536743
51	0xbdb167a9	-0.0866235
52	0xbd1d7240	-0.038439035
53	0x3d734fbc	0.059402213
54	0xbdcee4e3	-0.101022504
55	0x3e21732b	0.1576659
56	0xbdcae93f	-0.099077694
57	0xbd7bad3b	-0.061444502
58	0xbdb199fd	-0.08671949
59	0x3d2feede	0.04295241
60	0x3f03dde2	0.5151044
61	0xbe059016	-0.13043246
62	0xbcbc04cc	-0.022951506
63	0xbd497ec0	-0.049193144
64	0xbd7aff3b	-0.061278563
65	0xbd09c722	-0.033637173
66	0x3e4a6137	0.19763647
67	0x3e71093d	0.2353868
68	0xbc8099ef	-0.015698401
69	0xbe1dc0db	-0.154056
70	0xbd005e12	-0.031339712
71	0xbd466376	-0.048434697
72	0xbc1a4726	-0.009416377
73	0xbe112a92	-0.14176396
74	0xbd4df39c	-0.050281152
75	0x3d24b205	0.040208835
76	0xbd9632a5	-0.073338784
77	0x3d99d4ca	0.075112894
78	0x3dcbced9	0.099515624
79	0xbdb3c0b4	-0.087769896
80	0xbdc534e4	-0.09629229
81	0x3db0b575	0.0862836
82	0x3e23279c	0.15933079
83	0xbc1a2e18	-0.009410404
84	0x3e046073	0.12927417
85	0x3da443c8	0.08020741
86	0xbe064f5a	-0.13116208
87	0xbd8b64ab	-0.0680631
88	0xbe647f07	-0.22314082
89	0x3d0a1e98	0.033720583
90	0x3dd29fab	0.102843605
91	0x3e57c603	0.21071629
92	0xbdbd01a8	-0.092288315
93	0xbe1e806e	-0.1547868
94	0xbdc9f962	-0.09862019
95	0xbe3c99a4	-0.18417984
96	0x3bc531a1	0.006017879
97	0xbdeba79d	-0.11506579
98	0x3d8cae1e	0.06869148
99	0x3cc18b58	0.023626015
100	0x3c3bc634	0.0114608295
101	0xbe2465ed	-0.16054507
102	0xbe1b4a05	-0.15164955
103	0xbe2043a0	-0.15650797
104	0xbaefb338	-0.0018287664
105	0x3cece29f	0.028916655
106	0x3d52cbb8	0.051463813
107	0x3db07b72	0.08617295
108	0xbdb5489a	-0.08851738
109	0x3e079669	0.1324097
110	0xbd8a5632	-0.06754722
111	0xbd604062	-0.0547489
112	0xbd6035c2	-0.054738767
113	0x3d0b0cdc	0.03394781
114	0x3c5ede0a	0.013602743
115	0xbd25c086	-0.040466808
116	0xbce6ad99	-0.02815895
117	0x3d5c5fa6	0.053802155
118	0x3d53e6fb	0.051733952
119	0x3ce3b802	0.027797703
120	0xbcdeba8b	-0.02718856
121	0x3dcf7212	0.10129179
122	0xbc826a6d	-0.015919888
123	0xbd5a61bd	-0.053315867
124	0x3ea75e52	0.32689148
125	0x3c8eb78e	0.01742151
126	0xbbcdac66	-0.006276655
127	0x3dd056ee	0.101728305
128	0x3df1ef5e	0.11813234
129	0xbda2e68c	-0.079541296
130	0xbdd7afc0	-0.105315685
131	0xbd8bb32d	-0.068212844
132	0xbe05c13b	-0.13061993
133	0x3dba1a65	0.090870656
134	0x3dce912a	0.100862816
135	0xbccd365a	-0.02505033
136	0x3d9735c8	0.07383305
137	0xbbce00fd	-0.006286739
138	0x3c084682	0.008317592
139	0x3e1e9238	0.15485466
140	0x3dd9099a	0.105975345
141	0x3d93ff70	0.07226455
142	0xbd7fd296	-0.06245669
143	0x3d38a023	0.045074593
144	0x3cad17cc	0.021129511
145	0x3d7dd38a	0.061969317
146	0xbde7cc08	-0.11318213
147	0xbdc94296	-0.098271534
148	0x3e0018bd	0.12509437
149	0x3ebd563f	0.36979863
150	0x3dd9049d	0.10596583
151	0xbdde2d36	-0.10848467
152	0x3d6fa4f9	0.05850694
153	0x3e0a6374	0.13514501
154	0xbd497bd6	-0.049190365
155	0xbe21c88f	-0.15799163
156	0xbb1444a4	-0.002262392
157	0x3de1456f	0.109995715
158	0xbcfffa0f	-0.031247167
159	0xbd2a3c30	-0.041561306
160	0x3d2ed647	0.04268482
161	0xbccd986e	-0.025097098
162	0x3e4778d0	0.1947968
163	0xbd54a39d	-0.051913846
164	0x3d7cef1b	0.061751466
165	0xbc98f7ef	-0.018672911
166	0x3d89bd3c	0.06725547
167	0x3e794ea3	0.24346404
168	0xbe1e97ff	-0.1548767
169	0xbe390fcf	-0.18072437
170	0x3d350fa7	0.04420438
171	0xbdb50171	-0.088381656
172	0x3c0a9231	0.008457706
173	0x3c1c3c35	0.009535839
174	0xbe5e52b0	-0.2171123
175	0x3dab1c68	0.083550274
176	0x3dfc7aed	0.12328134
177	0xbcead0bb	-0.028663984
178	0xbde4d36e	-0.111731395
179	0x3dbaea06	0.09126668
180	0x3e1909fa	0.14945212
181	0x3c7194d8	0.01474496
182	0xbe14d746	-0.14535245
183	0x3ea6b5ec	0.3256067
184	0x3d897e1d	0.06713507
185	0x3e2cab10	0.1686213
186	0xbdabcca3	-0.08388641
187	0x3ce1b3b4	0.02755151
188	0xbdc5007d	-0.09619234
189	0xbc53f1d0	-0.012936071
190	0xbe025ec0	-0.12731457
191	0x3d9bece0	0.0761354
192	0x3e4e0da9	0.20122398
193	0xbdcca304	-0.0999203
194	0x3e4b1029	0.19830383
195	0x3beb3fdf	0.007179245
196	0x3d34205c	0.043976173
197	0xbdaa866f	-0.083264224
198	0xbe43cf76	-0.19122109
199	0x3d9bf495	0.0761501
200	0xbd6b5276	-0.057451688
201	0x3d2ee8a8	0.042702347
202	0x3e60a6bd	0.21938606
203	0x3e9887ea	0.29791194
204	0x3da62099	0.08111686
205	0xbda82751	-0.08210624
206	0xbd852d16	-0.0650274
207	0xbdea59ea	-0.11442931
208	0x3d2d1c67	0.042263415
209	0xbd32e6de	-0.043677203
210	0xbd688e6c	-0.05677645
211	0xbd200251	-0.03906471
212	0xbdf3c3ed	-0.11902604
213	0x3dd7a9ea	0.105304554
214	0xbc206b20	-0.009791166
215	0x3dba78f7	0.091051035
216	0x3e926f54	0.28600562
217	0x3e0d8cbb	0.13823216
218	0xbd93a367	-0.07208901
219	0x3d59df4e	0.053191476
220	0xbe123a8e	-0.1428015
221	0x3e4dd0ee	0.20099232
222	0xbcfba430	-0.03071794
223	0xbd5a77b4	-0.053336814
224	0xbe1dcf7d	-0.15411182
225	0xbd426f99	-0.04746971
226	0xbe14fde7	-0.14549981
227	0x3de8e242	0.1137128
228	0x3d0f3777	0.034965005
229	0xbd01d4a5	-0.031696934
230	0x3d76d653	0.06026299
231	0x3d8c29d1	0.06843913
232	0xbdc0f147	-0.0942102
233	0x3e21f990	0.15817857
234	0x3cd9414c	0.026520394
235	0x3e5af4f2	0.21382502
236	0x3d17665c	0.036962852
237	0xbe169721	-0.14706089
238	0xbe20107c	-0.15631288
239	0xbdf4de12	-0.11956419
240	0xbde0a576	-0.10969059
241	0x3b8320eb	0.004001727
242	0x3de1f94a	0.11033876
243	0xbdb058a6	-0.08610658
244	0xbbdf2405	-0.006809714
245	0x3e0b520f	0.13605522
246	0x3dcc43ae	0.099738464
247	0x3d2d95e8	0.04237929
248	0xbc4e7d19	-0.012603068
249	0x3cbaaea4	0.022788353
250	0xbd6b3d09	-0.057431255
251	0xbd4654fa	-0.048420884
252	0xbca777aa	-0.020442802
253	0x3c67e472	0.014153587
254	0x3e327565	0.17427595
255	0x3dc26457	0.094917946

network_body._body_endoder.seq_layers.2.weight f4 [256, 256]
0	0x3ea6f820	0.3261118
1	0xbd75c913	-0.060006212
2	0x3c6d0303	0.01446605
3	0xbe458f7d	-0.19293018
4	0x3e6c76cb	0.23092191
5	0x3d7f5821	0.062339906
6	0x3dc38605	0.095470466
7	0x3f0d14c7	0.5510983
8	0x3ee14af4	0.44002497
9	0x3e286f95	0.16448815
10	0x3e309bf4	0.17246991
11	0x3b8d6a77	0.00431567
12	0x3e2867a1	0.16445781
13	0x3e5e3875	0.21701224
14	0x3c29d12f	0.010364815
15	0x3c6a034a	0.014283011
16	0x3d972352	0.07379784
17	0x3e952878	0.29132438
18	0x3eeb88aa	0.46002704
19	0x3e666335	0.22498782
20	0xbc0640c3	-0.008194151
21	0xbe0f0130	-0.13965297
22	0x3d37e332	0.044894405
23	0x3d4d63b2	0.050143905
24	0x3db7f9f9	0.089832254
25	0xbec7b30d	-0.39003792
26	0x3ec6bd35	0.38816229
27	0xbe2fd426	-0.17170772
28	0x3dbfd866	0.093674466
29	0xbe18817b	-0.14893143
30	0x3e17d3db	0.1482691
31	0xbf18a086	-0.5961994
32	0x3d35e289	0.044405494
33	0x3e9b1eeb	0.30297026
34	0xbf124788	-0.571404
35	0xbe73420e	-0.23755667
36	0xbec35140	-0.38147926
37	0xbd6413cb	-0.05568294
38	0xbced7b8e	-0.02898958
39	0xbee9db32	-0.45675045
40	0xbcef49ef	-0.029210059
41	0x3b1d31d4	0.0023985999
42	0x3c80e989	0.015736358
43	0xbf1970c6	-0.59937704
44	0xbe910599	-0.28324583
45	0x3f036a5c	0.51334167
46	0xbe9d60f9	-0.30738047
47	0x3e9805a1	0.29691795
48	0xbe0d4e86	-0.13799486
49	0x3e8d5633	0.27604827
50	0x3de794f8	0.113077104
51	0xbc9fe42e	-0.019517984
52	0x3d96a06a	0.07354815
53	0x3e7d927a	0.24762908
54	0x3eb45c94	0.35226882
55	0xbda10012	-0.078613415
56	0x3e53c9ef	0.206825
57	0x3ea5bd3d	0.3237094
58	0x3b28bac1	0.002574608
59	0x3e03c610	0.12868524
60	0xbd8961fa	-0.06708141
61	0x3e0218db	0.12704794
62	0xbea98dbb	-0.33115944
63	0x3ead8a1b	0.3389443
64	0x3e846fe9	0.2586663
65	0xbeeb3f26	-0.45946616
66	0xbe925935	-0.28583685
67	0xbc57a89d	-0.013162759
68	0x3e0c37b1	0.1369312
69	0x3e9fc356	0.31203717
70	0x3f31c9f0	0.6944876
71	0x3ed938da	0.42426187
72	0x3db2d5ef	0.08732211
73	0x3d8841f5	0.06653205
74	0xbe86d09b	-0.26331028
75	0x3e699fc6	0.22814855
76	0x3eb435a0	0.35197163
77	0x3e581879	0.21103086
78	0xbd9c5fc1	-0.07635451
79	0xbd026a93	-0.03183992
80	0x3d659547	0.056050565
81	0x3d6076f8	0.054800957
82	0x3dd8af85	0.10580353
83	0xbea01860	-0.31268597
84	0xbf36490a	-0.712052
85	0xbebe8e3b	-0.37217888
86	0x3b90bda3	0.0044171377
87	0xbf1324fa	-0.57478297
88	0x3f4ba937	0.79555076
89	0xbdbcd145	-0.092196025
90	0x3e2ab5a4	0.16670853
91	0x3e8882a6	0.26662177
92	0x3e649599	0.22322692
93	0x3f08d5eb	0.5345141
94	0xbe795c6a	-0.2435166
95	0x3f085f74	0.5327065
96	0xbd58f456	-0.052967392
97	0xbe02af4e	-0.12762186
98	0xbea40922	-0.32038218
99	0xbeacdab9	-0.33760622
100	0xbf07e4c7	-0.5308346
101	0xbc1cce86	-0.009570723
102	0x3d11fbfd	0.035640705
103	0xbe816fe1	-0.2528067
104	0x3eaf5010	0.3424077
105	0x3e19a289	0.15003408
106	0x3e2b1ff6	0.16711411
107	0x3ec5e042	0.38647658
108	0x3e1c3cdd	0.15257592
109	0xbe0a0dd5	-0.13481839
110	0xbe7a821e	-0.24463698
111	0x3e3636a0	0.17794275
112	0x3e9613b4	0.29311907
113	0x3ef31e7d	0.47484198
114	0x3d8a4f18	0.06753367
115	0x3e364355	0.17799123
116	0x3e9eb413	0.3099676
117	0x3deff70a	0.11717041
118	0x3e8ce6ea	0.27519923
119	0xbdb76bbb	-0.08956095
120	0x3f04162a	0.5159632
121	0xbbd76fe2	-0.006574617
122	0x3f102fd8	0.56323004
123	0x3edb125c	0.42787445
124	0x3d27692b	0.04087178
125	0xbe584776	-0.2112101
126	0x3e42abec	0.19010895
127	0xbd1b0bd9	-0.037853096
128	0x3e2ae513	0.16688947
129	0x3dc72a06	0.09724812
130	0x3eafb408	0.3431704
131	0xbf018ace	-0.50602424
132	0xbe17437b	-0.14771836
133	0x3e2e6c12	0.17033413
134	0x3e843fab	0.25829825
135	0x3e9676bd	0.29387465
136	0xbdd2022d	-0.10254321
137	0x3e5c3eaa	0.2150828
138	0x3e937d4b	0.28806528
139	0xbf0835ea	-0.53207266
140	0x3e14331b	0.1447262
141	0x3e974eb9	0.29552248
142	0x3e38154e	0.17976877
143	0xbf372b36	-0.7155031
144	0x3c9a83cc	0.018861674
145	0xbe686890	-0.22696137
146	0xbdfeffcf	-0.12451135
147	0x3c292857	0.010324559
148	0xbe6e9105	-0.23297508
149	0xbf17ff76	-0.5937418
150	0xbea2eada	-0.31819803
151	0x3d2a0417	0.041507807
152	0x3d605f5f	0.054778453
153	0xbda355e5	-0.079753675
154	0x3e22fe32	0.1591728
155	0xbe5bf344	-0.21479517
156	0xbd04fefd	-0.03246974
157	0xbdc0447c	-0.09388062
158	0x3e9e0123	0.30860242
159	0xbdef87b6	-0.11695807
160	0xbd9224a6	-0.071358964
161	0x3e6d9533	0.23201446
162	0x3ed25a05	0.41084304
163	0x3cb0746e	0.021539893
164	0x3ea3933c	0.31948268
165	0xbe235375	-0.15949805
166	0x3f0a5b00	0.54045105
167	0x3ea3abbc	0.3196696
168	0xbedbfebd	-0.42967787
169	0x3e3d2a23	0.18473105
170	0x3f0a9c22	0.5414449
171	0x3eb69a60	0.35664654
172	0x3e959766	0.2921707
173	0xbc9ffea3	-0.0195306
174	0xbdb14999	-0.08656616
175	0xbc986e2a	-0.018607218
176	0xbdad0af5	-0.084493555
177	0xbf282e33	-0.65695494
178	0x3e165765	0.14681776
179	0x3e898ae6	0.26863784
180	0x3e619637	0.22029959
181	0x3daab084	0.08334449
182	0xbd991ea0	-0.074765444
183	0x3e35d902	0.17758563
184	0x3dcddf38	0.10052341
185	0xbd60eab5	-0.054911334
186	0xbe1ce073	-0.15319996
187	0x3e3c145b	0.1836714
188	0xbc57d7e1	-0.013174028
189	0xbe345877	-0.17611872
190	0x3ea881f1	0.32911637
191	0xbed89acc	-0.423056
192	0xbec532b5	-0.3851525
193	0x3e627316	0.22114214
194	0xbc73d31c	-0.014881875
195	0x3db18058	0.08667058
196	0xbf2f12db	-0.68388146
197	0x3e34215a	0.17590848
198	0xbcbae92b	-0.022816261
199	0xbea30714	-0.31841338
200	0x3dc59abb	0.09648653
201	0x3e028c8e	0.1274893
202	0xbf1a0bf9	-0.6017452
203	0xbeeb0787	-0.4590418
204	0xbed7e516	-0.42166966
205	0x3e8fd077	0.28088734
206	0x3db0bfb3	0.08630314
207	0x3e4c5198	0.19953
208	0xbe2f2f8a	-0.17107978
209	0x3e8e985c	0.27850616
210	0x3ec32e22	0.38121134
211	0xbbab8de5	-0.005235421
212	0x3e9e1e76	0.30882615
213	0xbd4ae18d	-0.04953151
214	0xbe3cb408	-0.18428051
215	0xbef4aed8	-0.47789645
216	0xbd0decea	-0.034649767
217	0xbebcad5c	-0.36851013
218	0x3db80b5f	0.08986544
219	0xbeb70cfd	-0.35752097
220	0x3db1125f	0.08646082
221	0x3d8cb761	0.06870914
222	0x3e71c35b	0.23609678
223	0x3ade6858	0.0016968353
224	0x3ee6b8d0	0.45062876
225	0x3ded6339	0.11591191
226	0x3db90632	0.09034385
227	0x3c8726be	0.016497966
228	0x3eef165a	0.4669674
229	0x3e05877d	0.13039966
230	0xbe874270	-0.26417875
231	0xbf015461	-0.50519377
232	0x3ede7fcc	0.43456876
233	0xbdf35952	-0.11882271
234	0x3ec3eca6	0.38266486
235	0x3e6b5760	0.2298255
236	0x3e705744	0.23470789
237	0x3ea79055	0.32727304
238	0x3ea71cc1	0.32639125
239	0xbe17b402	-0.14814761
240	0x3d515612	0.051107474
241	0xbf317083	-0.69312304
242	0x3dc46136	0.09588854
243	0x3e275579	0.16341199
244	0x3e7e4304	0.24830252
245	0x3e233117	0.15936695
246	0x3e420ca1	0.1895013
247	0xbe480071	-0.19531418
248	0x3e91feb4	0.28514636
249	0xbeb2dc81	-0.34933856
250	0x3cadf2bf	0.021233914
251	0xbe6e432a	-0.23267809
252	0xbe21624f	-0.15760158
253	0xbe652941	-0.22379018
254	0x3e168700	0.14699936
255	0xbd7fc2d5	-0.062441666

network_body._body_endoder.seq_layers.2.bias f4 [256]
0	0xbde1541f	-0.11002373
1	0xbe96a702	-0.29424292
2	0xbdbe3a0c	-0.09288415
3	0xbd76d08a	-0.060257472
4	0xbe5e4cfd	-0.21709056
5	0xbdb5d18c	-0.088778585
6	0xbdda9cc3	-0.10674431
7	0xbe3953ab	-0.18098323
8	0xbe36dda1	-0.17857982
9	0xbd92ca01	-0.071674354
10	0xbda357f2	-0.079757586
11	0xbe150260	-0.14551687
12	0xbe058d0f	-0.13042091
13	0xbddf642b	-0.109077774
14	0xbd7f5bae	-0.062343292
15	0x3c6311ca	0.013859222
16	0xbe4a6c03	-0.19767766
17	0xbd6f2c71	-0.058391992
18	0xbe4a4470	-0.1975267
19	0xbe26246e	-0.16224834
20	0xbec431db	-0.38319287
21	0xbe562035	-0.20910724
22	0x3c7d9ae9	0.015478828
23	0xbd86f0d4	-0.06588903
24	0xbde5fe9f	-0.11230206
25	0xbe2755ae	-0.16341278
26	0xbda0d354	-0.07852808
27	0xbda9447d	-0.08265016
28	0xbe90d8fb	-0.28290543
29	0xbd4a535c	-0.049395904
30	0xbec5ce28	-0.38633847
31	0xbda7d4ec	-0.081949085
32	0xbe9b2e40	-0.30308723
33	0xbd41a1ee	-0.04727357
34	0xbe387183	-0.18012051
35	0x3d8da32b	0.069158874
36	0xbe21f1b3	-0.15814857
37	0xbd83a8e8	-0.06428701
38	0x3b447fc9	0.0029983392
39	0xbdcfd1cd	-0.10147438
40	0xbe99dbbc	-0.30050457
41	0xbdaf66ba	-0.085645154
42	0xbe5daacd	-0.21647187
43	0xbdcdf456	-0.10056369
44	0xbdb7ea46	-0.08980231
45	0xbe9fd540	-0.31217384
46	0xbda85d2e	-0.082208976
47	0x3d288536	0.041142665
48	0xbe742fee	-0.23846409
49	0xbcd9e286	-0.026597273
50	0xbe2d620c	-0.16931933
51	0x3eb939aa	0.36176807
52	0xbe25c5b8	-0.16188705
53	0xbdbe7f1b	-0.09301587
54	0xbda2f599	-0.07957
55	0xbe041a53	-0.12900667
56	0xbd994cea	-0.07485373
57	0xbdbbe878	-0.09175199
58	0xbe5d5b59	-0.21616878
59	0x3e1fde4b	0.15612142
60	0xbe10e2ea	-0.14149061
61	0xbcd06078	-0.025436625
62	0xbe6ee0c6	-0.23327932
63	0xbe3be46e	-0.18348858
64	0xbe4b1df1	-0.1983564
65	0xbe82339f	-0.2543001
66	0xbe0ef43c	-0.13960356
67	0xbd5b0c0b	-0.053478282
68	0xbe50eeed	-0.20403643
69	0xbdf89d00	-0.121393204
70	0xbdcf7de0	-0.101314306
71	0xbe2a2830	-0.16616893
72	0xbd4311d8	-0.04762444
73	0xbe1404a1	-0.14454891
74	0xbde46677	-0.11152356
75	0x3da669ac	0.08125624
76	0xbde1cdaf	-0.11025559
77	0x3d9f6a5a	0.07783957
78	0xbe8da93b	-0.27668175
79	0x3e209732	0.15682676
80	0xbc45e60c	-0.012078773
81	0xbc66a329	-0.014076986
82	0xbdbdd1dd	-0.09268544
83	0xbe202547	-0.1563922
84	0xbd064b98	-0.032786936
85	0x3d31f172	0.04344315
86	0xbda1f202	-0.079074875
87	0x3c137a25	0.0090012895
88	0xbd88e2d4	-0.06683889
89	0xbe0ac559	-0.13551845
90	0xbd0a7fac	-0.033813164
91	0xbd20f447	-0.03929546
92	0xbde7f130	-0.113253
93	0xbe24b77d	-0.1608562
94	0xbdc546bd	-0.09632633
95	0xbd94fc7f	-0.07274722
96	0xbe62e014	-0.22155792
97	0xbe26e386	-0.16297731
98	0x3cccddfb	0.025008192
99	0x3c66ed50	0.014094666
100	0xbe85c6a1	-0.26128104
101	0x3cbbcca5	0.02292473
102	0xbd4e8ae2	-0.050425418
103	0xbe42a336	-0.19007573
104	0xbe1276bd	-0.14303108
105	0xbd325684	-0.04353954
106	0xbe1a2b3d	-0.15055557
107	0x3b8c743b	0.0042863167
108	0xbe421f68	-0.18957293
109	0xbe22a337	-0.15882574
110	0xbd93a7cc	-0.07209739
111	0x3d86f200	0.065891266
112	0xbe2acb2d	-0.16679068
113	0xbdd47c3f	-0.103752606
114	0xb9a4ef3c	-0.0003145876
115	0xbd790a6c	-0.060800955
116	0xbdb745fe	-0.08948897
117	0x3d8ebbff	0.06969451
118	0xbe3c3ac0	-0.18381786
119	0xbe2baa77	-0.16764246
120	0xbe7ad73d	-0.2449617
121	0x3dd76adb	0.10518428
122	0xbe31d6d1	-0.17367102
123	0x3d9d78bb	0.07689043
124	0xbec106c5	-0.37700477
125	0x3cedcca1	0.029028239
126	0xbe463832	-0.19357374
127	0x3e51df4e	0.2049534
128	0xbe4ab363	-0.19794993
129	0xbe2c14b7	-0.16804777
130	0xbdc7636d	-0.09735761
131	0xbdaff4df	-0.08591627
132	0xbdd04e59	-0.10171194
133	0xbda57697	-0.0807926
134	0xbe93ab0b	-0.28841433
135	0xbd9bee44	-0.07613805
136	0xbe20a026	-0.15686092
137	0xbdb1a2f6	-0.086736605
138	0xbde454d2	-0.11148991
139	0xbba18e6d	-0.0049303086
140	0xbd813119	-0.06308193
141	0xbe84dbfd	-0.25949088
142	0xbe4fab7c	-0.2028026
143	0xbc0e748c	-0.008694779
144	0xbe4f1bcb	-0.20225446
145	0x3db2ffc0	0.08740187
146	0xbdc49e4e	-0.09600507
147	0xbe189993	-0.14902334
148	0xbe275bde	-0.16343638
149	0xbd12ec17	-0.035869684
150	0xbdf6f817	-0.12059038
151	0xbcf1b6f0	-0.029506177
152	0xbe8c16b8	-0.27361083
153	0xbe2a496e	-0.16629574
154	0xbe2c2f07	-0.16814815
155	0xbd977da1	-0.07397009
156	0xbe0d5a6b	-0.13804023
157	0xbe358b7a	-0.17728987
158	0xbe6bda83	-0.23032574
159	0xbdda4a1e	-0.10658668
160	0xbe04e60e	-0.12978384
161	0xbe740f24	-0.238339
162	0x3e905a7a	0.28194028
163	0xbe297ef3	-0.16552334
164	0xbd91c4cd	-0.07117615
165	0xbe6cc479	-0.23121823
166	0xbe2e6a03	-0.17032628
167	0xbdf5e817	-0.12007158
168	0xbe994b0d	-0.29940072
169	0xbcd81b84	-0.026380308
170	0xbdea0727	-0.114271455
171	0xbdd6fab5	-0.10497037
172	0xbe07037b	-0.13184921
173	0xbea5eb16	-0.3240592
174	0xbcd032c9	-0.025414841
175	0xbe83e5bc	-0.2576121
176	0x3e33d150	0.17560315
177	0xbe40f15c	-0.18842071
178	0xbc171f11	-0.009223715
179	0xbe793dcc	-0.2433998
180	0x39446b6f	0.00018732039
181	0xbc3a93f5	-0.011387815
182	0xbe7f9fa9	-0.2496325
183	0x3da774ec	0.08176598
184	0xbe61aa56	-0.22037634
185	0xbdf23c3c	-0.11827895
186	0x3da2dcde	0.07952283
187	0xbd92dd35	-0.07171098
188	0xbe930992	-0.2871824
189	0xbe62d86a	-0.22152868
190	0xbe54b800	-0.20773315
191	0xbc6adbde	-0.014334647
192	0xbe7bf1ce	-0.2460396
193	0xbe26c378	-0.16285503
194	0xbc60c682	-0.013719203
195	0xbe09c7d6	-0.13455138
196	0xbbba1d9c	-0.0056797992
197	0xbccecc0d	-0.025243783
198	0xbe47637d	-0.19471546
199	0xbe6f4a1f	-0.23368119
200	0xbea17344	-0.31533253
201	0xbe0e46ec	-0.13894242
202	0x3e203a5e	0.15647265
203	0xbe00962c	-0.12557286
204	0x3d2d2357	0.04227003
205	0xbe85074f	-0.2598214
206	0xbe3e3378	-0.18574321
207	0xbcedefcf	-0.029045014
208	0xbe191075	-0.14947684
209	0xbd56878a	-0.052375354
210	0xbd5fe112	-0.054658003
211	0xbd81788e	-0.06321822
212	0xbedb5d2b	-0.4284452
213	0xbdbc1fb8	-0.09185737
214	0xbd58ba9d	-0.052912343
215	0xbdeb6b21	-0.114950426
216	0x3dcbf8fc	0.099595994
217	0xbd777b1c	-0.06042014
218	0x3d4bad8a	0.049726047
219	0xbd1475ff	-0.036245342
220	0xbe194845	-0.14968975
221	0xbdc61196	-0.09671323
222	0x3d537345	0.0516236
223	0x3e0fff63	0.14062266
224	0xbe3f4e31	-0.18682171
225	0xbe1a4318	-0.15064657
226	0xbd1a4460	-0.037662864
227	0xbe2518f2	-0.16122797
228	0x3da1e315	0.079046406
229	0xbe174bda	-0.14775029
230	0xbd963c73	-0.073357485
231	0xbe36c82c	-0.17849797
232	0xbcc19b64	-0.023633666
233	0xbd5bc6e4	-0.053656474
234	0xbd7e4256	-0.06207498
235	0xbe4cc57b	-0.19997208
236	0x3d409fc4	0.047027364
237	0xbe21a027	-0.1578375
238	0xbbc05979	-0.005870041
239	0xbe0b67cb	-0.13613813
240	0xbf12a3a2	-0.57280934
241	0xbe91d04c	-0.2847923
242	0xbe378089	-0.17920126
243	0xbe3802a0	-0.17969751
244	0xbd859103	-0.065217994
245	0x3cc074f0	0.02349326
246	0xbe11d6a2	-0.14242032
247	0xbe6068f0	-0.2191503
248	0xbea52624	-0.3225566
249	0x3cd7a637	0.026324375
250	0xbe788e0a	-0.24272934
251	0xbcfbf2ac	-0.030755363
252	0xbe4fc1fd	-0.20288844
253	0xbcf37bb1	-0.029722067
254	0xbd70304d	-0.058639813
255	0xbdb04715	-0.08607308

action_model._discrete_distribution.branches.0.weight f4 [3, 256]
0	0x3e07dcaf	0.13267778
1	0x3f411a24	0.7543051
2	0x3eb7b217	0.3587806
3	0xbe0f8707	-0.14016353
4	0xbf394a1b	-0.723787
5	0xbf7a7eab	-0.9784953
6	0xbe392eaa	-0.18084207
7	0x3cbc6de7	0.023001624
8	0x3e4b3a38	0.19846427
9	0x3f5d76da	0.8650948
10	0x3e467fa2	0.19384626
11	0x3e6f51c0	0.23371029
12	0x3f3c73f1	0.7361441
13	0xb995e528	-0.0002859023
14	0x3ec4f78b	0.3847011
15	0x3dc89ffe	0.09796141
16	0xbf33c1b3	-0.70217437
17	0x3c98e00a	0.018661518
18	0xbf6dcdea	-0.92892325
19	0xbf128e4c	-0.5724838
20	0x3f5bfa12	0.8592845
21	0xbe8faf2d	-0.28063336
22	0x3eed623e	0.46364015
23	0xbdd13c7a	-0.10216613
24	0x3ee766a3	0.45195493
25	0xbe020634	-0.12697679
26	0x3f280ee6	0.65647733
27	0xbee087a0	-0.43853474
28	0x3f2d45e1	0.6768475
29	0xbf98bcdf	-1.1932639
30	0xbf5fba6c	-0.8739383
31	0xbf1c1255	-0.6096547
32	0xbf72b06a	-0.94800436
33	0xbea08d9d	-0.31358042
34	0xbe964353	-0.2934824
35	0xbf5eadee	-0.86984146
36	0x3f52d8e9	0.8236223
37	0xbdd71949	-0.1050287
38	0x3ea33bc6	0.3188154
39	0x3fedcbbd	1.8577801
40	0x3f6774d1	0.9041262
41	0x3e790d4e	0.24321482
42	0x3e9ba529	0.30399445
43	0x3e1ee78f	0.1551802
44	0xbfe4bcea	-1.7870152
45	0xbf2d3a7d	-0.6766737
46	0xbe4d45e7	-0.20046197
47	0xbe800469	-0.25003365
48	0xc01c6ae1	-2.4440234
49	0x3ec01c94	0.37521803
50	0x3d886195	0.06659237
51	0xbd2685f8	-0.040655106
52	0xbff1a264	-1.8877683
53	0xbf0ef97c	-0.5584943
54	0xbdbf5a61	-0.0934341
55	0xbf95ea21	-1.1712075
56	0x3fb97ce0	1.4491234
57	0x3fe02245	1.7510458
58	0xbe85e072	-0.261478
59	0xbddffc43	-0.10936787
60	0xbf9f19c2	-1.2429736
61	0xbfba3f1d	-1.4550511
62	0xbffb9a85	-1.9656531
63	0xbec1c05e	-0.37842077
64	0xbe5c55f0	-0.21517158
65	0xbd888ea3	-0.06667831
66	0x3f5b7f9c	0.8574159
67	0x3f568df4	0.83810353
68	0xbfad5224	-1.3540692
69	0x3e5941cf	0.2121651
70	0xbe228c42	-0.15873817
71	0xbdf59b40	-0.11992502
72	0x3e931c13	0.28732356
73	0x3f8e3309	1.1109325
74	0xbde5dc41	-0.11223651
75	0x3f2f9161	0.68581206
76	0x3fa5f17f	1.2964324
77	0xbf1c08b0	-0.60950756
78	0xbf99a71f	-1.2004126
79	0x3fb76044	1.4326253
80	0x3ed3819a	0.41309816
81	0xbeab2174	-0.3342396
82	0x3db15b56	0.08659999
83	0xbf8f7261	-1.1206781
84	0x3e08bcfb	0.1335334
85	0x3e06c50e	0.13161108
86	0xbfdf62ba	-1.7452004
87	0xbf872d16	-1.0560634
88	0x3f4e821c	0.8066728
89	0x3e7c5be7	0.24644433
90	0x3eda963d	0.42692748
91	0xbec5aae6	-0.38606948
92	0x3d4ad2b3	0.049517345
93	0x3f84eee1	1.03854
94	0xbcc707e5	-0.024295757
95	0x3d39a461	0.04532278
96	0x3f9088fa	1.1291802
97	0xbeb6b5f0	-0.35685682
98	0xbec1189f	-0.37714097
99	0xbdec5352	-0.115393296
100	0x3f8f6210	1.1201801
101	0x3e827c85	0.25485626
102	0xbe2218b2	-0.15829733
103	0x3e598386	0.21241578
104	0x3f931114	1.1489587
105	0xbeb8b86c	-0.36078203
106	0x3e7cfabf	0.24705027
107	0x3dec8e8f	0.115506284
108	0x3c6924b5	0.014229943
109	0xbf186147	-0.59523433
110	0xbdb7ae7b	-0.089688264
111	0xbe4de012	-0.20105007
112	0xc012c739	-2.2934096
113	0xbf138ff8	-0.57641554
114	0x3e9762e0	0.29567623
115	0x3e8a63f2	0.27029377
116	0x3edc63f7	0.43045017
117	0x3f500285	0.81253844
118	0xbe6e2335	-0.23255618
119	0xbf03e208	-0.5151677
120	0xbf9a4b78	-1.2054281
121	0x3ee9d3f7	0.4566953
122	0xbf00bfbc	-0.50292563
123	0x3db5233a	0.088446096
124	0x3f308b0b	0.6896216
125	0xbe376184	-0.17908293
126	0x3ea52914	0.32257903
127	0x3e7fd4e8	0.24983561
128	0x3eda5d00	0.42649078
129	0xbfafb41d	-1.3726841
130	0xbf336135	-0.700702
131	0x3e44649a	0.19179001
132	0x3fa81d1e	1.3133886
133	0xbe1063a8	-0.14100516
134	0x3e1aec15	0.1512912
135	0x3ee57e2b	0.4482282
136	0x3e5dbae5	0.21653326
137	0xbfae69cc	-1.3626037
138	0x3f310eca	0.6916319
139	0xbe25f518	-0.16206777
140	0x3f418cb4	0.7560532
141	0x3e9c0e1b	0.30479512
142	0xbebe1feb	-0.37133726
143	0x3f09d7bf	0.5384483
144	0x3fbad703	1.4596866
145	0xbc98b1b0	-0.018639416
146	0xbedfb108	-0.43689752
147	0x3f573809	0.8406988
148	0x3e102a67	0.14078675
149	0xbf6ad35d	-0.91728765
150	0x3f72435c	0.9463403
151	0xbd45f2dc	-0.048327312
152	0x3f01286a	0.5045229
153	0xbd8aa1a2	-0.0676911
154	0xbf446b63	-0.7672636
155	0xbe8242ca	-0.2544158
156	0xbff578dd	-1.917751
157	0xbe7d6a55	-0.24747594
158	0x3fe08428	1.7540331
159	0x3ea4e1e1	0.32203582
160	0xbeb5c6b3	-0.35503158
161	0x3c8942ef	0.01675555
162	0xba261a68	-0.00063363323
163	0xbe76a990	-0.2408812
164	0xb94fd1ec	-0.0001981926
165	0x3f1f3a69	0.621985
166	0x3f86df60	1.0536919
167	0xbd8b340f	-0.06797039
168	0xbf90034d	-1.1251007
169	0x3e044312	0.1291621
170	0xbee66e26	-0.45005912
171	0xbe79ec08	-0.24406445
172	0x3d06fd9b	0.0329567
173	0x3dec3e43	0.11535313
174	0xbe9f3f7c	-0.31103122
175	0x3ecc9fc3	0.3996564
176	0x3f202ece	0.6257142
177	0x3dac6242	0.08417179
178	0x3fadcfee	1.357908
179	0x3edd77a6	0.43255347
180	0x3d90bc68	0.07067186
181	0xbd8bb040	-0.068207264
182	0xbe68cca9	-0.22734322
183	0x3ec9a1e2	0.3938132
184	0xbf56e952	-0.8394977
185	0xbf99c0a3	-1.2011913
186	0x3ebbcc41	0.3667927
187	0x3db25a91	0.087086804
188	0xbf4e02d6	-0.8047308
189	0x3e9baf0f	0.30406997
190	0x3f0731b4	0.52810216
191	0xbebb9cbc	-0.36643016
192	0x3ea8999a	0.3292969
193	0x40009daa	2.009623
194	0x3d3e22be	0.04641985
195	0x3f3050ea	0.68873465
196	0x3f076816	0.528932
197	0x3fa93725	1.3219954
198	0x3c0f75e2	0.008756133
199	0xbe9159d4	-0.28388846
200	0xbd27a701	-0.04093075
201	0xbf1f6c3a	-0.62274516
202	0x3ddb6059	0.10711736
203	0x3e72b150	0.23700452
204	0x3e904f4f	0.28185508
205	0xbeb5b649	-0.35490635
206	0xbdb504f4	-0.08838835
207	0xbef8b313	-0.48574123
208	0x3e857129	0.26062897
209	0x3e389b3a	0.18027964
210	0x3ee6b174	0.4505726
211	0x3e952328	0.29128385
212	0xbcf90955	-0.030399958
213	0x3e41358d	0.18868084
214	0x3de3a8da	0.1111619
215	0x3d80e516	0.06293695
216	0x3e097ce7	0.13426553
217	0xbd426e5a	-0.04746852
218	0x3e767840	0.24069309
219	0xbf9bb70a	-1.2165234
220	0x3e8e073f	0.27739903
221	0x3f8a38e8	1.0798616
222	0xbec27024	-0.37976182
223	0x3f0255b3	0.50912017
224	0xbf8184e8	-1.0118685
225	0x3d182aae	0.037150078
226	0x3bdb621f	0.0066950466
227	0x3b61814c	0.0034409342
228	0xbe118611	-0.14211299
229	0x3f883f72	1.0644362
230	0xbe5f63ab	-0.21815364
231	0x3ed1a68a	0.40947372
232	0x3e472533	0.19447784
233	0xbf46ecfe	-0.7770537
234	0xbe5e8073	-0.21728687
235	0xbecb5fd6	-0.39721555
236	0x3eba6ae0	0.36409664
237	0xbf3f1a28	-0.74649286
238	0xbf09d2cf	-0.53837293
239	0xbe41e8c2	-0.18936446
240	0xbfe8db3f	-1.8191909
241	0xbf27af01	-0.6550141
242	0xbec272a2	-0.37978083
243	0xbeb6edc6	-0.35728282
244	0x3f6f1f6b	0.93407315
245	0x3e84a151	0.25904325
246	0x3f06227b	0.52396363
247	0xbe303f05	-0.1721154
248	0xbe964148	-0.2934668
249	0xbe71bb40	-0.23606586
250	0x400a60b9	2.1621535
251	0xbf93e376	-1.155379
252	0xbbdd4ea6	-0.0067537604
253	0xbfa9565d	-1.3229481
254	0x3d3bda24	0.045862332
255	0xbfe6d4b5	-1.8033663

action_model._discrete_distribution.branches.0.bias f4 [3]
0	0x3e925716	0.28582066
1	0xbe52107e	-0.20514104
2	0xbe98f4d1	-0.2987428

action_model._discrete_distribution.branches.1.weight f4 [3, 256]
0	0x3cf2eab9	0.02965294
1	0x3fb55523	1.4166607
2	0xbfb6b93e	-1.4275281
3	0x400cfba0	2.202858
4	0x3eb636cd	0.35588685
5	0x3ec4c19d	0.38428965
6	0x3e7759d2	0.24155357
7	0x3f848fbe	1.0356367
8	0xbf659390	-0.8967829
9	0xbec877a7	-0.39153787
10	0x3f947976	1.1599567
11	0xbe6dc40f	-0.23219322
12	0xbf7c7ee9	-0.9863115
13	0x3d975864	0.07389906
14	0x3d7026d4	0.05863078
15	0x3eaeef24	0.34166825
16	0xbf04c4ce	-0.518628
17	0xbcf4b5ba	-0.02987181
18	0x3f0760c0	0.52882004
19	0xbfa9fa61	-1.3279535
20	0xbfc9c7ae	-1.5764062
21	0x3e717975	0.23581488
22	0x3e68077b	0.22659104
23	0xbda70b1d	-0.081564166
24	0xbfb7d77e	-1.4362638
25	0x3cc81642	0.024424676
26	0xbeec08da	-0.46100503
27	0x3b0e7726	0.0021738498
28	0xbf376307	-0.7163548
29	0xbe989ae8	-0.29805684
30	0x3fe03710	1.7516804
31	0xbecded02	-0.40219885
32	0x3fd4924b	1.6607145
33	0xbfe9c749	-1.8263942
34	0xbf172272	-0.59036934
35	0xbe8877d0	-0.2665391
36	0x3e554737	0.20827948
37	0xbe300361	-0.17188789
38	0x3e575f59	0.21032466
39	0x3da47564	0.08030203
40	0xbf404247	-0.7510113
41	0x3dd1986a	0.10234149
42	0xbed1915f	-0.40931222
43	0xbec2f008	-0.38073754
44	0xbec03815	-0.37542787
45	0x3faabbd5	1.3338572
46	0x3f022f2e	0.5085324
47	0xc00276d5	-2.038503
48	0x3e62e064	0.2215591
49	0x3e1735bc	0.14766592
50	0xbf98ae51	-1.1928197
51	0xbc807ff0	-0.015686005
52	0x3c6397c0	0.0138911605
53	0x3e4c17ab	0.19930904
54	0xbe5f9905	-0.21835716
55	0x3ea048aa	0.31305438
56	0xbf43664d	-0.76327974
57	0xbe29628e	-0.16541502
58	0xbd7886e0	-0.0606755
59	0xbf8d6e48	-1.104928
60	0xbebb94a8	-0.36636853
61	0x3f5d2342	0.86381924
62	0xbe8756f0	-0.26433516
63	0xbef796f3	-0.48357353
64	0xbd90660a	-0.070507124
65	0xbf70bcc9	-0.94038063
66	0x3ea480c8	0.32129502
67	0x3f07bd93	0.5302364
68	0xbeb32cfc	-0.34995258
69	0x3e342564	0.17592388
70	0x3f8fc734	1.1232667
71	0xbf228d58	-0.63496923
72	0x3b6f8aa9	0.0036551154
73	0xbf8f1b75	-1.1180254
74	0x3e774eac	0.24151105
75	0xbe88288d	-0.26593438
76	0xbfad7783	-1.3552097
77	0x3e81c403	0.25344858
78	0x3fe459f3	1.783995
79	0xbe774d0e	-0.24150488
80	0x3f05fecc	0.52341914
81	0x3e5b5f7a	0.2142314
82	0xbf4bba19	-0.7958084
83	0x3eba0034	0.3632828
84	0x3db99766	0.0906208
85	0xbf2e7cb6	-0.68159044
86	0x3ed3284e	0.41241688
87	0x3e9f6c49	0.31137303
88	0xbf6ea6a3	-0.9322302
89	0xbfc15450	-1.5103855
90	0x3f0ff08c	0.5622642
91	0xbedc9235	-0.43080297
92	0xbf022787	-0.50841564
93	0x3eaaf141	0.33387187
94	0x3f7a6b6f	0.9782018
95	0xbeeb2948	-0.45929933
96	0x3f8b1526	1.0865829
97	0x3efb6b0e	0.49105114
98	0x3db4199f	0.08793949
99	0x3e54b9af	0.20773958
100	0xbf658403	-0.8965456
101	0x3eaaed9c	0.33384407
102	0xbeee2b46	-0.4651739
103	0x3fd325cf	1.6495913
104	0xbf1def49	-0.61693245
105	0x3e5d29cd	0.21597977
106	0x40125b33	2.2868164
107	0x3e6ff1ca	0.23432079
108	0xbed208a3	-0.41022214
109	0x3d8f423a	0.069950536
110	0xbd4acddd	-0.049512733
111	0x3f116d87	0.5680775
112	0x3cd152d9	0.0255522
113	0x3ef71a79	0.48262385
114	0x3ea5ba4b	0.32368693
115	0xbed2042d	-0.4101881
116	0x3b83f866	0.004027414
117	0x3de6b910	0.112657666
118	0xbf163ebc	-0.58689475
119	0xbd870ad4	-0.06593862
120	0xbf2eb70c	-0.6824806
121	0x3d329c5e	0.043606155
122	0xbde2f0fe	-0.11081122
123	0xbf9729e8	-1.1809664
124	0xbf970065	-1.1796995
125	0xbca79450	-0.020456463
126	0xbf20d64b	-0.62826985
127	0x3e98ba35	0.29829565
128	0xbf96495e	-1.174114
129	0xbc80f819	-0.015743302
130	0xbe1f17fa	-0.1553649
131	0x3b67dfc8	0.0035381187
132	0xbfb94c4d	-1.447641
133	0x3cb790a7	0.022407843
134	0x3fbc2597	1.4698972
135	0x3f637569	0.8885103
136	0xc03899d2	-2.8843884
137	0x3e802637	0.25029156
138	0xc021de05	-2.529176
139	0x3e16cf63	0.14727549
140	0xbebecb2b	-0.3726438
141	0x3ed5ddcf	0.4177079
142	0x3bd594fb	0.006518004
143	0xbe4418e8	-0.19150126
144	0xbfdf59d6	-1.7449291
145	0x3f0b5205	0.54422027
146	0xbe5ca06d	-0.21545573
147	0x3e9ae9a2	0.30256373
148	0xbf3d7cde	-0.7401866
149	0x3fe6b221	1.8023111
150	0x3e85084e	0.25982898
151	0xbce19582	-0.027537111
152	0xbfa6e8e2	-1.303982
153	0x3fc9c0d4	1.5761971
154	0xbe6bcfa5	-0.23028429
155	0x3ce7d83a	0.028301347
156	0x3e691ac2	0.22764114
157	0xbf9205d7	-1.1408032
158	0xbf23a4cf	-0.6392335
159	0x3ec7fc89	0.39059857
160	0xbe958212	-0.29200798
161	0xbfa135c2	-1.259453
162	0x3d62b4e0	0.055348277
163	0x3e036383	0.1283093
164	0xbe3523bf	-0.17689417
165	0xbf3d7a68	-0.740149
166	0x3f492651	0.7857409
167	0xbeb4faa3	-0.3534747
168	0x3fa71fc8	1.3056574
169	0x3dc6051c	0.09668943
170	0xbdc5292c	-0.096269935
171	0x3f62198e	0.88320243
172	0xbf929896	-1.1452816
173	0x3fa9df26	1.3271224
174	0x3f2a66c2	0.66563046
175	0xbf830b25	-1.0237776
176	0x3f2506be	0.6446341
177	0xbf8c64bf	-1.0968245
178	0x3ef81bee	0.4845881
179	0x3f1bfae8	0.6092973
180	0xbf8f9d02	-1.121979
181	0x3d761bf7	0.060085263
182	0xbec2fefd	-0.38085166
183	0x3f1a3326	0.60234296
184	0xbfdf732f	-1.7457026
185	0x3c92a023	0.017898625
186	0x3e845ac2	0.25850493
187	0xbe4580c1	-0.19287397
188	0x3f8215fa	1.0162957
189	0xbf225ccc	-0.63422847
190	0x3f4af32d	0.79277307
191	0xbf0f6fe3	-0.560301
192	0x3ec5886a	0.38580638
193	0xbf2468bd	-0.6422232
194	0xbce690a4	-0.028145142
195	0xbeb5bf08	-0.35497308
196	0xbe354c8b	-0.1770498
197	0x3efb4d82	0.4908257
198	0x3e2c88c3	0.16849045
199	0x3f6fe8cb	0.9371459
200	0xbf8ae182	-1.085007
201	0xbf8185f4	-1.0119004
202	0xbe22e488	-0.1590749
203	0xbe925c47	-0.28586027
204	0x3d87677a	0.066115335
205	0xbf84f71f	-1.0387915
206	0xbe7bc484	-0.24586684
207	0xbf96840a	-1.1759045
208	0xbfe38fb6	-1.7778232
209	0x3e45bd12	0.19310406
210	0x3e16c8eb	0.14725082
211	0x3e3238b0	0.17404437
212	0xbe649c38	-0.22325218
213	0xbfacf05c	-1.3510852
214	0x3eb22077	0.34790394
215	0xbda712dc	-0.08157894
216	0x3e9f2948	0.31086183
217	0x3f39f68d	0.7264183
218	0x3f551da7	0.8324837
219	0x3ed923e6	0.424102
220	0xbf1804ec	-0.5938251
221	0xbf188970	-0.59584713
222	0xbceb3701	-0.028712751
223	0xbf5c9723	-0.86168116
224	0xbe8a78ec	-0.2704538
225	0xbe41687e	-0.18887517
226	0x3c51dfcb	0.012809704
227	0xbf2ea6d3	-0.68223304
228	0x3dbddeee	0.09271036
229	0x3f10b60c	0.5652778
230	0x3eeceff6	0.46276826
231	0xbf03435b	-0.5127465
232	0xbe0cb011	-0.13739039
233	0x3e549bba	0.2076253
234	0x3d20b105	0.03923132
235	0x3ea2a02c	0.31762826
236	0x3e4a46f9	0.19753636
237	0xbe2ebd4d	-0.170644
238	0xbe4a50cf	-0.19757389
239	0xbe442887	-0.19156085
240	0xbf1684c1	-0.58796316
241	0x3e543db0	0.20726657
242	0xbf1287b9	-0.57238346
243	0xbee40dd4	-0.445418
244	0x3f0df444	0.55450845
245	0xbe7d2cf3	-0.24724178
246	0xbef7bfbe	-0.48388475
247	0xbfb50132	-1.414099
248	0xbed84f4d	-0.42248002
249	0xbf5be458	-0.858953
250	0xbf912dad	-1.1342064
251	0xc0054c69	-2.0827887
252	0x3e34abf9	0.17643727
253	0xbf14e226	-0.58157575
254	0x3e3ca533	0.18422394
255	0x3ed8cb79	0.42342737

action_model._discrete_distribution.branches.1.bias f4 [3]
0	0x3e907884	0.28216946
1	0xbd6b3f7f	-0.0574336
2	0xbeaf38d3	-0.3422304
