results/ppo/MyTestingML.onnx (onnx, 73551 bytes, 6 tensors)

network_body._body_endoder.seq_layers.0.weight f4 [128, 2]
0	0x3db38ce2	0.08767106
1	0x3f869da5	1.0516859
2	0xbe55c1a3	-0.20874648
3	0xbf0c7131	-0.54860216
4	0xbfa57e38	-1.2929144
5	0x3e38b221	0.18036701
6	0xbdf15720	-0.11784196
7	0xbf4f4a01	-0.80972296
8	0xbe8765ac	-0.26444757
9	0xbf8a0c86	-1.0785072
10	0x3f02abe1	0.51043516
11	0xbf9c873b	-1.2228769
12	0x3db11821	0.0864718
13	0xbf343ec6	-0.70408285
14	0xbf8cdf7e	-1.1005704
15	0x3f681261	0.90653044
16	0xbf6b9a6d	-0.9203251
17	0xbfc039cc	-1.5017638
18	0x3f6573d0	0.8962984
19	0x3ebf852c	0.3740629
20	0xbf2d1670	-0.6761236
21	0xbd00069b	-0.0312563
22	0xbd74546c	-0.059650823
23	0xbe9f9444	-0.31167805
24	0xbe80ac7b	-0.25131592
25	0xbeba7ce1	-0.364234
26	0xbfa97892	-1.323992
27	0xbc8502ab	-0.016236624
28	0xbd09cb00	-0.03364086
29	0x3e819b43	0.25313768
30	0x3efe42e4	0.49660408
31	0x3ecd02f1	0.40041307
32	0xbed5bedf	-0.41747186
33	0x3d362684	0.044470325
34	0xbf686ecc	-0.9079406
35	0x3e0aa6c2	0.13540176
36	0xbd3eaf80	-0.04655409
37	0xbe3cc61c	-0.18434948
38	0x3f7a4197	0.9775633
39	0xbe2cb1ef	-0.16864751
40	0x3f8bc760	1.092022
41	0xbda8ec88	-0.0824824
42	0xbf9ab1c1	-1.2085496
43	0xbf5a876b	-0.8536288
44	0x3dd863bc	0.10565898
45	0xbf46816e	-0.77541244
46	0xbf06e187	-0.5268788
47	0xbe7a5eea	-0.2445027
48	0xbf347eca	-0.70505965
49	0x3def8896	0.116959736
50	0xc000db71	-2.0133936
51	0xbec126d4	-0.37724936
52	0x3f15ea08	0.5856023
53	0xbf2fffcc	-0.6874969
54	0xbf480c2d	-0.7814358
55	0x3f843db1	1.0331327
56	0x3ecdd067	0.4019806
57	0x3f8aa9de	1.0833089
58	0x3db84126	0.08996801
59	0x3e0d2a07	0.13785563
60	0x3eaaf3be	0.33389086
61	0x3e45d125	0.19318064
62	0xbf9e812f	-1.2383174
63	0xbff38258	-1.9024153
64	0x3f01eb59	0.5074974
65	0xbd64c30f	-0.055850085
66	0xbf4f51d4	-0.80984235
67	0x3e8927bc	0.26788127
68	0xbf62238d	-0.88335496
69	0xbde1ccc6	-0.110253856
70	0xbf1e4f88	-0.61840105
71	0xbf5cc1ec	-0.862334
72	0xbed99b2a	-0.42501193
73	0x3f8b6b0c	1.0892043
74	0xbf0cc764	-0.54991746
75	0x3f8ea411	1.1143819
76	0xbe42023a	-0.18946162
77	0x3f3e938a	0.74443877
78	0x3f824964	1.0178647
79	0x3f2aa3e5	0.66656333
80	0xbf8802de	-1.0625875
81	0xbda3a1c4	-0.07989839
82	0xbec0a411	-0.37625173
83	0xc012e136	-2.2949958
84	0xbecbe29c	-0.39821327
85	0xbe8223a1	-0.25417808
86	0x3d7d9f7b	0.06191967
87	0x3f195c91	0.5990687
88	0xbf2c533e	-0.6731452
89	0xbe8622d6	-0.26198453
90	0xbe3a59bc	-0.18198293
91	0x3dd1a99a	0.10237427
92	0x3e02e400	0.12782288
93	0xbf8184ae	-1.0118616
94	0xbe0d684d	-0.13809319
95	0xbe8c4499	-0.27396086
96	0xbec73dd0	-0.38914347
97	0xbf56aaf2	-0.8385459
98	0xbd27c165	-0.04095592
99	0x3eb1d5ed	0.34733525
100	0x3e4739b1	0.19455601
101	0x3f70baad	0.94034845
102	0xbf685a7a	-0.90763056
103	0x3ec342f6	0.38137025
104	0xbe1d5fa6	-0.15368518
105	0x3ec25456	0.37954968
106	0xbff6c3b6	-1.9278476
107	0x3eeac075	0.45849958
108	0xbf34b622	-0.7059041
109	0x3f4ad58b	0.7923209
110	0x3e64caf8	0.22343051
111	0xbf9c6fee	-1.2221658
112	0xbf60a9d3	-0.8775913
113	0x3f5e04c6	0.86726034
114	0xbe095531	-0.13411404
115	0xbf0c2485	-0.54743224
116	0x3ec12108	0.37720513
117	0xbefd34fc	-0.49454486
118	0x3eae1673	0.34001502
119	0xbb901cd9	-0.00439797
120	0xbf2ffaaf	-0.6874189
121	0xbea7f8d3	-0.32807025
122	0x3eb480f6	0.3525464
123	0x3f6ef2c8	0.93339205
124	0xbeda0c31	-0.42587426
125	0x3e49c00e	0.1970217
126	0x3fcefd7b	1.6171106
127	0xbf7ee69a	-0.9957062
128	0x3c765394	0.015034575
129	0xbe2baa75	-0.16764243
130	0xbf74b1de	-0.95583904
131	0x3f3c0d7e	0.7345809
132	0xbfae81e5	-1.3633391
133	0x3f6339be	0.8875998
134	0x3e93171d	0.28728572
135	0x3f1a12a8	0.6018472
136	0x3e6b7228	0.22992766
137	0x3f81fcfc	1.015533
138	0xbe087c11	-0.13328578
139	0x3e7bc2b5	0.24585994
140	0x3e9f2b1a	0.3108757
141	0x3e27f2a2	0.16401151
142	0x3f445548	0.7669263
143	0xbf57d432	-0.8430816
144	0x3e25df61	0.16198494
145	0x3f864113	1.0488609
146	0x3e4b40de	0.19848964
147	0xbf6ebe20	-0.9325886
148	0x3f4135a1	0.75472456
149	0xbf9e75c4	-1.2379689
150	0xbdfb271b	-0.12263318
151	0x3f82512b	1.018102
152	0xbf15cf56	-0.58519495
153	0xbef00673	-0.4687992
154	0x3f4e10f5	0.80494624
155	0x401832f2	2.3781095
156	0x3f4eeef2	0.8083335
157	0xbe441310	-0.19147897
158	0xbeee7af4	-0.4657818
159	0x3fd3cebc	1.6547465
160	0xbee62013	-0.44946346
161	0x3ebdbb25	0.37056842
162	0x3f9a345e	1.2047231
163	0x3ea7f40e	0.32803386
164	0xbf987d65	-1.1913267
165	0xbf390e88	-0.722878
166	0x3e3e2d77	0.18572031
167	0xbf38bb28	-0.7216058
168	0xbe494c9f	-0.19658135
169	0x3e1e0234	0.15430528
170	0x3dddd2d0	0.10831225
171	0x3c6ad21a	0.014332319
172	0x3fa233d0	1.2672062
173	0xbfd56197	-1.6670407
174	0x3ecfd06f	0.4058871
175	0x3fb7c925	1.435826
176	0x3ef7b4ec	0.4838022
177	0xbf584e72	-0.844947
178	0xbef170cf	-0.4715638
179	0xbe0db355	-0.13837941
180	0x3f2a8cd5	0.6662114
181	0x3e074b3f	0.13212298
182	0xbdcfbfbb	-0.101439916
183	0xbf3694fe	-0.71321094
184	0xbf2e43e7	-0.6807236
185	0xbdf3a4dd	-0.118966796
186	0x3d2cb26a	0.042162336
187	0x3f83eefd	1.0307308
188	0x3dd2480b	0.10267647
189	0x3dd7586b	0.10514911
190	0x3f2503a4	0.6445868
191	0xbee855ca	-0.45377952
192	0xbe8ad270	-0.27113676
193	0x3eb750ba	0.35803777
194	0x3f206d24	0.62666535
195	0x3f803e87	1.0019082
196	0xbe117006	-0.1420289
197	0x3e6a1fad	0.22863646
198	0xbec9557b	-0.3932303
199	0xbe905245	-0.28187767
200	0xbe8442eb	-0.25832304
201	0x3a982caa	0.0011609991
202	0xbec9f972	-0.39448124
203	0xbf0edb05	-0.5580295
204	0xbf31b5f7	-0.6941828
205	0x3e91c9bb	0.2847422
206	0x3f419179	0.756126
207	0xbcee240a	-0.02906992
208	0xbf549935	-0.83046275
209	0x3d4f3abe	0.05059313
210	0x3e8b0b04	0.27156842
211	0xbe4081e8	-0.18799555
212	0xbf824f27	-1.0180405
213	0x3f82ec88	1.0228434
214	0x3f92fe97	1.1483945
215	0x3f41fe37	0.75778526
216	0x3e06b141	0.13153554
217	0x3f1d672c	0.6148555
218	0x3eb132c7	0.34609053
219	0xbf07671b	-0.528917
220	0xbea27003	-0.31726083
221	0x3f3f1570	0.74642086
222	0xbf947a40	-1.1599808
223	0x3fd60450	1.6720066
224	0xbd9775f2	-0.07395543
225	0xbfb344a0	-1.4005318
226	0x3e00a974	0.12564641
227	0xbe26c51b	-0.16286127
228	0xbeb2b101	-0.34900668
229	0xbf9fb23b	-1.2476267
230	0xbee06a56	-0.43831128
231	0x3e8f74b1	0.28018716
232	0x3e950b0f	0.2911
233	0x3e0ce123	0.13757758
234	0x3d83f182	0.06442548
235	0xbd55c673	-0.05219121
236	0x3ed794cc	0.4210571
237	0x3e1dd73e	0.1541414
238	0xbf17c8c0	-0.59290695
239	0x3e48858d	0.19582196
240	0x3e44cb33	0.1921814
241	0x3f0ad1f3	0.5422661
242	0xbf2d9999	-0.67812496
243	0xbf47ac06	-0.7799686
244	0x3f89659a	1.0734131
245	0xbf22d09d	-0.6359957
246	0x3f5d977b	0.86559266
247	0xbed76b11	-0.42073873
248	0x3f41bbad	0.75676996
249	0x3e7f4b1a	0.24930993
250	0xbfa8e8f7	-1.3196095
251	0x3ddd670c	0.1081067
252	0x3fa7cbaa	1.3109028
253	0xbf4df054	-0.80444837
254	0xbedc8c99	-0.43076017
255	0xbf9fa8d0	-1.2473392

network_body._body_endoder.seq_layers.0.bias f4 [128]
0	0xbdcdd3c0	-0.10050154
1	0x3dce6678	0.10078138
2	0x3dc09274	0.09402934
3	0x3db444f4	0.08802214
4	0x3ddeff50	0.10888541
5	0xbda1ba85	-0.07896904
6	0xbdb125d5	-0.08649794
7	0x3dcca4b7	0.09992354
8	0x3dba113a	0.09085317
9	0xbd92f531	-0.07175673
10	0x3de654f3	0.112466715
11	0x3dd67b6d	0.1047276
12	0x3de2eb51	0.11080039
13	0x3db95503	0.09049418
14	0xbde5fd26	-0.11229925
15	0xbd9e7af7	-0.077382974
16	0xbddba897	-0.10725515
17	0x3dd5bd4f	0.104364984
18	0x3dc8d875	0.09806911
19	0xbda2f7b4	-0.07957402
20	0xbd933fa6	-0.07189874
21	0x3dca9bca	0.09892996
22	0xbdd782fb	-0.105230294
23	0x3dd726e6	0.10505466
24	0x3dcbd501	0.09952737
25	0x3dbe8b31	0.093038924
26	0xbd95952a	-0.073038414
27	0x3dda5e2e	0.106624946
28	0xbdcd27bd	-0.10017345
29	0xbdd51703	-0.1040478
30	0xbdaab451	-0.08335174
31	0x3dc9457d	0.09827707
32	0xbd9dc479	-0.0770349
33	0x3dd27889	0.102768965
34	0x3dd82f05	0.10555843
35	0x3dbeab64	0.09310034
36	0x3ddbd9ef	0.10734927
37	0x3dd9880e	0.106216535
38	0x3d9b5a25	0.07585553
39	0xbd8b73d6	-0.06809203
40	0x3dde4690	0.108533025
41	0x3de2d761	0.110762365
42	0x3dddbd5c	0.10827133
43	0xbdaeadc5	-0.08529238
44	0xbdbf7394	-0.09348217
45	0x3dd91c9a	0.106011584
46	0xbddcf5ff	-0.107891075
47	0x3ddaf0d8	0.106904685
48	0x3dd3b97f	0.10338115
49	0x3daff625	0.0859187
50	0xbdb87445	-0.09006552
51	0x3ddb243a	0.10700269
52	0x3dde9247	0.10867744
53	0x3dcf8802	0.10133363
54	0x3dd2e9eb	0.102985226
55	0xbde008e4	-0.10939196
56	0x3db2fbe8	0.087394536
57	0x3de611f0	0.1123389
58	0xbda78c77	-0.081810884
59	0xbdb49288	-0.08817011
60	0x3dd56fb4	0.10421696
61	0xbdacc1c7	-0.084353976
62	0x3dbb9898	0.09159964
63	0xbd5e585f	-0.054283496
64	0xbde2bbac	-0.11070952
65	0x3ddc61b6	0.107608244
66	0x3ddb275c	0.107008666
67	0xbda515d4	-0.08060804
68	0xbdb07e2d	-0.08617816
69	0x3d9ee0b1	0.077577
70	0xbdb3fd91	-0.08788598
71	0xbdc04728	-0.09388572
72	0xbda5acb3	-0.080895804
73	0xbd9a9d91	-0.07549585
74	0xbd7f65dc	-0.062353
75	0x3de28024	0.11059597
76	0x3dce3b54	0.1006991
77	0xbd824afd	-0.06361959
78	0xbdc7639b	-0.09735795
79	0x3dceb9ae	0.10094009
80	0x3ddd377f	0.10801601
81	0xbd9ee02e	-0.07757603
82	0x3dd435e6	0.10361843
83	0xbdd3235d	-0.103094794
84	0x3dd38a15	0.103290714
85	0xbdaf0b52	-0.08547081
86	0xbd9824d3	-0.07428899
87	0xbda92b5b	-0.082602225
88	0xbdd67eb5	-0.10473386
89	0x3daef74a	0.085432604
90	0xbd831fa2	-0.06402518
91	0x3daa90dd	0.08328412
92	0x3dd72c89	0.10506541
93	0xbdd3410e	-0.103151426
94	0xbddf673b	-0.109083615
95	0xbda9f22b	-0.08298143
96	0x3dacfdff	0.084468834
97	0xbdce8e3d	-0.100857235
98	0x3dd3e5e7	0.10346585
99	0x3dc46d18	0.095911205
100	0x3dc4f40a	0.09616859
101	0x3de099d9	0.10966844
102	0x3dd19516	0.10233514
103	0xbd82b8d2	-0.06382908
104	0x3dcc3e67	0.0997284
105	0xbd8a3249	-0.067478724
106	0x3ddc5a73	0.10759439
107	0xbda71912	-0.08159079
108	0xbdc8c815	-0.098037876
109	0xbdb03441	-0.08603717
110	0x3dcdba3a	0.100452855
111	0x3dc9a41f	0.09845757
112	0x3dde8a2c	0.10866198
113	0xbdbadac8	-0.091237605
114	0x3db802e5	0.08984927
115	0x3dbb8da8	0.09157878
116	0xbdafa3e8	-0.085761845
117	0xbdabca40	-0.083881855
118	0xbdc50970	-0.09620941
119	0x3dd68d63	0.10476186
120	0xbde179ae	-0.11009537
121	0x3dd18ba8	0.102317154
122	0xbd88bd41	-0.06676722
123	0xbd66c2bd	-0.05633806
124	0xbd610425	-0.054935593
125	0x3dd07e52	0.10180344
126	0xbd6879f1	-0.056756917
127	0x3da6a8dc	0.08137676

network_body._body_endoder.seq_layers.2.weight f4 [128, 128]
0	0xbd1a9660	-0.037741065
1	0x3da56515	0.080759205
2	0x3e420d9b	0.18950503
3	0x3d2e4c6a	0.042553343
4	0xbd4e04e7	-0.050297644
5	0xbe9418bf	-0.2892513
6	0x3c617b6a	0.013762334
7	0xbdf0c320	-0.11755967
8	0x3e1dfb5e	0.1542792
9	0x3aad7f71	0.0013236833
10	0x3e5f9bf7	0.2183684
11	0x3e6c3d18	0.2307018
12	0x3e839904	0.2570268
13	0x3dd19550	0.10233557
14	0xbe4f6f97	-0.20257412
15	0xbbd90e8e	-0.0066240495
16	0xbe1664a5	-0.1468683
17	0x3e1c99d2	0.15293053
18	0x3e260608	0.16213238
19	0xbdb133c0	-0.08652449
20	0xbe892381	-0.267849
21	0x3cb9b13d	0.022667522
22	0xbe3ecd65	-0.1863304
23	0x3dd4e4dc	0.10395214
24	0x3de74fd3	0.11294522
25	0xbd3683c2	-0.044559248
26	0x3d378ffe	0.044815056
27	0x3e057e52	0.13036469
28	0x3cb09f0a	0.02156021
29	0xbde30ec5	-0.110868014
30	0x3c55fada	0.013060296
31	0x3da68f95	0.08132855
32	0xbd772a70	-0.060343206
33	0xbcb095b1	-0.021555753
34	0x3cb376b9	0.021907197
35	0x3c74ec74	0.014948953
36	0x3d7f7782	0.06236983
37	0x3b9f6d2c	0.004865309
38	0x3cbc7258	0.023003742
39	0xbdd24c6a	-0.10268481
40	0x3de484ca	0.1115814
41	0x3dc15c75	0.09441463
42	0x3ddec38b	0.108771406
43	0xbe581283	-0.21100812
44	0xbe011310	-0.12604928
45	0x3da2c91f	0.07948517
46	0xbdc1cf8f	-0.09463417
47	0x3d90f5f2	0.0707816
48	0x3e192f86	0.14959535
49	0x3e1d5267	0.15363465
50	0xbcadf778	-0.021236166
51	0x3d91a25f	0.07111048
52	0x3d46922a	0.048479237
53	0xbd0ac1c2	-0.033876188
54	0x3df94e25	0.12173108
55	0xbdc9bb24	-0.09850147
56	0x3e45a5b3	0.1930149
57	0xbb8df0fa	-0.004331705
58	0x3d49c977	0.049264397
59	0xbd088d90	-0.03333813
60	0x3e48838c	0.19581431
61	0xbe126261	-0.14295341
62	0x3c9a0de9	0.018805461
63	0x3c9aac29	0.01888092
64	0x3b057f8d	0.0020370216
65	0x3d0e15d7	0.034688797
66	0xbc9d3007	-0.01918794
67	0xbdd3922c	-0.103306144
68	0xbe840a95	-0.25789323
69	0x3e0b3a39	0.13596429
70	0xbbe3e621	-0.0069549237
71	0xbd048e13	-0.032362055
72	0xbb9d49d7	-0.004800062
73	0xbcf82b0a	-0.03029396
74	0xbcbe35f7	-0.023219092
75	0x3e17ef0f	0.14837287
76	0x3ddc2892	0.10749926
77	0x3dd4f7c1	0.10398818
78	0xbdef5781	-0.11686612
79	0x3e09ca7b	0.13456146
80	0x3dc1e74e	0.09467946
81	0xbe587c85	-0.2114125
82	0xbcb44e21	-0.022009911
83	0xbe2be208	-0.16785443
84	0x3d5e07f9	0.054206822
85	0xbdd275d5	-0.10276381
86	0xbd23512e	-0.03987234
87	0xbe7bd3e7	-0.24592553
88	0xbd30fa74	-0.0432076
89	0x3e3350dd	0.17511316
90	0xba1f0d9c	-0.00060673966
91	0x3e650d47	0.22368346
92	0xbd1f9ffe	-0.03897094
93	0xbe44b7eb	-0.19210784
94	0xbdaa6d02	-0.08321573
95	0xbe48aedd	-0.19597955
96	0x3e02fa25	0.12790735
97	0xbe0e9333	-0.1392334
98	0x3e37dc5a	0.17955151
99	0xbc3d1aaf	-0.011542006
100	0x3d965fc9	0.07342488
101	0x3d8faa4b	0.07014903
102	0x3dcbbfa1	0.0994866
103	0xbddf7613	-0.10911193
104	0x3dea7b98	0.11449355
105	0xbdb2a57b	-0.08722969
106	0x3e56d1bc	0.20978445
107	0x3d66024f	0.056154545
108	0x3cd7218a	0.02626111
109	0xbda97eec	-0.082761616
110	0x3df16629	0.11787064
111	0xbd52ecb7	-0.05149528
112	0x3d0a258c	0.033727214
113	0xbdf62f6f	-0.12020766
114	0x3d1ce0bd	0.038300265
115	0x3d37b0be	0.04484629
116	0xbd98156d	-0.07425962
117	0xbe2d0704	-0.16897207
118	0xbddf26fa	-0.10896106
119	0x3d81514f	0.063143365
120	0xbe8c05f0	-0.2734828
121	0x3d486fc8	0.048934728
122	0xbd112533	-0.035435867
123	0xbdf7f9d9	-0.121082015
124	0x3db01f98	0.08599776
125	0x3d41a9d0	0.047281086
126	0xbdba648a	-0.091012076
127	0x3e48c219	0.19605292
128	0xbe47f628	-0.19527495
129	0x3de58a44	0.11208013
130	0x3db08fcc	0.08621177
131	0x3da5cf92	0.080962315
132	0x3d8c7d49	0.06859834
133	0xbd3b09db	-0.045663696
134	0x3cc12b39	0.02358018
135	0x3da915d1	0.08256114
136	0x3de7343a	0.11289258
137	0x3b566562	0.0032714237
138	0x3e4c9c5a	0.19981518
139	0x3e38e0a2	0.1805444
140	0x3d8df404	0.06931308
141	0x3c48fdd7	0.012267551
142	0xbd4a93ba	-0.04945729
143	0xbe8a7595	-0.27042833
144	0xbdf857ce	-0.121261224
145	0xbe0cb437	-0.13740622
146	0xbca06090	-0.019577295
147	0xbd4849a1	-0.048898343
148	0x3dad7acb	0.084706865
149	0xbc6b3d4f	-0.014357879
150	0xbd90001a	-0.07031269
151	0x3dbe0b11	0.092794545
152	0x3df9c965	0.12196616
153	0xbd324c06	-0.043529533
154	0xbe004efe	-0.12530133
155	0x3d28be60	0.04119718
156	0x3cf2d729	0.029643612
157	0xbd899c52	-0.06719269
158	0xbd9ab4bc	-0.075540036
159	0x3e16f6b7	0.14742552
160	0x3d8ca1df	0.06866812
161	0x3d06ce33	0.03291149
162	0x3d475339	0.04866335
163	0x3e3b669c	0.18300861
164	0x3e59316d	0.2121026
165	0xbca5a0b6	-0.020218235
166	0x3e1a47da	0.15066472
167	0xbd90feeb	-0.07079872
168	0x3d76d802	0.060264595
169	0x3d93c7d9	0.07215852
170	0x3e6b11f0	0.22956061
171	0x3d73a07e	0.05947923
172	0xbdceaf91	-0.100920804
173	0x3de9868f	0.11402618
174	0x3d6cfee7	0.05786028
175	0x3e801c92	0.25021797
176	0xbd4e6c81	-0.050396446
177	0x3e01c190	0.12671494
178	0x3ca02bcc	0.019552134
179	0xbc926c64	-0.01787395
180	0x3e01099f	0.12601326
181	0x3df382de	0.11890195
182	0x3be626a3	0.007023649
183	0xbd3ca919	-0.0460597
184	0x3e0a5031	0.13507153
185	0x3e0a5b68	0.13511431
186	0xbe5240ec	-0.20532578
187	0xbe7c7d8c	-0.24657267
188	0x3d1d61a1	0.038423184
189	0x3cfaad90	0.03060034
190	0x3e43a197	0.1910461
191	0x3c879b61	0.016553583
192	0xbdaec199	-0.085330196
193	0x3e20585f	0.15658711
194	0x3c58cb70	0.013232097
195	0xbe3447ee	-0.17605564
196	0xbc66540f	-0.014058127
197	0x3cfdb351	0.030969294
198	0xbd5a5308	-0.05330184
199	0xbda3f3d8	-0.08005494
200	0xbdee0245	-0.11621527
201	0x3dda0a78	0.10646528
202	0xbd11b6ff	-0.03557491
203	0x3dcb6016	0.09930436
204	0x3e14c233	0.14527206
205	0xbe6e866b	-0.23293464
206	0xbe1d6bd8	-0.1537317
207	0xbbc637a2	-0.0060491124
208	0x3e6328fa	0.221836
209	0xbd002f61	-0.031295184
210	0x3d039200	0.03212166
211	0xbdf9ed35	-0.12203447
212	0x3e4b9b3b	0.19883434
213	0x3ce40adf	0.027837215
214	0xbdf27b3b	-0.118399106
215	0xbe63a668	-0.22231448
216	0xbd6fbf0f	-0.058531817
217	0x3d6f829f	0.05847418
218	0xbdea56a9	-0.1144231
219	0x3e10d976	0.14145455
220	0xbb9f588d	-0.004862851
221	0xbd0d4f92	-0.034499712
222	0xbdf2f7ac	-0.11863646
223	0xbda9ef1c	-0.082975596
224	0x3d0c296b	0.034219187
225	0xbdae97d6	-0.08525054
226	0xbb32757a	-0.0027230666
227	0x3d6cbab7	0.057795253
228	0x3e28773a	0.16451731
229	0x3da0cafc	0.07851216
230	0x3d28fcf0	0.041256845
231	0xbc2a8091	-0.010406629
232	0x3e075b29	0.13218369
233	0xbd86fd66	-0.06591301
234	0x3e35c051	0.17749144
235	0xbcdba367	-0.026811315
236	0xbd123a08	-0.035699874
237	0xbd415669	-0.047201548
238	0x3d57f557	0.05272421
239	0x3e91750c	0.28409612
240	0x3e6db1b9	0.23212327
241	0xbdb13481	-0.086525925
242	0x3de0a59d	0.10969088
243	0xbd1a8878	-0.037727803
244	0xbe6d3dab	-0.23168056
245	0xbd3c58fb	-0.045983296
246	0xbe37bd09	-0.17943205
247	0x3db2f66c	0.087384075
248	0xbe512255	-0.20423253
249	0x3ddd5b14	0.108083874
250	0xbd2a2315	-0.041537363
251	0xbc49583c	-0.012289103
252	0x3ddf6824	0.10908535
253	0x3df3be4e	0.11901532
254	0xbdbf8914	-0.093523175
255	0xbc9cfc1d	-0.019163186

network_body._body_endoder.seq_layers.2.bias f4 [128]
0	0x3dbb528d	0.09146605
1	0x3dbed30f	0.093176
2	0x3dbae73e	0.09126137
3	0xbd7ec230	-0.06219691
4	0x3db92466	0.090401456
5	0xbd456795	-0.048194487
6	0xbd7a9b23	-0.061183106
7	0xbd522ee8	-0.051314265
8	0x3db155f1	0.0865897
9	0xbd8b2563	-0.0679424
10	0xbda2ea9e	-0.07954906
11	0xbd890612	-0.06690611
12	0xbd8b139d	-0.0679085
13	0xbd78345b	-0.060596805
14	0xbd533a1a	-0.05156908
15	0xbd9505a9	-0.0727647
16	0xbd59b129	-0.05314747
17	0xbdb4efb5	-0.08834783
18	0x3dc0b8e6	0.094102666
19	0x3d8e35d4	0.06943861
20	0x3dc1eb71	0.09468735
21	0x3db4c823	0.088272355
22	0x3dadb935	0.08482591
23	0xbd7f49a5	-0.062326092
24	0x3db1efa1	0.08688284
25	0x3db40a13	0.08790984
26	0xbd5e5c09	-0.05428699
27	0xbd7472b0	-0.059679687
28	0x3dc0a147	0.09405761
29	0xbda4fc94	-0.08055988
30	0x3dbb7460	0.09153056
31	0x3db7f4c0	0.08982229
32	0xbd75f700	-0.06005001
33	0xbd95ec52	-0.07320465
34	0x3dbf9caf	0.09356057
35	0xbd9808d0	-0.07423556
36	0xbda10593	-0.07862391
37	0x3db5cbdb	0.08876773
38	0xbd5fadfb	-0.05460928
39	0xbd3f6b9e	-0.04673349
40	0xbd809946	-0.062792346
41	0x3dbb03a9	0.091315575
42	0x3dbf26b4	0.09333554
43	0xbd9469fe	-0.07246779
44	0x3dbeba47	0.09312873
45	0xbda5c597	-0.08094328
46	0xbd79f8e1	-0.061028365
47	0x3db7d5d8	0.08976334
48	0xbd80201c	-0.062561244
49	0x3dc04f8e	0.09390174
50	0x3db770a4	0.08957031
51	0x3dbb4a40	0.091450214
52	0x3db99a36	0.090626165
53	0xbd5ec4f1	-0.054387037
54	0xbdaf10fb	-0.08548161
55	0x3db02d4f	0.08602392
56	0x3dbba107	0.09161573
57	0x3dc0162b	0.09379228
58	0x3db9d721	0.09074236
59	0xbdb06a8d	-0.08614073
60	0x3db88245	0.09009222
61	0xbd429746	-0.047507547
62	0x3dbe1030	0.09280431
63	0xbd9fb32f	-0.077978484
64	0xbd9adb98	-0.075614154
65	0xbda0ab4a	-0.07845171
66	0xbd30e934	-0.04319115
67	0xbdb67432	-0.08908881
68	0x3dbbc272	0.09167947
69	0xbd531ed8	-0.051543087
70	0xbd589dde	-0.05288493
71	0xbd49db5f	-0.049281474
72	0xbd68a340	-0.056796312
73	0x3db4b1e2	0.08822991
74	0x3db7b9fd	0.08971021
75	0xbd6fc613	-0.058538508
76	0x3dbd3084	0.09237769
77	0xbd63dc61	-0.05563009
78	0xbd87a468	-0.06623155
79	0xbd59579e	-0.053062074
80	0xbd77c0f1	-0.060486738
81	0x3db94d88	0.09047991
82	0x3db7ba84	0.08971122
83	0xbdbd9873	-0.09257593
84	0x3db54d26	0.088526055
85	0xbda7bc1b	-0.08190175
86	0x3dc08849	0.09400994
87	0xbd6cef58	-0.057845443
88	0xbd7609d4	-0.060067967
89	0xbdb06f56	-0.08614986
90	0x3dac40ab	0.08410772
91	0x3dbb3df9	0.0914268
92	0xbd5c1e15	-0.053739626
93	0xbd7ed7f5	-0.06221767
94	0x3dbdd608	0.09269339
95	0x3dba3c7e	0.09093569
96	0xbd79d37e	-0.06099271
97	0xbd7e88a3	-0.062142026
98	0xbdc122a5	-0.09430436
99	0x3db901d9	0.090335555
100	0x3dc09b4e	0.09404622
101	0x3dc1029b	0.09424325
102	0x3db33490	0.0875026
103	0xbdac3fe7	-0.08410626
104	0xbd983ffb	-0.07434078
105	0x3dbc67d2	0.0919949
106	0x3dbe3de2	0.09289147
107	0x3dc13d19	0.094354816
108	0x3db8ecbf	0.09029531
109	0x3dc3644d	0.09540615
110	0xbd857ea3	-0.06518295
111	0xbd4fc194	-0.05072172
112	0x3dba388b	0.09092816
113	0x3dac1a8d	0.08403502
114	0x3dbbd88b	0.09172162
115	0x3db8b61a	0.09019108
116	0x3dbb54b2	0.09147014
117	0xbd96a7ee	-0.07356249
118	0xbd92bafe	-0.07164572
119	0x3dc2c497	0.09510153
120	0xbdb44b3d	-0.08803413
121	0xbd682c98	-0.056683153
122	0x3db80416	0.08985154
123	0x3dbddbc5	0.09270433
124	0x3dc046ae	0.09388481
125	0x3dab9751	0.08378471
126	0xbd57a1a4	-0.052644387
127	0x3dbce155	0.09222666

action_model._discrete_distribution.branches.0.weight f4 [2, 128]
0	0x3d8922d8	0.06696099
1	0x3daa831f	0.083257906
2	0x3d90c32d	0.07068477
3	0xbd443169	-0.047898684
4	0x3d90df5c	0.070738524
5	0xbd4efa3f	-0.050531622
6	0xbd48b58a	-0.049001254
7	0xbd69327b	-0.056932908
8	0x3db232cc	0.08701095
9	0xbd5961c3	-0.05307175
10	0xbd1f65dd	-0.038915504
11	0xbd4f9843	-0.050682317
12	0xbd0fbe28	-0.035093457
13	0xbd5d6774	-0.05405374
14	0xbd458de2	-0.048231013
15	0xbcb6c41c	-0.02231031
16	0xbd440d87	-0.047864463
17	0xbd7a7c5d	-0.06115376
18	0x3d8ee040	0.06976366
19	0x3d0951bc	0.033525214
20	0x3da7e9b4	0.08198872
21	0x3d979206	0.07400899
22	0x3dacfbfb	0.08446499
23	0xbd521c06	-0.051296256
24	0x3dbb02bb	0.0913138
25	0x3da88242	0.0822797
26	0xbd51ee96	-0.051252924
27	0xbd3c0bfd	-0.04590987
28	0x3d78eae5	0.060770888
29	0xbd27af33	-0.040938567
30	0x3d895c9f	0.06707119
31	0x3d87f606	0.06638722
32	0xbd5825be	-0.05277037
33	0xbd8b335c	-0.067969054
34	0x3d8df99d	0.069323756
35	0xbd0a8d73	-0.033826303
36	0xbccf3a1a	-0.02529626
37	0x3d8f9ca6	0.070123
38	0xbd3e5754	-0.04647
39	0xbd163279	-0.03666923
40	0xbd7fc94d	-0.062447835
41	0x3d81b7d9	0.06333894
42	0x3da59550	0.0808512
43	0xbd911d03	-0.07085612
44	0x3d7e62b4	0.06210585
45	0xbd86cee5	-0.06582431
46	0xbd3421db	-0.0439776
47	0x3da5bfb5	0.08093206
48	0xbd2d1187	-0.042253044
49	0x3d75693c	0.059914812
50	0x3d8aeec5	0.06783823
51	0x3d910f84	0.070830375
52	0x3d903c02	0.070426956
53	0xbd36d590	-0.044637263
54	0xbd807c98	-0.06273764
55	0x3d8809c8	0.066424906
56	0x3da502b1	0.08057154
57	0x3d979ed1	0.07403339
58	0x3db796ca	0.089643076
59	0xbd95a7da	-0.07307406
60	0x3d7229fd	0.059122074
61	0xbd21df29	-0.039519463
62	0x3d94a687	0.07258325
63	0xbd35b0a6	-0.04435792
64	0xbd5ff4da	-0.054676868
65	0xbd7fb1ae	-0.062425308
66	0xbd2af301	-0.041735653
67	0xbd8ef4d1	-0.06980289
68	0x3d823ee8	0.06359655
69	0xbd3b7176	-0.0457625
70	0xbd32c69c	-0.04364644
71	0xbd4248cf	-0.047432717
72	0xbd508595	-0.050908644
73	0x3d8f5991	0.06999505
74	0x3da202c1	0.079106815
75	0xbd921c99	-0.07134361
76	0x3d7fe0cc	0.062470242
77	0xbd5f77b0	-0.054557502
78	0xbcf44c10	-0.029821426
79	0xbd43d61d	-0.047811616
80	0xbd6ae45e	-0.057346694
81	0x3da010f5	0.07815734
82	0x3d93e0bb	0.07220598
83	0xbd9c73eb	-0.07639297
84	0x3db39489	0.08768565
85	0xbd8aac61	-0.0677116
86	0x3d8be0ac	0.06829962
87	0xbd693bf9	-0.05694196
88	0xbd383579	-0.04497287
89	0xbda61ad7	-0.08110588
90	0x3d5f8ce1	0.054577712
91	0x3d851bed	0.06499467
92	0xbd28b18c	-0.041184947
93	0xbd4c4f5c	-0.04988037
94	0x3d9fb800	0.07798767
95	0x3db52246	0.08844428
96	0xbd826ca6	-0.06368379
97	0xbd1faa93	-0.03898103
98	0xbd62f911	-0.05541331
99	0x3d88dc3a	0.0668263
100	0x3d7cfb0d	0.06176286
101	0x3d588331	0.05285949
102	0x3d973742	0.073835865
103	0xbd5fdf28	-0.054656178
104	0xbd890183	-0.066897415
105	0x3da233d2	0.0792004
106	0x3d85ba59	0.065296836
107	0x3d7b9f9e	0.06143152
108	0x3d7fca67	0.062448885
109	0x3d735079	0.059402917
110	0xbd87023c	-0.06592223
111	0xbd156825	-0.036476273
112	0x3d75f424	0.060047284
113	0x3d89a745	0.06721357
114	0x3d80cd6e	0.062891826
115	0x3d84faf5	0.06493179
116	0x3d81d403	0.06339266
117	0xbd6e9c71	-0.058254663
118	0xbd83da40	-0.06438112
119	0x3d90e49b	0.07074853
120	0xbd80ea79	-0.06294722
121	0xbd365206	-0.044511817
122	0x3d844abc	0.06459567
123	0x3d94a5b7	0.0725817
124	0x3d87a4c7	0.06623226
125	0x3d721773	0.059104394
126	0xbd4d3a39	-0.050104354
127	0x3da36ed7	0.079801254
128	0xbd8dad4d	-0.0691782
129	0xbd83af04	-0.06429866
130	0xbdb5a0d3	-0.088685654
131	0x3d3c460a	0.045965232
132	0xbd98dfc9	-0.07464559
133	0x3d4790e0	0.048722148
134	0x3d54d149	0.051957402
135	0x3d42ce23	0.04755987
136	0xbd8bdafc	-0.06828877
137	0x3d5d2d15	0.05399807
138	0x3d42c37f	0.04754972
139	0x3d3f7e88	0.04675153
140	0x3d0ea7fa	0.034828164
141	0x3d7ac952	0.06122715
142	0x3d69aaa5	0.057047505
143	0x3c9deccd	0.019277954
144	0x3ced362f	0.0289565
145	0x3d814b96	0.06313245
146	0xbd65051e	-0.055913083
147	0xbd36dca2	-0.044644006
148	0xbd8a03b1	-0.06738985
149	0xbd8cb235	-0.06869928
150	0xbda6719a	-0.081271365
151	0x3d6dd591	0.058065
152	0xbd992a77	-0.07478803
153	0xbda0ffe2	-0.07861306
154	0x3d077a12	0.0330754
155	0x3d5c5469	0.053791437
156	0xbda31e71	-0.079647906
157	0x3d4b4bb7	0.049632754
158	0xbd892244	-0.06695989
159	0xbda7d580	-0.08195019
160	0x3d675326	0.05647578
161	0x3d66c258	0.056337684
162	0xbd79480c	-0.060859725
163	0x3d1608bd	0.036629427
164	0x3cfe88dc	0.031071119
165	0xbdaaee6c	-0.083462566
166	0x3d29da1f	0.041467782
167	0x3d39c23a	0.045351245
168	0x3d8b0847	0.06788688
169	0xbd90cd24	-0.070703775
170	0xbd874c53	-0.066063546
171	0x3d807dc4	0.06273988
172	0xbd808404	-0.0627518
173	0x3d9400f9	0.07226748
174	0x3ce384dd	0.027773315
175	0xbd9dc82f	-0.077041976
176	0x3d7911ad	0.060807873
177	0xbd9a1bba	-0.0752482
178	0xbdae133a	-0.08499761
179	0xbd9f3a6a	-0.077748135
180	0xbd79f00c	-0.061019942
181	0x3d2108b6	0.039314948
182	0x3d507833	0.05089588
183	0xbd4c1a50	-0.04982978
184	0xbd7de982	-0.06199027
185	0xbd6ef077	-0.058334794
186	0xbd864ab0	-0.06557214
187	0x3d7652ce	0.060137562
188	0xbd8922eb	-0.06696113
189	0x3d4e5634	0.05037518
190	0xbd59f831	-0.05321521
191	0x3d1f042b	0.038822334
192	0x3d32b0f0	0.043625772
193	0x3d8a345f	0.0674827
194	0x3d252c7e	0.040325634
195	0x3d842c08	0.06453711
196	0xbd8202f7	-0.06348222
197	0x3d073816	0.033012472
198	0x3d38f4fc	0.04515551
199	0x3d53366f	0.051565584
200	0x3d4d0c40	0.05006051
201	0xbdb82b41	-0.08992625
202	0xbda5816f	-0.08081328
203	0x3d17a647	0.03702381
204	0xbdba85b7	-0.09107535
205	0x3d30e87f	0.043190476
206	0x3cee73b1	0.0291079
207	0x3d703c0f	0.058651026
208	0x3d62fa5f	0.055414554
209	0xbd9e3be7	-0.07726269
210	0xbdab17a7	-0.08354121
211	0x3d4efb3b	0.05053256
212	0xbd95e48b	-0.07318982
213	0x3d845284	0.06461051
214	0xbd8011b6	-0.06253378
215	0x3d6e4d35	0.0581791
216	0x3d5dc66d	0.05414431
217	0x3d64cce6	0.05585947
218	0xbd53bc9f	-0.051693555
219	0xbd8bd675	-0.06828014
220	0x3d532007	0.051544216
221	0x3d84f261	0.064915426
222	0xbd997166	-0.07492332
223	0xbd9ea87d	-0.0774698
224	0x3d6d8518	0.057988256
225	0x3d26d386	0.04072907
226	0x3d4bea9e	0.049784295
227	0xbda49a9a	-0.080373004
228	0xbd78ea16	-0.060770117
229	0xbd9edf85	-0.07757477
230	0xbd98ebd5	-0.074668564
231	0x3d638f6b	0.055556696
232	0x3d8e04da	0.06934519
233	0xbda013d0	-0.07816279
234	0xbd8934ab	-0.06699499
235	0xbda3421c	-0.07971594
236	0xbd801411	-0.06253827
237	0xbd90913e	-0.07058953
238	0x3d6a6388	0.057223827
239	0x3d6bdcd6	0.057583652
240	0xbd90a635	-0.070629515
241	0xbda4955c	-0.080363005
242	0xbd767e96	-0.060179316
243	0xbd8e8e5f	-0.06960749
244	0xbd93938d	-0.072058775
245	0x3d8f53ee	0.0699843
246	0x3d465f5b	0.04843078
247	0xbd7d0143	-0.06176878
248	0x3d9a63db	0.07538577
249	0x3d600694	0.054693773
250	0xbda171dd	-0.07883046
251	0xbd8c7e1e	-0.068599924
252	0xbd8d037c	-0.0688543
253	0xbd854cc5	-0.06508783
254	0x3d2aa4b8	0.041660994
255	0xbd95a421	-0.07306696

action_model._discrete_distribution.branches.0.bias f4 [2]
0	0x3d7c77e1	0.061637763
1	0xbd7c77e1	-0.061637763
