results/ppo/MyTestingML/MyTestingML-48183.pt (torch, 429311 bytes, 33 tensors)

network_body._body_endoder.seq_layers.0.weight f4 [128, 2]
00000000: 83b5 03be 077b 0abe fe41 37bf ae70 a23d
00000010: c3e6 18bf 0d29 6fbf e5ac b33e 7b03 db3e
00000020: c2d4 583e 6c1c 7c3f 9356 1b3f 7623 9dbc
00000030: 87b8 a3bf 9b00 5fbf 7d5d 173e a23c af3e
00000040: 81cb 2cbe a74c 4e3f 270a fabe f4a9 b83d
00000050: 1712 42bd 3f9d f63f 3b1c 58bf fc40 6c3f
00000060: e25f 14bf f309 873e 9b36 23bd 9603 9d3f
00000070: 4fab 1dbe 2690 1a3f 2e05 8cbf 41d5 12bf
00000080: 0b26 1d3e 56c0 75be 4403 133f 3b6b 8fbd
00000090: 72f7 a83f d648 41bf 1f94 003e 5bac 39be
000000a0: e568 84bf 8041 6d3f 42f3 0e3f 0047 bcbe
000000b0: f368 32bf f88e a53c dfdc 143f df9b 1e3f
000000c0: 4e36 8c3e ab10 05bf 946a 4a3f 4fe5 6bbe
000000d0: 3c28 973e d821 323f b074 20bf d900 ebbe
000000e0: 7e2f 6ebf d48d 63bd 843a ad3e e4d6 8abe
000000f0: 36ff 573f 91ca cb3d d592 28bf 9e6c e83d
00000100: ea6c 943e 3d3e d8bd cda4 1e3f 0fc3 773e
00000110: 7072 8e3d 6f21 23bf ad17 d13d cb5b 8fbf
00000120: a1aa 0bbf b7bd 123f ddae f53e be1d 94bf
00000130: 94c3 c8be 636b 64bc a666 2bbf 6263 273e
00000140: 52e5 f1bf bd92 673f 8b33 42bf c974 90bd
00000150: 6b95 95bc 82fd 6b3d 6478 c2bf a418 653f
00000160: 45d2 23bf aa5b 79bd 8c03 383f d07f 06bf
00000170: 0b09 273d ed51 a13f 455d edbe c14a eb3e
00000180: d729 43be c135 7e3f b26f cabe 1c79 b53e
00000190: 346b 073f ca69 87bd a96d b03c 08c1 38be
000001a0: 8d96 833f f9e9 70bf 4a41 573f ea86 c43d
000001b0: 8e1b 243c 7b24 1e3f eadd 03bd e531 213d
000001c0: 378c adba 4ece bd3e 5f8c 8b3f b38d 07bf
000001d0: e799 97bb 5144 2cbf efe0 bc3e fe70 f4be
000001e0: 7bf4 603f 343c 783e e072 29be 1a99 b43f
000001f0: 5f39 12bf 95d3 8dbe 421a 363f d0b2 e5bd
00000200: 956c 27be 1315 5bbf 735b 373f c614 e0be
00000210: fe2a 38bf ba0f 843e 4a32 2d3f ef91 1dbf
00000220: b73f 4e3f dfac ccbd 00e2 8bbe 66d9 7c3e
00000230: 2a52 8a3f c38b d83e bbb9 893f d95f e73e
00000240: 985f 8c3e 05cc 74bf f782 aebf 54ab 623e
00000250: 27eb 93bf e23b 70bf b562 08bd e4b8 0cbe
00000260: 30dd f33e fbf8 383e 5495 253f d4f1 343f
00000270: e59d ba3e e274 873e ed97 9e3f 218a e23e
00000280: f60b 81be b053 15be d75d 45be a343 96be
00000290: 9dad 4dbf a853 b3be 2067 32bf acb4 843f
000002a0: ec4d bdbe 20bd b33f 62ed b33e adb0 be3d
000002b0: 42e7 cdbe a13b 90bf fd41 b8bf 0cbd 9cbe
000002c0: 97c1 02c0 593a fe3e 97ac e5bd a341 77bf
000002d0: f299 1e3f b956 a93f 69f2 eebd 48e2 7f3d
000002e0: 9ae0 45be baf6 7c3d 2ce8 e53d b9cc 7d3f
000002f0: 2a4c f23c d9a8 293e 130a cfbe 7d26 84bd
00000300: deec d53e b9aa 613f 175f 403f d282 943e
00000310: 8899 da3e 4edf b43f 20b8 a0bf 7c44 afbc
00000320: 2ab4 153f be21 223f 1b3a ca3e 7113 1dbf
00000330: 3a61 47bd 3883 29bf e514 2a3f 44e8 313f
00000340: 9906 683f 9991 4a3f b772 593f 7688 87bf
00000350: ebdf 7d3f 9b64 e93c f896 bf3f 5029 983e
00000360: 3b8f 513e 0be9 c0be da0b 0ebf f506 b83f
00000370: fea1 c93f 819b 85bf 51c9 983c b76c 353f
00000380: 41bd 3fbf eb13 ed3e 3bfd f93e 6efb 35bf
00000390: 9f7f 47bf 59fe 673e e711 64bf 2ec4 d2be
000003a0: 2c53 3abf 1c2d e1be 0a61 b23f 9fbb edbe
000003b0: b49b b1bf 7bae a43e d0ca 11bf c0f2 a93f
000003c0: 08dd f33e 0da4 9a3f 168f 91be f820 dfbe
000003d0: 9c93 b23e cebf 1ebe 3fa9 663e 4436 8cbf
000003e0: 646c 5e3f bc99 adba 2ad7 20be c6df d8bd
000003f0: 3bae f7bd 8d56 6bbe 53b8 833f 8014 05be
-0.1286221 -0.13523494 -0.7158507 0.07931648 -0.59727114 -0.93422014 0.35092846 0.42776093
0.2117491 0.9848087 0.60678977 -0.019181948 -1.2790688 -0.871103 0.14781757 0.34225947
-0.16874506 0.8058571 -0.4883587 0.09016791 -0.047380533 1.9266738 -0.84418076 0.9228666
-0.57958806 0.26374778 -0.039846998 1.2266719 -0.1539738 0.60376203 -1.0939081 -0.5735665
0.15346543 -0.23999152 0.5742686 -0.070028745 1.3200514 -0.75501764 0.12556504 -0.18132155
-1.0344511 0.9267807 0.5583993 -0.3677292 -0.6969139 0.020209774 0.5814952 0.6195659
0.2738518 -0.5197856 0.79068875 -0.23036693 0.29522884 0.6958289 -0.6267805 -0.45899084
-0.9304122 -0.05555518 0.33833706 -0.27117074 0.84373796 0.09950746 -0.6584905 0.11348842
0.28989345 -0.10558746 0.61970216 0.24195503 0.06955421 -0.6372289 0.10209594 -1.1199888
-0.54557234 0.5732073 0.47984973 -1.1571577 -0.39211714 -0.013941619 -0.66953504 0.16346505
-1.8898108 0.9045828 -0.758599 -0.07053525 -0.018259725 0.05761481 -1.519299 0.89490724
-0.6399272 -0.060878433 0.7188041 -0.52538776 0.04078011 1.2603127 -0.46360222 0.4595547
-0.1905893 0.9930077 -0.39538342 0.35443962 0.52897954 -0.066119745 0.021536665 -0.18042386
1.028032 -0.94107014 0.84084 0.09596045 0.010016335 0.61774415 -0.032194056 0.039354224
-0.001324064 0.3707146 1.0902213 -0.5295059 -0.004626501 -0.6729174 0.3689036 -0.47742456
0.8787305 0.24241716 -0.16547728 1.4109223 -0.5711879 -0.27700487 0.71133816 -0.112157464
-0.16350015 -0.8557903 0.71623915 -0.4376585 -0.719406 0.25793248 0.6765486 -0.615508
0.8056597 -0.0999391 -0.27320862 0.24692306 1.0806324 0.4229413 1.0759805 0.45190313
0.27416682 -0.9562381 -1.3633717 0.22135669 -1.1556138 -0.93841374 -0.03329726 -0.13742405
0.4762969 0.18063729 0.6468098 0.706815 0.3644859 0.26456362 1.2390114 0.4424601
-0.25204438 -0.14582705 -0.19274078 -0.29348478 -0.8034304 -0.35024762 -0.69688606 1.0367637
-0.36973512 1.4042091 0.35142046 0.09311042 -0.40215498 -1.1268197 -1.4395138 -0.3061298
-2.0430658 0.4965389 -0.112145595 -0.9658453 0.6195365 1.3229591 -0.1166733 0.062471658
-0.1932396 0.061758734 0.11225924 0.99140507 0.029577333 0.16568317 -0.40437374 -0.064526536
0.41782278 0.8815113 0.75145096 0.29006058 0.4269526 1.4130647 -1.255619 -0.02139496
0.58478034 0.63332736 0.39497456 -0.6135779 -0.048676707 -0.6621585 0.6643813 0.69495034
0.9063507 0.79128414 0.84940666 -1.058852 0.99169797 0.028490355 1.4967947 0.2971902
0.20464794 -0.37677798 -0.55486834 1.4377123 1.5752561 -1.0438081 0.018650683 0.7086901
-0.74898154 0.4630426 0.48826012 -0.71086776 -0.7792911 0.2265562 -0.89089817 -0.41165298
-0.7278316 -0.43979728 1.3935864 -0.46432206 -1.3875642 0.32164368 -0.5695009 1.3277206
0.4762957 1.2081314 -0.28429478 -0.4357984 0.34878242 -0.15502855 0.225255 -1.095406
0.8688414 -0.0013244669 -0.15707079 -0.105895564 -0.12093779 -0.22982235 1.0290626 -0.12996101

network_body._body_endoder.seq_layers.0.bias f4 [128]
00000000: 057f 343d 5725 4f3d da2d 5e3d e71d 18bd
00000010: 82cf faba fc59 f1bc e4fa 183c 9ebb 00ba
00000020: 2eec 4ebd 842f 493d 5ba6 ed3c 9946 6cbb
00000030: 52a6 c03c 7b85 ba3c b2c2 1ebd 052f 163d
00000040: a59f f23c 99ee 813c 52c1 0cbd 96e3 32bd
00000050: 8b60 17bc 5969 983c 037d 4f3d 497b 173b
00000060: 6484 063d 915f 293c 23f8 f1bb 6014 453d
00000070: aaee fa3c 1d60 7c3c e028 d43c b8d5 943c
00000080: 8d56 783c 895a aabc 0801 2c3d 4964 2e3d
00000090: f009 323c 929e ce3c 1da3 143d 17cf fd3c
000000a0: 0fd5 713c 0a13 1d3d 505d 0c3d 7216 403c
000000b0: 7250 433d f72b d73c 6e89 813c 2083 4cbc
000000c0: 3be4 053d 1f16 a1bc 218e e33c ab8b 71bb
000000d0: 72bb 1abd d0ca 843b 4861 b0ba 8eff 38bd
000000e0: cb12 023d 2577 353c 356d 493d f2d0 60bc
000000f0: 8330 1abc bc5a 273c aee9 563d 9a60 0fbc
00000100: 018a df3c e57d f7bc d77b 15bc 6826 cfbc
00000110: 3e06 e43c 52d6 783c 642e 733c f9a7 d539
00000120: 2451 0b3d 4bee 233d a112 583d 405e c13c
00000130: b784 dd3c 7a69 5f3c ea46 adbc c98e 083c
00000140: 69fd d83c ea98 513d 77c3 5a3d dbe0 3a3c
00000150: a09c 273c b001 2bbd 4fc2 5c3d a7ef 313d
00000160: 0932 733c 07de 593d 1cb1 dd3b 84fa 283d
00000170: 412c 293d 939c 38bc 60b5 3dbd 3d33 543d
00000180: f0e3 693c be07 123c 4e6b db3c 4cbb b53c
00000190: 4606 053b 19ba 4dbd 072d 3e3d 2fed 1bbd
000001a0: 0a2c adbb 1e1a 3ebd da13 81bc 11ae 883c
000001b0: 8b36 f13c fac8 4abb b726 fdbc 2c9e 9e3c
000001c0: 0943 193c 4b14 f4bb b0af 083d d90f 583d
000001d0: d666 5b3d 9b43 0a3a 0d2e 173d d9c6 aa3b
000001e0: cb4f a4bc c18a 233d 4a2c c7bc 84ae 403d
000001f0: 3e6b c73c 513e 3dbd 0494 7e3c 2957 2c3d
0.044066448 0.05057272 0.054242946 -0.037137892 -0.0019135328 -0.029461853 0.009337161 -0.00049107696
-0.050518207 0.04911758 0.029009989 -0.0036052822 0.023516808 0.022768727 -0.038759895 0.036665935
0.02961714 0.015860843 -0.034364052 -0.043674074 -0.009239326 0.018604921 0.05065633 0.0023114255
0.0328411 0.010337726 -0.0073843165 0.048115134 0.030631382 0.015403775 0.025898397 0.018168315
0.015157354 -0.020795124 0.04199317 0.042576108 0.010866627 0.025222097 0.03628837 0.030982537
0.01476027 0.038348235 0.034268677 0.011724101 0.04768414 0.026266081 0.015812602 -0.0124824345
0.03268836 -0.019663868 0.027777733 -0.003685693 -0.037776418 0.0040524974 -0.0013456726 -0.04516559
0.031756204 0.01107577 0.049176414 -0.013721691 -0.00941098 0.010214504 0.052468948 -0.008751059
0.027287485 -0.030211398 -0.009123764 -0.025286868 0.027835008 0.015187817 0.014842603 0.00040751675
0.03401293 0.040022176 0.05275214 0.023604512 0.027040822 0.013635987 -0.021151979 0.008334824
0.026488023 0.05117122 0.053409066 0.011406149 0.010230213 -0.041749656 0.053896245 0.04344144
0.014843472 0.053190257 0.006765498 0.041254535 0.04130197 -0.011267799 -0.04631555 0.051806677
0.014275536 0.008912979 0.026784565 0.022184037 0.0020297929 -0.050226305 0.04642966 -0.038067993
-0.005284791 -0.046411626 -0.015756536 0.016684564 0.029444953 -0.0030942545 -0.03090225 0.019362532
0.009354361 -0.007448708 0.033370674 0.05274949 0.05356487 0.0005274356 0.03690915 0.005211693
-0.02005758 0.039927248 -0.02431311 0.04704143 0.02434313 -0.046202008 0.015538219 0.04207531

network_body._body_endoder.seq_layers.2.weight f4 [128, 128]
00000000: 36d6 343d c6c1 c1bc 4436 d5bd 1d61 e6bc
00000010: 23fe 003e 6e6f f03d 38e8 cebb 1b6c 5ebd
00000020: d43f 823b feae 42bc 702d e3bc e170 22be
00000030: 3efe 8d3d bb6f 5bbd b7a6 28bd a198 163b
00000040: c687 293d d304 41bd cac1 d0bc 0103 133e
00000050: a377 a63d 184e 47bd a806 7dbe 1de9 183e
00000060: 25ce a33d 28f3 82bd c339 7c3c 7048 253c
00000070: 3777 fb3b 9dff 86bd 45f8 f33d 5dec db3d
00000080: cfaa 81bb ab8c fb3d b750 d0bd e583 303d
00000090: 91ef 81bd f4ac 993c 1a68 9bbd f781 1ebe
000000a0: a407 d63d 3adc 883d f3fd 3b3d 89e5 273e
000000b0: 87e9 7d3d 5f46 813d fc7e 653d a975 bc3d
000000c0: 88a4 e5bd 6196 0b3d 821d 1a3d 078e 8a3d
000000d0: c2ae 1dbd 8b7c 203c a1a3 cf3c 467e 9d3d
000000e0: 7255 4f3d 454f e23d c22e b13c d628 d2ba
000000f0: e240 4a3d 7707 023d 1861 3fbe 3720 1b3d
00000100: 39ed 283d 50b0 40bd dc00 27be 9ed7 023d
00000110: b8df f6bb a912 19be b7ff 1cbb f53e 823d
00000120: 4267 dfbd e15b c9bd 4392 753d 94f3 a73c
00000130: fb76 f0bd 6e96 693d c608 df3d 7740 e7bd
00000140: 057c 863d 37af 09be b197 24be 4734 b43d
00000150: b87a 6e3c 4dbd 17be 51b7 e0bd 6a38 d4bc
00000160: 032d af3d e735 39bd 06d3 0fbe 1f32 1b3d
00000170: b7c3 1ebd ddd3 1a3c 9a23 093d c682 81bd
00000180: 90d4 78bd ade3 14be 6378 e73c 624d 5a3d
00000190: 1310 063e 8b88 91bd a8ed 843d 6abf eabd
000001a0: c14e 233d 0c3f 893e 648f a1bd 4205 16bd
000001b0: 6652 9cbd 0711 0e3e 5b78 103d 6ba7 0b3d
000001c0: 702d 003e 4862 3a3e e5ea cc3c 4c00 cd3c
000001d0: 714c e7bd de0a 4d3d c23e f0bb 0244 493d
000001e0: dcd3 69bd be7b d8bd 00e7 0dbc ae05 1ebe
000001f0: c1f8 8f3c 8a01 ff3d 46bb d3bc 2f8f 6ebd
00000200: 710b 91bc 24e5 f8bd 3348 083d 71ca e2bd
00000210: 3164 cd3d 44ca 6fbd 755e c63d 30e2 143d
00000220: 1a6f c43c b227 153e c4f6 543d fdab 5cbc
00000230: f836 2a3d 6fd9 903d 958a d4bb ea6a b23c
00000240: 1d25 cabd b995 09bc aa6d 66be 193f 823a
00000250: 1ec3 4c3c 7c75 f43d 1189 4fbe 4b44 c33c
00000260: 1022 5abd 198e 883d 16a1 4e3d b263 6b3c
00000270: 7122 a43c bb3f e6bd 0ccc 493d 3387 56ba
00000280: cad2 85bd 825e 9f3b c141 ccbd 5dc1 843d
00000290: 843f b5bd 1d21 1fbc 1772 673d 69b2 7abb
000002a0: 8d33 30be 932a 70bc befa ce3d 39bc 473c
000002b0: 7023 9b3d d9e5 9dbd d49e 8d3b adb1 023d
000002c0: b532 c4bd a94f a73d 836f a93c a3f2 873d
000002d0: 19b8 a4bd 833a bc3d cb3c 57bd 399e a2bd
000002e0: 7505 ac3d 58a8 2bbe 9d44 15bd 1e2f 48bd
000002f0: 9d82 993d 88f1 003d e49e 93bc 9044 bfbd
00000300: 7502 85bd f29f e9bb 65ac 7abe 5896 70bd
00000310: fef8 f03d 98e8 8abd 6f84 93bd 422b 903d
00000320: eda1 93bd b4ee 4b3e 5b71 4a3e c8d8 013d
00000330: 1218 793d 30c4 bc3d bc64 d03d 931f 0f3d
00000340: cb0c ddbd 08fe 88bd 7275 da3c 2c4e 453c
00000350: 47fe 2abe 0180 c4bd 7103 aa3c 00cf 033d
00000360: 3750 7b3d 66c1 97bd f06f a3bd 11de da3d
00000370: 71c9 193e f780 61bd 7f84 273d 062c debd
00000380: 68e4 de3d 49a4 cd3d 1c02 3cbc b81c 513d
00000390: 8103 02bc 5434 07be 5873 3a3c 5e6f 163e
000003a0: bfb8 92ba ca8d 1d3d 9a71 25bd c0d1 483c
000003b0: 7aaa e33c ab57 38be 198b 793d 3ea7 0c3e
000003c0: 6cee 52be fc8f 8bbd ac40 90bd 7f3f 53be
000003d0: 3347 353d 861c 01be 9c5d 9abd b0e8 123d
000003e0: dfd2 9b3d 36c9 1abc 7d1e 013e 0f59 c93c
000003f0: 3bbf 5f3d 0f51 49be 0729 2ebe 27be 463e
0.0441496 -0.023651969 -0.10410741 -0.02812248 0.12596945 0.117400035 -0.0063143037 -0.054302316
0.003974894 -0.011882542 -0.027731627 -0.15863372 0.069332585 -0.05357335 -0.041174617 0.0022979158
0.04138925 -0.04712374 -0.02548303 0.14356615 0.08128288 -0.04865846 -0.2470957 0.14932676
0.07998303 -0.063940346 0.015394631 0.010088071 0.0076741236 -0.06591723 0.11912588 0.10738442
-0.0039571295 0.1228269 -0.10171645 0.043094534 -0.06344522 0.018759228 -0.07588215 -0.15479265
0.10450676 0.0668263 0.04589648 0.16396154 0.061990287 0.0631225 0.056029305 0.092021294
-0.112130225 0.03407896 0.037625797 0.06765371 -0.03849674 0.009795318 0.025346579 0.076901
0.050618596 0.11050276 0.021628741 -0.0016033899 0.049378283 0.0317454 -0.18689382 0.03787252
0.04124186 -0.047043145 -0.16308922 0.03194391 -0.0075339936 -0.14948525 -0.002395613 0.06359664
-0.10908367 -0.09831978 0.05995394 0.02050189 -0.11741444 0.057028227 0.10890345 -0.112915926
0.065666236 -0.13445745 -0.1607349 0.087990336 0.014555626 -0.14818306 -0.10972465 -0.025905807
0.08553507 -0.04521742 -0.14045343 0.037889596 -0.038760867 0.009449926 0.033481218 -0.06323771
-0.06074959 -0.14539976 0.028255647 0.053296454 0.1309207 -0.07106122 0.06490642 -0.114622906
0.039870027 0.26805913 -0.07888678 -0.036626108 -0.07632904 0.13873683 0.03527103 0.03409521
0.12517333 0.18201554 0.02501435 0.025024556 -0.11293877 0.050059192 -0.0073317 0.049137123
-0.05708681 -0.10570477 -0.008661032 -0.15431854 0.01757467 0.124514654 -0.025846135 -0.05824202
-0.017705651 -0.1215308 0.03327198 -0.11073769 0.100288756 -0.058542505 0.09685985 0.03634852
0.023978759 0.14565924 0.051993147 -0.01346874 0.04155633 0.07072722 -0.006486247 0.021779496
-0.0987036 -0.008397513 -0.22502771 0.0009937017 0.012497691 0.11936471 -0.2026713 0.023836276
-0.05325514 0.06667728 0.050446592 0.014367031 0.020035954 -0.11242624 0.04926686 -0.00081835984
-0.065343454 0.004863561 -0.09973479 0.064821936 -0.08850005 -0.009712485 0.05650529 -0.0038253313
-0.17207165 -0.014658588 0.10106419 0.012190872 0.075751185 -0.077098556 0.0043219123 0.031907726
-0.09579984 0.08169491 0.020683056 0.06638076 -0.08042926 0.09190848 -0.05254821 -0.07940335
0.08399478 -0.16763437 -0.036442388 -0.04887306 0.07495616 0.031480342 -0.0180201 -0.09339249
-0.06494609 -0.0071296627 -0.24479826 -0.05873713 0.117662415 -0.06782645 -0.07202994 0.07039501
-0.07208619 0.19915277 0.19769804 0.03170088 0.06081397 0.09217107 0.101754636 0.03494222
-0.10793456 -0.066890776 0.02666733 0.012042563 -0.16698562 -0.09594727 0.020753594 0.032179832
0.061355796 -0.07409935 -0.07980335 0.10686887 0.1501825 -0.05505463 0.040897842 -0.108482406
0.10883409 0.100411005 -0.011475112 0.05105278 -0.007935406 -0.13203555 0.011380039 0.1469092
-0.0011193975 0.0384653 -0.040391542 0.01225704 0.02779125 -0.18002193 0.06092367 0.13735673
-0.20598763 -0.06814572 -0.07043585 -0.2062969 0.044257354 -0.12608537 -0.07537386 0.03586644
0.0760858 -0.0094473865 0.12609287 0.0245786 0.05462573 -0.19659828 -0.17007838 0.19408475

network_body._body_endoder.seq_layers.2.bias f4 [128]
00000000: 142d b6bc 50fb 2c3d 1616 08bd f62f f53b
00000010: 2377 10bd 4422 b7bb 3d1e 313d 199b 953c
00000020: c168 f1bc 8987 dd3c 946a 22bc 9640 9dbc
00000030: 2801 bbbc e8df 8bbc 6a38 b7bc ac6f 323d
00000040: ba8e 69bc 5a15 19bc ca23 2a3d 468d 513d
00000050: 6c25 d138 a881 6bbc 36dc 203d 79a6 1dbd
00000060: ec8f d23c 8b05 2f3d 7998 5bbc 09a5 27bd
00000070: 7bc7 0bbd 4e2b 093d 4329 523d 0086 103d
00000080: 1089 2cbc 0bf1 433d e31f 933c 8177 23bc
00000090: 003d 323d 042c d83c 01d9 9cbc 3bb4 1d3d
000000a0: 5a7e e4bc 437f f1bc 3a19 f8bc 6e67 263d
000000b0: 9510 b8bc 6408 4f3d 517f aebc f71a 21bc
000000c0: 3688 f7bc 9021 c53c 3ff3 21bd 77c5 013d
000000d0: 3b4e e83c c7dc 0ebc 7408 a0bc 4a4a 94bb
000000e0: 18e8 213d 8fd8 85bc 430a ee3c 82e1 e13c
000000f0: cd87 98bc 07b9 2e3c 04db ffbc c210 193d
00000100: 5677 753a 0578 4e3d d779 313d 329f 313d
00000110: 719a 5f3c e05a 08bd 959a 85bc 5f92 4f3d
00000120: e3fb 4c3d b44c dabc 6177 6abb 2a41 053d
00000130: 0080 383d f4ab 283d 7f9b d5bc 3283 0abd
00000140: 95c0 04bd 03f9 133d 7bec 3c3d 704b dc3c
00000150: 93a1 2f3d ea70 8a3c 36d1 293d 3e48 313d
00000160: 376a 86bc d9bd 2b3d 003f 163d 5d12 bcbc
00000170: a0ec 7fbc d595 09bc e252 433d 1661 80bc
00000180: c9fb 163d 51e7 4b3d d989 4f3d 39e6 c7bc
00000190: 52ba 88bc eeb5 1f3d e1e7 4d3d c924 aebb
000001a0: 4f53 fbba b494 1d3d 64bb de3c 7c57 debb
000001b0: c02e 8fbc cde8 273d 644c 0e3d 4c72 00bd
000001c0: 2e94 f43c 1257 343d 3b46 0b3d f1be 69bc
000001d0: 5ada 91bb 41f9 e23c 91c5 98ba cbf3 e3bc
000001e0: 9ff0 aabc f6aa 9abc 329a 03bc 1639 ec3c
000001f0: 28f8 1a3d 2d41 7a3a 9358 fdbc 431e 113d
-0.022238292 0.042231858 -0.033224188 0.007482524 -0.035269868 -0.0055888016 0.043241728 0.018262433
-0.029468896 0.027042167 -0.0099131055 -0.019195836 -0.0228277 -0.01707454 -0.022365768 0.04356353
-0.01425522 -0.0093434695 0.041538037 0.05116012 9.972867e-05 -0.014374174 0.03927251 -0.03848884
0.025703393 0.042729896 -0.0134030515 -0.040928874 -0.034125786 0.033488564 0.05130888 0.035284042
-0.010530725 0.0478373 0.01795954 -0.009977222 0.043515205 0.026388176 -0.019146444 0.03850196
-0.02789228 -0.029479628 -0.030285466 0.040625982 -0.022468844 0.05054511 -0.021300944 -0.009833089
-0.030216318 0.024063855 -0.03953862 0.031682458 0.028357616 -0.00871963 -0.01953528 -0.0045254575
0.039527982 -0.016338615 0.029057628 0.02757335 -0.018619442 0.010664231 -0.031232364 0.037369497
0.0009363791 0.05040743 0.043329086 0.04336471 0.013647662 -0.03328979 -0.016309062 0.0506767
0.050044905 -0.026647903 -0.0035776722 0.03253285 0.045043945 0.041179612 -0.026075123 -0.033816524
-0.032410223 0.036126148 0.046123963 0.02689144 0.0428787 0.016899545 0.041459285 0.043281786
-0.016408069 0.0419291 0.036681175 -0.022957975 -0.015620381 -0.008397539 0.047686465 -0.015671294
0.036861215 0.049781147 0.05066857 -0.02440177 -0.016690407 0.03899186 0.050269965 -0.0053144437
-0.0019174608 0.038471892 0.027188964 -0.0067853313 -0.017478347 0.0409935 0.03474082 -0.031359002
0.029855814 0.04402835 0.034002524 -0.014266715 -0.0044510784 0.027706744 -0.0011655559 -0.02782621
-0.02086669 -0.018880349 -0.0080323685 0.028835814 0.037834316 0.0009546455 -0.030926025 0.03542925

action_model._discrete_distribution.branches.0.weight f4 [2, 128]
00000000: b657 04bd 1ab1 423d ded7 4dbc f279 44bd
00000010: 8a54 2ebd 0544 44bd ad8b 2c3d 218d f53b
00000020: 0ad6 f53a b32a 123d d326 35bd fbc8 babc
00000030: c5e0 8ebc 8615 03bd f5b0 0bbd bd26 283d
00000040: 70b2 2ebd f787 6dbd faca 3e3d 4489 1f3d
00000050: 3c91 1ebd b497 2dbd 0983 903c 25cf 32bd
00000060: 0da8 a63c 9b67 173d 295b 21bd 8f0c f9bc
00000070: b11e 13bd 52af 233d 9f0b 223d 7063 323d
00000080: 7b37 01bd 771a 093d 381a 093d a510 26bd
00000090: 5ae5 343d 12ac 113d 962b cbbc dcb3 1e3d
000000a0: f54b c5bc acc3 e9bc 0b4e b2bc eed0 2d3d
000000b0: 53cc b5bc c109 f93c cc00 2bbd f5cf 3fbd
000000c0: 2414 21bd c7ba 413d 91b2 00bd df4f 1b3d
000000d0: 05fd 273d 62b2 2dbd 050e 1fbd 8572 2cbd
000000e0: a199 1a3d 239d 18bd c0b3 123d 1901 403c
000000f0: 8ac4 6bbd f4f3 3c3d 71f3 25bd 96f8 073d
00000100: 0e8a 44bd caa3 433d a2a8 363d e50f 1e3d
00000110: 07d1 a33c 5013 30bd 64db 49bd 09fa 3a3d
00000120: 0765 483d 36cb 38bd 9174 18bd d395 fc3c
00000130: 9aaa 373d 9be3 6c3d d516 c0bb ea36 c8bc
00000140: a1e5 95bc 5065 293d 5492 3d3d 6203 113c
00000150: fbf2 253d eb2f bc3c 11fe fc3c 1bd5 293d
00000160: cfd7 45bd 7748 213d a94d 503d 6bab 5ebd
00000170: ba2e 40bd d9e0 1fbd f9dc 4b3d d2e9 45bd
00000180: 80b5 f23c a870 e83c 4ad4 363d 91ab e0bc
00000190: cf35 48bd 71ca 4e3d f725 463d ffff 20bd
000001a0: 1c9e 42bd 6320 163d d82f 183d e4c1 3fbd
000001b0: a94c 29bd 2c61 393d 0158 263d 23a6 89bc
000001c0: c157 1d3d 0d22 ff3c 5ab6 f83c 2b6f 6fbd
000001d0: e293 26bd 533d 3b3c fbd0 2cbd 9dbb a7bc
000001e0: 55b3 1dbd b295 4fbd 2b5f f6bc 89b9 c13c
000001f0: de71 203d 029e 21bd 9d19 e8bb dd88 0d3d
00000200: 842a 1e3d ce5b 4abd d7da af3c 62eb 3d3d
00000210: 365e 403d a005 443d 866e 3abd 93cf 75bc
00000220: fb45 573c e546 2ebd 1ff9 113d 76b3 013d
00000230: 4408 083d fb2d 1a3d e4ed 483d 56a7 13bd
00000240: c449 a93c 7c7d 4d3d 4b96 17bd 7538 18bd
00000250: 7673 383d d5a3 493d 8ec1 17bd a7fc 2e3d
00000260: d6b5 c6bc 9ad3 dbbc c043 423d 4897 003d
00000270: 28a1 2a3d 5525 b1bc 3a69 22bd 9d42 d3bc
00000280: 94d2 153d 3291 32bd 9b55 fdbc cd13 303d
00000290: 1a43 7bbd e81d 1cbd 3fa2 f43c 3514 07bd
000002a0: ac48 3b3c 35d5 4b3d cad0 c13c 9eee 6cbd
000002b0: ebb9 f13c 7b20 2fbd f1bb 443d d176 6f3d
000002c0: 86e9 003d 54c6 c0bc 13a6 c73c a511 fbbc
000002d0: 7f5b 5bbc bb6e 2d3d 4785 2c3d fa96 0e3d
000002e0: ebf5 31bd 3d6f 6e3d 0fd4 84bc c09f 07bd
000002f0: bef5 583d 6076 c6bc 0738 de3c 4de4 b8bc
00000300: 20ff 383d 2e98 10bd 38ef f4bc 9000 00bd
00000310: 6997 27bb fa6c 803c 4991 113d 9875 30bd
00000320: 7fe2 f8bc 7ef9 1a3d b18f 2e3d 34db 00bd
00000330: b3b3 59bd b724 0cbd 11c5 9f3c 42ce b93c
00000340: e9a8 f33c b605 f9bc fa9c 2cbd 0078 c0bc
00000350: 61eb e3bc 006f dbbc 2ff3 43bd 1a76 dabc
00000360: 6d06 1a3d f099 18bd 3497 3abd fdec 233d
00000370: fee4 363d b93d 343d f071 19bd 8a47 2f3d
00000380: 9883 24bd bd2b 41bd 93a1 21bd 3933 183d
00000390: 9584 493d 8286 fbbc c4c5 0abd d9c8 303d
000003a0: 27fd 2c3d c7c8 24bd 03b8 bebc 2774 0c3d
000003b0: 4b27 043d 2e08 20bd ce62 19bd d337 6d3c
000003c0: c924 f0bc 4041 6fbd 84cc 07bd 23bc fa3c
000003d0: 1071 1f3d fc39 0ebd defa 3e3d 0eb8 443c
000003e0: b2c9 f03c d7a1 3a3d 0f99 453d 1428 cabc
000003f0: 7542 2dbd b4d5 073d b0b0 f63c fd8b 2dbd
-0.03231021 0.04753218 -0.012563674 -0.04796786 -0.04256109 -0.04791643 0.042125393 0.0074936305
0.0018755805 0.035685252 -0.04422648 -0.022800913 -0.017441163 -0.03200295 -0.034104306 0.04105257
-0.04265064 -0.057990994 0.046580292 0.038949266 -0.038712725 -0.042381003 0.017640607 -0.04365458
0.020343805 0.03696404 -0.039393578 -0.030401496 -0.03591794 0.03996212 0.039561864 0.043551862
-0.03154705 0.033472504 0.03347227 -0.040543217 0.04416404 0.03556449 -0.024801057 0.038745746
-0.02408407 -0.028535686 -0.02176573 0.04243558 -0.022192156 0.030400159 -0.041748807 -0.046829183
-0.03932585 0.047297265 -0.031420294 0.037917968 0.041012783 -0.042406447 -0.03883173 -0.0421014
0.03774417 -0.037259232 0.035815954 0.011719012 -0.05756048 0.04613109 -0.040515367 0.033196054
-0.04798322 0.047763623 0.044594415 0.038589377 0.019997133 -0.042987168 -0.049281493 0.04564861
0.048924472 -0.045115672 -0.03722054 0.03083316 0.044840433 0.05783425 -0.005862097 -0.024440248
-0.018297972 0.041356385 0.046282127 0.008850904 0.040514927 0.022972068 0.030882867 0.041463
-0.048301514 0.03937575 0.050855312 -0.054362696 -0.046919562 -0.03903279 0.049771283 -0.04831869
0.029627562 0.028374031 0.04463605 -0.02742556 -0.04887944 0.050486032 0.04837605 -0.039306637
-0.047514066 0.03665198 0.037155002 -0.046815768 -0.041332874 0.045258686 0.04061127 -0.016802853
0.038413767 0.031144166 0.03036039 -0.058455627 -0.040668376 0.011428195 -0.042191487 -0.020475203
-0.038501102 -0.05067987 -0.030074676 0.02364804 0.039171092 -0.03945733 -0.0070831315 0.03455435
0.038614765 -0.049403958 0.021466656 0.046367057 0.046964847 0.047856927 -0.04551556 -0.015003103
0.013139243 -0.04254808 0.03563797 0.031665288 0.033211008 0.037641507 0.049054995 -0.036048256
0.020665057 0.0501685 -0.037008565 -0.037163217 0.045031987 0.049228508 -0.037049823 0.042721417
-0.024256628 -0.026834298 0.047427893 0.031394273 0.041657597 -0.021624247 -0.039651133 -0.0257886
0.036577776 -0.0435955 -0.030924609 0.042987633 -0.06134329 -0.03811446 0.029862521 -0.032978255
0.011430901 0.049763877 0.023659129 -0.05784475 0.029507598 -0.042755585 0.048030797 0.05846292
0.031472705 -0.02353207 0.024371183 -0.030648062 -0.013388514 0.04234193 0.04211929 0.03481195
-0.043447416 0.058211554 -0.016214399 -0.033111334 0.052968733 -0.024226367 0.027126325 -0.0225698
0.04516518 -0.03530138 -0.029899225 -0.031250536 -0.0025572425 0.015676964 0.035538945 -0.043080896
-0.03038144 0.03783559 0.042617504 -0.03145905 -0.05314989 -0.0342147 0.019503148 0.02268136
0.029743629 -0.030398231 -0.042141892 -0.02349472 -0.027822198 -0.026786327 -0.04783934 -0.026667643
0.037603784 -0.03725618 -0.045554355 0.04002093 0.044651978 0.044004176 -0.037462175 0.042792834
-0.04016456 -0.047160853 -0.03946073 0.037158225 0.049198706 -0.030703787 -0.03388001 0.043160293
0.042233612 -0.04023054 -0.023281103 0.03429046 0.032264035 -0.0390703 -0.037447743 0.014478642
-0.029314416 -0.058411837 -0.033154026 0.030607289 0.038926184 -0.034723267 0.046625964 0.012006773
0.02939305 0.0455645 0.04824167 -0.024677314 -0.042299706 0.033162788 0.030113548 -0.04236983

action_model._discrete_distribution.branches.0.bias f4 [2]
00000000: e0c4 c93c e0c4 c9bc
0.02463001 -0.02463001

exp_avg f4 [128, 2]
00000000: 03ff 9b38 4196 413a 359e 0f3a 4a54 79ba
00000010: 4ef5 0c3a 4174 153a ecc4 2fb9 81a5 90ba
00000020: 63cb 0cba 42e5 faba 4bbb dbba cba0 bb38
00000030: 4527 ac39 0051 263a 96ce 44ba bad7 52ba
00000040: b463 9839 3e3a 90ba b57e 263a ff8d 70ba
00000050: bb19 e5b9 4a62 60bb 161a 273b f010 09bb
00000060: 88e3 533a 70ad 63ba c78a 61b9 c2d9 4cbb
00000070: f0eb e939 40b8 81ba 4efa b239 592a 3c3a
00000080: 5f5d 3aba d865 0b3a 52a5 0cbb d91a 02b9
00000090: 7029 20bb 02d8 3f3b b54e fbb9 32cb 163a
000000a0: 367e 263b 0b59 20bb 1651 06bb a5df 4c3a
000000b0: b3e3 c739 3d4b 11ba 1f5d 55ba 3615 ecba
000000c0: 9afd 48b9 3ce5 a339 59ee 01bb 9a23 6a3a
000000d0: e57e bfb9 bbdc c1ba 8d9e e339 c8df 823a
000000e0: ffff 7e39 ce05 51b7 b097 b5ba 5690 fd3a
000000f0: e201 28bb 2483 38ba 60e1 013a 3415 a9b9
00000100: af7b a3ba 08e6 6f3a 8ac5 5eba 5e52 96b9
00000110: 4aca 27ba 6577 243a dbf2 f0b7 9161 8037
00000120: 0381 ab3a 80b4 05bb 6ebb 0ebb 68d5 063a
00000130: 95a5 0e3a c804 dcb8 63c1 1f3a 4604 81ba
00000140: 83dd 483a 491c 9dbb 3edd 8939 8d06 0b39
00000150: 1458 c139 cf1d 62ba 9019 e43a 53a7 92bb
00000160: 628f 8a39 ac58 fcb8 caf4 e8ba 070a c33a
00000170: 1ac8 ceb8 ff91 ddba 3ffd 313a c6b6 84ba
00000180: 881a 5d3a 2e5e 41bb 4cf8 c639 fe73 93ba
00000190: a98a d1ba fea3 6c39 86f2 97ba 1f94 9a3a
000001a0: 9011 03bb be2a 083b e1fb cbba c5be d9b9
000001b0: f75d 213a 9548 0fbb 23f7 853a 3851 61ba
000001c0: 0a09 d1b9 132d 1ebb 7257 f7ba d090 b53a
000001d0: 4d3c 02ba 5e05 7239 585a 9fba ba6a a63a
000001e0: 4cc3 3cbb 2b22 00ba 5e14 9039 c420 09bb
000001f0: 3cee 9539 8630 4537 5a8a ebba 1a2b 7139
00000200: 1b47 6e39 874b 3839 6e89 feba 77d3 093b
00000210: 80b9 833a 3446 fcba 325b d4ba 7f28 d33a
00000220: 875d 36bb 60af 8a3a b518 8d3a 1a0c 2cba
00000230: 001c e2ba 3b24 84ba 4f5d 30bb e83b ffba
00000240: a059 13bb 43fa 263a 6b7d 0639 156a f0ba
00000250: 1606 313a 1a4a 943a 4508 21b9 23ce 463a
00000260: 5d84 dbba b3b3 0bba 8591 e7ba adaf c4ba
00000270: a1ba 8dba c871 36ba 69e2 64bb f504 9dba
00000280: b293 1ab7 8bf1 303a 9a4c 8139 b0e7 cd39
00000290: 1745 023a 5f59 183a eae8 213b 1d04 33bb
000002a0: 6361 593a 0005 24bb 892d 37ba 0dc5 86b8
000002b0: 3768 983a f67a 8439 9dbf 2338 0535 473a
000002c0: cf8b 9638 f4c3 79bb 143c e2b9 cc07 7339
000002d0: 85d0 baba 2ef2 5ebb bc5c 583a 96ab 36ba
000002e0: 6058 7f3a 348a 3fba d22a b939 88e0 a9ba
000002f0: e7dc fb39 eec8 93ba 7fc3 193a 8380 d9b9
00000300: ccb7 89ba 1971 1bbb cb34 cbba 5623 08bb
00000310: 929e b5ba b52c 83bb e5e4 aa36 120e 7339
00000320: 2b1d e3ba ca31 c9ba b94d 2cba 5a92 173a
00000330: 7180 8eba 443b b639 f546 75ba 29b5 a9ba
00000340: 83e5 20bb bdf5 5aba 0cde 3fba 4220 bd39
00000350: 6438 d9ba deec 313a e933 4ebb 0430 61ba
00000360: 514d d038 a97d 0a3a e49d 173b bd41 2bbb
00000370: 6dad 44bb 024e 983b adf6 9cb9 faaa f1ba
00000380: 60d9 bd3a 0654 28bb 29e8 e2ba 718d 8c3a
00000390: 2166 ec39 ca18 36ba cc92 003a 0830 9c3a
000003a0: daac 5c39 1718 6f3a 20c2 5dbb bf41 303b
000003b0: 3046 0239 c270 03bb ee72 cd3a 34ca efba
000003c0: 57ba 9eba e9b3 23bb 3cee 7d3a d4f9 e639
000003d0: 4277 25ba fa69 c3b8 de72 d7ba 4ab7 8339
000003e0: 7eb9 3fbb 20ce b638 d367 da39 aae6 ebb7
000003f0: 932d e139 91b0 d238 0732 2abb b587 bcb9
7.4384756e-05 0.00073847553 0.0005478592 -0.0009511156 0.00053771294 0.0005701222 -0.0001676266 -0.0011035652
-0.0005370883 -0.001914181 -0.0016764192 8.946805e-05 0.00032835655 0.00063444674 -0.00075075903 -0.000804301
0.00029065984 -0.0011003686 0.0006351278 -0.00091764325 -0.00043697454 -0.0034238272 0.0025497726 -0.0020914637
0.0008082916 -0.0008685207 -0.0002150937 -0.0031257723 0.0004461701 -0.000989683 0.00034137297 0.0007177941
-0.00071092503 0.0005317605 -0.0021460843 -0.00012407768 -0.0024438761 0.0029273038 -0.00047933092 0.00057523244
0.0025404817 -0.0024467136 -0.0020495108 0.0007815308 0.00038125887 -0.00055425224 -0.00081391813 -0.0018011692
-0.0001916796 0.00031260576 -0.0019825904 0.00089316966 -0.00036524903 -0.0014790514 0.00043414944 0.0009984905
0.00024318694 -1.2458722e-05 -0.001385441 0.0019345384 -0.0025635888 -0.00070385844 0.0004954543 -0.0003224999
-0.0012472774 0.0009151404 -0.00084980635 -0.00028671598 -0.0006400688 0.00062738947 -2.8723318e-05 1.5304222e-05
0.0013084713 -0.0020401776 -0.0021779197 0.00051434943 0.0005441544 -0.00010491308 0.00060941855 -0.0009843193
0.00076624023 -0.0047946316 0.00026295515 0.00013258513 0.00036877452 -0.00086256576 0.0017402638 -0.004475513
0.0002642824 -0.00012032813 -0.0017773148 0.0014880308 -9.860117e-05 -0.0016904472 0.0006789751 -0.0010125272
0.00084344344 -0.0029505598 0.00037950499 -0.0011249778 -0.0015986759 0.00022567806 -0.0011592663 0.0011793411
-0.0019999482 0.002077743 -0.0015562737 -0.000415316 0.00061556645 -0.002186333 0.0010220747 -0.00085951714
-0.0003987032 -0.0024135753 -0.0018870665 0.0013852362 -0.0004968092 0.00023080918 -0.0012157662 0.0012696602
-0.002880293 -0.0004887904 0.00027480995 -0.002092407 0.00028596993 1.1753413e-05 -0.0017970309 0.00022999608
0.00022723938 0.00017575744 -0.0019419619 0.0021030584 0.001004979 -0.0019246996 -0.0016201495 0.0016110091
-0.0027826743 0.001058083 0.001076481 -0.00065630826 -0.0017250776 -0.0010081598 -0.0026911085 -0.001947281
-0.002248384 0.00063696894 0.00012825958 -0.0018342162 0.0006752921 0.0011313588 -0.00015357237 0.00075838174
-0.0016747821 -0.00053292065 -0.001766727 -0.0015005969 -0.0010813066 -0.0006959704 -0.003492499 -0.0011979627
-9.213503e-06 0.000674986 0.0002466187 0.00039273268 0.00049694016 0.0005811657 0.0024705478 -0.0027315684
0.0008292405 -0.0025027394 -0.0006987681 -6.4263215e-05 0.0011627738 0.00025268615 3.9040682e-05 0.0007599148
7.178599e-05 -0.0038111182 -0.0004315084 0.0002317719 -0.0014252817 -0.0034018862 0.00082535646 -0.00069683173
0.0009740647 -0.00073066656 0.00035317853 -0.0012960592 0.00048039036 -0.0011275092 0.0005865618 -0.00041485214
-0.0010507046 -0.0023718535 -0.0015503404 -0.0020773015 -0.0013856462 -0.004003132 5.0930416e-06 0.00023179527
-0.0017327418 -0.0015349921 -0.0006572861 0.0005782001 -0.0010872019 0.000347579 -0.0009356582 -0.0012947667
-0.0024550862 -0.0008352658 -0.00073191593 0.00036072923 -0.0016572592 0.000678731 -0.0031464046 -0.0008590224
9.932614e-05 0.0005283007 0.0023134882 -0.0026131712 -0.0030010596 0.004647971 -0.00029938426 -0.0018437796
0.0014484338 -0.0025684847 -0.0017311621 0.0010723305 0.0004508952 -0.0006946443 0.0004904687 0.001191617
0.00021045227 0.0009120716 -0.0033837631 0.0026894656 0.00012423913 -0.0020056223 0.001567451 -0.0018294514
-0.0012109977 -0.002497906 0.0009686684 0.00044055155 -0.0006312021 -9.318064e-05 -0.0016437431 0.00025122828
-0.002925485 8.71683e-05 0.00041657555 -2.8121594e-05 0.000429493 0.000100464684 -0.002596976 -0.00035959264

exp_avg_sq f4 [128, 2]
00000000: d79a 3632 bb41 e233 fb74 6b33 15cb 0c34
00000010: 7a50 3233 7575 7a33 b037 ea32 610f 4234
00000020: 0b8a 5234 5f36 4435 6ac7 fd34 28de 1733
00000030: 5e80 5c32 6f60 5133 2c9f 0134 20c6 e233
00000040: 6ad9 0932 a6a7 2b34 b612 7333 5dda 1e34
00000050: c455 3434 6936 f735 14d8 a435 ee43 aa35
00000060: 4c52 c533 286e fb33 c883 8633 0f8e be35
00000070: 4a66 4333 70e3 eb33 a485 9532 edfa af33
00000080: 74aa de33 82d9 0033 9da4 4d35 bd1b 5534
00000090: 19fe 0036 c2e1 d135 30f7 8333 babb 3133
000000a0: 3dfc a535 3e26 eb35 28e4 6935 5336 9033
000000b0: 8bf4 a832 5cb5 6333 00cc 5334 2c4d 1035
000000c0: a707 f332 7b74 8132 2e9e 5035 73f8 1734
000000d0: db9a 9433 764f d934 c5e3 4f33 c1e3 8834
000000e0: 65dc 5732 db50 ed33 871d 0935 c7eb 3135
000000f0: 389a 8d35 5566 ba34 24b5 1933 c740 1c33
00000100: 1646 9834 801a f933 c959 1f34 1c45 1433
00000110: 23f0 6b33 9c35 7c33 8552 1234 ea47 e730
00000120: 7348 7734 1a94 5e35 918f 3735 22fa e632
00000130: 9490 8b33 abe4 1d33 075c 7533 98e8 5234
00000140: bbba 1834 459f aa36 e7ac 3632 575d ba33
00000150: 4d77 2633 385a c333 09aa 3035 1166 9f36
00000160: d526 a132 0138 a332 03f9 1335 6123 8e34
00000170: 69b9 1933 cdc6 e434 a9bd 2933 1ae1 1934
00000180: 532f 6134 cb7c d435 efbf 5732 7f84 6f34
00000190: 94a4 b934 e4be d132 a5c6 d934 a76b 7134
000001a0: d041 8a35 6e12 4035 41fe b634 10bd 7d33
000001b0: a8d8 ec33 d37a 4135 514e 2934 443f 0134
000001c0: 8c52 5c34 2a1c 8335 2216 5b35 e997 8f34
000001d0: f97c 3a33 47b2 e931 d929 b634 877c 7534
000001e0: a11b df35 19b8 fd34 4c3d e332 b47d 2d35
000001f0: 5c01 3a32 c5af c731 51d0 2a35 5a1d 3932
00000200: e30a 0f33 69bc e731 3d22 9b35 031d 4e35
00000210: c8b7 4034 6ec9 6f35 3f3f 3035 1be4 d834
00000220: 460e b135 5031 3434 324f 4b34 4c54 2134
00000230: 98ce 0c35 0a25 e734 2096 c535 ca2c be35
00000240: a51f 9335 24dc 9233 33c4 9131 35a8 4d35
00000250: cc44 a233 5b88 7234 d1e9 8431 a51d dd33
00000260: 94fa c834 e71a 1734 4d67 3a35 4317 0135
00000270: 7eb5 7634 6503 ef33 5acf 1836 81e8 1535
00000280: a69f 8331 826a 1934 52d2 6c32 e8fd 1e33
00000290: f5ef 5d33 0128 8033 3a45 9535 9c6c 0736
000002a0: 5221 e233 88a5 a735 29c4 5e33 4f86 d532
000002b0: 17ad 8634 fc65 2f32 c9fd 412f 7734 e833
000002c0: a6de a431 79bc 4836 a7f1 0e33 2ab7 2932
000002d0: d41c 5735 980f 2036 1536 e533 39f9 5b33
000002e0: cd89 2034 bf1b fa33 36b7 4e33 b904 8934
000002f0: c5d3 5d33 9ffd 9f34 4b9a 9933 e720 df32
00000300: 275c 7134 f68d 8835 4aa1 0635 ba83 9a35
00000310: 3304 7d35 b37d 5e36 08e8 4a2c bf4e b033
00000320: fbda 3d35 8b84 2f35 07c3 8233 e636 1133
00000330: 8409 9734 8902 8632 5ad0 1f34 d718 b634
00000340: 4c51 b135 3d68 bb34 9a0e 9433 0713 dd32
00000350: f425 0435 4e33 e233 596d d835 9bdc dc34
00000360: 5565 7d33 888a 0733 7bd9 7835 3a0c 1536
00000370: 59ba 6436 b5e4 9e36 224a 2b33 2721 0735
00000380: 2366 c734 ef14 d635 f7cf 2835 580f 2c34
00000390: b88a e432 a09a 8633 9c74 6d33 9c3d bb34
000003a0: aae5 f231 6789 4134 3674 4b36 f619 d935
000003b0: e102 1231 cd20 2a35 f780 cd34 0645 4635
000003c0: ccfa 4035 2232 9c35 7a6d a234 2922 f333
000003d0: 5246 3f33 536a 7433 5097 d434 6c5c 0f32
000003e0: 3bda c635 fd1e 9533 3dda ba32 6204 7b32
000003f0: f4f2 4c33 8a91 8131 d381 8835 dc3e 8433
1.0629001e-08 1.05359014e-07 5.4821594e-08 1.3112397e-07 4.1517048e-08 5.8314487e-08 2.7266509e-08 1.8073253e-07
1.9607994e-07 7.309481e-07 4.7270015e-07 3.5359477e-08 1.2834873e-08 4.874931e-08 1.2071968e-07 1.0559984e-07
8.023884e-09 1.5986606e-07 5.6594864e-08 1.4794337e-07 1.6795008e-07 1.841877e-06 1.2281839e-06 1.2685757e-06
9.188497e-08 1.17081356e-07 6.263832e-08 1.4197448e-06 4.5495007e-08 1.0984411e-07 1.7406656e-08 8.194716e-08
1.0368686e-07 3.0000145e-08 7.6607995e-07 1.9847262e-07 1.922139e-06 1.5637418e-06 6.145126e-08 4.138176e-08
1.2366869e-06 1.7519994e-06 8.7131275e-07 6.715404e-08 1.966898e-08 5.30175e-08 1.9725121e-07 5.375648e-07
2.8292403e-08 1.5070546e-08 7.771622e-07 1.4153356e-07 6.919955e-08 4.0477215e-07 4.84031e-08 2.5497687e-07
1.2564759e-08 1.105088e-07 5.1079445e-07 6.628074e-07 1.0550202e-06 3.4719656e-07 3.5787835e-08 3.6380495e-08
2.83632e-07 1.15997864e-07 1.4840693e-07 3.452179e-08 5.4933604e-08 5.872208e-08 1.362733e-07 1.6827901e-09
2.3030024e-07 8.291696e-07 6.838173e-07 2.6889271e-08 6.4989905e-08 3.6762383e-08 5.7127206e-08 1.9642391e-07
1.4224035e-07 5.084936e-06 1.0633108e-08 8.6782784e-08 3.875839e-08 9.096806e-08 6.5812543e-07 4.7504514e-06
1.8760526e-08 1.9001165e-08 5.5124127e-07 2.6475303e-07 3.5791718e-08 4.2612956e-07 3.9520874e-08 1.4331127e-07
2.0971974e-07 1.583155e-06 1.2558288e-08 2.2306811e-07 3.4578682e-07 2.441761e-08 4.0563933e-07 2.2484038e-07
1.0300955e-06 7.155239e-07 3.4085136e-07 5.9078104e-08 1.1029016e-07 7.2076836e-07 1.5767843e-07 1.2037077e-07
2.0519127e-07 9.768457e-07 8.1616065e-07 2.6746355e-07 4.342016e-08 6.8014603e-09 3.393059e-07 2.2862706e-07
1.6622836e-06 4.725887e-07 2.6454153e-08 6.4630444e-07 1.0826934e-08 5.811645e-09 6.3633075e-07 1.0775091e-08
3.3304683e-08 6.7444046e-09 1.1558365e-06 7.67832e-07 1.7948253e-07 8.9327557e-07 6.5657144e-07 4.0399104e-07
1.3191682e-06 1.6781746e-07 1.893466e-07 1.502496e-07 5.24547e-07 4.3054052e-07 1.4721336e-06 1.4169138e-06
1.0961563e-06 6.838698e-08 4.2423607e-09 7.6613225e-07 7.556227e-08 2.2587612e-07 3.8682875e-09 1.0296507e-07
3.7435223e-07 1.4072758e-07 6.944072e-07 4.8090095e-07 2.2976562e-07 1.1129922e-07 2.277046e-06 5.5845163e-07
3.8307517e-09 1.4287983e-07 1.3784829e-08 3.7018168e-08 5.1673812e-08 5.967741e-08 1.1121513e-06 2.0179787e-06
1.0530006e-07 1.2490646e-06 5.186681e-08 2.485754e-08 2.5085384e-07 1.0209529e-08 1.764341e-10 1.0812885e-07
4.7983404e-09 2.9912028e-06 3.3281733e-08 9.878741e-09 8.013569e-07 2.3850935e-06 1.0673481e-07 5.1216578e-08
1.4951293e-07 1.1646579e-07 4.8129742e-08 2.5521675e-07 5.1648176e-08 2.9800592e-07 7.1526834e-08 2.5975579e-08
2.2478399e-07 1.0174106e-06 5.0153596e-07 1.1512232e-06 9.4255955e-07 3.3153744e-06 2.883473e-12 8.2099625e-08
7.0726645e-07 6.5385456e-07 6.089072e-08 3.3810373e-08 2.8132865e-07 1.5600806e-08 1.4883827e-07 3.3918215e-07
1.3211188e-06 3.4907308e-07 6.894443e-08 2.5736439e-08 4.922906e-07 1.05332774e-07 1.6125078e-06 4.1138705e-07
5.8998314e-08 3.155813e-08 9.2703675e-07 2.2209847e-06 3.4083116e-06 4.735392e-06 3.9881463e-08 5.033966e-07
3.7140953e-07 1.5950335e-06 6.2887506e-07 1.602433e-07 2.6605775e-08 6.2679874e-08 5.5286918e-08 3.487629e-07
7.0692368e-09 1.8024512e-07 3.0317e-06 1.6175316e-06 2.1247433e-09 6.3377666e-07 3.827806e-07 7.386119e-07
7.189053e-07 1.1637496e-06 3.0254506e-07 1.1321783e-07 4.453461e-08 5.690738e-08 3.9598171e-07 8.34471e-09
1.4815663e-06 6.94399e-08 2.1752493e-08 1.4611119e-08 4.7718416e-08 3.77094e-09 1.0170573e-06 6.158163e-08

exp_avg f4 [128]
00000000: 0aa3 9dbb 9309 f4bb eb24 47bc 4a06 403b
00000010: 1ac7 893b 7dcd 783b bea5 e2bb d0e3 26b6
00000020: 3170 bd3b 9aaa 65bb 1daa 693a a12b 003c
00000030: cd32 61ba ae68 8f3a 7989 b13a cba0 3dbc
00000040: 73cd 15ba f5bb aeba b41e 683c 33fe d03b
00000050: 8a0a 3b3c 37c5 5d3b b7b0 93bb 0eef 4a3a
00000060: 157d 9abb 0401 a13b 9ba6 de3b 49c7 6cbc
00000070: 2533 16bc 6981 0e3b 07c1 07bb e92e 91bb
00000080: 058a c33a 242a 953b c971 adbb 301e 31bc
00000090: 0c22 a73b cac3 223a 68d2 29bc 198a e138
000000a0: 3189 153c 0eec 00bc 8f8b 70bb 27de 313c
000000b0: 83da 10bc 7826 a43a e496 123a 4b71 543b
000000c0: 63bc cf3a 4d5c 923b d524 0138 d562 713b
000000d0: f699 2e3c 3bc6 673b 4491 2e3b c8d3 ad3b
000000e0: d3d5 98bb e70c a73b ab18 18bb 1197 9b3b
000000f0: fc61 033b 7df5 133b 7cea ecbb 66ff ca3b
00000100: 15bd c4bb 5108 463c 8cfa b23b a959 0c3c
00000110: 44cb cb3a c2df 8c3a 7a07 3dbb fba3 6abb
00000120: 4e52 843a c653 0dba a39a 62bc 5fd6 b4bb
00000130: 8e4c 95bb 79d0 42ba 708a 973b 7ec7 423b
00000140: b9ea 16bc f681 00bc 08de 51bc 0d8e 073c
00000150: 50b1 c53b 2cc9 ca3a 7a46 5dbc 3fe9 37bc
00000160: da96 df3b c6ae ccbb f8f3 043b a86d c0bb
00000170: ce9a 47bb 5d44 a13b d384 d53b a0eb 01bc
00000180: b910 5839 eabf 8bbb e061 23bb 7984 acbb
00000190: 010e 923a 90e5 993b 3bfc 25bb b73f 213a
000001a0: 00db f83a 7244 7f3b 2cb0 cf3b 85ec d339
000001b0: f7b9 6ebb 03f0 523c bb0f 7b3c 69dd 643a
000001c0: ca46 c83b b091 953b b16a cbbb dbc5 81bc
000001d0: 77e8 3cbc 3205 1a3c 5a32 df38 530e cd3b
000001e0: 0f6b 63ba f27f 87bc eece 0c3b 644b 93bb
000001f0: 8086 c93a 73ad 453b d484 aabb 04de d4ba
-0.0048106955 -0.0074474304 -0.012154798 0.0029300624 0.004204643 0.0037964277 -0.0069167307 -2.4868532e-06
0.0057811965 -0.0035044313 0.00089135935 0.007822902 -0.0008590639 0.0010941231 0.0013544998 -0.011573981
-0.0005714513 -0.0013331162 0.014167476 0.006377959 0.011416087 0.0033839473 -0.00450715 0.00077413104
-0.004714618 0.004913451 0.0067947633 -0.01445181 -0.009167467 0.0021744615 -0.0020714418 -0.004430641
0.0014918452 0.0045521427 -0.0052931053 -0.01081042 0.0051004943 0.00062089844 -0.010365106 0.00010754559
0.009126947 -0.00786878 -0.0036704277 0.010856188 -0.00884116 0.0012523672 0.00055919425 0.003241616
0.001584899 0.0044665695 3.07903e-05 0.003683259 0.010656824 0.0035365957 0.0026636878 0.0053047873
-0.0046641617 0.0050979736 -0.0023208063 0.004748233 0.0020047417 0.0022576742 -0.007230101 0.0061949966
-0.0060039856 0.012086944 0.0054619964 0.0085662985 0.0015548249 0.0010747837 -0.0028843568 -0.0035803306
0.001009533 -0.00053912064 -0.013830814 -0.005518719 -0.004556245 -0.00074315775 0.0046246573 0.0029720957
-0.009211236 -0.007843485 -0.012809284 0.008273614 0.0060331 0.0015471331 -0.013505572 -0.011225044
0.006823403 -0.0062464206 0.0020287018 -0.005872447 -0.003045726 0.0049214796 0.006516078 -0.0079297125
0.00020605595 -0.0042648213 -0.0024930164 -0.0052648154 0.001114309 0.0046965554 -0.0025327343 0.0006151157
0.0018986166 0.0038950709 0.00633814 0.00040421277 -0.0036426762 0.012874606 0.015323575 0.00087305024
0.0061119543 0.0045644864 -0.006207787 -0.015841415 -0.011530033 0.009400653 0.00010642847 0.006257811
-0.0008675316 -0.016540501 0.0021485644 -0.0044950712 0.0015375167 0.0030163198 -0.0052038226 -0.0016240482

exp_avg_sq f4 [128]
00000000: 3cdc 1a35 5584 1236 b87d 8d36 d8cb a934
00000010: 10a4 1a35 c276 ff34 4825 a735 b2a5 4733
00000020: 9ff3 6f35 bf65 f534 6b97 6c34 325a e935
00000030: a66d c033 21ee 3934 c13e 5233 39e7 7c36
00000040: 7fc6 7433 1d44 6134 8d6d ba36 032d 8535
00000050: bb5c 6b36 19e0 da34 9579 3235 e2ad 2334
00000060: 843c 3035 f5e5 3a35 9ed2 b235 6e86 c336
00000070: bb7b 2c36 9510 a934 5371 bf34 b928 2d35
00000080: c32d e333 7c85 2a35 afa7 8835 84f1 8036
00000090: dd46 4135 b755 ac34 8051 4c36 e1d6 4333
000000a0: befe 1a36 a3a3 0036 657c 9634 2d2c 5536
000000b0: 8793 1b36 7790 6f34 b454 3633 06e2 8434
000000c0: 7fc2 a334 91d3 0735 3f11 4933 9dd2 f334
000000d0: 2db9 4e36 4e7c c534 0cf2 5f34 a1e0 2535
000000e0: afdd 5d35 3df8 4635 f2f3 4334 ce89 2335
000000f0: bd62 f934 f256 1b34 6e92 c035 afac 9235
00000100: b40e 8335 a90f 8636 79ee 5835 fb72 0436
00000110: 170d 8a34 9f79 e333 4c07 ee34 b50f 8535
00000120: 368b b634 dc70 8034 304c b736 3ca6 5635
00000130: 223b 3e35 eaea 7934 371d 4135 00f2 2d35
00000140: 50cc 1a36 a34b da35 058c 9a36 7120 0336
00000150: b358 8135 d1ac 0734 451a ac36 61a3 7736
00000160: 89c5 ac35 d17d a235 c2c2 2335 a0a6 6135
00000170: c07d a834 94ba 3435 e883 9c35 3681 ea35
00000180: 5848 1d34 3b97 5f35 d4da 5c35 ee58 6035
00000190: a5f5 9334 b135 1635 6517 b534 03a3 8734
000001a0: 4462 0035 0de9 dd34 7880 9835 140c a634
000001b0: 4a17 d834 2a2e 9636 f761 e636 c5dd 8333
000001c0: 38c8 8f35 bc5c 2135 8429 b835 e306 ee36
000001d0: e739 7636 1097 3336 599c 6c34 3ddf 8a35
000001e0: 85a4 0635 40ef ff36 1b45 fc33 f3bf a335
000001f0: 8876 8a34 e057 8e34 30a4 3835 013f ff34
5.7689954e-07 2.1832723e-06 4.216763e-06 3.162702e-07 5.7608213e-07 4.758386e-07 1.245332e-06 4.6483997e-08
8.9388953e-07 4.5708836e-07 2.2034298e-07 1.7386103e-06 8.960642e-08 1.7316098e-07 4.895151e-08 3.7685516e-06
5.6991208e-08 2.0979537e-07 5.5559854e-06 9.922372e-07 3.5071705e-06 4.0768717e-07 6.648709e-07 1.5243816e-07
6.565317e-07 6.962503e-07 1.3323331e-06 5.8271025e-06 2.5702018e-06 3.1490768e-07 3.5658977e-07 6.450678e-07
1.0578835e-07 6.352418e-07 1.0181592e-06 3.8428134e-06 7.200122e-07 3.2099862e-07 3.0445808e-06 4.5597407e-08
2.3096068e-06 1.9168735e-06 2.8030186e-07 3.1765187e-06 2.3182672e-06 2.2311166e-07 4.2452214e-08 2.475137e-07
3.050263e-07 5.059929e-07 4.6814645e-08 4.5415518e-07 3.0804179e-06 3.6784553e-07 2.085655e-07 6.179417e-07
8.265151e-07 7.412198e-07 1.8249537e-07 6.0922764e-07 4.6451706e-07 1.446713e-07 1.4347731e-06 1.0928105e-06
9.76454e-07 3.9953343e-06 8.0813294e-07 1.973646e-06 2.5714027e-07 1.0592634e-07 4.4336264e-07 9.913844e-07
3.400143e-07 2.3923974e-07 5.4626944e-06 7.9963115e-07 7.0866565e-07 2.3275393e-07 7.1940616e-07 6.479968e-07
2.3066714e-06 1.6264279e-06 4.605858e-06 1.9539405e-06 9.637064e-07 1.2635725e-07 5.1290576e-06 3.6900967e-06
1.2872489e-06 1.2106558e-06 6.100564e-07 8.4061503e-07 3.1383934e-07 6.732673e-07 1.1661296e-06 1.7471964e-06
1.4648083e-07 8.3294043e-07 8.2274823e-07 8.357591e-07 2.7559614e-07 5.5957486e-07 3.37309e-07 2.5264316e-07
4.782671e-07 4.1334025e-07 1.1362272e-06 3.0928697e-07 4.025008e-07 4.4757226e-06 6.8659388e-06 6.1405025e-08
1.0712602e-06 6.011212e-07 1.3721151e-06 7.0937544e-06 3.669056e-06 2.6761008e-06 2.2036092e-07 1.0346772e-06
5.01583e-07 7.6274446e-06 1.1747235e-07 1.2200311e-06 2.5790746e-07 2.65135e-07 6.8784266e-07 4.7543293e-07
