results/TestSmallNetwork/MyTestingML/MyTestingML-27917.pt (torch, 19135 bytes, 33 tensors)

network_body._body_endoder.seq_layers.0.weight f4 [2, 2]
00000000: d028 853f f8d6 2fbf c180 a3bf 1776 eabe
1.040308 -0.6868739 -1.2773668 -0.4579322

network_body._body_endoder.seq_layers.0.bias f4 [2]
00000000: f600 9dbc 65f4 a23c
-0.019165497 0.019891927

network_body._body_endoder.seq_layers.2.weight f4 [2, 2]
00000000: 677c 61be e3e7 9ebd b1a8 6dbc 1316 4abe
-0.22020112 -0.07759073 -0.014505551 -0.19734983

network_body._body_endoder.seq_layers.2.bias f4 [2]
00000000: 2421 87bc 749f 003c
-0.016495295 0.007850517

action_model._discrete_distribution.branches.0.weight f4 [2, 2]
00000000: 74a1 80bd 6133 b1bd 534c e33b 115a fc3d
-0.06280795 -0.08652378 0.006936589 0.12321866

action_model._discrete_distribution.branches.0.bias f4 [2]
00000000: 4148 233a 1948 23ba
0.0006228723 -0.00062287

exp_avg f4 [2, 2]
00000000: cc66 063b acf1 9fb7 09ff e437 0c77 b337
0.002050805 -1.9066814e-05 2.7298478e-05 2.1393898e-05

exp_avg_sq f4 [2, 2]
00000000: ddde 5b34 7c77 f231 a0c2 c92f 55e0 0132
2.0477042e-07 7.0567108e-09 3.6699976e-10 7.5597955e-09

exp_avg f4 [2]
00000000: 6604 5a3a 7a9f 33bb
0.00083166955 -0.0027408288

exp_avg_sq f4 [2]
00000000: 1ef9 f232 4bf5 8b34
2.8285793e-08 2.6069242e-07

exp_avg f4 [2, 2]
00000000: 4109 c3bb 3774 133b 99b7 a1bc d30b f33b
-0.005952031 0.002249969 -0.019740866 0.007417181

exp_avg_sq f4 [2, 2]
00000000: da42 e435 f7c2 8c34 b39d 6c37 bcf1 0736
1.700678e-06 2.6218888e-07 1.4103413e-05 2.0257276e-06

exp_avg f4 [2]
00000000: b20e ab3a e486 a4ba
0.0013050644 -0.0012552408

exp_avg_sq f4 [2]
00000000: 848d f733 07b1 0b34
1.1527575e-07 1.3009786e-07

exp_avg f4 [2, 2]
00000000: 8df4 87bc 1c5d ac3b 8df4 873c 1c5d acbb
-0.016596103 0.005260123 0.016596103 -0.005260123

exp_avg_sq f4 [2, 2]
00000000: bbb9 4037 2b76 7335 bbb9 4037 2b76 7335
1.14873355e-05 9.069651e-07 1.14873355e-05 9.069651e-07

exp_avg f4 [2]
00000000: f3a6 083b 08a7 08bb
0.0020851463 -0.0020851512

exp_avg_sq f4 [2]
00000000: 047a 1b37 037a 1b37
9.267129e-06 9.267128e-06

exp_avg f4 [2, 2]
00000000: 552e 003b ae4e a6b7 c448 b13c 214d f0b8
0.0019558866 -1.982538e-05 0.021641143 -0.00011458458

exp_avg_sq f4 [2, 2]
00000000: 7a3b 3d34 4224 0932 7e5c b837 180d 0435
1.7623634e-07 7.982694e-09 2.197758e-05 4.9192886e-07

exp_avg f4 [2]
00000000: f95f 093b 7693 b73c
0.0020961745 0.022409182

exp_avg_sq f4 [2]
00000000: 8942 8634 6616 de37
2.5007856e-07 2.6474892e-05

exp_avg f4 [2, 2]
00000000: ba4b 203b ebcb 77bc 6f5b 03bc c5c7 3e3d
0.00244592 -0.015124301 -0.008017405 0.046577234

exp_avg_sq f4 [2, 2]
00000000: 31f0 1e35 a0af 6737 8d1a 2c36 26a0 ff38
5.920911e-07 1.3809564e-05 2.5645452e-06 0.000121891775

exp_avg f4 [2]
00000000: da47 95bc 861b 613d
-0.018222738 0.05495789

exp_avg_sq f4 [2]
00000000: 1899 9637 a4a4 1739
1.7952683e-05 0.00014461816

exp_avg f4 [1, 2]
00000000: d5ed e93c 5905 abbb
0.02855579 -0.0052191433

exp_avg_sq f4 [1, 2]
00000000: 9b59 4738 6759 0936
4.752875e-05 2.046663e-06

network_body._body_endoder.seq_layers.0.weight f4 [2, 2]
00000000: cd01 b7be 54b3 35bf 4fb7 923f 1237 9abf
-0.3574356 -0.7097676 1.1462191 -1.2048056

network_body._body_endoder.seq_layers.0.bias f4 [2]
00000000: 1193 8abc 4186 92bc
-0.01691583 -0.017886283

network_body._body_endoder.seq_layers.2.weight f4 [2, 2]
00000000: fa2c 1dbe bff4 64bf abaa 8a3d 10d5 fd3d
-0.15349188 -0.8943595 0.067708336 0.12394154

network_body._body_endoder.seq_layers.2.bias f4 [2]
00000000: 24d5 f53b 1a48 96bc
0.007502215 -0.018344928

value_heads.value_heads.extrinsic.weight f4 [1, 2]
00000000: f472 6a3f c8ce 56bf
0.91581655 -0.83909273
