results/TestSmallNetwork/MyTestingML/MyTestingML-1760.pt (torch, 21188 bytes, 33 tensors)

network_body._body_endoder.seq_layers.0.weight f4 [8, 2]
-0.12043459 0.3300926 1.061597 0.2145531 -0.9226831 -1.5382799 -0.83149046 -0.076010115
0.4857214 -0.60888004 0.69633025 -0.3989543 -0.2718833 1.0236132 -0.13637558 -0.5576194
00000000: 69a6 f6bd e601 a93e 69e2 873f cfb3 5b3e
00000010: f634 6cbf 5be6 c4bf 8fdc 54bf 31ab 9bbd
00000020: 7ab0 f83e 90df 1bbf b342 323f bd43 ccbe
00000030: 4a34 8bbe c205 833f 0aa6 0bbe 25c0 0ebf

network_body._body_endoder.seq_layers.0.bias f4 [8]
0.020394929 0.007626501 0.022045597 -0.00761399 0.010171194 0.014279372 0.025425537 0.024791302
00000000: 4413 a73c bae7 f93b f898 b43c c77e f9bb
00000010: 14a5 263c 07f4 693c 3749 d03c 2117 cb3c

network_body._body_endoder.seq_layers.2.weight f4 [8, 8]
0.25033876 0.21323375 -0.58509165 0.57597524 0.15908058 -0.25123832 -0.07420336 0.54333234
-0.43175754 -0.097746044 0.083606385 0.32821912 -0.13944352 -0.18236549 0.031156415 0.24336486
-0.15970916 0.13824458 -0.15876028 -1.0550499 0.26803002 -0.2611595 -0.1290409 0.06908009
-0.26606664 0.54392564 -0.0021178788 0.043132685 0.08165102 1.1131043 -0.0651246 0.13476929
-0.21664162 0.14759834 0.50399953 0.2083115 -0.08932862 0.39071584 0.5468326 0.041336235
0.5904837 0.021779906 -0.15828817 -0.4274977 0.49130702 0.001083977 0.17965034 0.13962208
-0.041760765 0.21271716 0.79713917 0.3642764 -0.20315744 0.06175614 0.14002813 0.4177812
-0.7184594 -0.26318988 -0.06312318 0.09311723 -0.06703217 0.06377553 -0.18378156 0.35333246
00000000: 672c 803e f359 5a3e 91c8 15bf 1d73 133f
00000010: 05e6 223e 4fa2 80be eef7 97bd d417 0b3f
00000020: 530f ddbe 142f c8bd d339 ab3d 560c a83e
00000030: 48ca 0ebe 05be 3abe bd3b ff3c a334 793e
00000040: cc8a 23be fd8f 0d3e 0e92 22be e00b 87bf
00000050: 3b3b 893e b3b6 85be 4c23 04be dd79 8d3d
00000060: e339 88be b63e 0b3f 1ccc 0abb e6ab 303d
00000070: a638 a73d 347a 8e3f 0c60 85bd f600 0a3e
00000080: 4dd7 5dbe 0524 173e 1d06 013f 9c4f 553e
00000090: ecf1 b6bd e80b c83e 39fd 0b3f 2f50 293d
000000a0: f129 173f c66b b23c 4b16 22be fbe0 dabe
000000b0: 988c fb3e 3c14 8e3a 42f6 373e 17f9 0e3e
000000c0: 560d 2bbd 87d2 593e 5011 4c3f 7082 ba3e
000000d0: 8108 50be 02f4 7c3d 8963 0f3e 6be7 d53e
000000e0: f5ec 37bf d3c0 86be ba46 81bd 3fb4 be3d
000000f0: 2a48 89bd bf9c 823d 3c31 3cbe fee7 b43e

network_body._body_endoder.seq_layers.2.bias f4 [8]
-0.007849099 -0.0015456132 0.0011610889 -8.678371e-07 0.0013996791 0.010205313 0.023270547 0.0034643253
00000000: 8299 00bc 2c96 caba ae2f 983a 50f5 68b5
00000010: 7075 b73a 2f34 273c e0a1 be3c bc09 633b

action_model._discrete_distribution.branches.0.weight f4 [2, 8]
-0.033806168 0.059761718 0.0041507697 -0.054236032 -0.007990683 -0.041290082 0.04798727 -0.032108355
-0.020854475 0.04110985 0.038137313 0.043132976 -0.0553145 0.08762709 -0.06938526 -0.053231824
00000000: 5678 0abd b4c8 743d 2e03 883b 9a26 5ebd
00000010: 5beb 02bc ca1f 29bd 4d8e 443d 0d84 03bd
00000020: 01d7 aabc cd62 283d df35 1c3d 34ac 303d
00000030: 7591 62bd d575 b33d dc19 8ebd 9d09 5abd

action_model._discrete_distribution.branches.0.bias f4 [2]
-0.001642017 0.0016420163
00000000: f338 d7ba ed38 d73a

exp_avg f4 [8, 2]
0.0007714672 -0.00081209716 -0.00076471985 0.0027404418 0.001341207 0.00042794444 0.0001470249 0.0026419365
-0.0018199108 0.0016473447 -0.0025367406 0.0038385873 -0.00078770384 -0.00026699295 -7.679289e-05 0.00014266027
00000000: 4a3c 4a3a ebe2 54ba 7b77 48ba fc98 333b
00000010: 70cb af3a bb5d e039 b22a 1a39 5724 2d3b
00000020: 138a eeba b7eb d73a 723f 26bb cf90 7b3b
00000030: e97d 4eba 30fb 8bb9 de0b a1b8 1397 1539

exp_avg_sq f4 [8, 2]
2.2517334e-08 2.65191e-08 7.885143e-08 2.9163104e-07 4.1534914e-08 4.6627804e-09 4.9359303e-09 2.5448327e-07
1.29532e-07 8.2100094e-08 4.4833897e-07 6.446849e-07 1.9029025e-08 4.7380495e-09 1.966039e-09 1.1735075e-09
00000000: 246c c132 1ecc e332 0855 a933 7791 9c34
00000010: 1f64 3233 4036 a031 e798 a931 ea9f 8834
00000020: 7c15 0b34 014f b033 3db3 f034 690e 2d35
00000030: 4575 a332 53cc a231 ed1a 0731 2049 a130

exp_avg f4 [8]
-0.00027738704 -0.0005498997 -0.0025715088 -0.00019776149 -0.00016619667 -0.0011965717 -0.000496332 -0.000590186
00000000: 426e 91b9 2527 10ba c286 28bb 325e 4fb9
00000010: 1445 2eb9 49d6 9cba 471c 02ba b6b6 1aba

exp_avg_sq f4 [8]
2.6254261e-08 7.896778e-08 1.6418143e-07 6.9164784e-08 7.7979884e-08 3.419923e-07 9.200409e-09 1.1270462e-08
00000000: bb85 e132 ff94 a933 d949 3034 be87 9433
00000010: e575 a733 109b b734 d40f 1e32 04a0 4132

exp_avg f4 [8, 8]
5.654556e-06 -5.4225447e-06 -0.00012040651 -1.3544106e-05 4.8082235e-05 5.2280764e-05 5.08597e-05 -1.5011042e-05
2.2629356e-05 -1.6033247e-05 -0.00012510511 -1.0765332e-05 2.0251293e-05 2.1794413e-05 0.000103915045 -3.0533913e-05
7.065576e-05 0.00013798209 0.00058565254 6.9021225e-05 -0.00043567462 -0.00041204382 0.00015515629 -2.5425577e-05
0.0007333272 0.0003379186 0.0019620124 0.00037027756 -0.0024318118 -0.0023227623 0.002344109 -0.00050642545
3.7124784e-05 -0.00069389754 -0.00069715 7.748228e-05 0.00024400858 0.00011711417 0.00024551564 -1.9901356e-05
-6.059923e-05 0.0009501202 0.0027686479 0.00017001994 -0.0012877224 -0.0011600425 -0.00070059206 0.00018160629
1.9580853e-05 -0.0013074293 -0.001567305 0.000108071006 0.0006496544 0.0004118725 0.00036607395 -4.190984e-05
1.4214695e-05 0.00019138363 -0.00025315 -8.2866136e-05 0.00011607258 0.00016401267 0.00010748467 -5.8073834e-05
00000000: 44bc bd36 4ef3 b5b6 c182 fcb8 7e3b 63b7
00000010: e8ab 4938 0b48 5b38 3052 5538 efd7 7bb7
00000020: 2cd4 bd37 237f 86b7 a62e 03b9 c09c 34b7
00000030: 52e1 a937 25d3 b637 f7ec d938 8a11 00b8
00000040: 062d 9438 49af 1039 7a86 193a 7dbf 9038
00000050: 426b e4b9 9607 d8b9 73b1 2239 0349 d5b7
00000060: c13c 403a ab2a b139 1b95 003b d021 c239
00000070: 085f 1fbb 7c39 18bb 9f9f 193b a3c1 04ba
00000080: 6fb6 1b38 ade6 35ba f2c0 36ba fb7d a238
00000090: 8edc 7f39 319b f538 8db8 8039 d6f1 a6b7
000000a0: ee2b 7eb8 7d11 793a 3472 353b 6147 3239
000000b0: cbc8 a8ba 910c 98ba f0a7 37ba 916d 3e39
000000c0: 9041 a437 0c5e abba 076e cdba 2ea4 e238
000000d0: 924d 2a3a 97f0 d739 9ded bf39 59c8 2fb8
000000e0: a67b 6e37 27ae 4839 38b9 84b9 6bc8 adb8
000000f0: fe6b f338 d1fa 2b39 6569 e138 4e94 73b8

exp_avg_sq f4 [8, 8]
9.08212e-10 6.1305364e-08 4.876864e-08 5.369874e-09 9.602501e-09 1.7084142e-08 2.18814e-08 2.5256133e-09
1.9948566e-10 4.3458517e-09 5.2041247e-09 3.9255507e-10 4.547484e-10 1.0317726e-09 4.7417132e-09 4.0628903e-10
3.0105482e-10 1.1814789e-08 9.882558e-09 1.0126077e-09 5.7440777e-09 6.3155214e-09 3.1844656e-09 4.1039533e-10
2.0033006e-08 3.0391195e-07 1.5399497e-07 2.8782562e-08 2.1183766e-07 2.2684516e-07 2.215267e-07 1.7283098e-08
3.0012332e-10 2.2687045e-08 1.2025126e-08 1.0365139e-09 2.1188937e-09 1.9643858e-09 5.6522884e-09 5.625475e-10
4.415668e-09 2.7227117e-07 2.5961333e-07 2.0494314e-08 6.8830204e-08 8.370679e-08 8.3180296e-08 1.03091455e-08
1.5036321e-09 1.15268556e-07 7.200571e-08 5.902669e-09 1.6062318e-08 1.560003e-08 2.7706543e-08 3.2453955e-09
1.8103036e-11 1.747656e-09 1.6988002e-09 2.47248e-10 4.2595324e-10 8.952221e-10 4.87461e-10 1.0474061e-10
00000000: bda5 7930 fba6 8333 b075 5133 e981 b831
00000010: 3ff8 2432 6dc0 9232 b5f5 bb32 0f8f 2d31
00000020: 3956 5b2f 8452 9531 f7cf b231 37cf d72f
00000030: 2600 fa2f 45ce 8d30 8dec a231 195c df2f
00000040: b381 a52f fef9 4a32 f3c7 2932 f72b 8b30
00000050: 715d c531 eaff d831 b6d5 5a31 029e e12f
00000060: 0c15 ac32 5729 a334 d159 2534 863d f732
00000070: 7e75 6334 b992 7334 ccdc 6d34 ef75 9432
00000080: 9afe a42f 57e1 c232 1097 4e32 1775 8e30
00000090: f99b 1131 d7fd 0631 0e36 c231 c3a1 1a30
000000a0: a0b8 9731 aa2c 9234 fc60 8b34 790b b032
000000b0: cecf 9333 4bc2 b333 daa0 b233 1a1c 3132
000000c0: 5aa8 ce30 8f89 f733 8fa1 9a33 6dd0 ca31
000000d0: 69f9 8932 d400 8632 55ff ed32 9a05 5f31
000000e0: 6a3c 9f2d 2e32 f030 387b e930 10ed 872f
000000f0: 972b ea2f a813 7630 05fe 0530 b953 e62e

exp_avg f4 [8]
9.559249e-05 -9.0784386e-05 2.8923103e-05 0.0002620097 -0.00027713625 -0.000724868 -0.002128972 -7.08472e-05
00000000: d478 c838 7f63 beb8 e49f f237 595e 8939
00000010: 994c 91b9 1105 3eba 3986 0bbb cd93 94b8

exp_avg_sq f4 [8]
1.629307e-07 1.6173248e-08 2.4606654e-08 5.5871607e-07 2.7516913e-08 6.0743685e-07 3.0929075e-07 3.6624508e-09
00000000: 0df2 2e34 59ed 8a32 9b5e d332 adfa 1535
00000010: 555e ec32 be0e 2335 990c a634 84ae 7b31

exp_avg f4 [2, 8]
0.0083531635 -0.0049817422 0.0046060826 0.020812437 -0.0065092295 0.009934533 -0.01745018 -0.0031208247
-0.0083531635 0.0049817422 -0.004606083 -0.020812439 0.006509229 -0.009934532 0.01745018 0.003120825
00000000: b5db 083c e23d a3bb 9fee 963b d87e aa3c
00000010: 604b d5bb 74c4 223c aef3 8ebc c086 4cbb
00000020: b5db 08bc e23d a33b a0ee 96bb d97e aabc
00000030: 5f4b d53b 73c4 22bc aef3 8e3c c186 4c3b

exp_avg_sq f4 [2, 8]
3.8909493e-06 3.1935494e-06 4.8974316e-06 5.2523206e-05 3.2838539e-06 5.98585e-06 1.3356038e-05 2.6218418e-06
3.8909498e-06 3.1935494e-06 4.897431e-06 5.252321e-05 3.2838539e-06 5.98585e-06 1.3356038e-05 2.6218415e-06
00000000: 008f 8236 c350 5636 9e54 a436 5d4c 5c38
00000010: 2e60 5c36 0fda c836 bf13 6037 e6f2 2f36
00000020: 018f 8236 c350 5636 9d54 a436 5e4c 5c38
00000030: 2e60 5c36 0fda c836 bf13 6037 e5f2 2f36

exp_avg f4 [2]
-0.0043983855 0.004398383
00000000: 5520 90bb 5020 903b

exp_avg_sq f4 [2]
0.00023893036 0.00023893038
00000000: 6189 7a39 6389 7a39

exp_avg f4 [8, 2]
2.8835384e-05 0.010596204 0.0012345853 -0.007077315 -0.00071913004 0.0021330572 0.0003020034 -5.31459e-05
-0.0004867159 0.0006295454 -0.0028710503 0.0067553767 -0.00081223383 0.008905683 -0.0009890863 -0.0010990044
00000000: 84e3 f137 b39b 2d3c cfd1 a13a d2e8 e7bb
00000010: 0084 3cba c3ca 0b3b 3656 9e39 fae8 5eb8
00000020: e72d ffb9 1408 253a 3b28 3cbb 355c dd3b
00000030: 17ec 54ba 24e9 113c 3ba4 81ba 780c 90ba

exp_avg_sq f4 [8, 2]
2.0260079e-05 5.091114e-05 1.1723838e-05 2.118975e-05 1.4951585e-06 2.540516e-06 3.5578868e-08 1.735927e-08
6.36682e-08 1.3468356e-07 1.1610159e-05 1.8817547e-05 8.133418e-06 2.8045977e-05 2.7535367e-07 4.2235365e-07
00000000: 30f4 a937 6c89 5538 80b1 4437 a4c0 b137
00000010: 41ad c835 bc7d 2a36 61cf 1833 701d 9532
00000020: f7b9 8833 899d 1034 41c9 4237 60da 9d37
00000030: c474 0837 4744 eb37 52d4 9334 d8bf e234

exp_avg f4 [8]
0.0076954076 -0.0037143773 0.0007535998 7.337923e-06 0.00086867803 0.0022979064 0.006645255 -0.00081307505
00000000: c229 fc3b e96c 73bb 3a8d 453a 4738 f636
00000010: ffb7 633a 7998 163b 70c0 d93b 8b24 55ba

exp_avg_sq f4 [8]
5.3177733e-05 2.487664e-05 3.0244614e-06 1.5135791e-07 1.9470801e-06 2.6932228e-05 3.4468358e-05 3.9740603e-06
00000000: 280b 5f38 2dae d037 daf7 4a36 f284 2234
00000010: 95aa 0236 85ec e137 1e92 1038 eb58 8536

exp_avg f4 [8, 8]
0.0038036706 -0.0012101443 0.0013094957 -0.0008111573 -0.0005432734 -0.00035552421 0.0015140318 -0.00044922656
0.0007421549 -0.0005179828 0.00026185813 -8.25113e-05 -8.600951e-06 -0.00014500387 0.00038896257 8.86521e-06
0.00072278496 -0.00051811326 0.0002535822 -4.003257e-05 2.9021703e-05 -0.0001414496 0.00037274245 5.9454527e-05
0.0044307723 -0.0011791456 0.0015106503 -0.00083126815 -0.00055576576 -0.0003381919 0.001635375 -0.00038058337
0.0020617235 -0.001139066 0.00071436475 -0.00018163069 -1.2918818e-05 -0.00031088703 0.0009437806 8.400616e-05
0.014244378 -0.0035287633 0.004864515 -0.00307467 -0.002173621 -0.0010518077 0.005264201 -0.0017269442
0.0016271552 -0.0022709032 0.0005875108 0.0003463917 0.0005725392 -0.0006054911 0.0011635808 0.0006942485
0.0003225539 -3.6082292e-05 0.000109181194 -6.645948e-05 -5.0922077e-05 -9.2578675e-06 0.000100970225 -3.5445762e-05
00000000: 0147 793b b49d 9eba 62a3 ab3a d8a3 54ba
00000010: 766a 0eba a765 bab9 7a72 c63a 2b86 ebb9
00000020: 2c8d 423a 3dc9 07ba 014a 8939 eb09 adb8
00000030: ce4c 10b7 2e0c 18b9 aced cb39 c9bb 1437
00000040: 4779 3d3a fed1 07ba 3af3 8439 a5e8 27b8
00000050: a273 f337 1652 14b9 a56c c339 d05e 7938
00000060: 0330 913b 908d 9aba 0301 c63a 76e9 59ba
00000070: cfb0 11ba 594f b1b9 145a d63a 0989 c7b9
00000080: fb1d 073b b64c 95ba 3544 3b3a 1e74 3eb9
00000090: e7bd 58b7 8dfe a2b9 0b68 773a 772c b038
000000a0: 4061 693c d342 67bb 8266 9f3b 6780 49bb
000000b0: 4f73 0ebb cfdc 89ba 527f ac3b a25a e2ba
000000c0: 4546 d53a 6fd3 14bb 2f03 1a3a e89b b539
000000d0: 7516 163a d2b9 1eba 4b83 983a 3afe 353a
000000e0: 741c a939 1157 17b8 35f8 e438 2960 8bb8
000000f0: 2a95 55b8 3d52 1bb7 fabf d338 99ab 14b8

exp_avg_sq f4 [8, 8]
8.896282e-06 1.0735711e-06 1.0068246e-06 8.2438004e-07 7.1640386e-07 9.383353e-08 5.260311e-07 5.467648e-07
3.1334048e-07 7.0396105e-08 3.5059596e-08 3.669028e-08 3.4151526e-08 5.27855e-09 2.140677e-08 2.9139875e-08
4.8169716e-07 1.06686386e-07 5.2888584e-08 4.3851355e-08 4.3058183e-08 8.733688e-09 2.3612753e-08 3.1938754e-08
1.4864819e-05 1.999884e-06 1.6382966e-06 1.1522083e-06 1.0584898e-06 1.818876e-07 6.27429e-07 6.9037714e-07
4.118178e-06 7.8322455e-07 4.5055484e-07 3.406256e-07 3.310783e-07 6.659908e-08 1.7852159e-07 2.2838164e-07
0.00012538061 1.5086562e-05 1.3959629e-05 1.0534952e-05 9.357198e-06 1.3562742e-06 6.116675e-06 6.5604595e-06
4.426618e-06 1.5746842e-06 4.714417e-07 4.643191e-07 5.0443435e-07 1.2114897e-07 1.9629437e-07 3.919195e-07
2.588427e-07 2.7536466e-08 2.9421834e-08 1.8607249e-08 1.6515086e-08 2.9765064e-09 1.1996257e-08 1.0076497e-08
00000000: 3e41 1537 9f17 9035 3b22 8735 f74a 5d35
00000010: e64e 4035 8781 c933 9534 0d35 64c5 1235
00000020: 3039 a834 ab2c 9733 6f94 1633 6495 1d33
00000030: 00ae 1233 9e5e b531 fce1 b732 434f fa32
00000040: fa4d 0135 761b e533 9d27 6333 1357 3c33
00000050: f9ee 3833 2b0b 1632 fed4 ca32 082d 0933
00000060: e963 7937 bf35 0636 71e3 db35 93a5 9a35
00000070: 6f11 8e35 e24c 4334 986c 2835 5b52 3935
00000080: e12e 8a36 c83e 5235 c9e3 f134 3adf b634
00000090: 0ebf b134 3b05 8f33 a4af 3f34 1139 7534
000000a0: 9a78 0339 4a1c 7d37 2634 6a37 46bf 3037
000000b0: dcfc 1c37 3a09 b635 d73d cd36 eb21 dc36
000000c0: 5c88 9436 bd59 d335 741a fd34 8847 f934
000000d0: 7768 0735 2d15 0234 fcc4 5234 0269 d234
000000e0: 12f7 8a34 5489 ec32 4cbb fc32 c6d5 9f32
000000f0: 0fdd 8d32 418b 4c31 1918 4e32 e71c 2d32

exp_avg f4 [8]
0.0032863792 0.00038352024 0.00021125858 0.0033246817 0.0008367547 0.012631022 -0.00071019685 0.00025397376
00000000: 4b60 573b 3713 c939 4b85 5d39 e7e2 593b
00000010: a859 5b3a 59f2 4e3c 812c 3aba c827 8539

exp_avg_sq f4 [8]
1.6868895e-05 9.1583564e-07 9.45744e-07 2.1885811e-05 7.2572993e-06 0.00021769099 1.5429003e-05 3.102638e-07
00000000: ad81 8d37 bfd7 7535 08df 7d35 6c97 b737
00000010: ba83 f336 fb43 6439 886d 8137 5592 a634

exp_avg f4 [1, 8]
-0.009927606 -0.00021555924 0.0027888732 -0.014163304 8.7892404e-05 -0.009994077 0.0051914454 -0.025295995
00000000: 66a7 22bc be07 62b9 87c5 363b 340d 68bc
00000010: e052 b838 32be 23bc 001d aa3b 8c39 cfbc

exp_avg_sq f4 [1, 8]
1.6026244e-05 4.166909e-06 2.8621366e-06 0.000102291735 4.2631264e-06 1.8323171e-05 2.437126e-05 0.00025142197
00000000: 1970 8637 7ad1 8b36 2213 4036 7585 d638
00000010: fa0b 8f36 b6b4 9937 e270 cc37 49d1 8339

network_body._body_endoder.seq_layers.0.weight f4 [8, 2]
0.4373327 0.95751965 0.77478343 -0.059554704 0.15545459 0.4053955 -0.77873755 -1.1131328
-1.0395092 -0.70393974 0.27185327 -0.019853273 -0.21227266 0.4021157 -1.0305257 -1.9009056
00000000: 12ea df3e 0220 753f 3558 463f a2ef 73bd
00000010: 7d2f 1f3e 0090 cf3e 585b 47bf 237b 8ebf
00000020: a30e 85bf 6535 34bf 5a30 8b3e 55a3 a2bc
00000030: 015e 59be 1ce2 cd3e 44e8 83bf e050 f3bf

network_body._body_endoder.seq_layers.0.bias f4 [8]
-0.026722973 0.024085948 -0.022092119 -0.0044682776 -0.012178769 -0.021610994 -0.026846094 0.011850115
00000000: 23ea dabc e54f c53c 88fa b4bc a16a 92bb
00000010: 7689 47bc 8a09 b1bc 57ec dbbc fc26 423c

network_body._body_endoder.seq_layers.2.weight f4 [8, 8]
0.09246021 -0.6825841 0.045366056 0.016158348 -0.48356426 0.19400524 0.47490492 -0.11697351
-0.54685503 0.22489107 0.14112617 -0.2159385 -0.44217253 -0.63905984 1.0020876 0.28601915
-0.3305861 0.47627744 0.50980234 0.045344055 -0.4326217 -0.034296535 0.46201482 0.34597546
0.49762782 -0.111980654 0.5881386 0.27123052 -0.26525187 0.23791625 0.27716944 0.41009676
0.19714156 0.16472614 0.09098451 -0.24825284 0.7705609 0.45048946 -0.19938052 0.07489654
0.3871002 -0.49359968 -0.13502866 -0.3365442 0.38549358 0.39237952 0.3376448 0.31704107
-0.32545373 0.47370738 0.1261463 0.43437555 0.5493967 0.3969663 -0.0110720815 0.8205824
1.1243012 -0.38910052 -0.28757313 -0.1929571 -0.035956815 -0.5605027 0.0061440724 0.008160112
00000000: c75b bd3d d5bd 2ebf c2d1 393d 835e 843c
00000010: bc95 f7be 4fa9 463e bd26 f33e cf8f efbd
00000020: b1fe 0bbf d849 663e 6183 103e fb1e 5dbe
00000030: 7064 e2be 6d99 23bf 6844 803f 1a71 923e
00000040: 9542 a9be a3da f33e 6882 023f b0ba 393d
00000050: 9780 ddbe 867a 0cbd 358d ec3e b223 b13e
00000060: 13c9 fe3e 1d56 e5bd 4090 163f bade 8a3e
00000070: 18cf 87be 51a0 733e 27e9 8d3e 34f8 d13e
00000080: 7adf 493e f8ad 283e 1656 ba3d fe35 7ebe
00000090: 7b43 453f 8ea6 e63e 682a 4cbe 5b63 993d
000000a0: ff31 c63e 19b9 fcbe f444 0abe 854f acbe
000000b0: 6a5f c53e f8e5 c83e c7df ac3e 3553 a23e
000000c0: dfa1 a6be c689 f23e 7f2c 013e 7966 de3e
000000d0: 43a5 0c3f 2b3f cb3e ad67 35bc b011 523f
000000e0: 1ae9 8f3f 2f38 c7be c93c 93be 8c96 45be
000000f0: 7447 13bd 1b7d 0fbf 3754 c93b feb1 053c

network_body._body_endoder.seq_layers.2.bias f4 [8]
-0.024088629 -0.020071505 -0.018720051 -0.023907505 -0.020260688 -0.024789512 -0.014679992 -0.023429407
00000000: 8455 c5bc ff6c a4bc cb5a 99bc acd9 c3bc
00000010: bef9 a5bc 6013 cbbc 5984 70bc 07ef bfbc

value_heads.value_heads.extrinsic.weight f4 [1, 8]
-0.20694616 -0.06733454 -0.058104288 -0.19270736 -0.14376038 -0.7748523 -0.3557849 -0.005369845
00000000: b2e9 53be b1e6 89bd c3fe 6dbd 1455 45be
00000010: ec35 13be b85c 46bf 7029 b6be 86f5 afbb
