results/TestSmallNetwork/MyTestingML/MyTestingML-27917.onnx (onnx, 4988 bytes, 6 tensors)

network_body._body_endoder.seq_layers.0.weight f4 [2, 2]
000000 d0 28 85 3f f8 d6 2f bf c1 80 a3 bf 17 76 ea be
       1.040308 -0.6868739 -1.2773668 -0.4579322

network_body._body_endoder.seq_layers.0.bias f4 [2]
000000 f6 00 9d bc 65 f4 a2 3c
       -0.019165497 0.019891927

network_body._body_endoder.seq_layers.2.weight f4 [2, 2]
000000 67 7c 61 be e3 e7 9e bd b1 a8 6d bc 13 16 4a be
       -0.22020112 -0.07759073 -0.014505551 -0.19734983

network_body._body_endoder.seq_layers.2.bias f4 [2]
000000 24 21 87 bc 74 9f 00 3c
       -0.016495295 0.007850517

action_model._discrete_distribution.branches.0.weight f4 [2, 2]
000000 74 a1 80 bd 61 33 b1 bd 53 4c e3 3b 11 5a fc 3d
       -0.06280795 -0.08652378 0.006936589 0.12321866

action_model._discrete_distribution.branches.0.bias f4 [2]
000000 41 48 23 3a 19 48 23 ba
       0.0006228723 -0.00062287
