results/BotHalfLoop/BotControllerAgent/BotControllerAgent-2499943.onnx (onnx, 197119 bytes, 11 tensors)

discrete_act_size_vector f4 [1, 2]
3.0 3.0
00000000: 0000 4040 0000 4040

network_body._body_endoder.seq_layers.0.weight f4 [128, 104]
-0.49256155 0.061442528 -0.32545504 0.06449337 -0.12678482 -0.043356072 -0.046345145 0.48886362
-0.069610536 0.13084802 0.18735698 0.02675715 0.012317657 -0.022377726 0.014793182 0.15506507
0.21041137 -0.11893669 -0.39772025 -0.07590658 -0.07413183 0.12540974 -0.19082233 0.1129617
-0.04101884 0.020487787 0.21531725 0.2601888 -0.29573768 -0.16220765 0.38310924 -0.0907742
0.060282126 0.039984997 0.018166138 0.13775247 0.3948707 -0.26142845 0.0136316335 0.011961787
0.33079866 0.092315 -0.34892726 -0.109853856 -0.15132755 0.13241327 -0.14901364 0.15466216
-0.21651694 -0.12656195 -0.040119827 -0.00918699 -0.091089964 -0.025120627 -0.21744269 0.02258971
-0.10609095 0.013750678 -0.23436753 -0.26143733 0.41273707 -0.046150044 0.0009212578 -0.12203945
0.035859402 -0.073119 -0.1713564 0.15107211 0.031003645 -0.11217805 0.0805625 0.23149964
0.0029285892 -0.030197155 -0.08735065 0.10781312 0.028928667 0.035853777 -0.085963756 -0.18237741
0.1162748 0.12203078 0.075078495 0.10454911 -0.2363069 0.12308435 0.13019149 0.3140921
0.001592722 -0.002597753 0.013115575 0.18806536 -0.12997521 -0.0018426627 0.11321485 0.28073832
-0.0640346 0.053732295 -0.3583662 0.123343684 -0.23967189 -0.014252446 -0.25190553 -0.07285111
-0.12788752 0.032556646 -0.22811604 -0.1320705 -0.033419088 0.16864973 0.02762989 0.15459214
0.32508248 -0.009694472 0.24164458 0.23178865 0.14972427 -0.16752844 0.007979711 0.07031295
-0.1485651 0.0022325404 0.038129136 -0.20061831 0.0825357 0.12936206 -0.2867269 0.045597196
-0.055608865 -0.051794622 -0.0702579 0.4522962 0.19036609 -0.1753761 0.13862403 -0.020163545
-0.2712867 0.0069798282 -0.00505826 -0.05666283 -0.16123262 0.11463483 -0.9150264 -0.29033664
-0.18137221 0.1230828 0.034328196 0.12423252 -0.10178546 -0.16741334 -0.17338938 0.44579414
0.20901208 -0.021222046 0.05015208 0.050160844 -0.1002037 -0.15151934 -0.013927027 0.14870664
0.090417676 0.045291197 -0.42655 -0.06218296 -0.25872332 0.003223016 0.15357012 -0.16800684
-0.07755327 -0.05123508 -0.27149814 0.34865698 -0.11545562 0.01673894 -0.62899715 0.13264182
-0.050258104 0.052952044 0.17625132 0.18782455 -0.032306798 0.13628273 -0.5056195 0.11020345
0.23419324 -0.009706419 0.12167334 -0.110613644 -0.20402287 0.06804064 0.13185728 0.20990556
0.0038909118 0.017131867 -0.60627425 0.12276253 -0.050675865 -0.07832382 0.06912647 0.12785254
-0.2620052 0.054413714 0.007874408 -0.10336692 0.1060906 0.01954573 -0.027548393 -0.14455238
-0.013011414 -0.01734193 0.057125214 0.17917877 0.0738632 0.046378355 -0.11731 -0.34309924
-0.34853542 -0.17459437 0.16480051 0.0585819 -0.02484411 0.22001724 -0.019110223 -0.37862974
-0.026640313 0.14622563 -0.20958051 0.45508966 0.18315311 0.15368983 0.062674664 -0.11502804
-0.11461554 -0.39924714 -0.18006583 -0.095340244 -0.13297379 -0.070816346 0.731186 0.33012068
0.12233937 0.15509443 -0.1936411 -0.06792466 -0.45909894 -0.0012252558 -0.7917453 0.12567036
0.096148394 0.048799675 0.045514543 -0.048052683 -0.067803666 -0.056540657 0.017247787 -0.008209748
00000000: 0731 fcbe 29ab 7b3d 0ba2 a6be 1a15 843d
00000010: e1d3 01be 2396 31bd 68d4 3dbd 554c fa3e
00000020: f88f 8ebd 06fd 053e 82da 3f3e d031 db3c
00000030: ffcf 493c 7e51 b7bc 1a5f 723c 61c9 1e3e
00000040: 1476 573e 1495 f3bd fda1 cbbe e974 9bbd
00000050: 6ed2 97bd 696b 003e ee66 43be 7758 e73d
00000060: 5f03 28bd 01d6 a73c 207c 5c3e 7737 853e
00000070: ee6a 97be c319 26be e526 c43e d3e7 b9bd
00000080: 64ea 763d 4fc7 233d 27d1 943c fc0e 0d3e
00000090: 7e2c ca3e f3d9 85be 3757 5f3c 5ffb 433c
000000a0: 715e a93e a60f bd3d 98a6 b2be 0ffb e0bd
000000b0: 9cf5 1abe 5897 073e 0897 18be c25f 1e3e
000000c0: 9eb6 5dbe 7599 01be b054 24bd 0785 16bc
000000d0: 608d babd c6c9 cdbc 4ca9 5ebe 0e0e b93c
000000e0: 3646 d9bd 864a 613c 0bfe 6fbe 1ddb 85be
000000f0: 4652 d33e d407 3dbd 9080 713a d2ef f9bd
00000100: 4fe1 123d 6abf 95bd 0d78 2fbe a6b2 1a3e
00000110: 5bfb fd3c 9bbd e5bd f4fd a43d 3e0e 6d3e
00000120: 93ed 3f3b 0660 f7bc e6e4 b2bd 20cd dc3d
00000130: d0fb ec3c 69db 123d c40d b0bd 25c1 3abe
00000140: 7b21 ee3d 46eb f93d c1c2 993d d81d d63d
00000150: 70fa 71be a613 fc3d eb50 053e aed0 a03e
00000160: e2c2 d03a 103f 2abb b5e2 563c 3594 403e
00000170: 3918 05be 8085 f1ba 30dd e73d efbc 8f3e
00000180: 9324 83bd 6516 5c3d c67b b7be 9d9b fc3d
00000190: 8c6c 75be 1783 69bc c3f9 80be f632 95bd
000001a0: f2f4 02be 1e5a 053d 4097 69be 7d3d 07be
000001b0: 74e2 08bd 84b2 2c3e 1458 e23c 674d 1e3e
000001c0: 3671 a63e 90d5 1ebc ad71 773e 015a 6d3e
000001d0: 5251 193e 938c 2bbe 55bd 023c 3c00 903d
000001e0: 7321 18be d04f 123b 4c2d 1c3d e36e 4dbe
000001f0: 7a08 a93d 7d77 043e decd 92be 20c4 3a3d
00000200: 1fc6 63bd 9926 54bd 60e3 8fbd 5e93 e73e
00000210: 54ef 423e cb95 33be 75f3 0d3e 052e a5bc
00000220: 17e6 8abe 0bb7 e43b c3bf a5bb 4917 68bd
00000230: 2a1a 25be aac5 ea3d 2c3f 6abf 01a7 94be
00000240: a3b9 39be d612 fc3d b99b 0c3d 9f6d fe3d
00000250: e574 d0bd 676e 2bbe fc8c 31be 213f e43e
00000260: 4307 563e dbd9 adbc 446c 4d3d 7575 4d3d
00000270: 9937 cdbd e327 1bbe 2f2e 64bc 8e46 183e
00000280: e72c b93d 4383 393d c364 dabe 8fb3 7ebd
00000290: 6277 84be 3c39 533b 7c41 1d3e fc09 2cbe
000002a0: 40d4 9ebd e0db 51bd ce01 8bbe 2b83 b23e
000002b0: ff73 ecbd 1a20 893c f505 21bf 42d3 073e
000002c0: 71db 4dbd 3ee4 583d 3a7b 343e 1455 403e
000002d0: 2254 04bd b38d 0b3e 4870 01bf 59b2 e13d
000002e0: 5ad0 6f3e ac07 1fbc df2f f93d 6889 e2bd
000002f0: 5feb 50be e458 8b3d 9805 073e 7cf1 563e
00000300: abfe 7e3b 2158 8c3c ca34 1bbf ec6a fb3d
00000310: 7f91 4fbd 3d68 a0bd 2e92 8d3d c7eb 023e
00000320: 8c25 86be eae0 5e3d a903 013c 09b2 d3bd
00000330: 0746 d93d 5e1e a03c 2bad e1bc 8a05 14be
00000340: d32d 55bc aa10 8ebc 21fc 693d a47a 373e
00000350: 9745 973d 3bf7 3d3d 3a40 f0bd b4aa afbe
00000360: 3c73 b2be dec8 32be 77c1 283e 93f3 6f3d
00000370: e085 cbbc 334c 613e 0b8d 9cbc c2db c1be
00000380: c93c dabc 2cbc 153e 469c 56be 8301 e93e
00000390: 7d8c 3b3e de60 1d3e 935b 803d d293 ebbd
000003a0: 8dbb eabd 1f6a ccbe 2d63 38be bf41 c3bd
000003b0: 482a 08be 2908 91bd 012f 3b3f 9405 a93e
000003c0: 108d fa3d 13d1 1e3e da49 46be 161c 8bbd
000003d0: 040f ebbe c398 a0ba d2af 4abf bbaf 003e
000003e0: 73e9 c43d 2be2 473d 756d 3a3d e4d2 44bd
000003f0: a6dc 8abd 2d97 67bd 3b4b 8d3c 2e82 06bc

network_body._body_endoder.seq_layers.0.bias f4 [128]
0.016634092 0.019217642 -0.013202035 0.022528946 0.060409945 0.036756214 0.096097976 0.050575417
-0.026117757 0.02023277 -0.011693453 -0.061773438 0.0055754147 0.025645075 0.02310371 0.01276329
0.013157191 -0.007272618 -0.065864466 -0.0051872167 0.03242904 0.013102973 0.006558555 -0.037084125
0.01080814 0.060954835 0.032344915 0.020414295 0.022561884 -0.00897067 0.07007561 -0.0027630052
0.02323323 0.02590123 0.04092698 0.029213969 -0.0061274623 -0.050722845 -0.010158563 -0.021477267
-0.006174135 0.059283346 -0.013994313 0.0597863 0.031723354 -0.016071491 0.09034737 0.05050748
0.048546065 -0.0038884585 0.01698239 -0.0053738863 -0.05230086 0.072554 -0.03594329 -0.03857766
0.018536614 -0.035076566 0.0071441275 0.02727363 -0.021349533 0.09819723 0.044620458 -0.033379238
-0.028665902 -0.0049266694 -0.006517368 0.0646338 0.02097306 -0.010309142 0.009228852 -0.014030532
-0.023849163 -0.029205635 0.012492408 0.0276261 -0.00017891572 -0.0316206 0.03551964 0.00034725017
0.0058060666 0.0030560724 0.013938031 -0.012295732 -0.008594301 0.00595153 0.04312419 -0.026159093
0.04300353 0.030784134 0.0414981 0.027766328 0.013520287 0.06975378 -0.005077059 0.017834542
-0.005789929 0.014663138 0.06136654 0.010782074 0.009014243 -0.019603036 -0.036321245 0.032200616
0.037393972 0.02128419 0.03341247 0.051171288 0.032855358 0.02796143 -0.011148762 0.038043994
0.044357155 0.007276923 0.0068378565 0.03154288 0.0481795 0.055688065 0.0048456006 -0.034051407
-0.053719636 0.016737914 0.025864419 0.053325515 0.009068795 0.012369764 -0.034487903 0.023002574
00000000: 3844 883c 516e 9d3c 594d 58bc a08e b83c
00000010: 6b70 773d af8d 163d 04cf c43d 2b28 4f3d
00000020: e8f4 d5bc 32bf a53c e695 3fbc 2506 7dbd
00000030: f8b1 b63b 9f15 d23c fe43 bd3c 1e1d 513c
00000040: 4291 573c 244f eebb f3e3 86bd 87f9 a9bb
00000050: 50d4 043d daad 563c 26e9 d63b 86e5 17bd
00000060: a014 313c c7ab 793d 1a7c 043d e13b a73c
00000070: b3d3 b83c b8f9 12bc cd83 8f3d 8913 35bb
00000080: 9d53 be3c d12e d43c 0da3 273d 2252 ef3c
00000090: e1c8 c8bb c2c2 4fbd 1a70 26bc 18f1 afbc
000000a0: 6650 cabb 18d3 723d 6748 65bc 7be2 743d
000000b0: 59f0 013d 5ca8 83bc 0b08 b93d eee0 4e3d
000000c0: 3dd8 463d 82d5 7ebb a71e 8b3c 6d17 b0bb
000000d0: 6d39 56bd 3197 943d 4539 13bd 9c03 1ebd
000000e0: 19da 973c 72ac 0fbd 4919 ea3b f36c df3c
000000f0: 37e5 aebc a11b c93d f1c3 363d abb8 08bd
00000100: c1d4 eabc e66f a1bb a58f d5bb ba5e 843d
00000110: b2cf ab3c ade7 28bc 9c34 173c 51e0 65bc
00000120: 525f c3bc a840 efbc f5ac 4c3c 2250 e23c
00000130: 539b 3bb9 9a84 01bd 0b7d 113d 210f b639
00000140: d140 be3b 6348 483b 575c 643c 0a74 49bc
00000150: 1ccf 0cbc 0d05 c33b fea2 303d 984b d6bc
00000160: 7824 303d 022f fc3c e9f9 293d 3676 e33c
00000170: 3284 5d3c 12db 8e3d 755d a6bb bf19 923c
00000180: 72b9 bdbb a93d 703c 7b5b 7b3d 4ca7 303c
00000190: 7ab0 133c 8c96 a0bc 96c5 14bd cbe4 033d
000001a0: 6c2a 193d 2e5c ae3c 84db 083d fc98 513d
000001b0: 5793 063d 5e0f e53c 4ca9 36bc 05d4 1b3d
000001c0: d9af 353d 4173 ee3b 1910 e03b 1b33 013d
000001d0: de57 453d 2b19 643d d8c7 9e3b 7d79 0bbd
000001e0: 1f09 5cbd f31d 893c 9ee1 d33c db6b 5a3d
000001f0: 4895 143c 8daa 4a3c 3043 0dbd e56f bc3c

network_body._body_endoder.seq_layers.2.weight f4 [128, 128]
0.11975528 -0.00021956737 -0.122954674 0.16773123 0.1208283 0.13413095 -0.22880149 0.18019159
-0.018558983 -0.20151177 -0.015849164 0.263518 0.12628385 0.034382697 0.12172472 -0.09035521
-0.29492646 0.090619795 0.15377818 0.07468404 -0.16241805 0.050633676 0.016814569 0.33015424
0.14644386 -0.23947744 -0.15972543 -0.030249063 -0.14254826 0.04608337 0.13017572 0.0017854335
-0.0933777 -0.14025132 0.100106314 0.022730254 0.118614785 0.16694938 0.07345871 -0.018195583
-0.044883613 0.10032212 0.045598853 -0.008116979 -0.0730753 0.16441521 -0.07736215 0.04007083
-0.078142025 -0.00774981 -0.11585405 0.08657952 0.034496255 -0.20167328 0.14062285 0.17235142
0.033508673 -0.1689554 -0.12951118 -0.16312136 0.17831771 -0.061342552 0.07637919 0.28500316
0.016024485 0.08422477 -0.054741822 0.046503343 0.010552789 0.17986487 -0.30674165 0.16668564
0.073730804 0.040466096 0.100123644 -0.36782163 -0.08525662 0.06485828 -0.20476636 0.026262546
0.091649264 -0.17437077 -0.08960728 0.29390243 -0.0057362365 -0.1848285 0.037293322 -0.0319094
-0.23991318 -0.1616466 0.09383968 0.14803697 0.09125138 0.1382201 -0.15734889 -0.15545245
-0.14477411 -0.023369439 -0.079958126 -0.1857982 0.11468501 -0.037701175 0.029305102 -0.063334525
0.056414742 -0.13759525 -0.10466842 0.15933359 -0.06462723 -0.059456863 -0.067223534 -0.06223006
0.062369727 0.098098665 0.21662438 0.16187221 -0.20343024 -0.3005406 0.10634141 0.2397369
-0.15821369 0.048921235 -0.23625353 0.059965707 0.22827132 -0.059204563 -0.03028713 -0.40940183
-0.21088828 -0.22458875 -0.06651215 0.044429842 -0.109773554 0.056788996 -0.029626122 -0.019076556
0.059380874 -0.16491507 0.085519575 0.041084852 -0.06816616 -0.27042934 -0.08390626 -0.10719591
-0.08998754 0.28489736 -0.13942719 0.16075803 0.030510476 -0.025286619 -0.14178449 0.1849854
0.018661844 -0.20737065 0.09462559 0.07117719 -0.13421944 0.14447045 0.076002724 0.101257436
-0.048690535 -0.11811294 0.045336697 0.19376111 -0.15586935 0.2653904 -0.15797433 -0.044742618
-0.016300296 0.18754557 0.28628755 -0.074754216 -0.085222535 0.20667212 0.1365881 0.011009009
-0.042425122 -0.072940424 -0.11797427 0.028109709 -0.033749584 -0.05373739 0.15511358 -0.0818474
0.2045525 -0.11562943 0.021385 -0.086211585 0.19911711 0.051996447 -0.035798237 -0.119995676
0.033150166 0.2286635 -0.2429477 0.0052119354 0.21695915 0.048273712 0.08574883 -0.045679342
0.110530734 0.26592484 -0.10300733 -0.17600077 -0.030380761 -0.060444422 -0.23798473 0.15623634
0.033284653 -0.05028613 -0.395854 -0.11155175 -0.014935958 -0.2864696 -0.058424473 0.098308824
0.2425744 -0.097395055 -0.1172297 0.22906579 0.097297736 -0.06767924 -0.14507677 0.008429908
0.18432504 -0.14016047 -0.02620316 -0.13224007 -0.048784513 0.11195649 0.1595943 0.20195948
-0.26841912 -0.15756549 -0.20260629 0.11025995 0.014102717 -0.062259942 -0.10358303 -0.099902906
-0.014843373 -0.050005388 0.10131721 -0.032111786 0.13852577 -0.3576332 -0.090800755 0.20245154
0.013876767 0.074165784 0.32535422 0.046482127 0.05633513 -0.2343689 0.052028317 0.046947606
00000000: 4242 f53d ab3b 66b9 a9cf fbbd bcc1 2b3e
00000010: d474 f73d a059 093e f04a 6abe 2584 383e
00000020: 0209 98bc 1a59 4ebe 1bd6 81bc d5eb 863e
00000030: 8e50 013e dfd4 0c3d cf4a f93d 270c b9bd
00000040: 9a00 97be df96 b93d 0778 1d3e f2f3 983d
00000050: eb50 26be 4265 4f3d b5be 893c fa09 a93e
00000060: 61f5 153e 9339 75be 108f 23be e2cc f7bc
00000070: 2cf8 11be eac1 3c3d c94c 053e 3505 ea3a
00000080: cf3c bfbd 0b9e 0fbe 8a04 cd3d cc34 ba3c
00000090: 4fec f23d c7f4 2a3e 8571 963d e70e 95bc
000000a0: e1d7 37bd af75 cd3d ddc5 3a3d 14fd 04bc
000000b0: 81a8 95bd 765c 283e 0c70 9ebd 5021 243d
000000c0: ed08 a0bd 1ef2 fdbb e344 edbd 9a50 b13d
000000d0: f24b 0d3d 7183 4ebe 70ff 0f3e e47c 303e
000000e0: 6440 093d a502 2dbe 949e 04be 4909 27be
000000f0: eb98 363e 5442 7bbd b16c 9c3d efeb 913e
00000100: c845 833c 097e ac3d f638 60bd 4a7a 3e3d
00000110: 9be5 2c3c 7f2e 383e 3e0d 9dbe a4af 2a3e
00000120: 2d00 973d c7bf 253d a00d cd3d 1e53 bcbe
00000130: 069b aebd 6bd4 843d 46ae 51be 8d24 d73c
00000140: 9cb2 bb3d 408e 32be 0684 b7bd 617a 963e
00000150: 0af7 bbbb af43 3dbe e2c0 183d 6eb3 02bd
00000160: cdab 75be b086 25be 052f c03d 0197 173e
00000170: 01e2 ba3d 9289 0d3e 1120 21be ed2e 1fbe
00000180: aa3f 14be 4471 bfbc 16c1 a3bd e241 3ebe
00000190: f9df ea3d 8c6c 1abd 4111 f03c 88b5 81bd
000001a0: 2513 673d c5e5 0cbe 665c d6bd 5828 233e
000001b0: 485b 84bd 0a89 73bd 7eac 89bd f3e4 7ebd
000001c0: 6677 7f3d f4e7 c83d c8d2 5d3e d4c1 253e
000001d0: 0450 50be 75e0 99be 86c9 d93d 977d 753e
000001e0: c502 22be a261 483d 72ec 71be 9a9e 753d
000001f0: f5bf 693e 7c80 72bd b71c f8bc 1e9d d1be
00000200: 19f3 57be 98fa 65be 8637 88bd 11fc 353d
00000210: f5d0 e0bd 949b 683d 7bb2 f2bc 7046 9cbc
00000220: 5c39 733d 7fdf 28be e324 af3d 9748 283d
00000230: b39a 8bbd b775 8abe 0cd7 abbd 8789 dbbd
00000240: 634b b8bd 11de 913e 00c6 0ebe c19d 243e
00000250: 1bf1 f93c e225 cfbc f42f 11be d06c 3d3e
00000260: b9e0 983c f958 54be 10cb c13d 59c5 913d
00000270: d270 09be 10f0 133e 51a7 9b3d 0f60 cf3d
00000280: ba6f 47bd 32e5 f1bd f9b2 393d 5069 463e
00000290: 379c 1fbe 40e1 873e 06c4 21be 0944 37bd
000002a0: 3388 85bc f20b 403e 4894 923e bd18 99bd
000002b0: 2789 aebd dba1 533e c0dd 0b3e 215f 343c
000002c0: f7c5 2dbd ca61 95bd 7e9c f1bd 5546 e63c
000002d0: 013d 0abd bd1b 5cbd 18d6 1e3e 9c9f a7bd
000002e0: 3676 513e 1fcf ecbd 982f af3c b38f b0bd
000002f0: 5be5 4b3e 3afa 543d 2ca1 12bd 4bc0 f5bd
00000300: 78c8 073d c426 6a3e 48c7 78be e2c8 aa3b
00000310: 8a2a 5e3e a8ba 453d 159d af3d 431a 3bbd
00000320: f05d e23d 4d27 883e 82f5 d2bd 8c39 34be
00000330: 13e1 f8bc 9294 77bd 45b2 73be 6bfc 1f3e
00000340: 7d55 083d d4f8 4dbd 60ad cabe 3e75 e4bd
00000350: f3b5 74bc 25ac 92be 804e 6fbd 2356 c93d
00000360: 6c65 783e 0f77 c7bd 2016 f0bd 3990 6a3e
00000370: 0944 c73d 6a9b 8abd 018f 14be 991d 0a3c
00000380: b4bf 3c3e 3a86 0fbe 02a8 d6bc f169 07be
00000390: 45d2 47bd 7249 e53d b06c 233e 77ce 4e3e
000003a0: 3b6e 89be d958 21be 0678 4fbe f8cf e13d
000003b0: 150f 673c 4804 7fbd 5723 d4bd e599 ccbd
000003c0: 9e31 73bc 73d2 4cbd 667f cf3d a687 03bd
000003d0: b3d9 0d3e b31b b7be bff5 b9bd 754f 4f3e
000003e0: 615b 633c 3be4 973d d494 a63e 0b64 3e3d
000003f0: aabf 663d 67fe 6fbe a51b 553d 224c 403d

network_body._body_endoder.seq_layers.2.bias f4 [128]
0.009599 0.021354133 0.067286015 0.039720688 -0.03460849 0.0491332 0.008674952 0.07022542
0.0042983666 -0.023707932 -0.0022521114 0.006888361 0.020037042 0.039637335 0.014206304 0.061934978
-0.029529996 0.03535778 0.07737068 0.068020225 -0.013125226 0.0044700042 0.04982733 0.006502437
0.10233706 0.02749764 0.03800187 0.041903738 0.024034217 -0.053308215 0.06948317 0.008969382
-0.039978784 -0.0046773874 0.048077185 0.041412808 0.07956124 0.045541987 0.061247908 0.022460472
-0.02108116 -0.012250622 0.026904179 0.10365521 0.072081864 -0.039402734 -0.009562485 0.004940349
-0.0052858614 -0.030231688 -0.0047197337 0.018714372 0.019938739 0.04350792 0.04862934 -0.026204055
-0.034196828 0.048641294 -0.012899191 0.044589825 0.008638373 -0.010505251 -0.005333722 -0.017401677
0.019100387 0.037467122 -0.03526648 0.014527979 0.010737397 -0.012926757 -0.015899405 0.022896167
0.0062213526 0.041745737 -0.026127717 -0.028210672 0.048608966 -0.04793075 0.0301379 0.01581266
0.042485416 0.009019065 -0.01364962 -0.020578425 0.034443155 0.015016563 -0.005572506 0.05590702
-0.05685682 0.023863982 -0.011074549 -0.048473854 0.07399758 -0.00817492 0.018451333 0.00036528244
0.03790188 0.013003566 0.03516952 0.016874902 0.03535566 0.013480002 -0.021408377 0.05794478
0.036921915 -0.011524327 0.017557716 0.0562089 0.02358548 -0.014602074 0.024411306 0.056731675
0.043416057 0.073350385 0.022796273 -0.0038987957 -0.0034138823 -0.06858833 0.014933422 0.015138054
0.05565556 0.028553365 0.03306724 -0.024479384 -0.013579586 -0.012415242 0.0007817119 -0.014102981
00000000: 2045 1d3c ddee ae3c 40cd 893d 29b2 223d
00000010: a2c1 0dbd e53f 493d 6321 0e3c 58d2 8f3d
00000020: 50d9 8c3b 2337 c2bc 2998 13bb c3b7 e13b
00000030: b924 a43c c25a 223d 8fc1 683c 88af 7d3d
00000040: e4e8 f1bc 52d3 103d 8574 9e3d 304e 8b3d
00000050: 300b 57bc 1d79 923b be17 4c3d 6512 d53b
00000060: 1896 d13d bb42 e13c d9a7 1b3d 41a3 2b3d
00000070: 68e3 c43c b759 5abd 314d 8e3d 51f4 123c
00000080: cbc0 23bd c544 99bb 95ec 443d 7aa0 293d
00000090: 01f1 a23d 3c8a 3a3d 16df 7a3d 06ff b73c
000000a0: 66b2 acbc d5b6 48bc 2766 dc3c 2f49 d43d
000000b0: a89f 933d c364 21bd f8ab 1cbc a7e2 a13b
000000c0: 0535 adbb 72a8 f7bc ffa7 9abb e24e 993c
000000d0: 9156 a33c 5c35 323d 8f2f 473d e3a9 d6bc
000000e0: f911 0cbd 183c 473d 2157 53bc d2a3 363d
000000f0: f687 0d3c 371e 2cbc 81c6 aebb f68d 8ebc
00000100: 6a78 9c3c 2077 193d 9673 10bd c306 6e3c
00000110: e8eb 2f3c c0ca 53bc 783f 82bc be90 bb3c
00000120: 7ddc cb3b 94fd 2a3d cb09 d6bc 111a e7bc
00000130: 321a 473d 0953 44bd c2e3 f63c 8d89 813c
00000140: 3005 2e3d b3c4 133c a8a2 5fbc 1694 a8bc
00000150: 4414 0d3d 0808 763c 9299 b6bb c2fe 643d
00000160: b2e2 68bd 667e c33c 0672 35bc 858c 46bd
00000170: 0b8c 973d 1af0 05bc 4027 973c 6183 bf39
00000180: 003f 1b3d e90c 553c ea0d 103d 3c3d 8a3c
00000190: 19d1 103d 3adb 5c3c 9f60 afbc 8157 6d3d
000001a0: 6f3b 173d 88d0 3cbc 33d5 8f3c 4e3b 663d
000001b0: 5636 c13c 8a3d 6fbc 38fa c73c 795f 683d
000001c0: 09d5 313d ba38 963d 40bf ba3c f082 7fbb
000001d0: 71bb 5fbb 0a78 8cbd 50ab 743c 9a05 783c
000001e0: 16f7 633d bfe8 e93c 8471 073d fd88 c8bc
000001f0: e97c 5ebc 4d69 4bbc cceb 4c3a 3110 67bc

network_body._body_endoder.seq_layers.4.weight f4 [128, 128]
-0.37393612 -0.07942967 -0.25227636 0.12784733 -0.26247367 -0.23418829 0.17974159 0.1473526
0.17438352 -0.13589817 0.04157584 -0.20144485 0.03782686 -0.029960124 -0.13035561 0.28529146
0.56105745 -0.016093105 0.109743915 -0.35525897 -0.4206986 0.037993237 0.17369677 0.23011333
-0.35872173 0.13645014 -0.28671432 0.13922994 0.009923713 -0.24481206 -0.077396676 0.17060135
0.057896905 0.03610835 0.30517635 -0.011317036 -0.0838402 0.07715324 -0.23135892 -0.38611633
-0.10188572 0.03488999 0.3321762 0.04562897 -0.15738378 0.18590021 0.045017857 0.28758788
0.11922773 -0.010010749 0.116169184 0.046195067 -0.118635416 -0.019702487 -0.18536565 0.0891544
-0.399705 0.05426356 -0.06774553 -0.4904188 -0.052298725 0.077078335 -0.0096414825 -0.03867227
0.049502876 0.0028140014 -0.04948634 0.15930182 0.14848265 -0.32309517 0.05760651 -0.08807225
0.34960377 0.25412187 -0.032896493 0.111316524 -0.0069680833 -0.05627823 -0.09520244 -0.1954083
0.18618849 0.028116956 -0.5346264 -0.21973532 -0.13823558 -0.07462654 0.058531813 0.04943911
0.27666876 -0.08225134 0.42066872 0.0616371 -0.25399882 0.13385236 -0.03320109 0.1525074
0.17324339 0.4476135 -0.10968733 -0.086759016 -0.0453968 -0.11558132 0.35898578 -0.0698397
0.20655015 -0.44035858 -0.1773326 -0.2393705 -0.47610718 -0.1907963 0.38357493 -0.17527528
0.005244392 0.24041381 -0.12083412 -0.23479955 -0.12071273 0.21529238 -0.030000297 -0.1339925
0.14732558 -0.22769424 0.050551817 -0.10685203 0.3558082 -0.07150966 0.10882566 0.054927763
-0.07439694 0.03356126 -0.004722259 0.13599835 -0.042087644 0.06427051 0.00288353 0.0091989245
0.107032314 -0.07987889 0.06065578 0.044308465 0.07619589 -0.18912774 -0.11319399 0.14216836
-0.19476551 0.032810383 0.08450255 -0.0047102394 -0.043803245 0.006644366 -0.07810573 0.1848173
0.087204136 0.1851967 0.08906985 0.16143532 0.25235072 -0.28161553 0.031338207 0.061624262
-0.091180824 -0.26589268 -0.0832786 -0.027227663 0.038767323 -0.03178398 -0.13001682 -0.05300975
0.083460175 0.055859037 0.12273596 0.26705688 -0.092102885 -0.43721536 -0.016492093 -0.16731283
-0.018928912 0.02916693 0.019974258 0.12879872 0.09547315 -0.30918676 0.07759292 -0.24452704
-0.17931041 0.25932452 0.059295826 -0.20535992 -0.057554267 0.1985186 0.08998652 -0.15039729
-0.024136027 0.078280345 0.124142766 0.19133347 0.009369112 0.044815388 -0.0046765846 -0.035272997
0.2764686 -0.10032739 0.1612307 0.06699319 -0.16147779 -0.0986613 -0.09522077 0.16404246
0.23885147 0.12519109 -0.19214325 0.095579 -0.08781617 0.075632714 0.12301592 0.16226506
-0.019370737 0.04243448 -0.20803955 0.004738504 0.032515995 0.17429905 -0.020849777 -0.16440994
0.08022879 0.107075974 0.09561874 0.088998936 -0.013902522 -0.07161333 0.33984408 0.16591533
-0.0035617542 -0.057218548 0.22195317 0.070359334 -0.089569874 -0.057499368 0.3407436 -0.18211488
0.0602309 0.25446346 -0.04720066 -0.24688838 -0.06392312 -0.016686931 0.08292696 0.07330421
0.15364912 -0.05522459 0.019365817 0.04477836 0.0052751475 -0.049752194 -0.10108961 0.1259674
00000000: 8e74 bfbe 06ac a2bd 5e2a 81be 69ea 023e
00000010: f362 86be 0ecf 6fbe 2e0e 383e 9ae3 163e
00000020: 9891 323e e428 0bbe 6e4b 2a3d 8f47 4ebe
00000030: 56f0 1a3d ef6e f5bc f17b 05be b911 923e
00000040: 76a1 0f3f b0d5 83bc 6bc1 e03d 81e4 b5be
00000050: cf65 d7be cc9e 1b3d 91dd 313e d4a2 6b3e
00000060: 60aa b7be 96b9 0b3e 38cc 92be 4b92 0e3e
00000070: 1297 223c 03b0 7abe 2682 9ebd 1fb2 2e3e
00000080: 4e25 6d3d 59e6 133d 1340 9c3e 176b 39bc
00000090: 69b4 abbd 8502 9e3d 5ae9 6cbe 0ab1 c5be
000000a0: 76a9 d0bd cee8 0e3d 0013 aa3e 71e5 3a3d
000000b0: 3729 21be a05c 3e3e a564 383d b83e 933e
000000c0: ab2d f43d 2004 24bc 1cea ed3d 0a37 3d3d
000000d0: 20f7 f2bd 1c67 a1bc 7ed0 3dbe 9596 b63d
000000e0: 22a6 ccbe 7743 5e3d 2bbe 8abd 2c18 fbbe
000000f0: 3037 56bd 3fdb 9d3d 4ff7 1dbc d066 1ebd
00000100: 87c3 4a3d 1c6b 383b 30b2 4abd 0420 233e
00000110: d60b 183e bb6c a5be cef4 6b3d 395f b4bd
00000120: 44ff b23e 431c 823e 79be 06bd ebf9 e33d
00000130: 8554 e4bb 0084 66bd 7ff9 c2bd 1d19 48be
00000140: 32a8 3e3e 8855 e63c 47dd 08bf 4c02 61be
00000150: a18d 0dbe cdd5 98bd 0ebf 6f3d aa80 4a3d
00000160: 87a7 8d3e 6473 a8bd e461 d73e 2f77 7c3d
00000170: 220c 82be 9810 093e defd 07bd e62a 1c3e
00000180: b766 313e 992d e53e c0a3 e0bd b6ae b1bd
00000190: fff1 39bd e6b5 ecbd fccc b73e 1e08 8fbd
000001a0: e281 533e ae76 e1be ad96 35be 8a1d 75be
000001b0: 52c4 f3be 1b60 43be ef63 c43e 5d7b 33be
000001c0: 26d9 ab3b 0a2f 763e e177 f7bd 4b6f 70be
000001d0: 3c38 f7bd 9b75 5c3e 2fc3 f5bc 5435 09be
000001e0: 84dc 163e ae28 69be 6c0f 4f3d 3dd5 dabd
000001f0: 7e2c b63e a873 92bd fddf de3d effb 603d
00000200: 6c5d 98bd 8877 093d 2ebd 9abb 2743 0b3e
00000210: 1864 2cbd 42a0 833d 9bf9 3c3b 16b7 163c
00000220: c233 db3d 8b97 a3bd 3272 783d cb7c 353d
00000230: 970c 9c3d b4aa 41be 40d2 e7bd 9594 113e
00000240: 9c70 47be 2e64 063d ac0f ad3d 5a58 9abb
00000250: 086b 33bd fbb8 d93b e6f5 9fbd bf40 3d3e
00000260: 1598 b23d 34a4 3d3e 416a b63d 4d4f 253e
00000270: 1d34 813e e92f 90be 7e5c 003d b969 7c3d
00000280: 03bd babd 1623 88be f88d aabd 8c0c dfbc
00000290: 7cca 1e3d eb2f 02bd 2123 05be c020 59bd
000002a0: 2bed aa3d 72cc 643d fe5c fb3d aebb 883e
000002b0: 70a0 bcbd b1da dfbe 6d1a 87bc 0e54 2bbe
000002c0: ce10 9bbc 7cef ee3c 0ea1 a33c d0e3 033e
000002d0: 6d87 c33d ba4d 9ebe 09e9 9e3d 4c65 7abe
000002e0: 269d 37be 2fc6 843e 2ee0 723d df49 52be
000002f0: 06be 6bbd 7648 4b3e da4a b83d bf01 1abe
00000300: ebb8 c5bc 7251 a03d 903e fe3d ecec 433e
00000310: e780 193c 5790 373d 093e 99bb 6b7a 10bd
00000320: 4b8d 8d3e 7278 cdbd a919 253e ba33 893d
00000330: 6f5a 25be f00e cabd 1b03 c3bd bffa 273e
00000340: 7b95 743e 1832 003e 33c1 44be ecbe c33d
00000350: f7d8 b3bd 53e5 9a3d c5ef fb3d d028 263e
00000360: 61af 9ebc c7cf 2d3d 5208 55be 7445 9b3b
00000370: 7e2f 053d 737b 323e 27cd aabc 145b 28be
00000380: fe4e a43d a64a db3d c2d3 c33d 1345 b63d
00000390: 67c7 63bc 02aa 92bd 0b00 ae3e b5e5 293e
000003a0: 526c 69bb ff5d 6abd b147 633e 8e18 903d
000003b0: 6970 b7bd 7584 6bbd f275 ae3e 537c 3abe
000003c0: adb4 763d 0949 823e 7b55 41bd 4fd0 7cbe
000003d0: 20ea 82bd 08b3 88bc 9cd5 a93d 8520 963d
000003e0: 3256 1d3e 2e33 62bd 10a5 9e3c 8369 373d
000003f0: 25db ac3b f5c8 4bbd 1208 cfbd 99fd 003e

network_body._body_endoder.seq_layers.4.bias f4 [128]
0.00546782 0.07151671 -0.11990661 -0.09313412 0.043078493 0.07651961 -0.020520767 0.019845929
0.06578971 -0.07409571 0.027166877 0.069476254 0.059877016 0.002959156 -0.10081908 0.03430608
9.1750284e-05 -0.0003080715 0.053723037 -0.046671372 -0.13632677 0.043505073 -0.09704762 0.036844842
-0.041218027 0.026286801 -0.15631971 0.07728073 -0.0022533871 -0.14462091 -0.003995479 0.090268485
0.046811134 0.013099244 -0.11161214 -0.09502848 0.047878087 0.045252275 -0.06189463 0.15141433
0.04847651 -0.084617935 -0.03895423 0.03134592 -0.0022162225 0.13277651 -0.13625711 -0.081273384
0.009375841 -0.023328822 0.0477449 0.03597279 0.018440763 -0.07088741 0.14146484 -0.005424849
-0.11935173 -0.0052913874 -0.02161462 -0.09341425 0.057231925 -0.035949044 -0.038466785 -0.066193625
-0.1372202 0.029978728 0.01585596 0.023325741 -0.04301711 0.15494065 -0.03274663 -0.010520167
0.00030787333 0.057967342 0.03090072 -0.02999845 0.040425066 -0.03332183 0.05134978 0.011906063
-0.026787093 0.030688873 0.024327928 0.033427685 0.08565501 0.045491032 0.027181944 0.120266445
-0.0072322763 -0.106853746 0.017093113 0.02267409 0.007868648 0.06431188 -0.073105186 -0.14168324
0.06713047 -0.050522756 -0.009358461 0.07070444 0.0405328 0.0075664744 0.035479195 -0.13588883
-0.14438081 0.0192651 -0.07912299 -0.1092434 0.028357303 0.11337478 -0.019149048 -0.06024304
-0.011864412 0.074513175 -0.061252944 0.042612962 0.033383254 0.057704024 -0.059814967 -0.062089913
-0.06561986 -0.02131087 -0.029500876 -0.07226165 0.09078896 0.04695605 -0.044686615 0.03360848
00000000: 662b b33b 5a77 923d 9991 f5bd 1abd bebd
00000010: 1373 303d 50b6 9c3d 2b1b a8bc ee93 a23c
00000020: c1bc 863d 7ebf 97bd 128d de3c 9149 8e3d
00000030: 9a41 753d 66ee 413b 3c7a cebd 8884 0c3d
00000040: 0f6a c038 a884 a1b9 b00c 5c3d 7b2a 3fbd
00000050: 3f99 0bbe 6032 323d e7c0 c6bd 9eea 163d
00000060: 3cd4 28bd 6b57 d73c 4612 20be 5c45 9e3d
00000070: 90ad 13bb 8117 14be 82ec 82bb afde b83d
00000080: 08bd 3f3d 369e 563c e894 e4bd 4b9e c2bd
00000090: d01b 443d 735a 393d 3985 7dbd 5c0c 1b3e
000000a0: 4e8f 463d 2b4c adbd 788e 1fbd 9464 003d
000000b0: 0b3e 11bb 91f6 073e fc86 0bbe a972 a6bd
000000c0: 219d 193c 161c bfbc 2890 433d 3458 133d
000000d0: 1511 973c 6b2d 91bd 29dc 103e efc2 b1bb
000000e0: ae6e f4bd 6063 adbb 2511 b1bc f84f bfbd
000000f0: 066c 6a3d 4e3f 13bd 598f 1dbd 8690 87bd
00000100: 7483 0cbe f395 f53c 5ce4 813c a015 bf3c
00000110: b632 30bd c3a8 1e3e 5521 06bd c75c 2cbc
00000120: 0f6a a139 2a6f 6d3d 8223 fd3c 4fbf f5bc
00000130: c194 253d 797c 08bd 2654 523d a611 433c
00000140: 9b70 dbbc 3b67 fb3c 5d4b c73c 78eb 083d
00000150: e56b af3d ce54 3a3d abac de3c 414e f63d
00000160: bbfc ecbb 23d6 dabd db06 8c3c 03bf b93c
00000170: 80eb 003c f2b5 833d 2cb8 95bd 6915 11be
00000180: b37b 893d f3f0 4ebd 3b54 19bc 7dcd 903d
00000190: b905 263d 30f0 f73b a252 113d 7126 0bbe
000001a0: 90d8 13be d8d1 9d3c 3c0b a2bd 01bb dfbd
000001b0: 934d e83c 0931 e83d 77de 9cbc 68c1 76bd
000001c0: f362 42bc 5d9a 983d 5ee4 7abd ee8a 2e3d
000001d0: e1bc 083d 0e5b 6c3d 8a00 75bd fe51 7ebd
000001e0: b563 86bd 2294 aebc d2ab f1bc eafd 93bd
000001f0: 90ef b93d fd54 403d 5009 37bd 0ca9 093d

action_model._discrete_distribution.branches.0.weight f4 [3, 128]
0.14326137 -0.035813212 0.1540236 0.015316113 -0.045217905 -0.100364044 -0.26086032 -0.060803264
-0.0678246 0.02322149 0.2318787 -0.03208044 -0.06743807 0.41157374 -0.06347234 -0.07655955
-0.22241153 0.17504853 0.3095353 -0.16058932 -0.3960141 0.11303038 -0.24098971 -0.037038326
0.23182292 -0.08841748 -0.74733454 0.28177375 -0.021767236 -0.058170184 0.28066036 -0.21593317
-0.025398811 0.2524804 0.011495283 -0.17257033 -0.05403324 -0.030921925 -0.06120589 -0.0480409
-0.17260344 0.42674735 -0.12772562 -0.05135236 -0.110715255 -0.07595228 0.41395408 -0.32801947
-0.074421376 -0.09143299 -0.028434997 -0.19172516 0.012220616 0.12671058 0.19029857 -0.13804556
0.019539535 -0.3195448 0.35420448 0.2803001 -0.006852464 -0.043385223 0.26389036 0.04043575
0.008762651 -0.16123058 0.11298657 -0.0070297746 0.47311208 -0.2777659 0.029626504 0.112108156
0.038419597 0.0878846 0.0012867955 0.038765136 0.24099869 -0.15608653 0.0631015 -0.028383335
-0.019129565 0.08789014 0.25299633 -0.07153394 -0.0108864335 -0.112666935 -0.039988507 0.10090217
-0.34054622 -0.18523882 -0.06699065 0.29657996 -0.28948036 -0.03533537 -0.49079594 0.2559634
0.39445424 -0.5679389 -0.10882592 -0.073115654 -0.01201918 -0.030150602 -0.11771099 -0.112813406
0.14792973 0.08440167 0.33602276 -0.32073665 0.35828304 -0.024915962 -0.04310776 0.16667831
0.09672663 0.053420722 0.17532086 -0.037768494 -0.121446095 -0.14104146 -0.18561886 -0.23399815
0.076841384 -0.2761453 0.11087788 0.058932442 -0.005608008 0.028880324 0.098787874 -0.0019520725
-0.14918284 0.029470926 -0.19289312 -0.1417628 0.07502154 0.13125207 0.17257662 0.075571015
0.12078158 0.048519522 -0.21535248 0.035977773 0.11505751 -0.3349289 0.14040129 0.087917425
0.22693612 -0.21585636 -0.24499029 0.19631176 0.35124594 -0.10046283 0.23425561 0.09882469
-0.26875117 0.103718296 0.7472111 -0.25045612 0.041954048 0.046237998 -0.27310386 0.25908738
0.055409145 -0.23131457 -0.05323091 0.12707324 0.05061923 0.0405037 0.070492305 0.08704243
0.18194705 -0.4403609 0.01147718 0.070375234 0.13688684 0.080827594 -0.3736981 0.33070505
0.06493704 0.09841837 0.02619276 0.23252061 -0.03585994 -0.17791764 -0.12903021 0.12569165
-0.096907206 0.30996582 -0.38550502 -0.25062612 0.04365689 -0.0023075643 -0.2843349 -0.0653294
-0.013373593 0.16504413 -0.14873673 0.0685124 -0.48406053 0.2260666 -0.083808504 -0.106215246
-0.03518002 -0.072565466 0.016431695 -0.068542674 -0.24910705 0.13672416 -0.03190016 0.047027398
0.06241054 -0.079702616 -0.2083482 0.08794229 0.048963368 0.14900891 0.06736313 -0.061627317
0.3545377 0.14388332 0.078496136 -0.29648477 0.31155813 0.016966186 0.50948006 -0.322237
-0.37948006 0.55771834 0.10596851 0.08234216 0.0018788362 0.055628423 0.117425345 0.1352762
-0.15440515 -0.10641549 -0.35945627 0.28252345 -0.33368734 0.07575642 0.080920495 -0.16379671
-0.112334736 -0.03321844 -0.2157102 0.04766274 0.15796338 0.16420102 0.19131 0.27182823
-0.09554564 0.2703526 -0.15399304 -0.06463668 0.05438073 -0.02449594 -0.17275043 0.006422586
00000000: 1cb3 123e e0b0 12bd 5db8 1d3e 6ff0 7a3c
00000010: 6936 39bd aa8b cdbd 7c8f 85be d80c 79bd
00000020: a0e7 8abd ff3a be3c 9c71 6d3e c866 03bd
00000030: f91c 8abd cbb9 d23e c9fd 81bd 41cb 9cbd
00000040: d9bf 63be ec3f 333e 697b 9e3e 8771 24be
00000050: 5cc2 cabe 797c e73d 02c6 76be 80b5 17bd
00000060: fd62 6d3e 3914 b5bd 5151 3fbf a644 903e
00000070: 3451 b2bc dc43 6ebd b7b2 8f3e 961d 5dbe
00000080: 2b11 d0bc 1c45 813e b656 3c3c 47b6 30be
00000090: f551 5dbd fa4f fdbc 07b3 7abd 89c6 44bd
000000a0: f5be 30be a17e da3e 81ca 02be da56 52bd
000000b0: aebe e2bd de8c 9bbd caf1 d33e 2bf2 a7be
000000c0: 3c6a 98bd 3841 bbbd 83f0 e8bc 9a53 44be
000000d0: fb38 483c 6bc0 013e a1dd 423e d15b 0dbe
000000e0: 6011 a03c 609b a3be 4a5a b53e 7f83 8f3e
000000f0: a28a e0bb b4b4 31bd a31c 873e f59f 253d
00000100: 3991 0f3c a119 25be 8165 e73d 065a e6bb
00000110: bf3b f23e 5537 8ebe 48b3 f23c f698 e53d
00000120: de5d 1d3d d7fc b33d b1a9 a83a 31c8 1e3d
00000130: 5cc8 763e 26d5 1fbe 5c3b 813d 2b84 e8bc
00000140: 9bb5 9cbc bfff b33d bc88 813e 6380 92bd
00000150: 035d 32bc ecbd e6bd fdca 23bd cca5 ce3d
00000160: 135c aebe 3faf 3dbe 6532 89bd 54d9 973e
00000170: c536 94be d2bb 10bd 9b49 fbbe a20d 833e
00000180: e8f5 c93e 7264 11bf 20e0 debd a9bd 95bd
00000190: 18ec 44bc 65fe f6bc 7612 f1bd b70a e7bd
000001a0: e47a 173e c8da ac3d 2d0b ac3e 9837 a4be
000001b0: e070 b73e 8f1c ccbc c391 30bd b8ad 2a3e
000001c0: 9d18 c63d b0cf 5a3d 5087 333e 23b3 1abd
000001d0: bbb8 f8bd 2c6d 10be df12 3ebe 369d 6fbe
000001e0: 045f 9d3d eb62 8dbe f113 e33d 2563 713d
000001f0: 61c3 b7bb 6e96 ec3c 4c51 ca3d afdc ffba
00000200: 63c3 18be 036d f13c c685 45be 442a 11be
00000210: e5a4 993d f166 063e edb7 303e fac4 9a3d
00000220: 555c f73d 68bc 463d 5c85 5cbe 6e5d 133d
00000230: 46a3 eb3d cd7b abbe 5bc5 0f3e 0d0e b43d
00000240: f161 683e 7309 5dbe bcde 7abe f305 493e
00000250: 82d6 b33e 75bf cdbd b4e0 6f3e 9964 ca3d
00000260: c199 89be 426a d43d 3a49 3f3f c93b 80be
00000270: 02d8 2b3d 0e64 3d3d 45d4 8bbe 1aa7 843e
00000280: b3f4 623d badd 6cbe a808 5abd 7d1f 023e
00000290: 1c56 4f3d 35e7 253d 455e 903d 4d43 b23d
000002a0: 5450 3a3e fc76 e1be c80a 3c3c e420 903d
000002b0: 102c 0c3e f088 a53d 5b55 bfbe 2c52 a93e
000002c0: b6fd 843d 928f c93d 3392 d63c e219 6e3e
000002d0: dfe1 12bd 0b30 36be 7f20 04be 50b5 003e
000002e0: 4977 c6bd d7b3 9e3e ea60 c5be 1152 80be
000002f0: 91d1 323d 813a 17bb 5894 91be 6ccb 85bd
00000300: ea1c 5bbc 5401 293e 714e 18be 3b50 8c3d
00000310: c8d6 f7be 017e 673e cba3 abbd 6187 d9bd
00000320: ed18 10bd 349d 94bd c39b 863c 1a60 8cbd
00000330: eb15 7fbe 6b01 0c3e bea9 02bd cd9f 403d
00000340: 32a2 7f3d 203b a3bd 3b59 55be 161b b43d
00000350: d08d 483d cb95 183e aef5 893d ed6c 7cbd
00000360: f785 b53e 2656 133e 95c2 a03d dacc 97be
00000370: 8c84 9f3e acfc 8a3c 496d 023f 40fc a4be
00000380: 364b c2be a1c6 0e3f 0506 d93d 02a3 a83d
00000390: 4843 f63a a1da 633d b37c f03d d885 0a3e
000003a0: 621c 1ebe 5df0 d9bd a70a b8be eaa6 903e
000003b0: 11d9 aabe 2f26 9b3d a5b9 a53d 53ba 27be
000003c0: c10f e6bd 0f10 08bd 22e3 5cbe 013a 433d
000003d0: 27c1 213e 5024 283e c5e6 433e 122d 8b3e
000003e0: 6fad c3bd a86b 8a3e 5ab0 1dbe 3c60 84bd
000003f0: 54be 5e3d b6ab c8bc 7de5 30be 8e74 d23b

action_model._discrete_distribution.branches.0.bias f4 [3]
0.01137143 0.049603485 -0.40415472
00000000: 3c4f 3a3c 062d 4b3d 5eed cebe

action_model._discrete_distribution.branches.1.weight f4 [3, 128]
-0.24147853 0.120374665 -0.7556391 -0.30793867 0.05353288 0.07454874 -0.38322932 0.016643025
-0.036524482 -0.61359906 -0.061213717 0.18364726 0.017825313 0.18751423 -0.43047643 0.05135298
0.11166328 -0.087246634 0.22359912 -0.04828672 -0.634433 0.002687229 0.097762324 0.08045738
-0.33706692 0.07273211 -0.02273706 0.1130429 -0.07496603 -0.540866 0.28830856 0.024265338
0.19409344 0.22343162 -0.13232285 -0.49233663 0.10259104 0.16941935 -0.43745884 0.025090562
0.015188771 -0.49287713 -0.37196952 0.06202866 -0.009749165 -0.009540108 -0.30097872 -0.3276255
0.12474555 0.026429893 0.044390842 0.08090367 0.10841927 -0.17477104 0.32446775 -0.038234763
-0.37594205 0.020684673 0.17006005 -0.4499479 0.020062672 -0.2140507 -0.48810354 0.16080806
-0.32744756 0.2622711 0.0012202254 -0.06724856 -0.13592362 0.74907327 -0.62454396 0.06762839
0.14137393 0.21114962 0.04835467 -0.5285486 0.22099617 0.08264238 0.46920833 0.07687208
-0.30573225 0.15647049 0.32083854 0.010495558 0.082657784 -0.032874968 0.038905725 0.0790692
0.113087386 0.0079147285 0.12724812 -0.0999453 0.037610628 -0.023313126 0.13734019 -0.2633878
0.10236055 -0.1941968 0.015045105 0.10871643 0.035569392 0.016409948 0.1258383 -0.5214595
-0.28703994 0.042984087 -0.27145025 -0.39095956 -0.19822766 0.007333699 0.0033252512 -0.28613135
-0.053878613 0.26093945 -0.62908214 -0.012773039 0.11091066 0.056685247 -0.0091369795 -0.02249725
-0.11744928 -0.03192767 -0.034413043 -0.4177426 0.031567845 0.12277803 -0.3697388 0.047392096
-0.19309543 -0.22393118 0.73696816 0.35303456 -0.19213556 -0.21645008 -0.0013363672 0.08974502
0.0701292 0.56268805 -0.22733334 -0.7879052 0.112065606 -0.0724425 0.35904014 -0.037294727
-0.28436685 -0.2518875 -0.13054447 0.06902854 0.24434316 0.16669239 0.22819135 -0.10277363
0.15023202 -0.20332389 0.43857232 -0.029890202 0.14711587 0.5956416 -0.52949494 -0.0046294825
-0.2893234 -0.34623185 0.18737438 0.25779969 -0.058147285 -0.22266166 0.4735052 -0.10380948
-0.17718717 0.7329698 0.3316403 0.08243189 -0.003772865 -0.025451502 0.61556756 -0.029135525
0.13528872 0.12577146 -0.19625027 -0.18193504 -0.62503856 0.4706064 0.02662512 0.17181261
0.3181223 -0.019145757 0.0011378755 0.29242802 -0.27833432 -0.04777975 0.40320066 0.29538953
0.090809844 -0.12428357 -0.3134189 0.060054455 -0.035460316 -0.57610345 0.59889054 0.10268799
-0.02664143 -0.033998046 0.0016357321 0.5203773 -0.77883166 0.15730612 -0.47800106 0.1220265
-0.28764945 -0.8320788 -0.33126158 -0.081792906 -0.3708471 0.05488972 -0.099309415 -0.23562445
-0.09119247 0.051551495 0.15503792 0.43821317 0.2050969 -0.30015543 0.28728402 0.4492062
0.10949126 0.1711493 0.0018107477 -0.3062478 0.09343535 -0.000112393376 -0.15688533 0.428148
0.47028613 -0.5149537 -0.024706343 0.44087893 0.40714124 -0.031857368 0.03712051 0.08962768
-0.3237092 -0.09150726 0.11858665 0.08639001 -0.044818714 -0.24351296 0.09260236 -0.003497103
0.2348086 0.043615464 -0.15932791 0.10865331 -0.1559888 -0.43138266 0.28119773 0.13635598
00000000: 2646 77be fe86 f63d 9071 41bf 23aa 9dbe
00000010: 4b45 5b3d 03ad 983d a236 c4be f456 883c
00000020: b29a 15bd d414 1dbf 3cbb 7abd 070e 3c3e
00000030: 6406 923c bb03 403e 6867 dcbe 8157 523d
00000040: b8af e43d 5dae b2bd 2bf7 643e 4cc8 45bd
00000050: 336a 22bf 391c 303b 9d37 c83d d7c6 a43d
00000060: 0994 acbe 93f4 943d 1243 babc 0983 e73d
00000070: ca87 99bd 3276 0abf 2e9d 933e 1ac8 c63c
00000080: 6ec0 463e 42cb 643e a47f 07be 8c13 fcbe
00000090: 401b d23d 447c 2d3e 9bfa dfbe b98a cd3c
000000a0: 53da 783c 645a fcbe ca72 bebe c411 7e3d
000000b0: f6ba 1fbc 1d4e 1cbc e219 9abe 88be a7be
000000c0: 987a ff3d 8183 d83c 2cd3 353d d3b0 a53d
000000d0: ec0a de3d 2ef7 32be a320 a63e 0e9c 1cbd
000000e0: 7a7b c0be e772 a93c 3924 2e3e 925f e6be
000000f0: 795a a43c 1b30 5bbe b5e8 f9be deaa 243e
00000100: 35a7 a7be 6648 863e f8ef 9f3a 9db9 89bd
00000110: 902f 0bbe 44c3 3f3f 1de2 1fbf c180 8a3d
00000120: 54c4 103e 9b37 583e 8c0f 463d f64e 07bf
00000130: d24c 623e 6840 a93d 133c f03e 1c6f 9d3d
00000140: f088 9cbe cd39 203e f344 a43e 90f5 2b3c
00000150: 7c48 a93d e7a7 06bd 9c5b 1f3d 08ef a13d
00000160: 5c9a e73d c7ac 013c 554d 023e 1fb0 ccbd
00000170: 9a0d 1a3d 2bfb bebc e8a2 0c3e c4da 86be
00000180: 68a2 d13d 87db 46be be7f 763c b8a6 de3d
00000190: 36b1 113d 286e 863c c1db 003e 5f7e 05bf
000001a0: e6f6 92be 1510 303d 87fb 8abe da2b c8be
000001b0: 31fc 4abe 874f f03b 75ec 593b cf7f 92be
000001c0: d2af 5cbd db99 853e 870b 21bf 0246 51bc
000001d0: 2125 e33d ca2e 683d 45b3 15bc 274c b8bc
000001e0: 4089 f0bd 97c6 02bd b1f4 0cbd 5ce2 d5be
000001f0: 494d 013d 0c73 fb3d 674e bdbe 371e 423d
00000200: cfba 45be 374e 65be f2a9 3c3f f2c0 b43e
00000210: 2fbf 44be 17a5 5dbe 0b29 afba 3dcc b73d
00000220: e69f 8f3d 530c 103f 12ca 68be 28b4 49bf
00000230: a782 e53d bc5c 94bd 1cd4 b73e 5bc2 18bd
00000240: 8898 91be 66f7 80be 73ad 05be d65e 8d3d
00000250: 1835 7a3e 69b1 2a3e feaa 693e fb7a d2bd
00000260: 6cd6 193e 2334 50be 8d8c e03e 4cdc f4bc
00000270: 8ba5 163e f87b 183f fb8c 07bf eab2 97bb
00000280: 3222 94be 4d45 b1be 12df 3f3e 52fe 833e
00000290: d92b 6ebd 6b01 64be 466f f23e 119a d4bd
000002a0: 8e70 35be e9a3 3b3f c2cc a93e 0dd2 a83d
000002b0: 2c42 77bb ab7f d0bc d695 1d3f a0ad eebc
000002c0: 2089 0a3e 3cca 003e d5f5 48be 2e4d 3abe
000002d0: 8702 20bf 52f3 f03e ec1c da3c a5ef 2f3e
000002e0: ede0 a23e 90d7 9cbc c424 953a 20b9 953e
000002f0: d681 8ebe b3b4 43bd 5170 ce3e 4c3d 973e
00000300: 83fa b93d 6288 febd 7178 a0be a9fb 753d
00000310: d63e 11bd 847b 13bf e450 193f 154e d23d
00000320: 213f dabc 8941 0bbd 1066 d63a 7237 053f
00000330: 8361 47bf db14 213e 8ebc f4be 08e9 f93d
00000340: ca46 93be 1e03 55bf 1e9b a9be 0a83 a7bd
00000350: acdf bdbe 0bd4 603d bc62 cbbd 8947 71be
00000360: 1ec3 babd a927 533d 43c2 1e3e 7a5d e03e
00000370: ec04 523e f9ad 99be e416 933e 5bfe e53e
00000380: f43c e03d c341 2f3e 9c56 ed3a 83cc 9cbe
00000390: 085b bf3d bcb4 ebb8 8ca6 20be 3736 db3e
000003a0: 58c9 f03e 01d4 03bf f564 cabc e2ba e13e
000003b0: d174 d03e df7c 02bd ad0b 183d b88e b73d
000003c0: 36bd a5be 2968 bbbd 8fdd f23d 3fed b03d
000003d0: d493 37bd 765b 79be 4ea6 bd3d a72f 65bb
000003e0: aa71 703e 21a6 323d db26 23be a085 de3d
000003f0: 87bb 1fbe 30de dcbe 26f9 8f3e e7a0 0b3e

action_model._discrete_distribution.branches.1.bias f4 [3]
0.060630973 -0.06164682 -0.028842682
00000000: 2f58 783d 6081 7cbd 7d47 ecbc
