results/BotHalfLoop/BotControllerAgent/BotControllerAgent-108969.onnx (onnx, 384082 bytes, 9 tensors)

discrete_act_size_vector f4 [1, 2]
00000000: 0000 4040 0000 4040
3.0 3.0

network_body._body_endoder.seq_layers.0.weight f4 [256, 104]
00000000: 650f 01be 687c 9a3d eeb7 7d3d 766b 9dbc
00000010: 42c0 6a3e b922 a4bd efad f7bc 9b9b c73d
00000020: 874a 4b3e d83f cebd 065e 9b3d 9bec 2bbe
00000030: e347 8abc 0566 7c3e 268d 343d 1bba b8bd
00000040: 5b9d 39bd d875 39be f52c 8a3d 47da 40bd
00000050: aca7 13be d565 d1bd e5b6 8ebd abc5 2ebd
00000060: 4183 87bb b374 40be 49eb 2c3e 6bf6 80bd
00000070: e477 103d 4403 80bd 9148 fe3c 26a4 1b3d
00000080: 164e 13be 9f1d 603d ef00 aabd 983e 913c
00000090: c636 163e ca05 1a3e bf1e 62bd 3634 02bc
000000a0: 3e65 2cbe 6b74 cfbc a45a 7c3d 88ac 4cbd
000000b0: d63d 013e 06bf d23d 1f1d a23d 747c a0bd
000000c0: 6353 083e 936e d63d 9a30 cb3c 45a0 413d
000000d0: ec0f cdbb 7d9f 383d a33b c9bd bba4 043d
000000e0: 34bc 54bd c097 e03c 4eaa b6bd 1500 77b8
000000f0: 2c44 7b3d 2fac 043c 6295 193d 58c6 f3bd
00000100: b219 183e cc30 67be ef6d 0d3e 3e48 533d
00000110: daaf 1c3e 2df5 adbd 580a 03bd e355 433c
00000120: 570e 6abd db3c d93c a997 adbb 2c5c a83d
00000130: 1e56 493e b987 153d cc19 0cbe 9662 723d
00000140: b867 1a3e b2df dabd 7ab0 c63b 4aeb a9bd
00000150: 91c3 efbc f694 3abe e48f 90bd 879a 8fbd
00000160: 3b4f d4bd 62b2 83bd 07d0 dabb f760 c5bd
00000170: 2ffa 0bbd a81a 96bc 6d68 8fbc 5b8c 1ebd
00000180: a285 1e3e 9760 a8bd adba 343e 190e 4dbe
00000190: c1ba 1cbe 2d56 213e 0f07 bcbd 9bc2 123e
000001a0: d8df a3bd 061f 40bd b620 f53d 46f9 b43d
000001b0: 0167 183c 70da 19be 119a 59bd 8821 a2bd
000001c0: 802b 3abd 1d43 ffbd 2aaa 2dbd c163 ce3c
000001d0: c09a 6ebb 886f 953c 125f a3bd 8231 8a3b
000001e0: 159e 023d 4c99 1f3e 1ba3 dabd b3b4 703e
000001f0: d186 403d 1fcf 173e 27dc aa3d 0bd3 8b3c
00000200: 6baf 89bc de4e 3bbd 148b 4abd d2fd 32bd
00000210: aaab 773d 3b7a 70bc 150d 433c 403b 363e
00000220: 0816 d03d 21a9 dabd b356 1dbd 95d8 653c
00000230: c99b 533e c743 4b3d 5434 eebc 8f05 18be
00000240: 4e90 4a3e 84eb 5ebd 2360 853e ab99 0fbe
00000250: c8b0 2f3e 142b 0dbe 94b5 0a3d 193e 6c3c
00000260: 4b5b 203e 0a6f 0c3b 09f3 efbd cd01 dabd
00000270: e2d2 f33d 6bcd 2b3e 74df c93d 056a f23d
00000280: 4fc2 62bd f861 af3c b639 253e afda fb3b
00000290: dbfa 06bd 960e f43d 9b9c 853c f454 b4bc
000002a0: a8ee 4bba e384 08bd fbb2 0a3e 9489 c0bd
000002b0: 3cae 4ebe 839a c03d 6a21 f93c 5c86 58bd
000002c0: e93a c7bd cb8e 8f3b 1974 9abe ce77 263e
000002d0: 73d6 d83d 478a 6e3d b6da 383e b4bf 94bc
000002e0: 68a0 c3bd d108 773d 656f 053e 63fc febd
000002f0: f86d 10bd c4ef 583c 9ebe 2c3e c89f a73b
00000300: 7ed0 32be 3c0e 90bd 8760 4dbe ab13 6cbd
00000310: b2f1 c43d 516f e8bc f37a cbbb 83df 963d
00000320: fce4 09bd d100 493d 888b acbd 10e6 463d
00000330: 5bd6 20be e7da 2abe 4485 b3bd 1e40 043e
00000340: 477f a03d 88b2 533e b5f9 7b3c a656 a5b9
00000350: 56e6 38bd 47ca 83bd c9be 82bd a0bb 1d3d
00000360: d79f 9b3d c6f8 0a3c 8453 07be 3492 243d
00000370: 0a78 19be 074c 70bd d577 68bd 4d5a 5b3d
00000380: 50af c63c 3202 3dbd 920b 5f3d 759f 42bd
00000390: f8e9 0a3e 57a1 d73d a594 313d 61ad 2cbd
000003a0: cfe5 6fbc 7084 023e cac9 85bd 2159 db3b
000003b0: 7229 e13c 8d42 003e 0906 823d 36ed 193d
000003c0: 59fe c73d 0991 aabd f295 753d bc22 063d
000003d0: 2f14 4bbe 0e48 353d 7917 63be 7b23 06be
000003e0: 0775 88bd ee67 f23c 641f 24be 32e3 3e3d
000003f0: 187d 0fbd 1d9e 87bd 28fd b63d 742c 8ebd
-0.12603529 0.0754326 0.061942987 -0.01921628 0.22924903 -0.08014435 -0.030234305 0.09746476
0.19852649 -0.10070771 0.07586293 -0.16789477 -0.016879981 0.24648292 0.044079922 -0.09019872
-0.04531608 -0.1811136 0.06746856 -0.047083165 -0.1441943 -0.10224501 -0.06968478 -0.04266898
-0.0041355197 -0.18794517 0.16886629 -0.062970005 0.035270587 -0.06250623 0.031040462 0.03799834
-0.14385256 0.05471575 -0.08300959 0.017730042 0.14669332 0.15041271 -0.055205103 -0.007947018
-0.16835496 -0.025324067 0.06160988 -0.049969226 0.12621245 0.10290341 0.07915711 -0.078362375
0.1331306 0.10470309 0.024803448 0.047271986 -0.0062580016 0.045073975 -0.09825828 0.03238366
-0.051937297 0.02741611 -0.08919202 -5.8889465e-05 0.06134431 0.008097692 0.03749598 -0.119030654
0.14853552 -0.22577208 0.13811468 0.051582567 0.15301457 -0.08494029 -0.031992286 0.011922332
-0.05714258 0.026518276 -0.0052976203 0.082207054 0.19661757 0.03650639 -0.13681716 0.05917605
0.15078628 -0.10687198 0.006063518 -0.08296831 -0.029268058 -0.18220887 -0.07058695 -0.070118956
-0.103666745 -0.06430508 -0.006677631 -0.09637635 -0.03417414 -0.018323258 -0.017505849 -0.038708072
0.15480664 -0.08221548 0.17649336 -0.20024909 -0.15305616 0.1575553 -0.09181034 0.14332049
-0.08001679 -0.046904586 0.1196913 0.08836608 0.009301902 -0.15024734 -0.053125445 -0.07916552
-0.04545164 -0.12463973 -0.04239861 0.02519405 -0.0036408156 0.018241659 -0.079771176 0.0042173276
0.03188904 0.15585822 -0.10675641 0.23506431 0.04700357 0.14825104 0.08342772 0.017068407
-0.016807279 -0.04572951 -0.04944904 -0.043699093 0.060466446 -0.0146775795 0.0119049745 0.1779604
0.10160452 -0.1067679 -0.03841276 0.014028688 0.20664896 0.049625184 -0.029077686 -0.1484587
0.1978161 -0.054423824 0.2604991 -0.14023463 0.1715728 -0.13785964 0.033864573 0.014419102
0.15659826 0.002142849 -0.11716277 -0.10644875 0.11905457 0.1677758 0.098570734 0.11836628
-0.05536109 0.02140902 0.16135296 0.007685981 -0.03295408 0.119168445 0.016310027 -0.022013165
-0.0007779398 -0.033329856 0.13544838 -0.09401241 -0.20183653 0.09404471 0.03041144 -0.05286251
-0.09728033 0.004381036 -0.301667 0.1625664 0.10587778 0.05823734 0.18052182 -0.018157817
-0.095520794 0.060311142 0.13030775 -0.12450483 -0.035261124 0.013240758 0.1686959 0.005115483
-0.17462346 -0.07033965 -0.20056354 -0.057635944 0.09616412 -0.028373392 -0.006209725 0.0736685
-0.033665642 0.049073044 -0.08425051 0.04855925 -0.1570677 -0.16685067 -0.08765653 0.12915084
0.07836776 0.20673573 0.015379359 -0.0003153581 -0.04514154 -0.06435066 -0.06384046 0.03850901
0.075988464 0.008482164 -0.13215452 0.040178493 -0.14987198 -0.058666255 -0.056754906 0.053552914
0.024253517 -0.04614467 0.054454394 -0.04751535 0.13565814 0.1052882 0.04335465 -0.042157535
-0.014642193 0.12745833 -0.06532629 0.0066939746 0.027485583 0.12525387 0.06348807 0.037579738
0.0976531 -0.083284445 0.059957452 0.03274797 -0.19831918 0.04425817 -0.22176923 -0.13099472
-0.06662946 0.029590573 -0.160276 0.04660339 -0.035031408 -0.066219546 0.089350045 -0.069420725

network_body._body_endoder.seq_layers.0.bias f4 [256]
00000000: b21a 28bc e3b7 623c d643 653c fcd6 8f3c
00000010: 0a4a 12bd be85 37bd 0ac4 373c f065 9c3c
00000020: cd39 10bd 3ad5 853c 1a80 c43a 3295 0e3d
00000030: 13cb bcbc f3af 063b 6355 8d3c 7203 f2ba
00000040: 13a7 1c3d ccfc a83d 5bf9 673c 7084 02bd
00000050: d996 9f3b ed44 373d 38b6 753c 0e23 21bd
00000060: 0971 343c a9ce 2ebb 923b 993b a9a5 7b3c
00000070: 6752 2c3c 0da4 b73c 39df 133c 4984 ebba
00000080: ec05 833b a23d 2d3c 1848 56bd 1cc2 c83b
00000090: 1e65 ae3b a9cb 863c a9bd 14bd aa86 52bc
000000a0: 6072 ab3b 85c4 043c 9382 143c d92a 013d
000000b0: 4eee 8635 e485 9c3c 7660 2c3c a268 f93c
000000c0: 2a5b 243d bebc 653c c81b 0c3d a954 a23c
000000d0: 5b03 1ebd 26d6 d33c e789 eebc 4d88 943c
000000e0: 3c63 9fbc ae24 31bd 84b9 48bc c903 343c
000000f0: 4dc2 5c3c b18d 863c 7e39 c7bc a7b9 843c
00000100: fa55 9a3b ea6f cf3c 9cbf 463c feae a43b
00000110: 3895 90bc 0651 943b 3618 043d 596f c93a
00000120: beab ccbc 6fbd 0bbb 21c3 82bc 4fba 363c
00000130: 0942 edba 444e ee3b 326a d2bb d36c 683c
00000140: a115 98bd 0257 0ebc baf0 363c 5fa0 e33c
00000150: bb0b 9b3c d076 b33c 83b7 d0bc 4e4f 0cbc
00000160: 0819 8fbc b8b4 333c 3df8 10bb 8d51 913c
00000170: 3fca 003d 54d1 523d 2e7f c8bc 2bb4 e83c
00000180: 6423 143d e745 703c f368 4e3c ce54 00bc
00000190: ce67 94bd 70d6 2d3d c94b 363c 0170 1fbd
000001a0: d9cd 49bd 3b6d 0b3c 867a e43c ef55 e0bc
000001b0: c4f3 bcbc bbe9 1a3c 2fcd b1bc 362d e03c
000001c0: 3f33 b7bb d09e 923c b86c b73c 3639 4f3c
000001d0: f95f 36bb bec3 943c f4f3 693c 718d 773c
000001e0: 36b8 5d3c 620e e33c dd56 d4bc c0e6 8f3c
000001f0: ffdf 513c 191d c73c 11ed 00bd 82cb 833c
00000200: a8ef 6e3c acf6 0a3d dd21 fd3c fe80 d03a
00000210: 1404 6a3a a307 ce3c 6d86 b9bc e8d6 363d
00000220: 8651 28bd dab5 2fbb 1652 85bc bfd2 ff3b
00000230: e6ac d23c 1dcb 823b 511f 2f3d 8ec6 1c3c
00000240: 8ece 5a3c b658 2fbd 9941 a33c 032f 123c
00000250: 3d11 0b3c 9568 6a3d 8108 963c 2204 97bc
00000260: a23c 693c a70e b53b 6bc4 91b8 5a6d a93b
00000270: c848 d13b de82 6f3b 23b5 493b 6dff 823d
00000280: 372a c6bc c961 e43c 6038 9d3b aaff 8b3c
00000290: 89ee 483c f666 07bd 9b66 98bc ab02 ba3b
000002a0: ba74 4ebd 81f2 c3bc 667d 443b a4d3 33bd
000002b0: f178 9e3c a16a 18bd aa2c 26bb 4a63 893c
000002c0: d3a6 92bc 9da3 ddbb e2e1 813c 2d98 3cbc
000002d0: 087e e23b 0d69 6dbc 0ae8 8d3c cf24 ce3c
000002e0: ced4 fa3b 4abe 24bd 866a bcbc 42ac 043c
000002f0: 01d0 28bb 0945 b93c 8360 6fbc ebc8 043d
00000300: 10cb cdbc 0ce0 c23c cc41 8f3c c06f 7f3c
00000310: fd75 b03b d7ce ba3c bdc3 aa3d 52f9 f3bc
00000320: 8a6a 0a3c b48d 9a3c 3309 bc3c 7d8b 613c
00000330: 328c a3bb 0073 19bd c847 5c3c 871d 973d
00000340: 74e8 9b3c 09d8 0a3d c7bb ee3c 457f 3f3a
00000350: d3a1 7a3c 8e39 5fbc 4a5c 23bd 56f6 3a3a
00000360: 253e c73c a027 103c 4103 58bb 9321 1cbd
00000370: 1b96 b73b 3c02 843c bba5 6f3c 21c5 643c
00000380: 1f7d 8e3c 94c2 13bd b5c9 463c 9e98 1fbc
00000390: 3845 2e3a 7ec5 843c 7ada 953c 7e17 db3c
000003a0: 7cd8 d5bc fa3a 04bd b3af a1bb 3f50 073d
000003b0: 29ff 23bb 7f83 273c 9422 253c 9d53 dfbb
000003c0: bf69 d2bb 4dd9 9e3b 99ae 33bd 467b e2ba
000003d0: 6427 fa3c 51e6 e13a 63f4 fabb 78a8 0abd
000003e0: 9d82 1e3c f7ee f8bc 3ce9 a3bd 8a9e 47bc
000003f0: 09e8 05bc ec82 bd3c 32e6 223c 71b8 973c
-0.010260271 0.013837787 0.013993224 0.017558567 -0.03571514 -0.04480528 0.011216173 0.019091576
-0.035211373 0.016337026 0.001499179 0.034810252 -0.023046052 0.0020551651 0.01725263 -0.0018464162
0.038245272 0.08251342 0.014158572 -0.031864583 0.0048702774 0.044743467 0.014997058 -0.03934007
0.011013278 -0.0026673472 0.004676291 0.015359321 0.010517693 0.022417093 0.009025388 -0.0017968501
0.0039985087 0.010573776 -0.052314848 0.0061266553 0.0053221127 0.016454535 -0.036313687 -0.012849489
0.0052321404 0.0081034945 0.009064334 0.031535003 1.0053134e-06 0.019106813 0.010521045 0.0304454
0.040126003 0.01402205 0.03420618 0.01981576 -0.03857742 0.02585895 -0.029118491 0.0181314
-0.019456498 -0.04324787 -0.012251262 0.010987231 0.013474059 0.016424986 -0.024319407 0.016201807
0.0047099562 0.02532192 0.012130644 0.0050257435 -0.017649278 0.0045262603 0.03224965 0.0015368267
-0.024984237 -0.0021322628 -0.015962185 0.011152818 -0.0018101345 0.0072725136 -0.006421351 0.014186102
-0.074260004 -0.0086877365 0.011165792 0.027786432 0.018926492 0.02190724 -0.02547813 -0.00856383
-0.01746799 0.01096838 -0.0022120618 0.017739082 0.031442877 0.051469162 -0.024474707 0.028406223
0.036166564 0.0146651035 0.012598264 -0.007832719 -0.07246362 0.04244083 0.011126467 -0.038925175
-0.049268577 0.008509929 0.027890455 -0.027384726 -0.023065455 0.00945514 -0.021704284 0.027365308
-0.005590826 0.017897993 0.022390708 0.0126479175 -0.00278282 0.018159743 0.014279354 0.015109406
0.013532689 0.02771682 -0.025920326 0.017566085 0.0128097525 0.024305867 -0.031476084 0.016088251
0.014583506 0.03392665 0.030899936 0.0015907583 0.0008926999 0.025150126 -0.022647107 0.044638544
-0.04109337 -0.0026811273 -0.016274493 0.0078071053 0.02571721 0.003991498 0.042754475 0.0095688235
0.013354911 -0.04280921 0.01992874 0.008922341 0.008487997 0.057228643 0.018314602 -0.018434588
0.014235647 0.0055254283 -6.9507245e-05 0.0051705064 0.00638685 0.0036546509 0.0030778132 0.06396375
-0.024190051 0.027878659 0.00479798 0.017089684 0.012263902 -0.033057176 -0.018603614 0.0056765876
-0.050404288 -0.023919346 0.002998197 -0.043903008 0.019344779 -0.037211064 -0.0025356212 0.016770978
-0.017901814 -0.006763889 0.01585478 -0.011510891 0.0069119968 -0.014490378 0.017322559 0.025164036
0.007654763 -0.040220536 -0.023000013 0.00809771 -0.0025758746 0.022615926 -0.0146104125 0.032418173
-0.025121242 0.023788475 0.01748743 0.015590608 0.005385159 0.022803707 0.08338115 -0.029781971
0.008448252 0.018866397 0.022953605 0.013766167 -0.004991078 -0.03746319 0.013444848 0.07378679
0.01903174 0.033897433 0.029142274 0.00073050364 0.015297371 -0.013624562 -0.039882936 0.0007132044
0.024321625 0.00879851 -0.0032960924 -0.038117956 0.0056026108 0.016114347 0.014626916 0.013963015
0.017393647 -0.036074236 0.012133052 -0.009740977 0.00066478876 0.016207453 0.018292654 0.0267446
-0.026104204 -0.032282807 -0.004934275 0.033035513 -0.0025023913 0.010224222 0.010079045 -0.0068153874
-0.0064212973 0.0048476816 -0.04386768 -0.001727917 0.030536361 0.0017234777 -0.0076585277 -0.03385207
0.009674695 -0.030387385 -0.0800347 -0.012183795 -0.008172997 0.023133717 0.009942578 0.018520566

network_body._body_endoder.seq_layers.2.weight f4 [256, 256]
00000000: 40f8 ab3c 378c b7bc f101 95bc 3907 1fbd
00000010: 2439 3ebc 16d5 e4bd 066f f03d 0df8 d93c
00000020: eff9 893c 92ba 88bd 5c1f 17be 6ae7 153e
00000030: 2c60 72bd a461 ecba a2a1 95bd 8cd0 d7ba
00000040: c7b6 94bb 5746 7bbc 6e1b 03bd 9365 47bd
00000050: befb 31b8 8eb5 d43d 2768 08bd 8980 c2bd
00000060: 639e 593c d0a1 5c3c ee80 b33d 1b8f c03d
00000070: f1c8 963d 58c1 7e3d f701 333d f26e 7a39
00000080: 229b 87bd 4260 b83c 7db4 99bd f381 2dbd
00000090: 5b0d d5bd 83de a8bb 197e 203e d778 163c
000000a0: f836 2e3d 3b37 3c3e 4cc3 3e3d 85a5 263e
000000b0: c239 87bc 095b 123d ed05 86bd dbaa d7bc
000000c0: 8c56 2fbd 68b0 f1bc 684b 203d 9009 063d
000000d0: 6cb8 95bd c9dd 8d3d 210d 4d3d 7458 9f3d
000000e0: 1d3d c33c db82 0cbc 3bc2 3f3d 35fa b2bc
000000f0: 9b12 c7bc cd3c aa3d 60f5 fbbc 4440 703d
00000100: 40f9 3bbd 5f4c 9a3d 198e 8f3d 2629 c03c
00000110: 645e ee3b e1f3 99bc b804 a0bd 4829 31bd
00000120: fcda 6e3d 2d50 6ebd 1cf6 ecbc 63ab 0e3d
00000130: de95 a03c 0687 86bd cbe1 b23d fe88 213d
00000140: 7d52 14bc a7de c23d fffc 2d3e 73e1 47bd
00000150: 1b3a a5ba d09b be3c cc05 b4bd e398 66bd
00000160: 9a60 aabd 9409 dcbc 1d34 ae3d e070 2bbd
00000170: 1910 c63c a47b 843d 8bf3 febc 3907 2bbd
00000180: e23e bc3b 519a 883d be3c 5c3d f850 41bd
00000190: 16ba a23b 5ce2 863c fd72 833d 3b29 0d3e
000001a0: 6f17 a33c ae47 33ba 9394 41bd 41ec 4fbc
000001b0: efe6 2bbe 30a5 e5bd 25c1 8a3d 19f6 963d
000001c0: b02d c0bd 1cc7 b4bd 564a c7bd 6073 92bc
000001d0: d4a0 243c 04be a1bd f7ca 733c 4ba3 053e
000001e0: cebc 323d a025 9d3d 511a c93d a070 f73d
000001f0: f241 083e 4a97 a63c 1c1b 833d a7f0 d03c
00000200: 27c9 9a3d e6c6 bcbd a65a f93d 8261 8abd
00000210: fe03 a03c c56a 223d 4385 cd3d 9edb 39bd
00000220: 26d6 bd3c 29ca 94bd 810b 87bd f727 c73d
00000230: b0e5 32be ad1c a73d 58ec f2bd 1f1d 763c
00000240: 2eb9 883d 7138 43bc 6da6 87bd 1981 70bd
00000250: a253 ef3c 6b61 89bc ace4 ba3b 8989 9dbd
00000260: 1b78 abbb c1a7 ee3d 749c 1c3d 64e9 0e3d
00000270: 491d a53c 8993 b9bd 4a1d 983c 94dc 8e3a
00000280: 8940 bb3d 6e66 d3bc 84d6 0ebe c375 7abd
00000290: 0818 76bc 65bd 6abd fc71 61bb e612 09bd
000002a0: fd31 483d 0364 c13c 71b9 82bd 539d 2a3d
000002b0: 6ced 433e 5a23 71bd 2fdf c9bc 08e6 933d
000002c0: 2b38 bfbc cc32 a03c d543 203d 7a56 433d
000002d0: 6599 7a3d ad92 e9bc f58c 78bd f1f6 503d
000002e0: cf0c f53c 9bb1 e93c 27ff efbc e7eb 593d
000002f0: 703b 0c3d bfe5 d53d 8267 4ebd a46c a73c
00000300: 03a0 8bbc e22a 953c 8edf 31be 3176 163c
00000310: 7bd0 0c3d 450c 843d c17b 83bd b53e 2a3d
00000320: 9deb f63c 66f0 593c ce40 04be 3f71 dabd
00000330: 3354 5f3c 0d15 32bd 8e17 f4bc 89fe 833d
00000340: 294c 973c 0c2f de3b df6f 7d3d a57c cdbd
00000350: 5b65 c4bc 0f78 09be b469 61bc 16e0 183d
00000360: 10d5 703d e6f5 fcbc 5c46 123d 71dd 673c
00000370: c8bf 15bd 3afa 8b3d 5bd0 c43c 3578 c63b
00000380: 7b7a a63d 4944 133d 2e25 bf3d 0c25 a43d
00000390: c1ee de3d 76e4 4f3d 5000 f33c d4d5 943d
000003a0: 0ede 5abd c8d5 7ebd dec4 243c 4c59 003d
000003b0: 5586 8dbc 3663 4b3d e8b5 85bd 16a2 e0bc
000003c0: e545 f83d d2ea 1b3d 6b36 b83b 2446 56bc
000003d0: 4644 ac3a 742e cfbc 00c4 7cbd 15e2 703d
000003e0: 849b 783a 09b8 c7bc ca5f 833d 68cd d7bd
000003f0: 2e44 193c 1f2d 65bd 685a 053d 4354 123d
0.020992398 -0.022405727 -0.018189402 -0.038825247 -0.011610303 -0.111734554 0.11739926 0.026607538
0.01684281 -0.066762105 -0.14758056 0.14639059 -0.059173748 -0.001803447 -0.0730622 -0.001646535
-0.0045383903 -0.015336595 -0.03200858 -0.048680853 -4.243454e-05 0.10386191 -0.033302452 -0.094971724
0.013282391 0.0134663135 0.08764826 0.09402295 0.07362545 0.062196106 0.043703046 0.00023883188
-0.06621386 0.022506837 -0.075051285 -0.042360257 -0.10402938 -0.0051534786 0.15673102 0.009184084
0.04253289 0.18380444 0.04657297 0.16274078 -0.016507033 0.03573135 -0.06544099 -0.026326587
-0.042807147 -0.029503062 0.039134413 0.032723963 -0.07310566 0.06927068 0.05006135 0.07780543
0.023832852 -0.00857612 0.046816092 -0.021847824 -0.024300864 0.08312378 -0.030756652 0.05865504
-0.045892 0.07534098 0.07009525 0.023457121 0.007274436 -0.018793048 -0.078134 -0.04325226
0.05831431 -0.05818193 -0.028925948 0.034831416 0.019602712 -0.065687224 0.08734473 0.039437287
-0.00905287 0.09515124 0.16991042 -0.04879899 -0.0012605818 0.023267657 -0.08790168 -0.056298148
-0.083192065 -0.026860036 0.085060336 -0.041855693 0.024177598 0.06468895 -0.03112199 -0.041754935
0.005744801 0.066700585 0.053768866 -0.04719636 0.004966031 0.016465358 0.06418417 0.1378526
0.019908635 -0.0006838989 -0.047260832 -0.012690605 -0.16787313 -0.11213148 0.06775121 0.07371158
-0.09383714 -0.088270396 -0.09730975 -0.01787728 0.01004811 -0.07897571 0.014879934 0.13050573
0.04363709 0.07673192 0.098194726 0.120820284 0.13306406 0.020335812 0.06401655 0.025505377
0.07557898 -0.09217624 0.12175493 -0.067568794 0.019533154 0.039652605 0.10035183 -0.04537546
0.023173403 -0.072651215 -0.06593991 0.097244196 -0.17470431 0.08159766 -0.11861485 0.015021591
0.06675945 -0.011915312 -0.0662354 -0.058716867 0.029214684 -0.016770085 0.0057035293 -0.076922484
-0.0052328235 0.1165309 0.038235143 0.034890547 0.020155566 -0.09061343 0.018568654 0.0010899478
0.091431685 -0.025805678 -0.13949019 -0.061147463 -0.015020378 -0.057309527 -0.0034400215 -0.03346529
0.048875798 0.02360726 -0.063830264 0.041653942 0.19133538 -0.058871605 -0.024642555 0.07221609
-0.023342213 0.019555472 0.03912719 0.047689892 0.061181445 -0.028512323 -0.060681302 0.05101675
0.029913334 0.028527072 -0.02929647 0.05320349 0.03423637 0.10444211 -0.05039168 0.020437546
-0.017044073 0.018208925 -0.17370436 0.009183452 0.03437851 0.06447653 -0.064200886 0.04156371
0.030141646 0.013301944 -0.12915346 -0.10666131 0.0136309145 -0.043477107 -0.029796388 0.06445033
0.018468933 0.006780511 0.061874267 -0.1003354 -0.023974111 -0.13424705 -0.013758112 0.03732308
0.058796942 -0.030878972 0.03571163 0.014151917 -0.03655985 0.06834836 0.024025133 0.0060568103
0.0812883 0.035953794 0.09333263 0.08014879 0.108853824 0.050754987 0.029663235 0.07267347
-0.053434424 -0.062215596 0.010056702 0.03133516 -0.017275969 0.04965516 -0.065288365 -0.027421039
0.12122706 0.03806574 0.0056217215 -0.013078246 0.0013142906 -0.025290705 -0.061710358 0.05880936
0.0009483623 -0.024379747 0.06414755 -0.10537225 0.009354634 -0.055951234 0.03255692 0.03572489

network_body._body_endoder.seq_layers.2.bias f4 [256]
00000000: 6fcc c03b aae5 893c ea16 923b 706f e53b
00000010: 11e4 143c f733 8f3c ecd4 a13b 775a 643a
00000020: 0f1d 163c 0a01 c7bc 3243 96bc 529c 313c
00000030: 5653 a83c 0084 fbbc 28fb fc3c b158 a7bc
00000040: 5a44 57bc a928 ef3c a5ed 8c3c 144c 533d
00000050: 3c1c 373d 2439 2abd bea3 11bd 32c3 083d
00000060: e2b3 2abd b8cd e5bc fd29 a7bc 3b37 053d
00000070: f72f d0bb c075 d2bc 774e 6a3c 046f 8f3c
00000080: ff88 b7bc f9cf 1e3c 94ee 3d3c baca ddbc
00000090: 23c8 ca3c ba62 473b c164 8a3c 13ec 93bc
000000a0: 0b5a 9e3c ef8c eabc efb2 93bc a870 b1bc
000000b0: b38f 02bd 32c5 133c 0091 30bd a00f d6bc
000000c0: 9c22 b43c cfa3 36bd ff06 323d b9b9 ce3b
000000d0: 5cd1 bbbc 17dc 1c3c d393 bf3c e85e 62bc
000000e0: 5d1c c9bc fec2 e93c 3d88 673c afcd b8bc
000000f0: 2fdb 473c 9c00 a7ba c216 25bd 4aea 893b
00000100: 297d 6bbc 7bf4 ffbc fd52 d8bc d993 823c
00000110: bf5d b5bb a66f 81bc 241c 38bc 3d0a eabb
00000120: 8751 8d3c 5a78 363c a285 0cbd 5abb 17bd
00000130: 773b 2b3d 9609 19bb 6c69 b4bc b44e e0bc
00000140: 0767 233d 7823 243d b600 873b d35e 093a
00000150: 8d04 d03b e56f e7bc 4762 96bc fffb cbbb
00000160: d38f eebc a742 33bc c3dd 86bc 723d 3fbc
00000170: cfda bebc 26b6 5e3c 238f 25bc e14a 023c
00000180: c8a8 a9bb bd81 95bb 2f22 8fbc 9701 11bd
00000190: 825b 053b 25c1 b6bb aeef ac3c d2d7 543c
000001a0: 95bd a9bc 8d7c 8a3b e348 09bd 92d4 08bd
000001b0: 7fd9 cc3c 9df9 823c 8827 9ebc 73bb 033c
000001c0: e249 65bc eafd b13c 5aa9 fbbb ea06 833b
000001d0: ce07 dcbc 717e eb3a d902 293d 5915 5cbc
000001e0: 39ee 7ebc 516d 0fbd af0a 4b3c 268b c7bc
000001f0: ba00 b8bb 82b2 753c 159d 1d3c c0ee 97bc
00000200: b374 903c f55d 2b3b 7397 a33b bfb8 933c
00000210: 9434 293c 7f93 c23b 6cbf 603c 9a33 e2bc
00000220: 961e 6d3c e2e3 0ebc 305f 413c 18d1 213b
00000230: 8609 15bc 91a2 7cbc abf1 14bd 0224 6e3c
00000240: 11c0 afbb 3c77 143c e899 a83c 6992 433d
00000250: f141 a43c 097e 01bd e76e 0c3d a26d d4bc
00000260: 321a d9bc 17e4 5ebb 6a98 b03a c8a4 653b
00000270: 1520 c53c 3061 013c fa35 7d3c cc00 6abc
00000280: 6060 193c 551a 5f3c 6379 a93c fada 383c
00000290: ba78 a13a 3815 23bb 31fd 763d dd3e acbc
000002a0: 6cac 4a3c 8b8a 5f3c 879b a83b 9ca2 823c
000002b0: 3f13 17bd b4ca 0dbd a16f 093c fb89 1abd
000002c0: ac99 293c 9a13 c8ba c268 d9bc 6cb4 b1bc
000002d0: 4111 42bc 9559 c4bc 3bb7 8d3c f9d9 a0ba
000002e0: 7507 323c fc38 11bd 451c 2fbc a52a d3bb
000002f0: 9db1 d73b 49ea a73c e908 07bc c451 d2bc
00000300: c21a 603c 15c6 8fbc d553 44bc 9d12 4b3d
00000310: 43dc c63b 13d1 23bc c30c 89bc fc25 68bb
00000320: 34cf c33c bee6 f5bc 8fb8 06bd b3de 933c
00000330: 806f 993c 490a ef3a 6da1 bb3c f137 3839
00000340: 0b21 f0bc 64f8 f9bc 5530 58bc 05b3 6fbc
00000350: e2b8 07bd 1901 a3bc 5c4e abbc 92cc b23c
00000360: 8d88 153d 7b60 103c 0803 113d 558b 823b
00000370: d8fe b9bc e751 0ebd 101c 9c3c ca21 ecbc
00000380: e92a 303b c639 e43c 7cf6 26bd 7f4f 0b3c
00000390: 1c76 5d3d 5f25 bfbc b694 0bbd b136 d2bc
000003a0: 9df9 7a3c 9f21 513c a3d7 873c 5f39 a03c
000003b0: 2bbf e8bc 440f 733c 5c38 433c b250 433c
000003c0: 897f d9bc 07f3 063b 51ea 253b d9c0 6a3c
000003d0: 842d bcbc cb69 383c d4ed 833c d6e6 b53c
000003e0: b7bd 23bd 8380 80bc 7a4f f1bc c4c4 f43b
000003f0: ca8c d5bc 58c9 843c ae32 4b3b f752 ca3c
0.0058837454 0.016833145 0.004458298 0.00700181 0.009087578 0.017480833 0.0049387123 0.000871099
0.009162202 -0.024292488 -0.018342588 0.010840492 0.02054755 -0.030702591 0.03088148 -0.020428034
-0.013138855 0.029194193 0.017203161 0.051586226 0.04470466 -0.0415584 -0.035556547 0.033389278
-0.041675456 -0.028052196 -0.020405764 0.032523375 -0.006353374 -0.025690913 0.014300934 0.017508991
-0.022404192 0.009693139 0.011592526 -0.027074207 0.024753636 0.0030423836 0.016893746 -0.018056905
0.019330045 -0.028631655 -0.018029658 -0.021660164 -0.031875324 0.009019183 -0.043107033 -0.026130497
0.02198916 -0.044589814 0.043463703 0.006308761 -0.022926979 0.009573958 0.023385918 -0.013816573
-0.024549657 0.028535362 0.014131603 -0.022559015 0.012198254 -0.001274127 -0.040304907 0.0042088376
-0.014373102 -0.031244507 -0.02640676 0.01593964 -0.005534857 -0.015800308 -0.011237178 -0.007142334
0.01725079 0.0111370925 -0.03430713 -0.037043907 0.041804757 -0.002335166 -0.022022925 -0.027381279
0.039893176 0.040072888 0.004119958 0.0005240265 0.0063481987 -0.028251598 -0.01835741 -0.0062251086
-0.029121315 -0.010941184 -0.016463166 -0.011672365 -0.023297695 0.013593232 -0.010104927 0.007952423
-0.005177591 -0.004562585 -0.017472355 -0.035401907 0.0020348732 -0.005577224 0.021110382 0.012990909
-0.020720283 0.0042262734 -0.033516776 -0.033405848 0.025006054 0.015988166 -0.01930596 0.008040297
-0.013994666 0.021727521 -0.0076801004 0.003998627 -0.02685919 0.001796676 0.04126248 -0.013432824
-0.015559726 -0.03501636 0.012392684 -0.024358343 -0.005615321 0.014996173 0.009619971 -0.018546462
0.017633772 0.0026148532 0.0049924194 0.01803243 0.010327477 0.005937993 0.0137175135 -0.027612496
0.014472624 -0.008721324 0.01180248 0.002469128 -0.009096509 -0.015419618 -0.036363285 0.014534952
-0.0053634723 0.009061631 0.0205812 0.04774705 0.020050975 -0.031614337 0.034285452 -0.025931183
-0.026501749 -0.0034010464 0.0013473157 0.0035040844 0.02406315 0.007896706 0.015454764 -0.014282417
0.0093613565 0.013617118 0.020687765 0.011282677 0.0012319305 -0.0024884474 0.060300056 -0.02102607
0.01237021 0.013643871 0.0051454934 0.015946679 -0.03688359 -0.03461714 0.008388431 -0.037729245
0.01035158 -0.0015264631 -0.02653921 -0.021692477 -0.011844934 -0.023968497 0.017299285 -0.0012271992
0.010866036 -0.035454735 -0.010687892 -0.0064442926 0.0065824524 0.020497458 -0.00824187 -0.025673755
0.013678255 -0.017550508 -0.011982878 0.049578298 0.0060687377 -0.009998578 -0.016729718 -0.003542303
0.023902513 -0.030017253 -0.032890853 0.018050527 0.018729925 0.0018237318 0.022904122 0.00017568447
-0.029312631 -0.03051395 -0.013195117 -0.014630084 -0.033135302 -0.019897984 -0.020911388 0.021826062
0.036507178 0.008812065 0.03540328 0.003983895 -0.022704527 -0.034746077 0.01905635 -0.028824706
0.0026881045 0.02785958 -0.04076241 0.00850284 0.054067716 -0.02333325 -0.03407737 -0.025660845
0.0153183015 0.012764364 0.016582316 0.019558607 -0.028411468 0.014835183 0.011915293 0.011921095
-0.026550071 0.0020591633 0.0025316665 0.014328205 -0.022970922 0.011255692 0.016104616 0.022204798
-0.039975848 -0.01568628 -0.029456843 0.0074697454 -0.02606811 0.01620929 0.003100555 0.024697764

action_model._discrete_distribution.branches.0.weight f4 [3, 256]
00000000: 5417 48bc e346 e0ba 6afe 5a3b 75ef 463b
00000010: 8047 84bc 6005 943b 418a 92bb 11eb df3c
00000020: 3fda ac3b 164a 25bc e11f f13b 5e30 a3bc
00000030: 5b17 4f3c 04f9 4fbc c75d d7bb b91b 57bd
00000040: 823e c9ba 971f ec3c 704a 173b 4c3e 4f3d
00000050: 9d56 0b3d f004 02bd f127 8ebc 6734 d53c
00000060: 4c2d c2bc 29f8 01bd 53eb 2dbc 883c ad3c
00000070: 871c 82bd 0e4e 8bbb 68b2 923c 2fc7 0a3b
00000080: ee1c b6bb 3617 c6bb f63a b33b de9f 0cbc
00000090: aea9 883b 08b4 fc3c e915 8cbb 4b6b 143b
000000a0: ab10 3e3b ad39 b2bc 691d 76b9 a4d6 fcbb
000000b0: fe6b 5cbd f9b4 033c 2aaa b5bb 3f16 02bc
000000c0: 97d7 943c 7461 febc a994 843d 0b4b eabc
000000d0: 93ca a1bc 79bd 39bc bd08 833d 07de 4dbc
000000e0: 986e 9b39 1777 063d 385c d9ba 0ccb 89bc
000000f0: 919e 26ba 2486 aebc a7cb a2bc 7e3b 81bc
00000100: d25a 70bb a5d6 94bc 5e6f 82bc 4f51 223c
00000110: 22a8 ca3c 5ab3 3c3b b92f 11bd 407a 4738
00000120: 7c02 e53b f9f1 bcbb 870f 25bd 61e3 ccbc
00000130: 54a4 033d 09d6 14bd 3c66 8db9 c7f5 37bc
00000140: 9d28 9b3c 6b08 903b 542e fe3b 8700 17bd
00000150: 2503 c43c eb06 a9bc 4158 85bc 127c 013c
00000160: d5e5 88bc 3676 043c 85ad d6bb e795 443c
00000170: 94a7 dfbc 356d a9ba 22f1 ce3c 39de 96bb
00000180: b3f1 8a3c 14c7 fbbc 2192 903b 9cab 8bbc
00000190: 2cd5 823c 8cc8 3e3c 13df 00bb 8b43 003c
000001a0: 4d91 b439 5099 e5bc 3ae4 aebc 8196 7ebc
000001b0: 6c79 a63c e257 1fbc bda3 9dbc 21ad 24bb
000001c0: de98 8d3a 82ca 433a 22cb fdba 0006 9cbc
000001d0: 0ef9 d53b b70f 62bc a106 963c fee1 93bd
000001e0: ecaa 013c a467 bdbc 2292 8d3b cb7f 71bc
000001f0: c0ad 983b 37c8 da3a 937b b63b 3018 29bc
00000200: 2ae2 753c 31b9 71bc 1b33 30bc 7245 943b
00000210: 8c82 03bc b33b 68ba 2da5 b2bb 2d20 6ebc
00000220: e417 603b 63aa b0bd bb76 bf3b fcc1 87bb
00000230: 3637 bb3b f357 0fbc 977d d8bc 8cbf 6d3d
00000240: fe6c 3c3c 9a99 fd3b 9737 60bc 8974 d03c
00000250: bf03 603c be7f 9dbc bb15 893d 9261 36bc
00000260: 4191 93bc cb49 bebc 45f3 9c3c 7c13 51bc
00000270: c8c9 c63c 6cd7 a23b dee4 873b acaa 9c3b
00000280: 424e 40ba 7c0a e2bb bd58 20b9 fd99 273b
00000290: 2493 1e3c a096 783c d8e2 ee3d 6103 5cbc
000002a0: 48a0 493b c9a2 f3bb 1c35 88bb cc1b b6bb
000002b0: b3f2 ddbc 444b 5dbd cd53 27bc d8a8 88bc
000002c0: d8c6 20bc 3022 cc3c 577b eabb a9e1 d7bb
000002d0: d9e8 95bb 38cf 023c c021 7fb9 fd18 863c
000002e0: 1234 35bc 14e1 6bbc 53d1 49bd f417 b1bc
000002f0: 90db 81bc 0af5 263d 3251 093c 100a cfbb
00000300: 3e6f 1d3d 0c94 7a3a 6411 463b d10c 4f3d
00000310: ce47 bdbc 6017 093c f869 42bb b25b 4a3a
00000320: c614 943c 6a71 d5bc f2de cdbc 22a9 123c
00000330: f6dd 633c 6b41 85bc 9adc 423c 0a03 90bc
00000340: 1e12 40bc 0732 7cbc 3775 9abd 63d6 333c
00000350: 5d25 4fbc 91a9 aabb 40e5 36bb b18f 063c
00000360: 82ca 223d b6d2 c43b 5647 853c 27f5 383c
00000370: c637 2ebc c67a a0bc 3b90 d33a 64f3 07bd
00000380: c4b8 24bc 30a7 5a3c d485 27bd dece b1bb
00000390: 2d3d 103d b886 a3bc 48b0 aabc 5069 28bc
000003a0: 0ce6 313c 89a9 f13a 4c73 363b 6446 443c
000003b0: 2e5c 0dbc 86f0 b0ba 6039 31bc ccf4 de3b
000003c0: 7ad7 54bb f4f8 113c 8a2a 7abc d245 51bc
000003d0: e786 15bd 8344 3abc 89d8 a73b 3c09 263d
000003e0: c42f 13bd 8e65 70bc 8f58 f0bc d197 89bc
000003f0: a0dc 92bc a435 bf3b d6a9 00bd bdf4 883c
-0.012212593 -0.001711097 0.0033415803 0.003035513 -0.016147375 0.0045172423 -0.0044720476 0.027333768
0.0052750404 -0.010088464 0.0073585366 -0.019920524 0.012639846 -0.012693647 -0.0065724584 -0.052516673
-0.0015353712 0.028823657 0.002308514 0.05059652 0.034018148 -0.03174299 -0.01735303 0.026025964
-0.02370324 -0.031730805 -0.010615188 0.021147028 -0.063530974 -0.004251248 0.017907336 0.0021175852
-0.005557648 -0.0060452474 0.005469675 -0.008583037 0.004170618 0.030847564 -0.004275073 0.002264696
0.0029001634 -0.021756018 -0.00023471344 -0.007716017 -0.053813927 0.008038753 -0.005543967 -0.007939874
0.018169207 -0.031052329 0.06473667 -0.028600236 -0.019749915 -0.011336678 0.06398151 -0.0125651425
0.00029646303 0.032828417 -0.001658327 -0.016820453 -0.00063560257 -0.021304198 -0.0198725 -0.015775438
-0.0036675227 -0.018168757 -0.015922245 0.009907081 0.024738375 0.0028793425 -0.035445902 4.755915e-05
0.0069888216 -0.00576615 -0.04029801 -0.025010766 0.032139137 -0.036336932 -0.00026969786 -0.0112280315
0.018940264 0.0043955348 0.0077569876 -0.036865737 0.02392728 -0.020633182 -0.016277434 0.007903116
-0.016711155 0.008084824 -0.006551447 0.01199863 -0.027301587 -0.0012926223 0.025261465 -0.0046041277
0.016960954 -0.030734576 0.004411951 -0.017049603 0.015970789 0.011644494 -0.0019664213 0.0078286035
0.00034440533 -0.028027207 -0.021349061 -0.015538813 0.02032157 -0.009725543 -0.019243116 -0.0025127607
0.0010803004 0.00074688357 -0.0019362906 -0.01904583 0.006529934 -0.013797692 0.018313708 -0.07220839
0.007914286 -0.023120709 0.004320399 -0.014739941 0.0046593845 0.0016691749 0.0055689304 -0.010320708
0.015007535 -0.014753626 -0.010754372 0.00452488 -0.00802673 -0.00088589935 -0.0054518194 -0.0145340385
0.0034193927 -0.08626249 0.005843011 -0.004142998 0.0057133688 -0.008748996 -0.026427073 0.058044
0.011500595 0.007739258 -0.013685129 0.025446193 0.013672768 -0.019225951 0.06693598 -0.011131661
-0.018013598 -0.023228547 0.019158969 -0.012760993 0.024266139 0.004969528 0.004147156 0.004781088
-0.000733588 -0.0068982225 -0.00015291847 0.0025573962 0.009678636 0.015172631 0.11664361 -0.01342854
0.00307657 -0.007435177 -0.0041567218 -0.005557513 -0.027093267 -0.054026857 -0.010212851 -0.016682073
-0.009813033 0.024918646 -0.0071558165 -0.00658818 -0.0045748767 0.007983975 -0.00024331268 0.016369337
-0.011059778 -0.0143969245 -0.049271893 -0.021617867 -0.015851766 0.04076103 0.008381175 -0.006318338
0.038436167 0.0009558804 0.0030222768 0.050549332 -0.023105528 0.008367389 -0.0029665213 0.0007719352
0.018076312 -0.026055057 -0.025130723 0.008951457 0.0139079 -0.016266545 0.011893416 -0.017579574
-0.0117230695 -0.015392787 -0.07541888 0.010976407 -0.012643185 -0.005208202 -0.002790764 0.00821297
0.039743908 0.006006564 0.016269367 0.011288918 -0.010633415 -0.019589793 0.0016141006 -0.0331911
-0.010053817 0.013345525 -0.040899113 -0.005426272 0.03521459 -0.0199617 -0.02083601 -0.010279015
0.01085807 0.0018437366 0.0027839718 0.011979673 -0.008627934 -0.0013499416 -0.010816902 0.0068040844
-0.0032477067 0.008909453 -0.015268931 -0.012772994 -0.036505606 -0.0113688735 0.0051222485 0.04053615
-0.035934225 -0.01467265 -0.029339103 -0.016796025 -0.017927468 0.005835252 -0.03141197 0.016718263

action_model._discrete_distribution.branches.0.bias f4 [3]
00000000: 5c2d 893c 6a61 423b 2517 cbbc
0.016745262 0.0029660114 -0.02479131

action_model._discrete_distribution.branches.1.weight f4 [3, 256]
00000000: 6841 8c3c 98d1 9a3c 33a3 6f3c 054c 4f3c
00000010: f40d c03b 7ee4 a13c aafa 00ba 9555 803b
00000020: b8ff 8b3b 2d26 4dbc 40d4 233c a0d7 493b
00000030: 1534 0c3d fa5a bebc 399e 5c3a 5d04 f9bb
00000040: f112 67ba 3496 0a3c 2a79 20ba 6dc4 ab3c
00000050: 5f97 3f3d acd3 a6bc fbba 61bc 266f 513c
00000060: 5860 05bd da6e 88bc 9022 9abc 93bc ab3c
00000070: a5ae 88bc b43b 44bc 74d6 843c 7789 b93b
00000080: b9e6 9fbc 5556 a83c afa0 243c 3c0f 52bc
00000090: e624 80bb f861 66bc 071d f03b 8460 05bd
000000a0: 5213 0b3b 6271 babc 8656 4bbc 54a9 a1bc
000000b0: ce1b 5bbc fc15 d83b 3f0d 62bc 0fa1 cbbc
000000c0: 2786 de3c cf03 c1bc 800d 443d cf2f 6dbb
000000d0: c08a b1bc 9ac9 d1bc e346 313d 7c73 e7bb
000000e0: 2b48 37bc 06d8 07bb 700c 893b 07d5 b3bc
000000f0: d132 573c 6bc9 a5bb 550b f1bc 3ff4 5c3c
00000100: 48d5 bcbc c6d7 0cbd 5322 d9bb 494b 953b
00000110: 2a84 83bc 3d7c aabc ca43 7bbc ca4f aabb
00000120: 6388 413c 52c0 7fba cad0 fcbc 1fb8 c9bc
00000130: 476b b53c c3ec a3bb 8b2a 95bc 0535 50bc
00000140: edec 8a3c 7bb8 a53c 13ff 24ba 0e09 13b9
00000150: 2836 b9bc 0659 b7bc b640 88bc 2d06 9cbc
00000160: 0eb8 a0bb dd3f 9bbc ff7b ddbc 2ba6 acbc
00000170: 8362 94bc 6429 e53a 7222 b0bc d673 a33b
00000180: 7d94 d0bb 8b82 913b d01d 8cbc 8889 b9bb
00000190: 08d3 cc3b e3b1 1abc c25c 173c 9792 c03b
000001a0: b266 05bd 7d1c 84bb 270f cdbc 8abe ccbc
000001b0: b45b 763c 3d91 183c 907d bebc 7f23 2e3c
000001c0: 289a 32bc 6596 5e3c 4d38 90bc e4c9 fd3b
000001d0: f12b aabc e122 933c 4055 823c 4773 cfbc
000001e0: 899e 3cbc fec2 f5bc 2cc4 db3b c3d7 373b
000001f0: 0319 06bc 3373 89bb a590 003c ffe1 d9bc
00000200: be98 603c 5945 9d3a 04de b73b 57ab 9c3c
00000210: 8f01 a73b 32f8 293c c24b 3d3c bb65 b8bc
00000220: 82e5 333b 4091 18bc 5afb 533c 2155 133c
00000230: 73bf 9abc 676e 0c3b fcdd 92bc 451a b23b
00000240: 3a95 58bc 4eec b43b f1ef e33a f67c 65bc
00000250: c2b3 b23c 3bf0 d2bc 543d 443d a676 a1bc
00000260: b0b1 35bc ae0a 363a 817d 90bc 2e2c f6bb
00000270: 4d8e 693c 524a 433c 9510 113c 9a2e 0bbd
00000280: 4f47 463c d16a 7f3c e225 273c c323 7fba
00000290: 35c1 703a df29 4bbc 4528 3e3d 75e2 b2bc
000002a0: 629f 8c3c 412a 003c 60af 88bb a081 a23c
000002b0: c7ef 33bc 31b0 cebc 1279 c63b 3f80 bfbc
000002c0: ceb2 9e3c 64c6 72bc 070a 69bc 458d 87bc
000002d0: 4a68 75bc 5ec8 90bc 66f1 093c c8ce 45bc
000002e0: 0cc3 88bb 0b5a b2bc aefc d33b 4d02 7dbc
000002f0: b5b2 a03b 01cc 863c 56cf f7bb c8db bfbc
00000300: b716 813c bd15 9fbc 73f6 e0bc 6be2 063d
00000310: f82f 4b3c 3e8c 55bc 4dd2 24bd 8810 92bc
00000320: d78b 603c 0300 b8bc 2eb0 aabc e2cb 673c
00000330: 719b 193c 414f 6f3b 4ac8 853c d18f a7bc
00000340: 195f aabc ec83 91bc fb1d acbb 995e 83ba
00000350: b1da 7fbc 0076 b0bc beaa 89bc 7ba2 313c
00000360: 8ffb 53bb 3284 64bc 9351 cfbb 151c 9bbb
00000370: 8f51 25bc dadf abbc 3fab 8e3b 311e cfbc
00000380: 369e ac3b be6a 293c 920a 9ebc 5397 cf3b
00000390: 2c03 c6bb 34c2 84bc ccaa 0cbd 603a f4bc
000003a0: 7917 a03c 7d4e bd3b ef13 dd3c eb0f a0bb
000003b0: 3f14 b4bc 035c 373c 7a9b fd3a 5677 bd3b
000003c0: a9e1 70bc 54cf 03bc 86bf b03a cadb 153c
000003d0: 0bd9 8fbb ba75 213c 1485 2e3c 1c3a 453c
000003e0: 96b4 43bc 22b4 a6bb 77b2 c9bc f2e1 d43b
000003f0: e834 bbbc c10a cf3a 2676 f33a a680 aa3c
0.017121032 0.01889877 0.014626312 0.012652402 0.0058610383 0.019762274 -0.00049201644 0.003916452
0.0042724274 -0.012521309 0.009999335 0.0030798689 0.034229357 -0.02323674 0.0008415911 -0.007599397
-0.0008814773 0.008458663 -0.00061215705 0.020967687 0.046775218 -0.020364605 -0.01377749 0.0127828475
-0.032562584 -0.01665442 -0.018815309 0.020963943 -0.01668484 -0.011977125 0.01621554 0.005662139
-0.019519197 0.020548979 0.010048076 -0.012821015 -0.0039106486 -0.0140614435 0.007327679 -0.032562748
0.0021221233 -0.022759143 -0.0124107655 -0.019734062 -0.013373328 0.0065944176 -0.013797103 -0.024857072
0.027163578 -0.023561386 0.047864437 -0.0036191826 -0.021672606 -0.025608826 0.043280493 -0.0070633274
-0.01118664 -0.0020728125 0.004182391 -0.021952165 0.013134674 -0.0050594113 -0.029424349 0.013485967
-0.02305092 -0.034385465 -0.006626406 0.004556094 -0.016054232 -0.020811195 -0.015335986 -0.0051975
0.011812302 -0.0009756136 -0.030861277 -0.024623929 0.02214588 -0.0050025894 -0.018208763 -0.012707953
0.016958678 0.020229569 -0.00062941125 -0.00014022386 -0.022608832 -0.022381317 -0.01663242 -0.019045914
-0.0049047535 -0.01895135 -0.027036665 -0.021075329 -0.01811338 0.0017483649 -0.0215008 0.004988174
-0.0063653574 0.0044406108 -0.01710406 -0.005662147 0.006250743 -0.009441826 0.009238424 0.00587685
-0.03256864 -0.0040317164 -0.02503164 -0.0249932 0.015036512 0.009311971 -0.023253232 0.01062858
-0.0109010115 0.013585662 -0.017604971 0.0077450145 -0.020772906 0.017960967 0.015909791 -0.025323523
-0.011512407 -0.030000206 0.006706735 0.0028052188 -0.008184674 -0.004194641 0.007846986 -0.026597021
0.013708292 0.0011998817 0.005611183 0.01912467 0.0050966213 0.010374116 0.011553707 -0.022509446
0.002745003 -0.009311974 0.012938345 0.008992464 -0.018890118 0.002142811 -0.017928116 0.0054352605
-0.013219172 0.005521334 0.0017390234 -0.014006844 0.02181423 -0.025749316 0.04791005 -0.019709896
-0.011089727 0.00069443404 -0.01763797 -0.007512591 0.014255119 0.011919575 0.008854051 -0.03397999
0.012101962 0.015589432 0.010201903 -0.0009732807 0.00091840635 -0.01240012 0.046425123 -0.021836499
0.017165843 0.007822574 -0.004171297 0.0198372 -0.01098246 -0.025230499 0.006056913 -0.023376582
0.01937237 -0.014817808 -0.014223582 -0.016546855 -0.014978478 -0.017673668 0.00841937 -0.012073226
-0.004173642 -0.021771451 0.0064693308 -0.015442443 0.004904116 0.016454699 -0.007562558 -0.02342023
0.015757902 -0.019419545 -0.027461266 0.032930773 0.012401573 -0.013033925 -0.04023962 -0.017830148
0.013705215 -0.022460943 -0.020835962 0.014147731 0.009375439 0.0036515745 0.016330857 -0.02045432
-0.0207973 -0.0177631 -0.0052525974 -0.0010022699 -0.015616105 -0.021540642 -0.016805049 0.010841961
-0.0032345986 -0.013947533 -0.006326863 -0.0047335722 -0.010090246 -0.020980764 0.00435391 -0.025282951
0.0052678837 0.010340391 -0.01929215 0.006335178 -0.0060428586 -0.016205885 -0.034342572 -0.029812992
0.019542443 0.005777179 0.026987044 -0.00488471 -0.02198231 0.011191371 0.0019348704 0.005782048
-0.014702239 -0.008045036 0.0013484813 0.00914664 -0.004389887 0.009854728 0.0106518455 0.01203778
-0.0119449105 -0.0050873915 -0.024621231 0.0064966613 -0.022852376 0.0015796052 0.001857464 0.020813297

action_model._discrete_distribution.branches.1.bias f4 [3]
00000000: 7faa 9c3c 86c2 b4bc 51c6 31bc
0.019124268 -0.022065412 -0.010850505
