results/BotHalfLoop/BotControllerAgent/BotControllerAgent-3375219.onnx (onnx, 197119 bytes, 11 tensors)

discrete_act_size_vector f4 [1, 2]
0	0x40400000	3.0
1	0x40400000	3.0

network_body._body_endoder.seq_layers.0.weight f4 [128, 104]
0	0xbf105b95	-0.56389743
1	0x3d8ce9b9	0.068805166
2	0xbe93ba9c	-0.2885331
3	0x3dba5746	0.09098677
4	0xbdea9f47	-0.11456161
5	0xbd604922	-0.054757245
6	0xbd354add	-0.04426085
7	0x3f0e59ef	0.5560598
8	0xbd8901f2	-0.06689824
9	0x3e128528	0.14308608
10	0x3e148885	0.14505203
11	0xbd4e07c1	-0.050300363
12	0x3c3464c9	0.011010357
13	0xbb7c497c	-0.0038495949
14	0x3d11d83b	0.035606604
15	0x3e6eff35	0.23339541
16	0x3e8a6003	0.27026376
17	0xbe08efb3	-0.13372688
18	0xbed2b920	-0.41156864
19	0xbdb1d421	-0.086830385
20	0xbddbeea4	-0.107388765
21	0x3ddde004	0.10833743
22	0xbe3e2eb1	-0.18572499
23	0x3e19c83d	0.15017791
24	0xbd2d09dd	-0.042245734
25	0x3d00663f	0.03134751
26	0x3e3f5703	0.18685536
27	0x3eac2d9d	0.3362855
28	0xbe97a690	-0.29619265
29	0xbe723de7	-0.23656426
30	0x3ee6241f	0.44949433
31	0xbe03712c	-0.1283614
32	0x3d5e8eef	0.05433553
33	0x3d3a8829	0.04554001
34	0x3d2bdd19	0.041958902
35	0x3e6a4118	0.22876394
36	0x3eebad7a	0.4603079
37	0xbea66187	-0.32496282
38	0x3eab6cce	0.3348145
39	0x3bccc4da	0.0062490525
40	0x3e8815c2	0.265791
41	0x3db27f64	0.08715704
42	0xbeb4266b	-0.3518556
43	0xbddf7671	-0.10911263
44	0xbe337f35	-0.17528994
45	0x3e3d33fc	0.18476862
46	0xbe11d7a6	-0.1424242
47	0x3e24eaf4	0.16105253
48	0xbe722242	-0.23645881
49	0xbde29793	-0.11064067
50	0x3d12e51f	0.03586304
51	0xbdb1acc6	-0.08675532
52	0xbe013c75	-0.12620719
53	0xbbc9820f	-0.0061495374
54	0xbe357b63	-0.1772285
55	0x3da02190	0.078189015
56	0xbddaab42	-0.10677196
57	0x3cd676b7	0.026179655
58	0xbe4bdc0f	-0.19908164
59	0xbe8f5c60	-0.28000164
60	0x3efe3814	0.4965216
61	0xbd6afc2b	-0.057369392
62	0xba915552	-0.001108805
63	0xbdf8478d	-0.12123022
64	0x3d67db4b	0.05660562
65	0xbdcdc124	-0.10046604
66	0xbe33edbb	-0.17571156
67	0x3e33de84	0.17565352
68	0x3d0d65dc	0.03452097
69	0xbe380226	-0.1796957
70	0x3d08a11e	0.03335678
71	0x3e4c7236	0.19965443
72	0xbc96f431	-0.018426986
73	0xbc34adc2	-0.011027755
74	0xbdaaacfa	-0.08333774
75	0x3e12ec2f	0.1434791
76	0x3b624bbb	0.0034530002
77	0x3da7908c	0.08181867
78	0xbe0b7fa0	-0.13622904
79	0xbe4d59d7	-0.20053802
80	0x3e4b2026	0.19836482
81	0x3dfda6b8	0.12385315
82	0x3dd7d526	0.10538702
83	0x3df23a2b	0.11827501
84	0xbe8cdc0a	-0.27511626
85	0x3e2689fd	0.16263576
86	0x3e0b3322	0.13593724
87	0x3ed1b963	0.4096175
88	0x3c552664	0.013009641
89	0x3a5e2e16	0.0008475495
90	0x3c34ec75	0.011042704
91	0x3e3824dd	0.17982812
92	0xbe262f8f	-0.1622908
93	0x3cc1aa11	0.023640664
94	0x3e164269	0.14673771
95	0x3ebe2194	0.37134993
96	0xbd520b43	-0.05128027
97	0x3d9c122d	0.07620654
98	0xbec80fda	-0.39074594
99	0x3deb1170	0.11477935
100	0xbe99ed4a	-0.3006385
101	0x3c015732	0.007894324
102	0xbe99d300	-0.30043793
103	0xbd6e65fd	-0.058202732
104	0xbddf1fc6	-0.10894732
105	0x3d29a2ab	0.041414898
106	0xbe5e6f8c	-0.2172224
107	0xbe1f76de	-0.15572688
108	0xbd5d9d50	-0.054105103
109	0x3e4ff234	0.20307237
110	0x3c3881db	0.011261429
111	0x3e17aeed	0.14812823
112	0x3ebb9d2f	0.3664336
113	0xbd59564c	-0.053060815
114	0x3ea71778	0.32635093
115	0x3e7f57c9	0.24935831
116	0x3e272931	0.16324307
117	0xbe3a37e1	-0.18185379
118	0x3b20d09e	0.0024538408
119	0x3da8c059	0.082398124
120	0xbe4817c1	-0.19540311
121	0x3c97d4b1	0.018534036
122	0x3d5bb715	0.053641398
123	0xbe472f61	-0.19451667
124	0x3d87f919	0.066393085
125	0x3de31695	0.110882916
126	0xbe9dacbc	-0.30795848
127	0x3d2f5879	0.042808983
128	0xbd5122e8	-0.05105868
129	0xbd4a1983	-0.049340736
130	0xbd0d2199	-0.03445587
131	0x3f0bf526	0.5467094
132	0x3e63c15b	0.22241728
133	0xbe3ee541	-0.18642141
134	0x3e49d51a	0.19710198
135	0xbc6b9d63	-0.014380786
136	0xbe858c09	-0.260834
137	0x3d107f5f	0.03527772
138	0xbb478950	-0.0030446835
139	0xbd5bafa2	-0.053634293
140	0xbe3fae0f	-0.18718742
141	0x3e1470b6	0.14496121
142	0xbf69fdfa	-0.9140316
143	0xbea350e5	-0.31897655
144	0xbe4aa121	-0.19788028
145	0x3e03313f	0.12811755
146	0x3cdd6eee	0.027030434
147	0x3e0414c4	0.12898546
148	0xbdbdba6b	-0.09264072
149	0xbe548cb5	-0.207568
150	0xbe04d14d	-0.12970467
151	0x3f08c9ca	0.53432906
152	0x3e738a72	0.23783281
153	0xbced100b	-0.028938314
154	0x3d290d4d	0.04127245
155	0x3d4703d8	0.04858765
156	0xbdb80f0a	-0.089872435
157	0xbe217cc2	-0.15770248
158	0xbd7f5bce	-0.06234341
159	0x3e28a232	0.16468123
160	0x3db22371	0.08698166
161	0x3d816bf4	0.063194185
162	0xbef2c22b	-0.47413763
163	0xbdc9792f	-0.09837567
164	0xbea988c7	-0.33112165
165	0xbc035e00	-0.008018017
166	0x3e0c95c4	0.13729006
167	0xbe7aeed4	-0.24505168
168	0xbd9f02ad	-0.07764182
169	0xbd41c38f	-0.04730564
170	0xbe8b3d64	-0.27195275
171	0x3ed1ee5a	0.4100216
172	0xbdce78da	-0.10081644
173	0x3cc9a5a3	0.024615115
174	0xbf4b45b9	-0.79403263
175	0x3e198a67	0.14994203
176	0xbd7dd148	-0.061967164
177	0x3d72a779	0.059241746
178	0x3e140514	0.14455062
179	0x3e6dfd54	0.23241168
180	0xbd4e6fa0	-0.050399423
181	0x3e2d4a30	0.16922832
182	0xbf4e150b	-0.8050086
183	0x3dc6d6d9	0.09708948
184	0x3e505a9a	0.20347062
185	0xbc9d71d3	-0.019219315
186	0x3e1ad9ab	0.15122096
187	0xbdf7faca	-0.12108381
188	0xbe61a516	-0.22035632
189	0x3dbdba2c	0.09264025
190	0x3de804e3	0.11329057
191	0x3e69b3a0	0.22822428
192	0x3cbb002f	0.022827236
193	0x3c8c7b16	0.017148536
194	0xbf372d42	-0.7155343
195	0x3e11f3da	0.14253178
196	0xbd1e6a45	-0.038675565
197	0xbdd91e65	-0.106015004
198	0x3deefe92	0.11669649
199	0x3e2554bf	0.1614561
200	0xbe8d87e1	-0.2764273
201	0x3da2bce6	0.07946186
202	0x3c84a438	0.016191587
203	0xbe00e1da	-0.12586156
204	0x3e0f3ebf	0.1398878
205	0x3d220e26	0.039564274
206	0xbd8d8931	-0.06910933
207	0xbe21e973	-0.1581171
208	0x3cdc42ee	0.026887383
209	0xbbd457dd	-0.0064802007
210	0x3d393e91	0.045225684
211	0x3e2202c2	0.15821365
212	0x3d8471a0	0.06466985
213	0x3d97c5c4	0.07410768
214	0xbde7e44e	-0.113228425
215	0xbea65e4e	-0.32493824
216	0xbec369a5	-0.38166538
217	0xbdee157e	-0.11625193
218	0x3db15096	0.08657949
219	0x3e09dfa6	0.13464221
220	0xbd116902	-0.035500534
221	0x3e740ca1	0.23832943
222	0xbda8e892	-0.08247484
223	0xbebee440	-0.37283516
224	0xbc79011b	-0.0151980175
225	0x3e1c5fe3	0.15270953
226	0xbe6476ff	-0.22311018
227	0x3f0b0fc2	0.5432092
228	0x3e673e3c	0.22582334
229	0x3e48b5b1	0.1960056
230	0x3d9c01d8	0.07617539
231	0xbdae6cd8	-0.08516854
232	0xbdc465be	-0.09589718
233	0xbee9cb18	-0.4566276
234	0xbe434aa5	-0.19071443
235	0xbdb7de41	-0.089779384
236	0xbddebc2d	-0.108757354
237	0xbd336d5f	-0.043805476
238	0x3f411426	0.7542137
239	0x3ec4064c	0.38286054
240	0x3e1189fa	0.1421279
241	0x3e1a2f6a	0.1505715
242	0xbe620c06	-0.22074899
243	0xbd7679c5	-0.060174722
244	0xbf0b17da	-0.5433327
245	0xbc497a26	-0.012297189
246	0xbf706936	-0.9391054
247	0x3e352c58	0.17692697
248	0x3d9df153	0.077120446
249	0x3d80b4d0	0.06284487
250	0x3d82d4ad	0.06388221
251	0xbd544cf7	-0.051831212
252	0xbd9912c1	-0.0747428
253	0xbd0580e5	-0.032593627
254	0x3d496292	0.04916627
255	0x3c8718aa	0.016491253

network_body._body_endoder.seq_layers.0.bias f4 [128]
0	0x3c94adfb	0.018149367
1	0x3d0cfff5	0.034423787
2	0xbbd5aba1	-0.006520704
3	0x3d0f6488	0.035007983
4	0x3d7e5a3a	0.062097766
5	0x3d40312e	0.0469219
6	0x3dd95b8b	0.106131636
7	0x3d636154	0.05551274
8	0xbce4b62f	-0.027918903
9	0x3ce48efd	0.027900213
10	0xbc6dc59f	-0.014512449
11	0xbd3ed973	-0.046594094
12	0x3c729021	0.014804871
13	0x3d0c14e7	0.03419962
14	0x3cb73f5a	0.022369076
15	0x3c54fffe	0.013000486
16	0x3cb119d4	0.021618761
17	0xbbf2ab0a	-0.0074056434
18	0xbd824edd	-0.06362698
19	0x3b5734a3	0.003283777
20	0x3d1cefdd	0.03831469
21	0x3be36c44	0.0069403965
22	0x3c35be3a	0.011092717
23	0xbccead74	-0.025229193
24	0x3cab8acd	0.020940209
25	0x3da8d4cc	0.08243713
26	0x3d075496	0.03303965
27	0x3d2c9bf1	0.042140905
28	0x3d01e149	0.03170899
29	0xbcfd865f	-0.030947862
30	0x3d9c442f	0.076301925
31	0xbc388a0d	-0.011263383
32	0x3cf344c0	0.029695868
33	0x3d3ad125	0.045609612
34	0x3d427613	0.047475886
35	0x3d0580c1	0.032593492
36	0xbc335767	-0.010946131
37	0xbd628fe8	-0.05531302
38	0xbcaa2370	-0.020768851
39	0xbd248aa3	-0.040171277
40	0xbba156e6	-0.004923689
41	0x3d954099	0.07287712
42	0xbc4c445f	-0.012467473
43	0x3d72ad29	0.05924717
44	0x3d164ac3	0.036692392
45	0xbc9ff85d	-0.019527609
46	0x3dcae9eb	0.099078976
47	0x3d4dc9c9	0.050241265
48	0x3d73ebcb	0.05955104
49	0xbb86119c	-0.0040914547
50	0x3ce90cb8	0.028448448
51	0xbc27bd7b	-0.010238047
52	0xbd7f27c8	-0.062293798
53	0x3da9adfa	0.082851365
54	0xbce4907e	-0.02790093
55	0xbd45cab4	-0.048289016
56	0x3caa15fa	0.020762432
57	0xbc5eb5e4	-0.013593171
58	0x3a7fd112	0.0009758632
59	0x3d18b964	0.037286177
60	0xbca39c4d	-0.019971991
61	0x3dd88c04	0.10573581
62	0x3d3cc76b	0.046088617
63	0xbc55e05c	-0.01305398
64	0xbca91993	-0.020642078
65	0x3be7d225	0.0070746117
66	0xbbf2135c	-0.0073875617
67	0x3d72df28	0.05929485
68	0x3c8110dd	0.015755111
69	0xbc572ac1	-0.013132752
70	0x3c3d9fb0	0.011573717
71	0xbb1b97aa	-0.0023741522
72	0xbcf8e893	-0.030384338
73	0xbcfcb77e	-0.030849215
74	0x3c315646	0.010823792
75	0x3d1f62cd	0.038912583
76	0x3c705b68	0.01467023
77	0xbce1ca58	-0.027562305
78	0x3d273a7d	0.040827263
79	0x3b9c1fe5	0.0047645443
80	0xb9c7ea62	-0.00038130867
81	0x3bf35624	0.0074260402
82	0x3ca401df	0.020020423
83	0xbccbd165	-0.02488012
84	0x3b1797ac	0.0023131175
85	0x3b948ccf	0.0045333873
86	0x3d0f685e	0.03501164
87	0xbd2a8c00	-0.04163742
88	0x3d174dc4	0.036939397
89	0x3cee36b8	0.029078826
90	0x3d1d7c4b	0.038448613
91	0x3c9696dc	0.018382482
92	0x3cef7c03	0.029233938
93	0x3d8e7358	0.06955594
94	0x3b737e99	0.0037154316
95	0x3ce4c17b	0.02792429
96	0xbc2416df	-0.0100152185
97	0x3c4cbb98	0.012495898
98	0x3d81116d	0.06302152
99	0x3c6fc3ae	0.014634056
100	0x3c6e7293	0.014553684
101	0xbc855d5b	-0.016279867
102	0xbd12139b	-0.03566323
103	0x3d18acf7	0.037274327
104	0x3d4b74ee	0.04967206
105	0x3ca884bc	0.020571105
106	0x3d1d1f15	0.03835972
107	0x3d744321	0.05963433
108	0x3d1238c0	0.035698652
109	0x3cfac03e	0.030609246
110	0xbc6599f2	-0.014013754
111	0x3d1c2dcb	0.03812961
112	0x3d691dd3	0.05691321
113	0xbba0dcc9	-0.004909132
114	0x3c5cacdf	0.01346895
115	0x3cf26630	0.029589742
116	0x3d94914f	0.07254278
117	0x3d836c61	0.06417156
118	0x3c5ccd8e	0.013476742
119	0xbd386848	-0.045021325
120	0xbd359c51	-0.044338528
121	0x3c80c95d	0.015721017
122	0x3c1ba66c	0.009500127
123	0x3d79e5bc	0.061010107
124	0x3b2663c6	0.002538906
125	0x3c81cc0d	0.01584437
126	0xbcb812c8	-0.022469893
127	0x3cd53571	0.02602646

network_body._body_endoder.seq_layers.2.weight f4 [128, 128]
0	0x3e2f7734	0.17135316
1	0x3d2310d2	0.039810963
2	0xbe2a3583	-0.16621976
3	0x3e324e02	0.1741257
4	0x3e46b871	0.19406296
5	0x3e01df76	0.126829
6	0xbe84156c	-0.25797594
7	0x3e29cd6f	0.16582273
8	0xbb3673f1	-0.0027840103
9	0xbe5e835e	-0.217298
10	0xbd342c7f	-0.043987747
11	0x3e87a1be	0.26490587
12	0x3e171149	0.14752688
13	0x3d67e309	0.056613002
14	0x3e093d21	0.13402225
15	0xbcbbffd2	-0.022949133
16	0xbea776ad	-0.3270773
17	0x3d8efdcc	0.06982002
18	0x3e27d0ad	0.16388197
19	0x3cc773f0	0.024347275
20	0xbe239b75	-0.15977271
21	0x3d300156	0.042970024
22	0x3d4733a6	0.04863324
23	0x3eb736f3	0.3578411
24	0x3dbf0c2a	0.09328492
25	0xbe81d48f	-0.25357482
26	0xbe1c1f94	-0.15246421
27	0xbd66ba8b	-0.056330245
28	0xbe4800ac	-0.19531506
29	0x3d6c4f35	0.057692725
30	0x3e17dfc9	0.14831461
31	0x3baf0277	0.00534087
32	0xbdd07ba8	-0.101798356
33	0xbdce98af	-0.10087716
34	0x3de4bceb	0.11168846
35	0x3d1260e3	0.03573693
36	0x3e0d0252	0.13770416
37	0x3e4bb6bb	0.19893925
38	0x3dab866f	0.083752505
39	0xbba5c51b	-0.005058897
40	0xbd27fac9	-0.04101065
41	0x3ddcb3a2	0.1077645
42	0x3d4d76a9	0.05016199
43	0x3bdb7f53	0.006698528
44	0xbd75d420	-0.06001675
45	0x3e21420b	0.1574785
46	0xbd682426	-0.0566751
47	0x3dba1001	0.09085084
48	0xbd86791d	-0.06566069
49	0x3d0b6d5a	0.034039833
50	0xbe1bc5a2	-0.1521211
51	0x3dec7ad6	0.115468666
52	0x3c847b61	0.016172113
53	0xbe8b9b89	-0.272671
54	0x3e218563	0.15773539
55	0x3e3ea240	0.18616581
56	0x3d4dc939	0.05024073
57	0xbe4fef57	-0.20306145
58	0xbe16684c	-0.14688224
59	0xbe17287a	-0.14761534
60	0x3e5b5eb2	0.21422842
61	0xbcec59cd	-0.028851414
62	0x3d8e7ffc	0.06958005
63	0x3eb295f8	0.34880042
64	0x3d3e4f62	0.046462424
65	0x3dbf92ff	0.09354209
66	0xbd4add31	-0.04952735
67	0x3d5915e0	0.052999377
68	0x3d45a2e7	0.04825106
69	0x3e358e2b	0.17730014
70	0xbeba4964	-0.36384118
71	0x3e30890b	0.17239778
72	0x3dc829ce	0.097735986
73	0x3d5b4a58	0.053537697
74	0x3dcdd709	0.1005078
75	0xbec76cf6	-0.38950318
76	0xbd85c3ce	-0.065314874
77	0x3db1df2a	0.08685143
78	0xbe542508	-0.20717251
79	0x3d6fb359	0.05852065
80	0x3e020bed	0.12699862
81	0xbe384e63	-0.17998652
82	0xbdc6114c	-0.09671268
83	0x3eaf4b68	0.34237218
84	0x3c48fb03	0.012266877
85	0xbe637eec	-0.22216386
86	0x3d1a5f08	0.037688285
87	0xbd35027b	-0.04419182
88	0xbea3b8df	-0.31976983
89	0xbe43819a	-0.19092408
90	0x3e0592ae	0.13044235
91	0x3e350387	0.17677127
92	0x3dc95314	0.09830299
93	0x3e0c7d35	0.13719638
94	0xbe4f79ea	-0.2026135
95	0xbe1c6eeb	-0.15276687
96	0xbe06c8e7	-0.13162576
97	0xbc31c8c4	-0.010851089
98	0xbd3a360d	-0.045461703
99	0xbdea80a7	-0.1145032
100	0x3df112ec	0.11771187
101	0xbd12bf12	-0.03582675
102	0x3d3cd8dc	0.04610525
103	0xbd67cd21	-0.05659211
104	0x3dc52300	0.09625816
105	0xbe208d12	-0.15678814
106	0xbdf84a59	-0.12123556
107	0x3e0df8a4	0.1386438
108	0xbd9ba1dd	-0.07599232
109	0xbd53e5f0	-0.051732957
110	0xbd4fd78b	-0.050742667
111	0xbd4b5da1	-0.04964984
112	0x3d92e22c	0.07172045
113	0x3def8430	0.11695135
114	0x3e71827e	0.23584935
115	0x3e30772a	0.17232957
116	0xbe4b42d5	-0.19849713
117	0xbea50cbb	-0.32236275
118	0x3e00ffc8	0.12597573
119	0x3e87bc01	0.26510623
120	0xbdfc089f	-0.12306332
121	0x3d5cd8aa	0.053917564
122	0xbe831306	-0.2560045
123	0x3d72b38c	0.05925326
124	0x3e730921	0.23733951
125	0xbd0fb8aa	-0.03508822
126	0xbb7c4527	-0.0038493366
127	0xbec9c3c3	-0.39407167
128	0xbe69fc29	-0.22850098
129	0xbe921d21	-0.2853785
130	0xbdd4aca5	-0.10384492
131	0x3d4317a4	0.047629967
132	0xbe1a8861	-0.15091087
133	0x3dc1fd11	0.09472097
134	0xbc28e97c	-0.010309573
135	0xbca3fdf3	-0.020018553
136	0x3d9d0dd9	0.07668657
137	0xbe3dcbbb	-0.18534748
138	0x3dc952b1	0.09830225
139	0x3ced3140	0.028954148
140	0xbde9607a	-0.113953546
141	0xbeb167c3	-0.34649476
142	0xbdc57619	-0.09641666
143	0xbe05a62e	-0.13051674
144	0xbccdd4fc	-0.025125973
145	0x3eb794b1	0.3585563
146	0xbdf4ce23	-0.1195338
147	0x3e22dc6e	0.159044
148	0x3cc6b1f9	0.024254786
149	0xbcb83c0b	-0.022489568
150	0xbe2c00c4	-0.16797167
151	0x3e435948	0.19077027
152	0x3bd58c24	0.00651695
153	0xbe56130b	-0.20905702
154	0x3db9ebfc	0.090782136
155	0x3dfe394e	0.12413274
156	0xbe8766ca	-0.2644561
157	0x3e197296	0.14985117
158	0x3d9bfaef	0.07616221
159	0x3df9fffb	0.122070275
160	0xbd95c8bf	-0.0731368
161	0xbde193f8	-0.11014551
162	0x3d74fca8	0.059811264
163	0x3e5932d1	0.21210791
164	0xbe3d3a48	-0.18479264
165	0x3ea6f253	0.32606754
166	0xbe44cd56	-0.19218954
167	0xbd86ca5c	-0.06581566
168	0xbd336be1	-0.043804053
169	0x3e6da0de	0.23205897
170	0x3eb843c0	0.3598919
171	0xbe187e19	-0.14891852
172	0xbd87ac4c	-0.0662466
173	0x3e63ea1f	0.22257279
174	0x3e2e23bf	0.17005824
175	0x3da599f5	0.080860056
176	0xbd184a56	-0.037180267
177	0xbdd99475	-0.10624019
178	0xbdbe02d8	-0.09277886
179	0x3cbaa022	0.022781435
180	0xbc0dd4f5	-0.00865673
181	0xbd2bb7d3	-0.041923355
182	0x3e3c0106	0.18359765
183	0xbdba4468	-0.09095079
184	0x3e8164df	0.2527227
185	0xbe3632eb	-0.17792861
186	0x3c54dac7	0.012991614
187	0x3c2ce6b0	0.010553047
188	0x3e6ecf2b	0.23321216
189	0x3d192899	0.037392233
190	0xbd014315	-0.031558115
191	0xbdba5fd2	-0.091003075
192	0x3dd036e9	0.10166723
193	0x3e76864f	0.24074672
194	0xbe94980e	-0.2902226
195	0x3c9aaf59	0.01888244
196	0x3e91ac72	0.28451878
197	0x3d228980	0.03968191
198	0x3d86ca72	0.06581582
199	0xbd6e5a67	-0.058191683
200	0x3db80a6f	0.08986365
201	0x3eae97d7	0.3410022
202	0xbe043556	-0.12910971
203	0xbe471045	-0.194398
204	0xbd008c35	-0.03138371
205	0xbd8f4d90	-0.06997216
206	0xbeb20091	-0.34766057
207	0x3e297c63	0.16551356
208	0x3c411e6b	0.011787037
209	0xbd89d72f	-0.06730496
210	0xbebd681b	-0.3699349
211	0xbe52a3c7	-0.20570289
212	0xbd83263e	-0.064037785
213	0xbeac473a	-0.33648092
214	0xbdd05a26	-0.101734444
215	0x3e01a9a1	0.12662365
216	0x3e9bcde8	0.30430532
217	0xbdaedd26	-0.085382745
218	0xbe26ba17	-0.16281925
219	0x3e927e6b	0.28612074
220	0x3e1c6dbf	0.1527624
221	0xbd9947f3	-0.07484426
222	0xbde40e61	-0.11135555
223	0x3d503e0a	0.050840415
224	0x3e499476	0.1968554
225	0xbe322750	-0.17397809
226	0xbdaa320c	-0.08310327
227	0xbd9f904c	-0.07791194
228	0xbd739386	-0.05946686
229	0x3e4a8dfe	0.19780728
230	0x3e24a7d8	0.16079652
231	0x3e67d84c	0.22641104
232	0xbe37fb48	-0.1796695
233	0xbe223fd2	-0.15844658
234	0xbe77ee76	-0.2421206
235	0x3d0f0237	0.03491422
236	0xbd52c242	-0.05145479
237	0xbd48478c	-0.048896357
238	0xbe27ecc6	-0.16398916
239	0xbde6373d	-0.112410046
240	0xbd234e5d	-0.039869655
241	0xbd3bef34	-0.04588242
242	0x3dd20316	0.10254495
243	0xbdb2cbf2	-0.08730306
244	0x3e5ac770	0.21365142
245	0xbf0421c7	-0.5161404
246	0xbe0576ff	-0.13033675
247	0x3e4b482f	0.19851755
248	0x3d252b1f	0.040324327
249	0x3dad8267	0.08472138
250	0x3eb6ac2a	0.35678226
251	0x3ce1bfb1	0.027557226
252	0x3dc0b5ac	0.09409651
253	0xbe481e7b	-0.19542877
254	0x3ddfde3d	0.109310605
255	0x3dfb9633	0.122845076

network_body._body_endoder.seq_layers.2.bias f4 [128]
0	0x3c8bad49	0.017050402
1	0x3cb0aa2c	0.02156552
2	0x3daa02a4	0.08301285
3	0x3c3f65e4	0.011682007
4	0xbcff6a2e	-0.03117856
5	0x3d59459a	0.053044893
6	0x3caea56e	0.021319117
7	0x3dab333a	0.0835938
8	0x3bf49ee4	0.0074652303
9	0xbd1e0afa	-0.038584687
10	0xbbc10afa	-0.005891201
11	0xbb4c49c8	-0.0031171907
12	0x3d44311e	0.047898404
13	0x3d01c5e8	0.03168288
14	0x3cac8080	0.021057367
15	0x3d9307e9	0.07179243
16	0xbce52250	-0.027970463
17	0x3cc45a89	0.023968952
18	0x3dd88b65	0.105734624
19	0x3d90f379	0.07077689
20	0xbc7e0ca2	-0.015505942
21	0xbc5fefb7	-0.013667992
22	0x3d7193b9	0.05897877
23	0x3be375a0	0.006941512
24	0x3de077cf	0.10960352
25	0x3cdef59e	0.027216729
26	0x3d53fcc9	0.051754747
27	0x3d35566a	0.044271864
28	0x3d0e6eea	0.034773745
29	0xbd2faba6	-0.042888306
30	0x3dc38389	0.09546573
31	0xbc13c647	-0.009019441
32	0xbd06ae0f	-0.03288084
33	0x3c8eba91	0.017422946
34	0x3d801a72	0.06255044
35	0x3d564cef	0.052319463
36	0x3d9ae8f1	0.07563961
37	0x3cdcbede	0.026946481
38	0x3d6a51a9	0.057206783
39	0x3d080858	0.033211082
40	0xbcca1090	-0.0246661
41	0xbc900589	-0.017580764
42	0x3d434bbd	0.04767965
43	0x3dd166ea	0.102247074
44	0x3d86ce8c	0.065823644
45	0xbd186c40	-0.03721261
46	0xbc3e6552	-0.011620836
47	0x3bb385ce	0.0054785972
48	0xbc67266f	-0.014108284
49	0xbd39859a	-0.045293428
50	0xba4e5065	-0.0007870256
51	0xbbe11943	-0.0068694665
52	0x3cebad04	0.028769024
53	0x3d0c56ad	0.034262348
54	0x3d63518e	0.0554977
55	0xbd5f4990	-0.054513514
56	0xbd130192	-0.03589017
57	0x3d056745	0.03256919
58	0xbc8bac03	-0.017049795
59	0x3d75b6bd	0.059988726
60	0xbbd1770f	-0.0063923667
61	0xbbc0939d	-0.005876972
62	0xbb8f3209	-0.0043699783
63	0xbcbf7438	-0.023370847
64	0x3d164fed	0.036697317
65	0x3d26fc5a	0.040768005
66	0xbd15e2b6	-0.03659316
67	0x3c65bca6	0.014022028
68	0x3cc16d02	0.02361155
69	0xbc86ab53	-0.016439116
70	0xbd23a503	-0.03995229
71	0x3d11708d	0.035507727
72	0xbbb77351	-0.0055984636
73	0x3ce87ca1	0.02837974
74	0xbd195227	-0.037431862
75	0xbcf9e77b	-0.030505886
76	0x3d0bd8bd	0.034142245
77	0xbd095794	-0.033530787
78	0x3bdfc8b7	0.006829347
79	0x3c11fae3	0.008909914
80	0x3cc05924	0.023480006
81	0x3cb5cbb8	0.022191867
82	0xbd11de98	-0.035612673
83	0xbc529dc6	-0.012854999
84	0x3d1f9fc6	0.03897073
85	0x3aa1a455	0.00123323
86	0xbc1576ec	-0.0091225915
87	0x3d301b4c	0.042994782
88	0xbd33c79b	-0.04389153
89	0x3cbdab15	0.023152867
90	0x3ba45181	0.005014599
91	0xbd51ae9d	-0.051191915
92	0x3dbe5187	0.09292894
93	0xbbfcc511	-0.007713922
94	0x3c577320	0.0131500065
95	0x3c581445	0.013188426
96	0x3d143a5e	0.036188476
97	0x3cc70611	0.024294885
98	0x3cd018bd	0.025402421
99	0x3c8a20f4	0.016861416
100	0x3cfbb6e1	0.030726852
101	0x3ad98919	0.0016596644
102	0xbc9cba8a	-0.019131918
103	0x3d9335d0	0.07187998
104	0x3d0aacf8	0.033856362
105	0xbb9575ad	-0.004561147
106	0x3cdd3572	0.027003024
107	0x3d42b67b	0.04753731
108	0x3d0daf81	0.0345912
109	0xbce01956	-0.027355831
110	0x3d01f4d2	0.03172762
111	0x3da76401	0.08173371
112	0x3d245ad6	0.04012569
113	0x3d9e052b	0.077158295
114	0x3cce0c17	0.02515225
115	0xbc289edf	-0.010291784
116	0xbc1a6082	-0.009422423
117	0xbd985f6c	-0.07440075
118	0x3a816ccd	0.0009874344
119	0x3b97c2a1	0.004631356
120	0x3d9e3be7	0.07726269
121	0x3cb182eb	0.021668872
122	0x3d2ac5fb	0.041692715
123	0xbca00d4a	-0.019537587
124	0xbd07e9a3	-0.033181798
125	0xbd37e6d4	-0.04489787
126	0xbc5374cd	-0.012906265
127	0xbcb29523	-0.02179963

network_body._body_endoder.seq_layers.4.weight f4 [128, 128]
0	0xbece2cb3	-0.40268478
1	0xbe0420e3	-0.1290317
2	0xbe8a8bcc	-0.27059782
3	0x3e09de1d	0.13463636
4	0xbea303ad	-0.31838742
5	0xbe406766	-0.18789443
6	0x3dfd7621	0.12376047
7	0x3e53f788	0.20699894
8	0x3e428638	0.18996513
9	0xbe56f659	-0.20992412
10	0xbd2f4a6d	-0.042795587
11	0xbe5629cd	-0.20914383
12	0x3d89c4e0	0.06727004
13	0xbd6bb7a7	-0.05754819
14	0xbe1e6731	-0.15469052
15	0x3eb443eb	0.35208067
16	0x3f26e793	0.65197104
17	0xbd0c65f5	-0.03427692
18	0x3db7a656	0.08967273
19	0xbec4631e	-0.3835687
20	0xbec7a6c2	-0.38994414
21	0x3d4685c6	0.04846742
22	0x3e242926	0.16031322
23	0x3e607e99	0.21923293
24	0xbeb62540	-0.35575294
25	0x3dfa5539	0.12223286
26	0xbe8fe702	-0.28105932
27	0x3df8a98c	0.121417135
28	0x392e7915	0.0001663904
29	0xbe15fb2b	-0.14646594
30	0xbc579c5b	-0.013159837
31	0x3e3d52c1	0.184886
32	0x3d38a1ad	0.04507606
33	0x3b924d26	0.004464763
34	0x3ea35ab4	0.31905138
35	0x3bf79dc9	0.0075566513
36	0xbda1ccda	-0.079004005
37	0x3db0ce70	0.08633125
38	0xbe781a99	-0.24228896
39	0xbee681a3	-0.4502078
40	0xbe1d98b5	-0.15390284
41	0x3cf20402	0.029542927
42	0x3ea6f051	0.32605222
43	0x3d4579cf	0.04821187
44	0xbe126020	-0.14294481
45	0x3e66904b	0.22515981
46	0x3d7234a1	0.059132222
47	0x3e934c0f	0.28768966
48	0x3e24a96d	0.16080256
49	0x3d03ca32	0.03217525
50	0x3d912e64	0.070889264
51	0x3d882002	0.0664673
52	0xbe14d472	-0.14534166
53	0x3c2991ed	0.010349733
54	0xbe875205	-0.26429763
55	0x3def3c84	0.11681464
56	0xbefb771e	-0.49114317
57	0x3d9b18a4	0.07573059
58	0xbde93cce	-0.11388551
59	0xbee642c1	-0.44972804
60	0xbdaeb995	-0.08531491
61	0xbc84ad33	-0.01619587
62	0x3c49de71	0.012321101
63	0x3cf39d18	0.029737994
64	0x3d42bd75	0.04754396
65	0xbb779dbd	-0.0037783228
66	0xbd0433ae	-0.032275848
67	0x3e5eceab	0.21758525
68	0x3ded313c	0.11581656
69	0xbea04eb1	-0.31310037
70	0x3d50a000	0.050933838
71	0xbdba847a	-0.09107299
72	0x3ec1b9a3	0.37836942
73	0x3e8a4a10	0.2700963
74	0xbc6f39d9	-0.014601194
75	0x3def8489	0.11695201
76	0xbd0bf5ee	-0.034170084
77	0xbe25ea2d	-0.16202612
78	0xbd34a14c	-0.044099137
79	0xbe58fdb7	-0.21190535
80	0x3e2c4c6e	0.1682603
81	0xbd91f4f7	-0.071268015
82	0xbf07266f	-0.5279302
83	0xbe88eac2	-0.26741606
84	0xbe075693	-0.13216619
85	0xbe44194f	-0.1915028
86	0x3bf9bf09	0.00762165
87	0x3c5ad210	0.013355747
88	0x3e8fc252	0.28077942
89	0xbda2bd83	-0.07946303
90	0x3ecaae10	0.39585924
91	0x3d6d7834	0.057975963
92	0xbe5e4d08	-0.21709073
93	0x3e21e23b	0.15808956
94	0xbd1d46e7	-0.038397696
95	0x3e5dba27	0.21653043
96	0x3e2d5601	0.16927339
97	0x3ed8cd56	0.4234416
98	0xbe37a360	-0.17933416
99	0xbd6ed41a	-0.058307745
100	0xbd8163d1	-0.063178666
101	0xbe362851	-0.17788817
102	0x3ee15f37	0.44017956
103	0xbccf3f17	-0.025298638
104	0x3e62300b	0.2208864
105	0xbf08f6ba	-0.53501475
106	0xbe53d640	-0.20687199
107	0xbe686da3	-0.22698073
108	0xbf02295e	-0.5084437
109	0xbe50e72d	-0.20400687
110	0x3edc2a3a	0.43000966
111	0xbe6d68a1	-0.23184444
112	0x3cacd491	0.021097453
113	0x3e7f6f64	0.24944836
114	0xbe02b944	-0.12765986
115	0xbe21add4	-0.15788966
116	0xbe6b82ce	-0.22999117
117	0x3e3c7392	0.18403462
118	0x3cb12de8	0.021628335
119	0xbe22dcf7	-0.15904604
120	0x3e247064	0.16058499
121	0xbe815cf2	-0.25266224
122	0x3d9843d5	0.07434813
123	0xbe0920f5	-0.13391478
124	0x3e9cbf8d	0.30614892
125	0xbd60916d	-0.05482619
126	0x3df07f6e	0.11743055
127	0x3d95fe32	0.073238745
128	0xbdb40437	-0.087898664
129	0x3d3f45ea	0.046697535
130	0xbcb31f65	-0.021865556
131	0x3df97812	0.12181105
132	0xbcac510c	-0.02103474
133	0x3da246fb	0.07923695
134	0x3d1aa03c	0.037750468
135	0xbcd5cd34	-0.026098825
136	0x3dd81717	0.10551279
137	0xbdb9039c	-0.090338916
138	0x3da0c45c	0.078499526
139	0x3d9e802e	0.07739292
140	0x3dae551a	0.085123256
141	0xbe5aaa3f	-0.21354006
142	0xbdf64895	-0.12025563
143	0x3e2f0f14	0.17095596
144	0xbe268e29	-0.16265167
145	0x3bf714a4	0.0075403024
146	0x3d5aaafe	0.053385727
147	0x3c4eb1e2	0.012615653
148	0xbddfd41d	-0.10929129
149	0x3c108536	0.008820822
150	0xbdb7e41c	-0.08979055
151	0x3e4e40a7	0.2014185
152	0x3dc3e227	0.095646195
153	0x3e418ded	0.18901797
154	0x3d8fdd5f	0.07024645
155	0x3e2a10da	0.16607991
156	0x3e679821	0.22616626
157	0xbea68988	-0.32526803
158	0xbcf33ac1	-0.029691102
159	0x3d86228d	0.06549559
160	0xbd9673d1	-0.07346309
161	0xbe833ae8	-0.2563088
162	0xbe081398	-0.13288724
163	0xbd0a0490	-0.033695757
164	0x3d2b33d3	0.04179747
165	0xbd8ee534	-0.06977311
166	0xbe64ab80	-0.22331047
167	0xbd1db630	-0.038503826
168	0x3da107f6	0.078628466
169	0x3d8db853	0.06919923
170	0x3e2a433f	0.16627215
171	0x3e95a5a0	0.29227924
172	0xbdc430a1	-0.09579588
173	0xbf08d186	-0.5344471
174	0xbcdd5404	-0.0270176
175	0xbe460c12	-0.19340542
176	0xbd4ed277	-0.050493684
177	0x3af43fc7	0.001863473
178	0x3c896edf	0.0167765
179	0x3de134fa	0.109964326
180	0x3d98373b	0.074324094
181	0xbeaca7b3	-0.33721694
182	0x3dd58ec5	0.10427622
183	0xbe8f7422	-0.2801829
184	0xbe0bed84	-0.13664824
185	0x3e89793a	0.268503
186	0x3d68b5bc	0.05681394
187	0xbe916138	-0.28394485
188	0xbd95a7e6	-0.07307415
189	0x3e4527ac	0.19253415
190	0x3de53a84	0.111928016
191	0xbe1d2718	-0.15346944
192	0xbd1887e2	-0.037238963
193	0x3db7a860	0.08967662
194	0x3e1db8f5	0.15402587
195	0x3e1874d3	0.14888315
196	0x3c838515	0.01605467
197	0x3d5d81b8	0.054078788
198	0xbc8ed572	-0.017435763
199	0xbcc16676	-0.023608427
200	0x3ea08392	0.3135038
201	0xbe0a95e0	-0.13533735
202	0x3e813f30	0.2524352
203	0x3d97b0b7	0.074067526
204	0xbe24f20c	-0.16107959
205	0xbdd54175	-0.104128756
206	0xbdc684a3	-0.09693267
207	0x3e0bce6d	0.13652964
208	0x3e6273f1	0.2211454
209	0x3e0cd736	0.13753971
210	0xbe3dd19f	-0.18536995
211	0x3dd2d128	0.102938
212	0xbdb8e284	-0.090275794
213	0x3dc36b53	0.09541955
214	0x3e35720c	0.17719287
215	0x3e1f81ef	0.1557691
216	0xbcd3eebe	-0.025870677
217	0x3d25f39a	0.04051552
218	0xbe36c2c4	-0.17847735
219	0xbcf33a91	-0.029691013
220	0x3b99f895	0.0046988227
221	0x3e442988	0.19156468
222	0xbc23d4f6	-0.009999504
223	0xbdcb4d20	-0.0992682
224	0x3d9f59ab	0.07780775
225	0x3dc44e61	0.09585262
226	0x3d79a30a	0.0609465
227	0x3da1a406	0.07892613
228	0xbcadd943	-0.021221763
229	0xbda28aa1	-0.079365976
230	0x3e947b8a	0.29000503
231	0x3e2120a9	0.15735115
232	0xbd3e01aa	-0.046388306
233	0xbda2da6a	-0.079518154
234	0x3e763144	0.24042231
235	0x3dc5c85d	0.09657357
236	0xbdc5207d	-0.09625337
237	0xbd5c17a7	-0.053733494
238	0x3e9766d9	0.29570654
239	0xbe68b546	-0.227254
240	0x3c5f55e9	0.013631322
241	0x3e823ec2	0.25438505
242	0xbd72492a	-0.059151806
243	0xbe6aabd8	-0.22917116
244	0xbd647cc5	-0.055783052
245	0xbca1af1a	-0.019736815
246	0x3d4c3057	0.049850788
247	0x3ddb5d99	0.10711212
248	0x3e457eb2	0.19286612
249	0xbd7f67c5	-0.06235482
250	0xbc10caf6	-0.008837452
251	0x3da894fc	0.082315415
252	0xbc367c15	-0.011137982
253	0xbda7fdde	-0.08202718
254	0xbdfba427	-0.12287169
255	0x3df3e1fc	0.119083375

network_body._body_endoder.seq_layers.4.bias f4 [128]
0	0xbcbbea79	-0.022938954
1	0x3d95bf6a	0.073119
2	0xbde26b52	-0.11055626
3	0xbdbe38e5	-0.092881955
4	0x3ca993ac	0.020700298
5	0x3d9caf26	0.076505944
6	0xbd21e472	-0.039524503
7	0x3d1c24d3	0.038121056
8	0x3d811038	0.063019216
9	0xbd996914	-0.07490745
10	0x3d34f286	0.0441766
11	0x3dd51f4d	0.10406361
12	0x3da448d8	0.08021706
13	0x3bea4994	0.0071498845
14	0xbde5b140	-0.112154484
15	0x3d0fafb3	0.03507967
16	0xbbaa9f9e	-0.005207016
17	0xbc017685	-0.007901792
18	0x3da51076	0.0805978
19	0xbd69ffe0	-0.057128787
20	0xbe2aa222	-0.16663411
21	0x3d685b88	0.056727916
22	0xbda09155	-0.0784022
23	0x3d1a2865	0.03763618
24	0xbd2af0b1	-0.041733447
25	0x3c83ebe0	0.016103685
26	0xbe44beb3	-0.19213371
27	0x3dbf93a6	0.093543336
28	0xbb46e32d	-0.003034781
29	0xbdf960e3	-0.12176683
30	0xb9442226	-0.00018704738
31	0x3dcd830c	0.10034761
32	0x3d7ea551	0.062169377
33	0x3c7ecc18	0.015551589
34	0xbe0d95e9	-0.13826717
35	0xbdd25938	-0.102709234
36	0x3d3d847a	0.046268918
37	0x3d531b55	0.051539738
38	0xbd50e1f0	-0.05099672
39	0x3e14aae4	0.14518315
40	0x3d50ad75	0.05094667
41	0xbda7d506	-0.08194928
42	0xbb66a76a	-0.0035195001
43	0x3d1563c5	0.0364721
44	0xbca3018a	-0.019898195
45	0x3e014db7	0.12627302
46	0xbe43935a	-0.19099179
47	0xbd894438	-0.06702465
48	0x3d0fc607	0.035100963
49	0xbbde3a8a	-0.0067818807
50	0x3d3f37f4	0.04668422
51	0x3d71f895	0.059074957
52	0x3cbc30fe	0.02297258
53	0xbdb563b2	-0.08856906
54	0x3e0c929a	0.13727799
55	0xbbf0cf8f	-0.0073489617
56	0xbdee54c6	-0.11637263
57	0xbbea2487	-0.0071454677
58	0xbcd75901	-0.026287558
59	0xbdb2b552	-0.0872599
60	0x3d5d1795	0.053977568
61	0xbd662578	-0.056188077
62	0xbd07410f	-0.03302103
63	0xbd938d38	-0.0720467
64	0xbe252567	-0.16127549
65	0x3d1e04e7	0.038578894
66	0xba8fef20	-0.0010981299
67	0x3cb2b557	0.021814985
68	0xbd042633	-0.032262992
69	0x3e10ffec	0.14160126
70	0x3c26369e	0.010144858
71	0xbc2d10c2	-0.010563077
72	0x3c04bec6	0.008102125
73	0x3d8a431d	0.06751082
74	0x3d4fb7af	0.050712284
75	0xbd72e5ec	-0.0593013
76	0x3d6b7915	0.05748852
77	0xbc8ac96e	-0.016941752
78	0x3d7e3c1a	0.062069036
79	0x3c907a75	0.017636517
80	0xbca9b3fc	-0.020715706
81	0x3d4e8368	0.050418288
82	0x3c720e67	0.014773942
83	0x3cdf114c	0.027229927
84	0x3d9bb2fc	0.07602498
85	0x3d60f769	0.05492345
86	0xbb43bfab	-0.0029868882
87	0x3dfd9f04	0.123838454
88	0xbc934cbe	-0.01798093
89	0xbded97a8	-0.11601192
90	0x3d110d6a	0.035413183
91	0x3bebf611	0.0072009643
92	0x3c8dbf80	0.017303228
93	0x3d852d8c	0.06502828
94	0xbd7f64d1	-0.062352005
95	0xbe40de69	-0.18834843
96	0x3dafab08	0.085775435
97	0xbdad8b1a	-0.08473797
98	0xbd1e0006	-0.03857424
99	0x3da9ad7c	0.08285043
100	0x3d81cf5d	0.063383795
101	0x3bc2de5c	0.0059469175
102	0x3d834dd1	0.06411327
103	0xbe176556	-0.1478475
104	0xbe1c3de9	-0.15257992
105	0x3ca17d35	0.019713024
106	0xbd9db238	-0.07700008
107	0xbddf88b1	-0.10914744
108	0x3d30ab70	0.043132246
109	0x3ddcda5d	0.10783837
110	0x3bc073eb	0.0058731935
111	0xbd8aa247	-0.06769233
112	0xbc5e7599	-0.013577842
113	0x3dd534cf	0.10410463
114	0xbd903b01	-0.07042504
115	0x3d0968a3	0.033547055
116	0x3d4f0073	0.050537538
117	0x3d77f978	0.060540646
118	0xbd7ad23b	-0.061235648
119	0xbd79561e	-0.060873143
120	0xbd8e5d11	-0.06951345
121	0xbbb3cf65	-0.00548737
122	0xbd036425	-0.032077927
123	0xbdb0e404	-0.086372405
124	0x3dab1819	0.08354206
125	0x3d9062d6	0.070501015
126	0xbcb3979c	-0.021922879
127	0x3cf27aee	0.029599633

action_model._discrete_distribution.branches.0.weight f4 [3, 128]
0	0x3de8aa2d	0.113605835
1	0xbd33b57f	-0.04387426
2	0x3e822949	0.25422123
3	0x3e50bf43	0.2038546
4	0xbd68caf9	-0.056834195
5	0xbe0fb8e7	-0.14035378
6	0xbe96a135	-0.29419866
7	0xbd7afe60	-0.061277747
8	0xbd8df90e	-0.06932269
9	0xbd99e1f8	-0.07513803
10	0x3e8c9d6a	0.27463847
11	0xbd186c04	-0.037212387
12	0xbdd4e13e	-0.10394524
13	0x3efa9c52	0.48947388
14	0xbe1abae3	-0.15110354
15	0xbdd1822a	-0.10229905
16	0xbe8edcde	-0.27902883
17	0x3e1b6af5	0.1517752
18	0x3eccf15b	0.4002789
19	0xbe498c77	-0.1968249
20	0xbf3a1721	-0.7269154
21	0x3df195db	0.11796161
22	0xbead68a5	-0.338689
23	0xbd59d279	-0.053179238
24	0x3e95b75c	0.29241455
25	0xbdadd5e2	-0.084880605
26	0xbf569898	-0.8382659
27	0x3eb79734	0.35857546
28	0xbb06c15e	-0.0020562033
29	0xbddec18e	-0.108767614
30	0x3ea652a2	0.3248492
31	0xbea396f5	-0.3195111
32	0xbcc81fae	-0.024429169
33	0x3e9be068	0.30444646
34	0x3db24c30	0.08705938
35	0xbe8ea009	-0.27856472
36	0xbdac53e3	-0.084144376
37	0xbd90b7e9	-0.07066328
38	0xbe16cea9	-0.14727272
39	0xbd8f9aa2	-0.07011916
40	0xbe548b9e	-0.20756385
41	0x3f041675	0.51596767
42	0xbeb7ce18	-0.35899425
43	0xbd847f34	-0.064695746
44	0xbe1ac7e0	-0.15115309
45	0xbdb32d3d	-0.08748863
46	0x3f24ff19	0.6445175
47	0xbeb6712a	-0.35633212
48	0xbdac5fa8	-0.084166825
49	0xbdd61c9f	-0.10454678
50	0xbcaf4ef1	-0.021399947
51	0xbea204d2	-0.31644303
52	0xbbc01fae	-0.0058631515
53	0x3e16d488	0.14729512
54	0x3e6e0903	0.23245625
55	0xbe1a59e7	-0.15073358
56	0x3c24e33d	0.010063943
57	0xbecc894e	-0.39948505
58	0x3edbdc3a	0.42941457
59	0x3e8e1cd2	0.27756363
60	0x3bc525d7	0.0060164738
61	0xbdb31af1	-0.08745373
62	0x3eb3d3dd	0.35122576
63	0x3d9dfb6e	0.07713972
64	0xbd2aac67	-0.041668322
65	0xbe88c664	-0.2671386
66	0x3df6ef1f	0.120573275
67	0xbbc647ac	-0.0060510244
68	0x3f076025	0.5288108
69	0xbe8c4f01	-0.27404025
70	0x3b7a7a0d	0.003821972
71	0x3e14540b	0.14485185
72	0x3d59f935	0.053216178
73	0x3e040b2b	0.12894885
74	0x3c7dc44f	0.015488698
75	0x3dab8163	0.08374288
76	0x3e8cf77d	0.2753257
77	0xbe36fb67	-0.1786934
78	0x3d69eca6	0.05711045
79	0xbd8e2b34	-0.06941834
80	0xba2d0231	-0.0006599753
81	0x3df57b33	0.11986389
82	0x3ea42e24	0.32066453
83	0xbe0c3242	-0.13691047
84	0xbcbffe18	-0.023436591
85	0xbdd518bd	-0.10405109
86	0xbdc702a0	-0.097172976
87	0x3e09b0de	0.13446376
88	0xbf0b2307	-0.5435032
89	0xbe50c59f	-0.20387886
90	0xbdf7b487	-0.1209498
91	0x3eb70c02	0.3575135
92	0xbea9fd72	-0.33201176
93	0xbd811de9	-0.06304533
94	0xbf157b90	-0.58391666
95	0x3ee9b5e6	0.4564659
96	0x3efb2aa4	0.4905597
97	0xbf38bd6a	-0.7216402
98	0xbe134a26	-0.14383754
99	0xbcb2d0ae	-0.021828022
100	0x3c93c012	0.018035922
101	0xbdc2b409	-0.09506995
102	0xbdcb58c2	-0.099290386
103	0xbe0a26f7	-0.13491426
104	0x3e4283d0	0.18995595
105	0x3d854e73	0.065091036
106	0x3ed1368b	0.40861925
107	0xbf2c8d1c	-0.67402816
108	0x3f009f5f	0.5024318
109	0xbcb817cb	-0.022472283
110	0xb9a16d78	-0.00030789874
111	0x3e2f7dc2	0.17137817
112	0x3e071970	0.13193297
113	0x3daf9435	0.0857319
114	0x3eb0f1b9	0.3455942
115	0xbd30ab11	-0.04313189
116	0xbe289ba9	-0.1646563
117	0xbe4191b3	-0.18903236
118	0xbe449709	-0.1919824
119	0xbea3bfa1	-0.3198214
120	0x3ddab88f	0.10679733
121	0xbeae25b5	-0.34013143
122	0x3e22f26f	0.15912794
123	0x3d3c4cd1	0.045971695
124	0x3bda4374	0.006660873
125	0x3dae0d3b	0.08498617
126	0x3e773656	0.24141821
127	0x3c9e26bf	0.019305585
128	0xbe1be854	-0.15225345
129	0x3d1d4bf8	0.038402528
130	0xbe97b49c	-0.29629982
131	0xbe9a4bfc	-0.30136096
132	0x3da99ed5	0.08282248
133	0x3e2f6576	0.17128548
134	0x3e41ab58	0.18913019
135	0x3d8e9a83	0.069630645
136	0x3df6a7ea	0.12043746
137	0x3e4222ba	0.1895856
138	0xbe8234e7	-0.25430986
139	0x3d544721	0.051825646
140	0x3e2121f8	0.15735614
141	0xbed3012a	-0.41211826
142	0x3e976ca8	0.29575086
143	0x3de677d3	0.112533234
144	0x3e8f5fe3	0.28002843
145	0xbe545eaf	-0.20739244
146	0xbead95a2	-0.33903223
147	0x3e747d8d	0.23876019
148	0x3f2d30fe	0.6765288
149	0xbdc9e990	-0.09859002
150	0x3ea8f739	0.33001116
151	0x3deb55a8	0.11490947
152	0xbeaf5058	-0.34240985
153	0x3dcd28b7	0.10017531
154	0x3f58e0bf	0.84717935
155	0xbeabd020	-0.33557224
156	0x3cffab9a	0.031209756
157	0x3db6e052	0.089295045
158	0xbea6b270	-0.32558012
159	0x3eb71de8	0.35765004
160	0x3d5a2049	0.053253446
161	0xbe906742	-0.2820378
162	0xbe038d80	-0.12846947
163	0x3e84587a	0.25848752
164	0x3d9db8db	0.07701274
165	0x3d9a069e	0.075207934
166	0x3e469d5c	0.19395965
167	0x3ddfe17d	0.1093168
168	0x3e6535b9	0.22383775
169	0xbf063950	-0.524312
170	0x3e80e1e1	0.25172332
171	0x3dacfd43	0.08446743
172	0x3e33edb4	0.17571145
173	0x3db7b873	0.08970728
174	0xbf0feae4	-0.5621779
175	0x3eba8705	0.36431137
176	0x3d83f7d1	0.064437516
177	0x3de7c0bc	0.11316058
178	0x3c58ffa8	0.013244547
179	0x3eb11c8b	0.3459209
180	0xbcf85476	-0.030313712
181	0xbe4e20dd	-0.20129724
182	0xbe1d9613	-0.1538928
183	0x3e1096bf	0.14120005
184	0xbd7d337a	-0.06181667
185	0x3ec81a1a	0.39082414
186	0xbee2b117	-0.44275734
187	0xbe67fd2e	-0.22655174
188	0x3ceeaf22	0.029136244
189	0x3d5fe5d0	0.054662526
190	0xbeb602c1	-0.35548976
191	0xbdafc047	-0.08581596
192	0x3d166473	0.03671689
193	0x3e8a9e0a	0.270737
194	0xbe3742b0	-0.17896533
195	0x3d8caa24	0.06868389
196	0xbf0aa3eb	-0.5415637
197	0x3e750aa9	0.23929848
198	0xbd56f03a	-0.05247519
199	0xbe085e2b	-0.13317172
200	0xbd2f8bc6	-0.042857908
201	0xbda8cb22	-0.082418695
202	0xbb0e4f2a	-0.0021714666
203	0xbdea962c	-0.11454424
204	0xbe8ecaef	-0.278892
205	0x3e26f432	0.1630409
206	0xbca6eaf5	-0.020375708
207	0x3dac70f7	0.08419984
208	0x3d2d99ea	0.042383112
209	0xbded6511	-0.115915425
210	0xbe8a719a	-0.27039796
211	0x3e1e8303	0.15479665
212	0x3d816ac0	0.06319189
213	0x3e0f4e42	0.13994697
214	0x3dfa56bc	0.122235745
215	0xbdda5082	-0.10659887
216	0x3f107bc4	0.5643885
217	0x3e2809af	0.16409944
218	0x3e0fccbb	0.14042942
219	0xbeb924fa	-0.36161023
220	0x3eba26cd	0.36357728
221	0x3d09428c	0.03351073
222	0x3f1f8f27	0.6232781
223	0xbef4118d	-0.4766964
224	0xbeea0441	-0.4570637
225	0x3f351698	0.707376
226	0x3e0dee60	0.13860464
227	0x3d02b918	0.0319148
228	0xbd0e52ce	-0.034746937
229	0x3deca496	0.1155483
230	0x3dfe6f9e	0.12423633
231	0x3e380038	0.17968833
232	0xbe52c67b	-0.20583527
233	0xbddda40a	-0.108223036
234	0xbed8ecde	-0.42368215
235	0x3f1f49b9	0.62221867
236	0xbef4d55d	-0.47819033
237	0x3d946afa	0.07246967
238	0x3d0eaec1	0.034834627
239	0xbe176ce0	-0.14787626
240	0xbe2daf2c	-0.16961354
241	0xbd738f65	-0.059462924
242	0xbec34d38	-0.3814485
243	0x3d4d8ce8	0.050183207
244	0x3e4bc64e	0.19899866
245	0x3e57ddc5	0.21080692
246	0x3e4f3cb4	0.20238
247	0x3ebba7cf	0.36651465
248	0xbdf7bbba	-0.12096353
249	0x3eabee85	0.33580413
250	0xbe66e3a3	-0.22547774
251	0xbda1a8ec	-0.078935474
252	0x3d2f77a2	0.0428387
253	0xbdc1e92a	-0.09468301
254	0xbea58a06	-0.32331866
255	0xbc2fc045	-0.010726993

action_model._discrete_distribution.branches.0.bias f4 [3]
0	0x3b9ef732	0.0048512453
1	0x3d65a50b	0.0560656
2	0xbed4ae88	-0.41539407

action_model._discrete_distribution.branches.1.weight f4 [3, 128]
0	0xbe8ca48a	-0.27469283
1	0x3e0e8cc8	0.13920891
2	0xbf6c7e31	-0.9238005
3	0xbf1272e4	-0.5720656
4	0x3d6a49e8	0.05719939
5	0x3d99dfdb	0.075134
6	0xbee74bf7	-0.45175144
7	0x3cd0be84	0.02548147
8	0xbd685a13	-0.056726526
9	0xbf52de78	-0.8237071
10	0xbda96c81	-0.082726486
11	0x3e6a9709	0.22909178
12	0x3d33622b	0.043794792
13	0x3e487552	0.19576004
14	0xbf113cbe	-0.5673331
15	0x3d3b6bfc	0.04575728
16	0x3e29546b	0.16536109
17	0xbdae203c	-0.08502242
18	0x3eae6180	0.34058762
19	0xbda6c36b	-0.08142742
20	0xbf6a1aef	-0.9144735
21	0x3b97e53b	0.0046354807
22	0x3df736ca	0.12070997
23	0x3dcc5754	0.09977594
24	0xbeda7075	-0.42663923
25	0x3d8f4b6e	0.06996809
26	0xbd87dcf7	-0.066339426
27	0x3e3c28ef	0.1837499
28	0xbdb7fedf	-0.0898416
29	0xbf27c505	-0.65535
30	0x3eb79df6	0.35862702
31	0x3d421b00	0.04738903
32	0x3e9075b2	0.28214794
33	0x3e70c3db	0.23512213
34	0xbe431e29	-0.19054474
35	0xbf32c9c9	-0.6983915
36	0x3dcdfb5e	0.1005771
37	0x3e90f026	0.2830822
38	0xbf18b2ed	-0.5964802
39	0x3cf3fea2	0.029784504
40	0x3c5e96be	0.013585744
41	0xbf11d7dc	-0.5697
42	0xbf0d209e	-0.55127895
43	0x3d986bd5	0.07442442
44	0x3c1611d7	0.009159527
45	0xbc947fe4	-0.01812739
46	0xbebb9670	-0.36638212
47	0xbecbc726	-0.39800376
48	0x3e51e5bb	0.20497791
49	0x3aa0b3e7	0.0012260646
50	0x3d60695d	0.054787982
51	0x3e0dadba	0.13835803
52	0x3de36ed4	0.11105123
53	0xbe4bf9ef	-0.19919561
54	0x3edc5c60	0.43039227
55	0xbd562b10	-0.05228716
56	0xbf1568ad	-0.5836285
57	0x3b091e37	0.002092255
58	0x3e76b09c	0.24090809
59	0xbf0ab392	-0.5418025
60	0x3ca22ae5	0.019795844
61	0xbe8236d4	-0.25432456
62	0xbf142175	-0.5786355
63	0x3e5e1c2e	0.21690437
64	0xbed75d6c	-0.42063463
65	0x3ed347d7	0.41265747
66	0x3af5f226	0.0018764182
67	0xbdc02805	-0.09382633
68	0xbe000ff6	-0.12506089
69	0x3f7b7c95	0.9823697
70	0xbf69cabd	-0.9132498
71	0x3d8f1a0d	0.06987391
72	0x3e4832d8	0.19550645
73	0x3e9b6edf	0.30358025
74	0x3d768e25	0.060194153
75	0xbf28cc85	-0.6593707
76	0x3e8b608a	0.2722209
77	0x3dd967b6	0.106154844
78	0x3f220b3c	0.6329839
79	0x3d9a45ec	0.07532868
80	0xbea6ea34	-0.32600558
81	0x3e296ef0	0.16546226
82	0x3eb956df	0.3619909
83	0xbcf43edc	-0.02981513
84	0x3dc3b747	0.09556442
85	0xbd2fd6ba	-0.04292939
86	0x3d2559b8	0.040368766
87	0x3dbcb44a	0.09214075
88	0x3dceed26	0.10103826
89	0xbc65c67c	-0.014024373
90	0x3e44b312	0.19208935
91	0xbde3b09c	-0.1111767
92	0x3cea43ac	0.028596722
93	0xbd31f303	-0.043444645
94	0x3e3abfc0	0.1823721
95	0xbe8a03a6	-0.2695591
96	0x3e0d6df6	0.13811478
97	0xbe6b5357	-0.2298101
98	0x3cb37437	0.021906001
99	0x3e211bb4	0.15733224
100	0x3d394408	0.045230895
101	0x3d062dd8	0.032758564
102	0x3e38c975	0.180456
103	0xbf19f2d2	-0.6013614
104	0xbec74164	-0.38917077
105	0x3d103067	0.03520241
106	0xbe9c632d	-0.30544415
107	0xbf10ebd1	-0.5660983
108	0xbe960883	-0.2930337
109	0xba8a85dc	-0.0010568458
110	0xbc2d9297	-0.010594032
111	0xbebd56bc	-0.36980236
112	0xbd88df78	-0.06683248
113	0x3eb05544	0.34440053
114	0xbf537b5e	-0.8261012
115	0xbc33bb15	-0.010969897
116	0x3de75077	0.11294644
117	0x3d8053fc	0.06266019
118	0x3b54ef5f	0.003249131
119	0x3cd4d361	0.0259797
120	0xbe1aa0b1	-0.15100361
121	0xbd69c367	-0.057071116
122	0xbd2bce2d	-0.04194467
123	0xbf1b98a6	-0.607798
124	0x3c9b6efa	0.018973816
125	0x3e2c2a44	0.16812998
126	0xbf221880	-0.63318634
127	0x3d25f5b2	0.040517516
128	0xbe72decc	-0.23717803
129	0xbe6babec	-0.23014802
130	0x3f6e69b2	0.9313003
131	0x3f0d39cb	0.5516631
132	0xbe58d5c0	-0.21175289
133	0xbe89fda3	-0.26951322
134	0x3dec4e3c	0.115383595
135	0x3de62ac2	0.11238624
136	0x3db67f7e	0.08911036
137	0x3f334b28	0.70036554
138	0xbe9c83c2	-0.30569273
139	0xbf7c6d69	-0.98604447
140	0x3e0667e8	0.13125575
141	0xbda5ac9d	-0.08089564
142	0x3ec445e2	0.38334566
143	0xbd97ff32	-0.074217215
144	0xbedf23ee	-0.435821
145	0xbea0eb5c	-0.31429565
146	0xbdcf4e5e	-0.10122369
147	0x3da7b615	0.08189026
148	0x3ef30bd1	0.47469953
149	0x3e2dc52f	0.16969751
150	0x3e841dd0	0.25803995
151	0xbe0e8cbc	-0.13920873
152	0x3e28117f	0.16412924
153	0xbe65503e	-0.22393891
154	0x3f0b370f	0.5438089
155	0xbd5a3d89	-0.05328134
156	0x3e4778d5	0.19479688
157	0x3f3bbee8	0.73338175
158	0xbf35e63d	-0.7105444
159	0xbd1706e4	-0.036871806
160	0xbec23690	-0.37932253
161	0xbed1e9df	-0.40998742
162	0x3e835b5a	0.25655633
163	0x3eb19d61	0.34690383
164	0xbd62f00c	-0.055404708
165	0xbeaac1ab	-0.33350882
166	0x3f2ea874	0.6822579
167	0xbe02fec8	-0.12792504
168	0xbe522515	-0.20521958
169	0x3f541706	0.8284763
170	0x3ee80e3d	0.45323363
171	0x3dd2fa55	0.10301653
172	0xbc3f9497	-0.011693141
173	0xbcb45dec	-0.022017442
174	0x3f47c6cc	0.78037715
175	0xbde28e0e	-0.11062251
176	0x3e39e359	0.18153132
177	0x3e2510bc	0.16119665
178	0xbe763880	-0.2404499
179	0xbe781c18	-0.24229467
180	0xbf3cf668	-0.73813486
181	0x3f1beaaa	0.60904944
182	0xbc48b3a9	-0.012249866
183	0x3e397d12	0.18114117
184	0x3ef3d960	0.4762678
185	0xbd472687	-0.048620727
186	0x388569e4	6.361658e-05
187	0x3eaf414e	0.3422951
188	0xbea25c07	-0.31710836
189	0xbd468511	-0.048466746
190	0x3ed655e9	0.4186242
191	0x3eabeb5c	0.33578002
192	0x3dc16be6	0.09444408
193	0xbe096e31	-0.13420941
194	0xbeae6135	-0.34058538
195	0x3da299d0	0.07939494
196	0xbd8cdc10	-0.06877911
197	0xbf3e6338	-0.74370146
198	0x3f6f8945	0.9356883
199	0x3dfbc06a	0.122925594
200	0xbdbf07d0	-0.09327662
201	0xbda19ad5	-0.0789086
202	0x3ceebb75	0.02914212
203	0x3f12a624	0.5728476
204	0xbf530679	-0.8243175
205	0x3e2a8edb	0.16656058
206	0xbf22a872	-0.6353828
207	0x3e0f4269	0.13990177
208	0xbeb160a2	-0.34644037
209	0xbf76e83e	-0.96448123
210	0xbeb0b1e2	-0.34510714
211	0xbdc2ec4e	-0.09517728
212	0xbeebf1e9	-0.46083
213	0x3d968732	0.07350005
214	0xbe071453	-0.13191347
215	0xbe97a6cf	-0.29619452
216	0xbdd7a07b	-0.10528656
217	0x3d852c68	0.065026104
218	0x3e1deb2f	0.15421747
219	0x3f0e9ba2	0.55706227
220	0x3e86c6cf	0.26323554
221	0xbe8d4c91	-0.27597478
222	0x3ea1d827	0.31610224
223	0x3f0bcc39	0.54608494
224	0x3db5dd56	0.08880107
225	0x3e8d0cbf	0.27548787
226	0xbc4232b6	-0.011852911
227	0xbecbb59b	-0.3978699
228	0x3e01be74	0.12670308
229	0xbc3cae3a	-0.011516148
230	0xbe5a7281	-0.21332742
231	0x3edf260c	0.43583715
232	0x3f1c5016	0.610597
233	0xbf208f55	-0.6271871
234	0xbcc673ad	-0.02422508
235	0x3f37820b	0.71682805
236	0x3f05575e	0.52086437
237	0xbd0c6830	-0.03427905
238	0x3d761048	0.06007412
239	0x3e26051a	0.16212884
240	0xbebe0ced	-0.37119237
241	0xbdf8037b	-0.12110039
242	0x3e734a4d	0.23758812
243	0x3dd0411c	0.10168669
244	0xbd418227	-0.047243264
245	0xbe9388e6	-0.28815383
246	0x3db3918a	0.08767994
247	0xbd667b1a	-0.056269743
248	0x3e811313	0.25209865
249	0x3db3e2d0	0.087834954
250	0xbe50f197	-0.20404659
251	0x3e190761	0.14944221
252	0xbe3aaa19	-0.1822895
253	0xbf0a7ad2	-0.5409366
254	0x3ee4f323	0.4471675
255	0x3e125999	0.14291991

action_model._discrete_distribution.branches.1.bias f4 [3]
0	0x3d96361e	0.07334541
1	0xbd75b499	-0.059986684
2	0xbd31ccbc	-0.04340814
