results/BotHalfLoop/BotControllerAgent/BotControllerAgent-1499996.onnx (onnx, 197119 bytes, 11 tensors)

discrete_act_size_vector f4 [1, 2]
3.0 3.0
00000000: 0000 4040 0000 4040

network_body._body_endoder.seq_layers.0.weight f4 [128, 104]
-0.42332238 0.049536128 -0.33110234 0.024001393 -0.15340394 -0.06519194 -0.017304583 0.43208185
-0.044969507 0.09465187 0.06843343 0.06892338 0.017663298 -0.03768629 0.044936746 0.11746772
0.12389122 -0.12548463 -0.4250784 -0.05715599 0.04612393 0.13601671 -0.21617807 0.07753613
-0.03980405 -0.018304009 0.20832853 0.25577533 -0.26741317 -0.073595986 0.14997366 -0.06781183
0.07398678 0.026463231 0.09000592 0.053340573 0.2991239 -0.1792746 0.0018315841 0.03299433
0.36110717 0.068611495 -0.30523217 -0.12497339 -0.10232667 0.07684365 -0.11452293 0.20348644
-0.17015024 -0.14176558 -0.0536963 0.040239934 -0.05707605 -0.052474696 -0.1845629 -0.010901744
-0.11261529 0.035632454 -0.304691 -0.23841013 0.29633075 -0.08765906 -0.04606048 -0.09537377
0.04347007 -0.041433185 -0.1618591 0.1232571 0.010110913 -0.052704047 0.042516973 0.2204751
0.039614588 -0.08174928 -0.085643224 0.06699604 -0.023814678 0.0036855487 0.10953733 -0.18081263
0.124396905 0.10565149 0.04760997 0.11215849 -0.14236319 0.062699564 0.106278695 0.23209992
0.009963561 -0.03136202 -0.02432707 0.18300234 -0.115502946 -0.013044929 0.070770614 0.19169801
-0.052577734 0.016679462 -0.40797776 0.093426384 -0.15656881 -0.019533886 -0.1889564 -0.10424134
-0.11564649 0.014506163 -0.3157985 -0.13237618 -0.04826779 0.13094646 0.046678275 0.10073892
0.30406323 0.0018460103 0.10099021 0.2144062 0.1295344 -0.1616359 -0.0067067663 0.08036698
-0.08114877 -0.025389709 0.07472307 -0.17280795 0.04996312 0.11947485 -0.27833018 0.044569544
-0.061709907 -0.07363194 -0.08745553 0.34055528 0.16160329 -0.20204191 0.097022496 -0.039186034
-0.27926987 -0.011784414 0.027885564 -0.021792937 -0.118432045 0.07971346 -0.685322 -0.24671325
-0.27246696 0.10850883 -0.0111759035 0.13028544 -0.12564136 -0.15858865 -0.1664346 0.34964526
0.18805745 0.01540443 -0.024954889 0.014208138 -0.12863159 -0.16651611 0.0043820767 0.14450589
0.105920695 0.041544616 -0.25509998 -0.017921427 -0.2735919 0.009892743 0.089389585 -0.10304888
-0.095255665 -0.03443352 -0.25578532 0.27792445 -0.09529435 -0.022246724 -0.35134712 0.11265473
-0.061161928 0.03603913 0.16242673 0.16575158 0.0043546585 0.099888876 -0.2699043 0.117229514
0.18696173 -0.0068186014 0.10252751 -0.08207436 -0.19775961 0.0679351 0.09967175 0.17379174
0.004142693 -0.054270435 -0.5028521 0.11356113 -0.0837393 -0.055094052 0.0845185 0.096389055
-0.25354832 0.07147846 -0.0034982893 -0.06947966 0.0763024 -0.034492396 -0.039330542 -0.109845236
-0.013584255 -0.041215256 0.032084778 0.23096654 0.09383604 0.054188788 -0.11964603 -0.3193995
-0.2572206 -0.2061908 0.20587635 0.012500938 0.034874257 0.1753804 -0.014408984 -0.28751686
-0.007876366 0.13445698 -0.17943561 0.35532972 0.17412181 0.121718235 0.0005728144 -0.12667635
-0.11992564 -0.31132448 -0.11421912 -0.12123573 -0.12398662 -0.010642786 0.48124623 0.27412117
0.094339214 0.19338943 -0.2083654 -0.05373559 -0.2657952 0.0035327745 -0.65828323 0.06592574
0.075543806 0.032150347 0.010331991 -0.025409624 -0.042615484 -0.039846715 0.02738107 -0.024308529
00000000: b6bd d8be 65e6 4a3d 3f86 a9be 929e c43c
00000010: ec15 1dbe 5a83 85bd 57c2 8dbc d539 dd3e
00000020: f231 38bd d7d8 c13d d326 8c3d b327 8d3d
00000030: 9fb2 903c f05c 1abd 980f 383d ea92 f03d
00000040: aeba fd3d 0b7f 00be e0a3 d9be 661c 6abd
00000050: 72ec 3c3d f747 0b3e c95d 5dbe 43cb 9e3d
00000060: 9209 23bd 4af2 95bc 1354 553e fcf4 823e
00000070: 61ea 88be 7eb9 96bd b292 193e eee0 8abd
00000080: 6286 973d 6bc9 d83c 0655 b83d a57b 5a3d
00000090: c526 993e c393 37be c411 f03a 1025 073d
000000a0: 0ae3 b83e 2f84 8c3d 6447 9cbe 0cf2 ffbd
000000b0: a590 d1bd 3460 9d3d ff8a eabd c05e 503e
000000c0: dd3b 2ebe ff2a 11be a7f0 5bbd a1d2 243d
000000d0: 94c8 69bd b5ef 56bd 0ffe 3cbe 3a9d 32bc
000000e0: d8a2 e6bd 56f3 113d 7500 9cbe c921 74be
000000f0: aab8 973e 9886 b3bd eaa9 3cbd 5353 c3bd
00000100: ac0d 323d d8b5 29bd 64be 25be 386e fc3d
00000110: 3ea8 253c 33e0 57bd 4726 2e3d 3ac4 613e
00000120: e842 223d 2b6c a7bd b765 afbd 3835 893d
00000130: 0017 c3bc 3f89 713b 1c55 e03d f226 39be
00000140: cec3 fe3d cf5f d83d ac02 433d 5ab3 e53d
00000150: a8c7 11be a168 803d a5a8 d93d 9aab 6d3e
00000160: 343e 233c 7675 00bd 9049 c7bc f764 3b3e
00000170: cf8c ecbd 66ba 55bc 2ff0 903d 7c4c 443e
00000180: c05b 57bd 5ea3 883c 76e2 d0be 5556 bf3d
00000190: 9353 20be 8705 a0bc c97d 41be 7c7c d5bd
000001a0: 11d8 ecbd 42ab 6d3c 57b0 a1be 9f8d 07be
000001b0: 72b4 45bd d416 063e b831 3f3d 3550 ce3d
000001c0: 2dae 9b3e d4f5 f13a f5d3 ce3d 4d8d 5b3e
000001d0: aaa4 043e e283 25be 6fc4 dbbb 7197 a43d
000001e0: 5431 a6bd 14fe cfbc 6908 993d 91f4 30be
000001f0: 21a6 4c3d 3baf f43d 4b81 8ebe 8e8e 363d
00000200: 87c3 7cbd 58cc 96bd e31b b3bd 435d ae3e
00000210: 557b 253e 13e4 4ebe bbb3 c63d 8981 20bd
00000220: 76fc 8ebe 6a13 41bc 4470 e43c 1a87 b2bc
00000230: 808c f2bd cf40 a33d 4371 2fbf 66a2 7cbe
00000240: ca80 8bbe e139 de3d 231b 37bc 8c69 053e
00000250: 21a8 00be 1065 22be d56d 2abe b404 b33e
00000260: 2292 403e dd62 7c3c 326e ccbc 40c9 683c
00000270: 00b8 03be 3383 2abe 8697 8f3b 5af9 133e
00000280: f3ec d83d b02a 2a3d 779c 82be f5cf 92bc
00000290: 3d14 8cbe 2c15 223c e311 b73d 4b0b d3bd
000002a0: 6715 c3bd 2a0a 0dbd 4bf6 82be 1d4c 8e3e
000002b0: af29 c3bd c33e b6bc c5e3 b3be 86b7 e63d
000002c0: ee84 7abd c49d 133d 3153 263e c8ba 293e
000002d0: 86b1 8e3b 8a92 cc3d e530 8abe 0716 f03d
000002e0: e572 3f3e 936e dfbb f1f9 d13d 9a16 a8bd
000002f0: 7f81 4abe 8f21 8b3d b420 cc3d 76f6 313e
00000300: 6dbf 873b ad4a 5ebd eaba 00bf bd92 e83d
00000310: 837f abbd 4daa 61bd 0918 ad3d a067 c53d
00000320: 16d1 81be 4d63 923d 8e43 65bb 5a4b 8ebd
00000330: 6f44 9c3d e647 0dbd 1019 21bd 8af6 e0bd
00000340: 7f90 5ebc 54d1 28bd 546b 033d 7e82 6c3e
00000350: 1c2d c03d 10f5 5d3d fa08 f5bd 5588 a3be
00000360: 6bb2 83be ae23 53be 40d1 523e bcd0 4c3c
00000370: 4fd8 0e3d eb96 333e a913 6cbc 6935 93be
00000380: e00b 01bc 17af 093e f8bd 37be c7ed b53e
00000390: fd4c 323e 6947 f93d ec28 163a 72b7 01be
000003a0: 939b f5bd ec65 9fbe b7eb e9bd 704a f8bd
000003b0: b2ec fdbd 145f 2ebc e865 f63e 9c59 8c3e
000003c0: eb34 c13d e107 463e bd5d 55be da19 5cbd
000003d0: 4f16 88be 1f86 673b 4085 28bf 1304 873d
000003e0: b6b6 9a3d 15b0 033d 8347 293c d827 d0bc
000003f0: 938d 2ebd 4f36 23bd 444e e03c ae22 c7bc

network_body._body_endoder.seq_layers.0.bias f4 [128]
0.0065466096 0.013486251 0.0020014844 0.011928411 0.060103994 0.026701815 0.06024267 0.04567051
-0.031263817 0.025176678 -0.008120528 -0.060589314 0.0063724364 0.02376548 0.022356223 0.013759695
0.013862496 -0.014738484 -0.051886953 -0.018867567 0.030643662 0.011191408 0.0016440941 -0.037177697
-0.0041435743 0.0461857 0.017947631 0.0025570665 0.013377399 0.0076399846 0.05327336 -0.0019293991
0.03227796 0.018845774 0.03931645 0.023431659 -0.004375026 -0.034382828 -0.0073292255 -0.018479453
-0.020167181 0.038623586 -0.013928403 0.04319555 0.011800672 -0.027035994 0.08536164 0.041628797
0.03730134 -0.013670917 0.011069971 -0.008460694 -0.030130973 0.06674483 -0.034976155 -0.035913672
0.011038126 -0.03014098 0.0075156195 0.021312648 -0.028656792 0.0761961 0.033388097 -0.040704932
-0.026077094 -0.007949213 -0.008224742 0.051584955 0.017925533 -0.008182862 -0.0016166024 -0.01699657
-0.015824364 -0.0205872 0.013691436 0.034546852 0.0034196712 -0.029125877 0.029162904 -0.005246001
0.007016544 -0.0102540245 0.018827513 -0.009403254 -0.0068656816 0.011162196 0.045576446 -0.013817684
0.02825206 0.026471289 0.034662914 0.01243583 0.009205174 0.052205745 -0.011656674 0.00786581
-0.002268279 -0.011353776 0.04562157 0.00851821 -0.0033305336 0.0012114656 -0.025197232 0.014432108
0.024554675 0.015790973 0.02428018 0.036669854 0.012751124 0.016104655 -0.009022075 0.035106312
0.03626979 0.0069270437 -0.0011045589 0.019167008 0.041281164 0.04702418 -0.0025191167 -0.024940617
-0.0433676 0.010536842 0.02049526 0.024187066 -0.00042878508 0.010287473 -0.021714935 0.012203686
00000000: f184 d63b 70f5 5c3c 562b 033b 626f 433c
00000010: 9b2f 763d c4bd da3c 05c1 763d 0011 3b3d
00000020: 7d0e 00bd 523f ce3c f70b 05bc 802c 78bd
00000030: dfcf d03b d3af c23c 6624 b73c 5870 613c
00000040: 861f 633c af79 71bc 6a87 54bd 2890 9abc
00000050: 6b08 fb3c 2b5c 373c a57e d73a a447 18bd
00000060: d2c6 87bb 372d 3d3d e906 933c 7594 273b
00000070: e12c 5b3c d658 fa3b 2b35 5a3d e4e3 fcba
00000080: e535 043d 7462 9a3c 490a 213d c0f3 bf3c
00000090: 615c 8fbb 02d5 0cbd 002a f0bb 3962 97bc
000000a0: a535 a5bc c433 1e3d f533 64bc d1ed 303d
000000b0: 9b57 413c 977a ddbc 15d2 ae3d f582 2a3d
000000c0: 4ac9 183d fbfb 5fbc d35e 353c b99e 0abc
000000d0: 3bd5 f6bc 83b1 883d 2843 0fbd 371a 13bd
000000e0: 42d9 343c 37ea f6bc 9645 f63b dd97 ae3c
000000f0: a6c1 eabc b30c 9c3d f5c1 083d 37ba 26bd
00000100: a19f d5bc 6a3d 02bc 11c1 06bc bf4a 533d
00000110: 91d8 923c 6911 06bc 2de4 d3ba 643c 8bbc
00000120: 19a2 81bc 7da6 a8bc 0b52 603c 0081 0d3d
00000130: 901c 603b 6499 eebc 0be7 ee3c a5e6 abbb
00000140: 0aeb e53b 7f00 28bc 283c 9a3c 1b10 1abc
00000150: 83f9 e0bb a5e1 363c 5eae 3a3d 9163 62bc
00000160: dd70 e73c 51da d83c b3fa 0d3d a7bf 4b3c
00000170: 4cd1 163c b1d5 553d a2fb 3ebc 99df 003c
00000180: 68a7 14bb 3005 3abc afdd 3a3d f68f 0b3c
00000190: 1545 5abb 0aca 9e3a 6d6a cebc a674 6c3c
000001a0: e326 c93c 125c 813c 3ae7 c63c 2133 163d
000001b0: 17ea 503c e9ed 833c 53d1 13bc a3cb 0f3d
000001c0: a28f 143d 41fc e23b d9c6 90ba 2104 9d3c
000001d0: 7016 293d 6d9c 403d c417 25bb 4450 ccbc
000001e0: 39a2 31bd b8a2 2c3c ade5 a73c f423 c63c
000001f0: 8fce e0b9 ca8c 283c 85e3 b1bc f8f1 473c

network_body._body_endoder.seq_layers.2.weight f4 [128, 128]
0.0731265 -0.061376937 -0.10193971 0.12692481 0.05568967 0.110114746 -0.19416876 0.18341486
-0.023207406 -0.18239658 0.06402127 0.25006476 0.09839026 -0.0024845 0.09070313 -0.1482249
-0.30935666 0.0936814 0.14220537 0.061175466 -0.12975241 0.061289996 0.018695885 0.28898564
0.111517385 -0.21374892 -0.17852716 -0.054986957 -0.104877844 0.04963376 0.108462505 -0.027610578
-0.10082573 -0.11991274 0.07569771 0.04321083 0.09871881 0.13710281 0.049552944 -0.025416424
-0.006852617 0.13784936 0.060552794 -0.011413401 -0.10496716 0.14596373 -0.040190715 0.017329069
-0.048442114 -0.075089015 -0.08014184 0.066323176 0.047781743 -0.09789626 0.12631513 0.13877957
0.058616847 -0.123497814 -0.084548905 -0.18316615 0.13188839 -0.04273571 0.056563955 0.23414975
0.039577957 0.063496426 -0.006984469 0.035247594 0.020334193 0.17637338 -0.27577987 0.121934086
0.075134285 0.015882721 0.028672276 -0.31321195 -0.08651165 0.039040424 -0.22545022 -0.025672257
0.07451342 -0.12631074 -0.080539525 0.24041837 -0.033586547 -0.1577956 0.035582557 -0.010262987
-0.13520935 -0.16651785 0.07668934 0.1704047 0.10497017 0.15262894 -0.09388664 -0.11657162
-0.101013504 -0.040117458 -0.10480412 -0.20719013 0.10407612 -0.04556922 -0.0069838576 -0.06315309
0.09877873 -0.10517151 -0.07697966 0.08162931 -0.13185981 -0.05490354 -0.049868017 -0.022094702
0.061048023 0.05054906 0.19030175 0.15673709 -0.15076947 -0.26631424 0.059678134 0.19463542
-0.16896042 0.020983636 -0.19462624 0.026230665 0.21489169 -0.042327188 -0.06294902 -0.3477485
-0.17039187 -0.14999434 -0.00976119 -0.019017713 -0.07821811 0.028366609 0.0045013092 -0.061091118
0.04975527 -0.13396949 0.08274695 -0.034636155 -0.008654155 -0.15624204 -0.029838292 -0.055743854
-0.0014879 0.19941759 -0.15073648 0.2039135 0.04126718 -0.035173144 -0.089170694 0.08305924
0.028314754 -0.29741514 0.04478348 -0.007159145 -0.019990949 0.11320973 0.04949456 -0.0086250985
-0.017058168 -0.11358404 -0.006705325 0.15410464 -0.1239123 0.17104848 -0.13727105 -0.0671164
-0.036473196 0.12196807 0.19253659 0.023466349 -0.081954814 0.1819802 0.10720734 -0.046110913
-0.06484673 -0.046681415 -0.14874426 0.021656029 -0.06349136 0.0051726107 0.119430274 -0.085594535
0.10416463 -0.0033062936 0.012314035 -0.15858832 0.11662446 0.047078893 -0.08468707 -0.064271204
0.068986595 0.17307036 -0.13421606 -0.00276079 0.15586601 0.053094625 0.08779401 -0.033125464
0.0926628 0.19700043 -0.16042273 -0.097275205 -0.049200002 0.034905013 -0.118446246 0.22450778
-0.0042532748 -0.05959068 -0.26826456 -0.053937696 0.008433814 -0.16481891 0.020447243 0.075053655
0.21207666 -0.06368687 -0.048414227 0.15534246 0.04670311 -0.014151515 -0.09390593 -0.08292766
0.14450614 -0.08020487 0.026469314 -0.19437423 -0.035892714 0.033397723 0.14704387 0.15184905
-0.20457004 -0.09676499 -0.10410296 0.12897371 0.039789338 -0.0061424295 -0.00499139 -0.088707715
-0.012580173 -0.032740474 0.10139938 -0.009872581 0.07125054 -0.21097969 -0.11694399 0.17986102
-0.02895718 0.092273705 0.25250491 0.09024153 0.062473934 -0.2803371 -0.009829202 0.031058058
00000000: 59c3 953d 6266 7bbd c4c5 d0bd 94f8 013e
00000010: da1a 643d d783 e13d 2dd4 46be 1bd1 3b3e
00000020: 751d bebc 2bc6 3abe 951d 833d 7d08 803e
00000030: d580 c93d fed2 22bb 90c2 b93d 45c8 17be
00000040: ff63 9ebe 09dc bf3d 499e 113e 2093 7a3d
00000050: d1dd 04be 380b 7b3d 1d28 993c edf5 933e
00000060: 3a63 e43d ffe0 5abe d3cf 36be 013a 61bd
00000070: 32ca d6bd c54c 4b3d 9721 de3d 942f e2bc
00000080: b87d cebd d094 f5bd 6707 9b3d d7fd 303d
00000090: 162d ca3d ae64 0c3e 07f8 4a3d 1b36 d0bc
000000a0: eb8b e0bb 6228 0d3e 3506 783d 46ff 3abc
000000b0: 06f9 d6bd 8477 153e 059f 24bd b1f5 8d3c
000000c0: 3d6b 46bd 45c8 99bd 6821 a4bd 72d4 873d
000000d0: cab6 433d d67d c8bd c158 013e 3b1c 0e3e
000000e0: 3818 703d 6cec fcbd fa27 adbd e88f 3bbe
000000f0: c00d 073e a40b 2fbd 9baf 673d f4c4 6f3e
00000100: 7f1c 223d 6a0a 823d f9dd e4bb c85f 103d
00000110: e593 a63c 399b 343e 0533 8dbe 94b8 f93d
00000120: 01e0 993d 7b1c 823c 1fe2 ea3c 515d a0be
00000130: 052d b1bd dae8 1f3d 6cdc 66be a04e d2bc
00000140: 7e9a 983d 9a57 01be e8f1 a4bd 3c30 763e
00000150: 0c92 09bd 2b95 21be 04bf 113d 1626 28bc
00000160: 5274 0abe a883 2abe 4d0f 9d3d 927e 2e3e
00000170: 9afa d63d c34a 1c3e a447 c0bd 1abd eebd
00000180: 2be0 cebd 3452 24bd 8ba3 d6bd a629 54be
00000190: dc25 d53d caa6 3abd d8d8 e4bb 6856 81bd
000001a0: 814c ca3d 2964 d7bd 83a7 9dbd 452d a73d
000001b0: 4206 07be 89e2 60bd 6842 4cbd f3ff b4bc
000001c0: 7e0d 7a3d 880c 4f3d 76de 423e b07f 203e
000001d0: 5063 1abe 575a 88be 0f71 743d 824e 473e
000001e0: f603 2dbe e0e5 ab3c 1a4c 47be b1e1 d63c
000001f0: 910c 5c3e 465f 2dbd 6aeb 80bd 170c b2be
00000200: 357b 2ebe 1e98 19be 66ed 1fbc 09cb 9bbc
00000210: d130 a0bd 1761 e83c b87f 933b ae3a 7abd
00000220: 2fcc 4b3d 4c2f 09be 3c77 a93d a4de 0dbd
00000230: 28ca 0dbc eafd 1fbe 6f6f f4bc ab53 64bd
00000240: a405 c3ba 2034 4c3e aa5a 1abe b3ce 503e
00000250: c607 293d b711 10bd 209f b6bd f61a aa3d
00000260: 58f4 e73c cc46 98be e26e 373d 4397 eabb
00000270: 0fc4 a3bc 81da e73d cfba 4a3d 4950 0dbc
00000280: 92bd 8bbc c09e e8bd 58b8 dbbb 9bcd 1d3e
00000290: bbc5 fdbd 5527 2f3e c890 0cbe 5374 89bd
000002a0: eb64 15bd 65ca f93d 5028 453e 803c c03c
000002b0: edd7 a7bd 0459 3a3e 868f db3d ccde 3cbd
000002c0: 5dce 84bd 0335 3fbd 6a50 18be fc67 b13c
000002d0: c207 82bd 017f a93b dc97 f43d 304c afbd
000002e0: 4454 d53d 67ae 58bb cec0 493c fa64 22be
000002f0: ced8 ee3d ccd5 403d 6a70 adbd 9fa0 83bd
00000300: d848 8d3d 5b39 313e ef6f 09be 5fee 34bb
00000310: 579b 1f3e c079 593d 59cd b33d 91ae 07bd
00000320: fec5 bd3d 7bba 493e db45 24be 3938 c7bd
00000330: f185 49bd 8ff8 0e3d f293 f2bd 5ee5 653e
00000340: 0e5f 8bbb 5b15 74bd f959 89be c6ed 5cbd
00000350: fb2d 0a3c 4ac6 28be fa80 a73c bbb5 993d
00000360: a02a 593e 436e 82bd ff4d 46bd 1812 1f3e
00000370: c34b 3f3d c2db 67bc c151 c0bd fad5 a9bd
00000380: 6bf9 133e 7342 a4bd 2dd6 d83c 0a0a 47be
00000390: 3d04 13bd 0dcc 083d ab92 163e 517e 1b3e
000003a0: cf7a 51be b92c c6bd ef33 d5bd af11 043e
000003b0: 25fa 223d 6f46 c9bb d08e a3bb 64ac b5bd
000003c0: 121d 4ebc e01a 06bd 7aaa cf3d 9bc0 21bc
000003d0: ceeb 913d 0f0b 58be 5580 efbd 7d2d 383e
000003e0: 9c37 edbc fff9 bc3d 5348 813e 8dd0 b83d
000003f0: abe4 7f3d 5888 8fbe a90a 21bc 786d fe3c

network_body._body_endoder.seq_layers.2.bias f4 [128]
0.0072572785 0.0009834237 0.03383287 0.05103903 -0.029306369 0.04116049 0.015460995 0.042940497
-0.007989188 -0.004486906 0.0071401647 0.002187326 0.018278774 0.036532328 0.012019205 0.06298193
-0.011764529 0.051391657 0.06043497 0.053589202 -0.016125804 0.020528749 0.028050715 -0.0034041286
0.0789789 0.026000328 0.033967163 0.010693587 -0.0041823443 -0.04473102 0.053273655 0.012221718
-0.029908916 -0.018733107 0.046849143 0.035475865 0.06278094 0.05492267 0.04560456 0.0076867887
-0.00034415588 0.002327238 0.029729871 0.08235905 0.053257175 -0.01749696 -0.010694339 0.0033413605
-0.0016668648 -0.016639343 0.0015838179 0.022386853 0.016837176 0.042493306 0.06260087 -0.0056357314
-0.025934193 0.045741137 -0.0013649589 0.037488427 0.019748587 -0.014691927 -0.020789944 -0.0013383116
0.010930939 0.020384664 -0.036100604 0.0181273 0.010682694 -0.02343722 -0.01416121 0.0030737105
-0.004336383 0.034330215 -0.027840763 -0.021411864 0.033515684 -0.065711156 0.02465379 0.040200453
0.047553662 0.017641298 0.012854588 -0.010412667 0.039391622 0.016489385 -0.004428134 0.0456675
-0.035131197 0.02866396 0.0039725164 -0.041933063 0.064812146 -0.008851555 0.0036888337 0.018530158
0.047742862 0.02212464 0.032381665 0.021685654 0.01840608 0.023406412 -0.024447503 0.0474435
0.030254785 -0.0025192492 0.013347731 0.06253219 0.030418169 -0.0020350066 0.01176844 0.03379168
0.030258998 0.05765503 0.023437837 0.002363498 -0.0019611637 -0.039800562 0.01154595 0.018732326
0.047751933 0.020176424 0.027963506 -0.02557977 0.006493809 0.0010802664 0.026803266 -0.018158758
00000000: 77ce ed3b 39e6 803a 5694 0a3d 4d0e 513d
00000010: e913 f0bc e797 283d 1d50 7d3c 60e2 2f3d
00000020: 15e5 02bc e506 93bb 0bf8 e93b 3e59 0f3b
00000030: 5ebd 953c eca2 153d 33ec 443c acfc 803d
00000040: 03c0 40bc 0f80 523d a98a 773d 5a80 5b3d
00000050: 431a 84bc e82b a83c 9dca e53c cd17 5fbb
00000060: b1bf a13d a4fe d43c 2721 0b3d 2834 2f3c
00000070: 0c0c 89bb e037 37bd 7a35 5a3d 9a3d 483c
00000080: 8b03 f5bc 2c76 99bc e3e4 3f3d 244f 113d
00000090: 4b93 803d 98f6 603d d9cb 3a3d 75e1 fb3b
000000a0: d26f b4b9 9384 183b 0f8c f33c ddab a83d
000000b0: 3224 5a3d c955 8fbc 4f37 2fbc bafa 5a3b
000000c0: b47a daba 3b4f 88bc 1c98 cf3a a264 b73c
000000d0: 1eee 893c 760d 2e3d e334 803d f1ab b8bb
000000e0: f273 d4bc 0f5b 3b3d 6ce8 b2ba 778d 193d
000000f0: cac7 a13c 68b6 70bc ac4f aabc 496a afba
00000100: ae17 333c bdfd a63c 3ade 13bd b47f 943c
00000110: 7706 2f3c 6aff bfbc 6b04 68bc 4e70 493b
00000120: 3818 8ebb d79d 0c3d 5012 e4bc ef67 afbc
00000130: be47 093d 9293 86bd bff6 c93c 3ba9 243d
00000140: a1c7 423d 7c84 903c 0d9c 523c e499 2abc
00000150: 1c59 213d bf14 873c e119 91bb d80d 3b3d
00000160: bbe5 0fbd aed0 ea3c e22b 823b 01c2 2bbd
00000170: 3bbc 843d 1d06 11bc 5cc0 713b 8fcc 973c
00000180: 058e 433d bc3e b53c a3a2 043d 1da6 b13c
00000190: 59c8 963c cebe bf3c 2146 c8bc 1e54 423d
000001a0: e2d8 f73c fd19 25bb 71b0 5a3c e010 803d
000001b0: 862f f93c bf5d 05bb 6ad0 403c 2569 0a3d
000001c0: b8e1 f73c ae27 6c3d b500 c03c ebe4 1a3b
000001d0: de86 00bb ea05 23bd 392b 3d3c 8974 993c
000001e0: 8897 433d 0749 a53c b913 e53c aa8c d1bc
000001f0: 05ca d43b ba97 8d3a 8692 db3c adc1 94bc

network_body._body_endoder.seq_layers.4.weight f4 [128, 128]
-0.29491395 -0.06582054 -0.23579496 0.10828948 -0.2843934 -0.19673568 0.16304955 0.106570795
0.215979 -0.044434644 0.039814737 -0.19065988 0.030525414 -0.013910682 -0.15454565 0.15817602
0.5085949 -0.010431833 0.013483709 -0.3494407 -0.35310748 0.08257289 0.14652485 0.20197551
-0.3624819 0.11430578 -0.23381953 0.13550764 0.024371214 -0.30290917 -0.14968956 0.16415858
0.06567234 0.026356937 0.27431348 -0.0032398952 -0.1300199 0.096030496 -0.20612729 -0.3378764
-0.07955203 0.055830263 0.30730468 0.015308102 -0.1478198 0.2399582 0.034388795 0.33554116
0.12125421 0.015521476 0.14709502 0.037138168 -0.10854563 -0.035247635 -0.13392808 0.035666894
-0.37461737 0.06018563 -0.052901905 -0.3817843 -0.014054834 0.08703381 -0.021817014 -0.14722387
0.04584749 -0.008350744 -0.1481673 0.085834526 0.19520621 -0.28675625 0.08138606 -0.027353838
0.28493148 0.21973181 -0.004508743 0.059699744 -0.0029088291 0.05822146 -0.09523182 -0.18116213
0.20267387 0.005008302 -0.4403926 -0.17606989 -0.106287956 -0.04518026 0.036883235 0.037844706
0.25247514 -0.0981556 0.38777405 0.031739917 -0.25515294 0.12705548 -0.0048450422 0.09789041
0.11332276 0.39148062 -0.11313487 -0.10453587 -0.014061542 -0.03563891 0.2586248 -0.10667516
0.15758376 -0.32924372 -0.17373511 -0.19421963 -0.34388864 -0.1970275 0.21247184 -0.12494158
0.035392147 0.18741445 -0.19387642 -0.18836406 -0.057243377 0.1935417 -0.01107714 -0.0871014
0.12415504 -0.18723604 0.055690248 -0.10205393 0.33215132 -0.08071879 0.07445181 0.042310644
-0.08876175 -0.017212283 -0.005253174 0.1155424 -0.054562673 0.08037474 -0.031303316 0.0028663217
0.14186257 -0.018400673 0.037694883 0.0106399525 0.075096786 -0.19287914 -0.13668984 0.15688062
-0.16885355 0.031718295 0.11526401 -0.03956717 -0.01470141 -0.08351146 -0.07886161 0.15061061
0.07779096 0.16819009 0.103255175 0.13746452 0.2051408 -0.22254632 0.07547861 0.0419812
-0.11087793 -0.2017242 -0.10400464 -0.04103656 0.052157354 -0.037231714 -0.085867375 -0.026084695
0.0904488 0.051434446 0.09046145 0.20403048 -0.072501875 -0.33014008 -0.0046721688 -0.19159445
-0.004926065 0.012887034 -0.0038585397 0.13490602 0.083420455 -0.2544583 0.057274435 -0.22980793
-0.1950109 0.23256566 0.059225593 -0.140257 -0.06897664 0.18651769 0.041033715 -0.14899386
-0.008525438 0.075033344 0.07970449 0.1943336 -0.025565311 0.058472376 -0.022339426 -0.028365182
0.20667502 -0.08650187 0.036053706 0.04444148 -0.14792137 -0.16343914 -0.06849268 0.17788525
0.22884157 0.15363093 -0.18003853 0.08762205 -0.12263724 0.056418095 0.060910538 0.17154837
-0.035506047 0.023719555 -0.18808366 0.0002768846 0.034570068 0.11127636 -0.03981556 -0.23604728
0.06706208 0.021141332 0.12069238 0.08108487 -0.03985316 -0.09357909 0.32746336 0.14120026
-0.013325087 -0.0077667194 0.187621 0.057648588 -0.05844062 -0.08905236 0.34872612 -0.112480745
0.07299626 0.24399666 -0.03781474 -0.23062104 -0.09112632 -0.012068987 0.07632219 0.035400476
0.122816995 -0.057110634 0.014094158 0.037208237 0.019174742 -0.056516025 -0.08433112 0.08950872
00000000: f6fe 96be ebcc 86bd 3c74 71be e0c6 dd3d
00000010: 039c 91be 1475 49be 76f6 263e ca41 da3d
00000020: 9929 5d3e 1a01 36bd c714 233d 583c 43be
00000030: 6f10 fa3c a1e9 63bc 3741 1ebe e5f8 213e
00000040: 4633 023f 47ea 2abc c6ea 5c3c e4e9 b2be
00000050: 81ca b4be fa1b a93d 9c0a 163e abd2 4e3e
00000060: 3a97 b9be 2619 ea3d 636e 6fbe 84c2 0a3e
00000070: 24a6 c73c e916 9bbe 3848 19be 3019 283e
00000080: 387f 863d 81ea d73c d172 8c3e 6c54 54bb
00000090: f023 05be a3ab c43d 0813 53be 23fe acbe
000000a0: 2dec a2bd 46ae 643d 0a57 9d3e d5ce 7a3c
000000b0: 135e 17be 9ab7 753e 44db 0c3d 0dcc ab3e
000000c0: 2154 f83d ca4d 7e3c 14a0 163e 311e 183d
000000d0: 2c4d debd d35f 10bd 7124 09be 7317 123d
000000e0: d9cd bfbe 3585 763d abaf 58bd 3b79 c3be
000000f0: 3f46 66bc c83e b23d 98b9 b2bc dbc1 16be
00000100: 94ca 3b3d 8fd1 08bc 2bb9 17be 03ca af3d
00000110: 23e4 473e b7d1 92be bcad a63d 2815 e0bc
00000120: 8ae2 913e 6001 613e 14be 93bb b887 743d
00000130: 0ea2 3ebb a079 6e3d e708 c3bd 9182 39be
00000140: bd89 4f3e af1c a43b 247b e1be aa4b 34be
00000150: 80ad d9bd f00e 39bd e012 173d 0d03 1b3d
00000160: 6c44 813e ce05 c9bd 528a c63e b701 023d
00000170: 68a3 82be d51a 023e 29c3 9ebb c47a c83d
00000180: c315 e83d 2670 c83e 41b3 e7bd e716 d6bd
00000190: 6262 66bc 1bfa 11bd 786a 843e 8278 dabd
000001a0: a35d 213e a292 a8be 9ee7 31be 83e1 46be
000001b0: 2c12 b0be 94c1 49be 3892 593e 5fe1 ffbd
000001c0: 5bf7 103d 93e9 3f3e 8a87 46be 82e2 40be
000001d0: 0878 6abd cc2f 463e e57c 35bc 3862 b2bd
000001e0: ff44 fe3d ceba 3fbe 751b 643d a701 d1bd
000001f0: bd0f aa3e e54f a5bd 317a 983d ed4d 2d3d
00000200: b8c8 b5bd c600 8dbc d122 acbb 7ea1 ec3d
00000210: 1c7d 5fbd 839b a43d e837 00bd e6d8 3b3b
00000220: 6c44 113e 02bd 96bc f365 1a3d 3253 2e3c
00000230: 58cc 993d 1c82 45be 6cf8 0bbe 50a5 203e
00000240: f2e7 2cbe 0beb 013d 8a0f ec3d 2f11 22bd
00000250: 2fde 70bc 0e08 abbd 3282 a1bd ab39 1a3e
00000260: de50 9f3d 063a 2c3e 7377 d33d 80c3 0c3e
00000270: 6e10 523e 2fe3 63be 8894 9a3d 7bf4 2b3d
00000280: f813 e3bd ca90 4ebe 6200 d5bd f415 28bd
00000290: f3a2 553d 4880 18bd 3cdb afbd 92af d5bc
000002a0: 383d b93d edac 523d da43 b93d 5eed 503e
000002b0: dd7b 94bd 1f08 a9be fe18 99bb 5631 44be
000002c0: d46a a1bb 2324 533c 8edf 7cbb ce24 0a3e
000002d0: 58d8 aa3d 5c48 82be 9998 6a3d c552 6bbe
000002e0: f0b0 47be b125 6e3e 8996 723d 889f 0fbe
000002f0: a043 8dbd 7efe 3e3e f812 283d d991 18be
00000300: 47ae 0bbc 15ab 993d 1c3c a33d 63ff 463e
00000310: 586e d1bc bb80 6f3d 2c01 b7bc 195e e8bc
00000320: 9ea2 533e e427 b1bd 0dad 133d 4508 363d
00000330: b378 17be 975c 27be e445 8cbd 8d27 363e
00000340: 7255 6a3e 6d51 1d3e 055c 38be 3073 b33d
00000350: 3c29 fbbd a916 673d 547d 793d 60aa 2f3e
00000360: ca6e 11bd 834f c23c 0199 40be d22a 9139
00000370: 5899 0d3d dce4 e33d a415 23bd 61b6 71be
00000380: d857 893d 9630 ad3c 912d f73d d30f a63d
00000390: 113d 23bd 65a6 bfbd 47a9 a73e cd96 103e
000003a0: 7751 5abc f77f febb b81f 403e ed20 6c3d
000003b0: 6e5f 6fbd 1561 b6bd 3b8c b23e 4e5c e6bd
000003c0: 107f 953d 43da 793e a1e3 1abd ec27 6cbe
000003d0: 70a0 babd 00bd 45bc cf4e 9c3d 1700 113d
000003e0: 7a87 fb3d d7ec 69bd 2feb 663c aa67 183d
000003f0: 5914 9d3c 597d 67bd cbb5 acbd 5950 b73d

network_body._body_endoder.seq_layers.4.bias f4 [128]
0.0005395328 0.04269007 -0.093982525 -0.14371283 0.033358376 0.06251489 -0.015723974 0.020392047
0.059097756 -0.09055458 0.014957533 0.031547762 0.036592003 -0.004691386 -0.11906941 0.03569652
-0.008109283 0.010308335 0.038155884 -0.028247323 -0.10123416 0.008514814 -0.10312022 0.035944268
-0.045240987 0.0058686477 -0.09533626 0.061048053 0.01019998 -0.11744818 -0.00036531483 0.07314085
0.03693381 0.0074188905 -0.08518782 -0.10643919 0.02077554 0.04062658 -0.09088733 0.10749661
0.023114242 -0.083633915 -0.11259409 0.023090554 0.019238824 0.113686405 -0.080311045 -0.08743907
0.007843144 -0.014640543 0.0423876 0.024376916 0.023578675 -0.06109216 0.08596819 -0.012709763
-0.14087048 0.0074624782 -0.016429022 -0.108133666 0.040367022 -0.02016621 -0.04439685 -0.052164044
-0.11534941 0.034287598 0.02335513 0.030412592 -0.041173287 0.1215014 -0.09505547 -0.0068247593
-0.011933188 0.033883136 0.03314636 -0.03608008 0.029458657 -0.037000857 0.021702627 0.011501772
0.0104544815 0.032358665 0.014097987 0.056525733 0.077293985 0.029460523 0.053403 0.10306166
-0.024565212 -0.081068926 -0.019407194 0.025438298 0.0065624053 0.050695807 -0.14043795 -0.14605018
0.04352997 -0.030173901 0.020110428 0.028648233 0.011873818 0.024935486 0.005576067 -0.10433276
-0.11198111 0.033466943 -0.066847056 -0.13177924 0.05175773 0.07556189 -0.004986858 -0.043091327
-0.002230928 0.038629875 -0.052287914 0.035351306 0.004993607 0.030288888 -0.050336815 -0.031253826
-0.055610716 -0.0134523 -0.011755129 -0.06883244 0.06930253 0.025660114 -0.06078234 0.012402329
00000000: 6f6f 0d3a c8db 2e3d e979 c0bd 7529 13be
00000010: cba2 083d cf07 803d 90cf 80bc 390d a73c
00000020: 7d10 723d ae74 b9bd 7110 753c 3a38 013d
00000030: 7fe1 153d 33ba 99bb aada f3bd 8436 123d
00000040: ccdc 04bc 4ae4 283c 5849 1c3d ee66 e7bc
00000050: db53 cfbd b881 0b3c b230 d3bd 4c3a 133d
00000060: 9d4e 39bd c94d c03b a83f c3bd 860d 7a3d
00000070: d11d 273c ac88 f0bd ba87 bfb9 dfca 953d
00000080: e847 173d 2a1a f33b f476 aebd cafc d9bd
00000090: 7731 aa3c 0f68 263d 2323 babd 2f27 dc3d
000000a0: 145a bd3c 4248 abbd bb97 e6bd 6728 bd3c
000000b0: bd9a 9d3c 6bd4 e83d 1e7a a4bd 4113 b3bd
000000c0: 8880 003c e3de 6fbc 9f9e 2d3d 19b2 c73c
000000d0: 1128 c13c c63b 7abd 1710 b03d 9c3c 50bc
000000e0: 5a40 10be ce87 f43b 2896 86bc 2f75 ddbd
000000f0: e457 253d 9c33 a5bc 79d9 35bd f7a9 55bd
00000100: 503c ecbd 2771 0c3d 4253 bf3c d423 f93c
00000110: 52a5 28bd bad5 f83d 71ac c2bd 3ba2 dfbb
00000120: 6b83 43bc 0bc9 0a3d 7ac4 073d b5c8 13bd
00000130: 4853 f13c 368e 17bd b5c9 b13c ee71 3c3c
00000140: 4649 2b3c 858a 043d 3efb 663c 8787 673d
00000150: 4f4c 9e3d 3257 f13c 1bbd 5a3d fe11 d33d
00000160: fc3c c9bc 7707 a6bd d6fb 9ebc fa63 d03c
00000170: 7209 d73b 68a6 4f3d f7ce 0fbe 2e8e 15be
00000180: 7b4c 323d 422f f7bc a0be a43c b3af ea3c
00000190: 678a 423c 8145 cc3c 71b7 b63b 6aac d5bd
000001a0: 5a56 e5bd a214 093d 1ce7 88bd 23f1 06be
000001b0: eaff 533d 31c0 9a3d cc68 a3bb 8880 30bd
000001c0: c334 12bb 5c3a 1e3d da2b 56bd 88cc 103d
000001d0: 69a1 a33b 6720 f83c fa2d 4ebd 0304 00bd
000001e0: 10c8 63bd 0967 5cbc 9698 40bc 06f8 8cbd
000001f0: 7cee 8d3d 2935 d23c e7f6 78bd 2333 4b3c

action_model._discrete_distribution.branches.0.weight f4 [3, 128]
0.13972524 -0.027311565 0.038163006 -0.02863326 -0.026953563 -0.06657352 -0.08432401 -0.039584655
-0.04983419 -0.0054556625 0.19484106 -0.028045999 -0.020189809 0.3257988 -0.032858387 -0.05003408
-0.09323273 0.107478164 0.19857405 -0.08074372 -0.16273181 0.10631167 -0.0950411 -0.018171564
0.01936219 -0.06830087 -0.43132478 0.16450375 -0.017741144 -0.07290727 0.2308838 -0.054251447
-0.02911063 0.17174289 -0.015883999 -0.07911517 -0.05521469 -0.026010275 -0.0099050095 -0.0364386
-0.13226745 0.1402958 -0.04913584 -0.046953555 -0.05455053 -0.048222948 0.044467635 -0.113848284
-0.04791217 -0.11784967 -0.026020346 -0.05681499 0.037945997 0.073199905 0.096408136 -0.10863607
-0.007482751 -0.18476169 0.27900118 0.106230035 -0.0077063856 -0.030357113 0.14526695 0.045098137
-0.039439995 -0.038459595 0.099190176 0.00019930593 0.26950046 -0.21489075 -0.0284168 0.07454931
0.0023426504 0.0147381155 -0.011418333 -0.032047406 0.21120022 -0.1613858 0.019451631 -0.021718806
-0.04741994 0.04973888 0.14854117 -0.034150466 0.020701466 -0.10541244 -0.023269149 0.026561862
-0.1680549 -0.1570026 -0.014595394 0.19244885 -0.2150358 -0.0035150037 -0.22122054 0.036690984
0.22182202 -0.28431636 -0.07689093 -0.08498775 -0.016439892 -0.021702625 -0.069921374 -0.04003532
0.04490513 0.10762654 0.19586252 -0.035392523 0.2207605 -0.018651372 -0.044862293 0.059589848
0.094427064 -0.009836113 -0.046022613 -0.01818639 -0.053298213 -0.0958086 -0.15014738 -0.094890445
0.052545298 -0.12817614 0.090638995 -0.018111821 -0.004202019 -0.013171782 0.00237862 -0.013549937
-0.114552446 0.020138899 -0.09992091 -0.046095114 0.06279245 0.09872088 0.049426973 0.06162897
0.10095682 0.017837057 -0.19960323 0.014695787 0.064158775 -0.2577185 0.036264393 0.06782699
0.11316714 -0.15795125 -0.1456908 0.11440197 0.13090417 -0.097415954 0.088862196 0.08200223
-0.042948965 0.078134954 0.4054843 -0.13046017 0.027473275 0.04911618 -0.20263384 0.099001125
0.05818752 -0.17357464 -0.020263484 0.0016448662 0.046805013 0.04122641 0.010626374 0.07407255
0.1423994 -0.18969107 -0.055342782 0.06307914 0.08381032 0.059902553 -0.037958454 0.112297244
0.037097584 0.12695588 0.034581047 0.0973642 -0.046754897 -0.1131408 -0.053487394 0.09538345
-0.050802834 0.17975551 -0.30161187 -0.098862246 0.046485152 -0.028233342 -0.1519303 -0.050952613
0.030578692 0.044878792 -0.11455305 0.055517618 -0.27773994 0.15612336 -0.025595061 -0.060192168
-0.0038243434 -0.030478587 0.03957828 -0.022373723 -0.20670551 0.14183348 0.025671145 0.040383212
0.089057475 -0.05305714 -0.11096369 0.056893736 0.02002277 0.14317845 0.0566488 0.004207765
0.1849699 0.12502612 0.02604432 -0.17725857 0.21641584 0.0012973748 0.22828586 -0.07440325
-0.22286132 0.28736737 0.07820353 0.09139289 0.013251838 0.056034382 0.07405777 0.034839597
-0.051812477 -0.10977093 -0.22911213 -0.009830768 -0.1953023 0.06671402 0.093046024 -0.096857
-0.08198232 0.027466286 0.024498323 0.027957471 0.098603964 0.12185855 0.15690584 0.1382807
-0.07404393 0.13279119 -0.11644873 0.0338327 0.044071678 0.023660855 -0.06020845 0.016964132
00000000: 2214 0f3e 81bc dfbc d050 1c3d 4c90 eabc
00000010: b8cd dcbc b357 88bd 11b2 acbd 8523 22bd
00000020: f01e 4cbd 6ac5 b2bb 6a84 473e b9c0 e5bc
00000030: 1965 a5bc 1acf a63e 8496 06bd 89f0 4cbd
00000040: cdf0 bebd 831d dc3d ff56 4b3e f75c a5bd
00000050: 2ba3 26be efb9 d93d e9a4 c2bd 88dc 94bc
00000060: 759d 9e3c 54e1 8bbd 9ad6 dcbe ac73 283e
00000070: e055 91bc 6850 95bd ce6c 6c3e c436 5ebd
00000080: 6a79 eebc 5edd 2f3e 291f 82bc 2207 a2bd
00000090: cc28 62bd 8013 d5bc 9f48 22bc a440 15bd
000000a0: 1e71 07be b4a9 0f3e aa42 49bd 5f52 40bd
000000b0: 6070 5fbd 6d85 45bd b223 363d 4a29 e9bd
000000c0: 8d3f 44bd 2b5b f1bd 9f28 d5bc d6b6 68bd
000000d0: 436d 1b3d d5e9 953d a171 c53d 967c debd
000000e0: dd31 f5bb 2b32 3dbe 3ed9 8e3e 228f d93d
000000f0: d985 fcbb 7baf f8bc dcc0 143e d3b8 383d
00000100: d58b 21bd cf87 1dbd 3824 cb3d c7fc 5039
00000110: f7fb 893e 520c 5cbe 59ca e8bc 4fad 983d
00000120: 2787 193b 2378 713c f613 3bbc 2444 03bd
00000130: df44 583e 5242 25be 0759 9f3c a3eb b1bc
00000140: 693b 42bd ffba 4b3d 2d1b 183e 5ce1 0bbd
00000150: 1f96 a93c 7ae2 d7bd f19e bebc 4398 d93c
00000160: 9516 2cbe 4ac5 20be 8521 6fbc 5011 453e
00000170: 5832 5cbe fa5b 66bb a387 62be 4949 163d
00000180: 5025 633e ea91 91be fe78 9dbd 0f0e aebd
00000190: f4ac 86bc b4c9 b1bc f032 8fbd 13fc 23bd
000001a0: 71ee 373d 4e6b dc3d 2f90 483e c0f7 10bd
000001b0: 0a0f 623e c3ca 98bc 86c1 37bd 7c14 743d
000001c0: fa62 c13d a627 21bc 3582 3cbd a0fb 94bc
000001d0: 3a4f 5abd 4d37 c4bd 3cc0 19be ec55 c2bd
000001e0: bd39 573d 9b40 03be f0a0 b93d 3e5f 94bc
000001f0: 17b1 89bb 75ce 57bc 9fe2 1b3b 8e00 5ebc
00000200: 799a eabd 55fa a43c 56a3 ccbd 3bce 3cbd
00000210: 5499 803d 2c2e ca3d f073 4a3d a96e 7c3d
00000220: 73c2 ce3d 051f 923c ca64 4cbe 99c6 703c
00000230: ad65 833d aef3 83be f989 143d e0e8 8a3d
00000240: 2cc4 e73d f9bd 21be f82f 15be 944b ea3d
00000250: be0b 063e 0482 c7bd 62fd b53d c9f0 a73d
00000260: 41eb 2fbd 3805 a03d a39b cf3e 5a97 05be
00000270: a20f e13c 0c2e 493d 3f7f 4fbe 1ac1 ca3d
00000280: 0956 6e3d 8dbd 31be 9bff a5bc 8d98 d73a
00000290: 9db6 3f3d 06dd 283d 3e1a 2e3c 59b3 973d
000002a0: 26d1 113e 603e 42be 1daf 62bd a32f 813d
000002b0: bfa4 ab3d 615c 753d 537a 1bbd 19fc e53d
000002c0: a3f3 173d b900 023e dba4 0d3d e266 c73d
000002d0: 1082 3fbd 5db6 e7bd 9915 5bbd 6658 c33d
000002e0: a216 50bd d411 383e df6c 9abe 4a78 cabd
000002f0: 3767 3e3d 9c49 e7bc 9e93 1bbe b0b3 50bd
00000300: 2a80 fa3c d3d2 373d ca9a eabd 7166 633d
00000310: ee33 8ebe cdde 1f3e bcac d1bc 108c 76bd
00000320: d6a1 7abb 3bae f9bc d61c 223d 1949 b7bc
00000330: 9caa 53be cc3c 113e 4b4c d23c de68 253d
00000340: c463 b63d 7252 59bd ee40 e3bd 6809 693d
00000350: cb06 a43c 5f9d 123e 9208 683d 4be1 893b
00000360: c068 3d3e d906 003e e65a d53c 4583 35be
00000370: 1d9c 5d3e ad0c aa3a c5c3 693e bb60 98bd
00000380: c235 64be d121 933e 2c29 a03d 322c bb3d
00000390: 3d1e 593c 4f84 653d 9aab 973d f7b3 0e3d
000003a0: 5239 54bd 95cf e0bd 5f9c 6abe 3b11 21bc
000003b0: 53fd 47be 5ca1 883d ea8e be3d f65c c6bd
000003c0: 59e6 a7bd fa00 e13c b5b0 c83c 1107 e53c
000003d0: e0f0 c93d fa90 f93d edab 203e 7599 0d3e
000003e0: 58a4 97bd 6afa 073e ac7c eebd 2894 0a3d
000003f0: 8184 343d 69d4 c13c 239d 76bd 5df8 8a3c

action_model._discrete_distribution.branches.0.bias f4 [3]
0.025951385 0.030070499 -0.35419413
00000000: 0098 d43c 6856 f63c ef58 b5be

action_model._discrete_distribution.branches.1.weight f4 [3, 128]
-0.22873178 0.11302896 -0.42566413 -0.098252244 0.07171377 0.07445232 -0.23965052 0.0061391224
-0.0024914562 -0.28580287 -0.07434622 0.113808766 0.021173641 0.15557344 -0.18750595 0.061475944
0.05150584 -0.058438607 0.11352775 -0.015365707 -0.25453228 0.010090107 0.047011357 0.05651142
-0.16639231 0.052363653 -0.0403147 0.086287126 -0.032895878 -0.25197697 0.23259956 0.02287157
0.07887007 0.15900527 -0.08862769 -0.15529414 0.09829273 0.0876444 -0.1602112 0.03426032
0.018707711 -0.26531973 -0.15661258 0.05666289 0.0050344258 -0.00059122883 -0.12261184 -0.14803624
0.08911988 0.04674614 0.05037801 0.04334038 0.072175026 -0.14661619 0.13516603 -0.026492355
-0.18998425 0.00760244 0.08011047 -0.20861611 0.03151845 -0.15720034 -0.3734543 0.03628701
-0.17704327 0.12859158 0.0006693019 -0.042544946 -0.14509033 0.35844347 -0.29764408 0.0068708314
0.059266496 0.10715225 0.053798545 -0.32705954 0.19356108 0.057934612 0.2163985 0.08362776
-0.26279414 0.124995686 0.25173768 0.0439646 0.0728897 -0.01778658 0.044888854 0.046056256
0.09941445 0.034513433 0.034732956 -0.03227409 0.053412806 -0.020068863 0.03554103 -0.14659585
0.032741554 -0.16890405 0.025306419 0.049803507 0.052058414 0.012363865 0.06747163 -0.27894586
-0.16580616 0.020338422 -0.19039226 -0.2020529 -0.100266255 0.02122593 -0.016814144 -0.16969973
-0.060112707 0.12491718 -0.23820412 -0.0022959264 0.10156623 0.030033417 -0.013423546 -0.003576151
-0.06394138 -0.00596496 -0.02603742 -0.22803795 0.02741408 0.053220797 -0.23525321 0.058984246
-0.044128116 -0.1927604 0.44471756 0.17675747 -0.15629418 -0.13154624 -0.0408545 0.07520207
0.048724912 0.2037553 -0.10433659 -0.46277362 0.055337735 -0.07768829 0.1987775 -0.03540291
-0.1277999 -0.19948451 -0.08184997 0.06907355 0.005132469 0.1489636 0.18055822 -0.073483385
0.1767268 -0.1603234 0.18575594 -0.025336048 0.0700484 0.34270963 -0.32634082 -0.0019248967
-0.10562182 -0.23699446 0.14209893 0.12006011 -0.038937867 -0.13468903 0.23673631 -0.091482066
-0.15124416 0.41177785 0.18901016 0.06708829 -0.0029002102 -0.020130455 0.32879275 0.042421296
0.048245206 0.08046954 -0.15061963 -0.110527046 -0.4485 0.30717444 0.018823171 0.16636291
0.21950676 0.004690403 0.026159827 0.16035435 -0.1899564 -0.06937686 0.33326605 0.32036883
0.08703788 -0.080164626 -0.31162623 0.05278019 0.051645912 -0.33502015 0.2779944 0.106007114
0.025763525 0.0015830653 -0.0030238538 0.34115136 -0.66789174 0.1371192 -0.18432489 0.1085669
-0.1857186 -0.6201923 -0.26380566 -0.060534623 -0.17415859 0.035104226 -0.086397074 -0.10586274
-0.0730854 0.038428847 0.14637443 0.24997596 0.18747193 -0.2827373 0.2657242 0.24679449
0.10967664 0.089664385 0.0077308374 -0.19025555 0.039028462 0.0029628414 -0.05879349 0.3250777
0.24132858 -0.35598138 -0.026811222 0.20439647 0.19100975 -0.032862436 0.047020588 -0.014465044
-0.24217796 -0.021871878 -0.04706885 0.075367 -0.038698178 -0.18133277 0.09157427 0.025136331
0.18436743 0.024716401 -0.16930258 0.07071397 -0.09058492 -0.2745793 0.19110656 0.12157368
00000000: aa38 6abe ba7b e73d a6f0 d9be 7938 c9bd
00000010: abde 923d 757a 983d f266 75be b12a c93b
00000020: b347 23bb c154 92be d542 98bd 9214 e93d
00000030: 5874 ad3c a54e 1f3e 8f01 40be 33ce 7b3d
00000040: caf7 523d 525d 6fbd 3d81 e83d 72c0 7bbc
00000050: 0e52 82be fa50 253c fb8e 403d 8578 673d
00000060: bf62 2abe 457b 563d 0721 25bd 4eb7 b03d
00000070: d4bd 06bd 2003 81be 942e 6e3e 295d bb3c
00000080: a286 a13d 47d2 223e 6f82 b5bd 6d05 1fbe
00000090: b34d c93d e87e b33d 680e 24be 8d54 0c3d
000000a0: ea40 993c fdd7 87be 0c5f 20be 5917 683d
000000b0: d3f7 a43b b2fc 1aba eb1b fbbd d096 17be
000000c0: 7c84 b63d e178 3f3d 2c59 4e3d af85 313d
000000d0: 80d0 933d 8e22 16be f768 0a3e 7f06 d9bc
000000e0: 3b8b 42be e41d f93b f510 a43d 769f 55be
000000f0: 7d19 013d 20f9 20be 6735 bfbe b0a1 143d
00000100: d54a 35be 83ad 033e 1774 2f3a 9c43 2ebd
00000110: 8f92 14be e785 b73e ce64 98be b624 e13b
00000120: 6dc1 723d a472 db3d dd5b 5c3d 5974 a7be
00000130: e034 463e d84c 6d3d 9297 5d3e 0845 ab3d
00000140: f48c 86be bdfd ff3d c3e3 803e 3914 343d
00000150: 3247 953d 29b5 91bc 60dd 373d 7ca5 3c3d
00000160: ce99 cb3d f55d 0d3d 2544 0e3d d631 04bd
00000170: 63c7 5a3d 7567 a4bc 7993 113d 391d 16be
00000180: 021c 063d 2ff5 2cbe 684f cf3c c3fe 4b3d
00000190: 343b 553d cf91 4a3c 912e 8a3d fed1 8ebe
000001a0: 17c9 29be c39c a63c 30f6 42be f5e6 4ebe
000001b0: 6558 cdbd 00e2 ad3c d1bd 89bc c4c5 2dbe
000001c0: be38 76bd 94d4 ff3d c8eb 73be 4177 16bb
000001d0: f501 d03d a408 f63c 6fee 5bbc dc5d 6abb
000001e0: b3f3 82bd b675 c3bb 6d4c d5bc c882 69be
000001f0: 7e93 e03c 0dfe 593d 38e6 70be 7799 713d
00000200: afbf 34bd fb62 45be 05b2 e33e e9ff 343e
00000210: 950b 20be 0fb4 06be 0c57 27bd 8b03 9a3d
00000220: c693 473d 3ba5 503e 6cae d5bd aaf0 ecbe
00000230: d2a9 623d 0a1b 9fbd 548c 4b3e a402 11bd
00000240: fadd 02be ab45 4cbe f5a0 a7bd 6f76 8d3d
00000250: 452e a83b ea89 183e 41e4 383e 757e 96bd
00000260: dff7 343e d12b 24be ce36 3e3e 8b8d cfbc
00000270: 8975 8f3d a377 af3e 2516 a7be d14c fcba
00000280: 4150 d8bd adae 72be 6282 113e 13e2 f53d
00000290: 507d 1fbd eceb 09be 016b 723e f35a bbbd
000002a0: c0df 1abe 8cd4 d23e e18b 413e 9665 893d
000002b0: 7411 3ebb a0e8 a4bc 8657 a83e f4c1 2d3d
000002c0: c49c 453d 37cd a43d 083c 1abe 015c e2bd
000002d0: cba1 e5be f845 9d3e 0d33 9a3c 0a5b 2a3e
000002e0: 61c6 603e f4b1 993b 224d d63c ee33 243e
000002f0: ee83 42be 7515 8ebd d9a1 aa3e 6207 a43e
00000300: eb40 b23d 5a2d a4bd 798d 9fbe 0a30 583d
00000310: aa8a 533d c387 abbe 4855 8e3e 421a d93d
00000320: 070e d33c db7e cf3a d92b 46bb 64ab ae3e
00000330: f4fa 2abf fa68 0c3e aabf 3cbe 5358 de3d
00000340: 042d 3ebe ecc4 1ebf 8911 87be 27f3 77bd
00000350: a156 32be 73c9 0f3d f3f0 b0bd 90ce d8bd
00000360: ccad 95bd 9167 1d3d 2ee3 153e b3f9 7f3e
00000370: a4f8 3f3e f2c2 90be 010d 883e b2b7 7c3e
00000380: 259e e03d f6a1 b73d f752 fd3b 5ad2 42be
00000390: 4fdc 1f3d 3b2c 423b 71d1 70bd 9670 a63e
000003a0: d71e 773e 3143 b6be 35a3 dbbc 4f4d 513e
000003b0: 0f98 433e c39a 06bd a998 403d cbfe 6cbc
000003c0: 80fd 77be a72c b3bc 44cb 40bd 045a 9a3d
000003d0: fb81 1ebd 4caf 39be 4a8b bb3d b5ea cd3c
000003e0: d1ca 3c3e 0d7a ca3c a85d 2dbe 7cd2 903d
000003f0: 9684 b9bd a895 8cbe 70b1 433e 9ffb f83d

action_model._discrete_distribution.branches.1.bias f4 [3]
0.043667264 -0.051983092 -0.013317978
00000000: 72dc 323d 39ec 54bd a633 5abc
