results/BotControllerModel/BotControllerAgent/BotControllerAgent-499343.onnx (onnx, 313463 bytes, 9 tensors)

discrete_act_size_vector f4 [1, 2]
0	0x40400000	3.0
1	0x40400000	3.0

network_body._body_endoder.seq_layers.0.weight f4 [256, 35]
0	0xbeabb3e3	-0.3353568
1	0xbaf9bf1c	-0.0019054147
2	0x3d72f970	0.059319913
3	0xbe8c99a2	-0.27460963
4	0xbc5a02ef	-0.0133063635
5	0xbd10b521	-0.035328988
6	0x3e86b470	0.26309538
7	0xbcade5d7	-0.02122776
8	0xbd16e756	-0.036841713
9	0xbe22136f	-0.15827726
10	0x3e67ea31	0.2264793
11	0x3e516320	0.2044797
12	0x3e4cc312	0.19996288
13	0xbe11d2c2	-0.14240554
14	0xbaf74f37	-0.0018868212
15	0xbdcb69b8	-0.099322736
16	0x3e58af78	0.21160686
17	0x3b864bd2	0.004098394
18	0x3e5909e1	0.21195175
19	0xbe16d6e0	-0.14730406
20	0xbe84db2e	-0.2594847
21	0xbea45946	-0.3209936
22	0x3d367a60	0.0445503
23	0x3e56f023	0.20990042
24	0xbe3beb82	-0.18351558
25	0xbe4ffb39	-0.20310678
26	0xbdf107fc	-0.11769101
27	0x3ca78194	0.02044753
28	0xbd1c1293	-0.03810365
29	0xbe0b6b64	-0.13615185
30	0xbdba89f6	-0.09108345
31	0xbd4283c9	-0.04748896
32	0xbe51190d	-0.20419712
33	0xbe3ac706	-0.18239984
34	0x3e23983e	0.15976045
35	0x3e0642d1	0.13111426
36	0xbe0f448d	-0.13990994
37	0xbd0cd1cb	-0.03437976
38	0xbd3be232	-0.045870014
39	0xbe7d1835	-0.24716265
40	0x3d9aa9ea	0.0755194
41	0x3ea63293	0.3246046
42	0x3de26a5f	0.11055445
43	0x3e1a2ece	0.15056917
44	0xbe7a7f54	-0.24462634
45	0x3e9bdc19	0.3044136
46	0xbe6f36eb	-0.23360793
47	0xbe0fbf92	-0.14037922
48	0xbe36ccfb	-0.17851631
49	0xbdb45a06	-0.08806233
50	0x3cdab804	0.026699074
51	0xbd3ab90f	-0.045586642
52	0x3c4200bd	0.011840996
53	0xbe450e58	-0.19243753
54	0xbe24a596	-0.16078791
55	0x3b898e83	0.004197897
56	0x3da4cde6	0.080470845
57	0xbd5c7247	-0.05381992
58	0xbe888428	-0.26663327
59	0x3dafe82b	0.085892044
60	0x3dc353a5	0.09537438
61	0xbce367b2	-0.027759407
62	0x3e03b0d1	0.12860419
63	0x3db86a06	0.09004597
64	0xbd33a17f	-0.043855187
65	0x3dd14bba	0.10219522
66	0xbd23dc34	-0.040004924
67	0x3a5e2a27	0.0008474909
68	0xbe4bb4df	-0.19893216
69	0x3e47ba12	0.19504574
70	0x3e975788	0.2955897
71	0xbe7e492d	-0.24832602
72	0x3e3d1c40	0.18467808
73	0x3d7d4615	0.061834414
74	0xbb3400de	-0.0027466337
75	0x3e15460a	0.14577499
76	0xbdc2f9ef	-0.09520327
77	0x3e808e89	0.25108746
78	0x3c6d4f76	0.014484277
79	0xbd115a34	-0.035486415
80	0x3d99dfba	0.075133756
81	0xbb2e9ea4	-0.002664485
82	0xbcd09235	-0.025460342
83	0xbe922107	-0.28540823
84	0x3d74c1e9	0.05975524
85	0xbead311c	-0.3382653
86	0xbda5e063	-0.08099439
87	0x3e1e8501	0.15480424
88	0xbc20e276	-0.0098196175
89	0x3e01ae9c	0.12664264
90	0xbe35d0dd	-0.17755456
91	0x3da88709	0.08228881
92	0xbdee186c	-0.11625752
93	0x3d27320c	0.040819213
94	0x3c86da6a	0.01646157
95	0x3e65048a	0.22365013
96	0x3d88eb4c	0.06685504
97	0xbeb03574	-0.34415781
98	0xbd0e093e	-0.034676783
99	0x3db91aec	0.09038338
100	0x3eb1ef8c	0.34753072
101	0xbe436d20	-0.19084597
102	0x3e74b2aa	0.2389628
103	0x3de04eab	0.10952505
104	0x3cb916a2	0.0225938
105	0x3e6d04a6	0.23146304
106	0x3d83f556	0.064432785
107	0x3e86ce8c	0.26329458
108	0x3cdfe1ba	0.027329315
109	0x3ea03a0d	0.3129429
110	0x3e43bf0b	0.19115846
111	0xbe68f1cc	-0.22748488
112	0xbe4172b5	-0.18891414
113	0xbcec00e4	-0.028809018
114	0xbe6a1887	-0.22860919
115	0xbe2c6595	-0.16835625
116	0x3de71dfa	0.112850145
117	0x3eb4ac8a	0.35287887
118	0x3e5bcd22	0.2146497
119	0x3e55fafc	0.20896524
120	0xbe4687c6	-0.19387731
121	0x3e26951c	0.16267818
122	0x3e8ac114	0.27100432
123	0x3e933e03	0.2875825
124	0x3df951ee	0.1217383
125	0xbd76387e	-0.06011247
126	0xbbc16b53	-0.0059026866
127	0x3e662d5d	0.22478242
128	0x3def607a	0.11688323
129	0x3de4a7ad	0.11164794
130	0xbdd4d134	-0.10391465
131	0xbe359d3f	-0.17735766
132	0x3b061947	0.0020461844
133	0x3eb068d7	0.34454986
134	0xbea5a63a	-0.32353383
135	0xbc453c89	-0.0120383585
136	0xbe05baa5	-0.1305948
137	0x3d178d51	0.037000004
138	0x3dc76625	0.097362794
139	0xbad2f183	-0.0016093705
140	0x3e4bda07	0.1990739
141	0xbdf7c5b7	-0.12098258
142	0xbe426acf	-0.18986057
143	0xbe20f340	-0.15717793
144	0x3e671a7b	0.22568695
145	0xbd41288a	-0.0471578
146	0xbe817c03	-0.25289926
147	0xbe86f803	-0.26361093
148	0x3e85877b	0.26079926
149	0x3d2242c6	0.03961446
150	0xbe0e5faf	-0.13903688
151	0x3e2ee608	0.17079937
152	0x3d4b3776	0.04961344
153	0x3d2e6510	0.04257685
154	0xbd03953d	-0.032124747
155	0xbf09c914	-0.53822446
156	0x3e2078c3	0.15671067
157	0x3d6b97b4	0.057517722
158	0xbeebedf1	-0.46079972
159	0x3dff85e8	0.124767125
160	0x3e0eca88	0.13944447
161	0x3dee3a70	0.1163224
162	0x3ec1d324	0.378564
163	0xbe3c3e3a	-0.18383113
164	0x3ea72263	0.32643422
165	0x3d224178	0.039613217
166	0xbb86eb97	-0.00411744
167	0xbdb054a1	-0.08609892
168	0x3e402c48	0.18766892
169	0xbe86502f	-0.2623305
170	0xbcd9220e	-0.026505496
171	0xbd8b259d	-0.067942835
172	0xbdbb19d0	-0.09135783
173	0x3dc0b2b7	0.09409087
174	0xbdae2fde	-0.08505224
175	0x3e0c8044	0.13720804
176	0xbe59ea29	-0.21280731
177	0x3db49e3e	0.08819245
178	0xbc401600	-0.011723995
179	0xbe1cb30a	-0.15302673
180	0xbd918973	-0.071062945
181	0xbd8d931f	-0.06912827
182	0xbda9b178	-0.082858026
183	0x3e09caa9	0.13456215
184	0x3e7183ae	0.23585388
185	0x3da4570d	0.08024416
186	0xbccbbb45	-0.02486957
187	0x3c14a803	0.00907326
188	0xbcdd5de7	-0.027022315
189	0x3e9f6f5d	0.3113965
190	0x3e60b0ab	0.21942393
191	0x3e9a6c86	0.30160922
192	0x3d8d25da	0.06891985
193	0xbe8e389f	-0.27777573
194	0xbe421c1b	-0.18956034
195	0xbe923a96	-0.28560323
196	0x3dae4539	0.08509297
197	0xbde4dd4c	-0.111750215
198	0xbd9c7c22	-0.07640864
199	0xbe336f9f	-0.17523049
200	0xbe148706	-0.14504632
201	0xbd42b2eb	-0.04753391
202	0x3da56194	0.08075252
203	0xbe00ca60	-0.125772
204	0x3d6bf563	0.057607066
205	0x3e38de5d	0.18053575
206	0xbe3439e6	-0.17600212
207	0x3be2a4bf	0.006916612
208	0xbddecb35	-0.108786024
209	0x3dabdf1b	0.08392163
210	0x3e3179f0	0.17331672
211	0x3badb6a9	0.005301316
212	0x3e8befa4	0.2733127
213	0xbed8f1bf	-0.42371938
214	0xbe49e4b7	-0.19716154
215	0xbedf66b9	-0.4363306
216	0xbd3c887e	-0.046028607
217	0xbe1db6ff	-0.15401839
218	0x3cdabaae	0.026700344
219	0x3e62b33d	0.22138686
220	0xbd36a66c	-0.044592306
221	0xbe0c2968	-0.1368767
222	0x3e866948	0.26252198
223	0x3db800e7	0.08984547
224	0xbe571c24	-0.21006829
225	0xbde4cd57	-0.11171978
226	0x3ddff771	0.109358676
227	0xbd0715f7	-0.03297993
228	0x3e13ba97	0.14426647
229	0x3da4180c	0.08012399
230	0xbe359b2c	-0.17734975
231	0xbd8582d7	-0.06519096
232	0xbe9ed8c3	-0.3102475
233	0xbe2b8b04	-0.16752249
234	0xbce21172	-0.02759621
235	0x3def46da	0.11683436
236	0xbe0118b7	-0.12607084
237	0x3c44727c	0.011990186
238	0xbe771a74	-0.24131185
239	0x3e4c2fcd	0.1994011
240	0xbecb0204	-0.39649975
241	0x3e4f99ac	0.20273465
242	0x3ea02554	0.3127848
243	0x3d52a315	0.05142506
244	0xbe6c7473	-0.23091297
245	0x3e0467e8	0.12930262
246	0xbde81ce6	-0.11333637
247	0xbe901c49	-0.2814658
248	0xbcbaffcc	-0.022827052
249	0x3ea32dc9	0.3187087
250	0xbe80f2eb	-0.25185332
251	0xbd6d69de	-0.05796229
252	0x3e0e5066	0.13897857
253	0xbd5b7750	-0.053580582
254	0x3dae4523	0.085092805
255	0xbe6d8a0e	-0.23197195

network_body._body_endoder.seq_layers.0.bias f4 [256]
0	0x3a8e36eb	0.0010850107
1	0x3b21733b	0.0024635333
2	0xbbe64961	-0.0070277904
3	0x3bc863a0	0.006115392
4	0x3b5505c1	0.003250465
5	0x3b35aa21	0.0027719813
6	0xbcc72ccc	-0.024313353
7	0x3af432b0	0.0018630829
8	0xbafcad62	-0.0019277746
9	0xbbc8a4d4	-0.0061231647
10	0x3b24861f	0.0025104356
11	0x3a234fca	0.0006229846
12	0xbb8a6457	-0.004223387
13	0x3a9370c5	0.0011248818
14	0x3c8cff07	0.01721145
15	0xbc57e644	-0.013177458
16	0x3aed5d48	0.0018109465
17	0x3c569552	0.013097124
18	0xbc078dd3	-0.00827356
19	0xba24f7f5	-0.0006293052
20	0xbbbd06eb	-0.005768647
21	0xbc6d9360	-0.014500469
22	0x3aafcfba	0.0013413348
23	0xbc276e44	-0.0102191605
24	0x3ba19efa	0.0049322816
25	0x3b4790c3	0.0030451275
26	0xbc08c1db	-0.008347
27	0xbca07b01	-0.019589903
28	0xbc1bddb6	-0.009513309
29	0x3b93e86d	0.0045137913
30	0xbc0238d7	-0.007948122
31	0x3bec4bb1	0.0072111716
32	0x3c12d194	0.0089611
33	0x3939a419	0.00017704106
34	0x3c3bd794	0.011464972
35	0xbc6208be	-0.01379603
36	0x3a9f5279	0.0012155316
37	0x3c2b1c99	0.01044383
38	0xbc208fb1	-0.009799884
39	0x3c6499ba	0.013952667
40	0x3c45ecbb	0.012080367
41	0x3c3886de	0.011262624
42	0xbbb41402	-0.005495549
43	0xbc40577a	-0.011739606
44	0x3c07515e	0.008259146
45	0xbb0e01a6	-0.0021668463
46	0x3ce10cdf	0.027471958
47	0x3bac98e5	0.00526725
48	0x3b1b2708	0.0023674387
49	0x3c39a714	0.011331338
50	0x3a519e83	0.00079963374
51	0x3c132c57	0.008982739
52	0xbb3d7f72	-0.0028915075
53	0xbaee39a8	-0.0018175142
54	0x3b901ab9	0.004397717
55	0x3c0dfa23	0.008665594
56	0xbc26aba8	-0.010172762
57	0xbba94e55	-0.0051668086
58	0x3b9fd81d	0.0048780576
59	0x3a4a75d1	0.00077232445
60	0xb99015cb	-0.00027482057
61	0xbaf32f4d	-0.0018553525
62	0x3a3d4f2d	0.0007221576
63	0xbbb7d9d6	-0.005610685
64	0x3b4c62ea	0.0031186887
65	0xbc0314fd	-0.008000609
66	0xbba57715	-0.005049596
67	0x3c8db599	0.017298507
68	0x3c435353	0.0119217215
69	0xbc8c36f1	-0.017116042
70	0x3c325863	0.010885331
71	0xbbd50fb4	-0.006502116
72	0x3b1bce81	0.002377421
73	0x3d507c36	0.050899707
74	0x3bf92d5b	0.0076042837
75	0x3c941e70	0.01808092
76	0x3b6bb33e	0.003596499
77	0x3ba02838	0.004887607
78	0x3c38e341	0.01128465
79	0xbbbe86ec	-0.005814424
80	0xbc2be187	-0.010490782
81	0x3b9b5c23	0.004741208
82	0x3c2a6b1b	0.0104015125
83	0x3b803c39	0.003913429
84	0x3bbe5638	0.005808618
85	0x3b1e05ac	0.0024112267
86	0xbb926c09	-0.004468445
87	0xbac08363	-0.0014687594
88	0xbc931f61	-0.017959299
89	0x3c0c963b	0.00858074
90	0xbb725b1d	-0.0036980577
91	0xbb3bfc81	-0.002868444
92	0x3b74e9e0	0.0037370846
93	0xbacf420f	-0.0015812534
94	0xbba6e0c5	-0.0050927126
95	0x3c779a93	0.015112537
96	0xbc019c5a	-0.007910812
97	0x3b62f82a	0.003463278
98	0x3c5a1932	0.013311671
99	0xbcbe218f	-0.023209361
100	0x3a897fcb	0.0010490356
101	0xbbcff795	-0.0063466527
102	0xbb8ad640	-0.0042369664
103	0x3b634baa	0.003468255
104	0x39d3c734	0.00040393474
105	0xbb547dd5	-0.0032423635
106	0xbb317341	-0.0027076753
107	0x3caf8049	0.021423476
108	0xbc78dd08	-0.015189417
109	0x3c075935	0.008261015
110	0x3c72fa22	0.014830144
111	0x3c1e5d9e	0.009665875
112	0x3c3b341c	0.011425998
113	0x3c744729	0.014909544
114	0x3c2c6448	0.010521956
115	0x3c0c9e9d	0.008582738
116	0x3c978b56	0.018499058
117	0x3cce8bfd	0.025213236
118	0xba2ec00d	-0.0006666191
119	0x3ad194aa	0.001598974
120	0xb89bb572	-7.424773e-05
121	0x3b3b8032	0.0028610346
122	0xbba0a072	-0.004901939
123	0x3afc0900	0.0019228756
124	0xbc7054ef	-0.014668687
125	0xbb8bd409	-0.00426722
126	0xbc198dc9	-0.009372183
127	0x3b495b80	0.0030724704
128	0xbbe2aeab	-0.0069177947
129	0xbc39321c	-0.011303451
130	0x3ba78271	0.0051119854
131	0xba40593e	-0.0007337517
132	0x3c76656a	0.015038827
133	0x3c7479d9	0.014921629
134	0xbc878f21	-0.016547741
135	0x3adc73a5	0.0016819133
136	0x3b6364d7	0.0034697556
137	0x3c9332ea	0.017968614
138	0x3bd60c91	0.0065322598
139	0x3c96f62d	0.018427933
140	0xbc02bec7	-0.007980055
141	0x3b2215a2	0.0024732132
142	0xbb8302db	-0.003998143
143	0x3c16a95e	0.009195654
144	0xbbcdf209	-0.0062849564
145	0xbb5acc3c	-0.0033385893
146	0xbb8044f0	-0.003914468
147	0xb9f4dbfb	-0.00046703205
148	0xb9e3b93d	-0.00043434827
149	0x3be52a31	0.006993555
150	0x3b090406	0.002090694
151	0x3b613879	0.0034365936
152	0xbbeccf98	-0.0072268955
153	0xbb659e25	-0.0035036888
154	0xbbb0a4e5	-0.0053907507
155	0x3cb1f568	0.021723464
156	0x39b21aa5	0.00033970657
157	0x3be34c7e	0.006936609
158	0x3bba9e64	0.005695151
159	0x3cb79967	0.022412015
160	0xbb918f38	-0.004442122
161	0x3c6896b6	0.014196089
162	0x3abd92ea	0.001446334
163	0xbb95f19b	-0.0045759208
164	0xbbe263b9	-0.0069088605
165	0xbb082af3	-0.0020777553
166	0xbb9e9668	-0.004839707
167	0x3b692d3d	0.0035579943
168	0xbc2b8bf6	-0.010470381
169	0xbbd10e0b	-0.006379848
170	0xbc06b9f0	-0.008223042
171	0xbbabb83b	-0.005240468
172	0x3cfc5eee	0.030806985
173	0xbb2c34ec	-0.002627666
174	0xbba1d141	-0.004938275
175	0x3af10125	0.0018387182
176	0x3c7566c9	0.014978119
177	0x3ac523d1	0.0015040581
178	0xbc02b1dc	-0.007976975
179	0x3bb21f19	0.005435836
180	0xba1e0a75	-0.000602878
181	0x3c46d767	0.012136317
182	0x3c2177ae	0.009855194
183	0x3b2e5161	0.0026598799
184	0xbb9b50a2	-0.004739837
185	0xbc07094a	-0.008241961
186	0xbc3e2b81	-0.011607052
187	0xbbc6651d	-0.006054534
188	0xbb7b5474	-0.0038349899
189	0x391cec9e	0.00014965466
190	0x3c3f8541	0.011689485
191	0x3c111bb5	0.0088567035
192	0xbc94d0d2	-0.01816598
193	0x3c4c9bfc	0.012488361
194	0xbc6c3042	-0.014415802
195	0xbc0a8567	-0.008454657
196	0xbc364436	-0.011124661
197	0x3cd6849c	0.02618628
198	0x3c45507e	0.012043117
199	0xbc24d9fa	-0.010061735
200	0x3bbd6372	0.005779677
201	0xbb9044df	-0.0044027413
202	0x3cc2da48	0.023785725
203	0x3c2d71aa	0.010586182
204	0x3b86dd23	0.004115717
205	0xbbfec145	-0.0077745044
206	0x3c5450c5	0.01295871
207	0x3ba78c80	0.0051131845
208	0xbb649dea	-0.0034884163
209	0xbc212142	-0.009834589
210	0x3b8568ec	0.0040713456
211	0x3bb66728	0.0055664964
212	0x3b8c1300	0.004274726
213	0x3c0ca31b	0.008583809
214	0x3c9580a4	0.018249817
215	0xbbbcd8fa	-0.0057631703
216	0xbba155e7	-0.0049235704
217	0xbca0594c	-0.01957383
218	0xbba8a4a4	-0.00514658
219	0x3c1fe7cb	0.009759854
220	0x3b7b711c	0.003836698
221	0xbc0ebcc8	-0.008712001
222	0x3c213618	0.009839557
223	0x3c07b1ab	0.008282105
224	0x3c6a0d8a	0.0142854545
225	0x395d6947	0.00021115421
226	0xbc11d271	-0.008900271
227	0x3b5e58be	0.0033927406
228	0xbbde2f5e	-0.006780549
229	0x3b5dcf78	0.0033845585
230	0x3bd90fed	0.006624213
231	0x3ad4c2d9	0.0016232386
232	0xbbf997be	-0.007616966
233	0x3c2df915	0.010618468
234	0xbbda9536	-0.0066706194
235	0x3baf2e0c	0.0053460654
236	0xbbaad995	-0.005213926
237	0xbc6fbfde	-0.014633147
238	0xbba071ca	-0.004896377
239	0x3bd64cc9	0.006539915
240	0xbc89bdb1	-0.016814085
241	0xbbf608c9	-0.0075083715
242	0x3bc3e36d	0.005978039
243	0xbb1bbef2	-0.0023764935
244	0xbbb150cf	-0.0054112445
245	0x3c1804aa	0.009278456
246	0x3c0e495a	0.008684481
247	0x3b238e1d	0.0024956532
248	0x3c10de3d	0.008842048
249	0x3bf38511	0.0074316342
250	0x3b93a1e6	0.004505384
251	0xb985639c	-0.00025441952
252	0x3c8cfba8	0.017209843
253	0x3cb81681	0.022471668
254	0x3b2a6a59	0.002600333
255	0x3c3b2dfc	0.011424538

network_body._body_endoder.seq_layers.2.weight f4 [256, 256]
0	0xbe3fb69d	-0.18722005
1	0xbd0c7210	-0.034288466
2	0x3db55585	0.08854202
3	0x3d933ed9	0.071897216
4	0x3c89c0aa	0.016815502
5	0xbd9d68e6	-0.076860234
6	0xbd81a200	-0.06329727
7	0x3a71d9a6	0.00092258526
8	0x3cb61899	0.022228526
9	0xbd7a87ff	-0.061164852
10	0x3cec354b	0.028834006
11	0xbd023579	-0.031789277
12	0x3d2d344e	0.04228621
13	0x3bcc829e	0.0062411567
14	0x3d15eda7	0.036603596
15	0x3e0c623e	0.13709351
16	0xbd0e7c6a	-0.03478662
17	0x3d29ed8b	0.041486304
18	0x3cdcef9d	0.026969725
19	0x3cbce14f	0.023056654
20	0x3c422ef3	0.011852014
21	0x3da2cdcb	0.07949408
22	0xbd806f66	-0.062712476
23	0xbbddbe66	-0.006767082
24	0xbcfa6e7e	-0.030570265
25	0xbc8fccf6	-0.017553788
26	0x3e030aa8	0.12797034
27	0xbde5ca1b	-0.11220189
28	0x3bbe2076	0.0058022095
29	0xbcef0e5f	-0.029181657
30	0xbd914139	-0.07092518
31	0x3d59c23c	0.053163752
32	0xbc8b5082	-0.017006163
33	0xbd55a846	-0.05216243
34	0x3b902503	0.0043989434
35	0xbc8578f6	-0.01629303
36	0x3d9fec30	0.07808721
37	0xbbe136e8	-0.0068730004
38	0x3c7ced77	0.015437475
39	0x3cbf48fd	0.023350233
40	0xbcc97ed7	-0.024596615
41	0x3b9cd299	0.0047858474
42	0x3dcd8682	0.10035421
43	0xbd10278e	-0.035193972
44	0xbd6fa5de	-0.058507793
45	0x3e149a58	0.14512002
46	0xbd1d7b06	-0.038447402
47	0xbd1bc605	-0.038030643
48	0xbc8652d3	-0.016396916
49	0xbc10c8e0	-0.008836955
50	0xbddd99d1	-0.10820354
51	0xbd1838c2	-0.037163503
52	0x3d21cfe2	0.039504893
53	0x3d8cf39e	0.06882404
54	0x3c57c342	0.013169112
55	0x3d02beda	0.03192029
56	0xbc9c0edc	-0.019050054
57	0xbd91f37f	-0.07126521
58	0xbd49201f	-0.0491029
59	0xbcdf73dc	-0.027276926
60	0x39e8e110	0.00044418173
61	0x3d787c99	0.0606657
62	0xbdb4c224	-0.08826092
63	0xba1ce79c	-0.000598544
64	0x3d0b45a3	0.034001958
65	0x3ca87e9a	0.02056818
66	0xbd17ec4e	-0.037090592
67	0x3d6894e8	0.056782633
68	0xbbe6312d	-0.007024905
69	0x3c7f0ea9	0.01556746
70	0xbd8ce66a	-0.068798855
71	0xbd203411	-0.039112154
72	0x3ca8f87a	0.020626295
73	0xbd9ea9b9	-0.07747216
74	0x3d0aacb8	0.033856124
75	0xbc79b33e	-0.015240489
76	0x3d91f60f	0.0712701
77	0xbb842b75	-0.004033501
78	0x3bfcd9fd	0.007716416
79	0xbce305b5	-0.027712682
80	0xbc83a648	-0.0160705
81	0x3dccc0f5	0.09997741
82	0xbcf87ecb	-0.030333897
83	0xbd558eac	-0.052138016
84	0x3d47e4cd	0.048802186
85	0x3cec6ae5	0.028859565
86	0x3d714fd4	0.05891402
87	0xbdc082d6	-0.09399955
88	0x3d41f4ad	0.04735248
89	0x3ddca3af	0.10773408
90	0x3daf015b	0.085451804
91	0xbdd2c199	-0.10290832
92	0x3dbfa9c9	0.09358556
93	0xbccf3fa3	-0.025298899
94	0xbce966a2	-0.028491322
95	0x3d6c2c47	0.057659414
96	0x3a4110b2	0.00073648535
97	0xbd0339e8	-0.032037646
98	0x3d2fde09	0.04293636
99	0xbd1bf702	-0.038077362
100	0xbdcd9a49	-0.10039193
101	0x3cafbf2a	0.021453459
102	0xbcbfda9f	-0.023419676
103	0x3b69c688	0.0035671312
104	0x3dd55303	0.10416224
105	0x3b2e2a2d	0.0026575432
106	0x3ba9c57f	0.005181014
107	0xbd11825c	-0.03552471
108	0xbd5086c7	-0.050909784
109	0x3d7ee090	0.06222588
110	0xbcfaf5b6	-0.030634742
111	0x3d7380c9	0.05944899
112	0x3d3a8975	0.045541245
113	0x3dc2d1a7	0.09512644
114	0x3d259dda	0.040433742
115	0xbc59b40d	-0.013287556
116	0xbc685132	-0.014179515
117	0xbbd98ad6	-0.006638865
118	0xbcf67348	-0.030084267
119	0x3d675a4e	0.056482606
120	0xbce6268b	-0.02809455
121	0xbc6c93bf	-0.014439522
122	0xbd112b7a	-0.035441853
123	0xbda24c60	-0.079247236
124	0x3bae7282	0.005323709
125	0xbdbcd8b8	-0.09221023
126	0x3cc1e5b9	0.02366911
127	0x3cd27e98	0.02569513
128	0xbcc68c9d	-0.024236972
129	0xbd625c38	-0.055263728
130	0x3da7b521	0.081888445
131	0xbdb9e965	-0.090777196
132	0xbe3177c8	-0.17330849
133	0xbd6feccc	-0.058575436
134	0x3e4f261b	0.2022938
135	0xbc359c99	-0.011084699
136	0x3d2df89c	0.04247342
137	0x3ba2c842	0.0049677202
138	0xbd8dec41	-0.069298275
139	0xba0b3a3c	-0.0005311107
140	0xbbfe9866	-0.007769632
141	0xbd847a91	-0.0646869
142	0x3cbbc8bb	0.022922864
143	0x3def6d42	0.11690761
144	0xbd0b247b	-0.033970337
145	0x3d6d80ce	0.057984166
146	0x3db1349d	0.08652613
147	0x3d1055f2	0.035238214
148	0xb7bd2467	-2.2547507e-05
149	0x3c44e1d3	0.012016731
150	0xbd87f8b6	-0.06639235
151	0xbc9afbfe	-0.018918987
152	0xbcedd9b3	-0.029034471
153	0xbcd18e59	-0.025580572
154	0xbc29afcf	-0.010356857
155	0xbd2455d7	-0.040120926
156	0xbded0ed5	-0.115750946
157	0x3c8dc244	0.017304547
158	0xbe0d2f2f	-0.1378753
159	0x3d783b2d	0.06060331
160	0x3dc8cada	0.09804316
161	0x3c183ab4	0.00929134
162	0xbe079f0f	-0.1324427
163	0xbc4a5008	-0.0123481825
164	0x3c2182ef	0.009857877
165	0x3bc31547	0.005953464
166	0xbc8fda23	-0.01756007
167	0xbd216519	-0.039403055
168	0xbb0e9999	-0.0021759032
169	0xbd6b7df7	-0.057493176
170	0xbcad750c	-0.021173976
171	0xbd26db99	-0.04073677
172	0x3d4e455c	0.050359115
173	0x3da35d97	0.07976835
174	0x3d766c0e	0.060161643
175	0x3d21434a	0.039370812
176	0xbcde133e	-0.027108785
177	0x3d712c86	0.05888035
178	0x3cd0d2d0	0.025491148
179	0xbc2c9bc2	-0.010535182
180	0xbcaafa69	-0.020871358
181	0x3d7af094	0.06126459
182	0x3d3cfcde	0.04613959
183	0x3d31eeda	0.043440677
184	0xbcdb22fb	-0.026750078
185	0x3dba3de7	0.09093838
186	0x3e11c09c	0.14233631
187	0x3d580e75	0.052748162
188	0xbcd04990	-0.025425702
189	0xbda84e3f	-0.08218049
190	0xbd9d3f15	-0.076780476
191	0xbc90bbd1	-0.017667683
192	0xbdcacfca	-0.09902914
193	0x3cf0fcf0	0.029417485
194	0xbadf7b3b	-0.0017050275
195	0xbd87ef86	-0.06637482
196	0x3d995946	0.07487731
197	0x3d607f48	0.054808885
198	0xbd2ff658	-0.04295954
199	0xbd5f9d10	-0.054593146
200	0xbd19a4cf	-0.03751069
201	0xbd045dda	-0.032316066
202	0xbd835f4d	-0.064146616
203	0x3d9f7d80	0.07787609
204	0xbc28fc06	-0.010313993
205	0x3d1df6b6	0.03856536
206	0x3cf61a16	0.030041736
207	0x3cbf2691	0.02333382
208	0x3d4bf83b	0.049797278
209	0x3d530886	0.0515218
210	0xbdfb11dc	-0.12259266
211	0x3da0c515	0.078500904
212	0x3d42f3cc	0.047595784
213	0xbc27b682	-0.010236384
214	0x3d840e91	0.06448091
215	0x3d3cb847	0.046074178
216	0x3c8aca42	0.016942147
217	0xba730a3b	-0.0009271239
218	0xbe1d2056	-0.15344366
219	0x3d58ffc3	0.05297829
220	0x3d8fcd23	0.070215486
221	0x3cb32d55	0.021872202
222	0xbd678063	-0.056518923
223	0xbc8520b8	-0.016250953
224	0x3d79158e	0.06081157
225	0xbd1f8853	-0.03894837
226	0xbdd1f621	-0.102520235
227	0xbca226ed	-0.019793952
228	0xbd836eb7	-0.064176016
229	0x3cf135bd	0.02944457
230	0x3de19991	0.110156186
231	0x3db4f309	0.08835418
232	0x3cbd0bf5	0.02307699
233	0x3bac48cd	0.005257702
234	0x3dc11b13	0.09428992
235	0xbdca9714	-0.09892097
236	0x3ba93dab	0.005164822
237	0x3e0bc69d	0.13649984
238	0xbd4480d3	-0.04797442
239	0x3d58a3e3	0.05289067
240	0x3c9d7406	0.019220363
241	0xbc21cc79	-0.00987541
242	0x3e6cf42d	0.2314002
243	0x3cb57482	0.022150282
244	0x3e035270	0.12824416
245	0xbcd8f523	-0.026484078
246	0xbd77b462	-0.06047476
247	0xbcc293ec	-0.023752175
248	0x3d6a5bbe	0.0572164
249	0xbbf579f2	-0.0074913437
250	0xbd73b2bc	-0.059496626
251	0xbbda710d	-0.0066663087
252	0x3cf3986a	0.029735763
253	0xbb06d26d	-0.00205722
254	0xbc9d3eb6	-0.019194942
255	0xbd726761	-0.05918062

network_body._body_endoder.seq_layers.2.bias f4 [256]
0	0x3b10ecfc	0.002211391
1	0x3b9cb61e	0.0047824522
2	0xbb74f27d	-0.003737598
3	0x3bc5b25e	0.006033226
4	0xbba82c05	-0.0051322007
5	0x3b49f0cb	0.003081369
6	0xba78244f	-0.00094658596
7	0x3b93e78b	0.004513686
8	0x3ab8f1ec	0.0014110184
9	0xbbf290a0	-0.0074024945
10	0x3cb979f7	0.022641165
11	0x3a523917	0.00080193713
12	0x3adfad66	0.0017065227
13	0x3b171a61	0.0023056495
14	0xbbc1882d	-0.005906126
15	0x3bc19f8b	0.0059089116
16	0x3b425851	0.0029654691
17	0x3b25da3d	0.0025307082
18	0x3be13cc8	0.006873701
19	0x3a56cf2f	0.0008194325
20	0xba3144b9	-0.00067622546
21	0xbbf03157	-0.0073301005
22	0x3b24305c	0.0025053238
23	0xbabcc12c	-0.0014400831
24	0xbb4db6ab	-0.0031389396
25	0x3b7f92f5	0.0038997505
26	0x3b1f2d9c	0.002428866
27	0x3bc38b3e	0.0059675267
28	0x3b83178f	0.004000611
29	0xbbbdc511	-0.0057913144
30	0x3bf0efc2	0.0073528
31	0x3ab6477d	0.0013906803
32	0x3bd663a7	0.006542641
33	0x3a0aef41	0.0005299934
34	0x3bb7d114	0.005609641
35	0x3a936ae4	0.0011247066
36	0xbab77622	-0.0013996998
37	0x3c034e66	0.008014297
38	0x3bbfb292	0.0058501447
39	0xbb5b1f9c	-0.0033435589
40	0xbc777c46	-0.015105313
41	0x3bf9a7c9	0.0076188785
42	0xbbb426c0	-0.0054977834
43	0x3a1e8f57	0.0006048581
44	0x3b59d74a	0.0033239895
45	0x3a9c28d6	0.0011914026
46	0xbaeb83ae	-0.0017968321
47	0x3b37d352	0.002804954
48	0x39bc9961	0.0003597243
49	0xbbc31d3c	-0.0059544127
50	0xb99dd13a	-0.0003010126
51	0xbc69d487	-0.014271862
52	0x3bc4a88a	0.0060015367
53	0x3a60bac6	0.0008572753
54	0xbc4d70b3	-0.012539077
55	0x3ac413e1	0.0014959538
56	0xbb80ebb6	-0.003934349
57	0x3c9cb1a0	0.019127667
58	0xbbca3fe4	-0.006172167
59	0xbbbf5785	-0.0058392906
60	0x391b9ce8	0.00014840404
61	0x3b4592cc	0.0030147312
62	0x3a581185	0.00082423567
63	0x3b58f53d	0.0033105158
64	0xbb568d49	-0.003273802
65	0xbc430613	-0.011903304
66	0x3b19c939	0.0023465885
67	0xbbcbeb1c	-0.0062230956
68	0x3b47f50b	0.0030511047
69	0xbb8ee8f3	-0.004361266
70	0x3bc2abe3	0.0059409006
71	0xba90b3e5	-0.0011039941
72	0xbb35f59b	-0.00277648
73	0x3b010107	0.001968445
74	0x3b9e72bd	0.004835455
75	0xbb8a4e86	-0.0042207865
76	0xbc2dc94c	-0.010607075
77	0x3afc2ac4	0.0019238819
78	0x3baa2eec	0.005193582
79	0xbc41d9d3	-0.0118317185
80	0xbaba93d4	-0.001423473
81	0xbbdc2569	-0.006718327
82	0x3b81d474	0.003962094
83	0x3babb21d	0.0052397386
84	0x3bd2ca90	0.0064328387
85	0xbbb676bf	-0.005568355
86	0x3be5bc6a	0.007010986
87	0x3bb742a6	0.005592662
88	0x3b93f88c	0.004515713
89	0x3ab60bb1	0.0013888982
90	0x3b197c3c	0.0023419997
91	0xbc15adda	-0.009135688
92	0xbc1ff59c	-0.009763148
93	0xbc73f817	-0.014890692
94	0xbbb13b96	-0.0054087145
95	0x3be6b284	0.0070403237
96	0x3c00a844	0.007852618
97	0xbb813b0c	-0.0039438065
98	0xba56b255	-0.00081900257
99	0x3b895898	0.0041914694
100	0xbbc21df2	-0.00592398
101	0xbb0b61e1	-0.0021268057
102	0x3ac87ab3	0.0015295356
103	0x3c076404	0.008263592
104	0x3c3b2092	0.01142134
105	0x3b0fcec8	0.002194332
106	0x3a7c1ebe	0.0009617618
107	0xbbff97cf	-0.0078000794
108	0x3c5d2f1c	0.013500001
109	0x3c2cdc38	0.010550551
110	0xbb3c7648	-0.0028757025
111	0xbc134cf6	-0.008990517
112	0x3b922d36	0.004460956
113	0xbc3f16d4	-0.0116631575
114	0xbc01313c	-0.007885274
115	0x3a8fb9ec	0.0010965443
116	0x3bbc80d5	0.0057526627
117	0xbc286b65	-0.010279511
118	0x3b7464e5	0.0037291583
119	0x3c3e1a78	0.01160299
120	0xbc25ef99	-0.010127925
121	0x3a29826e	0.0006466274
122	0x3b234c3d	0.0024917268
123	0x3c14de92	0.009086268
124	0xbbca2ceb	-0.0061699054
125	0xbc376d03	-0.011195424
126	0xbbdee0c2	-0.0068016956
127	0x3b88fce9	0.00418054
128	0xbb77138c	-0.003770086
129	0x3bdff0ee	0.006834141
130	0xbba9a697	-0.0051773298
131	0x3b00d391	0.0019657353
132	0xbc0b9ce8	-0.008521296
133	0xbc07d666	-0.008290863
134	0xbbc39681	-0.005968869
135	0x3b8cd11c	0.0042973887
136	0xbc056700	-0.008142233
137	0x3c0ea928	0.008707322
138	0xbc52edde	-0.012874095
139	0xbbc6328c	-0.006048506
140	0x3ba5a5d1	0.0050551672
141	0xbba53f9e	-0.005042984
142	0x3bf16734	0.007367039
143	0xbb6c4e0a	-0.0036057257
144	0x3c3bd568	0.011464454
145	0x39bf17ce	0.00036448095
146	0xbc750e22	-0.014956983
147	0x3b855ea5	0.0040701204
148	0xbbf70710	-0.0075386837
149	0x3aaafc3f	0.0013045146
150	0xbb8d13d3	-0.0043053417
151	0x3ab0debf	0.0013494118
152	0x3ab92bcd	0.0014127434
153	0xbbc32629	-0.005955477
154	0x3ba40714	0.0050057266
155	0xbba8a0d7	-0.0051461267
156	0xbbdf214d	-0.0068093897
157	0xbbbdb991	-0.0057899435
158	0xbb6cf3f1	-0.0036156143
159	0xbba82b10	-0.0051320866
160	0xbbb822ec	-0.0056193974
161	0xbc1cf16d	-0.009579045
162	0xbbee82ff	-0.0072787995
163	0x3ac57227	0.0015063927
164	0xba3da3da	-0.00072341936
165	0xbb7f1e98	-0.0038928147
166	0xbbc300f2	-0.0059510404
167	0xba55b6dc	-0.00081525533
168	0x3c276736	0.0102174785
169	0x3b458adf	0.0030142588
170	0x3c6bafc1	0.014385165
171	0xbbac1c93	-0.0052524297
172	0x3a59a2af	0.0008302135
173	0x3be1612d	0.0068780393
174	0xba8ed3b7	-0.0010896836
175	0x3c089405	0.008336072
176	0xbc11e683	-0.008905056
177	0xbb4339be	-0.0029789056
178	0x3b906b50	0.004407324
179	0xbbe68fa0	-0.0070361644
180	0x3bc53e5b	0.0060193962
181	0xb9b3a59f	-0.00034264938
182	0xbac497bf	-0.0014998837
183	0x3c3bc8c4	0.0114614405
184	0x3c0524db	0.008126463
185	0xbc28216f	-0.010261877
186	0xbc5476a1	-0.012967736
187	0xbc072d53	-0.008250552
188	0x3b5b7b3c	0.0033490201
189	0xba95ddb2	-0.0011433868
190	0x3ac5ab0e	0.0015080885
191	0xbae86e49	-0.0017733063
192	0x3b4ec228	0.0031548832
193	0x3bb4dd48	0.005519543
194	0xb9547bc3	-0.00020264
195	0x3ba67597	0.005079936
196	0xbb726327	-0.003698537
197	0xbc62153c	-0.013799008
198	0xbb84b1cf	-0.0040495167
199	0xbbab6f80	-0.0052317977
200	0xbb50b914	-0.0031848596
201	0x3c54a46b	0.012978653
202	0xbbc57f6d	-0.006027153
203	0x3ab65f18	0.0013913838
204	0xbbce0b71	-0.006287985
205	0xba5e17c3	-0.00084721687
206	0xbbb7c4c4	-0.005608173
207	0xbba5b6f1	-0.0050572087
208	0x3c41b8f2	0.01182388
209	0xbc4216b3	-0.011846232
210	0x3b04f7ce	0.0020289305
211	0x3a6aaae1	0.00089518545
212	0x3aa6086a	0.0012667303
213	0xbbe57e0d	-0.007003552
214	0x3b504611	0.0031780044
215	0x3b62e226	0.0034619658
216	0xba705c51	-0.00091690297
217	0xbc187257	-0.0093046045
218	0x3af6ed31	0.0018838999
219	0x3bb29a82	0.0054505477
220	0x3a787061	0.0009477195
221	0xba3277a0	-0.00068079866
222	0x3aff80e2	0.0019493366
223	0x3b6d70f4	0.0036230655
224	0xbba4ba82	-0.0050271163
225	0xbbdae8e5	-0.006680595
226	0xbc1c9989	-0.00955809
227	0xbbbaaa36	-0.0056965603
228	0x3b7911be	0.003800496
229	0xbbc0879d	-0.0058755414
230	0xbb4c8a39	-0.0031210317
231	0x3b8c8e04	0.0042893905
232	0x3c0a0f4e	0.0084265005
233	0xbc2c9322	-0.010533126
234	0xbc00cd6d	-0.007861477
235	0x3af247ea	0.0018484567
236	0xbba3ea33	-0.005002284
237	0x3bb0875d	0.0053872303
238	0xbb522039	-0.0032062663
239	0x3b74f3a3	0.0037376664
240	0x3b48bd81	0.0030630531
241	0xbbc75d9b	-0.0060841567
242	0x3bd18469	0.0063939583
243	0xbb5c6c5d	-0.0033633925
244	0xbc0485db	-0.008088554
245	0x3c10ea7c	0.008844968
246	0xbc39d8cf	-0.011343195
247	0x3a18d52b	0.00058301043
248	0xbc0d8bcc	-0.008639287
249	0xbbb3e3b6	-0.0054897917
250	0xbb624b73	-0.0034529835
251	0x3979da42	0.00023827798
252	0xbb0a8a4f	-0.0021139567
253	0x3a05a812	0.0005098592
254	0x3bbd4979	0.005776581
255	0x3b103745	0.00220056

action_model._discrete_distribution.branches.0.weight f4 [3, 256]
0	0xbc83532c	-0.01603087
1	0x3c14fb4b	0.009093116
2	0x3990c07f	0.0002760924
3	0x3adfdeaa	0.0017079909
4	0x3af78160	0.0018883161
5	0xbb2ba612	-0.0026191515
6	0xbb2efbe2	-0.0026700427
7	0xba5b5084	-0.0008366185
8	0xbc4c391e	-0.01246479
9	0x3b833ad6	0.0040048165
10	0xbbbb9aef	-0.0057252566
11	0x3c4fc1d9	0.012680494
12	0xbb622949	-0.003450947
13	0x3c1823d2	0.009285884
14	0x3c1d79bb	0.009611542
15	0x3a91e726	0.001113151
16	0x3c0cb403	0.00858784
17	0xbc86c4fa	-0.016451348
18	0xbb8410e0	-0.004030332
19	0xbcc02a69	-0.023457723
20	0xbc6294c2	-0.013829412
21	0x3b9d06ef	0.0047920863
22	0xbc7dd39e	-0.015492348
23	0xbb8ce72f	-0.00430002
24	0x3a14d655	0.000567769
25	0x3bc91867	0.006136942
26	0x3a05efcb	0.00051092793
27	0xbc8918f5	-0.016735533
28	0x3b8b54cd	0.0042520524
29	0xbb2e96b0	-0.002664011
30	0xbc4e94ab	-0.012608687
31	0xbaed2895	-0.001809376
32	0x3c7c5283	0.015400532
33	0xbc4476eb	-0.011991243
34	0xbc62b8d1	-0.013838009
35	0x3c003e63	0.007827374
36	0xbba816f2	-0.0051296884
37	0xbc3f2be6	-0.011668181
38	0xbb1d4da9	-0.0024002588
39	0x3c3ca8e1	0.011514873
40	0x3c84f339	0.016229259
41	0xba8f9309	-0.0010953854
42	0x3c1e10f7	0.009647599
43	0xbbea0fb7	-0.0071429866
44	0xbc915f1b	-0.017745545
45	0x3b57af44	0.0032910863
46	0xbbd4a3e9	-0.006489266
47	0xbb8d37a5	-0.004309612
48	0xbc5b8fa3	-0.013400945
49	0x3bcfcc1e	0.0063414713
50	0xbc1d82f1	-0.009613738
51	0x3b96841f	0.004593387
52	0xbcd629d0	-0.026142985
53	0xbc488a35	-0.012239982
54	0x3c96d3fd	0.01841163
55	0x3b969c48	0.004596267
56	0x3bb4b63a	0.005514887
57	0xbbdbb17a	-0.0067045065
58	0x3b294152	0.0025826287
59	0x3b88acb3	0.004170978
60	0xbc9b95a8	-0.01899226
61	0xbb2fb1d1	-0.0026808868
62	0xbc95fae0	-0.018308103
63	0xbbdb7890	-0.006697722
64	0x3c9fcdbe	0.019507285
65	0x3c79c19f	0.015243917
66	0xbba37685	-0.004988494
67	0xbc070c7e	-0.008242724
68	0xbc2b62a6	-0.010460531
69	0x3b80178e	0.003909058
70	0x3b0e2d7b	0.002169459
71	0xbad73e41	-0.0016421751
72	0x3b0ffc32	0.0021970388
73	0xbb898a09	-0.0041973633
74	0xbc594156	-0.013260206
75	0xbb1a2ac2	-0.002352402
76	0x3cd7023a	0.026246179
77	0x3c55a0fc	0.01303887
78	0xbc8f0afc	-0.017461292
79	0x3c3038ac	0.010755699
80	0x3a16115e	0.0005724634
81	0x3c8de29c	0.01731997
82	0x3becc17b	0.007225213
83	0x3bb5b83f	0.0055456455
84	0xbca00ff9	-0.019538866
85	0xbaf31230	-0.0018544849
86	0xba06eee3	-0.0005147291
87	0xbc1ae778	-0.0094546005
88	0xbbfa13b8	-0.007631745
89	0xbc63808c	-0.013885628
90	0x3b56fb4b	0.003280359
91	0x3babb9d0	0.0052406564
92	0x3bcae457	0.006191771
93	0x3c8cf409	0.017206209
94	0x3c72b3e5	0.014813398
95	0xba1f622d	-0.0006079998
96	0xbc5d3af1	-0.013502822
97	0x3b41eecc	0.0029591797
98	0x3a353af7	0.00069133885
99	0xbc7e84fa	-0.015534634
100	0x3bc384e6	0.0059667705
101	0xbb41ae46	-0.0029553338
102	0xbbbd689a	-0.0057802917
103	0x3c37940b	0.01120473
104	0x3b96a62e	0.004597447
105	0xbb6f0ac8	-0.0036474932
106	0x3b7d86a3	0.0038684986
107	0xb885c89a	-6.379299e-05
108	0x3bf7f671	0.00756722
109	0xbcb6d17c	-0.022316687
110	0x3b1ae318	0.0023633894
111	0xbb9f6481	-0.004864276
112	0xbaa17366	-0.0012317717
113	0x3c9947fa	0.018711079
114	0x3a3acf1f	0.00071262004
115	0x3ba756e6	0.0051067946
116	0xbaa225dd	-0.0012370903
117	0x3b64be2d	0.0034903393
118	0xbc0e2279	-0.008675211
119	0xbc39495f	-0.011308997
120	0x3c48faf8	0.012266867
121	0xbbfb79c6	-0.0076744286
122	0x3c058f1c	0.008151796
123	0xbaff7697	-0.0019490299
124	0x3bef553b	0.0073038614
125	0xbb30ab09	-0.0026957414
126	0x3cfc1d86	0.030775797
127	0xbc69fe26	-0.014281785
128	0xbcbd86b5	-0.023135522
129	0xbc39f1ea	-0.011349181
130	0xbbf05a21	-0.007334963
131	0xbbb387df	-0.0054788436
132	0x3c8391f5	0.016060809
133	0x3c6b3aec	0.01435731
134	0x3c9e0935	0.0192915
135	0xbc0b7b5f	-0.008513301
136	0x3cb172d5	0.021661201
137	0xbab58934	-0.0013850094
138	0x3c888a5a	0.016667534
139	0xbac1af91	-0.0014777054
140	0x3c2c27de	0.010507552
141	0x3ab17c6d	0.001354111
142	0x3c739c6b	0.014868836
143	0xbc60c918	-0.0137198195
144	0xba825256	-0.0009942751
145	0x3cae8438	0.021303281
146	0x3b406dba	0.0029362277
147	0x3b3c5c0b	0.0028741385
148	0x3cd944e8	0.026522115
149	0x3b93ba07	0.00450826
150	0x3c430eb6	0.011905363
151	0x3c7b8d7f	0.0153535595
152	0x3bfbe4b6	0.0076871766
153	0x3ca3d01a	0.019996691
154	0x3c11511a	0.008869434
155	0x3bc0c599	0.0058829305
156	0x3c2d158b	0.010564218
157	0x3c7b77ae	0.015348358
158	0x3ca19b35	0.019727329
159	0xbbf1f81e	-0.007384314
160	0xbbf8d051	-0.0075931926
161	0x3bf92aa4	0.00760396
162	0x3c48ce7b	0.01225626
163	0xbba60a04	-0.005067112
164	0xbaf0f42b	-0.0018383315
165	0x3b88ae9b	0.004171205
166	0x3cc1e005	0.023666391
167	0xbc57577f	-0.013143419
168	0xbc56b6b5	-0.013105084
169	0xbc3a0b72	-0.011355268
170	0x3ab1c4c7	0.0013562673
171	0x3c571153	0.013126689
172	0x3c4cf18b	0.01250876
173	0xbc30da57	-0.010794244
174	0x3c4bec8a	0.012446532
175	0xbc6fe0f6	-0.014641037
176	0x3c9bb7dd	0.019008571
177	0xba3f359c	-0.000729406
178	0xbc925714	-0.017863788
179	0x3bececdd	0.0072303847
180	0xba6be9b3	-0.00089993625
181	0xbb918389	-0.004440729
182	0xba886414	-0.0010405802
183	0x3b27a35c	0.0025579548
184	0x3be5fb16	0.007018457
185	0x3bce6f6d	0.006299904
186	0x3ad5ba29	0.001630609
187	0x3b325bd3	0.0027215376
188	0xbb5f4ecd	-0.0034074069
189	0xb99a6ce2	-0.00029454293
190	0xbb93174e	-0.004488862
191	0x3c8bc84d	0.017063284
192	0x3c11b083	0.008892181
193	0xba14436e	-0.00056558
194	0x3bf7a2cd	0.007557249
195	0x3ba7fa69	0.0051262868
196	0xbb9446f3	-0.0045250594
197	0xbbfb8b69	-0.007676531
198	0x3bafec64	0.005368756
199	0x3c54e54c	0.012994122
200	0xbbd51b3e	-0.0065034917
201	0x3b8084f3	0.003922099
202	0xbb1c9daa	-0.0023897686
203	0x3b14dfae	0.0022716331
204	0xbb591f08	-0.0033130068
205	0xbc553605	-0.013013368
206	0x3c0520eb	0.008125524
207	0x3c6399e0	0.013891667
208	0xba4dcd65	-0.00078507356
209	0x3b929ae9	0.004474033
210	0xbb9e2e97	-0.0048273313
211	0x3c35db9f	0.011099725
212	0xbcbc0b52	-0.022954617
213	0xbb192ea6	-0.0023373752
214	0xbadd6167	-0.001688999
215	0xbca1dbec	-0.019758187
216	0x3c5f8e16	0.013644716
217	0x3c41b9d0	0.011824086
218	0x3c7851c6	0.015156215
219	0xbc58113e	-0.013187705
220	0x39b50403	0.00034526
221	0x3c542b82	0.012949826
222	0x3c399084	0.011325959
223	0x3bbc4f56	0.0057467623
224	0x3c24ee93	0.010066646
225	0x3c4b1c08	0.01239682
226	0x3b57c1de	0.003292195
227	0xbbc105d0	-0.0058905855
228	0x3bd478a0	0.006484106
229	0xbc142b09	-0.0090434635
230	0x3bd5ac1a	0.0065207602
231	0xbc3ce0e7	-0.01152823
232	0x3ca89c8e	0.020582464
233	0xbc42a84f	-0.011880948
234	0x3c309aba	0.010779077
235	0xbc117f92	-0.008880513
236	0x3c7bd572	0.015370714
237	0x3b7917e8	0.0038008634
238	0x3c61b674	0.01377641
239	0x3a88d228	0.0010438608
240	0xbc39e946	-0.011347121
241	0xba153006	-0.0005691055
242	0xbc17ae5e	-0.009257881
243	0xbb1613a6	-0.0022899895
244	0xbb842e4e	-0.0040338403
245	0x3bb8d29a	0.00564034
246	0x3c2ed09d	0.0106698545
247	0xba8e84b3	-0.0010873288
248	0xbb38f563	-0.0028222434
249	0x3c859182	0.016304735
250	0xbade5e92	-0.001696544
251	0xbc276c99	-0.010218763
252	0x3b7636ea	0.0037569352
253	0x3c0ddd75	0.0086587565
254	0xbca02da0	-0.019553006
255	0xbc90015e	-0.017578777

action_model._discrete_distribution.branches.0.bias f4 [3]
0	0xbc524e93	-0.012836116
1	0x3a516ddc	0.00079890876
2	0x3c318293	0.010834354

action_model._discrete_distribution.branches.1.weight f4 [3, 256]
0	0xbbae4a48	-0.0053189136
1	0x3c620693	0.013795513
2	0x3c97eb02	0.018544678
3	0xbc8317cc	-0.016002558
4	0xbaf6b4c3	-0.0018822182
5	0xbb239eb5	-0.0024966423
6	0x3c4ba0a2	0.012428435
7	0x3b3c3f0a	0.0028724098
8	0xbbf96d9d	-0.007611944
9	0xbcbfab1a	-0.023397017
10	0xbb057598	-0.002036428
11	0x3c1efcf4	0.009703863
12	0xbc2dbc46	-0.01060397
13	0x3bb240ee	0.005439869
14	0x3c1f6166	0.009727811
15	0xbbad62a8	-0.0052913018
16	0x3ce4c736	0.027927022
17	0x3c424856	0.011858067
18	0xbc1a1fc3	-0.009406987
19	0xbbafc374	-0.005363876
20	0x3cec8ccf	0.028875737
21	0x3ca82e13	0.020529782
22	0x3ca0b7b0	0.019618839
23	0xbbc3ff08	-0.00598133
24	0x3aabbbe4	0.001310226
25	0xb9e065bc	-0.00042800407
26	0x3b93c502	0.004509569
27	0xbab78441	-0.0014001207
28	0x3c4d8e65	0.0125461565
29	0x39d163d6	0.0003993797
30	0xbc84819c	-0.016175084
31	0xbb7023ef	-0.0036642512
32	0x3b1c4f50	0.0023850985
33	0xbc241426	-0.010014569
34	0xbc4ef4fc	-0.012631651
35	0x3bbac0e5	0.0056992644
36	0xbb3eb37d	-0.0029098683
37	0xbca54a4e	-0.020177033
38	0x3af01801	0.0018317701
39	0xbbc75fd2	-0.0060844207
40	0x3ae5993c	0.0017516981
41	0xbbcda742	-0.006276042
42	0x3c1c7e3e	0.009551583
43	0xbc7695b6	-0.015050342
44	0xbc070f8f	-0.008243456
45	0x3c31a057	0.010841451
46	0xbc1f6ce4	-0.009730551
47	0xbc3aa0a1	-0.011390836
48	0x3c2686c3	0.010163966
49	0x3c1351f9	0.008991712
50	0xbb72cfcc	-0.0037050126
51	0xbc0e381a	-0.008680368
52	0xb68d59fe	-4.212604e-06
53	0x3c7ba122	0.015358241
54	0xbb714421	-0.003681429
55	0xbbccc134	-0.0062486175
56	0x3b32d1a1	0.0027285593
57	0x3bf0eac3	0.0073522045
58	0x3c8a0a85	0.01685072
59	0x3c9e90ce	0.019356158
60	0x3bd09126	0.0063649593
61	0x3b3f17bd	0.0029158436
62	0xbc5a46ab	-0.013322513
63	0xbadc09b1	-0.0016787556
64	0xbb47485b	-0.0030408117
65	0x3bd638a2	0.006537513
66	0x39bbba0e	0.0003580604
67	0x3bb20d70	0.005433731
68	0xbb3e0bec	-0.0028998805
69	0xbc571fcb	-0.013130139
70	0xbb3e15c6	-0.0029004677
71	0xbba504fe	-0.0050359955
72	0x3b6f475b	0.0036511037
73	0xbb90fcfa	-0.0044246884
74	0x3c5eb17f	0.013592123
75	0xba9c1c7e	-0.0011910347
76	0xbb2d6f7e	-0.002646416
77	0x3c3709b4	0.011171747
78	0xbc18c5ff	-0.00932455
79	0x3bf00f22	0.0073260227
80	0x3c88cea8	0.016700104
81	0xbaf80d40	-0.0018924847
82	0x3b07ef19	0.0020741879
83	0xbc2af745	-0.01043493
84	0xbc7c191d	-0.015386847
85	0x39a84434	0.00032094272
86	0x3cee1855	0.029064337
87	0xbcd518a4	-0.026012726
88	0xbc98ee2d	-0.018668259
89	0xb94e3818	-0.00019666587
90	0x3a3bb152	0.00071599067
91	0x3c4fd859	0.012685859
92	0x3bbc89aa	0.0057537155
93	0xbb904d2a	-0.00440373
94	0x3cc562e0	0.024094999
95	0x3c82deb0	0.015975326
96	0xbb8a76c6	-0.0042255847
97	0x3aee9afb	0.0018204147
98	0xbc025a22	-0.00795606
99	0xbc23387c	-0.009962197
100	0x3c2e372e	0.010633273
101	0x3c5497c4	0.012975637
102	0x3cb2828f	0.02179077
103	0xbc27e23e	-0.010246811
104	0x3afe6828	0.0019409703
105	0x3ce36744	0.027759202
106	0x3adc7623	0.0016819875
107	0xbc2a2956	-0.010385832
108	0x3ccde04c	0.025131367
109	0xbbef593c	-0.0073043387
110	0x3c8889b4	0.016667224
111	0x3acd90a9	0.0015683371
112	0xbbdf2b7a	-0.0068106027
113	0x3ab66d69	0.0013918105
114	0x3c92e2f4	0.017930485
115	0x3bb51e22	0.0055272738
116	0xbc802a3a	-0.015645135
117	0x3c3a287b	0.01136219
118	0xbc9ae5e8	-0.018908456
119	0xbb7e2b31	-0.0038783068
120	0x3c73760a	0.014859686
121	0x3cf6a851	0.030109556
122	0x3cce56d9	0.025187897
123	0x3b8a498e	0.004220194
124	0x3c5e6647	0.0135741895
125	0xbc3776bd	-0.011197743
126	0x3c0a56c0	0.008443534
127	0x388f4e05	6.8333036e-05
128	0x3b1fd802	0.0024390225
129	0xbbcc7850	-0.0062399283
130	0x3aa8bbb1	0.0012873319
131	0x3ca982c7	0.020692242
132	0x3b6756c6	0.0035299524
133	0x3bd9f1fc	0.0066511612
134	0xbb95011a	-0.0045472505
135	0xbbcc3a48	-0.0062325336
136	0x3adb1a1f	0.0016716159
137	0x3b8216df	0.0039700116
138	0x3b75e5da	0.0037521035
139	0x3b127775	0.0022349034
140	0xbc74cb50	-0.014941052
141	0x3cbea34e	0.02327123
142	0xbb1a1169	-0.0023508912
143	0xbb719113	-0.0036860153
144	0x3b0e63fc	0.0021727076
145	0xb9657736	-0.00021883551
146	0xbacb537f	-0.0015512555
147	0xbad2d038	-0.0016083783
148	0x3b36b2db	0.0027877602
149	0xbbf017ae	-0.0073270416
150	0xbc3b2742	-0.011422934
151	0x3c71a4f0	0.014748797
152	0xba826fe6	-0.0009951561
153	0xbbf3b73c	-0.0074376147
154	0xbbd9f6cf	-0.0066517363
155	0x3caa3466	0.020776939
156	0x3c8e8417	0.01739697
157	0x3bf7ea42	0.0075657675
158	0xbac32c29	-0.001489048
159	0xbc7fe9f9	-0.015619748
160	0x3be7a250	0.0070689097
161	0x3c20e2a3	0.009819659
162	0x3b113028	0.0022153948
163	0xbbce8574	-0.00630253
164	0xbb9f2e9e	-0.004857852
165	0x3ba97ed5	0.0051725903
166	0xbb033dff	-0.0020025966
167	0xbb0acaa1	-0.0021177905
168	0xbbc332ac	-0.0059569683
169	0x3c15ff8c	0.009155165
170	0x3c22e642	0.009942593
171	0x3c236091	0.009971754
172	0x3c5ebc6c	0.013594728
173	0xbbda7441	-0.0066666906
174	0x3c4bff59	0.012451016
175	0x3cf61492	0.030039106
176	0xbbcfd975	-0.0063430616
177	0x3c8e7bb3	0.017392969
178	0xbc58d4bd	-0.0132343145
179	0x3c57f001	0.01317978
180	0xbc4796b3	-0.012181926
181	0xbbaa33b2	-0.005194151
182	0xbbda93c9	-0.0066704494
183	0xbcaff57b	-0.021479359
184	0x3cbf905e	0.02338427
185	0xbc19d230	-0.0093884915
186	0xbb6dda18	-0.0036293324
187	0x3be9bf54	0.007133404
188	0xbc549b00	-0.012976408
189	0xbb098752	-0.0020985198
190	0x3c604f94	0.013690848
191	0x3c877a38	0.01653777
192	0x3bad11be	0.005281656
193	0x3c1cf522	0.009579929
194	0x3c3c3e1d	0.011489418
195	0x3c26269c	0.010141041
196	0xbbf34c69	-0.0074248803
197	0x3b8caed2	0.004293301
198	0x3c90cff2	0.017677281
199	0x3c15b5e0	0.009137601
200	0xbc6a6c07	-0.014307982
201	0x3c924737	0.017856224
202	0x3c11fd17	0.008910439
203	0x3c3958bf	0.011312663
204	0x3c90d9f5	0.017682055
205	0xbb9ef8e5	-0.004851448
206	0xba87294a	-0.0010311988
207	0x3c0ef064	0.008724306
208	0x3c975c45	0.018476615
209	0x3c414fc5	0.011798804
210	0xbb52d2fa	-0.003216921
211	0x3b206e5f	0.0024479849
212	0x3b3635c4	0.0027803043
213	0xbc6552bf	-0.013996779
214	0x3bafa9f5	0.0053608366
215	0x3b85526f	0.0040686647
216	0x3c4041e4	0.01173446
217	0x3c03bd46	0.008040732
218	0xbc3a65f0	-0.011376843
219	0xbbb8f7f4	-0.0056447927
220	0xbc071ae1	-0.0082461545
221	0x3bb268ea	0.0054446356
222	0x3bf4837a	0.0074619623
223	0x3b59306b	0.0033140432
224	0xba45da5f	-0.00075474934
225	0x3b6ef451	0.0036461542
226	0x3b49dab8	0.0030800533
227	0x3cbf75c0	0.023371577
228	0x3c93602d	0.017990196
229	0x3ca0f733	0.019649124
230	0x3cb3c2ee	0.021943536
231	0xbc110ef2	-0.008853661
232	0x3b6feda0	0.0036610141
233	0x3b83ee37	0.0040262
234	0x3b008b53	0.0019614294
235	0xbb877953	-0.004134336
236	0xbb383f4e	-0.0028113904
237	0x3b9eb8f7	0.004843827
238	0x3d028b8b	0.03187136
239	0xb7f061aa	-2.8655708e-05
240	0x3cdd4252	0.027009163
241	0x39279c38	0.00015984557
242	0xbc1f7495	-0.009732385
243	0xb9897ccb	-0.00026223654
244	0xbbb8ea9c	-0.005643202
245	0x3c08a01f	0.008338957
246	0x3b0414e8	0.0020154063
247	0xbc4d27ab	-0.012521665
248	0x3b511595	0.0031903733
249	0xbb5152ab	-0.0031940143
250	0xbc9367a0	-0.017993748
251	0xbb74f736	-0.0037378795
252	0xbc3c73a4	-0.01150218
253	0x3b9634a9	0.0045839143
254	0xbbecc165	-0.007225203
255	0x3d0125f5	0.03153034

action_model._discrete_distribution.branches.1.bias f4 [3]
0	0x39a3fdba	0.00031278824
1	0x3b047b5f	0.0020215136
2	0xb9e65757	-0.00043934092
