results/CarAI/BotControllerAgent/BotControllerAgent-36499989.onnx (onnx, 130130 bytes, 9 tensors)

discrete_act_size_vector f4 [1, 2]
00000000: 0000 4040 0000 4040
3.0 3.0

network_body._body_endoder.seq_layers.0.weight f4 [128, 104]
00000000: 33c6 213d af72 79bd b500 19be 2b0f 9ebe
00000010: 4786 01bc 5c40 a5be 3146 0dbd 2276 f3bd
00000020: 7d3d 04be c4ae 66bd bd96 f7bd e843 413d
00000030: b4f0 40be a88f 6dbd 818b 0f3e f2bc 163e
00000040: e075 74bc 211b 43be 38ff 3abe 53d6 5abe
00000050: 16cc 71be 78d6 aabd 241d 14be b86f b7bd
00000060: 028a 15bc b837 a0be 14cc 553d 08c0 50bd
00000070: fef7 3e3d cd4f cbbe 7110 b13d 0f27 1c3c
00000080: 3dc1 a5bd 250a 8c3d 3dde a2bd 2f25 2f3b
00000090: 21d4 b13b 84cc 46be 9741 c7bd d958 00bd
000000a0: 05d6 55bc 3715 9bbc e425 713d ce30 6abe
000000b0: b211 3abe 14cd a7be e757 f0bc 1e08 af3d
000000c0: e2c6 f3bd 7d10 cfbe 0f4d 5ebd 3a6f 66bd
000000d0: 7c52 94bd 94d6 09be 1a02 babd ecbc 293d
000000e0: 90d7 383d f743 b2bc 58fe 033e c863 65bd
000000f0: 0724 58be d493 cdbd 0e83 44bd 8bb8 1dbe
00000100: 6679 a7bd c996 13be 73a3 eebb ebe7 69bd
00000110: 8b8c 18be 3750 62be c262 e7bc ce67 87bd
00000120: a03e 18be 5c73 45be e1f6 983d e401 c3bd
00000130: f55c aa3d e7fc 23be fba8 43bd 4f74 3dbe
00000140: 799c 3ebe 378d 0d3e f164 df3c ae1e 30be
00000150: 568f f9bb 16d0 3fbe cc2a 3c3d 922f ed3d
00000160: 2e12 a1bd eaa5 c0be 2682 283e 1887 77be
00000170: 57ec 9ebe 865c febd 5e6f f2bd 45de 3c3e
00000180: d075 56bd 7296 68bd 6774 363e 3ace 3cbe
00000190: 14f8 b2bd 7397 18be ad60 0b3e 65db c9bc
000001a0: a415 8fbd 96cf 143d 8ae8 573d 3577 f4bd
000001b0: d7b2 2d3d a8b9 0e3e 4292 bc3c 95fa f43d
000001c0: 0cf7 793d bcd3 a9bd 15c4 09bd 14f5 29be
000001d0: 1a95 083d 5b14 f33d 53d8 1bbe 0cee ecbc
000001e0: 247f 063e 6b42 dd3c 71af c6bd b6c1 27be
000001f0: d166 64be 5c1b b03d 945c 17be ddf1 9fbd
00000200: b172 c6bd 9ae5 e9bd 33a9 e8bd 54b0 f1bd
00000210: f902 433d 4c68 e83d 4d6e 0d3e 1b4e 5dbe
00000220: 19f7 8dbe d4b4 bf3d d363 0c3e b3fa 043d
00000230: b46f 3e3c 727b b4bd 8c53 7fbd b8fd 29bd
00000240: 552d 7abd f8eb 3a3c 6afd 56bc acdc 86bc
00000250: e6a8 c1bd 6436 b53d 067b 353d 4007 033a
00000260: d953 79bd 3fc1 5cbe 954c 7b3c 1d79 52be
00000270: 8f85 94bd 2cfa 06be 28bd f6bc 67a6 1ebc
00000280: 63c0 82bc bcf6 0e3d 621c 83bc fa5a 3abe
00000290: b98f 04be 90c5 db3c 468b cb3d 1b27 23bd
000002a0: eaf6 2dbe cabe 353e 4bce 43be 22ce 09be
000002b0: 1661 06be 187c 263d 7936 83bd 87c1 94be
000002c0: 094c bbbd ac57 013e 507e ab3d ac5d 1cbe
000002d0: a041 9bbd 109c 1b3c eb53 993d d75a 3fbe
000002e0: b34a 43be b658 76bd a314 dbbc f293 c43d
000002f0: 4a6d 24bd 6e1c 483e 32b1 043d 4cb3 0dbe
00000300: 362e a43d b372 99bd 4b60 89bc 6a60 3fbe
00000310: 04dd 99be bc99 123e e737 1abe 050c 82be
00000320: 3ed8 3bbd 1d8e 03be c9bf e53d 0290 0fbe
00000330: 6a3a a33e c056 3cbe ba5c 1b3e fe1a 3fbe
00000340: 28eb 66bf 6f40 113e fd6e cbbd f649 9cbe
00000350: e9a2 9c3b 1bed 27bf 974f ae3d b30c 153e
00000360: a33a 9e3d cdbb 34be f778 8bba 7857 31bf
00000370: 3a50 6abd 523e f03d 9259 c63d b95a 5b3e
00000380: 8024 86bd e0b9 dfbd 8b77 94bc b454 47be
00000390: e2ec 38bf 1603 083c 462b 6abb ee82 b7be
000003a0: 3182 aabd b82f f2be 310d 9fbd f74b 1e3e
000003b0: 34ee 3bbc 314b 83be 8684 e63d 41cd b7be
000003c0: d6fc f4bd fc01 3a3e 3671 533d f837 1a3e
000003d0: ce70 4cbd 9563 0ebe 8e63 8abd 6000 3fbe
000003e0: e81b 57bf 9ca6 953e 5b5a 8f3d 918e 4bbe
000003f0: 8f55 413e 92c1 1ebf 39cc 153d 4291 f43e
0.039495658 -0.060900386 -0.14941676 -0.30870947 -0.007905549 -0.32275665 -0.034490768 -0.118877664
-0.12914081 -0.056319013 -0.12089298 0.0471839 -0.18841821 -0.05799833 0.1401806 0.14720514
-0.014920682 -0.19053318 -0.1826142 -0.2137082 -0.23613009 -0.08341688 -0.14464241 -0.089568555
-0.009127142 -0.3129251 0.052196577 -0.050964385 0.046623223 -0.3970932 0.08645714 0.009530797
-0.08093498 0.068378724 -0.07952545 0.0026725044 0.005426899 -0.19413954 -0.09729307 -0.03133473
-0.0130515145 -0.018931014 0.058874026 -0.2287018 -0.18170813 -0.3277365 -0.02933879 0.0854647
-0.11903168 -0.40442267 -0.054272708 -0.056258418 -0.07242295 -0.13460761 -0.09082432 0.041439936
0.04512745 -0.021760924 0.12889993 -0.056003362 -0.21107493 -0.100379616 -0.047976546 -0.15402429
-0.08177452 -0.14412989 -0.0072826683 -0.05710594 -0.14897363 -0.22100912 -0.028245334 -0.06611596
-0.1486764 -0.19282287 0.074689634 -0.09521845 0.083185114 -0.16014443 -0.047768574 -0.185014
-0.18614377 0.138234 0.027269812 -0.17199203 -0.007615964 -0.18731722 0.04593925 0.11581339
-0.078647956 -0.37626582 0.16455898 -0.24172628 -0.31039688 -0.12419991 -0.11837648 0.18444164
-0.05235845 -0.0567841 0.17817841 -0.18438044 -0.087387234 -0.14901523 0.13611098 -0.024640748
-0.069865495 0.036330782 0.052712 -0.119367994 0.042406883 0.1393801 0.02301896 0.11961857
0.061026618 -0.08292338 -0.033634264 -0.16597396 0.03334532 0.11869117 -0.1521924 -0.028922103
0.13134438 0.02700921 -0.097014315 -0.16382489 -0.22304846 0.085989684 -0.1478141 -0.07809804
-0.096898444 -0.11420746 -0.11360397 -0.1180121 0.047610257 0.11348018 0.13811608 -0.21611826
-0.27727583 0.09360662 0.13709955 0.032465648 0.011623312 -0.08812608 -0.062335536 -0.04150173
-0.06107839 0.011408798 -0.013121942 -0.016462646 -0.09456043 0.08848265 0.044306777 0.0004998334
-0.06087098 -0.21558093 0.015338083 -0.20554014 -0.07252037 -0.1318137 -0.030119494 -0.009683228
-0.015960878 0.034903273 -0.016004745 -0.18198767 -0.12945451 0.026827604 0.09938674 -0.039832216
-0.16988721 0.17748562 -0.19121663 -0.1345754 -0.13122973 0.04064569 -0.06406874 -0.290539
-0.09145362 0.126311 0.083737016 -0.15270108 -0.07580876 0.009497657 0.07486709 -0.18686996
-0.19071464 -0.060143195 -0.026743239 0.09598531 -0.04014329 0.19542095 0.03239555 -0.13837928
0.080166265 -0.0749258 -0.016769549 -0.18689123 -0.30051434 0.14316458 -0.15060388 -0.25399795
-0.04586052 -0.1284718 0.11218221 -0.14019778 0.31880504 -0.18392467 0.15172091 -0.1866264
-0.9020257 0.14184736 -0.09933279 -0.30525178 0.0047801626 -0.6559617 0.08511274 0.14555626
0.07726028 -0.17649765 -0.0010640909 -0.6927409 -0.057205416 0.11730637 0.09685053 0.21421327
-0.065499306 -0.10924125 -0.018123409 -0.19465905 -0.72236454 0.008301517 -0.003573136 -0.3584208
-0.08325613 -0.47302032 -0.07766188 0.15458666 -0.011470366 -0.25643304 0.112557456 -0.35898784
-0.11962287 0.1816482 0.05162164 0.15060413 -0.049912266 -0.13905175 -0.0675727 -0.18652487
-0.84026957 0.29228675 0.06999656 -0.19878604 0.18880294 -0.62014115 0.036571715 0.47767073

network_body._body_endoder.seq_layers.0.bias f4 [128]
00000000: 48f6 8abd db15 d5bd b50a d9bd 7279 0cbe
00000010: aceb e03d d938 3bbe b377 373d 0aa2 8bbd
00000020: db87 59bd c733 22bd a6cf ddbd ff70 17be
00000030: 7058 55be 410f 82bd 2bea ddbd d122 85bd
00000040: 8e4b 2c3c ba49 81bd 0b3f 74bd 27a5 0bbe
00000050: ed83 d8bb 3eb9 83bd 07fe 55be f123 33be
00000060: 7d68 bdbd d441 13be 5e22 06bd 51b2 0fbe
00000070: 34e7 42be 9bf9 94bd 5797 20be 26c2 dd3a
00000080: 3168 81bb 3a8e 50be 46a4 24be 1c2d 18be
00000090: c9fe 60be 7698 85bd 6387 c1bd bfe2 633a
000000a0: e17d 4fbd 20c1 d4bd 72ac b73c f7b3 e5bd
000000b0: 8968 0fbe bdea 50bd 49e4 6cbd cf89 0bbd
000000c0: 0223 813c b80d 303d d72c 43be 45d8 13be
000000d0: 4307 87bc 45f3 bfbd 15a5 dcbd ae59 8ebd
000000e0: 1387 2dbe b539 d1bd d30a e0bd b122 5dbc
000000f0: 98f9 30be bb5e 9abd 6f41 293c 0a26 88bd
00000100: 6325 c6bd 5d65 87bc 6836 21be 2106 1fbe
00000110: 3933 84bd 687a 32be 0ce0 063d bd67 fcbb
00000120: 32c1 47be d595 83bd 8b6e c4bd e74c d1bd
00000130: 52b4 f7bd cd64 8abd e299 1fbe 5aa6 0a3c
00000140: 1b86 cdbd 9cf4 67bd 705e 39bd e78a f6bb
00000150: 5e87 c2bc fdf5 aebd 980b d9bd 61c2 f7bd
00000160: 9260 0bbe 1832 d0bd 971d 3bbd 4acb 44bd
00000170: e3bb 5cbe a618 1ebe 30ce e2bd a819 3fbe
00000180: 61fe 8ebc 3253 57be a849 c9bd c39f d2bd
00000190: 8d81 66bd 7c25 16bd 8ac4 0ebe 0d38 02be
000001a0: d5fd 36bd 926e cabd 3686 0fbe adb6 8dbd
000001b0: d40c debd 3e3f 50bc a663 b3bd f51c 9cbc
000001c0: e0b2 693c b404 36be 1ec9 2abe d595 56be
000001d0: aa9b 8abd 8f18 b9bd d2cb 02bd 97de 573c
000001e0: b56c f9bd 96cb acbd d9f9 36be faaa c4bd
000001f0: 2ef0 37bd 3011 a0bd aac1 37be 882f 2fbe
-0.06785256 -0.10404559 -0.10597745 -0.13718203 0.10982451 -0.18283404 0.04479189 -0.06818016
-0.053108077 -0.03960016 -0.108306214 -0.14789198 -0.20834517 -0.06350566 -0.108356796 -0.06500781
0.0105160605 -0.0631289 -0.059630435 -0.1363722 -0.0066075237 -0.064318165 -0.20897685 -0.1749418
-0.09248445 -0.1438058 -0.03274762 -0.14032866 -0.1903351 -0.07274171 -0.15682732 0.0016918823
-0.003949188 -0.20366755 -0.1607829 -0.14860958 -0.21972193 -0.0652322 -0.09449651 0.00086931506
-0.050657157 -0.10388398 0.022421096 -0.11215966 -0.14004721 -0.051005114 -0.057834897 -0.03406697
0.015763763 0.042981833 -0.19060074 -0.14437969 -0.016482955 -0.09372572 -0.107736744 -0.06950699
-0.16946058 -0.10216085 -0.109395646 -0.013497041 -0.17282712 -0.075376 0.010330542 -0.066478804
-0.096751 -0.016527826 -0.1574341 -0.15529682 -0.064550824 -0.17429507 0.03292851 -0.0077027963
-0.19507292 -0.064250626 -0.09591397 -0.10219746 -0.1209494 -0.067575075 -0.15586045 0.008462513
-0.10035344 -0.056629762 -0.04525608 -0.0075238827 -0.023746189 -0.08543012 -0.105979145 -0.12097622
-0.13611057 -0.101658046 -0.045682516 -0.048045434 -0.21556048 -0.1543909 -0.110744834 -0.18662131
-0.017455282 -0.2102783 -0.09828502 -0.102843784 -0.056275893 -0.03665684 -0.13942161 -0.12716694
-0.044675667 -0.09884371 -0.14016041 -0.06919608 -0.108422905 -0.012710391 -0.08759241 -0.019056777
0.0142638385 -0.17775232 -0.16678283 -0.20955594 -0.06767972 -0.09037887 -0.03193266 0.013175628
-0.12178937 -0.084372684 -0.17868747 -0.09602924 -0.044906788 -0.07815778 -0.1794497 -0.17107975

network_body._body_endoder.seq_layers.2.weight f4 [128, 128]
00000000: 25ad 90bc 7ac5 2e3e 047a 88bb 5c4e fcbd
00000010: 809c 07bc f778 183d ab9e 13be 88ee a03d
00000020: 02ed 9a3d 743a 8cbd a540 cdbd 5626 78bc
00000030: bf95 09be 5c51 30be caf0 703e 0f3f 3fbe
00000040: 8ef2 2abc f027 a33d 75a8 88bd 4ff0 6fbd
00000050: af71 ee39 8b08 86bd 64fb 8ebe 624f cd3d
00000060: fa24 613d 8c70 b03d e19b 583e 10a2 fb3d
00000070: 2b90 b93d e322 7dbd 8b2a 6dbe eaf1 c23b
00000080: 7de3 b63c 5c1b 0abd 98af 273d 5cc2 423d
00000090: 7192 88bd e6ba 933d 1ff6 5bbd b896 1c3e
000000a0: e75d c13d b763 2e3d f82b 303e 723e 563e
000000b0: f302 fabd 90e4 87bd 6d5f ac3d f7b5 03be
000000c0: a14f 5f3e 0e37 05be 2f72 26be 4fb6 9cbe
000000d0: 6d01 1c3c 2499 82bb e09f 95bd 59bd 103d
000000e0: 1375 993d e724 e5bb 1dc2 6dbe bd41 4ebd
000000f0: 5fcd adbd e29a 59b9 464f 7c3c 2411 fe3d
00000100: b243 153e aad4 48be 2c57 e93c 0012 823c
00000110: 0827 27be 2e3d 19bd d6c9 f2bd 9e06 0bbe
00000120: 8970 55be 46d6 223d c8b5 dd3d 3a96 27be
00000130: a520 e8bd 0e7b ae3d 1d84 0fbe 4095 34be
00000140: bb91 9a3d ab0a 2cbd c2a9 44bc 6e04 3fbb
00000150: 4368 42be d9d6 48be 0003 a73d 9018 043d
00000160: 8001 4d3d 90e6 5a3e 0739 56bd 91aa cf3c
00000170: c1e7 3f3c 3924 ee3d aa8e 70be 90b7 163e
00000180: 0cb0 3abe 4473 0c3e 6d2c 30bb 8592 26be
00000190: 2116 f83d b312 68be 4e76 0d3c 0b3d 0d3c
000001a0: 5efa dbbd 4315 d03b 1359 b93d 3b90 483d
000001b0: 101f b63e 9f31 bebd a243 1fbe b478 9bbe
000001c0: 863c bf3a ff16 1c3e cd76 2fbe 5035 893d
000001d0: da9c b8bd 46df 813d 62a3 0abb 1618 6a3d
000001e0: 7244 b03d 25ac bc3d 5ebc b43d f630 5d3d
000001f0: c2d4 0ebd 48b8 943a 375d 6d3d 8942 773c
00000200: 9905 073e c2c8 4abd 4d6a 68be 2f2f 52bc
00000210: 29bc 78be 408a ca3d aa7e 67be d4f3 743d
00000220: d2ea 96bc b4a0 0b3e 7689 c0bc b2ba c23d
00000230: 6062 efbc 5f6b d03c 7f9f fd3d 97b8 43bd
00000240: 47fa 063d 0912 6d3e b6db 14bd 4e2e 21bc
00000250: 4593 9cbd ebe1 fb3d e1c4 d6bd 3c23 0d3e
00000260: 11ba ea3d d8a1 bbbd d3b0 e1bd 6b64 253e
00000270: ef20 933c 3ed1 573d 3378 8bbe 43b8 ba3d
00000280: 76ca 93bd ba0a 043d 9e3c d9bd 5e67 213e
00000290: ed92 15bd eb8a 97bd b8e9 1ebe 9361 b7bd
000002a0: a153 933d 16e3 10bd 34f4 b8bd 8378 d6bd
000002b0: a341 66bc a7f5 1cbd d33a c93d 0015 23be
000002c0: e711 883d 589c 15be 380e 96bd 9ba0 e9bd
000002d0: 5ea4 94bd 6ac9 b7bd af23 cfbd 2822 10bd
000002e0: 1adb 273e 0069 1ebd e819 d1bd aff4 80ba
000002f0: 5cd7 a6ba cfa5 4f3c bc64 a5bd 9718 c8bd
00000300: e8ac e23b ca3a a43c 9e2b 373e 01d1 75bd
00000310: 416e 1abe 381d 413c 2d42 ec3c 902f f6bd
00000320: 53d5 113e 1a8c fe3d 6d64 813c da31 55be
00000330: 2efd a7bd a9cc 32ba a2a8 90bd c583 633d
00000340: def5 093d 3f0f d13d c5f3 f9bc dd46 8dbe
00000350: 0206 eebd 304c 273c cce4 d03d 3fd9 5cbe
00000360: 9aa7 303e fba5 493e 23fd 48be 0339 f6bd
00000370: 7fbe 243e a335 613e ca45 f43b 8b42 7e3c
00000380: ec0a 4dbe 2d3d f6bd 2f37 833d d105 abbc
00000390: 0800 df3d efea 87bd ea37 1f3c 307b 193d
000003a0: b913 f6bd 838a f7bd 4b5d b73d 5dd9 9abd
000003b0: a1c3 813c fdbb 8dbd c4a7 a2be 35e5 64be
000003c0: 94fe 343e 8c30 503e c441 b2bd 350e 813c
000003d0: f556 df3d 13cb 5d3e 177a 9e3c 9aa1 e23c
000003e0: adbc f33d e5da 733d 9249 33b9 3e20 003d
000003f0: aa00 113e 566e f0bc cf60 963c f99f be3c
-0.017660687 0.17067519 -0.004164936 -0.12319633 -0.008277059 0.037224736 -0.14415996 0.07857996
0.07564737 -0.068470865 -0.100220956 -0.015145859 -0.1343603 -0.17218536 0.23529354 -0.18676399
-0.010433806 0.07966602 -0.06672756 -0.058578786 0.00045479598 -0.06544598 -0.2792617 0.10024907
0.054966904 0.086152166 0.21153213 0.1228677 0.09060701 -0.06180085 -0.2316076 0.0059492486
0.022325272 -0.0337175 0.040938944 0.047548637 -0.066685565 0.072133824 -0.053701516 0.1529187
0.094417386 0.042575564 0.17204273 0.20922258 -0.12207594 -0.06635392 0.084166385 -0.12862383
0.2180772 -0.13009283 -0.16254495 -0.3060784 0.009521824 -0.003985541 -0.07305884 0.035336826
0.07493033 -0.0069929245 -0.2321858 -0.05035566 -0.08486437 -0.00020752431 0.01539976 0.12405613
0.14576605 -0.19612375 0.02848395 0.015877724 -0.16323483 -0.03741186 -0.118549034 -0.13576743
-0.2084371 0.03975513 0.10825688 -0.163659 -0.113343515 0.085195646 -0.14015241 -0.1763506
0.07547327 -0.04200236 -0.012003364 -0.0029146927 -0.18985085 -0.19613208 0.08154869 0.032249987
0.05005026 0.21377015 -0.05230048 0.025349887 0.011712969 0.11628003 -0.23491922 0.14718461
-0.18231219 0.13715845 -0.0026881949 -0.1626683 0.12113596 -0.22663383 0.008634163 0.008620511
-0.10741113 0.006350191 0.09050193 0.048965674 0.35570574 -0.09286808 -0.15553144 -0.30365527
0.0014590181 0.15243147 -0.17135163 0.06699622 -0.09014292 0.06341414 -0.0021154513 0.057151876
0.08606805 0.092125215 0.08824991 0.05400177 -0.03487087 0.0011346424 0.057950225 0.015091547
0.13185729 -0.049507864 -0.226968 -0.012828632 -0.24290527 0.0988965 -0.22606912 0.059802845
-0.018422518 0.13635522 -0.023503046 0.095082656 -0.029221714 0.025441824 0.12383937 -0.04778346
0.032953527 0.23151411 -0.036342345 -0.0098377 -0.07645277 0.1229895 -0.104867704 0.13782972
0.114612706 -0.091617286 -0.11020055 0.16151588 0.01796004 0.052689783 -0.27240142 0.091171764
-0.07216351 0.032236792 -0.10607265 0.15762088 -0.036517072 -0.073995434 -0.15518844 -0.08954158
0.07193685 -0.035372816 -0.09030953 -0.104722045 -0.014053735 -0.03832021 0.09825673 -0.1592598
0.066440396 -0.14610422 -0.07326931 -0.11407586 -0.07257913 -0.089739636 -0.10114228 -0.035188824
0.16392174 -0.038674355 -0.10210019 -0.0009838546 -0.0012728977 0.012673809 -0.08075854 -0.09770315
0.0069175847 0.020047564 0.17887732 -0.060013775 -0.15081121 0.011786751 0.028840149 -0.120207906
0.14241533 0.12429066 0.015794957 -0.20819798 -0.08202587 -0.0006820658 -0.07063414 0.055545587
0.033681743 0.10207986 -0.030511746 -0.27593127 -0.1162224 0.010211036 0.101998895 -0.21567248
0.17251435 0.19692223 -0.19627814 -0.12022593 0.16088293 0.21993117 0.0074546086 0.015518795
-0.20023698 -0.12023387 0.0640701 -0.020876797 0.10888678 -0.06636607 0.009717921 0.037470996
-0.120154805 -0.12086966 0.08953341 -0.0756099 0.015840353 -0.069206215 -0.3176862 -0.2235306
0.17675239 0.20331019 -0.0870395 0.015753845 0.109052576 0.21659498 0.019345326 0.027664948
0.119012214 0.059534926 -0.00017098177 0.03128075 0.1416041 -0.029349487 0.018356709 0.02326964

network_body._body_endoder.seq_layers.2.bias f4 [128]
00000000: 7662 e0bd 0ecd debc 8f3f 0fbe 6d90 1ebe
00000010: dcc4 84bd 819f bfbc 89f6 6fbd 5c1a 36be
00000020: 8f03 99b8 444f 1b39 51bf 63bc 37f4 b5bd
00000030: d674 e6bc 4270 3bbc 3e0e 00be 3033 523d
00000040: bd37 24be 320a 16bc 4454 b6bd abd7 e1bd
00000050: 77a7 15be 9d58 74bc 20ca 55be 17de 2cbe
00000060: 3068 1dbe f60b bfbb 2211 4cbd 3466 c53a
00000070: e1c3 3dbd 04a9 d4bd b1e8 d4bd ae27 95bd
00000080: 2c7a acbd 8c11 87bd cf2c bebd 2b09 e3bc
00000090: 16da 783d 0a4d 96bd d3ab 4f3d 932b 2bbe
000000a0: 7552 85bd e9f0 b73b cbe7 3f3c bec6 1abe
000000b0: 01f9 41be dadd 09be a442 9dbd db94 d83a
000000c0: fdcd 09bc 425a bdbd 3d6e f6bd 5311 0fbe
000000d0: a80e 263d 9e9b 62bd 38d7 bfbd 56c7 33be
000000e0: 695c 8fbc 940e 1bbe 322b 21be b06b 04be
000000f0: b051 bb3d 39a1 69bc b2c9 ffbd 36cc d2bd
00000100: 16c2 9dbd 9718 babd 6bfa a73b 4c48 aa3c
00000110: 1de1 993d 14eb f8bc d35a cbbd d11b 1e3b
00000120: 1eb7 cabc b8f1 1fbe 327a f0bb 6cb6 3cbc
00000130: b2d4 afbd e8c2 eabd ec32 67bd 9145 c3bd
00000140: 2b3b 9cbd 45da 8bbd 00f4 c93c 2ab6 5bbc
00000150: 3cff 30bd 7ccc a0bd a51b 00be 1b59 14be
00000160: 828c 94bc 639a 48bd b301 15bc 2872 973c
00000170: db15 cbbd 1979 cebd ae52 933c e4df 29be
00000180: b136 36be 1c2c 45bc 9511 f73b 505a 8d3d
00000190: e953 d2bd 9cda 0abd 3448 93ba 5920 15be
000001a0: 7814 9ebc cd86 69bd 0090 43be 3cfc c8bd
000001b0: 4032 f5bd 62e8 1b3c de0f 46bd ecfd 34bd
000001c0: 3188 0ebe 97d1 1ebe be37 a6bc 84e0 53bd
000001d0: ee17 1dbe 9bef 29be df49 a2bd 5361 fdbc
000001e0: 6fa0 37be e379 49be 45d3 f2bd 7e6b 03be
000001f0: cdd1 cebd 7939 26be 8d18 11bd def3 0cbe
-0.1095628 -0.027197387 -0.1398909 -0.15484782 -0.064828604 -0.023391487 -0.058584724 -0.17783493
-7.296271e-05 0.0001481148 -0.013900594 -0.08884471 -0.028131884 -0.011440339 -0.12505433 0.051318347
-0.16036887 -0.009157704 -0.08902791 -0.110274635 -0.14614664 -0.014913705 -0.20877886 -0.16881596
-0.15371776 -0.0058302833 -0.049821027 0.0015060366 -0.046329383 -0.103838 -0.10395945 -0.07282959
-0.0842174 -0.06595144 -0.0928589 -0.027714333 0.060754858 -0.07338913 0.050700974 -0.16715841
-0.06509868 0.0056134355 0.011712979 -0.15114877 -0.18942644 -0.13463536 -0.07678726 0.0016523855
-0.008410928 -0.09245731 -0.12032745 -0.13971452 0.04054132 -0.05532419 -0.093672216 -0.1755651
-0.01750012 -0.1514228 -0.15739134 -0.12931705 0.0914644 -0.01425963 -0.12489642 -0.102928564
-0.077030346 -0.090867214 0.0051262877 0.020786427 0.0751364 -0.030385531 -0.09929433 0.0024125467
-0.02474552 -0.15619552 -0.0073387856 -0.011518102 -0.0858549 -0.11462957 -0.056445047 -0.09534753
-0.07628473 -0.06828741 0.024652481 -0.0134101305 -0.04321216 -0.07851502 -0.12510546 -0.14487116
-0.018133406 -0.04897536 -0.009094643 0.018487051 -0.09916278 -0.10081691 0.01798376 -0.16589314
-0.177943 -0.012034442 0.0075399377 0.06901991 -0.10269911 -0.03389989 -0.0011236728 -0.14563121
-0.01929687 -0.05701332 -0.190979 -0.09813735 -0.11972475 0.009515854 -0.048354976 -0.04418747
-0.1391914 -0.1550964 -0.020290252 -0.051727787 -0.1534116 -0.16595308 -0.07924246 -0.030930197
-0.17932294 -0.19675402 -0.11856703 -0.12833974 -0.1009861 -0.16232862 -0.035423804 -0.13764903

action_model._discrete_distribution.branches.0.weight f4 [3, 128]
00000000: 8736 a4bd 63c0 d5bd e506 62bd bb33 2ebd
00000010: f7ff b2bd 570d e23b f88d e1bd 8b5f 1dbd
00000020: cd3d 653d 1fe1 68bd 76fd 153d 2100 debd
00000030: a2d8 43bd 313a 38be 5a4a 703c ac37 863d
00000040: 0868 02bd 36dc 9e3e fade 3cbd a1d7 70bd
00000050: 19df 0c3e 1fd8 05be c7d1 4abd f9ce 8ebd
00000060: 54f9 e7bb 05da adbd 638a c4bd b676 3abd
00000070: 55ed 0f3d 32b8 e2bc 58e8 bcbc 75ca 0abd
00000080: 90ca 43bd 523e adbd 54b8 65bc 599c e0bd
00000090: 0b7b 9fbb 58b3 fcbd 1b93 b73c 0d25 0fbd
000000a0: 5123 92bd 4e48 943b 78a0 e43c bb3d 0dbc
000000b0: 7ce8 09bd f472 30bd 19fc 61bd 1511 8fbd
000000c0: d946 d33c f0b6 1bbe df37 98bd 97ca a8bd
000000d0: 1d1c 45bc 0ba0 c1bd 26ff 8bbd 8ff4 c8bd
000000e0: 3b21 dbbd 6e74 a33c 9800 5fbd bdad d4bc
000000f0: 84ff 993d ec17 c33c 2795 8cbd a87a a7bb
00000100: a896 a0bd 45ab cabd 99a5 7bbc 7d80 303d
00000110: 1b78 eb3d c0d7 b8bd 7bdf e4bd a680 70bd
00000120: 9c89 a5bd 941a b3bd 0c8c 9bb9 680c 94bd
00000130: c33f 97bd b7bb adbc 96dd 00bd 605b 93bd
00000140: bd2a 383c 0c87 00be 6994 083d f45e a23e
00000150: 366e 97bb 8f72 31bd e2c8 64bc 16d3 b43c
00000160: ee60 edbc 295d d9bd dea3 f9bd 1271 cabd
00000170: 57e3 8abc 5beb 83bd 32c3 29bd 1ca6 babc
00000180: a2ed 3bbd 8e6b b1bd 5fb0 c6bc 03b0 ffba
00000190: 5443 80bd e0ff b5bc cbea 6fbd 26a2 64bd
000001a0: d568 d1bd 2671 75bd 8ae0 11bd 205c 1ebd
000001b0: 0533 41bd e446 3a3c 913a 2fbd 449b f3bd
000001c0: da5d 4dbc a168 0dbd 8f6e 51bd 0f90 1bbb
000001d0: a0e6 d1bc 9717 38bd 71d0 f7bc cc4d 74bc
000001e0: 1154 2abd df51 06bd 65e4 a0ba f25d 97bd
000001f0: 8dfa 82bd 2601 c7bd 7aad b3bc 2ae2 7abd
00000200: c704 243d 0d7c d1bc 664d 58ba db81 9cbb
00000210: 8075 f33d c901 70bc 679a 993c 17f8 23bd
00000220: f254 3fbc 9f17 373d 8910 afbd b20e 813d
00000230: dc90 103b d72b 103e 9b3b eebb c592 f1bd
00000240: f3f2 6c3b 9e5f 27be 4ec1 783d b100 a9ba
00000250: aa4e c4bd 88bb 0a3e eead 033b e051 5c3c
00000260: 05a2 f4bc e502 b23b 3eeb 96bd e6f8 203d
00000270: 7105 61bd 2d6d b7bd 9c9e b5bd ec7a ae3c
00000280: 50d6 94bd 8a6f 323d 2b09 71bd c563 4c3d
00000290: 9a9b d8bb 2060 b23d 2e89 163e 2751 77bd
000002a0: ed73 d3bd c826 ec3d 88a0 3f3d 07c9 75bd
000002b0: e7a8 24b9 c4ca a13c 8d42 b3bd 7a15 3a3d
000002c0: 57e1 e9bd f009 813c ac15 37bd d5c5 7ebc
000002d0: cd31 64ba 9482 973d be27 eabc 9d36 dabb
000002e0: 5f3e 873d a0b2 bbbd e6f4 23bc 387a 91bd
000002f0: 6842 1e3d 5bba 75bc 945e 20bb 7e7b 53bd
00000300: ce5b ab3d 3db4 b9bc 60db 23bd e4e5 123c
00000310: 70ed dfbd 9a14 523d 09ac a33d 5ef3 9abb
00000320: c9c6 bd3d 19a3 433b f14e 1bbe b242 013d
00000330: ae71 073b 0d48 55bb b8db 6bbd 0727 9abd
00000340: e27b 043d a02b da3d 934c d3bc 3733 08be
00000350: 4a29 ae3d a38c 9abc 5357 90bd 97e2 253d
00000360: 2d1b 0a3d 1c36 1e3d 94dd 5b3d 8389 f83b
00000370: 5d21 cabd 434e 92bd 1246 48bd f124 9a3c
00000380: 045c 7c3d f9a8 4c3d 1ab6 123e e887 d33d
00000390: 4f4d 043b b0c6 bd3c ef1d 7a3d b0bc 9fbd
000003a0: 03e4 2a3d cbdb 653c 4e12 94bc 65b3 84bc
000003b0: 5500 efbc 44b8 1c3c b407 77bd c73a 733d
000003c0: 8c68 57bc 6ab4 47bd d02a 88bd 27ce 55bb
000003d0: e863 193d 5002 91bd 49e3 b4bd a9e7 96bd
000003e0: 6ef2 b03b 324c 67bc ebcf b4bd e903 45bd
000003f0: b324 cfbd 255e 403c 9595 c73c f689 2a3d
-0.08018213 -0.104370855 -0.055182356 -0.042529803 -0.08740228 0.006898563 -0.110134065 -0.038421195
0.05596714 -0.056855317 0.036618672 -0.10839868 -0.04781402 -0.17990948 0.014666164 0.06553587
-0.031837493 0.31027383 -0.046111085 -0.05879939 0.1375698 -0.13070725 -0.049516466 -0.06973071
-0.007079283 -0.084888496 -0.09596708 -0.045523368 0.035138447 -0.027675722 -0.023060009 -0.033884484
-0.0478006 -0.08459152 -0.014020998 -0.10967321 -0.004866963 -0.123388946 0.022409013 -0.034947444
-0.07135642 0.004525221 0.027908549 -0.008620675 -0.03366898 -0.043078378 -0.05517206 -0.0698568
0.025790619 -0.15206504 -0.074325316 -0.08241766 -0.0120306285 -0.09454354 -0.06835775 -0.09812271
-0.106996976 0.019952979 -0.054443926 -0.025961751 0.07519439 0.023815118 -0.06864386 -0.0051110573
-0.078412354 -0.09895948 -0.015359306 0.043091286 0.11497518 -0.09025526 -0.11175438 -0.05871644
-0.080828875 -0.08745304 -0.00029668247 -0.07228929 -0.073852085 -0.021207673 -0.03146132 -0.07195163
0.011240658 -0.12551516 0.03334466 0.31713068 -0.0046212925 -0.043322142 -0.01396391 0.02207331
-0.028976884 -0.10613472 -0.12189458 -0.09884848 -0.016954107 -0.06441375 -0.04144592 -0.022784285
-0.04588092 -0.086630926 -0.024254022 -0.0019507412 -0.06262842 -0.022216737 -0.058573525 -0.0558187
-0.10225073 -0.05992236 -0.035614528 -0.038662076 -0.047167797 0.011369441 -0.042780463 -0.11894849
-0.012534583 -0.03452361 -0.051130828 -0.0023736989 -0.025622666 -0.044944372 -0.03025076 -0.014911126
-0.04158408 -0.032792922 -0.0012275098 -0.073909655 -0.06395445 -0.09717016 -0.021933306 -0.061250843
0.04004362 -0.025571847 -0.00082512794 -0.004776222 0.11887646 -0.014648863 0.018750383 -0.04003152
-0.011677967 0.04470026 -0.08548076 0.06301631 0.0022059 0.14079224 -0.007270289 -0.11795572
0.0036155551 -0.16345069 0.060731225 -0.0012893883 -0.095853165 0.135481 0.0020092684 0.013447255
-0.029862413 0.005432474 -0.07369088 0.039299868 -0.05493683 -0.089563705 -0.08868143 0.021298848
-0.07267439 0.043563403 -0.058846634 0.049899835 -0.006610346 0.08709741 0.14700767 -0.060380127
-0.103248455 0.115308344 0.046783954 -0.060006168 -0.0001570318 0.019750006 -0.08752928 0.045430638
-0.11419933 0.015751809 -0.044698402 -0.0155500965 -0.00087049307 0.07397953 -0.028583404 -0.0066593424
0.06603693 -0.091649294 -0.010007119 -0.071033895 0.03863755 -0.014998044 -0.0024470435 -0.051631443
0.0836712 -0.022668952 -0.040004134 0.008965943 -0.109339595 0.05128918 0.079917975 -0.0047287187
0.09266431 0.0029851852 -0.15166833 0.031557746 0.0020667124 -0.0032544166 -0.057582587 -0.07526975
0.032344706 0.10652852 -0.02579335 -0.13300787 0.08503969 -0.018865889 -0.07047906 0.040499296
0.033717323 0.03862582 0.05367811 0.007584752 -0.09869645 -0.071438335 -0.04889495 0.018816443
0.06161119 0.049965832 0.14327279 0.103286564 0.002018768 0.02316603 0.061063703 -0.07799661
0.041721355 0.0140294535 -0.018075135 -0.016198823 -0.029174963 0.009565417 -0.06031008 0.059382226
-0.0131474845 -0.04875604 -0.06648791 -0.0032624097 0.037448794 -0.07080519 -0.08832414 -0.073684044
0.0053999936 -0.0141172875 -0.0882872 -0.048099432 -0.10114422 0.011741196 0.024363318 0.041635476

action_model._discrete_distribution.branches.0.bias f4 [3]
00000000: 2aa1 b13e e270 51be c125 6abe
0.3469327 -0.20453218 -0.22865964

action_model._discrete_distribution.branches.1.weight f4 [3, 128]
00000000: 0531 093d 26c7 833c f56d a4bc cd96 59bd
00000010: f7c8 c6bc 6483 aa3d 002b f8bd bb80 8cbc
00000020: 3c65 d5bd 771d 03bd 24b8 d43d f623 2e3a
00000030: 3fa2 d5bc 7654 38be adc9 8fbd 4fb9 45bd
00000040: 4ee8 9fbd 0228 7e3c c828 ccbd 53d7 8dbc
00000050: 03f9 04bd f14e ec3c bda5 11bd 60b8 3bbd
00000060: 55e4 87bd 6f2b 0ebe 528d e43c fa1a 3ebd
00000070: 418e aa3d 9a3f 383d 75d0 06bd b12e bebd
00000080: 5324 94bd af88 143d f7eb 133c d967 cdbd
00000090: 144a 633c 6089 983c 3671 f23b 58fd 543d
000000a0: 41f1 583c 8e4f 3a3d 5a43 82bd e635 8abc
000000b0: 75bc 54bd d261 9abd fef1 233c d11c efbd
000000c0: 07f3 a63d a52f 043c 54db 15bd 4ba7 60bd
000000d0: 882a b33c 4be7 8dbd d0cd 53bc 8479 153b
000000e0: 66fc 0ebe 5031 72bc c72e f5bc bd2e 91bc
000000f0: 21eb b4b9 f832 ff3d 142f 8dbd d81d 41bd
00000100: 6045 b0bd 3cbb 66bc cffb 743c ee74 bb3d
00000110: 20b1 7b3b 7c06 67bd ba45 8cbd 7911 3f3d
00000120: ab9a 35be 76ed b8bc e3ef cf3c 97cf 4abd
00000130: 0c24 963c a79c b9bd 0881 3fbd 545e e5bc
00000140: 8af4 21bd fff0 afbd 2597 bd3d eb86 863c
00000150: 87d2 42bd c62c a7bd cf56 d1bc 8982 49bd
00000160: a837 7bbd 520c 053d bfbd 0dbd f231 28bd
00000170: e8a2 acbc 79f9 d2bb cd39 31b9 b204 edbc
00000180: f3bb b3bc 0da2 5b3e 199e a83d 7825 793d
00000190: ec68 093d 5275 aebd 4398 ef3c 91a5 023d
000001a0: 0e00 97bd 7323 883d 3770 b5bc 7402 f4bc
000001b0: c406 48bd a2d0 2e3e 7cea 49bd f8e1 a7bd
000001c0: 6331 6a3c 6ad2 4c3c 9781 4cbd 6f09 63bd
000001d0: 8109 4abd 963a 8a3c 4664 72bd c632 1d3d
000001e0: 3cbf 3f39 8a21 c3bc 859d 12bd 6ce6 303d
000001f0: 73b7 1e3c 6659 dabc 2062 9abd 53a0 e83c
00000200: c009 643c 20b2 bc3c 4530 5fbc 0113 063b
00000210: f4b8 323d 0af3 b6bd ac45 393d 56fa dc3c
00000220: 5bbd a13d 4712 15bc 6276 bcbd ce2e 813c
00000230: 6416 2e3e 3393 e53d 3ca1 693d 34f8 07bb
00000240: c31f 603c 53a5 173d 5461 5e3d ebc8 b73d
00000250: a979 e63c 84b7 a6bc 6550 e4bc 7bd1 16bd
00000260: 7754 98bd def9 883d 2d24 f9bd ec11 a7bb
00000270: a3f5 23bc 8b19 3fbd 4b1e 8a3c 2395 a03c
00000280: 08e0 523d 9365 88bd a4d9 5fbd df28 6e3d
00000290: 9629 4a3d fea6 96bd 7d46 9bbd 3d7b 9f3c
000002a0: 8812 42bc f887 a33c 93a1 723c 1788 653c
000002b0: 314b 96bc 0f35 063d 4047 41bd 48aa f23d
000002c0: 5014 a6bd 3c12 313d 77cb 39bd c758 213b
000002d0: d531 2bbd d34c 123e 745f 8dbd 6fba 4e3c
000002e0: 3828 8b3d 7fa2 9bbd 0379 c5bc e8e4 93bd
000002f0: e9ae 153e 5f19 40bd 96a4 003d cb6c d9bd
00000300: 8a67 073d 8bac 66bb 620f 733d 2d6c 273c
00000310: c96f d2bc 607b e93c 91fa 233d 9e1e 57bd
00000320: f96a cf3d bd72 31bc cda2 dcbd 4fea f23d
00000330: d6fe a23b 5ac4 8e3d 91fb 2a3e febc efbb
00000340: d97e a93c 2be7 cc3a 81f2 d83b e2d7 5e3d
00000350: 3e04 9b3c bb66 3cbc 82d7 92bd 9823 0b3d
00000360: 6c46 823d b0c4 74bd 7eb9 acbb 0115 10be
00000370: 09af 4fbd 3a17 c5bd ab93 1e3c edd2 ed3b
00000380: 780b 473b 4bc1 07be d13f 7bbd 073a 41be
00000390: 2263 d43c 8a54 853d 18d2 a8bb 81c0 833c
000003a0: 8f56 49bd 1e5d c1bc b371 d03c 9bc6 253d
000003b0: caa6 d6bc 1420 05bd bb0d 2c3d 2296 963d
000003c0: e9de 40bd d710 43bc 0a18 04bd 03da d8bd
000003d0: 3e69 f63c 4baa e9bc d314 3c3c 930b 833d
000003e0: 32da 13bd ba92 443c 698b eabd 0980 8bba
000003f0: 3061 a1bd cd68 ae3a 1182 1bbd f153 883c
0.033494014 0.016086172 -0.020071963 -0.05312233 -0.02426575 0.08325842 -0.121175766 -0.017151227
-0.104196995 -0.03201052 0.103866845 0.0006642932 -0.026078342 -0.1800097 -0.070208885 -0.048272427
-0.078079805 0.015512468 -0.09968716 -0.017314589 -0.03246404 0.028846236 -0.03555845 -0.04583013
-0.06635348 -0.13883756 0.027899418 -0.046412446 0.08327914 0.04498253 -0.032913644 -0.092862494
-0.07233491 0.036263164 0.009028426 -0.10029573 0.013872642 0.018620193 0.0073987497 0.05199942
0.013241113 0.045486026 -0.063605025 -0.016871404 -0.05193754 -0.07538189 0.010006426 -0.11675418
0.081518225 0.008068 -0.03658612 -0.054847043 0.021870866 -0.06928881 -0.0129274875 0.0022808025
-0.1396347 -0.014782265 -0.029929532 -0.017722482 -0.0003450746 0.124608934 -0.06893745 -0.0471476
-0.08606982 -0.014082726 0.014952614 0.09153162 0.0038405135 -0.05640267 -0.06849237 0.046647523
-0.17734782 -0.022574168 0.025382942 -0.04951438 0.018327735 -0.09063082 -0.046753913 -0.02799908
-0.03953985 -0.08590888 0.09257344 0.016421756 -0.047564056 -0.08162837 -0.025554089 -0.049196754
-0.061332375 0.032482453 -0.034604784 -0.041063257 -0.021073774 -0.006438431 -0.00016901568 -0.028932903
-0.021940207 0.21448536 0.0823328 0.06082675 0.033547327 -0.08518471 0.029247409 0.031896178
-0.07373057 0.066473864 -0.022148235 -0.029786326 -0.048834577 0.17071775 -0.049295887 -0.08197397
0.014294001 0.0125013385 -0.049928274 -0.05542892 -0.04932547 0.01687364 -0.05917766 0.0383785
0.0001828642 -0.023819704 -0.035794754 0.043188497 0.009687292 -0.026653957 -0.07538247 0.028396761
0.01391834 0.023034155 -0.013622348 0.0020458105 0.043633416 -0.08933075 0.04523246 0.026974838
0.07897445 -0.009098596 -0.09202267 0.015769389 0.17000729 0.11209717 0.05703853 -0.0020747306
0.013679448 0.0370229 0.054292038 0.08973869 0.028134184 -0.020351179 -0.027870366 -0.03682087
-0.074379854 0.066882834 -0.12165103 -0.005098572 -0.010007295 -0.04665522 0.016860148 0.019602364
0.051483184 -0.06659999 -0.054650918 0.058144446 0.049356066 -0.0735607 -0.07581804 0.019467944
-0.0118452385 0.019962296 0.01480903 0.014009497 -0.018346401 0.032765444 -0.04718709 0.11848885
-0.08109343 0.04323028 -0.045360055 0.0024619566 -0.04179557 0.14287119 -0.06902972 0.012617691
0.067947805 -0.07599353 -0.024105554 -0.07221395 0.14617504 -0.046899196 0.03140696 -0.10616454
0.033057727 -0.0035198058 0.059340842 0.010218662 -0.025688069 0.028501213 0.04003388 -0.052519433
0.10127825 -0.010830578 -0.10773239 0.11861097 0.0049742265 0.06971045 0.16697527 -0.007316231
0.020690368 0.0015632858 0.0066207056 0.0544051 0.018922921 -0.011499102 -0.07170011 0.03396949
0.06361088 -0.05975789 -0.005271136 -0.14070512 -0.050704036 -0.09623571 0.0096787615 0.0072578103
0.0030371826 -0.13257329 -0.061340157 -0.18869792 0.025926176 0.06510265 -0.0051519983 0.016083004
-0.049154814 -0.023603972 0.025444841 0.040472608 -0.026202578 -0.032501295 0.042005282 0.07352854
-0.047087584 -0.01190587 -0.032249488 -0.105884574 0.03007948 -0.028523585 0.011479574 0.06398692
-0.03609676 0.011997873 -0.114523716 -0.0010643016 -0.07879865 0.001330638 -0.037965838 0.016641589

action_model._discrete_distribution.branches.1.bias f4 [3]
00000000: 53c4 503c 7411 4c3c 72d3 eb3c
0.01274212 0.012455333 0.028787348
