results/CarAI/BotControllerAgent/checkpoint.pt (torch, 878050 bytes, 48 tensors)

discrete_act_size_vector f4 [1, 2]
0	0x40400000	3.0
1	0x40400000	3.0

network_body._body_endoder.seq_layers.0.weight f4 [128, 104]
0	0x3cf2dfe6	0.029647779
1	0xbd751ef1	-0.05984396
2	0xbe1900b5	-0.14941676
3	0xbe968215	-0.2939612
4	0xbc882574	-0.016619422
5	0xbea6b982	-0.32563406
6	0xbd0d4631	-0.034490768
7	0xbe0ec018	-0.13940465
8	0xbe0d3054	-0.13787967
9	0xbd6ba567	-0.057530787
10	0xbdf796bd	-0.12089298
11	0x3d433e51	0.04766685
12	0xbe4fa193	-0.2027648
13	0xbd1d0575	-0.038335282
14	0x3e0f8b81	0.1401806
15	0x3e09ca28	0.13456023
16	0xbcff90be	-0.031196948
17	0xbe2c7f6c	-0.16845483
18	0xbe3aff38	-0.1826142
19	0xbe685961	-0.22690345
20	0xbe7c5e50	-0.24645352
21	0xbda7533b	-0.08170172
22	0xbe141d24	-0.14464241
23	0xbd9c2e14	-0.07625976
24	0xbc8c1dd9	-0.017104076
25	0xbea6e786	-0.32598513
26	0x3d55cc14	0.052196577
27	0xbd91c44c	-0.07117519
28	0x3d1528cb	0.036415856
29	0xbeca21ff	-0.39479062
30	0x3db11071	0.08645714
31	0x3c5a528e	0.013325347
32	0xbdc04f76	-0.09390156
33	0x3daf2310	0.085516095
34	0xbda2de3d	-0.07952545
35	0xbc0ebc54	-0.008711893
36	0xbc051112	-0.008121746
37	0xbe343d83	-0.1760159
38	0xbdc74197	-0.09729307
39	0xbd377664	-0.04479064
40	0xbcbdbb14	-0.023160495
41	0xbc9716de	-0.018443521
42	0x3d7125e4	0.058874026
43	0xbe5ed890	-0.217623
44	0xbe424259	-0.18970622
45	0xbeb11c2a	-0.345918
46	0xbcf057e7	-0.02933879
47	0x3d875182	0.06607343
48	0xbe0265ea	-0.1273419
49	0xbed06fe3	-0.40710363
50	0xbd5e4d0f	-0.054272708
51	0xbd534237	-0.05157682
52	0xbdaabebd	-0.08337162
53	0xbe037f84	-0.12841612
54	0xbdba021a	-0.09082432
55	0x3cec350d	0.02883389
56	0x3d0367dd	0.032081474
57	0xbbd7b633	-0.006582999
58	0x3e03fe58	0.12889993
59	0xbd8e4c2c	-0.069481224
60	0xbe62927a	-0.22126189
61	0xbdce7efe	-0.100828156
62	0xbd44830e	-0.047976546
63	0xbe13fea7	-0.14452611
64	0xbdb770fe	-0.089570984
65	0xbe2c14ef	-0.1680486
66	0xbbeea373	-0.0072826683
67	0xbd9cd4d1	-0.07657779
68	0xbe203629	-0.1564566
69	0xbe6974cc	-0.2279846
70	0xbce762c2	-0.028245334
71	0xbd72a21e	-0.05923664
72	0xbe24d5f9	-0.16097249
73	0xbe39a7ba	-0.18130389
74	0x3d98f6e1	0.074689634
75	0xbdddb0a0	-0.10824704
76	0x3d9648b3	0.07338085
77	0xbe1cbb35	-0.15305789
78	0xbd43a8fb	-0.047768574
79	0xbe4bdab5	-0.19907649
80	0xbe4947e7	-0.19656335
81	0x3e0fbd60	0.14037085
82	0x3cdf64f1	0.027269812
83	0xbe24b684	-0.16085249
84	0xbc6c3cab	-0.014418761
85	0xbe589652	-0.21151093
86	0x3d3c2acc	0.04593925
87	0x3dc306f9	0.09522814
88	0xbdad54df	-0.084634535
89	0xbec55dca	-0.38548118
90	0x3e288226	0.16455898
91	0xbe6ea089	-0.23303427
92	0xbea48363	-0.3213149
93	0xbde68f14	-0.11257759
94	0xbdf26f5e	-0.11837648
95	0x3e309685	0.17244919
96	0xbd62ceb6	-0.055372916
97	0xbd7406e4	-0.059576884
98	0x3e367467	0.17817841
99	0xbe4a5592	-0.19759205
100	0xbda658c2	-0.08122398
101	0xbe1a5f77	-0.1507548
102	0x3e276a78	0.16349208
103	0xbcabc9cc	-0.020970248
104	0xbd8a0396	-0.06738965
105	0x3d14cf96	0.036330782
106	0x3d57e88a	0.052712
107	0xbe052c09	-0.1300508
108	0x3d37d702	0.04488278
109	0x3e0eb9a8	0.1393801
110	0x3cbc9242	0.02301896
111	0x3e0549b1	0.13016392
112	0x3d8f00b6	0.069825575
113	0xbdbe7964	-0.09300497
114	0xbd09c415	-0.033634264
115	0xbe324aec	-0.17411393
116	0x3d132aad	0.03592937
117	0x3de94a24	0.11391094
118	0xbe1bd853	-0.1521924
119	0xbccada42	-0.024762277
120	0x3e09a1e0	0.13440657
121	0x3cbaec80	0.02281785
122	0xbdc6af71	-0.097014315
123	0xbe21ac80	-0.1578846
124	0xbe61ddad	-0.22057219
125	0x3db01b5c	0.085989684
126	0xbe175c94	-0.1478141
127	0xbdb3bd7a	-0.08776374
128	0xbdc160a3	-0.0944226
129	0xbde9e59a	-0.11420746
130	0xbde8a933	-0.11360397
131	0xbdddb9ea	-0.10826476
132	0x3d6d301e	0.057907216
133	0x3dd08f2c	0.10183558
134	0x3e0d6e4d	0.13811608
135	0xbe6722d2	-0.22571877
136	0xbe8cb118	-0.27478862
137	0x3dbe61bf	0.09295987
138	0x3e0c63d3	0.13709955
139	0x3d18ff4a	0.037352838
140	0x3c60f3d3	0.013730007
141	0xbdb04280	-0.08606434
142	0xbd7f538c	-0.062335536
143	0xbd120360	-0.03564775
144	0xbd700938	-0.05860254
145	0x3c3aebf8	0.011408798
146	0xbc56fd6a	-0.013121942
147	0xbccf4324	-0.02530057
148	0xbdbc96d8	-0.09208459
149	0x3db53664	0.08848265
150	0x3d357b06	0.044306777
151	0x3c0c0a9b	0.00854745
152	0xbd55d3ee	-0.052204065
153	0xbe65184e	-0.22372553
154	0x3c7b4c95	0.015338083
155	0xbe5ac8d4	-0.21365672
156	0xbd8f7327	-0.070043854
157	0xbe070449	-0.13185228
158	0xbcf6bd28	-0.030119494
159	0xbb92db6a	-0.0044817226
160	0xbc53e0f5	-0.012932052
161	0x3cff7289	0.031182544
162	0xbc831c62	-0.016004745
163	0xbe348e07	-0.17632304
164	0xbe020695	-0.12697823
165	0x3cdbc590	0.026827604
166	0x3dcb8b46	0.09938674
167	0xbd45e0ce	-0.048310094
168	0xbe2b6dc6	-0.16741094
169	0x3e35beca	0.17748562
170	0xbe43ce4b	-0.19121663
171	0xbe004359	-0.12525691
172	0xbdfee4f8	-0.12446016
173	0x3d10ca4d	0.03534918
174	0xbd833679	-0.06406874
175	0xbe9861b4	-0.29762042
176	0xbdb639f6	-0.08897774
177	0x3e01575c	0.12630981
178	0x3dab7e50	0.083737016
179	0xbe16e8f4	-0.14737302
180	0xbd94d1e1	-0.07266594
181	0x3bf42f44	0.0074519236
182	0x3d9953eb	0.07486709
183	0xbe39c7ec	-0.1814267
184	0xbe40c18f	-0.18823837
185	0xbd7658b6	-0.060143195
186	0xbcdb14a3	-0.026743239
187	0x3db39b67	0.08769875
188	0xbd1a491e	-0.037667386
189	0x3e481c6e	0.19542095
190	0x3d04b132	0.03239555
191	0xbe04ef35	-0.12981875
192	0x3db1c4c0	0.08680105
193	0xbdaaa13f	-0.083315365
194	0xbc89604b	-0.016769549
195	0xbe467817	-0.19381748
196	0xbe989889	-0.29803875
197	0x3e1299d6	0.14316496
198	0xbe1a37e7	-0.15060388
199	0xbe7eb57c	-0.24873918
200	0xbd301f8c	-0.042998835
201	0xbe0457c0	-0.12924099
202	0x3de5bfc9	0.11218221
203	0xbe0a381a	-0.13497964
204	0x3ea25e01	0.31712344
205	0xbe3c5416	-0.18391451
206	0x3e11b61c	0.14229625
207	0xbe347b27	-0.17625104
208	0xbf668b62	-0.9005643
209	0x3e073852	0.13205078
210	0xbdcb6efd	-0.09933279
211	0xbe9b9a99	-0.30391386
212	0xbb1799e2	-0.0023132493
213	0xbf29abad	-0.6627758
214	0x3dae4f97	0.08511274
215	0x3e18a7a3	0.14907698
216	0x3d8ee1e8	0.06976682
217	0xbe37f865	-0.17965849
218	0xba8b78f7	-0.0010640909
219	0xbf35b681	-0.70981604
220	0xbd831d55	-0.06402079
221	0x3dcc2cb9	0.09969468
222	0x3dc65992	0.09685053
223	0x3e5303a9	0.20606865
224	0xbd9643bb	-0.07337137
225	0xbded0368	-0.11572915
226	0xbc94778b	-0.018123409
227	0xbe5cdeb6	-0.21569332
228	0xbf39b33a	-0.72539103
229	0x3a1a2fb7	0.0005881744
230	0xbb6a2b46	-0.003573136
231	0xbeb74b39	-0.35799578
232	0xbdb627a1	-0.08894277
233	0xbef9590f	-0.4870076
234	0xbd9f0d31	-0.07766188
235	0x3e21c6cf	0.15798496
236	0xbca2c0c8	-0.019867316
237	0xbe830a37	-0.2559373
238	0x3de68486	0.112557456
239	0xbec069c6	-0.375807
240	0xbe01390e	-0.12619421
241	0x3e2433ba	0.16035357
242	0x3d537136	0.05162164
243	0x3e11f777	0.14254557
244	0xbd6e6137	-0.05819818
245	0xbe08fe49	-0.13378252
246	0xbd8a638e	-0.0675727
247	0xbe5479d4	-0.20749599
248	0xbf588450	-0.8457689
249	0x3e923dca	0.28562766
250	0x3d8f5a5b	0.06999656
251	0xbe4ae356	-0.19813284
252	0x3e3cf6d1	0.18453528
253	0xbf24c235	-0.64358836
254	0x3d15cc39	0.036571715
255	0x3ef6afa0	0.48180866

network_body._body_endoder.seq_layers.0.bias f4 [128]
0	0xbd9cdf5d	-0.07659791
1	0xbdd003cd	-0.10156975
2	0xbde866a4	-0.11347702
3	0xbe0e8496	-0.13917765
4	0x3ddd6a34	0.10811272
5	0xbe465877	-0.19369684
6	0x3d5b84b6	0.05359336
7	0xbd8a41ac	-0.06750807
8	0xbd8a2c69	-0.06746752
9	0xbd14470f	-0.03620058
10	0xbddeac64	-0.10872725
11	0xbe1b9228	-0.15192473
12	0xbe518f4e	-0.20464823
13	0xbd85bc14	-0.06530014
14	0xbdeabe55	-0.11462084
15	0xbd74490b	-0.05963997
16	0x381a5f82	3.680541e-05
17	0xbd78fdb7	-0.060788836
18	0xbd572cd2	-0.05253298
19	0xbe076013	-0.13220243
20	0xbcc3d093	-0.023903167
21	0xbd863996	-0.065539524
22	0xbe55fd41	-0.2089739
23	0xbe3ffd69	-0.18749012
24	0xbdb6f6e8	-0.089338124
25	0xbe14025e	-0.14454028
26	0xbd45084c	-0.048103616
27	0xbe0f881c	-0.14016765
28	0xbe452bfb	-0.19255058
29	0xbd9065fd	-0.07050703
30	0xbe1c6c2f	-0.15275644
31	0xbbebd76e	-0.007197312
32	0xbc3a1eee	-0.011359913
33	0xbe4449b6	-0.19168743
34	0xbe2ade4c	-0.16686362
35	0xbe1de408	-0.15419018
36	0xbe6b7059	-0.22992076
37	0xbd8b5725	-0.06803731
38	0xbdc6a22d	-0.09698901
39	0xbc2d1930	-0.010565087
40	0xbd542e23	-0.051801812
41	0xbdcf0312	-0.101080075
42	0x3d1e3d2e	0.038632564
43	0xbde3e132	-0.11126937
44	0xbe10223e	-0.14075562
45	0xbd65d7ac	-0.056113884
46	0xbd6a2279	-0.057161782
47	0xbd04c8b0	-0.032417953
48	0x3bcde180	0.006282985
49	0x3d2531ee	0.04033082
50	0xbe34ccd3	-0.17656259
51	0xbe0f8f55	-0.1401952
52	0xbcaae1bf	-0.020859597
53	0xbde09ec2	-0.10967781
54	0xbde409d0	-0.11134684
55	0xbd4a6c87	-0.049419906
56	0xbe3b9569	-0.18318714
57	0xbdc4340e	-0.09580241
58	0xbdef5f73	-0.11688127
59	0xbd195f0f	-0.03744417
60	0xbe2e779d	-0.17037816
61	0xbd5ae17b	-0.05343769
62	0x3bcb5a59	0.0062058386
63	0xbd80a4f8	-0.06281465
64	0xbdcff8c2	-0.10154869
65	0xbbfa2929	-0.007634301
66	0xbe245a47	-0.16050063
67	0xbe23c3b2	-0.1599262
68	0xbd84bebf	-0.064816944
69	0xbe347e58	-0.17626321
70	0x3d06a490	0.032871783
71	0xbcc5cd60	-0.024145782
72	0xbe4e2aff	-0.20133589
73	0xbd668917	-0.056283083
74	0xbdce130a	-0.10062225
75	0xbdd2efba	-0.102996305
76	0xbdf3980c	-0.11894235
77	0xbd7b7db9	-0.061399195
78	0xbe23b83f	-0.15988253
79	0xbaf6673a	-0.0018799074
80	0xbddb3514	-0.10703483
81	0xbd4c6170	-0.04989761
82	0xbd653266	-0.055956267
83	0xbb4a41e7	-0.0030862035
84	0xbcd1ec1e	-0.025625285
85	0xbdbab6db	-0.09116908
86	0xbde46f0f	-0.11153995
87	0xbdf51564	-0.119669706
88	0xbe0e9258	-0.13923013
89	0xbddd5eab	-0.10809072
90	0xbd59ab76	-0.053142034
91	0xbd4e5813	-0.050376963
92	0xbe52211f	-0.20520447
93	0xbe177755	-0.14791615
94	0xbde34224	-0.110966
95	0xbe372f60	-0.17889166
96	0xbbffeb03	-0.007809998
97	0xbe5c8647	-0.21535598
98	0xbdc7f488	-0.097634375
99	0xbdd58393	-0.104254864
100	0xbd68a14b	-0.056794446
101	0xbd4b594b	-0.049645703
102	0xbe12a66b	-0.14321296
103	0xbe00eb11	-0.1258967
104	0xbd0ab764	-0.0338663
105	0xbdc5ff26	-0.09667806
106	0xbe1a1d38	-0.15050209
107	0xbd85ad6a	-0.06527217
108	0xbdd229e3	-0.102618955
109	0xbc9b9152	-0.018990193
110	0xbda5a314	-0.08087745
111	0xbc8c86f4	-0.017154194
112	0x3aafcadc	0.0013411897
113	0xbe3fdfac	-0.18737668
114	0xbe212990	-0.15738511
115	0xbe5ddba1	-0.21665813
116	0xbd987aaa	-0.07445271
117	0xbdbe9bf6	-0.09307091
118	0xbcd69952	-0.026196156
119	0xbc1deb13	-0.009638566
120	0xbe07f4e8	-0.13277018
121	0xbd9ecd16	-0.07753961
122	0xbe3fb90b	-0.18722932
123	0xbdd08114	-0.1018087
124	0xbd3b5ed3	-0.04574473
125	0xbd90e2db	-0.07074519
126	0xbe35b82e	-0.1774604
127	0xbe348f1e	-0.1763272

network_body._body_endoder.seq_layers.2.weight f4 [128, 128]
0	0xbcbf6be8	-0.023366883
1	0x3e2be8a8	0.1678797
2	0xbc2d54e4	-0.0105793215
3	0xbe05cab2	-0.13065603
4	0xbb6a4208	-0.0035744924
5	0x3d13b9f3	0.036066007
6	0xbe120f88	-0.14263737
7	0x3d9dc29d	0.07703135
8	0x3d9d4c57	0.07680576
9	0xbd84e708	-0.06489378
10	0xbdcf07fc	-0.10108945
11	0xbc8afce9	-0.0169663
12	0xbe0989d3	-0.13431482
13	0xbe3642e4	-0.17798954
14	0x3e701e40	0.2344904
15	0xbe369a7b	-0.17832367
16	0x3b2e6263	0.0026608936
17	0x3da0ebc7	0.07857471
18	0xbd88187f	-0.06645297
19	0xbd664caa	-0.056225456
20	0x3b2a6388	0.0025999267
21	0xbd8704f0	-0.06592739
22	0xbe914acf	-0.28377387
23	0x3dd0baa5	0.101918496
24	0x3d5395ab	0.051656406
25	0x3da0e2f7	0.0785579
26	0x3e5a7d11	0.21336772
27	0x3df8d58d	0.121501066
28	0x3db3df25	0.08782796
29	0xbd8ae302	-0.067815796
30	0xbe6f24bf	-0.23353861
31	0xbc19e136	-0.009392073
32	0x3cc77538	0.024347886
33	0xbd3c8fb7	-0.046035495
34	0x3d0dd928	0.034630924
35	0x3d4435dd	0.04790293
36	0xbd8eedf7	-0.06978982
37	0x3d7a4546	0.06110122
38	0xbd7b434f	-0.061343487
39	0x3e2e92d2	0.17048195
40	0x3db7856e	0.089609966
41	0x3d25f6a1	0.040518407
42	0x3e3dec40	0.18547153
43	0x3e533bb4	0.20628244
44	0xbdfddb53	-0.123953484
45	0xbda5621d	-0.08075354
46	0x3da51c48	0.08062035
47	0xbe027fca	-0.1274406
48	0x3e714704	0.23562247
49	0xbe11b316	-0.14228472
50	0xbe2663ae	-0.16248962
51	0xbe9ac322	-0.30227
52	0xbb8fe185	-0.0043908977
53	0xbc9b9572	-0.01899216
54	0xbda2d233	-0.079502486
55	0x3d117f14	0.03552158
56	0x3d945844	0.07243398
57	0xbc10607f	-0.008812069
58	0xbe702b91	-0.2345412
59	0xbd687935	-0.056756217
60	0xbda908e6	-0.0825365
61	0xbad3295f	-0.0016110352
62	0x3c91dade	0.01780456
63	0x3ded2613	0.11579528
64	0x3e13e851	0.1444409
65	0xbe45ef2b	-0.19329517
66	0x3cdcbfaa	0.026946861
67	0x3c4a17af	0.012334748
68	0xbe269ef1	-0.16271569
69	0xbd1aa04f	-0.03775054
70	0xbe02fe7d	-0.12792392
71	0xbe01872d	-0.12649222
72	0xbe581a47	-0.21103774
73	0x3d20a70c	0.03922181
74	0x3dce9086	0.100861594
75	0xbe3063d5	-0.17225583
76	0xbdf959ca	-0.12175329
77	0x3dac4eb8	0.08413452
78	0xbe10d4d9	-0.14143695
79	0xbe305661	-0.17220451
80	0x3d8ef922	0.06981112
81	0xbd0d724b	-0.034532826
82	0xbc87426e	-0.016511168
83	0xba07d504	-0.0005181583
84	0xbe3abfa2	-0.18237165
85	0xbe5311e2	-0.2061229
86	0x3d9ed02c	0.077545494
87	0x3cb28a3e	0.021794435
88	0x3d429e24	0.047514096
89	0x3e57bb64	0.21067578
90	0xbd4a98e0	-0.0494622
91	0x3c95fc08	0.018308654
92	0x3c1d7682	0.009610774
93	0x3deb45c0	0.11487913
94	0xbe75ffb2	-0.24023321
95	0x3e0de82c	0.13858098
96	0xbe37fd18	-0.17967641
97	0x3e0c2767	0.13686906
98	0xbba9d93e	-0.005183368
99	0xbe2dfad1	-0.1699021
100	0x3df4e8d8	0.11958474
101	0xbe75011e	-0.23926207
102	0x3c1167ff	0.008874892
103	0x3bf87438	0.0075822137
104	0xbdd9af31	-0.10629118
105	0x3b89cdc4	0.0042054374
106	0x3db3b3e0	0.08774543
107	0x3d48e503	0.049046528
108	0x3eb4b559	0.35294607
109	0xbdcf87d3	-0.10133328
110	0xbe287703	-0.1645165
111	0xbea0049b	-0.31253514
112	0x3b924502	0.004463793
113	0x3e1a8e35	0.1509331
114	0xbe2dc2bc	-0.16968817
115	0x3d840d4d	0.064478494
116	0xbdbb9cb4	-0.09160748
117	0x3d8101bb	0.06299158
118	0x3a4e8fa8	0.0007879683
119	0x3d974a8c	0.073872656
120	0x3dac20cd	0.08404694
121	0x3dbd48c0	0.092423916
122	0x3db57770	0.088606715
123	0x3d5b6cc9	0.053570542
124	0xbd15bbb0	-0.036555946
125	0xbbaa5dc7	-0.0051991674
126	0x3d3dee63	0.04636992
127	0x3c729185	0.014805202
128	0x3e126cc0	0.14299297
129	0xbd4aace4	-0.049481288
130	0xbe69aca5	-0.22819765
131	0xbb1d9a45	-0.002404825
132	0xbe84ef80	-0.25963974
133	0x3dc2cd8e	0.09511863
134	0xbe7f2eea	-0.2492024
135	0x3d3fcbef	0.046825346
136	0xbc4d3a00	-0.012526035
137	0x3e0cab1c	0.13737148
138	0xbcbe6c8d	-0.02324512
139	0x3dbf8cb6	0.0935301
140	0xbcf59618	-0.029978797
141	0x3cc990dd	0.024605209
142	0x3e0b0706	0.13576898
143	0xbd3d9c9e	-0.04629194
144	0x3d41fcc5	0.0473602
145	0x3e62acb0	0.22136188
146	0xbd2c29c6	-0.042032026
147	0x38ecfa38	0.00011299964
148	0xbd8319ad	-0.06401382
149	0x3df972db	0.1218011
150	0xbdcc6909	-0.09980971
151	0x3e0d9493	0.13826208
152	0x3de0d9c5	0.10979036
153	0xbdb6282e	-0.088943824
154	0xbdae29f1	-0.085040934
155	0x3e1cc5d3	0.15309839
156	0x3c984311	0.018586667
157	0x3d573096	0.05253657
158	0xbe8e8919	-0.27838972
159	0x3dba2190	0.09088433
160	0xbd66c797	-0.056342687
161	0x3ca0ec7a	0.01964401
162	0xbde3636c	-0.111029476
163	0x3e2006ed	0.15627642
164	0xbd147c3c	-0.03625129
165	0xbdbc5074	-0.09195033
166	0xbe1dbb82	-0.1540356
167	0xbd9308b8	-0.07179397
168	0x3d9152dd	0.07095883
169	0xbd1dde51	-0.038542096
170	0xbd65bca3	-0.0560881
171	0xbdcd46d6	-0.100232765
172	0xbba9eee1	-0.0051859473
173	0xbd2e12d2	-0.042498417
174	0x3dbb2923	0.091387056
175	0xbe21a707	-0.15786372
176	0x3de1e343	0.11029675
177	0xbe153d7c	-0.14574236
178	0xbd8d3ba4	-0.06896141
179	0xbdef0eb7	-0.116727285
180	0xbd950a44	-0.07277349
181	0xbdc530b0	-0.09628427
182	0xbdd070ad	-0.10177741
183	0xbce8f7cc	-0.028438471
184	0x3e22ecaf	0.159106
185	0xbd2b34f2	-0.04179854
186	0xbdd1a2da	-0.102361396
187	0x3b88e51b	0.004177702
188	0x3c2998d7	0.010351381
189	0x3c54911a	0.012974048
190	0xbdb8806a	-0.09008868
191	0xbda9aa66	-0.08284454
192	0x3af0ebb2	0.001838079
193	0x3cb82393	0.0224779
194	0x3e41e68b	0.18935601
195	0xbd839da3	-0.06426551
196	0xbe13fe67	-0.14452516
197	0x3cb53db2	0.022124145
198	0x3cf5bdc3	0.029997712
199	0xbdb727e3	-0.08943155
200	0x3e0d82ab	0.13819377
201	0x3e0350a6	0.12823734
202	0x3c3cf996	0.011534115
203	0xbe543b6c	-0.20725793
204	0xbda7b805	-0.08189396
205	0xb988f320	-0.00026121084
206	0xbd462e0b	-0.048383754
207	0x3d6b7a18	0.057489485
208	0x3d109626	0.035299443
209	0x3dd43015	0.103607334
210	0xbd08fd8f	-0.033444937
211	0xbe8d1bd5	-0.27560297
212	0xbdeb59ca	-0.11491735
213	0x3ba93aba	0.0051644715
214	0x3dcfbf34	0.10143891
215	0xbe63712f	-0.22211145
216	0x3e2bf22e	0.16791603
217	0x3e403f4a	0.18774143
218	0xbe26694c	-0.16251105
219	0xbdfa0372	-0.122076884
220	0x3e32e173	0.17468815
221	0x3e59ffa4	0.21288925
222	0x3b10bb06	0.002208413
223	0x3cc86121	0.024460377
224	0xbe5dfda6	-0.2167879
225	0xbdf28c84	-0.118432075
226	0x3d86e5e3	0.06586816
227	0xbc54c1f1	-0.012985692
228	0x3dcacdca	0.099025324
229	0xbd8778ff	-0.06614875
230	0x3c358413	0.011078852
231	0x3d1445bb	0.036199313
232	0xbdf0546b	-0.117348514
233	0xbde32f86	-0.11093049
234	0x3daef04a	0.08541925
235	0xbda4cfd1	-0.0804745
236	0x3cf3fb98	0.029783055
237	0xbd87090a	-0.06593521
238	0xbe9d2150	-0.30689478
239	0xbe62f42a	-0.22163454
240	0x3e5b307d	0.21405216
241	0x3e4e846c	0.20167702
242	0xbdadc157	-0.08484142
243	0x3c51f941	0.012815774
244	0x3dc8c978	0.09804052
245	0x3e539a23	0.20664267
246	0x3caed749	0.02134289
247	0x3d5f06f0	0.054449975
248	0x3de83b6d	0.113394596
249	0x3d552eb2	0.052046485
250	0x3ae1c85a	0.0017225847
251	0x3d005561	0.031331424
252	0x3e050182	0.12988856
253	0xbd30ba68	-0.04314652
254	0x3c73456b	0.0148480935
255	0x3ccad219	0.024758385

network_body._body_endoder.seq_layers.2.bias f4 [128]
0	0xbdd0b4da	-0.10190745
1	0xbccae2b2	-0.0247663
2	0xbe016aca	-0.12638393
3	0xbe10e987	-0.14151584
4	0xbd8f2905	-0.06990246
5	0xbc00a6ce	-0.007852269
6	0xbd82072e	-0.06349026
7	0xbe231812	-0.15927151
8	0xbc0aa901	-0.008463145
9	0xbc40eef1	-0.011775718
10	0xbc320ae6	-0.010866856
11	0xbdbca7f7	-0.09211724
12	0xbd13b7f7	-0.036064114
13	0xbc0c35ba	-0.008557731
14	0xbdf51ee2	-0.11968781
15	0x3d4def3a	0.050276972
16	0xbe240996	-0.16019282
17	0xba8c4fd9	-0.0010704949
18	0xbdbe86e4	-0.09303072
19	0xbdd423c4	-0.10358384
20	0xbe1b4c2d	-0.15165778
21	0xbc8bc210	-0.01706031
22	0xbe5dbba9	-0.21653618
23	0xbe346766	-0.17617568
24	0xbe1653ff	-0.1468048
25	0xbbba2743	-0.00568095
26	0xbd6f664e	-0.058447175
27	0x3c055450	0.008137777
28	0xbd4f1c0f	-0.050563868
29	0xbde41e03	-0.11138537
30	0xbdd344c7	-0.103158526
31	0xbdb1e493	-0.08686175
32	0xbd9e736f	-0.07736861
33	0xbd655fdb	-0.055999618
34	0xbdcdc8f4	-0.100480944
35	0xbcc0808a	-0.023498792
36	0x3d6bff42	0.05761648
37	0xbda88f26	-0.082304284
38	0x3d789cd0	0.060696423
39	0xbe24eacf	-0.16105197
40	0xbd85b95d	-0.06529496
41	0xbabd9b55	-0.0014465848
42	0x3b1c5c56	0.0023858747
43	0xbe119955	-0.14218648
44	0xbe38d285	-0.18049057
45	0xbe0682b0	-0.13135791
46	0xbda145fa	-0.07874675
47	0x3be8293e	0.0070849946
48	0xbb7b8ac5	-0.0038382274
49	0xbda6f677	-0.08152478
50	0xbde2b54a	-0.110697344
51	0xbe09cccb	-0.13457029
52	0x3d20cdf1	0.0392589
53	0xbd80b5de	-0.062846884
54	0xbdcc3631	-0.09971274
55	0xbe24e9f9	-0.16104878
56	0xbc1e0414	-0.009644527
57	0xbe21ffd8	-0.15820253
58	0xbe152532	-0.1456497
59	0xbe0b37ab	-0.13595454
60	0x3db319a1	0.08745123
61	0xbcdf2a9a	-0.027241994
62	0xbde4e4e9	-0.11176474
63	0xbde28fd2	-0.11062588
64	0xbd67812f	-0.056519683
65	0xbda9b9d7	-0.08287399
66	0x3a91961e	0.001110736
67	0x3cef2ed6	0.029197138
68	0x3da7a095	0.081849255
69	0xbd00dd13	-0.031460833
70	0xbdafbdf0	-0.085811496
71	0x3bc2e3eb	0.00594758
72	0xbcd16294	-0.025559701
73	0xbe141b0e	-0.14463446
74	0xbc82186d	-0.015880788
75	0xbc6e3fe4	-0.0145416
76	0xbda976e6	-0.08274631
77	0xbdd94ec0	-0.106107235
78	0xbd664711	-0.056220118
79	0xbdc9ed56	-0.09859721
80	0xbd9afea2	-0.075680986
81	0xbd87c808	-0.0662995
82	0x3d2056d9	0.039145324
83	0xbc9516cd	-0.018199349
84	0xbd38b084	-0.045090213
85	0xbdab22c7	-0.083562426
86	0xbe072929	-0.13199295
87	0xbe10bd15	-0.14134629
88	0xbc757f94	-0.01498403
89	0xbd6b25ac	-0.057408974
90	0x3c961ec3	0.018325215
91	0x3c8936a5	0.01674969
92	0xbdd72435	-0.10504953
93	0xbde0c5f5	-0.10975257
94	0x3c8c3a89	0.017117755
95	0xbe23ee2b	-0.16008823
96	0xbe2ed73f	-0.17074297
97	0xbb74e7e5	-0.0037369665
98	0x3bec56c5	0.007212492
99	0x3da9754e	0.08274327
100	0xbddd827c	-0.108159035
101	0xbd4ef6ca	-0.050528325
102	0xbb08b315	-0.0020858694
103	0xbe0e6ed8	-0.13909471
104	0xbc2c5cdf	-0.010520189
105	0xbd62db6e	-0.055385046
106	0xbe31c4e0	-0.17360258
107	0xbdb762ac	-0.08954367
108	0xbe00f0e8	-0.12591898
109	0x3becc980	0.007226169
110	0xbd872b1e	-0.06600021
111	0xbd56ce0f	-0.052442607
112	0xbe0eec08	-0.13957226
113	0xbe1fe79d	-0.15615697
114	0xbbe9c33c	-0.0071338695
115	0xbd79857a	-0.06091831
116	0xbe14d5e0	-0.14534712
117	0xbe313dc3	-0.17308716
118	0xbda7df5b	-0.081968985
119	0xbd08cd3d	-0.033398855
120	0xbe35a8cb	-0.1774017
121	0xbe3712c9	-0.1787826
122	0xbe00e594	-0.12587577
123	0xbdf92cd7	-0.12166756
124	0xbde056ef	-0.10954081
125	0xbe1cf751	-0.15328719
126	0xbccd16ed	-0.025035346
127	0xbe090646	-0.133813

action_model._discrete_distribution.branches.0.weight f4 [3, 128]
0	0xbdb49859	-0.088181205
1	0xbdfaf2de	-0.122533545
2	0xbd8805c2	-0.06641723
3	0xbd647749	-0.05577782
4	0xbdb0a0b7	-0.08624404
5	0xbc787b26	-0.01516608
6	0xbde6e85f	-0.1127479
7	0xbd4dc51c	-0.050236806
8	0x3d7561c3	0.059907686
9	0xbd5fda10	-0.05465132
10	0x3d0d4bd3	0.03449614
11	0xbde57c1d	-0.11205313
12	0xbd3249aa	-0.043527283
13	0xbe46018f	-0.19336532
14	0x3bb95f20	0.0056570917
15	0x3d956d53	0.072962426
16	0xbd1c3889	-0.038139854
17	0x3ea59ee5	0.3234779
18	0xbd4b0450	-0.04956466
19	0xbda26d53	-0.07931008
20	0x3e018cc0	0.12651348
21	0xbe147d23	-0.14500861
22	0xbd6da224	-0.058015957
23	0xbd9d3071	-0.07675255
24	0xbc905cab	-0.017622313
25	0xbdc8bf85	-0.098021545
26	0xbdd642cc	-0.10461959
27	0xbd830091	-0.063965924
28	0x3d0bfb78	0.034175366
29	0xbd0f4695	-0.03497942
30	0xbd0061d6	-0.031343304
31	0xbd06c8fd	-0.03290652
32	0xbd5ef88f	-0.054436263
33	0xbde8c9e2	-0.11366631
34	0xbcbd7cac	-0.023130737
35	0xbe09feab	-0.13476054
36	0xbbaf52d7	-0.0053504515
37	0xbe05863d	-0.13039489
38	0x3d31dafb	0.043421727
39	0xbd3a7bb8	-0.045528144
40	0xbd9fa78e	-0.077956304
41	0x389e0dc8	7.536594e-05
42	0x3d0da79e	0.03458368
43	0xbc971a77	-0.018445237
44	0xbd392ddd	-0.045209754
45	0xbd4fbf42	-0.050719507
46	0xbd692fe2	-0.05693043
47	0xbd8e63d9	-0.06952638
48	0x3cf34487	0.029695762
49	0xbe2c8d17	-0.16850697
50	0xbd9f4eaf	-0.077786796
51	0xbdb5a1ea	-0.08868773
52	0xbc242fe9	-0.010021188
53	0xbdb916ce	-0.09037553
54	0xbda3b8de	-0.07994245
55	0xbde31092	-0.11087145
56	0xbe06715d	-0.13129182
57	0x3bfa03d0	0.007629849
58	0xbd86c651	-0.065807946
59	0xbd374db2	-0.04475183
60	0x3d9e1bd6	0.07720153
61	0x3d031a5a	0.032007553
62	0xbd9ad746	-0.075605914
63	0xbcaed31a	-0.021340895
64	0xbdf28a15	-0.11842743
65	0xbdd6ec68	-0.1049431
66	0xbc824343	-0.015901214
67	0x3d1a7ca7	0.037716534
68	0x3df0c384	0.11756042
69	0xbdaed3a6	-0.085364625
70	0xbdff43cf	-0.12464105
71	0xbd7d798d	-0.061883498
72	0xbde9d645	-0.11417822
73	0xbdc3ce79	-0.09560866
74	0xbc62c28a	-0.013840327
75	0xbd7ac43f	-0.06122231
76	0xbd975ef2	-0.07391156
77	0xbce3f310	-0.027825862
78	0xbce72b23	-0.028218811
79	0xbd9bcde1	-0.07607628
80	0x3c1abca7	0.009444392
81	0xbe0caa51	-0.13736846
82	0x3d0a8339	0.03381655
83	0x3ea0af9f	0.31383988
84	0xbca8f79c	-0.020625882
85	0xbd59250e	-0.053013854
86	0xbcd454c5	-0.025919328
87	0x3c705d8f	0.014670744
88	0xbce6d7ca	-0.028179068
89	0xbde54be9	-0.11196119
90	0xbe1dd3dd	-0.1541285
91	0xbde86904	-0.11348155
92	0xbcd1f38f	-0.025628833
93	0xbd9ab7d6	-0.07554595
94	0xbd5a573e	-0.053305857
95	0xbcfd1650	-0.030894428
96	0xbd5fbb42	-0.054621942
97	0xbdd0d262	-0.10196377
98	0xbcdd1c93	-0.026991164
99	0x3ce6773a	0.028133024
100	0xbd6e1dca	-0.058133878
101	0xbc960b4e	-0.018315937
102	0xbd96baa7	-0.0735982
103	0xbd8de028	-0.0692752
104	0xbe02df3f	-0.12780474
105	0xbd98190f	-0.074266545
106	0xbd3e8591	-0.046514098
107	0xbd436fdf	-0.04771411
108	0xbd63bbb0	-0.055598915
109	0x3c4d494f	0.012529685
110	0xbd22d76a	-0.039756216
111	0xbdefc589	-0.11707599
112	0xbc5a90d1	-0.013340191
113	0xbd30f4e0	-0.04320228
114	0xbd9e0bf4	-0.07717124
115	0xbc815268	-0.015786365
116	0xbd0b4f0a	-0.034010924
117	0xbd727882	-0.059196956
118	0xbd0e0e85	-0.034681816
119	0x3b02f261	0.0019980895
120	0xbd568d23	-0.052380692
121	0xbd356775	-0.044288117
122	0xbc4a8989	-0.0123618925
123	0xbda2e330	-0.07953489
124	0xbd97922d	-0.07400928
125	0xbdd76570	-0.105173945
126	0xbc99b679	-0.018763768
127	0xbd8c94a1	-0.06864286
128	0x3d380cc3	0.044934046
129	0xbc3653b0	-0.011128351
130	0x3bab101a	0.0052204253
131	0x3b459ca9	0.0030153191
132	0x3df363db	0.1188428
133	0x3918b6a6	0.00014563891
134	0x3cc0ca24	0.023533888
135	0xbd0762e9	-0.033053312
136	0xbc6e597a	-0.0145477
137	0x3d3615de	0.044454448
138	0xbdba3159	-0.090914436
139	0x3d8500b9	0.064942785
140	0xbac77367	-0.0015216888
141	0x3e1ae544	0.1512652
142	0xba4d8f1d	-0.0007841455
143	0xbdfdcdf8	-0.12392801
144	0x3c091ecf	0.008369162
145	0xbe261061	-0.16217186
146	0x3d819fe2	0.06329323
147	0x3c8cf7ff	0.017208098
148	0xbdb40637	-0.08790248
149	0x3e178e38	0.14800346
150	0x3b995d42	0.0046803067
151	0x3c802ac1	0.015645387
152	0xbc3a70e6	-0.011379456
153	0x3cb9f445	0.022699485
154	0xbd79e1c1	-0.06100631
155	0x3d51f34f	0.051257428
156	0xbd7b601c	-0.061370954
157	0xbda68693	-0.08131137
158	0xbdab57aa	-0.0836633
159	0x3cb72cb7	0.022360189
160	0xbd8df29c	-0.0693104
161	0x3d8a9dcf	0.06768381
162	0xbd3c99f1	-0.046045247
163	0x3d7c2ef9	0.061568234
164	0xbcbb35cd	-0.022852803
165	0x3dc3ef1a	0.095670894
166	0x3e0f4a9c	0.13993305
167	0xbd5df3b1	-0.05418748
168	0xbdcdd207	-0.10049825
169	0x3df877a3	0.12132194
170	0x3d3b5f31	0.04574508
171	0xbd613d3f	-0.05499005
172	0x3be863d0	0.0070919767
173	0x3ccba3a6	0.024858307
174	0xbdadc3f8	-0.08484644
175	0x3d2c8ecd	0.042128373
176	0xbe0074aa	-0.12544504
177	0x3cfc7318	0.0308166
178	0xbd6cde9f	-0.057829496
179	0xbc5c7e56	-0.013457855
180	0xbb15fa80	-0.0022884905
181	0x3d9e48eb	0.07728752
182	0xbc2b440b	-0.010453234
183	0x3a9e2783	0.0012066219
184	0x3da29ba8	0.07939845
185	0xbd965644	-0.073406726
186	0xbb53c7b1	-0.003231507
187	0xbd457f13	-0.04821689
188	0x3cfad8ef	0.03062102
189	0xbc97df85	-0.0185392
190	0x3b3f3c47	0.0029180215
191	0xbceb407a	-0.028717268
192	0x3deaa061	0.11456371
193	0xbca8eb52	-0.020620022
194	0xbd1ddec3	-0.03854252
195	0x3c8d79db	0.01727002
196	0xbde33978	-0.11094946
197	0x3d4016f5	0.046896894
198	0x3db3f56e	0.087870464
199	0xba23b6be	-0.0006245187
200	0x3de51e8a	0.111874655
201	0x3bf30e98	0.007417511
202	0xbe0a5662	-0.13509515
203	0x3c222249	0.0098958695
204	0x3b4a3592	0.0030854684
205	0x3aae211f	0.0013285017
206	0xbd72e17c	-0.05929707
207	0xbd98749c	-0.074441165
208	0x3d14802b	0.036255043
209	0x3df0ec4e	0.117638215
210	0xbd062d2b	-0.03275792
211	0xbe12482b	-0.14285342
212	0x3dbde9cf	0.09273111
213	0xbc4c3837	-0.012464575
214	0xbd5bd0c8	-0.053665906
215	0x3d3f1903	0.046654712
216	0x3cff4b42	0.031163815
217	0x3d3027cf	0.043006714
218	0x3d8d4ae9	0.068990536
219	0x3cdddd6e	0.027083125
220	0xbdafcb8d	-0.08583746
221	0xbd67eead	-0.056624103
222	0xbd1b9375	-0.037982423
223	0x3ccce95c	0.025013618
224	0x3d89b342	0.06723644
225	0x3d8ad6e9	0.06779272
226	0x3e1caaca	0.15299526
227	0x3dcc34e5	0.09971026
228	0xbba9df7f	-0.0051841135
229	0x3cba2c01	0.02272606
230	0x3da3aa8a	0.07991512
231	0xbd8cdd82	-0.06878187
232	0x3d799bd9	0.060939644
233	0x3d04fa01	0.032464985
234	0xbc546855	-0.012964328
235	0xbc495a9f	-0.012289672
236	0xbcc1cd35	-0.02365742
237	0x3b9b89f2	0.004746669
238	0xbd7e3c9e	-0.062069528
239	0x3d6c3f81	0.05767775
240	0xbc33cce9	-0.010974147
241	0xbd374c60	-0.04475057
242	0xbd64e59f	-0.055883046
243	0x3c864275	0.016389111
244	0x3d3567cb	0.044288438
245	0xbd5a9c44	-0.053371683
246	0xbdaf86fc	-0.08570668
247	0xbda3a562	-0.07990529
248	0x3c4cdfb2	0.012504505
249	0xbbf031d8	-0.0073301606
250	0xbd91c681	-0.0711794
251	0xbd3d71f0	-0.046251237
252	0xbdb62ddb	-0.08895465
253	0x3c8115ed	0.015757525
254	0x3d0a902c	0.0338289
255	0x3d402fe4	0.046920672

action_model._discrete_distribution.branches.0.bias f4 [3]
0	0x3eb75bd9	0.35812262
1	0xbe55549c	-0.20833057
2	0xbe757d29	-0.23973526

action_model._discrete_distribution.branches.1.weight f4 [3, 128]
0	0x3cee1a4a	0.02906527
1	0x3bba70be	0.0056897094
2	0xbd0831d3	-0.03325064
3	0xbd80cd26	-0.06289129
4	0xbcc4da20	-0.024029791
5	0x3da1fc54	0.07909456
6	0xbdf376a8	-0.11887866
7	0xbcb04ee0	-0.021521986
8	0xbdb9cc44	-0.09072164
9	0xbd0e9d94	-0.034818247
10	0x3dc6c9d4	0.097064644
11	0xbb454c1d	-0.0030105182
12	0xbd1818eb	-0.03713314
13	0xbe3f2658	-0.1866697
14	0xbd995373	-0.0748662
15	0xbcf6ad67	-0.030111982
16	0xbdabc743	-0.083876155
17	0x3ce6271a	0.028094817
18	0xbdd08c93	-0.101830624
19	0xbd0c2fec	-0.03422539
20	0xbd24fb6d	-0.04027884
21	0x3d0e8328	0.03479305
22	0xbce7aa74	-0.02827952
23	0xbd1b7b4a	-0.037959374
24	0xbd9fd019	-0.07803363
25	0xbe267341	-0.16254903
26	0x3cac22cd	0.021012688
27	0xbd5a07f0	-0.053230226
28	0x3d922b05	0.071371116
29	0x3d1b6b17	0.037943926
30	0xbd196916	-0.037453733
31	0xbdc5aaf9	-0.09651751
32	0xbd9e1949	-0.077196665
33	0x3d1dba54	0.038507774
34	0x398d0a43	0.0002690126
35	0xbdccbea2	-0.09997298
36	0x3ca6d456	0.020364922
37	0x3c593d3f	0.013259231
38	0x3c928781	0.017886879
39	0x3d35a195	0.04434355
40	0x3bac7dde	0.005264028
41	0x3d53bf95	0.05169638
42	0xbd1c9fc5	-0.038238306
43	0xbcc2b763	-0.023769086
44	0xbd7846ad	-0.060614277
45	0xbda92ed7	-0.08260887
46	0x3c0f8d52	0.008761721
47	0xbdd3d19e	-0.10342716
48	0x3d93e9ac	0.07222304
49	0xbbfa6a7e	-0.0076420894
50	0xbd022b64	-0.03177966
51	0xbd75e277	-0.060030427
52	0x3c83b3cd	0.016076947
53	0xbd8e7eb3	-0.0695776
54	0xbc90e4b8	-0.017687187
55	0xbc269596	-0.0101675
56	0xbe0facc0	-0.14030743
57	0xbca58753	-0.02020613
58	0xbd2e2b2b	-0.042521637
59	0xbc92c854	-0.01791779
60	0x3c8023ca	0.015642066
61	0x3de3bedc	0.11120388
62	0xbd9efb75	-0.07762805
63	0xbd4b16c2	-0.04958225
64	0xbdccfd8d	-0.100092985
65	0xbca9b1f4	-0.020714737
66	0xb8e6b3fe	-0.00011000781
67	0x3ded1792	0.11576761
68	0x3c0ae6e3	0.008477899
69	0xbd843332	-0.06455077
70	0xbda7a27e	-0.0818529
71	0x3ce19008	0.0275345
72	0xbe3077d1	-0.17233206
73	0xbcfc6b77	-0.030812962
74	0x3c9b9d1f	0.01899582
75	0xbcf5033e	-0.029908773
76	0x3c47f29b	0.012203838
77	0xbdc2ca1a	-0.09511204
78	0xbd664619	-0.056219194
79	0xbd01b8e7	-0.031670477
80	0xbd2418ef	-0.04006284
81	0xbdb1c347	-0.08679824
82	0x3db8ec98	0.09029502
83	0x3c91e299	0.017808245
84	0xbd1838da	-0.037163593
85	0xbd9d09cd	-0.07667885
86	0xbcff9deb	-0.03120323
87	0xbd5e969a	-0.054342844
88	0xbd385f3d	-0.0450127
89	0x3cd32925	0.025776455
90	0xbd5d0dc8	-0.05396822
91	0xbd795acf	-0.060877617
92	0xbcc8b782	-0.024501566
93	0xbc38a7a4	-0.011270437
94	0x399726bf	0.00028829832
95	0xbd0b08ba	-0.03394387
96	0xbce1a2a7	-0.027543379
97	0x3e5d4852	0.2160962
98	0x3da0bd7e	0.07848643
99	0x3d944683	0.072400115
100	0x3cdcc741	0.02695048
101	0xbda908cc	-0.08253631
102	0x3d1cac16	0.03825005
103	0x3ca67ab9	0.02032219
104	0xbd97e6f7	-0.074171
105	0x3d99245b	0.074776374
106	0xbcf67cf1	-0.030088874
107	0xbceb6d67	-0.02873869
108	0xbd278ecd	-0.04090767
109	0x3e2d411d	0.1691937
110	0xbd4a1231	-0.049333755
111	0xbda6e459	-0.081490226
112	0x3c5ef2c3	0.013607684
113	0x3c5b21f3	0.013374793
114	0xbd814b3b	-0.06313177
115	0xbd783ccf	-0.060604867
116	0xbd614a35	-0.05500241
117	0x3c2bd43f	0.010487615
118	0xbd7c74de	-0.06163489
119	0x3d0d4eea	0.034499086
120	0xbc327f6a	-0.010894636
121	0xbd14c2f6	-0.03631874
122	0xbd2a0716	-0.041510664
123	0x3d2fdd07	0.042935397
124	0x3bba47d7	0.0056848335
125	0xbcff9035	-0.031196693
126	0xbd829ba1	-0.0637734
127	0x3ca80c0a	0.020513553
128	0x3d0ced8b	0.034406226
129	0x3cb76a7f	0.022389648
130	0x3c2f7313	0.010708588
131	0x3ce1502d	0.027504051
132	0x3d6e44dd	0.058171142
133	0xbdb0ce8f	-0.08633148
134	0x3d53d565	0.05171718
135	0x3d4cc66b	0.049993914
136	0x3d951226	0.07278852
137	0x3bbc9eee	0.0057562506
138	0xbdbdf005	-0.09274296
139	0x3d0863c7	0.03329828
140	0x3e3c47ed	0.18386813
141	0x3dfdad77	0.123866014
142	0x3d9e8d49	0.07741792
143	0xbc56bfcf	-0.013107254
144	0x3d056e28	0.032575756
145	0x3d014d52	0.03156788
146	0x3d8ca7dc	0.06867954
147	0x3ddd5a4d	0.10808239
148	0x3d57c47e	0.052677624
149	0xbc9b9c29	-0.018995361
150	0xbcc2da7b	-0.02378582
151	0xbd176706	-0.036963485
152	0xbd725079	-0.059158776
153	0x3da15ffd	0.078796364
154	0xbdf7cda6	-0.12099771
155	0x3bf84587	0.0075766477
156	0xbbd6beeb	-0.006553521
157	0xbd279a97	-0.040918913
158	0x3d1de9b9	0.038552973
159	0x3d072b4c	0.033000275
160	0x3d9133d7	0.07089966
161	0xbd84d493	-0.06485858
162	0xbd59ea4b	-0.053201955
163	0x3d795be7	0.06087866
164	0x3d2341ff	0.03985786
165	0xbd8e0fa6	-0.069365785
166	0xbdb5531e	-0.08853744
167	0x3d342191	0.043977324
168	0x3c18bcb7	0.009322337
169	0x3c5acf2f	0.0133550605
170	0x3b5cdab7	0.00336997
171	0x3d1e9751	0.038718525
172	0x3be56d3d	0.0070015476
173	0x3d54449a	0.051823236
174	0xbd3ac053	-0.04559357
175	0x3ddf8129	0.10913307
176	0xbda6257a	-0.08112617
177	0x3d5481e1	0.051881675
178	0xbd5888b3	-0.05286474
179	0x3cb935db	0.022608688
180	0xbd16d51d	-0.036824334
181	0x3e14cc50	0.14531064
182	0xbd8d6888	-0.069047034
183	0x3d1b6061	0.03793371
184	0x3d9096b9	0.07059998
185	0xbd9b77ae	-0.075911865
186	0x3a3582a0	0.00069240667
187	0xbd91c66f	-0.07117926
188	0x3e051067	0.12994538
189	0xbd1ba21d	-0.0379964
190	0x3d5af8c8	0.053459913
191	0xbdd7d690	-0.105389714
192	0x3d2a0aab	0.04151408
193	0x3c915a66	0.0177433
194	0x3d9371cd	0.0719944
195	0x3a852218	0.0010157255
196	0xbcbe7228	-0.023247793
197	0x3d2f193e	0.042748682
198	0x3d620712	0.055182524
199	0xbd147662	-0.03624571
200	0x3dd015a5	0.10160378
201	0x3c3f15d5	0.01166292
202	0xbdd95453	-0.10611787
203	0x3dda21c6	0.10650973
204	0x3cbc40e3	0.02298016
205	0x3db62d97	0.08895414
206	0x3e380d97	0.17973934
207	0x3badad93	0.0053002327
208	0x3cb8ff9d	0.022582823
209	0x3be0ddcc	0.0068623777
210	0xbbbcb259	-0.0057585654
211	0x3d584606	0.052801155
212	0x3c3cdc3a	0.0115271155
213	0xbc4523a7	-0.012032426
214	0xbd8f9f5c	-0.07012817
215	0x3d54b4bd	0.051930178
216	0x3d61667a	0.05502937
217	0xbd66d0a3	-0.056351315
218	0x399f1252	0.00030340493
219	0xbe0a77db	-0.13522284
220	0xbd473578	-0.048634976
221	0xbdbefb3a	-0.093252614
222	0x3c9794c7	0.01850356
223	0x3cd30395	0.025758544
224	0x3cbd15cc	0.023081683
225	0xbe04e042	-0.12976173
226	0xbd821634	-0.06351891
227	0xbe4b3c73	-0.19847278
228	0x3cf26147	0.029587401
229	0x3d9b4b43	0.075827144
230	0xbc4befec	-0.012447339
231	0x3d2dbfba	0.042419173
232	0xbd440756	-0.04785856
233	0xbc9bba9f	-0.019009886
234	0x3d4b27e9	0.04959861
235	0x3d393ba1	0.045222882
236	0xbcf1def1	-0.029525252
237	0xbd12fba2	-0.035884507
238	0x3d631a8b	0.055445235
239	0x3dadf631	0.08494223
240	0xbd3dffe6	-0.046386622
241	0x3c05aac1	0.008158387
242	0xbcc51880	-0.024059534
243	0xbdd42f20	-0.10360551
244	0x3d3bf646	0.04588916
245	0xbcd808c1	-0.026371362
246	0x3ce8ce31	0.028418632
247	0x3d9d0c17	0.076683216
248	0xbc634170	-0.013870582
249	0x3d1eb5b0	0.03874749
250	0xbde839bb	-0.11339136
251	0x3c983c6e	0.018583503
252	0xbd9d2685	-0.07673363
253	0x3cb095dc	0.021555834
254	0xbd5822c0	-0.052767515
255	0x3d11a6aa	0.035559334

action_model._discrete_distribution.branches.1.bias f4 [3]
0	0x3cc0be18	0.023528144
1	0x3be29a02	0.006915332
2	0x3ccbdaa5	0.024884531

exp_avg f4 [128, 104]
0	0xb41a2c59	-1.4358501e-07
1	0xb44aaf64	-1.8876523e-07
2	0x00000000	0.0
3	0xb3b49aa2	-8.410031e-08
4	0xb4b6ed8d	-3.4072983e-07
5	0x320ff59d	8.3795415e-09
6	0x00000000	0.0
7	0xb2e0c7d4	-2.6167903e-08
8	0xb4ad47a3	-3.2275884e-07
9	0xb224c774	-9.591407e-09
10	0x00000000	0.0
11	0xb3b69149	-8.501463e-08
12	0xb4d5de95	-3.9836291e-07
13	0x338dc2e6	6.601276e-08
14	0x00000000	0.0
15	0xb3fb33c7	-1.16975166e-07
16	0xb4d03683	-3.8782682e-07
17	0x336e452a	5.5476598e-08
18	0x00000000	0.0
19	0xb3817949	-6.029092e-08
20	0xb42f5eba	-1.6332606e-07
21	0xb44de8d0	-1.917681e-07
22	0x00000000	0.0
23	0xb3c35877	-9.096487e-08
24	0xb4c650d4	-3.6939184e-07
25	0x3275a216	1.4297731e-08
26	0x00000000	0.0
27	0xb3036d1d	-3.0600052e-08
28	0xb4b8ed18	-3.444518e-07
29	0xb236d59f	-1.0642366e-08
30	0x00000000	0.0
31	0xb3cc75ec	-9.52094e-08
32	0xb4d6541e	-3.992181e-07
33	0x333d82e5	4.412404e-08
34	0x00000000	0.0
35	0xb410d72a	-1.3489321e-07
36	0xb4c8974f	-3.7362994e-07
37	0x329f38a6	1.8535797e-08
38	0x00000000	0.0
39	0xb3974209	-7.043497e-08
40	0xb41b3aad	-1.4456846e-07
41	0xb44db2f0	-1.915721e-07
42	0x00000000	0.0
43	0xb3b7e585	-8.563351e-08
44	0xb4bb501e	-3.4889757e-07
45	0x325b29de	1.2756997e-08
46	0x00000000	0.0
47	0xb2f00693	-2.7942667e-08
48	0xb4b2965f	-3.3264493e-07
49	0xb17037e9	-3.4956378e-09
50	0x00000000	0.0
51	0xb3c2c35a	-9.069363e-08
52	0xb4ceefc4	-3.8544943e-07
53	0x3353c7c7	4.9308962e-08
54	0x00000000	0.0
55	0xb40cd02b	-1.3114247e-07
56	0xb4b8084b	-3.4278705e-07
57	0x31e45eef	6.646466e-09
58	0x00000000	0.0
59	0xb3a10b5d	-7.499214e-08
60	0xb3f7293d	-1.1509335e-07
61	0xb48141e1	-2.4076056e-07
62	0x00000000	0.0
63	0xb3bf2ccb	-8.9022784e-08
64	0xb4bfc73a	-3.572148e-07
65	0x30bb0b3f	1.3609237e-09
66	0x00000000	0.0
67	0xb3204f86	-3.732523e-08
68	0xb4c00a9b	-3.5770503e-07
69	0x30fe6a19	1.8511087e-09
70	0x00000000	0.0
71	0xb3b96b99	-8.634306e-08
72	0xb4d79590	-4.0155692e-07
73	0x33444b09	4.570305e-08
74	0x00000000	0.0
75	0xb423a53e	-1.5240673e-07
76	0xb4e1903b	-4.2014457e-07
77	0x338a1029	6.429065e-08
78	0x00000000	0.0
79	0xb3c5ca44	-9.210319e-08
80	0xb3f68bf8	-1.1480728e-07
81	0xb466f0b2	-2.1507984e-07
82	0x00000000	0.0
83	0xb3aa78dc	-7.938226e-08
84	0xb4be59ec	-3.5455685e-07
85	0x32d3e945	2.4669712e-08
86	0x00000000	0.0
87	0xb33d7b68	-4.411723e-08
88	0xb4b1361f	-3.3008197e-07
89	0x2f5634d4	1.9481955e-10
90	0x00000000	0.0
91	0xb38d35ab	-6.575586e-08
92	0xb4ca4549	-3.7675844e-07
93	0x33494fa0	4.6871378e-08
94	0x00000000	0.0
95	0xb424818c	-1.5320819e-07
96	0xb4ca6d91	-3.7705152e-07
97	0x334a91d2	4.7164413e-08
98	0x00000000	0.0
99	0xb3af6cdd	-8.1688746e-08
100	0x34b2f8f4	3.333622e-07
101	0xb001c786	-4.7213466e-10
102	0xb2d8d5cb	-2.5242931e-08
103	0xb83b81cb	-4.4705153e-05
104	0xb185b2be	-3.89113e-09
105	0x18a97220	4.3800713e-24
106	0x00000000	0.0
107	0xb044059b	-7.131235e-10
108	0xb185b2be	-3.89113e-09
109	0xa549c934	-1.7502141e-16
110	0x00000000	0.0
111	0xb1197ad1	-2.2334243e-09
112	0xb23d84a8	-1.10314105e-08
113	0x31f556a0	7.1402866e-09
114	0x00000000	0.0
115	0x2fc78d00	3.6298076e-10
116	0xb1854b88	-3.8793964e-09
117	0xad4e5e5e	-1.1730698e-11
118	0x00000000	0.0
119	0x30f0d815	1.7523712e-09
120	0xb0b2d8e0	-1.3012844e-09
121	0xb131f8fa	-2.5898417e-09
122	0x00000000	0.0
123	0xb10343f3	-1.9101634e-09
124	0xb185b2be	-3.89113e-09
125	0x97261c43	-5.3673164e-25
126	0x00000000	0.0
127	0xb0664dac	-8.378389e-10
128	0xb185b2be	-3.89113e-09
129	0x231cdb6d	8.503242e-18
130	0x00000000	0.0
131	0xb0a43e5e	-1.1950296e-09
132	0xb2311293	-1.0306979e-08
133	0x31dc7271	6.415853e-09
134	0x00000000	0.0
135	0xadd9b203	-2.4749097e-11
136	0xb185a3fe	-3.889453e-09
137	0xabeb8d16	-1.6736914e-12
138	0x00000000	0.0
139	0x30ae773e	1.2694057e-09
140	0xb15fa819	-3.2546323e-09
141	0xb02ef5ad	-6.364996e-10
142	0x00000000	0.0
143	0xb090df36	-1.0540819e-09
144	0xb185b2be	-3.89113e-09
145	0x98e35daf	-5.877272e-24
146	0x00000000	0.0
147	0xb0274994	-6.0858807e-10
148	0xb185b2be	-3.89113e-09
149	0x2281dc76	3.5198942e-18
150	0x00000000	0.0
151	0x305f35cc	8.120338e-10
152	0xb18f8eed	-4.1780965e-09
153	0x2f9dc386	2.8697061e-10
154	0x00000000	0.0
155	0xb08fcd3e	-1.0462953e-09
156	0xb185b420	-3.8912873e-09
157	0x2a335dad	1.5930894e-13
158	0x00000000	0.0
159	0x2f98d0e5	2.7797067e-10
160	0xb178dc43	-3.6213954e-09
161	0xaf9448c8	-2.6972757e-10
162	0x00000000	0.0
163	0xb0248532	-5.9852134e-10
164	0xb185b2be	-3.89113e-09
165	0x994094d2	-9.956221e-24
166	0x00000000	0.0
167	0xaf668bea	-2.0968086e-10
168	0xb185b2be	-3.89113e-09
169	0x1f04b63b	2.8102825e-20
170	0x00000000	0.0
171	0xb0cf99e3	-1.510497e-09
172	0xb1494df0	-2.9293652e-09
173	0xb0842eff	-9.617621e-10
174	0x00000000	0.0
175	0xb00cb2ea	-5.1185955e-10
176	0xb185b37b	-3.891214e-09
177	0x29b3b07c	7.979812e-14
178	0x00000000	0.0
179	0xb042b150	-7.0828765e-10
180	0xb180ad2e	-3.7449785e-09
181	0xaf20b233	-1.4615224e-10
182	0x00000000	0.0
183	0xb078c3be	-9.050004e-10
184	0xb185b2be	-3.89113e-09
185	0x9944b0cc	-1.0168666e-23
186	0x00000000	0.0
187	0xaf118fe0	-1.3238788e-10
188	0xb185b2be	-3.89113e-09
189	0x1ea18ad6	1.710396e-20
190	0x00000000	0.0
191	0xb0d6b0c7	-1.5620792e-09
192	0xb185b2d0	-3.891138e-09
193	0x282873c0	9.350973e-15
194	0x00000000	0.0
195	0x308e466e	1.0351877e-09
196	0xb185b29e	-3.891116e-09
197	0xa7d4c4a8	-5.9055035e-15
198	0x00000000	0.0
199	0xb07bb8cd	-9.1575886e-10
200	0xb18389a0	-3.828248e-09
201	0xae8a476e	-6.288202e-11
202	0x00000000	0.0
203	0xb0d956dc	-1.5813515e-09
204	0x3185bbcd	3.89216e-09
205	0xaee5b128	-1.04451836e-10
206	0xac6c79de	-3.3605267e-12
207	0xb40eea99	-1.3310127e-07
208	0xb7d83753	-2.5774969e-05
209	0xb80aec9b	-3.312212e-05
210	0x00000000	0.0
211	0xb7c0d0c4	-2.2985398e-05
212	0xb84cc243	-4.881831e-05
213	0xb7291804	-1.00787765e-05
214	0x00000000	0.0
215	0xb7680127	-1.3828546e-05
216	0xb8797371	-5.947374e-05
217	0x351acbbd	5.766595e-07
218	0x00000000	0.0
219	0xb77dc401	-1.5125611e-05
220	0xb8749dfc	-5.8321268e-05
221	0xb51a91c5	-5.7581593e-07
222	0x00000000	0.0
223	0xb7964f1c	-1.7918232e-05
224	0xb87b5702	-5.9924096e-05
225	0x3589d794	1.0270037e-06
226	0x00000000	0.0
227	0xb78170b1	-1.5430474e-05
228	0xb808855d	-3.254913e-05
229	0xb7f00d99	-2.8616561e-05
230	0x00000000	0.0
231	0xb7cee459	-2.4663446e-05
232	0xb86584c3	-5.47215e-05
233	0xb6d83b3e	-6.4441983e-06
234	0x00000000	0.0
235	0xb75fc8ad	-1.3338559e-05
236	0xb8819027	-6.17805e-05
237	0x3525095d	6.1480915e-07
238	0x00000000	0.0
239	0xb783986d	-1.5687396e-05
240	0xb87e34b9	-6.060742e-05
241	0xb515dba9	-5.5826473e-07
242	0x00000000	0.0
243	0xb79af185	-1.8470697e-05
244	0xb881fa41	-6.197813e-05
245	0x355a1657	8.124384e-07
246	0x00000000	0.0
247	0xb787c044	-1.6182785e-05
248	0xb7d8565c	-2.578942e-05
249	0xb80fd8f6	-3.4295917e-05
250	0x00000000	0.0
251	0xb7cab7a2	-2.4165787e-05
252	0xb860f8c7	-5.3637454e-05
253	0xb6d85b06	-6.447898e-06
254	0x00000000	0.0
255	0xb74b9d32	-1.2136343e-05

exp_avg_sq f4 [128, 104]
0	0x2b6c23d9	8.389379e-13
1	0x2a352151	1.6087588e-13
2	0x00000000	0.0
3	0x291ec2f9	3.525216e-14
4	0x2b8e75f4	1.0122445e-12
5	0x278aa454	3.848086e-15
6	0x00000000	0.0
7	0x2a108cfe	1.2838686e-13
8	0x2b84c69e	9.434291e-13
9	0x2a67efe1	2.0600146e-13
10	0x00000000	0.0
11	0x29a9c115	7.538602e-14
12	0x2b89ec30	9.799991e-13
13	0x292a1c0d	3.7771913e-14
14	0x00000000	0.0
15	0x2a3a8090	1.6564723e-13
16	0x2b74c3ff	8.6958213e-13
17	0x2a27b893	1.4896617e-13
18	0x00000000	0.0
19	0x2a582c9f	1.9200135e-13
20	0x2b6be476	8.3805825e-13
21	0x2a372ff2	1.62703e-13
22	0x00000000	0.0
23	0x29194a65	3.403735e-14
24	0x2b8f4652	1.0180279e-12
25	0x276fb297	3.3264727e-15
26	0x00000000	0.0
27	0x2a12837d	1.3013024e-13
28	0x2b8d8a36	1.0057014e-12
29	0x2a3b6c69	1.6646549e-13
30	0x00000000	0.0
31	0x299d3154	6.9807577e-14
32	0x2b8b6360	9.904126e-13
33	0x2904d6b0	2.94961e-14
34	0x00000000	0.0
35	0x2a3b14d5	1.6616164e-13
36	0x2b783218	8.817682e-13
37	0x2a189109	1.3550631e-13
38	0x00000000	0.0
39	0x2a5d5d5a	1.9661131e-13
40	0x2b6b8ead	8.3686774e-13
41	0x2a370f34	1.625894e-13
42	0x00000000	0.0
43	0x29118691	3.2313185e-14
44	0x2b8faaa9	1.0208129e-12
45	0x2771e7e0	3.3571168e-15
46	0x00000000	0.0
47	0x2a0fb0ec	1.2762334e-13
48	0x2b89d6b4	9.794028e-13
49	0x29f8867e	1.1036743e-13
50	0x00000000	0.0
51	0x29957981	6.638007e-14
52	0x2b8cdd08	1.0008947e-12
53	0x28e699b4	2.5601788e-14
54	0x00000000	0.0
55	0x2a3aa848	1.6578503e-13
56	0x2b7600a1	8.739763e-13
57	0x2a165db7	1.335519e-13
58	0x00000000	0.0
59	0x2a5eaa5b	1.9776665e-13
60	0x2b6b778a	8.3654665e-13
61	0x2a38d758	1.6417195e-13
62	0x00000000	0.0
63	0x290d60ea	3.139235e-14
64	0x2b900bdc	1.0235107e-12
65	0x2782e39e	3.632903e-15
66	0x00000000	0.0
67	0x2a134be6	1.3082555e-13
68	0x2b8b0734	9.878543e-13
69	0x2992cf87	6.519703e-14
70	0x00000000	0.0
71	0x2994e634	6.612454e-14
72	0x2b8d2744	1.0029551e-12
73	0x28eb4110	2.6118457e-14
74	0x00000000	0.0
75	0x2a3d75f9	1.6827502e-13
76	0x2b6da628	8.44299e-13
77	0x2a25a3ab	1.4711728e-13
78	0x00000000	0.0
79	0x2a5d4b53	1.9654876e-13
80	0x2b6b3a63	8.35698e-13
81	0x2a41ecfb	1.7224063e-13
82	0x00000000	0.0
83	0x290ec3f3	3.1700293e-14
84	0x2b906021	1.0258497e-12
85	0x277c28a8	3.4994065e-15
86	0x00000000	0.0
87	0x2a0f8770	1.2747941e-13
88	0x2b8c3eca	9.965026e-13
89	0x29540fc8	4.7087144e-14
90	0x00000000	0.0
91	0x299fe74f	7.101144e-14
92	0x2b8dabd6	1.0066347e-12
93	0x28d2b09a	2.3391272e-14
94	0x00000000	0.0
95	0x2a404a9b	1.707891e-13
96	0x2b6c8171	8.402368e-13
97	0x2a104c37	1.2816212e-13
98	0x00000000	0.0
99	0x2a572c0d	1.9111119e-13
100	0x2b79ed75	8.879211e-13
101	0x213433b8	6.105482e-19
102	0x2a1eba78	1.4097913e-13
103	0x326f58f6	1.3931858e-08
104	0x2ab4db8d	3.2126767e-13
105	0x030b457a	4.0928184e-37
106	0x00000000	0.0
107	0x26f87ac8	1.7241737e-15
108	0x2ab4db8d	3.2126767e-13
109	0x115bf10e	1.7350335e-28
110	0x00000000	0.0
111	0x2989080b	6.0854174e-14
112	0x2a971329	2.6836283e-13
113	0x2957c69d	4.791186e-14
114	0x00000000	0.0
115	0x2857908c	1.1966241e-14
116	0x2ab4dacd	3.2126247e-13
117	0x22bd2d03	5.127621e-18
118	0x00000000	0.0
119	0x29729666	5.3865244e-14
120	0x2ab221d8	3.1642636e-13
121	0x27b5e73f	5.048831e-15
122	0x00000000	0.0
123	0x298fa436	6.378962e-14
124	0x2ab4db8d	3.2126767e-13
125	0x03000a1c	3.7627424e-37
126	0x00000000	0.0
127	0x26ebe3ed	1.636818e-15
128	0x2ab4db8a	3.212676e-13
129	0x0ebb07aa	4.610644e-30
130	0x00000000	0.0
131	0x2988fc75	6.0834076e-14
132	0x2a97faf3	2.699712e-13
133	0x2951cd36	4.6585315e-14
134	0x00000000	0.0
135	0x285e6f61	1.2347627e-14
136	0x2ab4db7d	3.2126724e-13
137	0x1fdeb3e3	9.4318255e-20
138	0x00000000	0.0
139	0x29713776	5.3560854e-14
140	0x2ab3971a	3.1901635e-13
141	0x27223a24	2.2513534e-15
142	0x00000000	0.0
143	0x298ec7c5	6.340721e-14
144	0x2ab4db8d	3.2126767e-13
145	0x02ee6e38	3.503422e-37
146	0x00000000	0.0
147	0x26e6780d	1.5991996e-15
148	0x2ab4db8d	3.2126767e-13
149	0x0d594564	6.6951814e-31
150	0x00000000	0.0
151	0x298a0528	6.1293256e-14
152	0x2a96ef21	2.6811282e-13
153	0x293d89d6	4.2085984e-14
154	0x00000000	0.0
155	0x287836ce	1.3778649e-14
156	0x2ab4db7a	3.2126716e-13
157	0x1f0044d3	2.7161984e-20
158	0x00000000	0.0
159	0x29704b08	5.3355784e-14
160	0x2ab3fc59	3.197189e-13
161	0x26bc496e	1.3065024e-15
162	0x00000000	0.0
163	0x298ad879	6.165983e-14
164	0x2ab4db8d	3.2126767e-13
165	0x02d01985	3.05775e-37
166	0x00000000	0.0
167	0x26e73fe8	1.6046167e-15
168	0x2ab4db8d	3.2126767e-13
169	0x0c8c4bcc	2.1616034e-31
170	0x00000000	0.0
171	0x2978e7a2	5.526797e-14
172	0x2a98b73f	2.7127776e-13
173	0x29351aaa	4.02132e-14
174	0x00000000	0.0
175	0x289b19e0	1.7219678e-14
176	0x2ab4db65	3.212666e-13
177	0x1f0b316a	2.947527e-20
178	0x00000000	0.0
179	0x29700d19	5.3302066e-14
180	0x2ab3ff18	3.1973794e-13
181	0x26a9e7d7	1.1789571e-15
182	0x00000000	0.0
183	0x29868d1e	5.9752753e-14
184	0x2ab4db8d	3.2126767e-13
185	0x020f1348	1.0511514e-37
186	0x00000000	0.0
187	0x26ee7291	1.6545621e-15
188	0x2ab4db8d	3.2126767e-13
189	0x0c4e36bc	1.5886134e-31
190	0x00000000	0.0
191	0x2967c8f9	5.146662e-14
192	0x2aa5e18e	2.9466398e-13
193	0x28c35b4b	2.1688941e-14
194	0x00000000	0.0
195	0x28c94b66	2.2348182e-14
196	0x2ab4db88	3.2126754e-13
197	0x1f119032	3.082422e-20
198	0x00000000	0.0
199	0x296f9fd7	5.32073e-14
200	0x2ab47b0a	3.2059799e-13
201	0x26a5422b	1.146711e-15
202	0x00000000	0.0
203	0x29830398	5.818192e-14
204	0x2a91decc	2.591177e-13
205	0x1fe62219	9.74652e-20
206	0x298a9b3f	6.155362e-14
207	0x2d09f84e	7.842683e-12
208	0x32134603	8.572445e-09
209	0x331bf72a	3.6313544e-08
210	0x00000000	0.0
211	0x31b503e2	5.2682347e-09
212	0x333715c8	4.2627818e-08
213	0x31856abe	3.8829446e-09
214	0x00000000	0.0
215	0x3163ea87	3.316616e-09
216	0x3340b3dd	4.486707e-08
217	0x30da08c2	1.5864077e-09
218	0x00000000	0.0
219	0x31868092	3.91453e-09
220	0x3346f025	4.6318878e-08
221	0x2f01933f	1.1784794e-10
222	0x00000000	0.0
223	0x3208511c	7.934684e-09
224	0x334781b6	4.645127e-08
225	0x2d973d74	1.7194003e-11
226	0x00000000	0.0
227	0x321315d3	8.561488e-09
228	0x3214105e	8.618455e-09
229	0x331c5c26	3.640539e-08
230	0x00000000	0.0
231	0x31b61509	5.2992886e-09
232	0x333684c9	4.2495945e-08
233	0x31827711	3.7970342e-09
234	0x00000000	0.0
235	0x31645f63	3.3232588e-09
236	0x33412f41	4.497929e-08
237	0x30de26f8	1.6163701e-09
238	0x00000000	0.0
239	0x31861e13	3.9033323e-09
240	0x334788a9	4.645759e-08
241	0x2f12f861	1.3366865e-10
242	0x00000000	0.0
243	0x320902c0	7.975075e-09
244	0x334844a3	4.6628553e-08
245	0x2d20d9d7	9.143317e-12
246	0x00000000	0.0
247	0x3213d0f0	8.604033e-09
248	0x3211ce56	8.487026e-09
249	0x331cb738	3.6488217e-08
250	0x00000000	0.0
251	0x31b741b2	5.3334697e-09
252	0x3337243a	4.2640956e-08
253	0x3182c5fb	3.8060057e-09
254	0x00000000	0.0
255	0x3164ec86	3.3312815e-09
