results/SumOfNumbers/SumOfNumbers/SumOfNumbers-500040.pt (torch, 33141 bytes, 33 tensors)

network_body._body_endoder.seq_layers.0.weight f4 [20, 2]
0.58430713 0.4107678 -0.35900056 1.6505164 -0.34950653 -0.378639 -0.42943418 -0.49269903
1.1650692 1.0758413 -0.46468836 -0.52941597 1.1793108 0.038820647 -0.36715087 -0.48131087
0.4967818 0.4941152 0.4873994 0.6009966 -0.44794697 -0.19076823 -0.37118575 -0.45621166
-1.064393 0.6563678 -1.0763826 0.37199938 -0.8001419 0.8855308 0.56216466 -0.4269974
0.82354367 0.39670813 -0.3525594 -0.35532555 0.33818147 -0.139781 1.382048 1.2050093
00000000: 2795 153f 2850 d23e ecce b7be 1f44 d33f
00000010: 85f2 b2be f9dc c1be ccde dbbe 0c43 fcbe
00000020: fd20 953f 2bb5 893f a2eb edbe ce87 07bf
00000030: a8f3 963f 6602 1f3d 33fb bbbe 616e f6be
00000040: 2f5a fe3e abfc fc3e 6a8c f93e eada 193f
00000050: 4e59 e5be bf58 43be 0f0c bebe 9394 e9be
00000060: 083e 88bf b807 283f e8c6 89bf b476 be3e
00000070: 19d6 4cbf 26b2 623f 06ea 0f3f 679f dabe
00000080: c2d3 523f 541d cb3e aa82 b4be 3bed b5be
00000090: 1f26 ad3e c022 0fbe f3e6 b03f bf3d 9a3f

network_body._body_endoder.seq_layers.0.bias f4 [20]
-1.0525573 0.92801917 0.20072429 0.8103226 -1.0397512 1.019474 -0.0018395324 0.62271446
-1.1652741 -1.2203941 -0.16675432 0.5218459 0.74760777 1.2538924 1.1032237 1.5220774
-1.427883 0.12665005 1.7657235 -1.3668953
00000000: 33ba 86bf aa92 6d3f ab8a 4d3e 4d71 4f3f
00000010: 9116 85bf 207e 823f 771c f1ba 376a 1f3f
00000020: b427 95bf e035 9cbf a5c1 2abe b197 053f
00000030: 3963 3f3f 8c7f a03f 6f36 8d3f 6fd3 c23f
00000040: dfc4 b6bf 8db0 013e 3a03 e23f 6df6 aebf

network_body._body_endoder.seq_layers.2.weight f4 [20, 20]
1.1203437 0.336433 1.7302808 2.1069872 0.25864673 1.7864125 0.6243645 1.8125365
0.63850296 1.0282384 1.8608351 2.25945 0.33455145 0.14949629 -0.5664899 -0.8543525
0.6889155 1.6914598 -0.38743106 0.28830862 -0.78577614 0.39737257 -1.8102592 -1.1682117
0.22471455 -0.49951848 0.3512694 -1.7638088 -0.6005864 -0.62713575 -1.2040566 -1.8346593
0.7938834 0.6576744 0.5889434 0.9182077 -0.81161475 -1.4685425 1.1444366 0.18673794
-0.12660256 0.058647327 -1.9564575 -1.6114355 0.043950863 -2.181338 0.42150888 -1.3630241
-0.96255475 -0.49071386 -1.7939936 -1.5751855 -1.1001105 -1.1973122 -0.17070098 1.2772949
-0.058785457 -1.8145834 0.794446 0.034654215 0.7023777 0.08238923 1.1379601 1.5120298
0.5998734 1.834552 0.323686 1.0741735 0.94113433 1.1101658 1.2507765 1.792466
0.41083723 -0.54078454 0.100772046 -0.22039336 0.83490306 0.9448919 -0.71057326 0.63492155
0.6420551 0.09465488 0.64691114 0.78047466 0.32363605 1.1093717 0.55458814 0.463814
0.41770634 0.5819775 0.7721204 0.9073977 0.45920822 0.041426174 0.34388393 0.07770336
0.5321763 0.9371045 -0.30660987 0.44145912 -1.3219494 -0.33574528 -0.56223077 0.7920465
-0.87512743 0.74654466 -0.67047995 0.4580309 -1.1675315 -1.3700036 -0.8870071 0.38814008
0.37389696 0.8320432 -0.19777733 0.61869746 -0.9137517 -0.6140272 1.0999036 -0.8987363
-0.75095344 0.0674805 -1.272897 -1.0544224 -0.22721136 -1.3384601 -0.05623272 -1.3176672
-0.7173827 -0.8310553 -1.1049784 -1.5818124 0.30972826 -0.2400311 0.053198915 0.5836775
-0.8586491 -1.3402206 0.68762076 -0.7944326 -0.68717384 0.41915315 -1.7809826 -1.9130014
-0.058352746 -2.0307739 0.122413374 -2.4447157 -0.38649344 -0.89892423 -1.7415416 -2.2192035
0.12553199 0.0034011137 0.3368336 0.91940033 -0.75769275 -1.8744605 1.1676565 0.05544629
-0.564886 0.051176812 -1.2566179 -0.9399046 -0.48981082 -0.7714022 0.065879405 -0.9505385
-1.1363016 -0.678717 -0.8177089 -1.1708618 -0.30764493 0.34436667 0.14028467 0.30962563
-1.0013108 -1.1991444 0.8799293 -0.70946085 -0.90816176 0.27382013 -1.0589639 -1.7170422
-0.55517215 -2.0251915 0.38370442 -2.0419216 -0.9472945 -0.6228732 -1.1234628 -2.2075543
0.34257004 -0.11073495 0.058255535 0.44607535 -0.7505779 -1.4628576 0.75281316 -0.16960421
-0.31205535 -0.8436918 0.43681508 1.0404347 0.10011198 1.0983107 0.589944 -0.30818415
-0.05706407 -0.31869885 0.23891634 0.005190058 0.4835746 1.1235002 -0.23750484 0.018838517
0.1813499 0.17465833 0.39480186 0.17426746 -1.0496801 -0.06744301 -0.7282892 -0.20117678
-0.86626947 -0.19397143 -0.24056771 -0.04166218 -0.8818854 -0.93242705 -0.71897966 -0.29230928
0.2176296 0.6467463 -0.08947199 0.6076294 -1.0905693 -1.1066494 1.2153987 -0.680754
0.62596214 0.11548571 1.7687316 2.3657856 -0.12258923 2.1316776 0.37477466 1.7495024
0.50505793 0.69896024 1.8417261 2.0436647 0.5500945 0.16831917 -0.2779141 -0.8705238
00000000: 6c67 8f3f f240 ac3e d779 dd3f e1d8 0640
00000010: 586d 843e 2aa9 e43f 5ad6 1f3f 3201 e83f
00000020: ee74 233f 519d 833f d82f ee3f d49a 1040
00000030: 544a ab3e 8e15 193e 7b05 11bf d8b6 5abf
00000040: c45c 303f c181 d83f 5d5d c6be 309d 933e
00000050: a028 49bf 6b74 cb3e 93b6 e7bf f687 95bf
00000060: 921b 663e e3c0 ffbe 95d9 b33e 7dc4 e1bf
00000070: 08c0 19bf f88b 20bf 871e 9abf 1ed6 eabf
00000080: f13b 4b3f 595d 283f ffc4 163f a90f 6b3f
00000090: fcc5 4fbf 33f9 bbbf e67c 923f 3b38 3f3e
000000a0: 1aa4 01be 2e38 703d 336d fabf 8543 cebf
000000b0: d205 343d 0b9b 0bc0 03d0 d73e 9377 aebf
000000c0: fd69 76bf d93e fbbe 95a1 e5bf ae9f c9bf
000000d0: 6cd0 8cbf 8741 99bf 3dcc 2ebe 667e a33f
000000e0: 05c9 70bd 4544 e8bf d060 4b3f 94f1 0d3d
000000f0: 06cf 333f afbb a83d ada8 913f 318a c13f
00000100: 4e91 193f 9ad2 ea3f 2cba a53e 847e 893f
00000110: 2eee 703f ea19 8e3f 7219 a03f 876f e53f
00000120: 4259 d23e db70 0abf 9361 ce3d ccae 61be
00000130: 35bc 553f 70e4 713f 21e8 35bf 388a 223f
00000140: b95d 243f 6bda c13d f89b 253f 30cd 473f
00000150: a0b3 a53e e4ff 8d3f 7df9 0d3f 0779 ed3e
00000160: 9bdd d53e 7afc 143f afa9 453f 374b 683f
00000170: 571d eb3e 7eae 293d 8e11 b03e f022 9f3d
00000180: b53c 083f 15e6 6f3f f8fb 9cbe ee06 e23e
00000190: a335 a9bf cee6 abbe 5bee 0fbf 8fc3 4a3f
000001a0: 5a08 60bf 8d1d 3f3f 93a4 2bbf 0783 ea3e
000001b0: ac71 95bf 475c afbf e612 63bf 4cba c63e
000001c0: 6c6f bf3e c800 553f 2486 4abe f562 1e3f
000001d0: a2eb 69bf e330 1dbf a4c9 8c3f 9513 66bf
000001e0: 7c3e 40bf 3733 8a3d 4aee a2bf 50f7 86bf
000001f0: 18aa 68be a952 abbf 4854 66bd 52a9 a8bf
00000200: 65a6 37bf 0ac0 54bf ef6f 8dbf d478 cabf
00000210: b494 9e3e b6ca 75be 1be7 593d e36b 153f
00000220: 6dd0 5bbf 598c abbf ea07 303f ef5f 4bbf
00000230: a0ea 2fbf 3e9b d63e 3df7 e3bf 3bdd f4bf
00000240: 4a03 6fbd 33f8 01c0 ddb3 fa3d 3976 1cc0
00000250: 78e2 c5be e61f 66bf d6ea debf 6e07 0ec0
00000260: 758b 003e 38e5 5e3b 7475 ac3e d25d 6b3f
00000270: 27f8 41bf 52ee efbf c575 953f a61b 633d
00000280: 5e9c 10bf c79e 513d dbd8 a0bf 969d 70bf
00000290: 7cc8 fabe 9d7a 45bf c8eb 863d 7e56 73bf
000002a0: 5572 91bf 66c0 2dbf 5f55 51bf cdde 95bf
000002b0: a383 9dbe d450 b03e c9a6 0f3e 4087 9e3e
000002c0: f42a 80bf 907d 99bf 0c43 613f 3a9f 35bf
000002d0: 4a7d 68bf 2732 8c3e 218c 87bf 0ac8 dbbf
000002e0: c31f 0ebf bd9c 01c0 e874 c43e d8ae 02c0
000002f0: e481 72bf 9e74 1fbf a1cd 8fbf 9248 0dc0
00000300: 5765 af3e 01c9 e2bd 5b9d 6e3d fd63 e43e
00000310: e025 40bf eb3e bbbf 5db8 403f baac 2dbe
00000320: b8c5 9fbe 30fc 57bf 3aa6 df3e f72c 853f
00000330: 8307 cd3d 7295 8c3f 9206 173f 50ca 9dbe
00000340: 04bc 69bd 7f2c a3be 7ca6 743e 5d11 aa3b
00000350: 1797 f73e dbce 8f3f 7834 73be 3c53 9a3c
00000360: cab3 393e a2d9 323e 7823 ca3e 2b73 323e
00000370: eb5b 86bf 901f 8abd 2971 3abf 4901 4ebe
00000380: d6c3 5dbf 72a0 46be 6257 76be f6a5 2abd
00000390: 3ec3 61bf 8ab3 6ebf 0d0f 38bf 90a9 95be
000003a0: 4bda 5e3e 2a91 253f 173d b7bd 9a8d 1b3f
000003b0: c697 8bbf b0a6 8dbf 2f92 9b3f e545 2ebf
000003c0: 0e3f 203f c683 ec3d cc65 e23f 0869 1740
000003d0: 1010 fbbd 686d 0840 77e2 bf3e b2ef df3f
000003e0: 7a4b 013f 0fef 323f aebd eb3f 67cb 0240
000003f0: fed2 0c3f dc5b 2c3e c24a 8ebe a6da 5ebf

network_body._body_endoder.seq_layers.2.bias f4 [20]
-0.9979782 0.94708925 0.8847636 -0.8191404 -0.49244893 1.0753542 0.90495193 1.1294004
1.031903 1.0744895 -0.035958648 1.0585948 -0.9535109 1.0355885 1.0960492 -0.89516
-0.6181203 -0.46272838 0.9026559 1.0833306
00000000: 807b 7fbf 7174 723f de7f 623f 2fb3 51bf
00000010: 4422 fcbe 35a5 893f eeaa 673f 3190 903f
00000020: 6615 843f df88 893f 6049 13bd 0980 873f
00000030: 4a19 74bf 2a8e 843f 574b 8c3f 3529 65bf
00000040: 223d 1ebf bcea ecbe 7514 673f 94aa 8a3f

action_model._discrete_distribution.branches.0.weight f4 [11, 20]
-0.08421097 0.007141494 -0.44175923 -0.10532181 -0.09014854 1.2705044 -0.00685405 -0.44330832
0.23963644 -0.63564616 0.434789 0.90785664 0.18270862 -0.6588811 0.50952154 -0.10501421
-0.07287223 -0.01140624 -0.41089216 -0.16262583 -0.021844037 -0.78264594 -0.27746812 -0.031592134
-0.26137376 0.7612784 0.73917115 -0.140058 0.76806086 0.4528273 -0.39374557 0.86158735
-0.27658525 -0.06697799 0.8331694 -0.051932387 -0.027110022 -0.2246521 -0.37918898 0.587336
-0.10669319 -0.17814147 -0.006162796 -0.32380027 -0.34697387 -1.0299959 0.6620935 0.20476425
0.49780563 0.65170085 -0.31517106 -0.057545606 -0.081055835 0.14292026 0.47238314 -0.2650106
0.02253544 -0.43653744 -0.011165257 0.68465734 -1.193526 0.19719931 0.33627868 -1.3415616
-0.42106795 -1.4572055 -0.21170369 0.5589616 -0.79266405 0.57229215 -0.35747832 -1.4376689
-1.0844858 0.36069706 -0.7859658 -1.5226649 -0.3220661 -0.54767704 0.29464993 0.5046578
-1.6389877 0.371199 0.38320324 -0.503749 -0.07926506 -0.4783712 -1.7465742 0.613888
-1.8258582 0.21417718 -0.30817616 -1.3865224 -1.6239465 0.32194218 -2.000374 -1.0127949
-0.7811813 -0.10263793 0.3833326 -0.096787125 -0.8614186 0.44975024 0.40789136 -0.1839342
0.059975494 -0.007661577 -1.0330521 0.44531882 -0.279777 -0.67888963 -0.07125562 0.111012466
-0.8114602 0.38384828 -0.20661013 -0.41190934 -0.58646613 -0.0012189811 0.37581304 -1.3133081
-0.31396744 0.23427184 0.21667376 -0.01822355 0.022931611 0.18382873 0.7397383 0.20266916
0.56843394 -2.233853 0.17389321 0.3764949 -0.18916607 0.2449314 0.62831366 -0.11474178
-0.22653636 0.036029276 0.24633041 -2.0878139 0.08281778 -0.18618588 -0.15104151 0.18855868
0.09242053 0.17797956 0.5944903 -0.25546837 0.30119202 0.005945395 0.3299573 0.21592832
0.1433145 -0.19963565 0.26971385 0.19920704 0.110151716 0.13167846 -0.050593313 0.505944
0.4318734 -0.56871104 -0.4732232 0.2579297 0.11539269 0.37235487 0.27000833 -0.950145
0.33793828 1.519762 0.32893848 0.27015743 0.56515056 -0.7326708 0.23115782 0.32763755
0.26394066 0.11070621 -0.5754972 1.4457589 0.6195832 -1.0772965 -0.78125715 0.32662126
0.13505392 0.41042906 0.3347776 -1.881008 0.3613219 0.98029387 -0.25532106 0.32856455
0.7737345 -1.5216799 0.30891377 0.442713 0.42376634 0.13851343 -1.2390801 0.9875168
0.055434924 -0.09435803 -0.18422243 -0.09940783 -0.120132744 0.1630621 0.064959496 -0.25357908
0.115952805 0.12621865 -0.05886785 0.036598556 0.16358066 -0.18927343 -0.0060079093 -0.036923923
-0.051207945 -0.16166262 -0.11531216 -0.0033488914
00000000: cd76 acbd 3203 ea3b 442e e2be f6b2 d7bd
00000010: cc9f b8bd e39f a23f f097 e0bb 4ff9 e2be
00000020: 4163 753e b5b9 22bf aa9c de3e 4b69 683f
00000030: f817 3b3e 6fac 28bf 0170 023f b111 d7bd
00000040: 093e 95bd 3de1 3abc 7560 d2be 6387 26be
00000050: 44f2 b2bc 7c5b 48bf 4d10 8ebe c166 01bd
00000060: c8d2 85be 24e3 423f 523a 3d3f 5d6b 0fbe
00000070: a39f 443f fbd8 e73e 0599 c9be fd90 5c3f
00000080: 959c 8dbe c22b 89bd 974a 553f 0eb7 54bd
00000090: d615 debc 330b 66be 0f25 c2be a75b 163f
000000a0: f681 dabd b86a 36be 48f1 c9bb 26c9 a5be
000000b0: 8fa6 b1be e8d6 83bf f67e 293f b8ad 513e
000000c0: 61e0 fe3e ded5 263f 1a5e a1be f1b4 6bbd
000000d0: 9a00 a6bd b059 123e 34dc f13e 78af 87be
000000e0: 3e9c b83c d681 dfbe 7bee 36bc b445 2f3f
000000f0: 76c5 98bf 9eee 493e b82c ac3e 4ab8 abbf
00000100: 3896 d7be b685 babf dac8 58be 1b18 0f3f
00000110: 08ec 4abf bd81 123f 6607 b7be 8905 b8bf
00000120: 6ed0 8abf 49ad b83e 0e35 49bf afe6 c2bf
00000130: d9e5 a4be 9034 0cbf 5bdc 963e 4131 013f
00000140: 59ca d1bf cc0d be3e 3733 c43e b2f5 00bf
00000150: b855 a2bd 12ed f4be be8f dfbf c427 1d3f
00000160: b9b5 e9bf 4351 5b3e 44c9 9dbe 9179 b1bf
00000170: 7bdd cfbf 9bd5 a43e 2106 00c0 43a3 81bf
00000180: 7ffb 47bf d633 d2bd 2c44 c43e 5438 c6bd
00000190: ee85 5cbf aa45 e63e 23d7 d03e 3f59 3cbe
000001a0: dda8 753d f70d fbbb 0d3b 84bf d400 e43e
000001b0: ee3e 8fbe b6cb 2dbf 77ee 91bd 815a e33d
000001c0: dbbb 4fbf c387 c43e 9b91 53be c8e5 d2be
000001d0: a522 16bf 38c6 9fba 916a c03e 7b1a a8bf
000001e0: 57c0 a0be f5e4 6f3e badf 5d3e 8e49 95bc
000001f0: 13db bb3c 993d 3c3e 7d5f 3d3f 8188 4f3e
00000200: e384 113f 73f7 0ec0 1011 323e f1c3 c03e
00000210: c0b4 41be 4ccf 7a3e 2ad9 203f bdfd eabd
00000220: 26f9 67be 6f93 133d 0a3e 7c3e be9e 05c0
00000230: 5e9c a93d 83a7 3ebe a0aa 1abe 8715 413e
00000240: fa46 bd3d 4640 363e 8430 183f c0cc 82be
00000250: d735 9a3e 97d1 c23b 2af0 a83e 501c 5d3e
00000260: 09c1 123e 4a6d 4cbe ef17 8a3e eefc 4b3e
00000270: 3997 e13d b8d6 063e ef3a 4fbd 8c85 013f
00000280: 831e dd3e 0c97 11bf 504a f2be 5d0f 843e
00000290: 0153 ec3d 4ca5 be3e 883e 8a3e b43c 73bf
000002a0: 3f06 ad3e 9087 c23f a06a a83e 1352 8a3e
000002b0: b5ad 103f 5090 3bbf a3b4 6c3e 1cc0 a73e
000002c0: 3b23 873e f0b9 e23d c953 13bf a10e b93f
000002d0: 019d 1e3f dae4 89bf 7800 48bf e73a a73e
000002e0: 934b 0a3e c223 d23e f867 ab3e dfc4 f0bf
000002f0: 2fff b83e 8af4 7a3f 71b9 82be 9d39 a83e
00000300: 7713 463f 68c6 c2bf f229 9e3e 47ab e23e
00000310: e7f7 d83e 77d6 0d3e 2d9a 9ebf e7cd 7c3f
00000320: bb0f 633d c83e c1bd cea4 3cbe 5596 cbbd
00000330: 2808 f6bd c0f9 263e 7c09 853d 1ed5 81be
00000340: aa78 ed3d 763f 013e 6a1f 71bd 5ee8 153d
00000350: b081 273e e5d0 41be ffdd c4bb 8a3d 17bd
00000360: 6cbf 51bd e38a 25be c828 ecbd 1379 5bbb

action_model._discrete_distribution.branches.0.bias f4 [11]
0.11428168 0.06624512 0.0037824411 0.3410427 0.3545115 0.17169191 -0.0032538662 -0.1267678
-0.3893811 -0.59796864 -0.25738788
00000000: 830c ea3d 85ab 873d d5e2 773b 269d ae3e
00000010: 8882 b53e 01d0 2f3e d13e 55bb 6bcf 01be
00000020: f65c c7be 7914 19bf 58c8 83be

exp_avg f4 [20, 2]
-0.009373603 0.03703655 -0.010942746 -0.015135121 -0.0018623701 -0.0075937556 -0.0031072318 -0.008233687
-0.0072550266 0.012444707 -0.0032090812 -0.007547662 -0.009190968 0.0038731648 -0.0033877005 -0.009516289
-0.0016953853 0.035491288 -0.008636474 0.042246185 0.00041537482 -0.0033097523 -0.0031859225 -0.0091948705
-0.00017924521 -0.002362799 -0.0019243832 -0.0052336524 -0.010953478 -0.02404892 0.0015234663 -0.031483103
-0.012669738 0.03844271 -0.001613609 -0.0071859392 -0.0071014375 -0.050282236 -0.015161102 0.014910328
00000000: be93 19bc a3b3 173d 3449 33bc 4cf9 77bc
00000010: c51a f4ba 0ad5 f8bb b3a2 4bbb 96e6 06bc
00000020: 93bb edbb e2e4 4b3c 734f 52bb 6152 f7bb
00000030: b795 16bc ecd4 7d3b 2f04 5ebb 36ea 1bbc
00000040: b137 deba 505f 113d ff7f 0dbc 560a 2d3d
00000050: aac6 d939 6ee8 58bb e9ca 50bb 15a6 16bc
00000060: c5f3 3bb9 30d9 1abb 963b fcba 0f7f abbb
00000070: 3776 33bc 3e02 c5bc 0caf c73a 6df4 00bd
00000080: bc94 4fbc 1a76 1d3d bc7f d3ba 0778 ebbb
00000090: 2db3 e8bb bff4 4dbd 4566 78bc 734a 743c

exp_avg_sq f4 [20, 2]
0.044978812 0.042500243 0.0050402167 0.0050571654 0.0026290047 0.0025161572 0.0026500882 0.0025472143
0.0013920871 0.0013167001 0.00232143 0.0022040664 0.00039114355 0.00025686636 0.0029002533 0.0028141304
0.046523344 0.044276986 0.05449895 0.05248474 0.001913454 0.0017562695 0.0033980648 0.003288127
3.928385e-05 0.00013086655 1.259338e-05 0.00010075646 0.008508922 0.012370409 0.0974974 0.083374955
0.047147173 0.044305988 0.0027245185 0.002594828 0.07193935 0.06811704 0.0037387866 0.0036461896
00000000: b43b 383d bc14 2e3d 6728 a53b 94b6 a53b
00000010: 614b 2c3b 1de6 243b 1aad 2d3b 2aef 263b
00000020: b176 b63a 2095 ac3a 2223 183b 1972 103b
00000030: 6612 cd39 05ac 8639 2d12 3e3b 466d 383b
00000040: 438f 3e3d c95b 353d 4a3a 5f3d 3dfa 563d
00000050: ddcc fa3a a032 e63a 11b2 5e3b 9e7d 573b
00000060: b6c4 2438 3939 0939 2848 5337 364d d338
00000070: 0169 0b3c 42ad 4a3c b8ac c73d 7dc0 aa3d
00000080: 651d 413d 327a 353d d68d 323b fd0d 2a3b
00000090: f054 933d f280 8b3d 6e06 753b e9f4 6e3b

exp_avg f4 [20]
0.014674281 -0.0073665264 -0.0013865178 0.00022591348 0.0049088104 0.0012829533 -0.00028067574 -0.0015059013
0.016361352 0.016931403 -0.00056498183 -0.00088016025 -0.00016631956 -0.0020085794 -0.009952097 -0.020578261
0.013370528 -0.0012986937 -0.026029585 0.0055010053
00000000: 656c 703c e762 f1bb d1bb b5ba 30e3 6c39
00000010: 16da a03b c528 a83a a927 93b9 aa61 c5ba
00000020: 3e08 863c bab3 8a3c 4a1b 14ba 8eba 66ba
00000030: 1166 2eb9 5fa2 03bb 1f0e 23bc be93 a8bc
00000040: 0f10 5b3c ee38 aaba ff3b d5bc c741 b43b

exp_avg_sq f4 [20]
0.0033900095 0.00035722015 0.00019548212 0.0002559614 0.00022494141 0.00026808202 4.3504097e-05 0.0002333282
0.003379421 0.004139703 0.00013966075 0.0002782672 7.913844e-06 2.6756383e-05 0.0007174891 0.0065001617
0.0036243163 0.00020129468 0.0052424553 0.0004999934
00000000: ec2a 5e3b 4749 bb39 55fa 4c39 8f32 8639
00000010: 40de 6b39 5c8d 8c39 2b78 3638 90a9 7439
00000020: 4779 5d3b 59a6 873b e671 1239 64e4 9139
00000030: b3c5 0437 e572 e037 e115 3c3a 4fff d43b
00000040: f085 6d3b a112 5339 e7c8 ab3b fd11 033a

exp_avg f4 [20, 20]
-0.0034150102 0.008029909 -0.00034593948 -0.00036880342 -0.004541435 -0.00037576893 -0.007730807 -0.00034772424
-0.0026224975 -0.0022212307 -0.00043035572 -0.00034862693 0.0029057562 0.0017211434 0.0061004655 -0.0042558573
-0.0052485554 -0.00035030895 -0.0018856877 -0.0056680893 -0.0013702152 -0.011942044 0.0011002981 0.001323314
-0.0107359355 0.0014131891 -0.0062230723 0.0012324916 -0.0010903461 -0.0017436424 0.001028435 0.0011959383
-0.0016954181 -0.0001605766 -0.0052875765 -0.004245151 -0.0013217323 0.0010816478 -0.005526704 -0.011871754
0.0013549438 -0.0025160762 0.00070032745 0.0007872326 -0.0010222702 0.0008174866 -0.0014585411 0.0007526379
0.0016047127 0.0015619214 0.0006472257 0.0007407282 -0.00071285816 -0.00026270744 -0.0018873389 -0.0026849394
0.0016710166 0.0006910978 -0.0029716948 -0.0009750283 -0.00019093209 0.0069911215 -0.00046953847 -0.0004020015
0.00277325 -0.0003695446 0.00077735266 -0.00041262098 -9.677761e-05 0.00017832824 -0.0005052217 -0.00043315545
0.0017838929 0.0012575473 0.0037279595 0.0011432744 -0.0006129547 -0.0004777742 0.0022670375 0.0028989594
2.7142949e-05 0.0022576947 -0.00010764973 -9.075979e-05 0.0009298148 -8.2891034e-05 6.336569e-05 -9.349218e-05
8.7742665e-05 0.00019979321 -0.000121512334 -9.799708e-05 0.0006542356 0.00044467175 0.0012189241 9.077623e-05
-0.000109396184 -0.00011004253 0.00045714618 0.0009836626 -4.190361e-05 -0.001940605 0.00015861104 0.00011893996
-0.0009004104 9.883491e-05 -0.0005945891 0.0001334782 -1.775488e-05 -5.3423482e-05 0.00016354716 0.0001422239
-0.0005020757 -0.00046841326 -0.0010109715 -0.00070063263 8.142685e-06 0.00016139128 -0.0009910982 -0.0009331758
0.000468083 -0.0021708452 7.282314e-05 -0.00019982208 0.00088887336 -0.00032719993 0.00074835937 -7.77891e-05
0.00043397705 0.00046687678 0.00014634301 -3.8969145e-05 -0.00028284526 -0.0007990599 -0.0011187078 -0.00033611574
0.0006286576 9.193854e-05 -0.001094893 0.0011779012 0.00028772856 -0.01814237 0.0016691579 0.0017712757
-0.010723254 0.0017973384 -0.005059003 0.0017346786 0.00048474892 -0.00039040644 0.0016295506 0.0017143877
-0.004287058 -0.002176807 -0.00967575 -0.0051626647 0.0010329576 0.0016588046 -0.0076811747 -0.011501474
0.001002143 -0.0024030763 -3.5846217e-05 -0.0003309467 0.0027350027 -0.00046974825 0.0028788217 -0.00019115022
0.0007976567 0.000824502 4.826155e-05 -0.0001533437 -0.00081139733 -0.0013483483 -0.0017212892 0.0011252877
0.0014047286 -1.5749547e-05 6.844545e-05 0.003346325 0.0013971266 -0.004775083 0.00033931312 0.00015303133
0.0009828743 6.852334e-05 0.0014631612 0.0002191 0.0012259046 0.0011632448 0.00040659893 0.00025623597
-7.6007775e-05 -0.00050116744 -0.0014727128 -0.00016112371 0.002044286 0.0003557245 -0.0014347051 0.0013626365
0.00085629825 0.0039988984 -1.2126845e-05 9.530122e-05 0.0024926635 0.00014133328 0.0006835742 5.785994e-05
0.0009716687 0.0011761663 -6.5706925e-05 3.9121005e-05 0.00012013004 0.00031291277 0.0009268231 -8.0490754e-05
0.0008472341 -2.2767495e-05 0.0006214794 0.0027675189 0.00059920567 -0.00438161 0.00011844743 -0.00012406353
0.0008464157 -0.00024009874 0.0017501935 -7.72759e-06 0.0004372839 0.00037527832 0.00017736647 2.3686562e-05
-0.0014768655 -0.0017581248 -0.0027540966 0.00045069522 0.00096138986 0.00013425469 -0.0007207001 0.001243299
-0.004303964 0.007880934 -0.00035047362 -0.00037620464 -0.0065380945 -0.00038398145 -0.009509707 -0.00035227588
-0.0033960082 -0.0030183438 -0.00044142557 -0.00035394976 0.0035013838 0.0021594204 0.006771772 -0.0050694607
00000000: 5dce 5fbb e18f 033c 365f b5b9 f55b c1b9
00000010: 51d0 94bb da02 c5b9 b652 fdbb c24e b6b9
00000020: 35de 2bbb 1192 11bb 5ea1 e1b9 eac7 b6b9
00000030: 806e 3e3b fd97 e13a 6ae6 c73b b874 8bbb
00000040: 13fc abbb aca9 b7b9 2e29 f7ba 61bb b9bb
00000050: cb98 b3ba 90a8 43bc e137 903a 0d73 ad3a
00000060: c7e5 2fbc c23a b93a eaea cbbb 8e8b a13a
00000070: f2e9 8eba ee8a e4ba 8dcc 863a 08c1 9c3a
00000080: cb38 deba 7460 28b9 6843 adbb e81a 8bbb
00000090: fa3d adba 14c6 8d3a 5a19 b5bb bf81 42bc
000000a0: 5f98 b13a c1e4 24bb 2e96 373a 495e 4e3a
000000b0: b2fd 85ba 994c 563a 852c bfba ad4c 453a
000000c0: 3955 d23a 63b9 cc3a 95aa 293a 6e2d 423a
000000d0: 1adf 3aba ffbb 89b9 9660 f7ba cff5 2fbb
000000e0: 0306 db3a ca2a 353a c4c0 42bb 0b99 7fba
000000f0: f134 48b9 c715 e53b 632c f6b9 bac3 d2b9
00000100: 6abf 353b 70bf c1b9 41c7 4b3a 0d55 d8b9
00000110: 15f5 cab8 9ffd 3a39 db70 04ba 2419 e3b9
00000120: 83d1 e93a 49d4 a43a c850 743b ecd9 953a
00000130: b2ae 20ba c57d fab9 9492 143b 78fc 3d3b
00000140: 0ab1 e337 d5f5 133b 02c2 e1b8 4b56 beb8
00000150: d1be 733a c9d5 adb8 32e3 8438 3b11 c4b8
00000160: 7c02 b838 957f 5139 70d4 feb8 c883 cdb8
00000170: 0281 2b3a d522 e939 4ec4 9f3a 1e5f be38
00000180: a16b e5b8 a2c6 e6b8 1fad ef39 3dee 803a
00000190: a9c1 2fb8 e65b feba d450 2639 686f f938
000001a0: 8509 6cba 9745 cf38 33de 1bba 48f6 0b39
000001b0: 51f0 94b7 0713 60b8 db7d 2b39 f021 1539
000001c0: bb9d 03ba 5d95 f5b9 9382 84ba a9aa 37ba
000001d0: 919c 0837 243b 2939 bde7 81ba 5ea0 74ba
000001e0: 0969 f539 bd44 0ebb a0b8 9838 5587 51b9
000001f0: 4803 693a 088c abb9 8c2d 443a b422 a3b8
00000200: 6a87 e339 24c7 f439 a773 1939 cd72 23b8
00000210: d94a 94b9 0178 51ba 9ba1 92ba b138 b0b9
00000220: 7fcc 243a 21cf c038 8382 8fba ce63 9a3a
00000230: 46da 9639 4f9f 94bc a5c7 da3a 262a e83a
00000240: 96b0 2fbc ab94 eb3a fec5 a5bb 285e e33a
00000250: e625 fe39 77af ccb9 a596 d53a 4eb5 e03a
00000260: 737a 8cbb c3a8 0ebb 0987 1ebc 922b a9bb
00000270: 4e64 873a 3f6c d93a 5db2 fbbb ae70 3cbc
00000280: 575a 833a ee7c 1dbb 9559 16b8 ea82 adb9
00000290: bb3d 333b 8b48 f6b9 9daa 3c3b 7f6f 48b9
000002a0: d619 513a 6523 583a 726c 4a38 e3ca 20b9
000002b0: f4b3 54ba 10bb b0ba e29c e1ba 647e 933a
000002c0: df1e b83a e51d 84b7 5f8a 8f38 044e 5b3b
000002d0: ca1f b73a 4d78 9cbb d6e5 b139 0977 2039
000002e0: cad3 803a 30b4 8f38 8bc7 bf3a 35be 6539
000002f0: 88ae a03a 0578 983a c92c d539 6957 8639
00000300: 5d66 9fb8 c760 03ba 0b08 c1ba 51f3 28b9
00000310: 6ef9 053b 8980 ba39 b70c bcba 7e9a b23a
00000320: 3479 603a 3109 833b 6774 4bb7 74dc c738
00000330: f45b 233b dd32 1439 e331 333a a3ae 7238
00000340: 95b7 7e3a 9829 9a3a 23cc 89b8 dc15 2438
00000350: 53ee fb38 710e a439 0cf6 723a 25cd a8b8
00000360: eb18 5e3a d3fc beb7 c7ea 223a 435f 353b
00000370: 0314 1d3a 9c93 8fbb fb66 f838 0d17 02b9
00000380: ffe1 5d3a 04c3 7bb9 c066 e53a bfa5 01b7
00000390: 4043 e539 01c1 c439 73fb 3939 81b2 c637
000003a0: 6293 c1ba e170 e6ba 137e 34bb 4a4b ec39
000003b0: c805 7c3a b8c6 0c39 5ded 3cba 31f6 a23a
000003c0: 4408 8dbb 081f 013c c6bf b7b9 553d c5b9
000003d0: 833d d6bb 1e51 c9b9 9ace 1bbc abb1 b8b9
000003e0: 908f 5ebb 68cf 45bb 236f e7b9 5592 b9b9
000003f0: 7977 653b 1085 0d3b bee5 dd3b b81d a6bb

exp_avg_sq f4 [20, 20]
0.00037988386 0.0023084073 3.952108e-06 3.6042804e-06 0.0035231558 3.2851394e-06 0.0012415062 3.984552e-06
0.00033716625 0.0004554976 3.6294111e-06 3.885187e-06 3.6312078e-05 1.589162e-05 0.0002548961 0.00029303372
0.000587598 3.9133893e-06 0.00038668152 0.004497652 0.0006731044 0.0033368627 4.0757695e-06 3.667512e-06
0.005656549 3.5572953e-06 0.0019669393 4.0483305e-06 0.0006029478 0.00079943216 3.903035e-06 3.8965086e-06
1.9461333e-05 1.1042985e-05 0.00024155913 0.0003741095 0.001017639 4.0694795e-06 0.00054560305 0.007255843
0.0003175009 0.0015193014 2.2495267e-06 2.0410325e-06 0.0027053468 1.8618607e-06 0.0009810273 2.3109085e-06
0.0002820901 0.00037087259 2.0354612e-06 2.244647e-06 4.6466826e-06 2.2669237e-06 0.00010071918 0.00020047884
0.00048646462 2.2148745e-06 0.00027660452 0.0034698863 3.7960395e-05 0.00032466862 9.386466e-07 8.6295984e-07
0.00040384993 7.9275634e-07 0.00015341805 8.9963027e-07 3.317671e-05 4.5441422e-05 8.2520785e-07 9.167064e-07
1.2343192e-05 7.4565996e-06 5.576959e-05 5.0420684e-05 6.0894312e-05 9.299523e-07 5.919777e-05 0.00051214773
3.8612293e-06 4.4067398e-05 1.6253999e-07 1.5268499e-07 5.0299706e-05 1.4699116e-07 1.813714e-05 1.4671538e-07
3.8096014e-06 5.0839913e-06 1.376742e-07 1.5609473e-07 2.3417354e-06 1.7245803e-06 8.957373e-06 7.337347e-06
7.0027268e-06 1.6035588e-07 8.055793e-06 6.249258e-05 3.7214696e-07 7.4958596e-05 5.707322e-07 5.011374e-07
1.0301836e-05 8.650884e-07 1.4890918e-05 3.7773125e-07 4.0786398e-07 4.5620865e-07 8.2448065e-07 3.9128233e-07
1.1959551e-05 1.3760422e-05 3.0208135e-05 2.9441217e-05 7.6809044e-07 6.324924e-07 3.5328285e-05 1.12865355e-05
3.1335778e-06 0.00021904662 1.1745743e-06 1.0278599e-06 8.426675e-05 1.115865e-06 5.6586247e-05 9.831463e-07
2.0714342e-06 3.4806499e-06 1.1588911e-06 1.046282e-06 2.7824426e-05 2.2532347e-05 7.2596435e-05 4.7848025e-05
5.8774262e-06 1.200675e-06 5.052937e-05 0.00010268056 0.002063541 0.009837112 1.0408177e-05 9.116345e-06
0.016968371 8.285222e-06 0.0059035723 1.02519925e-05 0.0018569159 0.0024475756 9.675358e-06 9.977942e-06
3.523263e-05 1.6917393e-05 0.0006291769 0.001035816 0.0031001247 1.0337517e-05 0.0015491241 0.021784326
1.1485968e-06 0.00016669586 9.545449e-07 6.963806e-07 4.549582e-05 7.2202783e-07 3.6529338e-05 7.140402e-07
6.8708215e-07 1.274767e-06 1.0076108e-06 7.831604e-07 2.3107827e-05 1.9917246e-05 5.8810565e-05 3.781409e-05
2.3542543e-06 9.91899e-07 4.166308e-05 5.3969925e-05 8.1042075e-05 0.0011727604 3.933767e-06 4.259253e-06
0.0010933138 4.4855387e-06 0.00051118265 4.085291e-06 6.462975e-05 9.350437e-05 3.486309e-06 4.0438795e-06
6.756215e-05 3.5852983e-05 0.00024915248 0.00021872345 0.00012732609 3.8924372e-06 0.00023271117 0.001378834
7.882917e-05 0.00016442672 3.0986325e-07 4.476854e-07 0.0005891484 6.007168e-07 0.0002858556 4.0024534e-07
6.409022e-05 7.868111e-05 2.3577851e-07 3.5073114e-07 7.871233e-07 1.2171953e-06 2.1273115e-06 7.609091e-05
0.0001329494 3.0013322e-07 7.540375e-05 0.00076727825 4.9647815e-07 0.00011716181 7.6704816e-07 4.590578e-07
2.3613016e-05 5.0406834e-07 2.1819313e-05 4.835884e-07 3.7773773e-07 6.304641e-07 8.875883e-07 5.5434333e-07
1.7509112e-05 1.6259228e-05 4.362433e-05 2.9765555e-05 1.1359149e-06 8.1546744e-07 3.4180557e-05 2.7084427e-05
0.00048023308 0.0028611717 4.5798593e-06 4.2736483e-06 0.004385729 3.962343e-06 0.0015337461 4.658442e-06
0.00042663194 0.0005762699 4.2133856e-06 4.5206125e-06 4.3577053e-05 1.9901861e-05 0.00030507907 0.00035027106
00000000: 262b c739 a648 173b 599c 8436 11e1 7136
00000010: bfe4 663b 4476 5c36 09ba a23a 0bb3 8536
00000020: b0c5 b039 dacf ee39 cf90 7336 815d 8236
00000030: cc4d 1838 fe4e 8537 93a3 8539 52a2 9939
00000040: 0909 1a3a c24f 8336 84bb ca39 0a61 933b
00000050: 4673 303a 44af 5a3b 98c2 8836 601f 7636
00000060: 925a b93b deb9 6e36 c4e7 003b e5d6 8736
00000070: 240f 1e3a fc90 513a d1f6 8236 c1be 8236
00000080: e540 a337 4245 3937 094b 7d39 2124 c439
00000090: 4c62 853a 908c 8836 cd06 0f3a 6cc2 ed3b
000000a0: 4076 a639 4c23 c73a 93f6 1636 acf8 0836
000000b0: 304c 313b 0ce5 f935 d095 803a 1b15 1b36
000000c0: 7ee5 9339 ad71 c239 f598 0836 bea2 1636
000000d0: b3ea 9b36 7421 1836 3339 d338 a137 5239
000000e0: 2d0c ff39 41a3 1436 3b05 9139 0867 633b
000000f0: aa37 1f38 4938 aa39 4ef7 7b35 26a6 6735
00000100: d2bb d339 cdcd 5435 d8de 2039 1f7e 7135
00000110: 3927 0b38 5b98 3e38 da83 5d35 9613 7635
00000120: 9b15 4f37 b433 fa36 24ea 6938 cc7a 5338
00000130: c568 7f38 d6a1 7935 1f4b 7838 a741 063a
00000140: b58f 8136 02d5 3838 a786 2e34 bbf1 2334
00000150: e6f8 5238 9fd4 1d34 3625 9837 d188 1d34
00000160: 74a8 7f36 2797 aa36 99d3 1334 fe9a 2734
00000170: b526 1d36 2178 e735 a047 1637 5533 f636
00000180: f7f8 ea36 4a2e 2c34 5e27 0737 730e 8338
00000190: 7dcb c734 1733 9d38 6b34 1935 e685 0635
000001a0: 0cd6 2c37 6c38 6835 01d4 7937 fdca ca34
000001b0: 66f8 da34 d7ec f434 e151 5d35 6f11 d234
000001c0: e1a5 4837 90dc 6637 7a67 fd37 88f8 f637
000001d0: c62e 4e35 8cc8 2935 752d 1438 4d5b 3d37
000001e0: 754a 5236 e1af 6539 11a6 9d35 fff4 8935
000001f0: 5eb8 b038 d4c4 9535 0557 6d38 a6f4 8335
00000200: f802 0b36 1c95 6936 328b 9b35 fa6d 8c35
00000210: 8068 e937 d903 bd37 ea3e 9838 6db0 4838
00000220: b536 c536 e126 a135 7fef 5338 3556 d738
00000230: 793c 073b d72b 213c c89e 2e37 67f2 1837
00000240: 4101 8b3c c200 0b37 c172 c13b f9ff 2b37
00000250: c263 f33a 8167 203b 5953 2237 ef66 2737
00000260: c0c6 1338 d3e9 8d37 59ef 243a 38c4 873a
00000270: 762b 4b3b 4c6f 2d37 fb0b cb3a 0b75 b23c
00000280: 7c29 9a35 14cb 2e39 ea1d 8035 e9ee 3a35
00000290: c4d2 3e38 60d1 4135 1437 1938 78ac 3f35
000002a0: ed6f 3835 a918 ab35 3e3d 8735 5f3a 5235
000002b0: aed7 c137 f613 a737 5dab 7638 929a 1e38
000002c0: c8fd 1d36 6421 8535 64bf 2e38 c45d 6238
000002d0: 22f5 a938 4fb7 993a cdfe 8336 b4ea 8e36
000002e0: 864d 8f3a 7c82 9636 e300 063a 6214 8936
000002f0: d589 8738 c717 c438 55f6 6936 a9b0 8736
00000300: 27b0 8d38 d960 1638 aea0 8239 2159 6539
00000310: d682 0539 c89b 8236 ee03 7439 feb9 b43a
00000320: 1751 a538 f669 2c39 485b a634 6a59 f034
00000330: 1471 1a3a f240 2135 e4de 9539 4de1 d634
00000340: 2d68 8638 9901 a538 4e2a 7d34 1f4c bc34
00000350: b44a 5335 835e a335 efc2 0e36 ff92 9f38
00000360: 5568 0b39 ff21 a134 1422 9e38 2c23 493a
00000370: b845 0535 c5b4 f538 26e7 4d35 6c74 f634
00000380: 9114 c637 504f 0735 9e08 b737 f1cf 0135
00000390: e1cb ca34 2a3d 2935 9b42 6e35 2fce 1435
000003a0: 88e0 9237 6d64 8837 45f9 3638 0bb1 f937
000003b0: bd75 9835 7fe6 5a35 185d 0f38 5d33 e337
000003c0: cbc7 fb39 7f82 3b3b b1ac 9936 5c66 8f36
000003d0: 29b6 8f3b 44f4 8436 fb07 c93a b64f 9c36
000003e0: 92ad df39 d110 173a b560 8d36 c4af 9736
000003f0: 81c6 3638 ecf2 a637 05f3 9f39 96a4 b739

exp_avg f4 [20]
0.0006102393 -0.0029811573 -0.0016929626 0.0016548597 0.00040109485 -0.0006127035 -0.0009535733 -0.0048657837
-0.00062371354 -0.0014478968 0.000509261 -0.0010168592 0.0004931229 -0.0047859256 -0.00038537662 0.0011029828
0.0012979929 0.0005944292 -0.0033281015 -0.00070605567
00000000: 77f8 1f3a 855f 43bb 66e6 ddba e1e7 d83a
00000010: 0a4a d239 d69d 20ba 39f9 79ba 2771 9fbb
00000020: b580 23ba 5bc7 bdba ed7f 053a 2248 85ba
00000030: eb44 013a 41d3 9cbb 600c cab9 f691 903a
00000040: 6a21 aa3a 78d3 1b3a 471c 5abb 9816 39ba

exp_avg_sq f4 [20]
8.630764e-05 0.00011311056 5.5959415e-05 1.5624953e-05 2.6038033e-06 1.5587653e-05 1.8445333e-05 0.00030375985
1.5997512e-05 5.727844e-05 1.1362654e-05 1.5093244e-05 0.000103316524 0.00019594014 1.8625842e-05 3.3352997e-05
2.3848183e-05 4.0261143e-06 0.00014746653 3.60802e-05
00000000: 1000 b538 c535 ed38 f7b5 6a38 5512 8337
00000010: 00bd 2e36 3bc2 8237 0dbb 9a37 f541 9f39
00000020: 6532 8637 423e 7038 3aa2 3e37 fd38 7d37
00000030: a3ab d838 4875 4d39 b13e 9c37 82e4 0b38
00000040: 950d c837 0f18 8736 3fa1 1a39 d254 1738

exp_avg f4 [11, 20]
-0.00012684161 0.0040189093 -2.843571e-05 -0.000119877615 9.2983326e-05 0.0027275917 0.0015424086 0.0027618196
0.0018746922 0.0017928737 0.00021035036 0.0026752132 -0.00016328324 0.002943281 0.002347571 -0.00013505679
-0.0001420823 5.4017386e-05 0.002609203 0.002032622 0.0001266392 -0.003992329 5.2267118e-05 0.000119190474
-9.1062866e-05 -0.0027305186 -0.0015331281 -0.0027365896 -0.0018673715 -0.0017766258 -0.00020547486 -0.0026701952
0.00016294463 -0.0029210383 -0.0023387792 0.00013460664 0.00014169971 -5.33486e-05 -0.0025853785 -0.0020173416
-7.600217e-05 0.0001675792 0.0057768775 0.0003690506 0.0024146507 -0.0031001575 -0.0024193285 0.00089354033
-0.0033953225 -0.0006466397 0.0021675942 -0.0051172227 -2.5963933e-05 -0.0003474294 -0.0038745631 -7.220942e-05
-5.0827228e-05 0.0017532898 0.001055268 -0.0011854726 0.0001446788 -0.003798769 -0.008931968 -0.00038856492
-0.0030382052 0.0031575647 0.0016659471 -0.0043013073 0.002869452 -0.0012078609 -0.002433606 0.005030754
9.904541e-05 -0.0027120481 0.0031943652 0.00014994555 0.00013075865 -0.0022438997 -0.004147108 -0.00058104773
0.0054970267 0.014720579 0.023319699 0.013448027 0.01282989 -5.1950265e-05 0.0002723438 0.013865689
0.0006152493 0.0015688181 0.0061377967 0.00023494563 0.0044179866 0.009554476 0.0007929015 0.010918227
0.0015358315 0.011540646 0.0129480455 0.00094447256 0.007712048 -0.007115649 -0.02117481 0.0028762962
0.0007757049 -7.2453663e-06 0.000872777 -0.011601006 9.205561e-05 -0.004784853 -0.002592551 -0.00014725192
0.008169784 -0.006254462 1.6950999e-05 0.0038682912 0.0057723415 -0.00013190172 -0.008891423 -0.003089195
-0.024243023 -0.043005448 -0.021936156 -0.04298438 -0.038864817 3.4307573e-07 -0.00031007946 -0.029887298
-0.00016275479 0.0063687167 -0.0035020306 -1.00920215e-05 -0.02129133 -0.032686237 -0.000128119 -0.036156017
-0.0075789723 -0.034171857 -0.031076 0.005565448 0.05029745 0.010828615 0.02862235 0.06621379
0.048833225 3.940598e-06 -8.1565224e-05 0.0028288327 -2.3891422e-05 2.1947242e-05 -0.0027408209 3.4870973e-06
0.04243757 -0.00018252173 -9.869946e-06 0.061458234 0.02215658 0.04736967 0.00082864484 -0.00057712465
-0.046854485 0.0016721904 -0.037364174 -0.05811044 -0.04097078 4.226564e-07 -9.026072e-06 0.002854687
-2.030093e-06 -0.001194882 0.004115557 3.5366074e-07 -0.038859796 0.010994335 -4.4982787e-07 -0.05477351
-0.02227925 -0.04077021 0.0072432985 -0.00096653885 0.007522427 0.0265045 0.031664368 0.018577108
0.018018367 6.8635373e-09 -3.5111134e-07 0.025321739 -8.109127e-08 -0.00014148574 -0.0011567991 4.82704e-09
0.005053077 0.021611784 -1.4136003e-08 0.014607559 0.000313925 0.01665376 0.022015546 -0.00012582143
-4.6621555e-08 -1.1279159e-07 -1.7251576e-08 -9.041321e-08 -8.6516366e-08 4.4091464e-09 3.0141132e-09 -7.363737e-08
3.1754381e-09 1.5194643e-09 -2.4525793e-09 4.2991797e-09 -4.1945437e-08 -9.106687e-08 4.159612e-09 -7.352567e-08
-1.4691204e-08 -7.239899e-08 -8.10618e-08 3.9106496e-09
00000000: c900 05b9 0eb1 833b 3989 eeb7 ce66 fbb8
00000010: 0b00 c338 65c1 323b a52a ca3a a5ff 343b
00000020: 3bb8 f53a dcfe ea3a 7f91 5c39 a152 2f3b
00000030: 0337 2bb9 10e4 403b b5d9 193b 089e 0db9
00000040: edfb 14b9 ba90 6238 2aff 2a3b bd35 053b
00000050: 74ca 0439 15d2 82bb 6439 5b38 e6f5 f938
00000060: 01f9 beb8 80f2 32bb 3ef3 c8ba 5b58 33bb
00000070: 97c2 f4ba abdd e8ba bd74 57b9 71fe 2ebb
00000080: 1edc 2a39 e46e 3fbb 3446 19bb 3225 0d39
00000090: 3a95 1439 a0c2 5fb8 746f 29bb 6035 04bb
000000a0: 5b63 9fb8 33b8 2f39 f64b bd3b 227d c139
000000b0: 1e3f 1e3b 032c 4bbb 998d 1ebb 7a3c 6a3a
000000c0: 0f84 5ebb 4183 29ba 320e 0e3b 60ae a7bb
000000d0: 1fcd d9b7 2f27 b6b9 62ec 7dbb 236f 97b8
000000e0: 522f 55b8 a5ce e53a eb50 8a3a dc61 9bba
000000f0: ebb4 1739 c5f4 78bb 6457 12bc 4db8 cbb9
00000100: a01c 47bb 25ef 4e3b e95b da3a fbf1 8cbb
00000110: 6a0d 3c3b 1651 9eba 227d 1fbb 06d9 a43b
00000120: 99b6 cf38 9ebc 31bb 8e58 513b b43a 1d39
00000130: 421c 0939 640e 13bb 77e4 87bb 7451 18ba
00000140: 6720 b43b 952e 713c f408 bf3c 1d55 5c3c
00000150: 7534 523c 2ce5 59b8 5ec9 8e39 ea2c 633c
00000160: ae48 213a cda0 cd3a 921f c93b bd5b 7639
00000170: c2c4 903b 608a 1c3c b8da 4f3a 5de2 323c
00000180: f44d c93a fa14 3d3c 0a24 543c 7b96 773a
00000190: 59b5 fc3b 642a e9bb cc76 adbc 3e80 3c3b
000001a0: ad58 4b3a 391d f3b6 13cb 643a 2512 3ebc
000001b0: fb0d c138 42ca 9cbb cae7 29bb a367 1ab9
000001c0: 8fda 053c 3bf2 ccbb fe31 8e37 2883 7d3b
000001d0: e925 bd3b 194f 0ab9 55ad 11bc 1774 4abb
000001e0: 4e99 c6bc 7b26 30bd 74b3 b3bc 6410 30bd
000001f0: b730 1fbd f82f b834 2992 a2b9 35d6 f4bc
00000200: 28a9 2ab9 abb0 d03b 5382 65bb e750 29b7
00000210: 286b aebc 01e2 05bd af57 06b9 5518 14bd
00000220: 0759 f8bb caf7 0bbd 1893 febc 5d5e b63b
00000230: b304 4e3d 816a 313c 6b79 ea3c 189b 873d
00000240: 5905 483d 7b39 8436 ff0d abb8 f063 393b
00000250: 706a c8b7 581b b837 589f 33bb e003 6a36
00000260: 04d3 2d3d 4e63 3fb9 1897 25b7 a1bb 7b3d
00000270: b781 b53c b306 423d 6a39 593a 2e4a 17ba
00000280: 7dea 3fbd 662d db3a 2d0b 19bd 3605 6ebd
00000290: fad0 27bd 74e9 e234 af6e 17b7 b315 3b3b
000002a0: bb3c 08b6 969d 9cba cbdb 863b c3de bd34
000002b0: 732b 1fbd 9521 343c df7f f1b4 305a 60bd
000002c0: f982 b6bc aafe 26bd 3159 ed3b 535f 7dba
000002d0: b17e f63b f71f d93c 7fb2 013d 052f 983c
000002e0: 419b 933c 50d4 eb31 6080 bcb4 896f cf3c
000002f0: 6624 aeb3 ca5b 14b9 bd9f 97ba 18db a531
00000300: 4894 a53b 320b b13c ccda 72b2 8b54 6f3c
00000310: 4d96 a439 776d 883c f259 b43c efee 03b9
00000320: f13c 48b3 d537 f2b3 9e30 94b2 3029 c2b3
00000330: e0ca b9b3 437f 9731 d720 4f31 9322 9eb3
00000340: e636 5a31 66d5 d030 3b8a 28b1 fcb7 9331
00000350: 7f27 34b3 8b90 c3b3 56ec 8e31 2ae5 9db3
00000360: 9964 7cb2 c479 9bb3 3214 aeb3 705e 8631

exp_avg_sq f4 [11, 20]
2.3572825e-06 6.664566e-05 1.9095767e-05 1.036468e-05 3.6314545e-05 7.9097306e-05 1.4276258e-05 4.2404004e-05
1.9340921e-05 1.393452e-05 6.9171956e-06 5.4770368e-05 2.3141577e-06 3.4410477e-05 3.6888563e-05 4.4540348e-06
1.7367739e-06 2.6580874e-05 2.747102e-05 2.2135715e-05 2.1276658e-06 0.00032894436 0.00013536883 1.033675e-05
3.815115e-05 0.00012675728 7.426673e-05 0.00025678382 7.1902985e-05 9.9321995e-05 1.0220711e-05 0.00012704951
2.4558003e-06 0.0002244853 0.0001255749 3.6461295e-06 2.7191584e-06 2.7018545e-05 0.00019008399 0.0001322834
2.3833697e-06 0.00079750834 0.00034658477 1.4205921e-05 7.578517e-05 5.0974013e-05 9.944909e-05 0.0006352896
8.1686296e-05 0.0002232375 1.0586402e-05 9.151402e-05 1.3215164e-06 0.00062488916 0.00012959831 4.7897233e-06
3.2407322e-06 4.6022935e-05 0.00052649196 0.0002362444 4.432281e-06 0.0012909701 0.0006766528 4.5778917e-05
0.00015495959 1.0302245e-05 6.0480423e-05 0.0010538164 3.9682112e-05 0.00026804622 1.822471e-05 3.305852e-05
4.1432168e-06 0.0010348707 6.271136e-05 1.9388159e-05 2.002513e-06 9.137456e-05 0.00088615774 0.0002479401
6.598171e-05 0.0022533867 0.0014141916 0.00042804034 0.0007568328 9.46865e-07 1.7594753e-05 0.0015850731
1.0143378e-05 0.0002003575 8.0784856e-05 2.189496e-06 5.492672e-05 0.0016031789 1.5593272e-05 0.00023349075
8.89955e-06 0.000501707 0.0015072222 0.00014747289 0.0008383205 0.00473007 0.003145997 0.0031066758
0.003713247 1.3641671e-06 5.0863405e-06 0.0029802297 2.682673e-06 0.00012990758 0.00021696887 1.5348794e-06
0.000653327 0.0030449147 2.4935728e-06 0.0020883135 0.00012764936 0.002806497 0.0029754806 8.8807144e-05
0.0060522677 0.008749662 0.0061947317 0.015528512 0.012600562 9.859045e-07 1.7619981e-06 0.0045755985
1.0121249e-06 6.649383e-05 0.000348033 6.600169e-07 0.0045729647 0.0047503505 8.0810577e-07 0.011813755
0.0010227322 0.010512377 0.004792706 3.616662e-05 0.034510992 0.015263326 0.012294115 0.07116627
0.04833225 1.911658e-06 1.0808747e-06 0.005741714 1.1756881e-06 7.976315e-06 0.00043827784 1.8159798e-06
0.02604829 0.006058549 1.632121e-06 0.05809018 0.0065782773 0.042473733 0.0064750575 7.8392795e-06
0.042553954 0.011356176 0.009341539 0.08276891 0.05188011 1.03675625e-07 1.14026165e-07 0.0031124826
1.0686843e-07 2.422967e-06 0.00020562051 9.076728e-08 0.03206256 0.0034742896 1.113421e-07 0.068717316
0.008626677 0.046161328 0.0035961494 1.585849e-06 0.030610025 0.0056701247 0.005238506 0.0564387
0.03515915 1.3996339e-07 1.2491388e-07 0.0013687632 1.3177214e-07 6.053653e-07 8.227338e-05 1.1211149e-07
0.023052184 0.0014459933 1.2223381e-07 0.047728702 0.0061768442 0.031665035 0.0016492534 3.51975e-07
3.259886e-06 1.4274409e-06 3.0101849e-06 9.03578e-06 2.5050555e-05 5.900419e-08 7.277697e-08 2.9412317e-06
5.4781427e-08 7.600324e-08 7.9521106e-07 5.2065182e-08 1.1075472e-06 2.1780531e-06 7.181076e-08 4.992638e-06
7.784455e-07 1.8050292e-05 1.5098406e-06 1.3897811e-07
00000000: ce31 1e36 1ec4 8b38 d92f a037 f6e3 2d37
00000010: 7250 1838 0be1 a538 1084 6f37 f4da 3138
00000020: 503e a237 4fc8 6937 421a e836 3cb9 6538
00000030: ed4c 1b36 f853 1038 cbb8 1a38 de73 9536
00000040: 191b e935 fef9 de37 9171 e637 16b0 b937
00000050: 05c9 0e36 2a76 ac39 cbf1 0d39 016c 2d37
00000060: 7c04 2038 26ea 0439 a6bf 9b38 f1a0 8639
00000070: 9fca 9638 174b d038 9f79 2b37 9838 0539
00000080: 54ce 2436 d063 6b39 c1ac 0339 07b0 7436
00000090: c97a 3636 e2a5 e237 4851 4739 8eb5 0a39
000000a0: fbf1 1f36 e10f 513a d2b5 b539 f755 6e37
000000b0: daee 9e38 eecc 5538 538f d038 9089 263a
000000c0: ff4e ab38 dc14 6a39 409c 3137 37eb bf38
000000d0: f55e b135 9acf 233a c8e4 0739 69b7 a036
000000e0: 5b7b 5936 c008 4138 4704 0a3a 60b8 7739
000000f0: 01b9 9436 c535 a93a 6761 313a bd02 4038
00000100: a67c 2239 ced7 2c37 5cac 7d38 3620 8a3a
00000110: 5870 2638 8e88 8c39 44e1 9837 51a8 0a38
00000120: f605 8b36 80a4 873a e883 8338 c1a3 a237
00000130: e962 0636 58a0 bf38 0a4d 683a f5fd 8139
00000140: a95f 8a38 8ead 133b 655c b93a 9a6a e039
00000150: 3066 463a 112c 7e35 7298 9337 3ac2 cf3a
00000160: 7a2d 2a37 0f17 5239 0a6b a938 41ef 1236
00000170: 1e61 6638 c221 d23a 4cce 8237 32d5 7439
00000180: 474f 1537 fd84 033a fc8d c53a f4a2 1a39
00000190: bdc2 5b3a b4fe 9a3b 122d 4e3b 5f99 4b3b
000001a0: f259 733b 6d18 b735 55ab aa36 f54f 433b
000001b0: f907 3436 cd37 0839 2382 6339 0e02 ce35
000001c0: 0844 2b3a 318d 473b 4157 2736 16dc 083b
000001d0: 9dd9 0539 35ed 373b 4800 433b f93d ba38
000001e0: 1a52 c63b be5a 0f3c 2dfd ca3b 4d6b 7e3c
000001f0: 9672 4e3c 6c53 8435 cb7d ec35 e7ee 953b
00000200: 59d8 8735 9a72 8b38 3378 b639 042c 3135
00000210: cfd8 953b d4a8 9b3b 9bec 5835 7b8e 413c
00000220: 330d 863a 1b3c 2c3c 220c 9d3b 9db1 1738
00000230: 665b 0d3d 0713 7a3c 416d 493c 9fbf 913d
00000240: 0af8 453d 094a 0036 9212 9135 fd24 bc3b
00000250: 56cc 9d35 03d2 0537 a8c8 e539 97bc f335
00000260: 3963 d53c cb86 c63b 400f db35 f8ef 6d3d
00000270: 978e d73b f0f8 2d3d b82c d43b 7385 0337
00000280: 0e4d 2e3d 410f 3a3c 410d 193c bf82 a93d
00000290: 3d80 543d 47a4 de33 8cde f433 cbfa 4b3b
000002a0: 8a7f e533 429a 2236 d69b 5739 d7eb c233
000002b0: 0854 033d e8b0 633b f81a ef33 aabb 8c3d
000002c0: e856 0d3c a913 3d3d 60ad 6b3b 5bd9 d435
000002d0: e0c1 fa3c 74cc b93b c6a7 ab3b 442c 673d
000002e0: 0a03 103d d848 1634 1120 0634 1268 b33a
000002f0: 407d 0d34 6380 2235 2f8a ac38 f2c1 f033
00000300: efd7 bc3c 7c87 bd3a 603f 0334 2c7f 433d
00000310: 2067 ca3b 32b3 013d c32b d83a 13f7 bc34
00000320: 6ac4 5a36 7f96 bf35 9502 4a36 6198 1737
00000330: a823 d237 cb6b 7d33 9049 9c33 fa61 4536
00000340: d148 6b33 3937 a333 7d76 5535 469e 5f33
00000350: 08a7 9435 ab2a 1236 6236 9a33 6f86 a736
00000360: 5ef6 5035 b56a 9737 baa5 ca35 033a 1534

exp_avg f4 [11]
0.00052369037 -0.0005212956 -0.00015600056 -0.00022295401 0.0017801635 -0.0010238233 -0.00422083 0.0029379635
-0.0021782704 0.0030813664 -9.281538e-09
00000000: 4448 093a 8ea7 08ba 1594 23b9 c3c8 69b9
00000010: 6054 e93a cf31 86ba e34e 8abb d98a 403b
00000020: 50c1 0ebb c0f0 493b a374 1fb2

exp_avg_sq f4 [11]
6.9209473e-06 1.7289949e-05 2.0732085e-05 3.7157384e-05 3.896552e-05 0.00010646773 0.00016706427 0.00034606806
0.00027440852 0.00017410566 2.3064772e-06
00000000: 7c3a e836 e209 9137 d0e9 ad37 70d9 1b38
00000010: e96e 2338 6d47 df38 f92d 2f39 7870 b539
00000020: 7dde 8f39 2290 3639 fac8 1a36

exp_avg f4 [20, 2]
0.001173874 0.0012550461 -0.0022882354 -0.0011428567 -0.00042708212 -0.0007847031 0.00075849786 0.0007026878
-8.028017e-06 0.0003244309 0.0008727224 0.0029857515 0.00428421 0.0037589322 -0.002492126 -0.0017623515
7.888208e-05 0.00021370058 -0.0010723667 -0.0002994754 0.001569468 -0.00012012147 -0.00066419435 -0.002754593
-0.001010473 -0.0010657465 0.00041057507 0.0006414741 -0.0023039603 -0.0068383897 0.00035802732 -0.0015205885
0.00053093093 0.0015026506 -0.0016342552 -0.0033967814 -0.00010695949 0.0027679258 -0.002380347 -0.0017046122
00000000: addc 993a 5c80 a43a 38f6 15bb e8cb 95ba
00000010: fee9 dfb9 89b4 4dba eed5 463a 9434 383a
00000020: 12b0 06b7 6118 aa39 69c7 643a 99ac 433b
00000030: 8f62 8c3b 6b58 763b f052 23bb b4fe e6ba
00000040: 7f6d a538 d014 6039 a88e 8cba e802 9db9
00000050: 9bb6 cd3a b9e9 fbb8 541d 2eba 6786 34bb
00000060: d971 84ba 85b0 8bba 7442 d739 9928 283a
00000070: 0afe 16bb 9214 e0bb 9db5 bb39 7c4e c7ba
00000080: 2c2e 0b3a 96f4 c43a 8134 d6ba 899c 5ebb
00000090: 704f e0b8 1766 353b 99ff 1bbb 4b6d dfba

exp_avg_sq f4 [20, 2]
8.344264e-05 7.110674e-05 7.672137e-06 6.363018e-06 1.647913e-06 2.6921246e-06 0.00014421833 0.00014821744
2.1070828e-05 6.5756714e-05 0.0009930753 0.00060149474 0.00051679555 0.0005010726 0.00010908813 4.7210113e-05
0.00042382642 0.00029800454 4.2177267e-06 1.8742154e-06 0.0001708289 4.087715e-05 0.0012532432 0.00070692034
1.9452365e-05 1.997538e-05 0.00032235295 0.00017845881 1.1935211e-05 0.00024855632 0.00039163601 0.0005557697
0.00022459029 0.00014248664 1.0953126e-05 1.0087357e-05 4.1119678e-05 0.00010127046 0.00029494075 0.00011534251
00000000: edfd ae38 241f 9538 94b7 0037 e981 d536
00000010: dc2d dd35 59aa 3436 5039 1739 d16a 1b39
00000020: 42c1 b037 dee6 8938 142a 823a a1ad 1d3a
00000030: 9079 073a 6a5a 033a 3ec6 e438 7903 4638
00000040: 0535 de39 7e3d 9c39 ff85 8d36 8d8d fb35
00000050: 8920 3339 8173 2b38 dd43 a43a 9f50 393a
00000060: a32d a337 cd90 a737 7b01 a939 ac20 3b39
00000070: 573d 4837 aa50 8239 7f54 cd39 13b1 113a
00000080: ff7f 6b39 7768 1539 51c3 3737 de3c 2937
00000090: eb77 2c38 2a61 d438 47a2 9a39 0ae4 f138

exp_avg f4 [20]
0.00044101206 -0.00042065926 -5.5821747e-05 0.00069160934 3.6798021e-06 -0.00018290032 0.0002328046 -0.0008921903
0.0018414586 2.9375757e-05 0.0008512539 0.00014588049 -0.00066062115 0.00034793484 -0.0017077068 -0.0012447217
-5.958568e-05 -0.0008276307 0.0013105487 -0.00055952644
00000000: a337 e739 ee8b dcb9 2522 6ab8 1e4d 353a
00000010: 85f2 7636 eec8 3fb9 021d 7439 e1e1 69ba
00000020: 195d f13a f56b f637 af26 5f3a 7ff7 1839
00000030: 892d 2dba 066b b639 22d5 dfba ee25 a3ba
00000040: a3eb 79b8 5bf5 58ba b8c6 ab3a 2fad 12ba

exp_avg_sq f4 [20]
9.305571e-06 5.291002e-07 6.143767e-07 1.7892222e-05 4.195516e-06 6.853713e-05 3.928654e-05 1.0810422e-05
3.8277987e-05 5.54653e-07 1.1047262e-05 9.211152e-05 2.8978338e-06 2.5406662e-05 1.6108967e-05 4.5873618e-05
1.6095848e-05 8.9150564e-07 8.579475e-06 1.894196e-05
00000000: 201f 1c37 7d07 0e35 a5eb 2435 4117 9637
00000010: 35c7 8c36 97bb 8f38 9ac7 2438 695e 3537
00000020: ad8c 2038 77e3 1435 a157 3937 ff2b c138
00000030: 6878 4236 6420 d537 be21 8737 6c68 4038
00000040: 9205 8737 cd4f 6f35 91f0 0f37 8de5 9e37
