results/SumOfNumbers/SumOfNumbers/SumOfNumbers-107850.onnx (onnx, 124123 bytes, 6 tensors)

network_body._body_endoder.seq_layers.0.weight f4 [128, 2]
00000000: 29ee abbe 1f77 543f 931e 603e 6528 cfbe
00000010: a576 813f 26f1 ab3e 8fbf 6d3f 4d66 57bf
00000020: d647 0a3f 92a8 883e f2b9 073f e66a debe
00000030: 6dbe e4be 2fff c93e 3450 79bd 8995 c4be
00000040: edf2 073f 30b6 18bf a63a 9a3f 5e47 253f
00000050: f762 82bd 3853 a0be 8f51 b3be f467 183f
00000060: 22a4 2d3d d350 2b3e 0307 17be 6cd4 fcbe
00000070: d218 243f 7293 dc3e 2615 883e cf54 91bd
00000080: 01b6 313f 4fd7 35be 35d0 21bf 76b3 bbbe
00000090: ec66 503f 4248 f93c 3e8f 5a3f 7f46 95bd
000000a0: 95d3 69bf e568 a33f b86e 533f 6954 123c
000000b0: e3ce 873e 4d70 4bbe e1e8 8f3d aa9d 873d
000000c0: 692d c0bd 0b19 c93e da55 b6bf 6791 6d3f
000000d0: 44cd c73e a579 893f b636 653d 34dd 7c3f
000000e0: 39a4 603f 843e aa3e 24b3 213f 6a58 413d
000000f0: e1f1 7fbf e5bb 1a3f 69e8 df3c 4b4d 933f
00000100: a426 34bf e99c 433d ccec c2be beb6 aa3e
00000110: b5d1 b2be aeaf 9ebe 2383 953e 7cca 833d
00000120: 7191 0fbf fdba 23be d243 3f3f baf2 10be
00000130: 3611 48bf aa37 973f eb01 553f a2a8 5e3f
00000140: 9a6a 563f 7088 bd3f 3afb 9f3e 1fa2 fe3e
00000150: 260a 713f 432f 3bbf 92d0 373e 4ddd 74be
00000160: db50 10be 3781 bfbd 7bc4 c8bf db52 403f
00000170: 039e 75bf 6766 813f fa57 a8be 7700 08bf
00000180: e575 69bf 387b 043f 7352 9fbe 6190 7d3e
00000190: ffd9 3b3e c9c6 03bf 4c37 1fbf ba7a 07bf
000001a0: 52c3 03bf 9412 183e d294 17be bf61 5dbf
000001b0: 5bf6 0ebf e7b3 1d3d 2890 89bf 6616 c8be
000001c0: b74f d4be 6edb 90bf fa7f 2dbf 30d2 20bf
000001d0: 91dc c73e 59f7 323d b650 8ebf 1fb9 abbe
000001e0: 2cad f33e 42bb 87bc 4ae6 4ebf a4c1 6a3c
000001f0: b094 d73e 7f54 f4bf 2edf f8bf 8a72 d53d
00000200: e7c5 863f c02c e8bd 3cc4 9c3f fe10 29bf
00000210: fde8 93be 8079 f3be d061 6c3f 5666 403f
00000220: e85e 92be 33fc 39bf f74d 223f c0ba cf3f
00000230: 66dc c83d dcfa 3fbf 92c2 243e 2848 09bf
00000240: 73d0 acbe 0b81 15bf 54c0 e1be bec5 9b3f
00000250: d3d0 5f3f faa9 7c3f 125e 8cbe 4fda 47bf
00000260: 9588 13bf 212e b3be fbf0 3f3f 1536 dcbf
00000270: e4d3 923f 61bc c33d 7611 74bf a978 b9bc
00000280: e85a d03e 4264 bcbf 13d1 79be f573 b93e
00000290: 6b35 3f3f f3ee 6c3f 0fd8 043f 3e9f 0e3f
000002a0: 7f16 67be b23c 703f d735 b43e b8b2 cabe
000002b0: 5b7f 323f 58ab 373f bad1 9ebf 3254 3a3f
000002c0: 5a1e ccbf 3a8a 59bf d04f 2abe 01b1 1e3f
000002d0: f73c 07bc 6a9e 5cbe d249 5dbe 4444 5f3c
000002e0: 1e7b 6ebe 6e2c 5abf f12f a7be e839 babe
000002f0: 8256 7bbc 5dcb b3bf e0a3 993e 6ede 713e
00000300: 587e 133f 9415 08bf 664c 263e addd a0bd
00000310: fa72 3b3f d5ce bfbc 7b77 04bd fd4e 5c3c
00000320: 3085 423e 7c7d cc3d 3af4 61bf c883 713d
00000330: a96d 5fbe b3c9 d33c 5b10 08be 2d14 81bd
00000340: f129 3a3f f88c 24bf 47c6 e3bc d0fc 4e3f
00000350: e273 7b3f 7204 163f b995 13bf dfa6 523d
00000360: b9fa cfbe 0892 7abf 91f1 643e a90a d03e
00000370: a35a 863d 2366 44bf fac6 fcbe 18ce f13e
00000380: 3476 16bf 1591 e9be c7cb 243f 5956 433f
00000390: 7f36 b2bc 4634 72be a33f 35be 0e32 ba3e
000003a0: 74dc 19bd c9e3 d13e 648d 94bf 41bb 11bf
000003b0: e6f7 423e 3769 c7be c356 2dbe babd 37be
000003c0: 3355 13bf d6c6 f8be 3809 273f 2eb5 13bf
000003d0: e401 f3be f839 b93f d1cf c2be a539 103f
000003e0: d78f 45bf ca85 a43e 239f e63e 9ab5 36bb
000003f0: e1d9 933e 5bbc 893e b4a0 ca3e 0055 813e
-0.3358014 0.82994264 0.21886663 -0.40460506 1.0114332 0.3358242 0.9287042 -0.84140474
0.5401586 0.2669111 0.53018105 -0.43440932 -0.44676533 0.39452502 -0.060867503 -0.38395336
0.5310505 -0.59652996 1.2049148 0.6456202 -0.06366532 -0.3131349 -0.35023162 0.5953362
0.042392857 0.1673005 -0.14748769 -0.49380815 0.6410037 0.43081242 0.26578635 -0.07096254
0.6941834 -0.17757915 -0.63208324 -0.36660355 0.81407046 0.030429963 0.8537482 -0.07288837
-0.91338474 1.2766386 0.8259082 0.008931258 0.2652503 -0.19867058 0.0702684 0.06621869
-0.09383661 0.3927692 -1.424495 0.9279999 0.39023793 1.0740248 0.05596038 0.9877503
0.87750584 0.3325082 0.6316397 0.04720346 -0.9997845 0.60442954 0.027332501 1.1507963
-0.7037146 0.047757063 -0.38071287 0.33342546 -0.3492562 -0.30993408 0.29201612 0.06435105
-0.560813 -0.15989299 0.7471286 -0.14155093 -0.7815126 1.1813862 0.8320605 0.86976063
0.8375641 1.4807262 0.31246358 0.49733064 0.9415611 -0.7311899 0.17950657 -0.23912545
-0.14093344 -0.09350818 -1.5684961 0.7512643 -0.9594423 1.0109376 -0.3287962 -0.5312571
-0.9119552 0.51750517 -0.3111759 0.24762107 0.18344878 -0.514752 -0.6219375 -0.5292164
-0.5146991 0.14850837 -0.14802864 -0.86477274 -0.5584466 0.038501646 -1.0747118 -0.3907959
-0.41467068 -1.1316965 -0.677734 -0.6282072 0.39035466 0.04369292 -1.1118381 -0.33539674
0.47593057 -0.016568784 -0.80820143 0.014328394 0.42105627 -1.9088286 -1.9443109 0.10422237
1.0529145 -0.113366604 1.2247386 -0.66041553 -0.28888693 -0.47553635 0.9233675 0.7515615
-0.28588033 -0.7265045 0.63400215 1.6228867 0.09807663 -0.74992156 0.16089848 -0.53625727
-0.33752784 -0.5840003 -0.44092047 1.2169721 0.87428015 0.98696864 -0.2741552 -0.7806749
-0.5763028 -0.3499613 0.7497708 -1.7204005 1.1470914 0.09557415 -0.95339143 -0.022640543
0.40694356 -1.4718096 -0.24396162 0.3622128 0.74690884 0.9255211 0.5189218 0.55711734
-0.22567175 0.93842614 0.35197327 -0.39589477 0.6972558 0.71745825 -1.2407753 0.7278472
-1.5946763 -0.8497654 -0.16632009 0.61988837 -0.008254281 -0.21544805 -0.21610191 0.013627116
-0.23289153 -0.85224044 -0.32653764 -0.36372304 -0.015340449 -1.4046437 0.3000784 0.23620006
0.5761466 -0.53157926 0.16240081 -0.07854781 0.73222315 -0.023414055 -0.032340508 0.013446567
0.1899612 0.09984872 -0.88263285 0.058963567 -0.21819176 0.025853014 -0.13287489 -0.06302676
0.7272025 -0.642776 -0.027804507 0.8085451 0.982237 0.58600533 -0.57650334 0.051428672
-0.40620974 -0.97879076 0.22357775 0.40633133 0.06560256 -0.7671835 -0.49370557 0.4722755
-0.58774114 -0.456185 0.6437344 0.7630363 -0.021754501 -0.23652753 -0.17700057 0.36366314
-0.037563756 0.409941 -1.1605649 -0.5692635 0.19039878 -0.3894746 -0.16927628 -0.17943469
-0.5755188 -0.485892 0.6524844 -0.57698333 -0.4746238 1.4470816 -0.38049176 0.5633796
-0.7717261 0.32133323 0.45043287 -0.002787924 0.28877166 0.26901516 0.39575732 0.25260162

network_body._body_endoder.seq_layers.0.bias f4 [128]
00000000: a364 213c d58a bd3b af52 4bbc 2d92 d63b
00000010: 761f 3cbc dd5e 553b 05d0 e2ba fcf9 c53b
00000020: 0b91 943c fdd4 f739 ef77 e83c 5730 03bc
00000030: 6cc4 96bc 90c1 973c e1cb 2dbc f80f 98ba
00000040: 2f61 293c db88 f0bb 1e8f 6dbc ba04 b03c
00000050: f966 843c 14a0 c2bb b8b7 f93b bd2e 1cbc
00000060: 9bef 5cbb 967c 243c 25f4 813c 6592 3e3c
00000070: efed a3bc ac68 f53b 9155 2b3c cac0 383c
00000080: a9ac b2bb 2c62 8c3c 4e93 163d d17e 8fbc
00000090: 8de5 81bc 8f82 2aba 851c 403b 6c55 a93b
000000a0: 956e 1dbc b651 92bc dea7 763c 72fb 3bbc
000000b0: b998 ccbc d52a 5c3c 01d7 c53b 6054 6339
000000c0: e4eb 0abb 952b 7a3c 2bd6 36bc 5ade b03c
000000d0: 8029 adbb 01d3 cd3c f608 cabb 710a 7dba
000000e0: bfd7 0cbc e41a b93b 1818 6d3c 1a80 e2bb
000000f0: c15a 85bb 7073 ecbb c9a1 5e3c 16a8 333b
00000100: ba3f 06bb 5230 8b3c c5c9 863c eedd 0ab9
00000110: 9ea4 983c 5e9f 943c e9f7 063c c835 233c
00000120: 809b fabb d785 2fbb b849 823c 6166 8d3c
00000130: 0f93 a63c 1f7d a53c f65b 673c 745e 013c
00000140: 430c c13c 30d5 303c 0b25 883b 9550 853b
00000150: 9de6 06bc d57c 2b3a 0984 803c 8652 4b3c
00000160: 466a c03c 637f 30bc 5055 cfbc 7d18 7cbc
00000170: 0d54 df3c 4bb8 bb3c de00 613c a8bd b93b
00000180: f5dc 183c 9054 82bc 1d31 ac3c 4d87 84bb
00000190: 1788 053c d9f3 9f3b 08d4 0abc fc9b bd3c
000001a0: 77b2 b7bb 1c3b 9abc 842c c23b bcf9 473b
000001b0: b6e4 9939 583d 823a f475 94bc 7371 be3b
000001c0: e410 4738 fe45 02bd 6aa5 13bd a377 25bc
000001d0: 246b efbb bb52 893c 047e 103a 27c1 203d
000001e0: da04 7e3c b017 d6bb cbdf a6bb cb10 c53b
000001f0: b5ad 53bc cfa1 c2bb 3f69 84b9 63b5 8a3c
0.009850654 0.0057843723 -0.01240985 0.006548187 -0.01148211 0.0032557764 -0.0017304426 0.0060417634
0.018135568 0.000472702 0.028377501 -0.008007131 -0.018404208 0.018524915 -0.010607691 -0.0011601439
0.010338112 -0.007340533 -0.014499454 0.021486629 0.016162382 -0.005939493 0.007620778 -0.009532628
-0.0033712152 0.010039469 0.015863487 0.011631583 -0.020010917 0.0074892845 0.010457412 0.011276433
-0.0054527116 0.017136656 0.036761574 -0.017516525 -0.015856529 -0.000650444 0.0029313874 0.005167654
-0.009608884 -0.017861228 0.015054671 -0.011473523 -0.024975168 0.013437946 0.0060375934 0.00021679839
-0.002119773 0.01526918 -0.01115946 0.0215904 -0.005284488 0.025125029 -0.006165619 -0.000965274
-0.00859636 0.0056489576 0.014471076 -0.0069122436 -0.0040696566 -0.0072159097 0.013588377 0.002741342
-0.0020484761 0.016990814 0.016453633 -0.00013243381 0.018633183 0.018142398 0.008237817 0.009961553
-0.0076479316 -0.0026782656 0.015904292 0.017260732 0.020333795 0.020201264 0.014121046 0.007896055
0.023565417 0.010793015 0.0041548065 0.004068444 -0.008233693 0.0006541734 0.01568796 0.012409812
0.023488175 -0.010772559 -0.025309235 -0.015386698 0.027261758 0.022915026 0.013733117 0.0056683607
0.009330024 -0.015909463 0.021019513 -0.0040444494 0.008150122 0.004881364 -0.008473404 0.023145668
-0.0056059915 -0.018827014 0.005925717 0.0030513844 0.00029352837 0.0009936495 -0.01812265 0.005811864
4.7461028e-05 -0.03180503 -0.036046423 -0.010099324 -0.0073064733 0.016763082 0.0005511942 0.039246704
0.015504086 -0.0065335855 -0.005092596 0.006013965 -0.012919833 -0.0059396992 -0.00025255416 0.016932195

network_body._body_endoder.seq_layers.2.weight f4 [128, 128]
00000000: d224 2a3e b8c0 40bd 4170 87be 6ffa 6bbd
00000010: 6e4e 06bd 6e63 ce3b feea b0bc d082 9f3d
00000020: 9889 2dbd 2b11 b43d 4f83 f33b c987 e2bd
00000030: d79d f1bd 50a3 cbbb 31dd 5e3d ee33 3e3c
00000040: 3436 c03b 5ced 053e 6dd2 26bd ecee 843d
00000050: cf6c 9b3c 3bee 26be 80b7 b23d 79da 323d
00000060: e06f 63bd dbb1 64bd f7bb c5bb cc08 833d
00000070: 622a 3a3d 7fff 48bd 319f d2bd 4369 813d
00000080: b61f 6d3d 6040 143c 27ad e4bd 941e 11bd
00000090: c0de acbd 3058 8d3c 662b 8b3d 832a 1b3c
000000a0: a37f f6bc d07f ed3d 1bba 483e 6617 d6bc
000000b0: 91f2 483d 660f c5bb 5a43 ecbc f9e8 b63d
000000c0: 4322 f5bd eef1 a03d a961 503d ce70 2fbd
000000d0: 06ed 113b ffb2 eb3c ee08 36bd 8dd9 93bd
000000e0: dec8 e03d 94be 163e f2d2 0dbb 7242 fb3c
000000f0: c802 dc3d daf5 86bd be54 d0bd 4b52 cd3d
00000100: 1fd0 48bd 1c17 cdbd 669c 26bd e68d 3f3d
00000110: 1edc 713a 93f4 a8bc 868e 873d 2b7f 80bd
00000120: 9382 cbbc 9245 393d e643 f3bc f69c f73c
00000130: c050 bd3c 2820 e2bb 5a42 36bd d020 09bd
00000140: 3e0b 4cbd 53fa 7b3d c62a ba3d 88e0 e13d
00000150: c9bf 98bd 905e 7dbd d44e 463e 2acd b63d
00000160: cf65 003e 91eb 84bd 9784 85bd 644f 88bd
00000170: dc96 ae3d 1fb8 a9bc af70 bfbc 4f91 013d
00000180: 30d1 a23c 2854 cf3d cd12 39bd df7f 643d
00000190: 019f 59be 4404 753d c631 2c3d 2cb6 e63d
000001a0: 54d6 5bbd 698d b63c b5b0 a93d f74f 4e3d
000001b0: 12ff 3ebb c5bf 9dbd 0e80 9bbc 47a0 85bd
000001c0: a5fd d4bc 668f c43d 7a34 143e 35f3 24bd
000001d0: 11a1 b53d afbd 983c dd34 8abd 3861 0f3d
000001e0: efe0 18bc 58ed f03d 7a72 c1bd b812 3c3d
000001f0: dfb9 e63d 0b2b 5ebd b1a5 ea3d eedb 423d
00000200: 11ee 0c3d 8644 9d3e 7d39 db3c 2dfa 373d
00000210: fcf5 f03d 215e 06be c201 1f39 25f5 ed3c
00000220: be77 85bd d19d 123d b16a d4bd 432b e03b
00000230: db80 cebd dcff 9abd a099 2ebd fb2a 063e
00000240: 0798 a93c 1b46 00be d5df d6bc 1bfd 68bd
00000250: 7286 13bd 00ff 7f3d a3a3 293d 8285 25be
00000260: 9a1c 623d 4c33 00bc 1cef af3c 0b65 33bd
00000270: d214 09bd ed6f 91bc 1e1a c7bc bcf0 493d
00000280: 3ed2 f7bc 6dc3 97bd 1775 353e 5e72 453d
00000290: 6340 ab3d 84bf 7ebd 9f32 30bb 2662 27bd
000002a0: 1177 49be c9f5 b5bd 8eca ba3d 7a5b dfbd
000002b0: 7d19 76bc 52d5 5abd bbb4 ecbb ffb9 85bd
000002c0: 97f1 1d3d 6c17 f63c 0de0 b8bd e79e a4bd
000002d0: 67e2 b23d 2516 78bc 06af 953d 7a9c 683d
000002e0: 3c1b 7b3e 9ac5 50bc 80ce 2bbd 0df8 003e
000002f0: 33ec 39bd 89c3 b33b 6835 623c d883 22bd
00000300: f654 08bd 1c1a 41bd 2b0f 1c3e 5a59 01be
00000310: 69df c93d 2539 013e ff73 c6bd e60c 86bd
00000320: 2204 dd3d b165 7b3d 5dd6 b7bd 6afe 6d3d
00000330: 3ed3 0b3e 131b dc3d 253c 38bd e4b4 18bc
00000340: 2815 953a 31b8 e63d 4ba3 733d a5c8 6f3c
00000350: eaca 18be a139 08bd 235a 923d 847c 9dbd
00000360: e6b5 a23c b45e 57bd 98c3 613c f913 d63d
00000370: 09c2 09bc 38db 4b3e 5349 94bd 8d3a 5cbd
00000380: c781 d8bd 87c2 64bd 4ae8 b13d 5e00 313d
00000390: 963b 6a3e 50e8 b23d 80c6 e7bd a16b 3dbe
000003a0: 55ba c63c f797 bc3d 45cc bb3d 9e69 ca3b
000003b0: f75e 71bd 1c0f 89bc e499 e0bc 4855 b13c
000003c0: 6b2a 073d fb8f 37bc 555e 53be da7c d23d
000003d0: eb3d c2bd cf78 6cbe 7a1b 96bd d628 e6bc
000003e0: 3b52 b13d 2467 063e 7369 663d 3361 b7bb
000003f0: 796e 91bc db00 07bd 2515 9fbd e236 d13c
0.16615608 -0.04705879 -0.2645283 -0.05761188 -0.03278964 0.006298474 -0.021596428 0.077886224
-0.042367548 0.08792337 0.0074314247 -0.11061055 -0.11797684 -0.0062145367 0.054410163 0.011609061
0.0058658365 0.13078827 -0.04072802 0.06490883 0.018972782 -0.16301815 0.08726406 0.043665383
-0.055526614 -0.05583368 -0.00603437 0.06398162 0.045450576 -0.049071785 -0.102842696 0.06318905
0.05789157 0.009048551 -0.11165839 -0.035429552 -0.08440924 0.017253965 0.06795387 0.009470585
-0.030090159 0.11596644 0.19602244 -0.026134204 0.049059454 -0.0060137985 -0.02884071 0.08931155
-0.119694255 0.078586444 0.050874386 -0.04283219 0.002226652 0.028771875 -0.04444211 -0.07219229
0.109758124 0.14721137 -0.0021640626 0.030671332 0.10742718 -0.06589861 -0.10172413 0.10025462
-0.049026605 -0.100141734 -0.040676497 0.046766184 0.00092262204 -0.020624435 0.06618981 -0.06274255
-0.024842536 0.045232363 -0.029695462 0.030226212 0.023109794 -0.006900806 -0.04449687 -0.033478558
-0.04981541 0.061518025 0.0909019 0.11029154 -0.07458455 -0.06185776 0.19366008 0.08925851
0.12538837 -0.06490243 -0.0651943 -0.066557676 0.08524868 -0.020717679 -0.023369161 0.031632718
0.019875139 0.101234734 -0.045183945 0.05578601 -0.21252061 0.05981852 0.042039655 0.11265215
-0.053671196 0.022284226 0.08285657 0.05036923 -0.0029143733 -0.07702593 -0.01898196 -0.06524711
-0.025999853 0.095976636 0.14473143 -0.040271003 0.088686116 0.018645136 -0.06748364 0.035004824
-0.009330972 0.1176402 -0.09445663 0.04591629 0.11265921 -0.054240268 0.114573844 0.047573023
0.034406725 0.30716342 0.026760811 0.04491632 0.11765668 -0.13121845 0.00015164076 0.029047558
-0.0651698 0.035795037 -0.10371912 0.0068410947 -0.10083171 -0.075683326 -0.042626977 0.13102333
0.020702375 -0.12526743 -0.026229778 -0.056882005 -0.03601689 0.062499046 0.04141582 -0.1616421
0.055203058 -0.00782473 0.02147632 -0.043797534 -0.03346712 -0.017753566 -0.024304446 0.049301848
-0.030251618 -0.074103214 0.17720447 0.048204772 0.0836189 -0.062194362 -0.0026885641 -0.040865086
-0.19674326 -0.088847704 0.091206655 -0.1090612 -0.015020725 -0.053426094 -0.007223693 -0.065296166
0.038560476 0.030040465 -0.09027109 -0.08038121 0.08734589 -0.015141998 0.07308774 0.056789853
0.24522108 -0.012742424 -0.04194498 0.12594624 -0.045391273 0.005485956 0.013806678 -0.039676517
-0.03328415 -0.04714404 0.15240161 -0.12631741 0.09857065 0.12619455 -0.09690093 -0.06545429
0.10791804 0.061376277 -0.089764334 0.058103956 0.13654801 0.107473515 -0.044979233 -0.009320471
0.0011374103 0.112656005 0.0594819 0.01463524 -0.14921156 -0.033258084 0.071460985 -0.07689765
0.019862127 -0.05258055 0.013779543 0.10453028 -0.008408078 0.19907844 -0.07240548 -0.053766776
-0.10571628 -0.05584958 0.08686884 0.04321324 0.22874293 0.08735716 -0.11317158 -0.18498088
0.024258772 0.092086725 0.09169821 0.0061771413 -0.058928456 -0.016730838 -0.02741713 0.02164711
0.032999437 -0.011203761 -0.20641454 0.1027772 -0.09484466 -0.2309296 -0.073294595 -0.028095644
0.08658262 0.13125283 0.056252908 -0.005596304 -0.017752873 -0.0329598 -0.07767705 0.025538865

network_body._body_endoder.seq_layers.2.bias f4 [128]
00000000: 1a79 533c ad22 c5ba 5ea3 423c 7af4 cb3a
00000010: fb7e 003c c589 843b 4070 b9bb 8214 88ba
00000020: 8bbb 06bc 755c 47bb 4e28 2e3c 763f ec3b
00000030: c8a9 9e3c 9aab f33b 2163 fabb 55d2 dfbb
00000040: 9f0b 713c 4aa7 15bc 0cb8 713c e867 edbb
00000050: 9c73 023c 1762 d63b 04c0 05bb 4559 a33b
00000060: 6496 c0ba e5cb 07bc 94b1 853c db7d fab9
00000070: dd95 733c c94e 3b3c 4f5a 40bc c26f a3bc
00000080: e659 29bc 3c52 67bc 80e7 77bb d9d0 d83b
00000090: 019c dd3c e3b4 293c d38d 9c3c b09c 9e3b
000000a0: 0d80 0d3b 8175 883c d7ba 613a f28c 2b3c
000000b0: 6c82 d03b a3ca 683a 624d b93c e62e d93c
000000c0: 8ba1 c8bb 28d4 983a 82f4 82ba 9359 1d3c
000000d0: 6a92 6d3c 71bd 423c e38d 203d bb2b 693a
000000e0: 3594 5c3c fc73 7d3c e049 433c 4d1c 8abb
000000f0: 34ce 8d3c 36d6 243c f395 cc3b 7ff3 2c3b
00000100: 7bf9 0d3a 1a8e afb9 7aba 2c3c a6bd e73c
00000110: d8dd c83b fcaf 0c3c 5f3d 67bb 7328 023d
00000120: d0d0 813c 0928 a63b a557 24bc dbe6 d73b
00000130: 222e 893c d38c 453c 7ce1 0dbc 67ac a73c
00000140: 4aab cbbb f0d0 9a3a 2255 1b3c 79c5 1b3c
00000150: 7620 10bc 38f8 b93c d299 9e3c 5c3c 9e3b
00000160: cde0 19bc 44d9 683c 9410 293c 0bae 4e3c
00000170: f6e1 303c 1310 233b 232d 5b3c ef31 693a
00000180: 2525 1c3b e3a1 45bb 151c 663c 4a9e a13b
00000190: da1d d1bb 8a72 c1bc 5ced cabc cf61 773c
000001a0: 14c4 22bc d293 7ebb afb0 afbc 1136 abbb
000001b0: c420 6d3c 5d7d 1f3c 9fe2 dcbb 9176 f03a
000001c0: e46f b53c acd2 1a3c cb93 90bc db91 b4bb
000001d0: 3412 d93b 5aad 72bb b085 05bc b17b 843b
000001e0: d32c 453c 3c7b 953c 8a3e fd3b 8ce3 8fbb
000001f0: bc4e 8239 da62 433b 0ed5 913c 178f fbbb
0.012907291 -0.0015040241 0.01187977 0.0015560531 0.0078427745 0.0040447437 -0.005659133 -0.0010382088
-0.008223425 -0.00304201 0.010629727 0.0072097136 0.019368067 0.007436228 -0.0076412116 -0.0068304935
0.014712243 -0.009134123 0.014753353 -0.0072450526 0.007962134 0.006542455 -0.002040864 0.004985007
-0.0014693257 -0.008288358 0.016320027 -0.00047777485 0.014867273 0.011432358 -0.011740281 -0.019950751
-0.010336375 -0.014118727 -0.0037827194 0.0066166935 0.027051928 0.010358068 0.019110596 0.004840456
0.0021591217 0.016657593 0.000861091 0.010470616 0.0063632037 0.0008880293 0.022619907 0.02651162
-0.006122773 0.0011659907 -0.0009991082 0.009603876 0.01450024 0.011885987 0.039197814 0.0008894761
0.01346307 0.015469547 0.011919469 -0.0042147995 0.01731024 0.0100608375 0.0062434613 0.0026390252
0.00054158986 -0.00033484475 0.010542506 0.028288674 0.0061299615 0.00858688 -0.0035284383 0.031776857
0.01584664 0.0050706905 -0.010030662 0.0065887994 0.01674563 0.012057501 -0.008659717 0.02046795
-0.0062154876 0.0011811536 0.009480746 0.00950753 -0.008796802 0.022701368 0.019360457 0.0048289727
-0.009391976 0.014211956 0.010318894 0.012614737 0.010796061 0.0024881407 0.013377461 0.00088956853
0.002382585 -0.0030156306 0.014044781 0.0049321996 -0.0063817324 -0.023614187 -0.024771385 0.015099003
-0.009934444 -0.0038845432 -0.021446554 -0.005224951 0.014473144 0.009734479 -0.0067408825 0.0018345882
0.02214808 0.009449642 -0.017648598 -0.0055105514 0.0066244844 -0.0037029595 -0.008149549 0.0040430655
0.012034613 0.01824724 0.0077284025 -0.0043911394 0.00024854194 0.0029813559 0.017801788 -0.0076769697

action_model._discrete_distribution.branches.0.weight f4 [100, 128]
00000000: e2c1 cf3b bf5d 6d3b ae6c 05bc bf70 cabb
00000010: ed16 3db8 7af2 17bc ef3d 033c efdd 233c
00000020: d4cc b63b baff 40bc 25af 5e3b 158d 1f3b
00000030: 62fb cabb 039e babc 711a 84bc de10 113b
00000040: 1dbc 283c 421a 42bc 50f1 faba d362 a7bb
00000050: facd e6bc 7b03 fe3a 41bc eebb a6bf 85bb
00000060: a659 0cb7 4737 b43a c45f 003c 74ca 033a
00000070: 3dad 2b3c 63f9 d4bb 0887 973b e6f3 edb6
00000080: e8f2 a33b 2abd 773a 50fd abbc 874c 973b
00000090: 5014 8f3c 8d3a 95bb fd9c 02bc 4280 62bb
000000a0: f8ed 4dbb e3b3 06bc 71b2 32bb fa43 78bb
000000b0: af53 8dbc 8a6b 543c 3428 533c fbd3 5fbb
000000c0: 8e93 813b ba64 31bb 7186 9ebb bb8f 2836
000000d0: 8697 abbb 07df 0b38 6eec ebba ee4a acba
000000e0: 03c6 593b 718e 81bc 7de0 a6bb aa22 323b
000000f0: 70fa 0dbc f9fa 73bb 8ff5 0fbc c303 933b
00000100: 830c 553b bdba b6bc 42ca ce3c 8c8f 243b
00000110: a088 fcba 5bc4 be3b 506e f53b 7023 6b3c
00000120: 45e4 473c bb58 543c b0df 8abc ee2f c73b
00000130: 6805 1dbb cb67 0a3c a485 b03b 393f 0cbc
00000140: 107f 33bc 9f96 883b 8610 14ba fca7 52bb
00000150: 3183 9abc 0be8 dfbb 7407 aa3a c55d 31bb
00000160: f702 533b 03bf d0b9 da96 10bc 9a96 503b
00000170: 6e5d 0cbb 6305 d7bb 330d bebb ce8f a0bc
00000180: 7a13 c73a 25af f4ba 4a46 5fbc 7267 5f3c
00000190: 4f7d 273c a2c6 8bb9 35e1 04bb cbed 713c
000001a0: 0650 67bb 8df7 d1b9 e230 a63b 078d f63b
000001b0: 7876 e43b c44b 733c e322 a33a 083d c03b
000001c0: 2ed6 073b 81ef aebc 1a55 993b 2aef 1f3c
000001d0: bdf5 06bc 2a64 773b 09a7 4c3c 71da cd3b
000001e0: bef6 94bc a9eb 68bb 6828 87bc cd5b ce3b
000001f0: 8133 fd3b 509e f43b 9522 473b 572d 12bb
00000200: 5414 9dba 75ea a9bc 508a 833b 27ea 68bc
00000210: 13fd 853b 970c a6bb e06e efbb 96f2 5dbb
00000220: c41a f3bb cbb0 a03c cb49 8fbc 6b75 34bc
00000230: df8f f0bb db0e c5ba 6698 aabb ef89 9eb9
00000240: 5cc9 db3b 9916 1a3b 58d0 a53b 17a7 493c
00000250: f086 02bc 41bb f73b 9b7b d3bb d74a 12bb
00000260: fc77 44bc d3f5 0fbc c545 1c3b 7013 26bc
00000270: c3e0 7b3a 5797 173a 6b97 8fbc e393 723b
00000280: 2a1d 493a 262d 05bc 890e 513a 6f76 953c
00000290: db5c 95ba 1580 10bc 7a5b 65bc a880 28bb
000002a0: 5cad 733b e283 f8ba 2b44 a1bb a7f5 e93b
000002b0: bb64 b63c 8b69 4fbc 7530 c93c 2e56 e6ba
000002c0: 42c6 b23b 3ef0 a6bb 5682 2abc 5f24 c43b
000002d0: 1cdd a93b 161b 5ebb 8cf9 bd3c 367f 78bb
000002e0: 1f42 5f3c a74c 19bc 793f fbbb 919b 7cbb
000002f0: cf05 873b 6611 6fbc 0f9e 313c e20d 2ebc
00000300: 6178 d8bb c9fb 30bc bb33 babb 8877 82b9
00000310: 706d a63b 112b bebb 77bf c3bc 91be 2a3c
00000320: 847c 71bb 1981 033c 0532 19bc ab70 943c
00000330: ba5f 1eba c253 f0bb d055 613c 542e c8bb
00000340: 61b4 003d bcae 5e3c 9122 413c 85c3 163b
00000350: 9af3 363b 422d 95bb 082d 9a3c 04a7 3c3b
00000360: e250 c63b fc2e 133c 9c0e 053c 9cf5 acbc
00000370: d349 a33c 077c b9bb ca6a d63b c197 05bc
00000380: dca4 0d3c 70ed 21bc c9c9 e3bb 1502 b13b
00000390: 5058 3a3b bf86 01bc 70c5 b5bb d3df 9a3c
000003a0: 67f6 d2bb a69d 013b b068 cf3b f039 54bb
000003b0: d9f2 c93c 0e2f 3fbb 1ef1 19bb 8dc2 b63c
000003c0: a4f9 893c 3d3d e4ba c81d febb 3122 48bb
000003d0: 80bf 4b3c bced 24bc e078 acbb 3790 4d3c
000003e0: 7c3d a13b 6ecb 7cba d54d 85bb 99e4 5ebc
000003f0: 28e9 913b 9235 bebc 8c06 db3c 8d4b 0c3c
0.0063402513 0.0036219207 -0.008143587 -0.006177991 -4.5082463e-05 -0.0092741195 0.008010372 0.010001644
0.0055786166 -0.01177972 0.0033978906 0.0024345566 -0.006194518 -0.022780424 -0.01612589 0.0022135298
0.010298756 -0.011847081 -0.0019145403 -0.0051082163 -0.02817439 0.0019379699 -0.007285625 -0.004081684
-8.365523e-06 0.0013749384 0.007835332 0.0005027421 0.010478315 -0.006499456 0.0046242513 -7.091544e-06
0.005003322 0.000945049 -0.020994812 0.004617277 0.01746574 -0.004554099 -0.007971999 -0.003456131
-0.0031422358 -0.008221599 -0.0027267004 -0.0037882314 -0.017251818 0.012965092 0.012888003 -0.003415345
0.0039543575 -0.0027068094 -0.004837804 2.5117613e-06 -0.005236569 3.3347893e-05 -0.0017999539 -0.0013144889
0.0033229596 -0.015814992 -0.005092679 0.0027181306 -0.008665666 -0.0037228449 -0.008786573 0.0044865324
0.0032508678 -0.02230584 0.025242928 0.0025109975 -0.0019266792 0.0058217472 0.007489957 0.014351711
0.01220042 0.012960608 -0.016952366 0.0060787117 -0.0023959521 0.008447598 0.005387025 -0.008559995
-0.010955587 0.004168346 -0.0005648214 -0.0032143584 -0.018861385 -0.0068330816 0.0012972192 -0.0027063948
0.0032197812 -0.00039815166 -0.008825028 0.0031828047 -0.0021417993 -0.0065619214 -0.0057999133 -0.019599821
0.00151883 -0.001866792 -0.013627598 0.013635503 0.010222747 -0.0002666014 -0.0020275835 0.014766167
-0.00352955 -0.00040048026 0.0050717453 0.007524136 0.0069721304 0.014849607 0.001244631 0.0058666505
0.0020727026 -0.021354439 0.0046793343 0.009761611 -0.0082372995 0.0037748911 0.012490996 0.0062821438
-0.018184062 -0.0035540855 -0.01649876 0.0062975646 0.007727087 0.0074651614 0.0030385603 -0.0022304857
-0.0011984208 -0.02074168 0.004014291 -0.0142159825 0.0040890067 -0.005067419 -0.0073069185 -0.0033866516
-0.007418962 0.019615551 -0.017491242 -0.011014323 -0.0073413695 -0.0015034335 -0.0052061556 -0.00030238877
0.0067073535 0.0023512004 0.005060237 0.012307904 -0.007966742 0.007560164 -0.006453944 -0.002232244
-0.011991497 -0.008786636 0.0023845297 -0.01013647 0.0009608382 0.0005782744 -0.017528256 0.0037014417
0.0007671887 -0.00812844 0.0007974883 0.01824495 -0.0011395471 -0.0088196 -0.0139988605 -0.002571145
0.0037182188 -0.0018960203 -0.0049214563 0.0071398797 0.022264829 -0.012659441 0.024559239 -0.0017573291
0.005455763 -0.005094557 -0.010407051 0.005985781 0.005183829 -0.0033890656 0.023190282 -0.003791762
0.013626604 -0.009356654 -0.0076674786 -0.0038544873 0.0041205655 -0.01459155 0.010840907 -0.010623427
-0.006606147 -0.010802218 -0.0056824363 -0.0002488459 0.005078964 -0.0058034738 -0.023895008 0.010421411
-0.0036847899 0.008026385 -0.0093503045 0.01812013 -0.0006041486 -0.0073342035 0.013753369 -0.0061090384
0.031422023 0.013591465 0.011788026 0.0023004722 0.0027916194 -0.0045525143 0.0188203 0.0028786073
0.0060521225 0.00898337 0.008121159 -0.02111321 0.019932663 -0.005660537 0.006543492 -0.008153857
0.008645263 -0.00988327 -0.006951545 0.0054018595 0.0028433986 -0.007905661 -0.005547218 0.018905556
-0.006438065 0.0019777804 0.0063296184 -0.0032383166 0.024651932 -0.0029172334 -0.0023489664 0.022309566
0.01684267 -0.001741327 -0.007755015 -0.0030537958 0.012435794 -0.010066446 -0.005263433 0.0125465905
0.0049206596 -0.00096433505 -0.004068116 -0.013604307 0.004452843 -0.023218904 0.02673652 0.008562935

action_model._discrete_distribution.branches.0.bias f4 [100]
00000000: c91b 2b3c 5a06 ae3b 1cd0 eb3b e4a1 a83c
00000010: 0404 9a3b 642a 193c beb5 a63c 5b93 ca3c
00000020: 54a2 e13b ecc2 e93c d58e 783c 0ee8 6e3c
00000030: 1ecf 463c 4d07 ad3b 66dd 1e3c 6050 633c
00000040: a9aa 633c 3d33 163c 1ac3 523b 0392 1e3c
00000050: 4618 013c 6257 f43b fa9d 2d3b 1029 d93a
00000060: ff4b 603a b0cd 323b f39b 2bbc 5451 103b
00000070: 5d36 643a 8e5a aebb 7409 1ebb 78fd a0b9
00000080: ac26 04bc 9876 b6bb fd18 09bc c298 f5bb
00000090: f8ae 8cbb 6529 2fbc e55b fbbb f042 8bbc
000000a0: 250f 0abc a076 e0bb f8dd 1cbc d271 42bc
000000b0: d229 d3bb 966c 01bc 9c1d e7bb 3583 d4bb
000000c0: 9ac4 2cbc e947 bdbb 8bb1 3dbb 0a45 0fbc
000000d0: 4ece e4bb 195f f6bb 229a 34bc 716c 11bc
000000e0: ae77 59bb c51c 86bb c2b1 78bb 96a8 5fba
000000f0: 652a 10bc 232d c6bb c526 d6bb c627 9dbc
00000100: e314 ffbb da39 01bc bf34 bcbb 9dc3 83bb
00000110: 0f6c f4bb 03fa 02bc f0bb 9cbb 478e eabb
00000120: bc16 bfbb 1fd2 bfbb f349 04bc a74d 76bb
00000130: 9d45 37bc e22f d9bb 3dfa c0bb babb ecbb
00000140: 55fb edbb 251f 49bc 4017 d0bb 0421 a9bb
00000150: 29a9 e0bb 6196 fbbb 6cd2 5bb9 066e 0fbc
00000160: 0227 2fbb 624a 17bb f2ee 1abc 25ef a2bb
00000170: 61a9 10bc dbf6 f6bb 5b37 04bc 811f a9bb
00000180: e2c3 14bc 53a0 48bb 31bc 97bb a3a0 d5bb
0.010443636 0.0053108158 0.0071964394 0.020585008 0.0047001857 0.009348486 0.020350333 0.024728468
0.006885806 0.028535329 0.015170773 0.014581693 0.0121343415 0.0052804113 0.00969634 0.013874143
0.013895669 0.00916749 0.0032159747 0.009678367 0.007879322 0.007456706 0.0026491866 0.0016568024
0.0008556246 0.0027283244 -0.010474193 0.0022021132 0.00087056105 -0.0053208536 -0.0024114521 -0.00030706427
-0.008065861 -0.0055683367 -0.008367774 -0.007495017 -0.004293319 -0.010691022 -0.007670867 -0.016999692
-0.008426462 -0.0068500787 -0.009574406 -0.011867957 -0.0064441944 -0.007899424 -0.0070530903 -0.0064853677
-0.01054492 -0.0057763946 -0.0028944935 -0.008744488 -0.0069826012 -0.0075186607 -0.011023076 -0.008875952
-0.0033182907 -0.004092785 -0.0037947749 -0.0008531896 -0.00879917 -0.006047861 -0.0065353834 -0.019184005
-0.0077844723 -0.007887328 -0.0057435925 -0.0040211217 -0.0074591707 -0.007994178 -0.004783146 -0.007158074
-0.0058315676 -0.005853906 -0.0080742715 -0.0037582905 -0.011186031 -0.0066280225 -0.0058892057 -0.007224527
-0.007262627 -0.012275492 -0.006350428 -0.0051614065 -0.006856103 -0.0076778387 -0.00020963856 -0.008754259
-0.0026726131 -0.0023085107 -0.009456383 -0.004972356 -0.008829446 -0.0075367517 -0.008069838 -0.0051612263
-0.009079905 -0.0030613139 -0.0046305885 -0.0065193935
