results/SumOfNumbers/SumOfNumbers/SumOfNumbers-500030.onnx (onnx, 25197 bytes, 6 tensors)

network_body._body_endoder.seq_layers.0.weight f4 [64, 2]
00000000: b67c f23e d3b0 873e f1b0 c9be 2ff2 fbbe
00000010: afa6 c4be 1fdb e7be a3be 4c3f 3696 05c0
00000020: f38f 81be 5553 1dbf f43c c7be 2865 f5be
00000030: 2820 1d3f 6e0a 043f ba4a c8be 7911 abbe
00000040: ddcd 093f 9f54 4b3f e513 0abf 5999 0bbf
00000050: 2ac3 bb3e b6b9 9cbf b997 1e3f 733d babf
00000060: f41d 02bf 6590 26bf 501f a03e d932 9abf
00000070: 0eff a0be 7fe8 01bf 3072 4ebf f594 46bf
00000080: 8ca4 dbbd 27d1 37bf 2577 11bf 1cec 51be
00000090: 565b ecbe 11e3 0cbf f6fa a03e 7b44 a8bf
000000a0: 8ad2 ddbe f500 09bf 427d b53d 62dd 063f
000000b0: cd9f 173f 7abb 753e 4d22 f4be ac65 123f
000000c0: 5177 9d3e d4ed b3bf 3eee 4e3e 9b4a 183f
000000d0: 9fb5 c6be 43c8 04bf a6ee b6bb 9dfe d63e
000000e0: b902 fabe bae5 a6be 5c7b adbe 621f f8be
000000f0: 6edb f3be 7ce5 8ebe 3d18 e2be 69ab 06bf
00000100: 4d53 02bf 9e6d 14bf 0418 d8be 9fc7 ffbe
00000110: 9e9b 4d3e 2551 763f ae99 263e 9b3b 2a3f
00000120: ab92 683c 4d93 5fbf 1cbb 973e a3c7 153f
00000130: 9753 debe 73f1 06bf 26d3 823f d14f 87bf
00000140: aa93 17bd 43f4 13be 03fe 6a3f 191f 103f
00000150: 3bc8 c43d 7aa7 133f b005 593f d256 8c3e
00000160: 02a6 d8be c106 b2be bd3f 8b3f 36c5 403f
00000170: e9da 163f 5138 e6bf c623 8ebe 816e 903d
00000180: 7494 31bf d860 4c3f b497 ebbf a485 d63e
00000190: b048 603f 4ece c5bf 2184 28bf 7426 023f
000001a0: 3125 f3bc 0864 37bf 027e e63e 4fdd e13e
000001b0: 4542 e23d 208e 92bf e859 80bf b34c 7ebd
000001c0: 4801 6cbf 7ceb be3d 75ba 103f b1f1 253e
000001d0: 9367 62bf f3f9 4c3f 6d31 0cbf 897e 18bf
000001e0: 7db6 a4be 8111 f6be 6624 e93e 865d 5c3e
000001f0: b0bd 9d3e 58f6 033f 9cf2 dabe 27a1 08bf
0.47360772 0.26502094 -0.39392808 -0.4920821 -0.3840842 -0.45284364 0.7997839 -2.0872931
-0.25305137 -0.6145528 -0.3891369 -0.4792874 0.6137719 0.51578414 -0.39119512 -0.33411768
0.5382975 0.79425997 -0.53936607 -0.54530865 0.36672336 -1.2244174 0.6195026 -1.4550003
-0.50826955 -0.6506408 0.3127389 -1.2046767 -0.3144459 -0.50745386 -0.80642986 -0.7757104
-0.10724744 -0.71803516 -0.56822425 -0.20500225 -0.46163434 -0.55033976 0.31441468 -1.3145899
-0.4332469 -0.53517085 0.08861782 0.52681553 0.5922821 0.23997298 -0.4768242 0.5718639
0.30755094 -1.4056954 0.2020807 0.5948884 -0.3881044 -0.51868075 -0.0055826483 0.4199113
-0.48830202 -0.32597142 -0.33883178 -0.48461443 -0.4762835 -0.27909458 -0.44159117 -0.526053
-0.50908357 -0.5797976 -0.42205822 -0.49956986 0.20078894 0.96217567 0.16269562 0.664972
0.014195125 -0.8733414 0.2963494 0.58507746 -0.4342315 -0.5271217 1.0220687 -1.0571233
-0.037006058 -0.14448647 0.9179384 0.5629745 0.096085034 0.57677424 0.84774303 0.2740999
-0.42314154 -0.34770778 1.0878826 0.7530092 0.5892778 -1.7985936 -0.27761668 0.07052327
-0.69367146 0.7983527 -1.8405671 0.41898835 0.8761091 -1.5453584 -0.6582661 0.50839925
-0.02968082 -0.7163701 0.4501801 0.44114158 0.11047796 -1.1449623 -1.0027437 -0.062084865
-0.92189455 0.09322259 0.5653451 0.16205479 -0.8843929 0.8006889 -0.5476292 -0.5956808
-0.32170478 -0.4806023 0.45535582 0.21520051 0.30808783 0.51547766 -0.4276322 -0.533709

network_body._body_endoder.seq_layers.0.bias f4 [64]
00000000: 4799 51bf c586 473e 1675 0e3c 1822 b9be
00000010: 7654 2dbf 5e36 0b3e cca3 58bf 3b7a 8ebe
00000020: b517 4dbf f374 833f afc4 113f 8474 c73e
00000030: c835 1f3f 31ab 87be 680c 35be 50a7 653f
00000040: f82c 5dbf ff53 48be 6dbf f93e 9ff3 863e
00000050: ac06 993e 2a1e 0dbf 581f 54bf 6242 f8be
00000060: 7ecc 353f f683 49bf bda7 313e b958 29bf
00000070: fb55 833d 11b9 b0bd 1ca7 38be 9a9f cd3e
00000080: f19c 4b3f 50d9 773e 5ebe 3bbf f50f 54bf
00000090: 83d2 4dbf 1ede 21bf e674 a53e e8d9 3cbf
000000a0: 6e27 823f cde6 47bf 7d91 2dbf 5500 78bf
000000b0: 7036 bebd 1e31 5ebf 657f 5d3d 6aba e1be
000000c0: 2716 0dbe 48b7 ff3e 4165 e0be e050 b5bc
000000d0: 286c 35bf 34a9 48bf 1fdb 98bf 2130 c63e
000000e0: 5a18 38be 958a 4bbf 3973 193f 8a5d 663f
000000f0: a3b2 d5bd 0417 40bf c831 4abf ea26 af3e
-0.8187451 0.19485004 0.008694908 -0.36158824 -0.67707 0.13594958 -0.84624934 -0.2782763
-0.801143 1.0270065 0.5694074 0.38956082 0.6219144 -0.26497796 -0.17680514 0.89708424
-0.8639674 -0.19563292 0.4877886 0.26357743 0.29887903 -0.5512415 -0.82860327 -0.48488146
0.71015155 -0.7871698 0.17349143 -0.66151005 0.06412884 -0.086290486 -0.18032497 0.4016083
0.7953635 0.24203992 -0.7333735 -0.8283685 -0.8039934 -0.6322955 0.3231575 -0.7377
1.0168283 -0.7808655 -0.6780012 -0.96875507 -0.09287727 -0.86793697 0.05407657 -0.44087535
-0.13777982 0.4994452 -0.4382725 -0.02213329 -0.7086816 -0.78383183 -1.194187 0.38708594
-0.1797804 -0.79508334 0.5994144 0.8998648 -0.10434463 -0.7503512 -0.7898221 0.34209377

network_body._body_endoder.seq_layers.2.weight f4 [64, 64]
00000000: 0c6c 68be 8253 debe 40bd 96bb e78e 813d
00000010: 9f80 97be 91f3 a9be bc47 953c 9ae7 00be
00000020: 5345 8bbe 76bf e5bd 085a f53d 7795 0bbe
00000030: 3087 abbe ffbf 2cbd 8dfb abbe 9636 50bf
00000040: c000 99be 33cb 8abe d6ce cebe e6d0 26be
00000050: 2cd0 f3be a389 043e d14f 23be 9b82 3a3e
00000060: ec6d 06bc e0d3 2c3e eed3 afbe 1fdf 24bd
00000070: 8f52 c5be 36eb a6bd be6b 79be 0569 abbe
00000080: 2c89 c3be 44e4 a3be ca7a 3dbe be2a 363d
00000090: 9591 37be 37b1 e8bc 1730 d5be 4d36 ccbd
000000a0: 1df7 853e 107e 1bbe fbfe b13d 6b51 d9be
000000b0: 270f 1ebd 7533 3dbe 9aed 913d e070 18be
000000c0: a41f 91bc f7b4 053e fed7 89bc 81e9 893e
000000d0: 779c 62bc 4a62 55be ff3a 11bd f236 763e
000000e0: 7f7b 2e3e e85b d4bd 75ce 783e 6098 c8be
000000f0: ed7f 35be 8623 36be 5240 9ebd b39e cfbd
00000100: 2403 433e 0e0f 8b3f 967c 3a3f de0d 0f3d
00000110: 5285 0d3f f270 573f 2942 7a3d 890f 033f
00000120: ab77 f63d 8112 333f 6d95 b7be d777 133e
00000130: d85c 6b3f e603 92be d400 343f 72bf 583f
00000140: f624 b83e 2ad2 053f 449b 6a3f 80ad c3be
00000150: fe1b 983f 57bb b23e 8e79 24bd 3ad8 11bd
00000160: 87fd 11bf 690d b53e d1e8 843f ba93 133e
00000170: 2987 5b3f 072e 193f 4536 f03e 6e54 8f3f
00000180: 0e84 393f 63a3 973f a541 5b3e 88f1 853e
00000190: 93bd e4bc 87cc 4a3e cb2e 893f c41f 323d
000001a0: 1583 25bf e3b7 75bd 3154 ad3e 7a02 8fbd
000001b0: 24c5 c43e e8b3 293c 9786 1bbe 0db8 8c3d
000001c0: cf3f a03d fa4a dbbe 10bc c43a 55ae ee3d
000001d0: f8d0 1f3d cd68 a63e a290 fe3d 5db2 803e
000001e0: 4499 02be 43b3 613e 9b12 663d a295 5c3f
000001f0: 0d93 783f dcf0 d83d bdf4 853d 9824 753f
00000200: e4a8 09bf f4b5 9fbc bbaa e7be 2b00 313c
00000210: 3dc6 c2be 4686 debe 2ebd 1dbf d31f 3fbe
00000220: 5141 cfbe 380e 073f 2166 df3e 36e2 033e
00000230: 7d7a 42bf fa4c 24be a4a1 9cbe 395a 61bf
00000240: fa0f 27be 5e8f 4ebe ff54 a7bd c9ba 993e
00000250: 4e24 f2be afdf cebe 5be0 bcbe f7e9 13be
00000260: e74b b13e 4089 b7be 1944 32bf ecd7 9ebe
00000270: 4b67 02be 37ce a4be 5abf 91bd 09d3 c3bd
00000280: 94d3 433e f2cd e4be 3c24 7fbe d2a5 42bf
00000290: cc6b 6ebd 2b40 bfbe c849 0cbf d8d6 15be
000002a0: 3490 1f3f 5fce ecbe fbea 02bf 954c 99be
000002b0: 33a7 52be c88a d0be 50de 813d fe56 8bbe
000002c0: c217 46be 8e71 c7bd b0fe 7f3e 708a 093e
000002d0: 93d7 0dbe ca90 0abf 0787 5dbe bedf b63e
000002e0: 59bd 4bbd 275d d6bd 6840 8b3e 1562 8a3c
000002f0: 222d 00bf 1622 a1be 7714 b0be 7355 d0be
00000300: a9e3 85be db61 39bd 8cb5 d5be 116b 8fbe
00000310: aa39 25bf e7b4 2cbe 4d3c 3fbe b969 efbe
00000320: 6697 7f3d fffe 35bb a215 6dbe 5e86 d33d
00000330: ed66 7b3d 3677 85be 15ff 30bf 75bb e6be
00000340: 8680 e8bd 3ffe 0fbf dcde 83bd 8c5c babc
00000350: fdcd a2be 22cf 093e 2c82 f0bd 220f 9abd
00000360: 62f3 19be 744d fcbc 797d c1be 679c 0d3c
00000370: efa6 a2be e388 3ebf e0e7 f8be bbe1 a5be
00000380: 21cf 64bd cc28 1abd 0169 8ebd fb42 15be
00000390: 8477 b4be ccf7 783d 7500 9fbc 3ad8 0bbe
000003a0: 0a3e 613f b54f 1ebe 4109 40be 603c b2be
000003b0: f1da e3be 3f8b d6bd ee66 07bd f8d1 8dbe
000003c0: faaa 043c 5f70 5bbe f462 9abd 1580 1e3e
000003d0: fc25 2cbe 0596 2ebe 2e36 90be d62c 27be
000003e0: 1bd1 06bf af4f 30be c37a c53e 13f9 db3e
000003f0: 2c05 b4be 96e2 cbbe c959 c5bd fc97 2cbe
-0.22697467 -0.43423086 -0.004600197 0.063260846 -0.29590318 -0.3319364 0.018222682 -0.12588349
-0.27201328 -0.11218159 0.11980063 -0.13631235 -0.33501577 -0.04217529 -0.33590356 -0.8133329
-0.29883385 -0.27108154 -0.40392178 -0.16290626 -0.4761976 0.12943129 -0.15948416 0.18213885
-0.008204918 0.16877699 -0.34341377 -0.040251847 -0.3853955 -0.08150332 -0.24357507 -0.3347856
-0.3819059 -0.3201009 -0.18503872 0.044474356 -0.17926629 -0.028404815 -0.41638252 -0.099712946
0.26165095 -0.15184808 0.08691212 -0.4244493 -0.03858867 -0.1847666 0.07125397 -0.14886808
-0.017715283 0.13057314 -0.016826626 0.26935962 -0.013831249 -0.20838276 -0.035456654 0.24044397
0.17039298 -0.10369092 0.24297507 -0.39178753 -0.17724581 -0.17786989 -0.07727112 -0.10137691
0.19044167 1.0863969 0.72846353 0.034925334 0.55281556 0.84156716 0.06109825 0.5119558
0.120345436 0.6995011 -0.3585619 0.14401184 0.91938543 -0.285186 0.70313764 0.8466712
0.359657 0.5227381 0.91643167 -0.38218307 1.1883543 0.34908554 -0.040154986 -0.0356066
-0.5702748 0.35361794 1.038355 0.14411822 0.85753113 0.5983586 0.46916404 1.1197641
0.72467124 1.1846737 0.2141176 0.26160836 -0.027922427 0.19804583 1.0717405 0.043487325
-0.6465314 -0.05998982 0.33853295 -0.06982894 0.38431656 0.010357834 -0.1518806 0.068710424
0.078246705 -0.4283064 0.001500966 0.11654345 0.039017648 0.32501832 0.1242993 0.2513608
-0.12753779 0.22041039 0.056170087 0.8616582 0.9709938 0.10592815 0.06540821 0.9575896
-0.5377333 -0.019495942 -0.45247445 0.010803263 -0.3804187 -0.43461818 -0.6161679 -0.18664484
-0.4047952 0.5275607 0.43632606 0.12879261 -0.7596815 -0.16044989 -0.30592072 -0.88028294
-0.16314688 -0.20171878 -0.081705086 0.30025318 -0.47293323 -0.40405032 -0.3688992 -0.1444472
0.3462822 -0.358469 -0.6963516 -0.3102411 -0.12734716 -0.3218858 -0.071165755 -0.09561736
0.1912368 -0.44688374 -0.24916166 -0.7603427 -0.05820827 -0.37353644 -0.5480008 -0.14632738
0.6232941 -0.462512 -0.511398 -0.2994124 -0.20571594 -0.40730882 0.06341231 -0.27214807
-0.19345 -0.09738456 0.249995 0.13431716 -0.13851766 -0.5412718 -0.2163354 0.35717577
-0.049741123 -0.10466986 0.27197576 0.016892472 -0.5006887 -0.31471318 -0.34390613 -0.40690193
-0.26150253 -0.045259338 -0.41740072 -0.28011373 -0.64541113 -0.16865884 -0.18675347 -0.46760347
0.062400244 -0.0027770398 -0.23152784 0.10328363 0.061377455 -0.26067513 -0.69139224 -0.45064893
-0.11352639 -0.56247324 -0.064389914 -0.022749208 -0.31797782 0.13457921 -0.11743578 -0.075224176
-0.1503425 -0.030798651 -0.3779104 0.008643246 -0.31767985 -0.7442762 -0.48614407 -0.3239878
-0.055861596 -0.037636563 -0.06953622 -0.14576332 -0.35247433 0.060783193 -0.019409398 -0.13656703
0.8798529 -0.15460093 -0.1875353 -0.34811687 -0.44502977 -0.10475778 -0.033057146 -0.27699256
0.008097405 -0.21429585 -0.07538405 0.15478547 -0.16811365 -0.17049415 -0.28166336 -0.16325697
-0.5266282 -0.17217897 0.38570222 0.42963466 -0.35160196 -0.3982131 -0.09636266 -0.16854852

network_body._body_endoder.seq_layers.2.bias f4 [64]
00000000: e476 f53d 164e abbe c488 c23e 5f3e ec3e
00000010: ad89 3f3f eda1 ecbe 8638 093f 29b8 123e
00000020: 8547 c03d e57a 6e3e 46de be3e f548 ea3c
00000030: 91ac 963e 7d09 42bd d7a6 aebe f67c b23d
00000040: 8e04 ad3d c9dd bbbe 357c 0b3f 811c a7be
00000050: 248c 01bd 38e9 b2be bc26 df3c 25d4 383e
00000060: e5a3 a63e cfce 383f bbcf 3f3d b728 ca3e
00000070: 502f 36bd 08c8 ed3d 8f3f 003f 101f fe3d
00000080: f4be 0d3f 2579 173f 62fc d73e 2ac9 2f3e
00000090: bcdb 663e 68c5 e43e 7a13 043f f5bf 463e
000000a0: ef97 2e3f c890 913c 71f6 11bd dad7 243f
000000b0: e9e5 ce3c 54f3 c6be b6d1 68be 5fe8 453d
000000c0: 8825 9bbe 0a05 0c3f 7d85 683e 38c9 f7be
000000d0: 8c74 b9be bdd1 053f a756 253e 0318 303f
000000e0: fff8 423f 665f 343e 5966 fdbe b337 f13c
000000f0: fd97 e93e 2f67 153f 14bb 44be 2881 0c3f
0.11985567 -0.33458012 0.3799497 0.46141335 0.7481945 -0.4621729 0.5360187 0.14328064
0.09388641 0.23289068 0.37278956 0.028599242 0.29428533 -0.04737233 -0.34111664 0.08715241
0.08448134 -0.36692646 0.544864 -0.32638934 -0.03162779 -0.34943557 0.02724015 0.18049677
0.32546917 0.72190565 0.046828967 0.39484188 -0.044478714 0.116104186 0.5009698 0.124082685
0.55369496 0.59169227 0.4218474 0.17166582 0.2254476 0.4468186 0.5159222 0.19409163
0.6820058 0.017769232 -0.035635415 0.64391863 0.025256114 -0.3885752 -0.22736248 0.04831731
-0.30302072 0.5469519 0.22707172 -0.48395705 -0.3622173 0.5227316 0.16146336 0.6878664
0.7616119 0.17614517 -0.49492148 0.029445505 0.4562377 0.5836057 -0.1921199 0.54884577

action_model._discrete_distribution.branches.0.weight f4 [11, 64]
00000000: 5eae 7fbc 052a ef3d b20b f13d e450 a03e
00000010: 7954 6dbe 1000 213e 74bf ca3d 2875 8e3d
00000020: b8b6 973e fb42 893e 2e26 ab3e 44fb 6c3d
00000030: d8cc 40be a533 95bd 66bd 663c 3f8e a6bd
00000040: 628d 563e 1d83 7fbd d924 58be 4ea1 6f3e
00000050: 20a3 f93d 1746 aa3d f1e3 133d 45fa 213e
00000060: f137 99be 1e35 e53e 5be7 063d 96e3 eabc
00000070: 450d 21be 9428 103e cb36 89be 5e13 0d3f
00000080: 8db6 8abe 8990 1b3f 2f1d 103d 3536 a3bd
00000090: 4775 413f 009a 4cbe cce9 7fbe 85d9 123e
000000a0: 42d9 be3e 422d 233e 1ff2 4b3d 076f a0be
000000b0: f272 213e c9c7 2b3d 2335 c9bc db7c 183f
000000c0: 0d95 163e ca2a 613e b1ca 543e e679 1e3d
000000d0: ff0f ce3c bc9c 5cbe e404 053e e54b 06be
000000e0: a951 6b3e dfdb 7cbe 1acd 5b3e f2a3 bcbd
000000f0: fa40 043f 6692 213e 496d 403c 564d 113f
00000100: 21eb 983d 2ca1 a73d 8ba3 e03e 3df2 443e
00000110: bb4b 42be fc52 70bc 83b6 173f 9b7e 6d3e
00000120: b665 0a3e 76e2 043f cbf4 043f 019c df3d
00000130: d9d1 433e c043 e8bc 8cb1 c0bc 8117 fb3d
00000140: 71bc 8c3d 8433 61bd 9ab8 4fbe dd2e a6bd
00000150: e01b 293e 5cac 093e c678 23bd 0876 043d
00000160: 9177 b5bc c50a 203f 1453 d1be 7de8 713e
00000170: c86c ec3c de86 8a3e 5f10 dabd afdc 7dbe
00000180: d469 d93d 89f9 2e3f 71a0 7c3e 62f1 073c
00000190: a3c0 a9be 7f1f a8be 1b14 6abc b704 bb3e
000001a0: e2a2 083f b7c1 3a3e a99b 1c3b e0e0 fd3c
000001b0: b202 443d a583 9cbc fdf1 073e 4674 95be
000001c0: fc27 853c 4980 0d3f 75a0 8d3b b3d7 a1bd
000001d0: 2d4f ae3d 7ff8 8cbe 67a2 1c3e 1486 af3e
000001e0: 0557 2d3f ea0f 843e b969 08be bba5 3cbc
000001f0: 53f4 143f 76bd af3e 3348 b73c 00cf 2c3f
00000200: 3e43 4d3c 7b4e c43d 2819 0a3f a961 a43d
00000210: 7496 27be e691 0abb 45e4 2d3f f35b 383e
00000220: fcbf 2fbd 956e f0bd 749a 093e 9c15 013e
00000230: 2caf c33e a5ea bebd 1bdf ba3b 84ed b23e
00000240: 5f87 f4bb 2ecc 31bd ff25 fe3c 47dc b83d
00000250: 11c2 f2bb bd4f 083c 50c4 b6bd 854d d63c
00000260: d9de b33e 7ef3 b63e 2e1a 62be 57e0 ef3e
00000270: 2921 623e 763c f93d 123d 603e 7882 b5be
00000280: 50ef b53e 769a 0fbf 5db2 093f 0ea1 f4bc
00000290: 2cda 8dbe b459 00be 5af7 0a3e 5008 1d3e
000002a0: 7848 bd3e 7c9a 6f3d 3d89 04bd 6d7d a13e
000002b0: 552c f1bd a5c8 333d 1259 123e 1721 35be
000002c0: 1d20 813d 8c10 1c3f 3a2d bc3c f846 193b
000002d0: 4f49 bb3d b51c 55be f99b a13d 12d3 443f
000002e0: 812c 323f e74f ee3e 7872 d03c e97b 25be
000002f0: b370 16bf bd58 ca3e 4203 a0bc d2fa 39bf
00000300: 44d0 5a3e a98e ea3d 2d29 01bf 0038 433e
00000310: bbce 5abd b36a 383e 05f4 7ebf 55e0 0d3e
00000320: 04ef 803d 0a44 a5be d947 1a3b d516 123e
00000330: 6179 e73e 6428 14bf 668f 463d 2050 3f3e
00000340: 2665 4bbd 4aee 383e dbbc b23e 702d 0a3e
00000350: 967d c6b9 9805 0ebf 3236 d43c b29e 6c3d
00000360: 2966 223f c410 80bf 0113 07be 65e9 d03e
00000370: 50e9 063f 4ff9 763e 34ff 313f 8ce5 59bd
00000380: c76d 403f 313f 20bf a0b1 db3e e475 35bd
00000390: 59fc b7bd 1b55 cebd b5dd 753e c800 0f3c
000003a0: 7bcc 09bf 62de 033d 8960 433e 78cd 173f
000003b0: 8aba adbd 8e30 bbb9 bc30 403d cc7c f8bd
000003c0: ef2e 7ebc c138 23bf c715 693e 9a83 833e
000003d0: 9496 ff3d 2b92 2bbe 2623 dd3d a022 dd3e
000003e0: 66c4 bbbf f143 4c3e 19c3 983e c3df 33bf
000003f0: 2e37 ccbe 1bc9 8c3e 999a aa3d 8e0a d0be
-0.015605537 0.116779365 0.11769809 0.31311715 -0.23176755 0.1572268 0.09899798 0.069559395
0.2963159 0.26808915 0.33427566 0.057856813 -0.18828142 -0.07285241 0.014083242 -0.081326
0.20952371 -0.0623809 -0.21107806 0.23401377 0.12189317 0.0831415 0.036106054 0.15818126
-0.29925492 0.44767088 0.03293548 -0.028672975 -0.15727718 0.1407798 -0.26799616 0.55107677
-0.270924 0.6076742 0.03518408 -0.079693235 0.75569576 -0.19980621 -0.2499153 0.1434079
0.3727513 0.15935233 0.04979145 -0.31334707 0.15766504 0.041938577 -0.02456147 0.59565514
0.14705296 0.21988979 0.20780446 0.03869047 0.025154112 -0.21544164 0.12990147 -0.13114889
0.2298037 -0.24693249 0.21464959 -0.092109576 0.51661646 0.15778503 0.011744806 0.5675863
0.07466722 0.08185038 0.43874773 0.19233032 -0.18974201 -0.0146682225 0.59262866 0.23192827
0.13515362 0.5190805 0.51936024 0.10918427 0.1912302 -0.028352618 -0.023522161 0.122603424
0.0687188 -0.05498077 -0.20285264 -0.08114407 0.1651454 0.13444656 -0.0399101 0.032339126
-0.02215174 0.62516433 -0.40883696 0.23623843 0.028860465 0.2705602 -0.10647654 -0.24791215
0.10615888 0.6834951 0.24670579 0.008297296 -0.33154783 -0.3283653 -0.01428702 0.36527035
0.5337354 0.18237959 0.0023896492 0.030991018 0.047854133 -0.019105742 0.13275905 -0.29190272
0.016254418 0.5527387 0.0043221065 -0.079024695 0.08511195 -0.27533337 0.15296327 0.3428198
0.67710906 0.2579339 -0.1332158 -0.011514123 0.5818531 0.34324235 0.022373294 0.67503357
0.012528239 0.095852815 0.53944635 0.0802644 -0.16365987 -0.002114409 0.67926437 0.18003826
-0.0429077 -0.11739842 0.13437825 0.126059 0.38219583 -0.09322099 0.005702866 0.34946835
-0.0074624266 -0.04340761 0.031023977 0.090263896 -0.0074083884 0.008319792 -0.089241624 0.026160011
0.35130957 0.35732645 -0.220803 0.46850845 0.22082962 0.12169735 0.21898296 -0.35451102
0.35534143 -0.56095064 0.53787786 -0.029861953 -0.27705514 -0.12534219 0.1357092 0.15335202
0.36969352 0.058496937 -0.032357443 0.31541005 -0.11776034 0.04389252 0.1429179 -0.17688404
0.06304953 0.6096275 0.022970784 0.0023388248 0.09144842 -0.20811732 0.078910775 0.7688457
0.6959916 0.46545336 0.025445208 -0.16160549 -0.58765715 0.39520827 -0.019532803 -0.72648346
0.2136851 0.114529915 -0.50453454 0.19064331 -0.05341981 0.18009453 -0.99591094 0.13855107
0.062955886 -0.32278472 0.002354136 0.14266522 0.45209792 -0.5787413 0.0484766 0.18682909
-0.04965701 0.1805965 0.3490971 0.13493896 -0.00037859072 -0.55477285 0.025904749 0.05776853
0.63437134 -1.0005116 -0.13190843 0.40803066 0.52699757 0.24118541 0.69530034 -0.05319743
0.75167507 -0.6259642 0.42908955 -0.044301882 -0.08983678 -0.10074826 0.24010356 0.008728214
-0.5382764 0.032194503 0.19079794 0.59297895 -0.08482845 -0.00035703595 0.046921477 -0.12133178
-0.0155141195 -0.63758475 0.22762214 0.25686342 0.124798924 -0.16754977 0.1079772 0.4319048
-1.4669311 0.19947793 0.29836348 -0.7026331 -0.3988585 0.2749718 0.083302684 -0.40633053

action_model._discrete_distribution.branches.0.bias f4 [11]
00000000: a121 863b 9e5a 8bbc 14cd 13be 0357 61bd
00000010: 3283 443e 07ff b83e 5bdc 753e 862b 273e
00000020: bf4a 86be 4581 b9be 695f a8be
0.0040933643 -0.017010983 -0.144337 -0.05501462 0.19190672 0.3613207 0.2400984 0.16325197
-0.26228902 -0.36231437 -0.32885292
