results/SumOfNumbers/SumOfNumbers/SumOfNumbers-3960.pt (torch, 196099 bytes, 11 tensors)

network_body._body_endoder.seq_layers.0.weight f4 [128, 2]
00000000: 5760 ab3f f7f2 0ebe f245 893d 84ea efbe
00000010: 3bde 9dbf 43b9 97be 903e 813f 4817 2e3f
00000020: ed83 5f3f e4b8 563f 089b 7dbf fc26 12bf
00000030: 2b57 16bf d69f 053f 8046 8fbe 519a 133e
00000040: 82de 9e3f 6f0d e1be 4da9 4b3f 96b6 0dbe
00000050: 1628 53bf 0c64 f63f f414 1a3f b704 d7bf
00000060: 0e70 95bf 4f34 b53e 61ee 67bf 0869 1fbd
00000070: ddec 6dbd 2e6d 53bc b932 563f d4f1 bc3e
00000080: f008 c8be 297d eebc 7040 b23e 2b62 c03e
00000090: 5ed0 fcbe ef35 b1bf 711a b43f e16b 883f
000000a0: 0004 0b3f 28f4 263d 795d 39be 9150 b63f
000000b0: 9de3 eb3e 0a6c 83bf f71d a03e 14ff 823f
000000c0: c035 853d 54e4 f53f 661e 2e3f 22e7 94be
000000d0: 2ad0 363f 72f1 573f 691c 763e 03cd b9be
000000e0: 9c7e c03e e579 563f 4807 353f ae04 233e
000000f0: 7427 ebbf 7a11 523f 8874 103f 0024 893f
00000100: 7b1a 92bf e7b4 853e d04a 67bd 0b19 fc3c
00000110: 7643 c13e 7774 a4bf 544f 37be 9d45 a8be
00000120: c603 4a3f 36e7 fabe d048 cebe 73e2 73bd
00000130: b358 73bf 096c 2e3d 4dd4 ffbc ab98 823f
00000140: de26 4bbe 90d3 b9be ada7 3e3e a2a3 c6bf
00000150: 7102 6dbf 7d54 f8bd d35b 80bf a11b f73f
00000160: ab6d 5b3f b7c6 d13e dc1c 29bf 093b 1f3f
00000170: e1ed 993f 5756 26bf 251d 2c3f 0013 8a3f
00000180: f234 b93f d35a 74bd 3c74 943e 2966 28be
00000190: fed0 33bf e1a3 76bf b2dd 21bf 0acf ca3f
000001a0: 89d3 dbbd bb51 61be 87c1 92bf f3a9 f83d
000001b0: 4f70 9fbe 4802 c5be fcbd 62bf 985b 2cbf
000001c0: 8801 8f3d 041d 983d 4bbe 1c3e 6fe1 0e3f
000001d0: d829 bfbf bdfa 28be 5857 babe fe1a a0be
000001e0: 1a5e 383f 5565 11bf ea4d 64bc 1f26 aebd
000001f0: 23b9 0b40 2eb9 01bf d4a4 af3e b31e b93f
00000200: 797e 1fbe de01 4dbf 6fcd 8cbf 283e 01bf
00000210: 0565 8cbe 8220 c8be 3037 c7be f196 6b3f
00000220: 682c 1c3f c1b6 8f3f 6646 513d 9381 043e
00000230: 593a 943e 3036 86bf 57d1 8bbf a539 dbbe
00000240: d74c ac3e 57e6 07bd b186 bfbe 9442 383f
00000250: 007c c1bd 5338 b03e b265 77be 7620 01be
00000260: f390 2b3f c9e3 be3e dceb 0b3f 6174 17bf
00000270: 6db2 0540 223e 313f 5a98 05be 4e02 883c
00000280: 0801 01c0 f9ea bebf 6851 4ebe 0958 53bb
00000290: 9425 fcbe ba74 b83f dfc5 fd3e 469a 7cbf
000002a0: cfb0 6b3e 6bde 17bf 0242 0f3f ffd4 24bf
000002b0: 1da6 433f 1b9c 483d 198c 3f3f f5e5 ed3e
000002c0: 18f8 ef3f a499 1fbe 8ca6 f73e 9fb3 38be
000002d0: e7cc 243f 857b e43f 33f4 2dbf 032d 4fbe
000002e0: a86f 04bf 41f8 a8bf 6264 37bf a1c5 84bf
000002f0: be6c d5be db9c 24bf 7f27 093e 0c74 c4bf
00000300: 99a2 3abf b10f 56bf ce09 9d3e 419f 873f
00000310: 68ce 5a3e fe79 8cbf 2b83 b4be fec6 0abf
00000320: aa50 d6bf d2e9 5a3f 9d2d 103f b290 e6be
00000330: d994 bcbe a8d4 4f3e 2f82 723e 8309 0f3f
00000340: 02b0 593f 2d15 6abf 32df 0d3e d4aa debe
00000350: 77f9 17be 7bfb 44bf b7ca 6dbf 12e0 113f
00000360: d8d2 143e 652f 853f 6102 c63d c7af 35bf
00000370: 0823 d53d 4b4c 8d3f 057f 933f d4dd 893e
00000380: 0dcd 03bf 8784 5bbf 6061 10be 4b7c 943f
00000390: 85d8 37bf e9dc 8b3d 47e4 8d3e 8407 403f
000003a0: 62a1 09bf fe34 6fbf 5977 043f ff33 4dbf
000003b0: 43a1 5abe 0cbf c93f 228e 5b3e 40eb b63e
000003c0: 7718 6e3f 9736 9b3f ceb4 7abf 29bd 29be
000003d0: fe91 ed3e 0223 683f a058 da3e 8fab 33bf
000003e0: cebc 7ebf 3fe7 2abe cbb8 f8bf e95d 58bf
000003f0: f0e1 74be 99bf 8a3d bbbb 26bf 4244 5ebf
1.3388776 -0.13959871 0.06702794 -0.4685861 -1.2333444 -0.2963353 1.0097218 0.68004274
0.8731068 0.8387587 -0.99064684 -0.57090735 -0.5872676 0.52197015 -0.27983475 0.14414336
1.2411654 -0.43955562 0.7955521 -0.13839182 -0.8248304 1.9249282 0.6018822 -1.6798314
-1.1674821 0.3539147 -0.9059811 -0.038918525 -0.05808722 -0.012904448 0.83671147 0.3690325
-0.3906932 -0.029112415 0.34814787 0.37574896 -0.49377722 -1.3844584 1.4070569 1.0657922
0.5430298 0.04076019 -0.18102063 1.4243337 0.46072093 -1.0267346 0.3127286 1.0234094
0.065043926 1.9210305 0.68015134 -0.2908259 0.71411383 0.8435279 0.24034275 -0.36289224
0.37596595 0.83779746 0.70714235 0.15919754 -1.8371415 0.8205792 0.5642781 1.0714111
-1.1414331 0.2611458 -0.05646783 0.03077366 0.3774678 -1.2848042 -0.17901355 -0.3286561
0.7891201 -0.49004525 -0.40289927 -0.05954213 -0.9505722 0.0425835 -0.031229163 1.020284
-0.19839045 -0.36294222 0.1861865 -1.5518687 -0.9258185 -0.1212549 -1.0028023 1.9305307
0.85714215 0.4097192 -0.6605966 0.62199455 1.202572 -0.64975494 0.6723197 1.0787048
1.4469283 -0.05965693 0.2899493 -0.16445221 -0.7024077 -0.9634381 -0.63228905 1.5844433
-0.107337065 -0.22003834 -1.146531 0.1214179 -0.31140372 -0.38478303 -0.88571143 -0.6732726
0.06982714 0.07427409 0.15306966 0.55812734 -1.4934645 -0.16501899 -0.36394763 -0.31270593
0.7201859 -0.56795245 -0.013934592 -0.08503365 2.1831748 -0.50673187 0.3430544 1.4462494
-0.15575589 -0.80080974 -1.1000193 -0.5048547 -0.27420822 -0.39087301 -0.38909292 0.92027193
0.6100526 1.1227647 0.051092528 0.12940054 0.28950766 -1.0485287 -1.092326 -0.42817417
0.33652374 -0.033178654 -0.3740745 0.7197659 -0.09447479 0.34417972 -0.24159887 -0.12610039
0.6701805 0.3728316 0.5465677 -0.59161955 2.0890152 0.6923543 -0.13046399 0.016602661
-2.015688 -1.4915458 -0.20148242 -0.0032248518 -0.4924742 1.4410622 0.49565026 -0.986729
0.23016666 -0.5932376 0.55960095 -0.64387506 0.76425344 0.048977 0.7482315 0.46464506
1.8747587 -0.15585953 0.48369253 -0.1803727 0.64375156 1.7850195 -0.67950743 -0.20232014
-0.51732874 -1.3200761 -0.71637547 -1.0372812 -0.41684526 -0.6430184 0.13393973 -1.5347915
-0.72904354 -0.83617693 0.30671543 1.0595475 0.213678 -1.0974729 -0.35256323 -0.5420989
-1.6743367 0.8551303 0.563196 -0.4503227 -0.36832312 0.20295966 0.23682474 0.5587389
0.8503419 -0.9143856 0.13854674 -0.43489707 -0.14841257 -0.7694623 -0.92887443 0.5698253
0.14533556 1.0405089 0.096684225 -0.7097134 0.10407072 1.1038908 1.1523138 0.26927054
-0.5148476 -0.85749096 -0.14099646 1.1600431 -0.7181476 0.06829245 0.27713224 0.7501147
-0.53761876 -0.93440235 0.5174461 -0.80157465 -0.21350579 1.5761428 0.21440938 0.35726357
0.9300608 1.2126034 -0.97932136 -0.16576065 0.46400446 0.9067842 0.4264574 -0.7018365
-0.99506843 -0.16689776 -1.9431394 -0.84518296 -0.23914313 0.067748256 -0.65130204 -0.86822903

network_body._body_endoder.seq_layers.0.bias f4 [128]
00000000: 0000 0000 0000 0000 0000 0000 0000 0000
00000010: 0000 0000 0000 0000 0000 0000 0000 0000
00000020: 0000 0000 0000 0000 0000 0000 0000 0000
00000030: 0000 0000 0000 0000 0000 0000 0000 0000
00000040: 0000 0000 0000 0000 0000 0000 0000 0000
00000050: 0000 0000 0000 0000 0000 0000 0000 0000
00000060: 0000 0000 0000 0000 0000 0000 0000 0000
00000070: 0000 0000 0000 0000 0000 0000 0000 0000
00000080: 0000 0000 0000 0000 0000 0000 0000 0000
00000090: 0000 0000 0000 0000 0000 0000 0000 0000
000000a0: 0000 0000 0000 0000 0000 0000 0000 0000
000000b0: 0000 0000 0000 0000 0000 0000 0000 0000
000000c0: 0000 0000 0000 0000 0000 0000 0000 0000
000000d0: 0000 0000 0000 0000 0000 0000 0000 0000
000000e0: 0000 0000 0000 0000 0000 0000 0000 0000
000000f0: 0000 0000 0000 0000 0000 0000 0000 0000
00000100: 0000 0000 0000 0000 0000 0000 0000 0000
00000110: 0000 0000 0000 0000 0000 0000 0000 0000
00000120: 0000 0000 0000 0000 0000 0000 0000 0000
00000130: 0000 0000 0000 0000 0000 0000 0000 0000
00000140: 0000 0000 0000 0000 0000 0000 0000 0000
00000150: 0000 0000 0000 0000 0000 0000 0000 0000
00000160: 0000 0000 0000 0000 0000 0000 0000 0000
00000170: 0000 0000 0000 0000 0000 0000 0000 0000
00000180: 0000 0000 0000 0000 0000 0000 0000 0000
00000190: 0000 0000 0000 0000 0000 0000 0000 0000
000001a0: 0000 0000 0000 0000 0000 0000 0000 0000
000001b0: 0000 0000 0000 0000 0000 0000 0000 0000
000001c0: 0000 0000 0000 0000 0000 0000 0000 0000
000001d0: 0000 0000 0000 0000 0000 0000 0000 0000
000001e0: 0000 0000 0000 0000 0000 0000 0000 0000
000001f0: 0000 0000 0000 0000 0000 0000 0000 0000
0.0 0.0 0.0 0.0 0.0 0.0 0.0 0.0
0.0 0.0 0.0 0.0 0.0 0.0 0.0 0.0
0.0 0.0 0.0 0.0 0.0 0.0 0.0 0.0
0.0 0.0 0.0 0.0 0.0 0.0 0.0 0.0
0.0 0.0 0.0 0.0 0.0 0.0 0.0 0.0
0.0 0.0 0.0 0.0 0.0 0.0 0.0 0.0
0.0 0.0 0.0 0.0 0.0 0.0 0.0 0.0
0.0 0.0 0.0 0.0 0.0 0.0 0.0 0.0
0.0 0.0 0.0 0.0 0.0 0.0 0.0 0.0
0.0 0.0 0.0 0.0 0.0 0.0 0.0 0.0
0.0 0.0 0.0 0.0 0.0 0.0 0.0 0.0
0.0 0.0 0.0 0.0 0.0 0.0 0.0 0.0
0.0 0.0 0.0 0.0 0.0 0.0 0.0 0.0
0.0 0.0 0.0 0.0 0.0 0.0 0.0 0.0
0.0 0.0 0.0 0.0 0.0 0.0 0.0 0.0
0.0 0.0 0.0 0.0 0.0 0.0 0.0 0.0

network_body._body_endoder.seq_layers.2.weight f4 [128, 128]
00000000: ef37 aebc 3367 973d d0ea 2e3d dd24 073e
00000010: f2e5 08be 1093 81bd 4e2a b5bb 3394 afbc
00000020: 977e a9bd 7d54 a1bd aff2 d5bc 6a80 17bd
00000030: 67f7 aebc b129 613c b997 ccbc f36b b5bd
00000040: 8d77 11be 8cd0 273d e9c5 15bc 411d 313d
00000050: 83f6 073d bd43 da3d 0c90 363c 9c2a d13b
00000060: bb40 533d c291 cb3d d760 2e3c 9eaf 40bd
00000070: 973a 35bd 0cf8 0ebe c1a5 e6bd 0589 e73d
00000080: febb 923d 369c 693b 0766 a83d ccea a8bc
00000090: 3cac 73bd 0b2a a8bd 12ad 953c d9cf aa3d
000000a0: ad59 27bd cd41 2bbb 1a0b da3c ce48 8d3e
000000b0: e483 373c 22f1 eabd a521 633c 43ef 8c3d
000000c0: 2872 703d 6623 b6bd 1353 a7bd b0d2 8dbd
000000d0: a5ba 813a 90c8 713b 8a07 56be 637b 1c3e
000000e0: 593d 74be d250 373e c188 f2bc cabe 47bd
000000f0: 6634 013d 736a eebd 0700 a33d e640 9abb
00000100: 2672 4ebd 9834 573d be98 51bd 7aed 7f3d
00000110: c5bd 333e 3ad9 7dbb 26d9 acbd 63b0 b3bd
00000120: 1bb5 fabd d507 cbbd 37d4 f9bb 6dd5 7c3d
00000130: e8a4 4ebd 619d 53be 697f 9a3d 3571 913d
00000140: 0b3e 1ebd bc2a 0fbd b8d4 ea3d af33 5b3d
00000150: 37da 1fbd a8fc 3e3d 8f81 18bd 47de 40bd
00000160: 6b90 903c 3030 e4ba bbc1 b13b b211 62bc
00000170: df57 79bd 2927 a73d d38f a63d 9b39 0f3d
00000180: 33a1 0bbe e8d7 783b 30a4 ab3d c43b e03c
00000190: e70d c73c 89b6 d63c 4405 fb3c 8386 2e3d
000001a0: f70e 483c 0244 18bd 7572 913d 90f6 b13d
000001b0: b891 8e3c 9981 1abd b208 77bd 0cb7 9f3d
000001c0: 58dc 09bd c3f1 a0bd 14e7 36bd c65c b73d
000001d0: add9 813b e969 5a3e 2034 433a 9a3a 03bd
000001e0: 67d5 8d3d 3c0b 82bd c0e3 12bc 25bd 043e
000001f0: 5268 2bbc 0d30 033e 1814 753d 67a8 35bc
00000200: 1b84 59ba 436d b13a c005 0e3e 21ce 11bd
00000210: 1fdf 25be a7bc 85bd 517e 843c b55b eb3b
00000220: 7aa9 b0bc cc0e 7cbd 481a 87bd f38a d43d
00000230: 4e93 3cbd 0868 813d e9bf 993d 79f2 ab3c
00000240: 12e3 113e e69b 5a3d 71c0 523d 5ba0 67be
00000250: 039c cb3c 1a96 4a3d e14b e5bc e1db 3fbe
00000260: 15c8 38bd 2e6e 5b3e 109b fabc acda 22bd
00000270: 4608 2b3c d45e b53c 6231 2bbc 4b05 01bc
00000280: 9a13 10bd 3ae5 0dbd 5b1a f5bd b96f 083b
00000290: d47b 003e 91d1 00be f30a 97bd 5f47 2b3d
000002a0: becf e0bd 1459 b0bd cdbb 21be 524b 86bc
000002b0: 8a78 a1bc c32c 8d3c 7221 fe3d e646 aebd
000002c0: 32a1 da3d 1543 f8bc 24db 353d 8aae b83d
000002d0: 116f a33d af3c d0bd 0dc9 f23d b30e 4dbe
000002e0: fb37 283c 870c 4cbe 63dd 97bd 7305 773d
000002f0: 858d 58bd f88d b93b a059 8f3c 1940 ccbd
00000300: 0881 273d 1af7 ccbd dc8a cabc 9e35 88bd
00000310: f1a2 a13d 9705 463c f7ec 073c 980a 9f3d
00000320: 5e28 b3bd 435f 28bd 7ecb 653a c22b 28be
00000330: 9bbe a13d b04e 113e 5406 6fbd d682 4dbb
00000340: 4220 f8bd 898a 5c3d 0606 603e 6a70 a2bc
00000350: e3a2 22be dfe2 f03d 7741 aebd 6cc1 acbd
00000360: 61b5 dd3c 701a 6b3d 20d0 5bbd 8f63 30be
00000370: 8b26 9d3d 6664 1d3e c832 a83d 4df5 babd
00000380: a3b2 953d e5ff c6bd 7df9 75bd 7fb2 4b3d
00000390: e2e7 3ebe f6b7 6cbd e56a cb3d c334 27be
000003a0: 17db 173d 51ad 2ebe 8283 3bbc c6c1 da3b
000003b0: 148f e43d 6322 5ebc 4b00 473d 48ad 7dbb
000003c0: 6333 e5bd f006 00be 33c5 27bd 3e7f 193d
000003d0: b4a5 fabc 678d 33bc b804 2abd 167e a33b
000003e0: cb1b 4cbd 4215 3fbd 8888 1a3d 1489 92bd
000003f0: a924 f6bc 252d 273d b9d5 abbc b110 883b
-0.021266906 0.073927306 0.042704403 0.13197656 -0.13368967 -0.06326878 -0.0055287248 -0.021432972
-0.08276098 -0.07877443 -0.026116697 -0.0369877 -0.021358205 0.01374285 -0.02497469 -0.0885848
-0.14205761 0.04097037 -0.009141424 0.04324079 0.033194076 0.10657451 0.011142742 0.0063832533
0.051575404 0.099399105 0.010643206 -0.04704248 -0.04424533 -0.1396181 -0.11262084 0.11305431
0.07164763 0.0035646087 0.08222585 -0.020619772 -0.059490427 -0.08211144 0.018271003 0.08340425
-0.040857006 -0.002613175 0.026616622 0.27594608 0.011200879 -0.11471774 0.013863002 0.06881573
0.058702618 -0.088934705 -0.08170142 -0.06924951 0.0009897543 0.0036893226 -0.20901313 0.15281443
-0.23851527 0.17901924 -0.029606225 -0.048765935 0.03154411 -0.11641397 0.079589896 -0.0047074435
-0.05040183 0.05254039 -0.051171057 0.062482335 0.1755286 -0.0038734213 -0.08439855 -0.087738775
-0.122415744 -0.09913603 -0.007624175 0.061726976 -0.050450236 -0.20665504 0.07543833 0.07101671
-0.038633388 -0.034952864 0.11466354 0.053516086 -0.039026465 0.04662767 -0.03723293 -0.04708698
0.017646989 -0.001740938 0.005424706 -0.013798164 -0.060874816 0.08161766 0.08132901 0.034967046
-0.13635711 0.0037970487 0.08380926 0.027372248 0.024298621 0.026210086 0.03064216 0.04260875
0.012210599 -0.037174232 0.07101909 0.08689606 0.017403468 -0.03772125 -0.060311027 0.07798585
-0.0336574 -0.078586124 -0.044653967 0.08953242 0.0039627166 0.21329464 0.0007446427 -0.03203831
0.06925469 -0.06349799 -0.008965433 0.12962778 -0.010461884 0.12811299 0.059833616 -0.0110875135
-0.00082975783 0.0013536591 0.13869381 -0.03559697 -0.16198395 -0.06530123 0.016173514 0.007182563
-0.021565188 -0.06153755 -0.065968096 0.10378065 -0.04603892 0.063186705 0.07507307 0.020989643
0.14246777 0.053371333 0.051453058 -0.22619765 0.024854666 0.049459554 -0.027990283 -0.18736221
-0.045112688 0.21428749 -0.030591518 -0.039759323 0.010438984 0.022139944 -0.0104487855 -0.007874797
-0.035174944 -0.034642436 -0.119679175 0.0020818545 0.12547237 -0.12579943 -0.07375135 0.04181611
-0.10977124 -0.0861074 -0.15794297 -0.016393337 -0.019710798 0.017233258 0.12408723 -0.085096166
0.10675277 -0.030305425 0.044398442 0.09017666 0.079801686 -0.101678245 0.11854754 -0.20025139
0.010267253 -0.19926654 -0.07415273 0.06030793 -0.05286934 0.005662676 0.017498791 -0.09973163
0.04089454 -0.100080684 -0.024724416 -0.06650852 0.07892407 0.012086294 0.008296243 0.077656925
-0.08747934 -0.041106474 0.00087659794 -0.16422942 0.07897683 0.14190173 -0.058355644 -0.0031358502
-0.12115528 0.053843055 0.21877298 -0.019828994 -0.15882449 0.11762022 -0.0850858 -0.0843533
0.027064027 0.05739826 -0.05366528 -0.17225479 0.07673367 0.1537033 0.08212811 -0.09128819
0.07309463 -0.09716777 -0.060052384 0.049730774 -0.18643144 -0.057792626 0.09932498 -0.16328721
0.037074175 -0.17058302 -0.011444928 0.0066759316 0.111601025 -0.013558003 0.048584264 -0.003870802
-0.11191442 -0.12502646 -0.04095955 0.037474863 -0.030596592 -0.010959006 -0.041508406 0.004989396
-0.049831193 -0.046651132 0.037727863 -0.07155052 -0.030046778 0.040814538 -0.020975934 0.0041523804

network_body._body_endoder.seq_layers.2.bias f4 [128]
00000000: 0000 0000 0000 0000 0000 0000 0000 0000
00000010: 0000 0000 0000 0000 0000 0000 0000 0000
00000020: 0000 0000 0000 0000 0000 0000 0000 0000
00000030: 0000 0000 0000 0000 0000 0000 0000 0000
00000040: 0000 0000 0000 0000 0000 0000 0000 0000
00000050: 0000 0000 0000 0000 0000 0000 0000 0000
00000060: 0000 0000 0000 0000 0000 0000 0000 0000
00000070: 0000 0000 0000 0000 0000 0000 0000 0000
00000080: 0000 0000 0000 0000 0000 0000 0000 0000
00000090: 0000 0000 0000 0000 0000 0000 0000 0000
000000a0: 0000 0000 0000 0000 0000 0000 0000 0000
000000b0: 0000 0000 0000 0000 0000 0000 0000 0000
000000c0: 0000 0000 0000 0000 0000 0000 0000 0000
000000d0: 0000 0000 0000 0000 0000 0000 0000 0000
000000e0: 0000 0000 0000 0000 0000 0000 0000 0000
000000f0: 0000 0000 0000 0000 0000 0000 0000 0000
00000100: 0000 0000 0000 0000 0000 0000 0000 0000
00000110: 0000 0000 0000 0000 0000 0000 0000 0000
00000120: 0000 0000 0000 0000 0000 0000 0000 0000
00000130: 0000 0000 0000 0000 0000 0000 0000 0000
00000140: 0000 0000 0000 0000 0000 0000 0000 0000
00000150: 0000 0000 0000 0000 0000 0000 0000 0000
00000160: 0000 0000 0000 0000 0000 0000 0000 0000
00000170: 0000 0000 0000 0000 0000 0000 0000 0000
00000180: 0000 0000 0000 0000 0000 0000 0000 0000
00000190: 0000 0000 0000 0000 0000 0000 0000 0000
000001a0: 0000 0000 0000 0000 0000 0000 0000 0000
000001b0: 0000 0000 0000 0000 0000 0000 0000 0000
000001c0: 0000 0000 0000 0000 0000 0000 0000 0000
000001d0: 0000 0000 0000 0000 0000 0000 0000 0000
000001e0: 0000 0000 0000 0000 0000 0000 0000 0000
000001f0: 0000 0000 0000 0000 0000 0000 0000 0000
0.0 0.0 0.0 0.0 0.0 0.0 0.0 0.0
0.0 0.0 0.0 0.0 0.0 0.0 0.0 0.0
0.0 0.0 0.0 0.0 0.0 0.0 0.0 0.0
0.0 0.0 0.0 0.0 0.0 0.0 0.0 0.0
0.0 0.0 0.0 0.0 0.0 0.0 0.0 0.0
0.0 0.0 0.0 0.0 0.0 0.0 0.0 0.0
0.0 0.0 0.0 0.0 0.0 0.0 0.0 0.0
0.0 0.0 0.0 0.0 0.0 0.0 0.0 0.0
0.0 0.0 0.0 0.0 0.0 0.0 0.0 0.0
0.0 0.0 0.0 0.0 0.0 0.0 0.0 0.0
0.0 0.0 0.0 0.0 0.0 0.0 0.0 0.0
0.0 0.0 0.0 0.0 0.0 0.0 0.0 0.0
0.0 0.0 0.0 0.0 0.0 0.0 0.0 0.0
0.0 0.0 0.0 0.0 0.0 0.0 0.0 0.0
0.0 0.0 0.0 0.0 0.0 0.0 0.0 0.0
0.0 0.0 0.0 0.0 0.0 0.0 0.0 0.0

action_model._discrete_distribution.branches.0.weight f4 [100, 128]
00000000: 977c e7b9 0f00 353b bbf5 e0bb 144f 0cba
00000010: e930 b6bb 27b1 5e3c 4820 283c 069b 93ba
00000020: 053f b0bb 408d a23b 4e6b 403b 4503 cf3b
00000030: c6fe 37bc da18 3e3b 15ab df3b e19b 8dba
00000040: 1210 663b efa2 c73c 8cd0 223b ab85 4eb7
00000050: 7191 91ba d725 3c3c 05fb 4b39 a306 0dbb
00000060: 9ad2 ec3b 1b1e 61bc 1595 d83b 929a 1c3b
00000070: 7ed9 063c 34dc 27bb ad3f a9bb d508 563b
00000080: ffb1 153c 757c 723b efea 203c 4035 d73b
00000090: fb4f 013c 736a 5b3c f9ec 45bb 83e4 863c
000000a0: 43bb 913b 126f 81bc d027 88bc ffe9 4ebc
000000b0: ff96 15ba 8665 8bbb eb86 80bc c157 813b
000000c0: 7df7 00bc 9233 d9bb 9d86 6bbb 256d 913b
000000d0: f3ee 11bc 38c6 07bc 0857 0fbc 2f78 43bc
000000e0: 4000 ea3b af5e ea3a e774 5e3a 2f00 12bc
000000f0: 8f7b 17bc ea99 393b c068 153c e7ef 91bc
00000100: 882d 65bb 0ea5 273b d913 193c ebf5 34bb
00000110: f06c 7ebc fb2d 4c3c a2ce 6abb 74a2 93bb
00000120: 810c 1bbb 0661 c03a 69a5 cabc 4a6a c0bb
00000130: 7b29 febb 0d4f deba ea12 6dbb 1242 0fbb
00000140: a933 043c 40b2 d1bb b208 f5bb db1f 7f3a
00000150: 8899 04bb 8879 dabb 5380 14bc 38b2 8a3c
00000160: 0425 053b 93d8 7a3c cff2 863b 9a3c 72bb
00000170: eb33 573b 7375 003b d416 4c3b ced9 29bb
00000180: 5088 8d3c 23b5 5cbc 0210 10bb 8aeb a8bc
00000190: b2fa e23b 588c 4f3a 5065 66b9 7faf 0d3b
000001a0: e70d d5bb 63d7 c63b 7370 16bc ad8d 84bc
000001b0: f0ab dfba e733 c23b fff8 c1bb 27eb ddbb
000001c0: 9dd9 5abc 191a 163c 95a5 e239 4753 a6bb
000001d0: 9286 92bb f757 0fbb c80b 68bc 231b cabb
000001e0: cb0d 19bc d60f 2fbc e7d1 b6bb 2807 78ba
000001f0: 8071 f53a 9fa7 403b e826 8cba 6bd6 f33a
00000200: c3fb 49bb eb1d 94b9 d365 f93b 9753 25b9
00000210: f83b f0bb 9bb9 b1ba 5397 333b 5907 bb3b
00000220: c82c 4439 8975 8c3c 6906 243b 3775 1bbc
00000230: 4780 ae3b 5f3b a3bb c5c7 3c3c 7413 87bb
00000240: 3d98 1d3c cd0e 793b 4caf b23b 6901 1b3a
00000250: 533c 03bc 59e8 07bc 6307 0abc 9d8f e03b
00000260: 8e78 49bb d6d6 263a 326e 01bc d232 893c
00000270: 85cf 93bc 8fdf 3a3b c0b6 2a3c c253 04bc
00000280: f25c ab3c 6bbe 7f3c 534c 9b3b e3c0 df3b
00000290: d0ad 483b cd39 a6bb b2a1 f3bb efaa ea3b
000002a0: afd7 993b d0ce 8ebb 5375 cb3b 47d2 ef3a
000002b0: 9d0a 0c3c 4753 db3b 3ae1 f53a 30a9 023b
000002c0: c6a1 3bbc 3057 9cbb 873a 723c 0c27 143b
000002d0: f78f 5a38 7d45 49bc edbf 6ebb 4b7f 6f3c
000002e0: a42e 123c 7346 a1ba 0637 88bc ab47 52bc
000002f0: 63eb 43bc 737e 57bc fba9 47bb c2e2 70ba
00000300: 1535 5cbb 3291 98bb cdce 1d3b e33b 5039
00000310: 3bf4 e63b 85bc ee3b 2f25 823c 85d7 ae3b
00000320: 96f4 3fb8 8077 363b c47c c238 cfe7 97bb
00000330: 5330 793b cf2f 86bb 9072 c3bc 8a02 a4bc
00000340: a51e 5c3b 2b2b 953b a1dc b23b 3f01 ad3b
00000350: 7f62 a7bc fad4 f83b 6163 cb39 ddcd d6bb
00000360: 5259 983b 7b63 c2ba 2ac2 dd3b cd9d 1a3b
00000370: 67f0 bcbc 7021 a43b 051b 483b 2f32 24bb
00000380: d8a4 7f3b f410 9f3c 43d7 e6bb cf65 a2bb
00000390: 388b 763b 8464 adbb 84a6 09bb b750 993a
000003a0: 5a23 e7bb d314 39bc 6bb8 19bc 7593 9bbc
000003b0: 3b1b 3eba 54d9 0b3b 10a3 a738 1855 fa3a
000003c0: cfd5 ec3b b0a7 e3b9 0f67 823b 5de6 3d3b
000003d0: 9a6e 4bbb b581 d9ba 2fc8 a23a 519e 823a
000003e0: 43bf 1bbc eaa2 603b 28a6 1fbc c40e 23bc
000003f0: 6b9a a9bb 17eb 41bb d8b1 763a 9db8 08bc
-0.0004415258 0.0027618443 -0.006865231 -0.000535236 -0.0055600298 0.013592041 0.010261603 -0.001126141
-0.0053786063 0.004960686 0.0029360834 0.0063175284 -0.011230176 0.0029006512 0.0068258145 -0.0010803902
0.0035104793 0.024369685 0.0024843542 -1.2309679e-05 -0.0011105967 0.011483631 0.000194531 -0.0021518848
0.007227254 -0.013740088 0.006609569 0.0023895842 0.008230565 -0.002561343 -0.0051650614 0.0032659073
0.009136676 0.0037000452 0.0098216375 0.006567627 0.007892604 0.013392079 -0.003020106 0.016466385
0.004447372 -0.015800033 -0.016620547 -0.012629031 -0.0005706399 -0.004254046 -0.015689334 0.0039472287
-0.007871506 -0.006628462 -0.003593839 0.00443806 -0.008907068 -0.008287005 -0.008748777 -0.0119305095
0.007141143 0.0017881001 0.0008486048 -0.008911177 -0.009245767 0.00283205 0.009119213 -0.01781459
-0.0034969766 0.0025580558 0.009343111 -0.00276124 -0.015528902 0.0124621345 -0.003582873 -0.00450545
-0.0023658576 0.0014677353 -0.024737077 -0.0058720456 -0.0077564097 -0.0016960815 -0.0036174604 -0.002185945
0.008068957 -0.006399423 -0.007477843 0.0009732225 -0.0020233113 -0.0066673197 -0.009063798 0.016930684
0.0020316252 0.015310424 0.0041183005 -0.003696239 0.0032837342 0.0019601255 0.0031141536 -0.0025917175
0.017276913 -0.013470921 -0.0021982198 -0.020620126 0.006926858 0.0007917336 -0.00021972251 0.0021619496
-0.0065019014 0.0060681566 -0.009182083 -0.016180838 -0.0017064791 0.0059265974 -0.005919575 -0.006772417
-0.013357547 0.009161496 0.00043229447 -0.0050758454 -0.0044716084 -0.00218725 -0.014162965 -0.0061677857
-0.009341667 -0.010684928 -0.0055792215 -0.00094615156 0.0018725842 0.0029396785 -0.0010692747 0.001860333
-0.0030820228 -0.0002825105 0.0076110153 -0.00015766766 -0.0073313676 -0.0013559343 0.0027403429 0.005707663
0.00018708699 0.017145889 0.0025028235 -0.009488395 0.0053253504 -0.004981443 0.011522238 -0.004122192
0.009618816 0.0038003207 0.005453026 0.0005912991 -0.008009988 -0.008295142 -0.008424613 0.0068530575
-0.0030742022 0.00063644105 -0.007899808 0.016747866 -0.018043289 0.00285146 0.010419548 -0.00807661
0.020918343 0.015609364 0.004739323 0.006828414 0.0030621178 -0.0050728084 -0.007435047 0.00716149
0.004694901 -0.00435815 0.0062090545 0.001829692 0.008547452 0.006693277 0.0018759139 0.001993727
-0.011452144 -0.0047711357 0.014784462 0.0022606282 5.2109328e-05 -0.012284634 -0.0036430315 0.014617751
0.008922253 -0.0012304321 -0.0166278 -0.01283447 -0.011957976 -0.013152706 -0.0030466306 -0.0009189063
-0.0033600975 -0.0046559805 0.0024079562 0.00019858735 0.0070481575 0.007285657 0.015886871 0.0053357505
-4.5765737e-05 0.0027842224 9.27388e-05 -0.004635788 0.0038023188 -0.0040950547 -0.023858339 -0.020020742
0.0033587602 0.004552265 0.00545843 0.0052796896 -0.020432709 0.007593748 0.0003879322 -0.0065553025
0.0046493197 -0.0014830673 0.006767531 0.0023592592 -0.023063852 0.005008869 0.0030533683 -0.0025054326
0.0039008167 0.019417264 -0.007044704 -0.004955984 0.0037619602 -0.0052915234 -0.0021003792 0.0011697029
-0.007053775 -0.011296469 -0.009382348 -0.018991211 -0.00072519825 0.0021339254 7.993553e-05 0.0019098846
0.0072276364 -0.0004342175 0.0039795707 0.0028976419 -0.0031041265 -0.0016594442 0.0012419279 0.0009965395
-0.00950605 0.0034276792 -0.009744205 -0.009952251 -0.0051758788 -0.0029589587 0.0009410656 -0.0083447965

action_model._discrete_distribution.branches.0.bias f4 [100]
00000000: 0000 0000 0000 0000 0000 0000 0000 0000
00000010: 0000 0000 0000 0000 0000 0000 0000 0000
00000020: 0000 0000 0000 0000 0000 0000 0000 0000
00000030: 0000 0000 0000 0000 0000 0000 0000 0000
00000040: 0000 0000 0000 0000 0000 0000 0000 0000
00000050: 0000 0000 0000 0000 0000 0000 0000 0000
00000060: 0000 0000 0000 0000 0000 0000 0000 0000
00000070: 0000 0000 0000 0000 0000 0000 0000 0000
00000080: 0000 0000 0000 0000 0000 0000 0000 0000
00000090: 0000 0000 0000 0000 0000 0000 0000 0000
000000a0: 0000 0000 0000 0000 0000 0000 0000 0000
000000b0: 0000 0000 0000 0000 0000 0000 0000 0000
000000c0: 0000 0000 0000 0000 0000 0000 0000 0000
000000d0: 0000 0000 0000 0000 0000 0000 0000 0000
000000e0: 0000 0000 0000 0000 0000 0000 0000 0000
000000f0: 0000 0000 0000 0000 0000 0000 0000 0000
00000100: 0000 0000 0000 0000 0000 0000 0000 0000
00000110: 0000 0000 0000 0000 0000 0000 0000 0000
00000120: 0000 0000 0000 0000 0000 0000 0000 0000
00000130: 0000 0000 0000 0000 0000 0000 0000 0000
00000140: 0000 0000 0000 0000 0000 0000 0000 0000
00000150: 0000 0000 0000 0000 0000 0000 0000 0000
00000160: 0000 0000 0000 0000 0000 0000 0000 0000
00000170: 0000 0000 0000 0000 0000 0000 0000 0000
00000180: 0000 0000 0000 0000 0000 0000 0000 0000
0.0 0.0 0.0 0.0 0.0 0.0 0.0 0.0
0.0 0.0 0.0 0.0 0.0 0.0 0.0 0.0
0.0 0.0 0.0 0.0 0.0 0.0 0.0 0.0
0.0 0.0 0.0 0.0 0.0 0.0 0.0 0.0
0.0 0.0 0.0 0.0 0.0 0.0 0.0 0.0
0.0 0.0 0.0 0.0 0.0 0.0 0.0 0.0
0.0 0.0 0.0 0.0 0.0 0.0 0.0 0.0
0.0 0.0 0.0 0.0 0.0 0.0 0.0 0.0
0.0 0.0 0.0 0.0 0.0 0.0 0.0 0.0
0.0 0.0 0.0 0.0 0.0 0.0 0.0 0.0
0.0 0.0 0.0 0.0 0.0 0.0 0.0 0.0
0.0 0.0 0.0 0.0 0.0 0.0 0.0 0.0
0.0 0.0 0.0 0.0

network_body._body_endoder.seq_layers.0.weight f4 [128, 2]
00000000: ef8b 3ebe 3edc 9abf 2176 803e 2b21 39be
00000010: c3a5 023f 052f b2be 0996 d7be aab6 cc3d
00000020: 012a 483f a591 983e bdb0 70be 8dd4 72bd
00000030: b0f8 18bf 4383 8bbd 8287 6bbe dd29 74bd
00000040: 81ac 7fbf fd33 a63d c57a 6abd b757 e7bf
00000050: 82a3 54bf 08d3 43bf 277c ca3d 7121 ff3e
00000060: 36ef 1bbf 3d97 4d3f e6d2 a1bf 6899 3cbf
00000070: 2a9f 2e3f 0713 9bbf f655 7ebf f460 9abf
00000080: f2c9 cb3f f019 223f 14dd 93bf 0019 d5be
00000090: cb55 b4bd 05b3 293f c47e 86be 686d 183f
000000a0: 8537 90be f21c c43e 81a5 a73f 2b62 3c3f
000000b0: 5c71 e7bf e721 323f 1c51 a73e c357 9fbf
000000c0: 8bfc a23f 5251 0a3e a81a 1abe 3093 c9bf
000000d0: 5571 9d3e 622c 003e 1153 4abd c225 9bbf
000000e0: dccc 57bf 6eab 97bf 9cbc 723e 07ae 263e
000000f0: e621 bc3e 566b 15bf 5551 5fbf aabb e23e
00000100: 1c60 233e 7867 ae3d aee1 563e 01c9 a0be
00000110: 78b2 18bf fcc0 f73c 73a4 2e3e 4915 15be
00000120: b193 6e3e 007e 0a3f f688 1fbf 73db 16bf
00000130: 6674 fc3d 61eb 03bf 9268 90b9 d59f adbe
00000140: 9053 6fbf e5b0 21bf 0c9f f03e 10dd 03be
00000150: 4e43 503e 3e97 993e b665 a2bf 0071 88bf
00000160: 9de5 633f e61a 3c3f 058e 1dbd a597 2c3e
00000170: cf7d ddbe 97b1 8f3f 5a14 79be 2365 1c3f
00000180: a020 e83e 890c b43e d05e 433e ebe2 8c3f
00000190: edb7 833e a5bf 0cbf 3cbd 113d 1f6e a43c
000001a0: b9c7 533f c3f8 ebbe 73df 003f 3476 eebd
000001b0: a61e f3be c3ac 1abe 1814 ffbd 0c37 d3be
000001c0: 5812 83be 7b56 583d 9618 09bf 0667 cebf
000001d0: b30d 8bbf c514 c1be 491f 8f3f c607 d53e
000001e0: 99ec 0a3f fea3 8fbf cd7c 4f3e 17ee 753d
000001f0: 8658 0ebf 1f18 6cbf 40c1 393f 53f6 093f
00000200: 58a7 e73f d167 39be 61e5 503f 536a 05bf
00000210: 7156 81bd fc29 00bf c2f9 88bf d74d 3d3f
00000220: 2d7e a8be 0d17 8abe 8a11 b4bd 3bd9 77bf
00000230: 4e57 c53e 3c82 03bf 3fe0 af3d 7d16 58be
00000240: c201 a83f 8d8a 38be 04da 37be e9e5 a9be
00000250: 33fe 48bf 79a1 b5be 03c7 87be 44fe 59bf
00000260: 5760 21bd 3bae 003e 9521 913e 4b99 163f
00000270: af9c f13e 9dff 6c3e c4c2 583f eee8 843e
00000280: d84c d3bd 643d 273f e5c7 c4be 89c5 7cbd
00000290: b283 393e 94c2 fabe 3a6a 1cbf 363e 2cbe
000002a0: 2ba2 53bf 1a6d 12be 7fe4 f7be 5858 9d3e
000002b0: c842 1b3f 157c 543f d211 823f e33d 96bf
000002c0: 1305 12bf 3457 ffbe ae58 a4be c171 293e
000002d0: 476f cd3e 3bab c5be fb5f 50bf f2ed 013f
000002e0: acb6 7e3f 3051 fcbe f77b 4ebe fd70 26bf
000002f0: 4958 31bf 8798 87bf 05a7 f0be 53eb 403e
00000300: 3b13 973f 7b5a da3f f274 553d 3d2c 46bf
00000310: 1cbe e4be 26fb 683f 2ce8 583e 1c24 9bbf
00000320: 7844 173f 65c2 87bf 2d03 103f d277 b5bf
00000330: 39f8 29bf c24b 033f cd8f 4a3f 2029 143f
00000340: c55d c73f 538c acbe 9fa9 3ebc 07a8 f6bd
00000350: 4254 373f 4b67 f3bd 396b 563f c769 e13e
00000360: 2d00 11bf 1ceb 8abe 7ad4 bebe 002a 1a3d
00000370: d168 ab3e d9b9 2d3e 0a4f 8f3e b5d0 303e
00000380: 4aa7 163c 5475 1b3e 1423 b5be 14f3 923e
00000390: a9da a13e a6fc 743e 9c9a bfbe b184 a93d
000003a0: b776 023f 45e6 143f f642 f3be 96e5 0bbe
000003b0: 947b eebe e06c a1be 2c86 a23f 543c e9bd
000003c0: 0757 703c 5a1a ccbe e83f 793e e0f9 3f3e
000003d0: 3262 0fbf cade 8b3e 7241 0ebf b07e 16bf
000003e0: 23b4 cebe ad19 5abe 5a01 5a3f a8cd 72be
000003f0: 6bc8 10bf 7be8 82bf a722 14bf 004b 8d3f
-0.18608068 -1.2098463 0.25090125 -0.18079059 0.5103418 -0.34801498 -0.42106655 0.09995778
0.7818909 0.29798618 -0.2350492 -0.059284735 -0.59754467 -0.068121456 -0.23000911 -0.059610236
-0.99872595 0.08115385 -0.05724599 -1.8073643 -0.83061993 -0.76493883 0.098869614 0.498302
-0.6091188 0.80308896 -1.2642486 -0.7367158 0.68211615 -1.2115182 -0.99349916 -1.2060838
1.5921004 0.6332083 -1.1551843 -0.41620636 -0.08805426 0.6628879 -0.2626859 0.5954194
-0.28167358 0.38303334 1.3097383 0.7358729 -1.808147 0.6958298 0.3267907 -1.2448658
1.273332 0.13507584 -0.15049231 -1.5748043 0.30750528 0.1251693 -0.049395625 -1.2120898
-0.84296966 -1.1849191 0.23704761 0.16277324 0.36744612 -0.58366907 -0.8723348 0.442838
0.15954632 0.08515829 0.20984527 -0.31403354 -0.5964732 0.03024339 0.1705492 -0.14558901
0.23298527 0.5409851 -0.6231836 -0.589286 0.12326889 -0.51531035 -0.0002754373 -0.33911005
-0.9348688 -0.63160545 0.46996343 -0.12877297 0.20338175 0.299982 -1.268729 -1.0659485
0.8902224 0.73478544 -0.03846552 0.16854723 -0.43260047 1.1226071 -0.2432417 0.6109182
0.4533739 0.35165814 0.19079137 1.100675 0.25726262 -0.54979926 0.03558086 0.020072041
0.8272663 -0.46088228 0.50340956 -0.11643639 -0.4748432 -0.15104966 -0.124550045 -0.41252935
-0.25599933 0.05281685 -0.5355314 -1.612519 -1.0863556 -0.37711158 1.1181422 0.41607493
0.5426727 -1.1221921 0.20262451 0.060041513 -0.55603826 -0.92224306 0.725605 0.53891486
1.8097944 -0.18106009 0.81600004 -0.5211536 -0.063153155 -0.50064063 -1.070122 0.739469
-0.32908764 -0.2697071 -0.08792408 -0.9681584 0.3854317 -0.51370597 0.085876934 -0.21102329
1.3125536 -0.18021603 -0.1795426 -0.3318322 -0.7851288 -0.35474756 -0.2651902 -0.85153604
-0.039398517 0.12566464 0.28345934 0.58827657 0.47189853 0.23144384 0.8467219 0.2595896
-0.10317391 0.6532805 -0.38433757 -0.06171182 0.18116644 -0.48976576 -0.6109959 -0.16820607
-0.82669324 -0.14299431 -0.48416516 0.30731463 0.60648775 0.83001834 1.0161688 -1.1737636
-0.5703899 -0.49871218 -0.32098907 0.165473 0.4012396 -0.386072 -0.81396455 0.507537
0.99497485 -0.4928069 -0.20164476 -0.65016156 -0.6927534 -1.0593423 -0.47002426 0.18839769
1.1802744 1.7058862 0.05211348 -0.7741125 -0.44676292 0.9100822 0.21182317 -1.2120395
0.5908885 -1.06062 0.56254846 -1.4177191 -0.6639438 0.5128747 0.7912567 0.5787525
1.5575491 -0.3370081 -0.0116371205 -0.120437674 0.7161294 -0.11884936 0.8375736 0.44026014
-0.56640893 -0.271325 -0.37271482 0.03763771 0.33478406 0.16965427 0.2798999 0.17267115
0.009195158 0.15181476 -0.35378325 0.2870108 0.31612137 0.23924503 -0.37422645 0.08277262
0.50962394 0.58163863 -0.47512025 -0.13661799 -0.46578658 -0.31528378 1.2697196 -0.1138846
0.014669186 -0.39863855 0.24340785 0.18747663 -0.5600921 0.27318412 -0.5556861 -0.5878706
-0.40371808 -0.21298857 0.8515831 -0.23711264 -0.56555814 -1.0227197 -0.57865375 1.1038513

network_body._body_endoder.seq_layers.0.bias f4 [128]
00000000: 0000 0000 0000 0000 0000 0000 0000 0000
00000010: 0000 0000 0000 0000 0000 0000 0000 0000
00000020: 0000 0000 0000 0000 0000 0000 0000 0000
00000030: 0000 0000 0000 0000 0000 0000 0000 0000
00000040: 0000 0000 0000 0000 0000 0000 0000 0000
00000050: 0000 0000 0000 0000 0000 0000 0000 0000
00000060: 0000 0000 0000 0000 0000 0000 0000 0000
00000070: 0000 0000 0000 0000 0000 0000 0000 0000
00000080: 0000 0000 0000 0000 0000 0000 0000 0000
00000090: 0000 0000 0000 0000 0000 0000 0000 0000
000000a0: 0000 0000 0000 0000 0000 0000 0000 0000
000000b0: 0000 0000 0000 0000 0000 0000 0000 0000
000000c0: 0000 0000 0000 0000 0000 0000 0000 0000
000000d0: 0000 0000 0000 0000 0000 0000 0000 0000
000000e0: 0000 0000 0000 0000 0000 0000 0000 0000
000000f0: 0000 0000 0000 0000 0000 0000 0000 0000
00000100: 0000 0000 0000 0000 0000 0000 0000 0000
00000110: 0000 0000 0000 0000 0000 0000 0000 0000
00000120: 0000 0000 0000 0000 0000 0000 0000 0000
00000130: 0000 0000 0000 0000 0000 0000 0000 0000
00000140: 0000 0000 0000 0000 0000 0000 0000 0000
00000150: 0000 0000 0000 0000 0000 0000 0000 0000
00000160: 0000 0000 0000 0000 0000 0000 0000 0000
00000170: 0000 0000 0000 0000 0000 0000 0000 0000
00000180: 0000 0000 0000 0000 0000 0000 0000 0000
00000190: 0000 0000 0000 0000 0000 0000 0000 0000
000001a0: 0000 0000 0000 0000 0000 0000 0000 0000
000001b0: 0000 0000 0000 0000 0000 0000 0000 0000
000001c0: 0000 0000 0000 0000 0000 0000 0000 0000
000001d0: 0000 0000 0000 0000 0000 0000 0000 0000
000001e0: 0000 0000 0000 0000 0000 0000 0000 0000
000001f0: 0000 0000 0000 0000 0000 0000 0000 0000
0.0 0.0 0.0 0.0 0.0 0.0 0.0 0.0
0.0 0.0 0.0 0.0 0.0 0.0 0.0 0.0
0.0 0.0 0.0 0.0 0.0 0.0 0.0 0.0
0.0 0.0 0.0 0.0 0.0 0.0 0.0 0.0
0.0 0.0 0.0 0.0 0.0 0.0 0.0 0.0
0.0 0.0 0.0 0.0 0.0 0.0 0.0 0.0
0.0 0.0 0.0 0.0 0.0 0.0 0.0 0.0
0.0 0.0 0.0 0.0 0.0 0.0 0.0 0.0
0.0 0.0 0.0 0.0 0.0 0.0 0.0 0.0
0.0 0.0 0.0 0.0 0.0 0.0 0.0 0.0
0.0 0.0 0.0 0.0 0.0 0.0 0.0 0.0
0.0 0.0 0.0 0.0 0.0 0.0 0.0 0.0
0.0 0.0 0.0 0.0 0.0 0.0 0.0 0.0
0.0 0.0 0.0 0.0 0.0 0.0 0.0 0.0
0.0 0.0 0.0 0.0 0.0 0.0 0.0 0.0
0.0 0.0 0.0 0.0 0.0 0.0 0.0 0.0

network_body._body_endoder.seq_layers.2.weight f4 [128, 128]
00000000: 7ce7 1fbd b6e1 8b3c 1e4b 323e f74c 1d3c
00000010: 6b21 8d3d 3550 bebd 30c5 343c f2d7 083e
00000020: 91ad 023e 7e06 ae3b e970 2c3e e27f 13bd
00000030: 9b6f e13d d8a2 c6bc 6f22 80bd 0ca1 e93c
00000040: 7357 383d 96a8 aebd ecf2 903d f4bb 3dbe
00000050: b8a7 63be a476 573c af54 143d 727d 15be
00000060: 79bf 083c 9483 a2bc c339 1fbd de85 843d
00000070: 6e45 b6bd 25c8 cbbc f6b5 0c3d 0bb8 0f3e
00000080: 8145 123e 7468 a1be b59d b13c 619c aabd
00000090: 6380 85bd 9831 91bd 7cb4 9e3d 151c 063e
000000a0: a31b c73d b8fe 973d 7e44 943d c9be 0c3c
000000b0: d67b 2bbc 418f 57bd 2089 86be 66d4 cabd
000000c0: 93e7 a7bd dcb8 e3bd 1d1b 12be 75f3 6bbd
000000d0: 5946 423d 63d8 b2bd 416a 95bc 0cbd e03c
000000e0: 3094 6b3e 783f 4b3d 7b28 573c 5300 30be
000000f0: ebfb 63bc fc0c 6dbd 86a8 b5bd 7322 9fbc
00000100: 41ce 31bd bc49 4ebd 6f16 9abd 44d5 6abd
00000110: 99ab abbd b022 e5bd f165 07bc 3296 a03d
00000120: 86aa 763c 4d05 d33d 8fe6 1fbd c9ac 50bc
00000130: eada 303d 01fa 683d 4889 5dbe 9b9c 663d
00000140: f493 59bd 4dc4 0e3e f077 2dbd a449 06bc
00000150: 0712 e9bc 465e 0fbe a64f 1ebe f970 bcbd
00000160: c5a8 31bd fca7 3cbd 4c5f 82bb a146 82bb
00000170: 9a31 db3c 211c 9b3c b59a 483d 260a 39be
00000180: be4a 74bc 2452 9c3d 3fa7 04bd 8f0d 19bd
00000190: 97d1 69bb 8867 cf3c 04bb 20bd e2cf 36be
000001a0: 465e 9a3d 704a 6cbc e07e 21bb 06d5 fd3d
000001b0: b60f 703d 0e55 833c 7b16 2fbe 69ee 6b3d
000001c0: 1918 8abd 64ea 273e 5d8c 68bd d5e8 773d
000001d0: 2d4c 0f3d 4eef 80bd eeb0 96bc 4a54 60bd
000001e0: 82d6 c6bd bc0d 06be 9aed ee3d 83a9 a4bd
000001f0: 0708 ccbd 4c1d 8ebb 3631 9b3d 3137 e73d
00000200: be6a ce3d 4925 78bb 902b a33c 09d9 d7ba
00000210: 76d9 db3c 3c42 14be 4dad 09be b2ed 0c3d
00000220: 1614 14bc 22fb 723e 654b 38bd 4454 02be
00000230: b128 b8bd 73e0 ab3d 24e7 0cbe e8dd 8a3d
00000240: d456 db3d 707d 583a 3669 203d 6bed f23d
00000250: ccf0 4ebd a6d4 12bc d8ad 103c c9ba a1bd
00000260: 95f3 4c3c e22d 143d 4ede 20be 6d05 f23a
00000270: cecf 3ebe 882c c5bd ac74 6ebd 0371 cf3d
00000280: ea12 c2bc ce1b abbd 313f 033e 35c7 1a3d
00000290: b053 9c3d 6012 8c3c 72ee b33c 2e0a 04bd
000002a0: 3d37 163e 5a4c 223e ad99 c23b e430 e83c
000002b0: b1b4 873d e3c2 8ebd 24b8 dbbd 56b2 ca3b
000002c0: 0466 c63d d8cf 743c 728f c4bd f774 023d
000002d0: a1e0 b6bd f4fc 86ba 978f 033e 0f2e 573d
000002e0: b97a a3bd f132 a4bd 2169 453c 52c1 d33c
000002f0: f86d 993c 9b56 d2bd f9e4 77bd d5ea dfbc
00000300: a4cf a6bd 2e4d f83c 516a d93d 1e55 b83d
00000310: a10f 7bbb 4012 a03d 6936 3b3c 709f 0f3d
00000320: f82d bdbc ed33 853d 1c4f 4ebd aeff 113b
00000330: 5d96 97b9 d1ac afbc fa34 acbd 29cc 293c
00000340: 92ff 0f3e 6bc0 9c3d feed acbd e25f 73bd
00000350: fb1c 493d 0d4f 093d 099e d13b 0c95 93bd
00000360: 231a 063e 678a 70bc acc8 a7bd 40f0 33bc
00000370: 51ae 10be 65bd e5bd 54e1 54be f1a7 08be
00000380: 4a01 bf3d 0f8f ce3d e693 9c3c ba6d 713d
00000390: ec98 04bd 94c6 1d3d 8193 dc3d d867 0c3e
000003a0: 1928 913d 0894 66bd 031f c53d 8e7e 96bd
000003b0: 9678 023d 2503 26be d0b1 95bd 64c4 c23c
000003c0: 04c4 d6bd 59d6 0b3e 67f0 113e a1d0 373e
000003d0: 3e4b 053e 8739 d4bb 79f4 2fbd c080 533e
000003e0: 6d1f 353d c87d a33d e644 833d dbe3 fb3c
000003f0: c6ff 4ebe bd5a a03d 41ec eabb 10c4 94bd
-0.03903912 0.0170754 0.17411467 0.009600869 0.068911396 -0.09292642 0.011033341 0.13363627
0.12761523 0.0053108325 0.16839947 -0.03601063 0.11007615 -0.024247572 -0.06256568 0.028519176
0.045005273 -0.08528249 0.07077584 -0.1852873 -0.22231948 0.013150845 0.036213573 -0.14598635
0.008346432 -0.019838132 -0.038873445 0.06470846 -0.088999614 -0.02487571 0.03435322 0.1403505
0.14284326 -0.31525004 0.021681646 -0.08330608 -0.065186284 -0.070895374 0.077492684 0.1309665
0.09722068 0.074216306 0.07239626 0.008590409 -0.0104665365 -0.052626852 -0.26276493 -0.09903793
-0.08198466 -0.111192435 -0.14268155 -0.057605226 0.04743037 -0.08732679 -0.018239142 0.027433895
0.23005748 0.049621075 0.01313221 -0.17187624 -0.013915042 -0.05787371 -0.08870034 -0.019425606
-0.04340959 -0.050363287 -0.0752381 -0.057332292 -0.08382339 -0.11188257 -0.008264051 0.078411475
0.015055304 0.103037454 -0.039038237 -0.012736508 0.043177523 0.056879047 -0.216344 0.056301694
-0.053119615 0.1394207 -0.04235071 -0.008196268 -0.028450979 -0.14000806 -0.15460071 -0.09201235
-0.04337384 -0.04605864 -0.0039786454 -0.003975705 0.02675705 0.018934311 0.048975665 -0.18070278
-0.014910398 0.076328546 -0.03238606 -0.037366446 -0.0035677904 0.025317922 -0.039240852 -0.17852738
0.075375125 -0.014422044 -0.0024642274 0.123941466 0.058608733 0.016031768 -0.1709842 0.057600413
-0.067428775 0.16398007 -0.056774486 0.06052478 0.034984756 -0.06295644 -0.018394914 -0.054767884
-0.09708883 -0.13091177 0.11666413 -0.08040144 -0.099624686 -0.0043369886 0.075777456 0.11289824
0.10078953 -0.003786402 0.019918233 -0.001646788 0.026837092 -0.14478391 -0.13445015 0.03440637
-0.009037992 0.23728612 -0.044993777 -0.12727457 -0.08992136 0.0839242 -0.13760048 0.067806065
0.107099205 0.0008258438 0.039162837 0.1186169 -0.05052261 -0.008961832 0.00883051 -0.078969546
0.012509246 0.03617657 -0.15709803 0.0018464752 -0.18633959 -0.09627634 -0.058216736 0.10128977
-0.02369066 -0.08354913 0.12817074 0.037787635 0.076331496 0.017098606 0.021964286 -0.03223627
0.14669509 0.15849438 0.0059387297 0.028343625 0.06626261 -0.069707654 -0.107284814 0.00618581
0.09687427 0.014942132 -0.095976725 0.031849828 -0.08929563 -0.0010298775 0.12847744 0.05253416
-0.07982392 -0.08017529 0.0120489905 0.025849018 0.018729195 -0.10270425 -0.0605211 -0.027333656
-0.08145073 0.03031024 0.10615981 0.0900061 -0.0038308876 0.07815981 0.011426547 0.03506416
-0.023093209 0.06504045 -0.050368413 0.002227764 -0.00028912994 -0.02144471 -0.08408542 0.010363617
0.14062336 0.07653888 -0.08443831 -0.059417613 0.049099904 0.033522654 0.006397013 -0.07206163
0.13095908 -0.014681435 -0.08192572 -0.010982573 -0.14128996 -0.11217765 -0.20789081 -0.13345315
0.09326418 0.1008588 0.019113492 0.058942534 -0.0323724 0.038519457 0.10770322 0.13711488
0.07087726 -0.056293517 0.09625056 -0.07348357 0.03185328 -0.16212137 -0.07309306 0.023775287
-0.10486606 0.13655986 0.14251862 0.1795068 0.13016984 -0.0064765844 -0.042957757 0.20654583
0.044219423 0.07982975 0.06409626 0.030748298 -0.20214757 0.07829807 -0.007169277 -0.072639585

network_body._body_endoder.seq_layers.2.bias f4 [128]
00000000: 0000 0000 0000 0000 0000 0000 0000 0000
00000010: 0000 0000 0000 0000 0000 0000 0000 0000
00000020: 0000 0000 0000 0000 0000 0000 0000 0000
00000030: 0000 0000 0000 0000 0000 0000 0000 0000
00000040: 0000 0000 0000 0000 0000 0000 0000 0000
00000050: 0000 0000 0000 0000 0000 0000 0000 0000
00000060: 0000 0000 0000 0000 0000 0000 0000 0000
00000070: 0000 0000 0000 0000 0000 0000 0000 0000
00000080: 0000 0000 0000 0000 0000 0000 0000 0000
00000090: 0000 0000 0000 0000 0000 0000 0000 0000
000000a0: 0000 0000 0000 0000 0000 0000 0000 0000
000000b0: 0000 0000 0000 0000 0000 0000 0000 0000
000000c0: 0000 0000 0000 0000 0000 0000 0000 0000
000000d0: 0000 0000 0000 0000 0000 0000 0000 0000
000000e0: 0000 0000 0000 0000 0000 0000 0000 0000
000000f0: 0000 0000 0000 0000 0000 0000 0000 0000
00000100: 0000 0000 0000 0000 0000 0000 0000 0000
00000110: 0000 0000 0000 0000 0000 0000 0000 0000
00000120: 0000 0000 0000 0000 0000 0000 0000 0000
00000130: 0000 0000 0000 0000 0000 0000 0000 0000
00000140: 0000 0000 0000 0000 0000 0000 0000 0000
00000150: 0000 0000 0000 0000 0000 0000 0000 0000
00000160: 0000 0000 0000 0000 0000 0000 0000 0000
00000170: 0000 0000 0000 0000 0000 0000 0000 0000
00000180: 0000 0000 0000 0000 0000 0000 0000 0000
00000190: 0000 0000 0000 0000 0000 0000 0000 0000
000001a0: 0000 0000 0000 0000 0000 0000 0000 0000
000001b0: 0000 0000 0000 0000 0000 0000 0000 0000
000001c0: 0000 0000 0000 0000 0000 0000 0000 0000
000001d0: 0000 0000 0000 0000 0000 0000 0000 0000
000001e0: 0000 0000 0000 0000 0000 0000 0000 0000
000001f0: 0000 0000 0000 0000 0000 0000 0000 0000
0.0 0.0 0.0 0.0 0.0 0.0 0.0 0.0
0.0 0.0 0.0 0.0 0.0 0.0 0.0 0.0
0.0 0.0 0.0 0.0 0.0 0.0 0.0 0.0
0.0 0.0 0.0 0.0 0.0 0.0 0.0 0.0
0.0 0.0 0.0 0.0 0.0 0.0 0.0 0.0
0.0 0.0 0.0 0.0 0.0 0.0 0.0 0.0
0.0 0.0 0.0 0.0 0.0 0.0 0.0 0.0
0.0 0.0 0.0 0.0 0.0 0.0 0.0 0.0
0.0 0.0 0.0 0.0 0.0 0.0 0.0 0.0
0.0 0.0 0.0 0.0 0.0 0.0 0.0 0.0
0.0 0.0 0.0 0.0 0.0 0.0 0.0 0.0
0.0 0.0 0.0 0.0 0.0 0.0 0.0 0.0
0.0 0.0 0.0 0.0 0.0 0.0 0.0 0.0
0.0 0.0 0.0 0.0 0.0 0.0 0.0 0.0
0.0 0.0 0.0 0.0 0.0 0.0 0.0 0.0
0.0 0.0 0.0 0.0 0.0 0.0 0.0 0.0

value_heads.value_heads.extrinsic.weight f4 [1, 128]
00000000: af54 d8bd ff68 043e 1aae 623d 414d 21be
00000010: ae6e dabc a126 8a3d 5669 463d dbe0 38bd
00000020: 7265 a73d 5ed6 f93d 024f a9bd 5cac 3f3d
00000030: 986d 0bbe 231f 41be f1e9 b9bd 226d 063e
00000040: 3f60 8fbd 7e6e ca3b 143c 32bd 9f7a 143e
00000050: 7a4f 623d 3c3c b03d 56bb 8cbd 8c9b 0cbe
00000060: 37b5 b3bd 69fc 88bd 3a4b a2bd dc03 0fbe
00000070: 6e37 58be a0ba 5c3e 3ff5 c93d c870 bfbd
00000080: da57 5bbe 2591 05be 8277 ac3d 7ad7 10be
00000090: 1ad5 19be 1cfc 023e e26f 513d b8ce 333e
000000a0: d4a5 7c3d 43df 133e eea1 b4bd 64c6 c4bd
000000b0: 14a0 cd3d 1994 993d 0300 96bd 337f ebbd
000000c0: 8e65 fdbd 143f 88bc 1ed5 dbbd 3931 3abe
000000d0: e02f 023e e8dd 5b3d dc48 fd3d 3223 4a3e
000000e0: db02 433d 134a e43d 2b83 d5bd ea4a 3c3e
000000f0: cf57 01be b3d2 173e 2185 3dbe 3a4f 4f3e
00000100: a28f 683d b860 1e3d 7115 043e 0c41 54be
00000110: b191 a0bc abbd 423e c89e 153e 7a0c 1c3e
00000120: 661e ba3d 3978 153e 648d 01be 2c1f 90bd
00000130: c2ba 45be 5f08 ebbc 6155 bfbd 840e 0b3e
00000140: c220 54be 8f40 513e 4a52 953b 420a 2a3e
00000150: e772 1f3e 2460 003d f38d 18be dc25 88bd
00000160: 93c2 01be 233c a3bc ac58 80bd 3581 433e
00000170: 44d7 5b3e d897 eebd 2fac e53d d4c5 e5bd
00000180: da9c 523e 3fb8 273e ff96 243e cbdb 81bc
00000190: c162 213d cc43 43be 1274 0abe 5003 8d3d
000001a0: 33d3 b2bd e469 15bd 98e3 213e fe0f c5bd
000001b0: c464 053e 56b1 ef3d 1987 0d3e 10f3 41bc
000001c0: df53 4e3e 73c4 26be b282 4e3e 5c70 96bd
000001d0: c14a 8f3d 8680 7b3d f159 713d 20a2 1d3d
000001e0: 2249 693d 58c0 48be 7e67 b53d 1a86 3bbd
000001f0: f9f9 acbd 8c5f 96bc 03fb efbd 45ab fa3d
-0.10563027 0.12930678 0.055341817 -0.15752126 -0.026664104 0.06745649 0.0484403 -0.045136314
0.08173646 0.121990904 -0.08267023 0.046795234 -0.13616025 -0.18859534 -0.09077824 0.13127568
-0.07000779 0.0061777225 -0.043514326 0.14499901 0.055251576 0.08605239 -0.06871669 -0.13731211
-0.08774798 -0.066887684 -0.079245046 -0.13966316 -0.21114895 0.21555567 0.0986123 -0.09347683
-0.21420231 -0.1304365 0.08421232 -0.14144698 -0.15022698 0.12791485 0.05113209 0.17559326
0.061681584 0.14440636 -0.08819948 -0.096081525 0.10040298 0.074989505 -0.07324221 -0.11498871
-0.12372886 -0.01663164 -0.10734008 -0.1818284 0.12713575 0.053678423 0.123674124 0.19739988
0.047610145 0.11146941 -0.10425409 0.18387952 -0.12631153 0.14826469 -0.18507816 0.20245066
0.056777604 0.038666457 0.12898804 -0.20727938 -0.019600721 0.19017665 0.14611351 0.15239134
0.09087829 0.14596643 -0.12651592 -0.070371956 -0.19309524 -0.028690515 -0.093424566 0.13579756
-0.20715621 0.20434783 0.0045569288 0.16605476 0.15571176 0.031341687 -0.148979 -0.06647846
-0.1267188 -0.019926136 -0.06266913 0.19092257 0.21468836 -0.11650056 0.11214482 -0.11219373
0.20567647 0.16378878 0.16073225 -0.015851876 0.03940082 -0.19068831 -0.1352084 0.068853974
-0.08731689 -0.03647794 0.15809476 -0.09622191 0.1302672 0.11703746 0.13821067 -0.011837736
0.20149182 -0.16285877 0.20167044 -0.073456496 0.0699668 0.061401866 0.058923665 0.038484693
0.05695451 -0.19604623 0.0885763 -0.045782186 -0.08446116 -0.018356107 -0.117177986 0.12239698
