results/SumOfNumbers/SumOfNumbers/SumOfNumbers-23083.onnx (onnx, 124123 bytes, 6 tensors)

network_body._body_endoder.seq_layers.0.weight f4 [128, 2]
0.6683184 -0.11799403 0.22236007 -1.7030058 -1.4965472 0.024578713 -0.28443572 1.2165992
1.336263 -0.16827087 0.16808347 -0.044160675 0.42569104 0.16032173 0.11860482 -0.30046403
0.032650318 -0.9859067 0.75538194 0.11943876 -0.43799898 0.13190794 -0.21159428 -0.24031205
0.43840834 -1.5147994 -0.091498934 0.9102652 -0.48642778 -0.34108874 -0.9743668 0.45194295
0.78717154 0.9500318 -1.102967 -0.49088317 0.0149906725 -0.23853521 -0.51970136 -0.024031337
-0.9159797 1.1651492 0.17608778 -0.6285336 -0.92415226 -0.6197585 0.027454115 0.07719662
-0.64961845 -0.19115943 0.041880723 -0.37563586 0.2944613 -0.3460493 -0.14663771 0.3597153
0.17561348 1.0910553 1.8998976 0.8576931 -0.78662866 1.0049547 0.97747546 -0.4705851
-1.6271033 0.99675447 -0.22761206 0.03424771 -0.65860045 -0.5973611 0.7452135 0.8658025
1.1942759 0.19773363 0.16578278 -0.8208241 -0.3191039 0.26005092 0.079031006 0.24250169
-0.22712639 -0.094095245 0.35760215 0.4383519 0.23310915 -0.6414823 0.9206279 0.50682706
0.7124546 -0.41067368 0.67566234 0.62586766 0.93574077 -0.091628805 -0.35726634 0.2594844
0.8761118 0.32812297 -0.41560075 -1.0807326 -0.4797628 0.5717725 -1.1212128 0.46860078
1.2101096 0.1600867 0.28343022 0.5279843 -0.0664593 -0.015481004 1.037618 0.5783507
0.29945654 1.0192773 0.7154958 0.2721086 -0.47364908 0.11754392 -0.04133748 1.110951
0.18346189 0.65783286 0.10482877 1.8529955 0.9087144 0.05264532 -0.038339615 0.2968257
-1.1814142 0.21707547 -0.24734847 -0.5965823 0.062093727 0.26735088 -0.46854323 -0.25105858
-1.126121 -0.3213535 -1.1605146 0.80871356 -0.13508722 -0.19378962 0.48370022 0.33741418
1.2613133 -0.17991425 -0.2381222 -0.029728469 -0.5789573 -0.27040216 1.0756639 0.079861745
0.04889681 1.0118383 0.64209044 -0.17984879 0.03605718 0.42372307 0.25245345 -0.3255754
0.61980027 -0.4004523 0.7821485 -0.17953897 0.26271766 -0.44061953 -0.4657826 0.14627388
0.08203864 -1.6278428 -1.2520448 0.93995017 -0.523561 -0.96040434 -0.7372 -0.45339054
0.29074982 -1.2554487 -0.017568573 -0.59778637 -1.2292042 0.58656514 -0.1761782 -1.0062344
-0.45950553 0.3401417 0.45038518 -0.067615315 0.022178167 -0.37492 -1.0334616 0.2745969
0.8320377 -0.7513047 -0.0061972947 -0.87883353 -1.3398298 0.35735896 -0.08191689 0.95939094
-0.35887024 -1.0446131 0.7131547 -0.8811067 0.662366 -0.9581511 -0.6011824 -0.02935483
-0.4318002 -0.35345328 0.49476543 0.8179954 0.950867 0.45354688 0.050528005 -1.0649234
-0.28676075 -0.74044895 -0.28907582 0.70102376 0.28717688 -0.29533908 -0.55030686 0.563718
0.37455449 -0.76999825 0.56988823 -0.08006932 0.058777686 -0.6050052 -1.2788728 0.70529795
-0.29801446 0.6693889 0.9601167 0.25461975 -1.50201 0.07911506 -0.5772036 -0.0070478944
0.33369273 0.053326983 0.287218 -0.47936276 -0.20917213 -0.2824325 -0.45732352 -0.7388712
0.0549599 -1.5705442 0.24405983 0.7296175 -0.6466191 -0.1967046 -0.628364 0.8643476
00000000: ea16 2b3f dba6 f1bd 5cb2 633e 18fc d9bf
00000010: dc8e bfbf 4c59 c93c 8fa1 91be 86b9 9b3f
00000020: aa0a ab3f 334f 2cbe 131e 2c3e d3e1 34bd
00000030: 2df4 d93e 612b 243e 15e7 f23d 6cd6 99be
00000040: 57bc 053d 6264 7cbf b660 413f 4f9c f43d
00000050: 6741 e0be e012 073e 2cac 58be 5d14 76be
00000060: 0f77 e03e f2e4 c1bf cb63 bbbd 2407 693f
00000070: 100d f9be 2fa3 aebe 1a70 79bf 1165 e73e
00000080: 1384 493f 4935 733f 062e 8dbf 0a55 fbbe
00000090: 709b 753c 9342 74be 260b 05bf 5edd c4bc
000000a0: a57d 6abf 9c23 953f 5b50 343e 94e7 20bf
000000b0: 3e95 6cbf 7ea8 1ebf 74e7 e03c 4319 9e3d
000000c0: 654d 26bf 4cbf 43be 1f8b 2b3d 5853 c0be
000000d0: a2c3 963e 602d b1be 3228 16be 9b2c b83e
000000e0: 05d4 333e b3a7 8b3f d82f f33f c691 5b3f
000000f0: 7f60 49bf 5ba2 803f d53b 7a3f 88f0 f0be
00000100: ec44 d0bf 4d2b 7f3f 2313 69be 5447 0c3d
00000110: 0a9a 28bf a8ec 18bf 50c6 3e3f 3ca5 5d3f
00000120: 08de 983f af7a 4a3e f6c2 293e 8721 52bf
00000130: 9661 a3be 6525 853e 02db a13d 5d52 783e
00000140: d293 68be 02b5 c0bd a117 b73e a96f e03e
00000150: 2ab4 6e3e 2f38 24bf 45ae 6b3f 6bbf 013f
00000160: 6d63 363f d243 d2be 35f8 2c3f dd38 203f
00000170: b58c 6f3f e2a7 bbbd 9deb b6be 24db 843e
00000180: dd48 603f bcff a73e 9fc9 d4be 7255 8abf
00000190: 78a3 f5be af5f 123f e783 8fbf 71ec ef3e
000001a0: dfe4 9a3f c5ed 233e c41d 913e fb29 073f
000001b0: d01b 88bd 09a4 7dbc abd0 843f cb0e 143f
000001c0: 5e52 993e ae77 823f bc2a 373f d251 8b3e
000001d0: 2282 f2be deba f03d 7d51 29bd a433 8e3f
000001e0: 6fdd 3b3e bc67 283f 77b0 d63d f52e ed3f
000001f0: 82a1 683f 9ea2 573d 000a 1dbd 8af9 973e
00000200: 9538 97bf 0849 5e3e eb48 7dbe 9eb9 18bf
00000210: fe55 7e3d 37e2 883e e6e4 efbe c08a 80be
00000220: bc24 90bf 7288 a4be be8b 94bf da07 4f3f
00000230: 4e54 0abe c970 46be 8ea7 f73e 8dc1 ac3e
00000240: b772 a13f 713b 38be 4ed6 73be 1e89 f3bc
00000250: 8c36 14bf 2772 8abe 5baf 893f 8e8e a33d
00000260: 0548 483d eb83 813f 0a60 243f 482a 38be
00000270: b2b0 133d 3bf2 d83e 9441 813e d2b1 a6be
00000280: 3bab 1e3f 1508 cdbe e23a 483f 10d9 37be
00000290: ee82 863e e298 e1be 0f7b eebe d2c8 153e
000002a0: e003 a83d 275d d0bf 0143 a0bf 93a0 703f
000002b0: 1808 06bf 0fdd 75bf 24b9 3cbf ce22 e8be
000002c0: 29dd 943e 8bb2 a0bf f8eb 8fbc 8708 19bf
000002d0: 9056 9dbf 2229 163f 0f68 34be 4acc 80bf
000002e0: 4f44 ebbe 0e27 ae3e e398 e63e e679 8abd
000002f0: fdae b53c 84f5 bfbe 7848 84bf f797 8c3e
00000300: 6c00 553f 8155 40bf ad12 cbbb 3cfb 60bf
00000310: 8b7f abbf c1f7 b63e 0bc4 a7bd a59a 753f
00000320: d7bd b7be e2b5 85bf 4e91 363f 3590 61bf
00000330: d190 293f 6449 75bf 17e7 19bf 8a79 f0bc
00000340: ea14 ddbe d4f7 b4be e551 fd3e 2668 513f
00000350: 056c 733f 4c37 e83e 74f6 4e3d 694f 88bf
00000360: 4ed2 92be 108e 3dbf bf01 94be 4b76 333f
00000370: d908 933e af36 97be e9e0 0cbf d34f 103f
00000380: 9bc5 bf3e 9b1e 45bf 32e4 113f 62fb a3bd
00000390: dfc0 703d 9fe1 1abf 1bb2 a3bf 688e 343f
000003a0: 5a95 98be 125d 2b3f 35ca 753f 855d 823e
000003b0: dd41 c0bf 1407 a23d 9dc3 13bf 06f2 e6bb
000003c0: c6d9 aa3e 656d 5a3d 3d0e 933e 096f f5be
000003d0: 3831 56be fe9a 90be 4f26 eabe aa26 3dbf
000003e0: a21d 613d 9807 c9bf d2ea 793e 36c8 3a3f
000003f0: d488 25bf ee6c 49be 77dc 20bf e245 5d3f

network_body._body_endoder.seq_layers.0.bias f4 [128]
0.001764304 0.00023657402 0.005714652 0.0038183378 0.0013072276 -0.0010560205 0.0026800227 -0.0005603185
0.005366831 -0.0022084343 -0.0035710805 -0.012231032 0.0032433479 -0.0005928126 -0.0037614251 0.0029151808
-0.00017519502 -0.0032289186 0.0018545444 -0.008177682 -0.0048168516 4.8454778e-05 0.005543893 0.0011341262
0.0021773854 0.0059924503 -0.00056287675 -0.0010459531 -0.0019433524 -0.0032613394 -0.0006126282 -0.0017239079
-0.0041830325 0.0016501844 0.0009401989 -0.0016238403 -0.0027805495 -0.00077223557 0.000526453 -0.0036943508
0.0039365627 -0.0006624576 0.0036447842 -0.003126257 0.0014447389 0.0017366506 -0.0013047917 0.0061584855
-0.0022679307 0.0028293645 -0.0019017655 0.0017894969 0.0030673952 -0.0012913186 0.0014398036 -0.003923793
-0.0029996012 0.00060872297 -0.0012261032 -0.0010633591 -0.000764025 -0.0040302426 0.0014005038 0.0022046808
0.0028127036 0.00016981161 0.00039275124 -0.00062085444 -0.002085973 -0.006204028 0.003130393 -0.0020740856
-0.003075775 -0.0018862627 0.005541991 -0.0017515636 -0.00025462516 -0.0027273886 -0.00152226 -0.0013295491
-0.00036178133 -0.0007504745 0.0023314708 0.00020345257 -0.006059299 -0.00012597676 -0.006768642 0.0025901194
0.0037789084 -0.0024359992 -0.0015858109 -0.0021995187 0.0036978244 0.000987339 0.0012181144 0.0037761012
-0.0015366245 -0.0015245538 -0.0012730606 -0.0003737966 0.0029713295 0.0028180708 -0.0002240757 -0.001437064
0.0054831016 0.0011388462 -0.0030361488 -0.0033295047 0.0040123197 -0.001121822 0.0016212681 -0.0033117675
0.0008782184 0.0006616133 -0.0006623674 -0.0012004159 -0.0022137968 -0.0032821656 0.0017750013 0.0038857246
0.00092903373 -0.00129296 -0.0014843253 0.0017199002 -0.0012828488 -0.00309534 0.0010928037 0.003782988
00000000: 3840 e73a db10 7839 fa41 bb3b 143d 7a3b
00000010: 4857 ab3a 2b6a 8aba 52a3 2f3b 57e2 12ba
00000020: 3edc af3b 61bb 10bb ca08 6abb ab64 48bc
00000030: 598e 543b fb66 1bba 3e82 76bb 9e0c 3f3b
00000040: 8eb4 37b9 449c 53bb 2f14 f33a affb 05bc
00000050: aed6 9dbb ec3b 4b38 8ca9 b53b f6a6 943a
00000060: 77b2 0e3b 515c c43b 058e 13ba 5d18 89ba
00000070: 16b8 feba 32bc 55bb c898 20ba c0f4 e1ba
00000080: d211 89bb 004b d83a ae77 763a 0ad7 d4ba
00000090: e139 36bb da6f 4aba aa01 0a3a ec1c 72bb
000000a0: 48fe 803b c7a8 2dba 55dd 6e3b e4e1 4cbb
000000b0: 655d bd3a 53a0 e33a 8b05 abba 1fcd c93b
000000c0: 90a1 14bb dc6c 393b a944 f9ba 8d8d ea3a
000000d0: 5a06 493b 7641 a9ba cbb7 bc3a 2993 80bb
000000e0: f594 44bb b592 1f3a 32b5 a0ba 6960 8bba
000000f0: da48 48ba 2010 84bb 1c91 b73a 687c 103b
00000100: 5655 383b 750f 3239 2eea cd39 d6c0 22ba
00000110: d2b4 08bb 294b cbbb 4827 4d3b 62ed 07bb
00000120: f192 49bb 793c f7ba 9799 b53b b994 e5ba
00000130: 367f 85b9 fdbd 32bb 9286 c7ba 4444 aeba
00000140: 78ad bdb9 7ebb 44ba 97cb 183b e255 5539
00000150: 168d c6bb a118 04b9 7ccb ddbb febe 293b
00000160: 90a7 773b 49a5 1fbb fcda cfba cd25 10bb
00000170: 3357 723b 9969 813a 23a9 9f3a 7778 773b
00000180: 9068 c9ba 89d3 c7ba d3dc a6ba 21fa c3b9
00000190: a3ba 423b 62af 383b ddf5 6ab9 de5b bcba
000001a0: 97ab b33b 5645 953a 20fa 46bb d233 5abb
000001b0: c779 833b 1a0a 93ba bb80 d43a 3d0a 59bb
000001c0: 3d38 663a 1e70 2d3a b9a2 2dba 4657 9dba
000001d0: 5915 11bb 9a19 57bb 29a7 e83a a4a7 7e3b
000001e0: 668a 733a 8a78 a9ba b18d c2ba 466e e13a
000001f0: 4325 a8ba 30db 4abb 683c 8f3a 02ec 773b

network_body._body_endoder.seq_layers.2.weight f4 [128, 128]
-0.15608844 -0.050356753 0.08926726 -0.006658069 -0.10698269 -0.15633246 0.07738486 0.18694605
0.031955507 -0.07380355 0.02020359 0.16206534 -0.066547744 0.061117355 -0.18114524 0.093769014
-0.082548805 -0.00070690585 0.13207904 -0.022774668 0.084751524 -0.11082658 0.1415236 0.0343617
-0.030266738 0.045771386 0.009329578 0.07780101 -0.08495278 -0.023576539 0.111184016 -0.003948589
0.015309884 -0.03171197 0.03832707 -0.014766984 0.019036554 -0.0026322189 -0.021793887 0.082260765
0.068075046 -0.0071483864 0.07682606 -0.08691118 -0.032719057 -0.0890782 0.0232855 -0.07421936
-0.014219502 0.18903385 -0.064810365 -0.09250453 0.103551045 -0.042178776 0.034703538 -0.05379248
-0.011860776 0.045131087 0.0023915921 0.047616802 0.0778333 -0.059765037 -0.1230945 -0.13930392
0.017345658 -0.14281268 -0.14959769 0.02001609 -0.07496526 -0.016397417 -0.058191568 0.059565883
0.19959977 -0.119498394 -7.461723e-05 0.014769962 -0.1653471 0.031734604 -0.054401122 0.058783334
-0.093791395 -0.1323546 0.06598899 -0.06338252 -0.1291357 -0.05304597 -0.10623742 -0.06797615
-0.03488015 0.06905288 -0.14968982 0.04190196 0.042676758 0.037674766 0.0023490128 -0.06310372
0.057891488 0.057928063 -0.100075565 -0.059614234 0.06764614 0.18165518 0.013064818 0.0034759121
0.022626419 0.059060756 0.017172076 0.054569524 -0.022596769 0.103607185 0.01844943 -0.064005345
-0.08782339 0.05102977 -0.13237883 0.0077738445 0.11995219 -0.053466346 0.020945445 -0.18477683
0.19361807 0.058911636 0.14969084 0.02054111 -0.054929294 -0.004518738 0.043169893 -0.035771456
0.053884044 0.105325386 0.01922311 -0.014189597 -0.0033218074 -0.014236256 0.082591 -0.100660734
-0.011314602 -0.093125306 -0.25538462 0.08248728 0.018439218 -0.06880595 0.034546535 0.06738278
-0.053956416 0.012179449 -0.15104339 0.08805261 -0.04149947 0.0640227 0.01577387 0.0716856
0.0098070055 0.20079803 0.06999642 -0.04394907 -0.20222813 0.023381284 -0.022125077 0.027580762
-0.08577937 0.11064951 -0.023152972 0.15517648 0.045229737 0.027673258 -0.114723615 -0.029324725
-0.020421645 -0.12519543 -0.032225363 -0.024003094 0.09817845 0.022652091 0.018225772 0.059290282
-0.03283098 0.048471585 -0.13380964 -0.11777758 -0.16153179 -0.066338465 0.06221119 0.08724137
0.1408664 0.109983906 0.035473235 -0.14768933 0.04186334 -0.05708624 -0.08736725 0.044859983
0.02791693 0.06543114 -0.05177645 0.011435076 0.06087678 -0.003162441 -0.044111677 -0.09482289
-0.015099602 0.14623836 -0.008770875 0.12928209 0.03674326 0.012277061 -0.11549522 -0.064814486
0.06874348 0.044397827 0.12381319 -0.1652872 0.030705692 0.04025687 -0.02959102 -0.035442166
-0.052410647 -0.17232588 0.108853355 0.057234548 0.103878945 -0.14906657 0.08185226 0.012390686
0.038313195 0.046754714 -0.046522073 0.02392415 -0.03437894 -0.021814438 -0.11004018 -0.03003337
0.03820749 -0.001063137 0.022570489 0.0412372 0.037791245 -0.15898512 -0.05035818 -0.03538941
0.09591726 -0.010296869 0.21140113 0.030953242 -0.03452956 0.00072565145 0.13774303 -0.13149883
-0.0073094335 0.06654826 0.04705017 0.008733333 -0.08065691 -0.036241714 -0.007776396 -0.018924136
00000000: a6d5 1fbe e242 4ebd c1d1 b63d ee2b dabb
00000010: be19 dbbd 9e15 20be f47b 9e3d c96e 3f3e
00000020: c7e3 023d 5126 97bd 0082 a53c 75f4 253e
00000030: 2f4a 88bd 3156 7a3d 237e 39be f809 c03d
00000040: 590f a9bd a64f 39ba ba3f 073e f191 babc
00000050: 3592 ad3d 0cf9 e2bd 90eb 103e dbbe 0c3d
00000060: f3f1 f7bc c77a 3b3d 16db 183c 2356 9f3d
00000070: b9fb adbd 9623 c1bc 72b4 e33d 2a63 81bb
00000080: 4fd6 7a3c 69e4 01bd d9fc 1c3d 38f1 71bc
00000090: 8cf2 9b3c 4e81 2cbb 1889 b2bc 5578 a83d
000000a0: ee6a 8b3d 033d eabb fb56 9d3d 7dfe b1bd
000000b0: 6b04 06bd a26e b6bd 3cc1 be3c 5200 98bd
000000c0: eaf8 68bc 1792 413e 4cbb 84bd 0473 bdbd
000000d0: 9212 d43d a7c3 2cbd 4c25 0e3d 8155 5cbd
000000e0: b353 42bc 60db 383d 42bc 1c3b d609 433d
000000f0: 1167 9f3d 2fcc 74bd f818 fcbd b0a5 0ebe
00000100: 7b18 8e3c 7d3d 12be 2330 19be c8f8 a33c
00000110: 6387 99bd e053 86bc 485a 6ebd 5bfb 733d
00000120: e263 4c3e 93bb f4bd d27b 9cb8 b6fd 713c
00000130: c050 29be 25fc 013d b6d3 5ebd cbc6 703d
00000140: b415 c0bd f787 07be 3c25 873d b2ce 81bd
00000150: 263c 04be bb46 59bd 0193 d9bd 1437 8bbd
00000160: 7dde 0ebd 996b 8d3d 4a48 19be 64a1 2b3d
00000170: d3cd 2e3d db50 1a3d e5f1 193b 863c 81bd
00000180: a01f 6d3d fa45 6d3d 6bf4 ccbd 0e2e 74bd
00000190: 0f8a 8a3d d103 3a3e d20d 563c 21cc 633b
000001a0: 0a5b b93c b1e9 713d 74ac 8c3c 4b84 5f3d
000001b0: dc1c b9bc 0130 d43d 4223 973c 3c15 83bd
000001c0: c0dc b3bd 9804 513d 518e 07be bcbb fe3b
000001d0: 7ea9 f53d 87ff 5abd c895 ab3c 2336 3dbe
000001e0: d143 463e 544d 713d 8e48 193e d445 a83c
000001f0: 8afd 60bd ec11 94bb ead2 303d 1785 12bd
00000200: 84b5 5c3d d6b4 d73d c979 9d3c 7c7b 68bc
00000210: aeb2 59bb 2f3f 69bc 7825 a93d 3727 cebd
00000220: e160 39bc 7bb8 bebd c6c1 82be 17ef a83d
00000230: d80d 973c 22ea 8cbd ab80 0d3d fcff 893d
00000240: 6701 5dbd 508c 473c 1eab 1abe ed54 b43d
00000250: 59fb 29bd 551e 833d 3438 813c e6cf 923d
00000260: 90ad 203c 009e 4d3e 485a 8f3d f103 34bd
00000270: e414 4fbe 1b8a bf3c a63f b5bc 0df1 e13c
00000280: 18ad afbd 369c e23d 4dab bdbc 95e6 1e3e
00000290: d142 393d 07b3 e23c 37f4 eabd 683a f0bc
000002a0: 4b4b a7bc 3b33 00be befe 03bd 23a2 c4bc
000002b0: c811 c93d e190 b93c 374e 953c 5eda 723d
000002c0: c779 06bd 248a 463d 6505 09be 5f35 f1bd
000002d0: 9768 25be 76dc 87bd 29d1 7e3d 9aab b23d
000002e0: 483f 103e 3e3f e13d 624c 113d df3b 17be
000002f0: e578 2b3d 43d3 69bd 9aed b2bd 1abf 373d
00000300: 0cb2 e43c c300 863d 8b13 54bd 2f5a 3b3c
00000310: ee59 793d f540 4fbb 72ae 34bd 8132 c2bd
00000320: 5264 77bc 82bf 153e b7b3 0fbc 8662 043e
00000330: 1a80 163d ba25 493c c288 ecbd 75bd 84bd
00000340: 62c9 8c3d 7fda 353d c591 fd3d 0c41 29be
00000350: 818a fb3c 63e4 243d de68 f2bc ce2b 11bd
00000360: 8cac 56bd 3276 30be 82ee de3d c66e 6a3d
00000370: 7cbe d43d e8a4 18be 28a2 a73d 4e02 4b3c
00000380: 4cee 1c3d df81 3f3d ee8d 3ebd 94fc c33c
00000390: eed0 0cbd 31b4 b2bc bf5c e1bd 8b08 f6bc
000003a0: 757f 1c3d f558 8bba bfe5 b83c 57e8 283d
000003b0: feca 1a3d ffcc 22be 6144 4ebd 7cf4 10bd
000003c0: 4570 c43d 33b4 28bc 8a79 583e a791 fd3c
000003d0: de6e 0dbd a539 3e3a 820c 0d3e a1a7 06be
000003e0: f983 efbb 744a 883d aeb7 403d 4116 0f3c
000003f0: 732f a5bd 3172 14bd 23d1 febb ca06 9bbc

network_body._body_endoder.seq_layers.2.bias f4 [128]
0.004631398 -0.00083873136 -2.8983404e-05 -0.0016356249 0.0018850163 -0.00047659935 -0.0015719425 -0.0005545519
-0.00021476396 0.0011499397 0.0023809825 -0.003755878 -0.0018025237 0.0028533149 -0.00026723812 0.0001831285
0.003410599 0.0005390198 -0.0017723119 -0.005840361 0.0011174564 0.00020549021 -0.00021028932 0.0015315574
-0.00038233132 -0.0042887856 -0.002079361 -0.0011602402 -0.002608701 1.30748585e-05 -0.005086298 0.0013169065
-0.005564052 -0.0010066751 -0.0038088276 -0.0018539284 -0.00024763177 -0.0006391104 0.0009715723 -0.0002747597
0.005066784 0.002007889 -0.0024896301 -0.0013072112 0.003452269 -0.0014560698 -0.0018831796 0.0022605648
-0.005282878 -0.002262588 0.0014720304 -0.0007145718 -0.0034339752 0.009508653 0.002894022 -0.001039629
0.00036040726 0.0017050897 -0.0023931582 0.0015593647 0.006160657 0.0024236543 0.0009262099 0.005028429
-0.00034353603 -0.00021468592 -0.0010240978 0.0031437315 -0.004450255 -0.00513257 -0.001383774 -0.0009591241
0.0037508097 0.00095951447 -0.0033318377 -0.00036899565 -0.0030667007 -0.002438975 -0.0012530576 0.0005324677
-0.0030290936 -0.0007921687 0.0014784934 0.009582355 -0.0010704756 0.0013407349 -0.001122258 0.0011329316
-0.00048030994 -0.0005104286 -0.0017818119 -0.0025604486 0.0021654726 -0.0016836954 -0.006190855 -0.0005960398
0.0008679254 -0.0022455028 -0.0027902566 0.0040468173 -0.00060746673 -0.0013213594 0.00557055 0.0042828145
0.0057692 -0.0017016784 0.0016985777 -0.0008836726 0.0009460645 0.0003821418 0.0020665878 -0.00030279494
-0.001962222 -0.0013761483 -0.0010248672 0.0009518042 -0.0014016029 -0.0047858465 0.00065746746 0.000645175
-0.00045769147 -0.00031981152 -0.0027055668 0.01251746 0.0046593803 -0.0014280207 -0.0037570484 0.010567556
00000000: fbc2 973b 4fde 5bba 6321 f3b7 7762 d6ba
00000010: a712 f73a 15e0 f9b9 a309 ceba 595f 11ba
00000020: 4332 61b9 93b9 963a 420a 1c3b 2d25 76bb
00000030: a942 ecba aefe 3a3b 181c 8cb9 2f06 4039
00000040: 5b84 5f3b 024d 0d3a eb4c e8ba 8060 bfbb
00000050: 9d77 923a dc78 5739 1c81 5cb9 8abe c83a
00000060: a473 c8b9 f188 8cbb e345 08bb 3313 98ba
00000070: bdf6 2abb 175c 5b37 f6aa a6bb 0d9c ac3a
00000080: a752 b6bb 69f2 83ba 869d 79bb 84ff f2ba
00000090: 93d4 81b9 f989 27ba 1db1 7e3a 9f0d 90b9
000000a0: 4407 a63b ca96 033b 1029 23bb bb56 abba
000000b0: 763f 623b 98d9 beba 06d5 f6ba fc25 143b
000000c0: fe1b adbb ed47 14bb 25f1 c03a 1a52 3bba
000000d0: 8b0c 61bb 2eca 1b3c a2a9 3d3b 2944 88ba
000000e0: 0bf5 bc39 517d df3a 88d6 1cbb 9963 cc3a
000000f0: 56df c93b 2cd6 1e3b e5cc 723a 85c5 a43b
00000100: a01c b4b9 501d 61b9 053b 86ba 1007 4e3b
00000110: 72d3 91bb 1e2f a8bb c05f b5ba bb6d 7bba
00000120: 25d0 753b ed87 7b3a f65a 5abb c275 c1b9
00000130: b3fa 48bb 36d7 1fbb a33d a4ba 4d95 0b3a
00000140: c283 46bb 8ba9 4fba 02ca c13a 4fff 1c3c
00000150: 334f 8cba 99bb af3a bb18 93ba e07e 943a
00000160: 1cd2 fbb9 49ce 05ba b08b e9ba 33cd 27bb
00000170: 9aea 0d3b 71af dcba a8dc cabb 8e3f 1cba
00000180: 7d85 633a 4929 13bb bddc 36bb 2a9b 843b
00000190: 673e 1fba 7731 adba 2989 b63b da56 8c3b
000001a0: 8f0b bd3b da0a dfba cfa2 de3a 44a6 67ba
000001b0: 5001 783a 345a c839 976f 073b 73c0 9eb9
000001c0: 9f98 00bb e05f b4ba d654 86ba 8082 793a
000001d0: fdb5 b7ba 97d2 9cbb e559 2c3a f620 293a
000001e0: 4ff6 efb9 60ac a7b9 e14f 31bb 0816 4d3c
000001f0: b7ad 983b 6c2c bbba d038 76bb 8b23 2d3c

action_model._discrete_distribution.branches.0.weight f4 [100, 128]
-0.00036199854 -0.0038301367 0.0181691 0.008902568 0.0025902595 0.0012671251 0.010049648 0.0004512069
-0.02065955 0.0077635753 -0.010645484 0.00037514244 0.003238287 0.0075234487 -0.0045591174 0.0048353085
-0.0037429174 0.017726444 0.004271267 -0.0153570175 -0.0043727816 -0.014180213 -0.0033683234 -0.0051883264
-0.022354733 -0.0011502841 -0.012918258 -0.002119042 0.011599207 -0.017744968 -0.0014181697 0.0050326907
-0.0052059977 0.0017566145 -0.00019724527 0.012128426 -0.0042575 -0.0019401875 0.011301698 -0.006333535
-0.0016112054 0.0012764473 0.0176013 0.0039149495 -0.0053708465 -0.011703627 0.010860657 0.0045658704
-0.013754459 -0.0039937403 -0.009342235 -0.0023174884 0.02208475 0.0064353617 0.012435998 0.0012316258
0.001962282 0.005842953 -0.0042359456 -0.009798333 0.0114426175 -0.00911243 0.018239772 -0.0002750464
-0.011823046 0.01780365 0.004172542 -0.0032297894 0.009583848 -0.009491707 -0.0068685627 -0.0068195155
0.0056356075 0.013555206 0.003092176 -0.0027952157 -0.013177137 -0.009672373 -0.00018429274 -0.0029494467
-0.004839183 0.012075836 -0.0057642297 -0.022080094 0.012645073 -0.0049180654 0.004066168 -0.014196589
-0.0027795653 0.007481943 -0.01133942 -0.013380506 -0.003169032 0.0065444233 -0.0004863267 0.015447376
-0.005910211 -0.016739286 0.00097493565 0.0059476253 -0.013777398 0.0143021215 0.008706703 0.0050293766
-0.015556054 -0.0070399544 0.0061613787 -0.010587761 0.0083045075 -0.011174151 -0.018973133 0.00422801
0.012660984 -0.00464583 0.009156549 0.0017243156 0.0006375157 -0.0014834905 -0.0012974315 0.0060023745
-0.008164362 0.0008638612 0.0030233653 0.003230963 0.007196115 -0.003102019 -0.008491296 -0.0010381485
0.0150900055 0.014832914 0.0115891835 0.0102053 0.0024136973 -0.0018682028 0.004671179 -0.012715358
-0.0056146705 0.0011001657 0.016190933 0.004609671 0.012867195 -0.008510196 0.003350937 0.0061583864
0.014699124 0.007930518 -0.011299048 0.014664611 0.015504626 0.000991729 -0.0013780309 -0.014925872
-0.013480069 -0.001382093 -0.0004248586 -0.00029705022 -0.010913631 -0.011312133 -0.00053457764 0.009774441
0.013339674 0.020241397 0.0051135835 0.0043329136 0.0002625121 -0.0016020496 0.010834487 -0.00025689593
-0.004081823 0.00021623909 -0.0018225778 -0.007789232 -0.014390992 -0.0100153815 -0.017216926 -0.010545688
-0.0011058713 -0.00108943 -0.007506848 -0.008198027 -0.015320615 0.008510813 0.007959354 -0.0004415907
-0.0036768762 0.0045186323 0.010488947 -0.008377842 0.005864089 -0.005088317 0.01208334 0.015179352
-0.0097032515 -0.0067077517 -0.0034526403 0.008648835 0.0012292799 0.012015848 -0.0076669417 -0.01937593
-0.018366259 -0.0055348687 -0.0035031117 -0.0009606859 0.0014946498 -0.010499829 0.008276188 -0.0079526
-0.0033564996 0.009329535 0.01356042 0.0049144193 0.009760318 0.0030962746 0.004337261 0.008068687
-0.0031728388 -0.0035239605 -0.01881715 -0.008457337 -0.0052304235 0.0071868026 -0.0014650502 0.013732062
0.020021332 -0.015183035 0.0029418264 0.008552524 -0.0024612434 -0.011908555 0.00024443763 0.0075551798
0.004666539 -0.0070967567 -0.0074577536 -0.0068849605 0.01343602 -0.0058006705 -0.0063744914 0.0040565054
-0.006332977 0.011483095 -0.012739263 0.016758822 -0.008961406 0.010181708 -0.00018240057 0.017616108
0.00013248085 0.0034694772 -0.00037704452 0.017050488 0.012935173 -0.002682694 -0.007347708 -0.010241295
00000000: 9fca bdb9 0803 7bbb 5dd7 943c 14dc 113c
00000010: 58c1 293b aa15 a63a 47a7 243c f78f ec39
00000020: 373e a9bc 9765 fe3b 656a 2ebc c4ae c439
00000030: 7139 543b 4387 f63b a664 95bb 8271 9e3b
00000040: bc4b 75bb 0c37 913c fcf5 8b3b 009c 7bbc
00000050: 8d49 8fbb 2054 68bc 17bf 5cbb d602 aabb
00000060: 4621 b7bc 21c5 96ba 1aa7 53bc a0df 0abb
00000070: 9a0a 3e3c e55d 91bc e1e1 b9ba 45e9 a43b
00000080: 1397 aabb 343e e63a a0d3 4eb9 4eb6 463c
00000090: 8082 8bbb e44d feba c22a 393c 8b89 cfbb
000000a0: 152f d3ba 774e a73a 9a30 903c fa48 803b
000000b0: edfd afbb 92c0 3fbc e6f0 313c 4c9d 953b
000000c0: 625a 61bc ecdd 82bb 2c10 19bc 01e1 17bb
000000d0: 14eb b43c badf d23b 5bc0 4b3c 816e a13a
000000e0: a199 003b 3e76 bf3b b0cd 8abb 3089 20bc
000000f0: d179 3b3c 4d4c 15bc 936b 953c 1a34 90b9
00000100: 73b5 41bc f6d8 913c d2b9 883b e0aa 53bb
00000110: 9205 1d3c 1b83 1bbc ae11 e1bb 3e76 dfbb
00000120: e7aa b83b a816 5e3c 1ba6 4a3b f02f 37bb
00000130: ebe4 57bc df78 1ebc b53e 41b9 814b 41bb
00000140: 0292 9ebb bad9 453c dde1 bcbb 50e1 b4bc
00000150: 482d 4f3c b927 a1bb 7d3d 853b cf98 68bc
00000160: 5e29 36bb 162b f53b fac8 39bc e939 5bbc
00000170: 89af 4fbb 9a72 d63b aaf9 feb9 fe16 7d3c
00000180: 71aa c1bb d420 89bc d392 7f3a 4ce4 c23b
00000190: 98ba 61bc 7253 6a3c 8fa6 0e3c 78cd a43b
000001a0: d2de 7ebc 6baf e6bb 64e5 c93b 4a78 2dbc
000001b0: a10f 083c c913 37bc 8b6d 9bbc 1e8b 8a3b
000001c0: 0470 4f3c 0c3c 98bb 5a05 163c 6e02 e23a
000001d0: f41e 273a ae71 c2ba 940e aaba 91af c43b
000001e0: d1c3 05bc be74 623a a723 463b 90be 533b
000001f0: 63cd eb3b 3e4b 4bbb 141f 0bbc 7c12 88ba
00000200: 123c 773c c005 733c 8fe0 3d3c 2134 273c
00000210: 1f2f 1e3b 7cde f4ba b110 993b 1454 50bc
00000220: 45fb b7bb 6f33 903a d9a2 843c b90c 973b
00000230: edd0 523c 596e 0bbc 659b 5b3b 4acc c93b
00000240: 98d4 703c 01ef 013c a41f 39bc d643 703c
00000250: 1d07 7e3c e7fc 813a 0b9f b4ba a58b 74bc
00000260: 82db 5cbc 5827 b5ba 8ebf deb9 68bd 9bb9
00000270: 16cf 32bc 8656 39bc e622 0cba fa24 203c
00000280: a68e 5a3c 49d1 a53c d98f a73b 1dfb 8d3b
00000290: c7a1 8939 ddfb d1ba 2283 313c fdaf 86b9
000002a0: d0c0 85bb 3dbe 6239 90e3 eeba d03c ffbb
000002b0: 32c8 6bbc 8e17 24bc 830a 8dbc d2c7 2cbc
000002c0: e2f2 90ba 34cb 8eba 01fc f5bb 0451 06bc
000002d0: 5103 7bbc f070 0b3c f367 023c 4d85 e7b9
000002e0: bff7 70bb 0911 943b d5d9 2b3c 3743 09bc
000002f0: 8b27 c03b e6bb a6bb 34f9 453c d1b2 783c
00000300: 63fa 1ebc b3cc dbbb b145 62bb d8b3 0d3c
00000310: ca1f a13a 1fde 443c f83a fbbb 45ba 9ebc
00000320: d674 96bc d85d b5bb 7694 65bb 8ad6 7bba
00000330: 20e8 c33a 7a07 2cbc d998 073c 9f4b 02bc
00000340: b8f8 5bbb e8da 183c 862c 5e3c 2309 a13b
00000350: bee9 1f3c deea 4a3b 951f 8e3b 8732 043c
00000360: 67ef 4fbb 3ff2 66bb 6c26 9abc a490 0abc
00000370: f963 abbb 457f eb3b ed06 c0ba 71fc 603c
00000380: c703 a43c 44c2 78bc a8cb 403b e31f 0c3c
00000390: d04c 21bb 1a1c 43bc dd27 8039 7191 f73b
000003a0: c4e9 983b e98b e8bb 2c60 f4bb 3c9b e1bb
000003b0: c122 5c3c 8d13 bebb 1ce1 d0bb 6fec 843b
000003c0: dd84 cfbb 9723 3c3c 57b8 50bc cc49 893c
000003d0: dcd2 12bc 2ed1 263c c842 3fb9 a84f 903c
000003e0: 8fea 0a39 2b60 633b 0fae c5b9 77ad 8b3c
000003f0: 0cee 533c 23d0 2fbb 0bc5 f0bb 1bcb 27bc

action_model._discrete_distribution.branches.0.bias f4 [100]
-0.0005620468 -0.00012918423 0.0015248605 0.0023521567 0.0014453998 -1.9505946e-05 0.0019340927 0.00066533685
-0.0012990129 0.0037515427 -0.0030652722 0.0031781285 0.0026872985 0.0016127549 0.0027104618 0.0030262615
0.0025751488 0.0016207999 0.00040163755 0.0009222055 0.0016354248 0.0030133913 0.0019288373 0.0014271027
-0.001526165 0.0018058389 -0.0010592869 0.0003185747 -0.00158073 -0.0012108636 -0.00090502115 0.001406378
0.0026610515 -0.00016359835 -0.0032366628 -0.0003352642 -2.7443766e-05 -0.0032371667 0.0011887127 -0.0016604171
-0.0018429679 0.0002893455 -0.0045323707 0.0023290229 -0.0022508064 -0.0006737154 -0.0017812941 -0.0007490112
0.0021326786 0.00039927446 0.0010436918 6.9125985e-05 0.0010939286 -0.0003171527 -0.00010631261 -0.0016928345
-0.0009827076 -0.0007243907 -0.0047888844 0.0012510975 -0.0021922207 0.00067740446 0.0005963407 -0.0023300848
0.00048442875 -0.00022553396 0.00015032744 -0.0024577654 -0.0015075757 -0.0034545672 0.0010962663 0.003159373
-0.0032185207 -0.005793438 0.0031161888 -0.0009625813 -0.0014864457 6.4330525e-05 0.00093267125 0.002413412
-0.00080508913 -0.00213223 -0.0019681174 -0.001295388 0.00029473586 -0.0021705036 0.00033949545 -0.0021915669
0.0011777153 0.0013788575 -0.0013100501 -0.0015861661 0.0026457822 -0.0013557291 -0.0013465327 0.0005286683
0.00053173275 0.00026978264 -0.0019251148 -0.00030219267
00000000: 5256 13ba a175 07b9 d4dd c73a a426 1a3b
00000010: 9273 bd3a b3a0 a3b7 6281 fd3a 006a 2e3a
00000020: a443 aaba 71dc 753b bce2 48bb 2648 503b
00000030: 631d 303b 1363 d33a 01a2 313b 3e54 463b
00000040: d4c3 283b 0571 d43a e192 d239 2ac0 713a
00000050: c05b d63a 517c 453b 0ad1 fc3a 9f0d bb3a
00000060: 9a09 c8ba e6b1 ec3a c5d7 8aba 5f06 a739
00000070: 7f30 cfba d7b5 9eba f13e 6dba 3756 b83a
00000080: 0965 2e3b 998b 2bb9 311e 54bb 66c6 afb9
00000090: 0a37 e6b7 a526 54bb 94ce 9b3a 5aa2 d9ba
000000a0: be8f f1ba 4cb3 9739 4884 94bb 85a2 183b
000000b0: 4482 13bb 469c 30ba 507a e9ba 4a59 44ba
000000c0: 69c4 0b3b b655 d139 7ccc 883a bbf7 9038
000000d0: 2762 8f3a 8447 a6b9 26f4 deb8 1ae2 ddba
000000e0: 32ce 80ba 09e5 3dba 13ec 9cbb defb a33a
000000f0: 5cab 0fbb d893 313a bf53 1c3a 56b4 18bb
00000100: edfa fd39 507d 6cb9 37a1 1d39 7612 21bb
00000110: d999 c5ba 0566 62bb 98b0 8f3a 7c0d 4f3b
00000120: d1ed 52bb e1d6 bdbb f938 4c3b bd55 7cba
00000130: d7d4 c2ba 30e9 8638 827e 743a 562a 1e3b
00000140: 9e0c 53ba e2bc 0bbb 88fb 00bb 02ca a9ba
00000150: c786 9a39 023f 0ebb 4ffe b139 64a0 0fbb
00000160: 915d 9a3a c8ba b43a fdb5 abba e7e6 cfba
00000170: dc64 2d3b b8b2 b1ba 247e b0ba 5496 0a3a
00000180: fb63 0b3a 9d71 8d39 2254 fcba 9d6f 9eb9
