results/BotControllerAgent/BotControllerAgent/BotControllerAgent-44499365.onnx (onnx, 418887 bytes, 9 tensors)

discrete_act_size_vector f4 [1, 2]
000000 00 00 40 40 00 00 40 40
       3.0 3.0

network_body._body_endoder.seq_layers.0.weight f4 [300, 35]
000000 ea 13 9c 3d c5 46 f7 3e 38 02 3e 3e 48 67 29 3e
       0.07620986 0.4829618 0.18555534 0.16543305
000010 8a 58 c6 3c c0 c2 38 3e 2f ae 03 bd 86 e0 01 be
       0.02421214 0.18043041 -0.032148536 -0.12683305
000020 fc a2 62 3e 22 a3 7c 3d 10 df d6 be 06 64 eb 3d
       0.22132486 0.061679013 -0.41967058 0.11493687
000030 9a c3 0d 3e c2 65 cf 3d 22 0d f8 bd 92 7b 11 3e
       0.13844147 0.10126831 -0.1211188 0.14207295
000040 07 7d a4 3c a0 ba 8c 3d 4e fb 95 be 2a 51 89 be
       0.020079149 0.068715334 -0.29293293 -0.26819736
000050 55 70 83 bd 49 1a 5e be c7 20 a7 3d 5d 64 ad bd
       -0.0641791 -0.21689714 0.08160549 -0.084664084
000060 fb 42 b3 bd 76 a7 1d be d3 b1 ff 3c 4f 89 95 3c
       -0.0875301 -0.15395913 0.031212723 0.01825395
000070 f8 a9 bd 3b a6 fd b0 3e c2 0b 4f 3e 49 39 62 be
       0.005788084 0.34568518 0.20219329 -0.22092165
000080 9e 83 73 be 63 56 05 be 98 03 d3 bd e8 4c 83 bc
       -0.23780677 -0.13021235 -0.1030342 -0.016027883
000090 6a 7b 8c be 0b 20 2a bd fd ca 34 3d 89 42 6d bd
       -0.27437907 -0.041534465 0.044138897 -0.05792478
0000a0 81 54 b7 be 63 13 94 3e 59 8b 5b be 33 8a 72 be
       -0.3580666 0.2892104 -0.21439876 -0.23685531
0000b0 1f 77 d0 3d b2 99 89 be 8e 23 00 be 37 ab 81 be
       0.101789705 -0.26875073 -0.12513563 -0.2532594
0000c0 c4 eb 36 3e bc 3e fb bc 18 a5 cc bd 34 b6 bc bc
       0.17863375 -0.030669563 -0.09992427 -0.0230361
0000d0 df 55 83 3e f1 2e 7e bd 4b 80 11 3e 45 26 9d 3d
       0.25651452 -0.062056486 0.14209096 0.07673315
0000e0 74 91 93 3d 14 67 73 be 6c 88 38 be 25 e7 90 bd
       0.07205477 -0.2376979 -0.18020791 -0.07075337
0000f0 bc 74 b6 bd 2b 2a 45 3e 9a f9 d5 bd 00 93 71 3e
       -0.08908984 0.19254367 -0.10447998 0.23591232
000100 94 9b 41 3d 82 43 a9 be ed 23 70 be 7b 2f 23 be
       0.04726751 -0.33059317 -0.23451205 -0.15936081
000110 aa ad 0c 3e 8e 7e 0a bc 2f be 07 3e 3e 51 50 3e
       0.13738123 -0.008453025 0.13256143 0.20343491
000120 54 d7 02 be 7e 11 e7 3b 92 82 93 bd 7f bf 25 3e
       -0.12777454 0.007051646 -0.07202639 0.16186331
000130 98 93 bf 3e 65 27 53 be fd a6 43 3e a8 2e a3 bd
       0.37417293 -0.20620497 0.1910667 -0.07967883
000140 45 46 27 bd b2 b2 98 3e c9 12 0d 3e ed f1 58 be
       -0.0408385 0.29823834 0.13776697 -0.21186037
000150 28 89 dc 3e 70 83 61 bd b2 d8 36 3e af 9a 79 be
       0.43073392 -0.05505699 0.178561 -0.24375413
000160 1c 05 ed bb 4c eb a0 be eb 0c 20 be d9 52 8b 3e
       -0.007233275 -0.31429517 -0.15629928 0.27211645
000170 37 88 19 3d 95 7c 2a be 0d 33 16 3e ab 7b 55 3e
       0.03748342 -0.16649087 0.14667912 0.20847957
000180 6d cc 01 3e 32 f0 05 3e 30 55 32 3e 00 63 f7 be
       0.12675638 0.13079908 0.17415309 -0.48317719
000190 9d 94 05 3e da 5e 2e bd ac c5 e7 be 80 8e b5 be
       0.13044973 -0.042570926 -0.45268 -0.3546028
0001a0 24 4c 10 3e 33 60 a5 bd 5a 66 3c be 6c 28 11 3e
       0.14091545 -0.08074989 -0.18398419 0.14175576
0001b0 c7 65 f8 3b e2 73 95 be 5d f7 1b 3e 69 08 76 3e
       0.007580492 -0.29189974 0.1523108 0.24026646
0001c0 e9 39 8f be 78 34 9f 3e 4c a8 3a be fd 22 2d 3e
       -0.2797387 0.31094718 -0.18228263 0.16907878
0001d0 c8 f1 5a 3c 37 c4 fc 3c 30 a8 b2 be 26 0a 56 3e
       0.013363309 0.030855281 -0.34893942 0.20902309
0001e0 6d 19 e4 bd 05 26 a9 bc c5 22 da be a5 9c c8 3c
       -0.11137662 -0.020648012 -0.42604652 0.024488756
0001f0 8e 2e d1 bd 20 5d ec 3c 29 02 52 3e 52 cf 0c be
       -0.10213958 0.028853 0.20508637 -0.13750961
000200 52 73 ae bc ff db 93 3d 3d 6a fe bd d2 66 a9 3d
       -0.021295223 0.07219695 -0.12422607 0.082715645
000210 eb 6f ba bc cd 8c b8 3d aa 6f 9f 3e 0c 62 4e bd
       -0.022758445 0.090112306 0.3113988 -0.050386474
000220 fc 1d 44 3e 45 0a 4a 3e 37 28 b0 be 3f e2 29 3e
       0.19152063 0.1973048 -0.34405681 0.16590212
000230 b5 b7 43 3e 5c a7 34 3e 72 6b 5e be 53 a6 91 3e
       0.19113047 0.17641968 -0.21720675 0.28447208
000240 cc fe ed 3d 1b 56 0f 3e a7 a1 a2 be 12 07 4a 3e
       0.11620864 0.1399769 -0.31763956 0.1972926
000250 57 cc 3f 3e 46 20 b6 be a3 81 a8 3d 19 2f dd 3c
       0.18730293 -0.35571498 0.08227851 0.026999997
000260 ef ec 92 3e 29 ba 6b 3e b1 f9 0d 3e 13 d8 28 3d
       0.2869639 0.23020233 0.13864781 0.04122169
000270 75 74 4c 3e a5 9b a3 3e 55 20 90 3c 7c b3 05 3d
       0.199663 0.31954685 0.017593542 0.032641873
000280 bd 90 1e bd 51 ff f3 bd 90 77 3d 3e a4 dd 28 3e
       -0.038712252 -0.11913932 0.1850264 0.16490799
000290 c7 76 36 3c 14 c3 fc bd 4d ea 94 3e ff 83 80 3e
       0.011136717 -0.12341896 0.29085007 0.25100705
0002a0 03 9e 35 be 7b 85 8b 3d cb 15 3e be bf ad 2e bd
       -0.17736058 0.06812569 -0.18563001 -0.042646166
0002b0 dd 2e cb bc 6d d0 29 3e 13 f9 90 bd 42 df 00 3d
       -0.02480262 0.16583414 -0.07078757 0.031462915
0002c0 19 0d 03 be b5 26 c9 be 84 cb b6 bc 74 01 27 be
       -0.12797965 -0.39287344 -0.02231384 -0.16309148
0002d0 d3 45 33 be 19 9a 09 be 9a 66 1a be a1 59 2c be
       -0.17507105 -0.1343769 -0.15078202 -0.16831066
0002e0 9e 25 d4 3e dc 6f 5d 3e bd 34 59 3c ae e3 9e be
       0.4143495 0.21624702 0.013257203 -0.3103308
0002f0 a5 d9 8b be 18 77 1a 3e 8d 33 32 3e af c1 64 be
       -0.27314487 0.15084493 0.17402478 -0.2233951
000300 ee 5c 80 be b6 b0 9b bd 87 72 87 bc fb cf 2a 3e
       -0.250709 -0.07602064 -0.016534103 0.16680901
000310 0a 03 7e bc c2 36 20 bf ad 44 82 3e b6 b7 41 bd
       -0.015503654 -0.62583554 0.2544302 -0.04729434
000320 be c9 b4 bb 3e 4a 55 be cf 0a 31 3e e0 1f 83 bd
       -0.0055172136 -0.20829102 0.1728928 -0.06402564
000330 d0 cc 2d 3e 34 9f e7 3d 1d 0a 28 bd 77 a6 20 be
       0.16972661 0.113096625 -0.04102527 -0.15688501
000340 8f 36 03 3e 67 e7 c0 3e 35 d5 df bd cb ce 21 bd
       0.12813781 0.37676546 -0.10929338 -0.039503854
000350 2b ab d6 bd 9c f3 97 bd 21 1d 1f be fd a9 85 3d
       -0.104818664 -0.07419512 -0.15538456 0.06526563
000360 c7 c1 53 be f4 d6 da 3e 9a 41 6e bc ea 07 93 3e
       -0.20679389 0.4274212 -0.014542008 0.28716975
000370 8a 54 bb be 78 7c 13 bd 87 a0 4c bd 70 36 19 be
       -0.36587936 -0.036007375 -0.04995778 -0.14962173
000380 26 37 cb bd 40 3b 8b bd 7b 38 fc bd be 6e b2 bd
       -0.09922628 -0.067984104 -0.1231546 -0.08712529
000390 54 01 9a ba 3b ea 9e bd 3e 25 4c be e5 44 71 bc
       -0.0011749663 -0.0775952 -0.19936082 -0.014725898
0003a0 71 3c a8 bc 9e 8d de bd 18 84 ff bd 0f cf 4d be
       -0.020536633 -0.10866855 -0.12476367 -0.20098518
0003b0 55 24 17 bd a2 69 8c be e8 79 9a 3d 38 ec 0f be
       -0.036899883 -0.2742434 0.07542783 -0.14054954
0003c0 56 d0 13 be be fe 8c bc 76 44 53 3e aa dd 2b be
       -0.14434943 -0.017211314 0.20631585 -0.16783777
0003d0 fe fa 1e bf 54 f7 33 be a8 d0 3a 3e 9a 0f 93 3e
       -0.62101734 -0.17574817 0.18243659 0.2872284
0003e0 70 59 43 be 83 8e 33 bd 0f 5d fd 3d d8 4d a6 3e
       -0.19077086 -0.04383708 0.12371265 0.32481265
0003f0 f9 be 2b 3e d0 0b d1 bd c0 87 ff be e6 05 6d be
       0.16772069 -0.10207331 -0.49908257 -0.23146781

network_body._body_endoder.seq_layers.0.bias f4 [300]
000000 d6 c3 d6 3d 6c 5f 1c bd 20 3d d0 bb 95 f9 57 bd
       0.104865715 -0.03817694 -0.006354943 -0.052728254
000010 0d 75 85 3d 41 1c 40 3c 63 f8 8e bd d8 59 e3 3c
       0.06516466 0.011725486 -0.0698097 0.027752802
000020 a6 bd be bd 0e 5e c2 3c fc 64 79 bd d3 f5 83 bd
       -0.09313516 0.02372649 -0.06088732 -0.064433716
000030 31 8e aa 3c bd 4b 07 bc de 8f 3d 3d 82 bc 00 bd
       0.020819755 -0.0082578035 0.04627978 -0.031429775
000040 db 23 45 bc 5d 60 54 3c c6 75 70 bd 6c 42 01 bd
       -0.012032474 0.012962428 -0.058706068 -0.031557485
000050 a9 5a d5 3b c8 48 0e bc f2 cf 17 ba b2 88 32 bd
       0.0065110517 -0.008684345 -0.0005791179 -0.043587394
000060 4a 3d b0 3d 4a b8 cc 3c 4c 95 34 bc ec 6a 81 3c
       0.0860544 0.02499022 -0.011021923 0.015798055
000070 4e 0b 4e bd f4 f8 7c 39 a2 12 71 3c 54 36 37 bc
       -0.05030375 0.00024125335 0.014713915 -0.011182386
000080 ad 9a f8 3b 53 9c 80 3d 71 67 87 bd 90 de 1c 3d
       0.007586798 0.062798165 -0.06611527 0.03829819
000090 1d 7f 58 3b be a8 e1 bb 81 5a 10 bd 9f d6 4b bd
       0.003303475 -0.0068865707 -0.03524256 -0.049765225
0000a0 65 ca 17 bd 27 17 ea bd 2e 47 4d bd e1 b2 bb 3c
       -0.037058253 -0.11430197 -0.05011671 0.022912445
0000b0 85 14 a0 3d 48 c4 37 bd 16 5a 0b 3d 8a f2 27 bc
       0.07816414 -0.044864923 0.03402146 -0.010250697
0000c0 08 05 bf bd c9 3a 6b bc c5 08 db ba 54 f7 78 3d
       -0.093271315 -0.014357277 -0.0016710988 0.060782745
0000d0 5c 61 4a bd 09 0d 79 bd 26 80 96 bc 53 5d 18 bd
       -0.049409255 -0.060803447 -0.018371653 -0.037198376
0000e0 27 d9 35 bd 9a da 0b 3d 29 e6 0d 3d 50 34 26 3d
       -0.044396546 0.03414402 0.034643326 0.040577233
0000f0 bf 7c 9f bc 35 86 ad 3c ff f2 0a 3d 3f a2 d5 bc
       -0.019468663 0.021182159 0.033923145 -0.026078342
000100 71 c0 40 bd 59 67 27 3d 1d 4f 33 3d 28 e1 11 bd
       -0.047058526 0.040870044 0.04377662 -0.035615116
000110 bb ea 1e 3e 27 5e ee 3c 3e 16 08 3d 98 65 a1 3c
       0.1551923 0.02909763 0.033224337 0.019701764
000120 22 7a 79 38 bc 48 3c bb 46 97 b3 3c d0 19 b6 3d
       5.947997e-05 -0.0028729877 0.021922719 0.08891642
000130 63 6e f1 3c ea 73 e9 3b 8f 42 3e 3c 9c 1c b7 bd
       0.029471582 0.0071244137 0.0116125485 -0.08941004
000140 ab 04 1a 3d 5e 4c b0 bd 88 bf ce bb 70 70 a9 3c
       0.037602108 -0.08608316 -0.0063094534 0.020683497
000150 49 7a e0 3c fa 9f 08 3d 14 25 22 bb 40 dd 31 bc
       0.02740206 0.03335569 -0.0024741339 -0.010855973
000160 9a 4b 94 bd e7 25 07 bc 29 59 82 bd c7 49 08 bc
       -0.07240982 -0.008248783 -0.06364662 -0.008318371
000170 00 11 f3 bb 99 38 78 bc 79 2c 67 bc ea 61 38 bd
       -0.007417798 -0.015150213 -0.014109724 -0.045015253
000180 c5 ac 20 3d 6a 40 84 bc 91 fe 69 bd 2d f7 16 bd
       0.039227266 -0.016143996 -0.05712754 -0.03685682
000190 7a c6 dd 3c 11 e5 15 bd d0 f1 4b 3c 7e 39 fc bd
       0.02707218 -0.036595408 0.012447789 -0.12315653
0001a0 f7 f6 e1 3b a7 fa 02 bd d2 57 38 3d c6 95 80 bd
       0.0068958956 -0.031977322 0.045005627 -0.06278567
0001b0 44 24 a3 bd 0d 08 07 3d 2b 5c 07 3d a5 9b 04 3d
       -0.079659015 0.032966662 0.033046883 0.032374997
0001c0 07 35 b4 3c b7 da db bc 72 f9 b9 3c 9c fd a3 bb
       0.021997942 -0.02683769 0.022701953 -0.005004598
0001d0 1f 02 71 bd da 90 c7 bb 26 67 67 bc c1 c5 61 bd
       -0.058839913 -0.0060902657 -0.014123714 -0.055120233
0001e0 4f 63 51 3c 50 aa 8e 3d c1 bf c4 3c c9 0d d2 3c
       0.012780025 0.06966078 0.024017217 0.025641339
0001f0 03 41 eb 3c c3 da 1c 3d 46 3c 18 3d 19 47 b9 bc
       0.028717523 0.038294565 0.037166856 -0.02261691
000200 f1 ea f0 bc 33 d1 65 3d 40 aa 2b bd 91 31 db bd
       -0.029408904 0.05610771 -0.04191041 -0.107028134
000210 45 48 d7 3c 3c a2 87 bd f4 05 28 bd 6b 6f 4b bd
       0.026279578 -0.066227406 -0.041021302 -0.049666803
000220 91 31 19 bc ba c9 63 bd 3b 41 2d bc 87 2b 62 bc
       -0.009350196 -0.055612303 -0.010574634 -0.013804323
000230 2e 88 cf bc 05 b8 1b 3d 18 c4 4d 3c d1 3a 36 3c
       -0.02533349 0.03801729 0.012558959 0.011122421
000240 15 3c 18 bc 38 1a 7e 3d 6e 73 01 bd 54 bc e5 3c
       -0.009291668 0.062036723 -0.031604223 0.028043903
000250 f8 ab e2 bb 74 6c 07 bd 04 df 5c bd 3a d9 0f 3d
       -0.006917473 -0.033062413 -0.05392362 0.035119273
000260 d4 9f 0e 3d 1d 8a 0d bc c7 b8 9a 3c 13 62 08 be
       0.034820393 -0.008638886 0.018886937 -0.13318662
000270 7e ff 51 3b 08 7d 1b 3d 71 f7 5f bd 9e 80 af 3c
       0.0032043154 0.037961036 -0.054679338 0.021423634
000280 8d 8c 1a 3d 8b 1b 7c bd a0 89 c1 3d f3 29 80 bc
       0.037731696 -0.061549705 0.09450078 -0.015645003
000290 10 f1 5a bd 18 0b 4d bd c3 49 29 bd 10 66 bb bd
       -0.05345255 -0.050059408 -0.04133011 -0.09150326
0002a0 5a ce d5 3b 8f 59 a2 3c 8e 33 f2 bb e0 8d 46 bd
       0.006524843 0.019818095 -0.0073913997 -0.048475146
0002b0 61 38 2a bb c9 51 bb bc 78 51 bd 3c f9 af 9a 3c
       -0.0025973546 -0.022866147 0.023110136 0.018882738
0002c0 60 fc fb bd d3 1a 48 3c 41 5d 54 bc 7d 3f 5f 3c
       -0.12303996 0.012213427 -0.012961687 0.013625977
0002d0 f3 69 16 3c 7f 8b 07 3c 3e 80 74 bd 55 62 34 3d
       0.009180534 0.008273005 -0.059692614 0.04403909
0002e0 97 d0 7b bd 42 28 a1 3d 78 29 f5 3b 88 c2 34 3d
       -0.061478224 0.07869007 0.00748175 0.044130832
0002f0 22 d8 20 3d 05 8f 83 3d db 05 d5 bb 7d 18 eb bd
       0.03926862 0.06423763 -0.006500942 -0.1147928
000300 5d dc be 3c 6a 73 2b 3d 92 5b 7e bd 48 39 07 3c
       0.023298437 0.041858114 -0.062099047 0.008253403
000310 b5 7f 32 3d dc 57 a5 3c 7b 97 b8 3c 9a ae 3c 3c
       0.043578822 0.020183496 0.022533169 0.011516238
000320 f7 f0 28 bd ea 44 8a bd f4 f1 8d bc c7 9a bb 3b
       -0.041245427 -0.067514256 -0.017327286 0.005725238
000330 39 ca 3b bc d0 21 11 bd aa 58 76 bd 63 46 88 bd
       -0.011461788 -0.035432637 -0.06014315 -0.0665405
000340 60 af 0d bd 85 ed e5 3c ee 60 2c 3b 5f cc 1e 3c
       -0.03459108 0.02806736 0.0026302892 0.009692281
000350 87 d8 26 3b 16 dd 63 bd 11 38 a3 3d 9f c8 cc bd
       0.002545865 -0.055630766 0.07969678 -0.09999203
000360 72 a8 2e bd b1 b4 e5 ba 58 a7 fd bb 40 e6 91 bc
       -0.04264111 -0.0017525164 -0.007740896 -0.017809987
000370 7c 02 b4 3c 99 85 40 bd eb 33 3e 3c e8 2f 5a 3d
       0.02197384 -0.04700241 0.011609058 0.053268343
000380 34 33 08 bd 2d bb dd bc 8b 33 b0 3b a8 aa c4 bc
       -0.033251956 -0.027066791 0.005377238 -0.024007156
000390 19 d9 07 bc fb 29 67 3d 70 62 d0 bc f4 18 91 bd
       -0.008291506 0.05643652 -0.025437564 -0.070848376
0003a0 00 ca 8f bc 70 88 ef 3c 1d 26 2f 3d 3d f0 ac bd
       -0.017552376 0.029239863 0.042760957 -0.08444259
0003b0 70 10 19 bc 4d e6 41 bd ac 74 e4 3b 51 39 75 bd
       -0.009342298 -0.047338773 0.006971916 -0.059869114
0003c0 fc 17 7e 3d 59 cb e1 bd 30 12 95 bd 6c 4b b3 ba
       0.062034592 -0.110251136 -0.072788596 -0.0013679094
0003d0 53 87 2e 3b d0 e1 3e 3a 8f 6d 5e 3c 79 2f 9d bd
       0.0026630952 0.00072815735 0.0135759255 -0.0767507
0003e0 56 75 a8 bd ae 3a 80 3d 23 9d d5 3d 04 03 94 bc
       -0.08225505 0.06261192 0.10430362 -0.018067844
0003f0 79 16 ea 3c 6e 45 30 bd 42 f9 ac 3d 26 99 90 bd
       0.028575169 -0.043034963 0.0844598 -0.07060461

network_body._body_endoder.seq_layers.2.weight f4 [300, 300]
000000 90 49 69 be 33 c4 00 3e b1 93 3a be 05 39 6d be
       -0.22781968 0.12574844 -0.18220402 -0.23166282
000010 57 c4 0d be d6 5a 61 be 4e 97 43 3d ee f6 28 3e
       -0.13844429 -0.22007307 0.047751717 0.16500446
000020 96 f8 b1 bc 13 32 55 3b a6 f9 dc 3d 07 b2 18 3c
       -0.02172498 0.0032531067 0.10789804 0.009319789
000030 8e ba b4 3c e3 97 56 be 83 59 eb 3d 2c a5 c5 bd
       0.022061612 -0.20956378 0.114916824 -0.09650645
000040 9d af e2 3d d5 bd 4b 3e 6e bc 52 3d a2 89 1d 3e
       0.11068652 0.19896634 0.05144923 0.15384534
000050 94 f6 02 be 9f 62 97 3e 33 21 0b 3e 11 07 0d bd
       -0.12789375 0.2956743 0.13586883 -0.034430567
000060 ad 90 38 bd 61 01 bc bd 85 81 df 3c 94 c3 1a bd
       -0.04505985 -0.091799505 0.02728344 -0.037784174
000070 ad 77 56 3b d4 fc ce bd a3 27 c6 bd 26 f0 c5 3d
       0.003272514 -0.10106817 -0.09675529 0.09664945
000080 89 07 0a 3e a3 d3 da 3a 4b 2e 73 bc 66 14 8c bc
       0.13479437 0.0016695153 -0.01484258 -0.01709957
000090 1d 57 08 bb 10 b3 95 3c 1b f3 3d 3d cd de ef bc
       -0.0020803877 0.01827386 0.04637442 -0.029281044
0000a0 2f 35 25 bd 3e 9d a7 3d 77 58 6c 3b 28 f1 0d 3e
       -0.040333923 0.081842884 0.0036063471 0.13861525
0000b0 47 93 48 bd cd 00 41 3c 42 85 55 bd 1e 82 3e bd
       -0.04896858 0.011779976 -0.052129038 -0.04651081
0000c0 74 0f c6 bb bf 3a 13 bd 63 71 de 3c 03 2e 54 be
       -0.0060443226 -0.035944697 0.027153676 -0.20720677
0000d0 81 25 2b 3e 46 06 5f bc a6 a1 80 3d 79 97 51 bd
       0.16713525 -0.013612336 0.06280832 -0.051169846
0000e0 4b cc 33 be f3 97 87 3e 34 07 ce 3d fa a8 a2 bd
       -0.175584 0.26483116 0.10059968 -0.07942386
0000f0 c3 38 ee bd 39 3d 95 3d 63 d4 b0 3d 2e af 41 bd
       -0.1163192 0.07287068 0.086342596 -0.047286205
000100 8f 78 29 3e ec 13 18 be 6c 4c 7f be ed 4f fd 3c
       0.16549896 -0.1485135 -0.24931496 0.0309219
000110 0c 95 9e bd 1a 0d d2 3d 35 4c b8 3d aa 43 01 be
       -0.07743272 0.10256405 0.0899891 -0.12623468
000120 43 15 78 3c 67 bc b3 3b 9e e9 e8 bd bd d7 14 be
       0.015141788 0.005485106 -0.11372684 -0.14535423
000130 5c 18 06 3e 78 1b 87 3b 5c 6e 74 b9 ca c9 19 be
       0.1309523 0.0041231476 -0.00023310765 -0.15018383
000140 bf 1e e0 bd c9 9e 2d bd b3 ca a7 3d c1 66 27 3e
       -0.10943364 -0.042387757 0.08192959 0.16347791
000150 ca c1 76 bd 08 b1 2b 3d 9b c0 18 3e 0d 98 aa 3c
       -0.060243405 0.041916877 0.14917223 0.020824457
000160 f3 4e b0 bd 4e 17 89 bd 84 4f 61 bd 4b 44 fc bd
       -0.08608808 -0.06693898 -0.055007473 -0.12317713
000170 5e d2 a5 bb 08 ac 87 bd db a3 ee bc 0f 09 4c 3d
       -0.005060478 -0.06624609 -0.029130867 0.049813326
000180 a2 54 4b be 46 77 cc 3c 55 64 df 3c 36 ad 6a 3e
       -0.19856504 0.024959218 0.027269522 0.22917637
000190 3b c5 4b be 80 22 f7 3d 50 a4 21 3d 1a 8b 3c bd
       -0.19899456 0.12067127 0.03946334 -0.046031095
0001a0 b8 18 b8 3d 68 04 ae 3d 0b b7 df 3d 47 19 f7 bd
       0.0898909 0.08496934 0.109235846 -0.12065368
0001b0 86 ce 6b 3e 6f fb 60 3d 16 eb 2d bd 69 5f a8 3d
       0.23028001 0.054927286 -0.042460524 0.08221323
0001c0 36 9e 94 3d ed 88 32 3e ee 45 fd bd d0 15 9e bd
       0.07256739 0.17435046 -0.12366854 -0.07719004
0001d0 3e 73 1f 3e 9d 9f 37 be e2 15 de 3c ec f9 0e be
       0.15571305 -0.17931981 0.027110044 -0.13962525
0001e0 0a 75 0b 3e 79 fd 8b be 1b 77 7f 3e 5c 77 a2 3d
       0.13618866 -0.27341822 0.24947779 0.07932922
0001f0 1f 20 d6 3c 23 de 98 be 27 a8 9d bc e9 9d 2e bc
       0.026138363 -0.29856977 -0.01924522 -0.010657766
000200 84 fd 55 3d 08 f9 00 3e b4 bd a5 bd 94 f9 76 bd
       0.052243724 0.12594998 -0.080928236 -0.06029661
000210 8b 2b 8e bd a2 a9 b2 bd be 5a ba 3a 4d 5e f3 bd
       -0.06941899 -0.08723761 0.0014217717 -0.11883221
000220 84 00 86 3e ed 00 1e be f0 39 48 3d 86 53 01 bd
       0.26172268 -0.1543004 0.04888338 -0.031573795
000230 06 e3 09 be 9c a7 30 bd 79 6e 13 bd b1 06 62 be
       -0.13465509 -0.043128595 -0.035994027 -0.22072865
000240 64 97 ad bc e2 76 80 bd 89 63 5f 3d 0e 33 0b 3e
       -0.021190353 -0.06272675 0.054538283 0.13593695
000250 6b 32 0c 3e d2 00 66 3d 8a 2e 0c be 4b 66 3c bd
       0.13691108 0.056153126 -0.13689628 -0.04599599
000260 1f c9 23 3d 9d ee fe bd f3 95 9a 3c 8e fa 70 3e
       0.039986726 -0.124478556 0.01887033 0.23533079
000270 a0 4b 53 3e 33 b6 1d 3d 17 3a 2f be 74 c9 98 bd
       0.20634317 0.038503837 -0.17112003 -0.07460299
000280 01 41 c5 3d b1 89 39 3e 29 86 39 bd 16 a0 00 3e
       0.09631539 0.18118931 -0.04529396 0.12561068
000290 1a df 05 3e 44 f9 d7 bd b2 3b b0 3c 4b 5d 41 3e
       0.13073388 -0.105455905 0.02151284 0.18883245
0002a0 f1 96 fa 3d 29 3b e8 3d bf 44 7a be c1 79 5c 3d
       0.12235821 0.11339409 -0.24440287 0.05382705
0002b0 f9 55 61 bd de 9a a6 bc 4e 19 1f 3d 0e 4c 12 3e
       -0.05501363 -0.020337518 0.03884249 0.14286825
0002c0 bf 20 53 3d 9f 1b 7a be cc d3 d9 bd 84 8b 6c bd
       0.0515449 -0.24424599 -0.106361 -0.05775024
0002d0 99 d4 86 be 51 bc 8c 3c 82 80 2a 3d 7c 4a 01 be
       -0.26334074 0.01717964 0.04162646 -0.1262607
0002e0 19 c6 01 3d 4b 4c 40 bd 67 ad 16 3c f8 25 21 3e
       0.03168306 -0.04694776 0.009196616 0.1573714
0002f0 12 91 03 be bd 92 6e be 0a 75 b5 bd 57 86 13 3e
       -0.12848309 -0.23298164 -0.08860214 0.14406715
000300 ad f0 bd bd 0a f4 bd bb de c3 3a 3e 27 b2 91 bd
       -0.09274421 -0.005796914 0.1823878 -0.07114058
000310 c3 6e 03 3e e2 eb b8 bd 62 73 14 be 6e ed d2 3d
       0.12835221 -0.09029366 -0.1449714 0.10299192
000320 14 d6 96 3d c3 79 2c be 15 24 c3 bd e5 fa 28 bd
       0.07365051 -0.16843323 -0.095283665 -0.041254897
000330 32 8b 59 bd d3 fb 18 3b 8e b0 14 3d 28 65 1a be
       -0.053111263 0.0023343458 0.03630119 -0.1507765
000340 ea 89 96 3d 39 b0 06 3e cb a2 8d 3e 70 7f e2 3c
       0.07350524 0.13153161 0.27663264 0.027648658
000350 fd 0e 2f 3e ad b9 c0 bd 5f 74 c2 3d f8 6e cb bd
       0.17095561 -0.09410415 0.09494852 -0.09933275
000360 05 52 5a 3e 47 ff e1 3d 73 ea b4 3d 5e c7 46 3e
       0.2132035 0.110350184 0.0883378 0.1941199
000370 68 a3 03 be 18 60 ab bd da b0 38 3e 4c 3e fc bd
       -0.12855303 -0.08367938 0.18036214 -0.1231657
000380 12 71 0c be 6a 65 6d 3e 1f 15 11 bd 8b 89 ce bd
       -0.13715008 0.23183218 -0.035420533 -0.10084828
000390 40 f4 27 be 63 08 f3 bd c7 85 2c bd da 42 4f 3e
       -0.16401768 -0.11866834 -0.042119768 0.20240346
0003a0 35 27 b0 bd 4f ac 58 3d b3 d4 3c bc 5a 4b b3 3d
       -0.08601228 0.0528987 -0.011525321 0.087546065
0003b0 66 99 a6 bb 8e 3c ef bc 47 d8 bb bd a3 2c 68 bd
       -0.0050842045 -0.02920368 -0.09172111 -0.056683194
0003c0 6e a1 30 be bb 4b 0b 3e 02 04 c9 bd 05 51 a1 bd
       -0.1724908 0.13603108 -0.098152176 -0.078767814
0003d0 cf 03 2e 3e 0b ff 39 3e f7 f0 52 be e1 d1 8a bd
       0.1699364 0.18163697 -0.20599733 -0.067783125
0003e0 57 9c c5 3d 20 4e 9f bd 71 78 82 be 83 b3 14 be
       0.0964896 -0.07778573 -0.25482515 -0.14521603
0003f0 88 53 5a 3e 9d 6e 7c bd ab fd 74 be 24 c1 7d 3e
       0.21320927 -0.061628927 -0.23924892 0.24780709

network_body._body_endoder.seq_layers.2.bias f4 [300]
000000 87 04 07 be 93 8c 0a be 25 d5 e3 bd e2 74 2f bd
       -0.13185321 -0.13530187 -0.111246385 -0.042836078
000010 61 b4 de bd f1 5d ab bd b7 e2 b9 bd 08 c5 c2 bd
       -0.10874248 -0.08367527 -0.090764455 -0.09510237
000020 38 dd 73 be fe 80 86 bd 59 c4 4b bb 4f fc 1c bd
       -0.23814857 -0.06567572 -0.0031092374 -0.038326558
000030 ac d2 96 bd 6d 09 b1 bd 50 c5 94 bd 18 aa 83 bd
       -0.07364401 -0.08644376 -0.07264197 -0.06428927
000040 cf d2 59 bd 95 c4 36 be b2 3a 70 bd 06 c9 8f bc
       -0.05317956 -0.17848428 -0.058649726 -0.01755191
000050 bf d7 a1 bd 52 24 05 be 91 fd b1 bd 7d 85 4b bd
       -0.079024784 -0.13002136 -0.08690942 -0.04968785
000060 7d c8 2a be 28 3a a3 bd 52 9d 79 bd d6 bb 8b bc
       -0.16678043 -0.07970077 -0.060941048 -0.01705734
000070 2a eb 05 3d bf b0 1c be 33 cc 99 bc 2e c8 d2 bb
       0.032694973 -0.15301798 -0.018774128 -0.0064325547
000080 7a 2c 2e bb 1d 31 90 bb 33 84 b3 bd af 34 8a bd
       -0.0026576803 -0.004400386 -0.087654494 -0.0674833
000090 af 96 2c be 44 98 b5 bd ea 1f c7 bd f8 c0 68 b9
       -0.16854356 -0.08866933 -0.09722884 -0.0002219713
0000a0 3b d1 d9 bd 89 3a 25 bd 01 81 18 bd 59 d9 21 be
       -0.10635611 -0.040339027 -0.037232403 -0.15805568
0000b0 b6 5c c2 bd 1b b3 a6 bd 31 d1 88 bd f7 bc 60 bc
       -0.094903395 -0.081396304 -0.06680525 -0.013716928
0000c0 ba 20 53 bd c2 70 c6 3b 0a 45 ce bc c0 a3 bb bd
       -0.051544882 0.0060559222 -0.025179405 -0.09162092
0000d0 66 39 19 be de 2d d8 bb 4b 76 03 be 21 64 84 bd
       -0.14963302 -0.0065972647 -0.12838094 -0.064644106
0000e0 2a 09 da bd e4 2e 28 be 2c 8f 1f bd 8f ad 26 bd
       -0.10646279 -0.16424137 -0.0389549 -0.040692862
0000f0 c0 ba 00 bd ad d7 e3 bc 0e 70 8a bc ac dd 0c ba
       -0.0314281 -0.027812803 -0.016899135 -0.0005373608
000100 18 11 2a bd 0e 4b 8c bd ff 02 02 be 34 88 90 bd
       -0.041520208 -0.06850253 -0.12696455 -0.07057229
000110 1c c5 3e bd de e6 94 bd e5 39 15 be ae 60 d1 bd
       -0.046574697 -0.07270597 -0.14572866 -0.10223518
000120 96 a4 f0 bd e6 57 22 be c2 09 6e bd 3d f3 8e bd
       -0.11750142 -0.15853843 -0.058114775 -0.06979988
000130 47 f6 45 be 0b 00 69 bd a0 fa 7c bd 99 b4 4b bd
       -0.19332229 -0.056884807 -0.061762452 -0.04973278
000140 92 67 34 bd fd 58 91 bd 6f 76 34 bd 2c 51 68 bd
       -0.044044085 -0.07097051 -0.04405826 -0.056718037
000150 1b d9 1c bd 41 28 1f be 65 80 6f bd aa 9d 7d bd
       -0.038292985 -0.155427 -0.058472056 -0.06191794
000160 a8 dc 97 bd 1d 03 0e be 4f 8e 00 bd 3e da 06 bd
       -0.07415134 -0.13868375 -0.031385716 -0.032922976
000170 28 4b 28 be f5 9e 67 bd df 96 08 bd 5e e2 6c bd
       -0.1643492 -0.056548078 -0.033347007 -0.057833068
000180 19 c2 45 bd 0a 77 47 bd 46 a3 26 bd 43 85 57 bd
       -0.04828081 -0.04869751 -0.040683053 -0.052617323
000190 99 0d 2d bd 09 d7 46 bd 57 21 98 bd 11 fe dd bd
       -0.042249296 -0.048544917 -0.07428234 -0.10839475
0001a0 fc 9f 79 bd f0 4e e7 bc ea 99 1b bd 1b 05 33 be
       -0.06094359 -0.028235883 -0.03798858 -0.17482416
0001b0 c5 4e a3 bd 90 33 97 bd 9c 7c a4 bb f6 3b b2 bd
       -0.079740085 -0.07382882 -0.0050197374 -0.08702843
0001c0 47 4f dd 3b 01 b4 24 be 1a db 1c be 8a 25 14 be
       0.0067538354 -0.16084291 -0.15317956 -0.14467445
0001d0 b7 55 14 bd 44 ee 2b bd 0e 47 c8 bc 67 dc e9 bc
       -0.036214557 -0.041975275 -0.024447944 -0.028547479
0001e0 58 d2 a6 bd d7 b9 9f bd 34 76 88 bc 72 f1 84 bd
       -0.08145589 -0.07799118 -0.016657926 -0.064913645
0001f0 c1 b1 21 bd bb b7 87 bd 97 c6 a9 bd f6 35 dd bd
       -0.03947616 -0.06626841 -0.08289831 -0.10801308
000200 76 ca 18 be 88 00 c6 bd ed 71 6f bd a9 cc 2c bc
       -0.14920983 -0.0966807 -0.058458257 -0.010546842
000210 21 70 88 bd 6b 13 80 bd fc da d8 bd a9 82 ad bd
       -0.06662012 -0.06253704 -0.10588643 -0.08472187
000220 ee dd 9e bd a2 2c 8c bd 6f ba d0 bd 05 5f 3c bd
       -0.077571735 -0.068444505 -0.101918094 -0.045989055
000230 a3 65 90 bd 42 61 36 be 41 c3 22 bd bd 4e a3 be
       -0.07050636 -0.17810538 -0.03973699 -0.3189601
000240 06 12 9c bd e2 02 0b bd b7 ec 21 be 67 c6 e0 bd
       -0.07620625 -0.033938296 -0.15812956 -0.10975342
000250 ab 40 3f bd e1 6a 39 bd eb 15 11 be 7b a2 5c bc
       -0.04669253 -0.045267943 -0.14168517 -0.013466473
000260 6f 98 26 be 1d f7 42 be 15 f7 73 be 91 90 b1 bc
       -0.16269086 -0.19039579 -0.23824723 -0.02167538
000270 a1 cc 32 bd e8 ba 17 be 76 56 0d bc 05 69 f5 bd
       -0.04365218 -0.14817393 -0.008626571 -0.119829215
000280 20 84 f0 3c 8c 4a d8 bd 41 87 a1 bd b9 90 4f bd
       0.029359877 -0.10561094 -0.07887126 -0.050675128
000290 dc 6b 9e bd c0 9d 36 bd 51 d3 0d bd 9a 8c c2 bd
       -0.07735416 -0.044584036 -0.034625355 -0.09499474
0002a0 9d 28 9d bd 47 fb c2 bd b5 33 65 bd fe 35 b7 bc
       -0.07673762 -0.095205836 -0.055957515 -0.022364613
0002b0 3c 7e 93 bd 97 35 96 bd 54 00 60 bd c3 6a 0b be
       -0.07201812 -0.0733444 -0.054687813 -0.13614945
0002c0 46 fc 38 bd 2d a3 97 bd da 19 80 bd 8a f3 85 bd
       -0.04516246 -0.0740417 -0.06254931 -0.06540592
0002d0 ef 89 b8 bc b6 16 a8 bd 0d 3d e5 bd d5 87 29 bd
       -0.02252671 -0.08207457 -0.11193285 -0.041389305
0002e0 7c 4e 92 bd 9b 5e 03 bd 91 65 ba bd db 07 95 be
       -0.07143876 -0.032072645 -0.091014035 -0.29107556
0002f0 2c 1e 89 be 93 e7 ad bd 90 de 5f bd 52 4d bf bc
       -0.26780832 -0.08491435 -0.05465561 -0.023352299
000300 11 50 6a bd d6 90 d8 bd f2 e0 1a be f2 a3 af bd
       -0.057205264 -0.105745 -0.15124872 -0.08576192
000310 14 f5 67 bd f9 42 a1 bd 74 30 dd bc 90 f8 97 bd
       -0.05663021 -0.07874102 -0.027000643 -0.074204564
000320 90 e0 25 3a 4d 1e 45 bd d5 68 84 bd cf 17 17 be
       0.0006327713 -0.0481246 -0.064653076 -0.14755176
000330 76 41 33 bd 33 6d b3 bd b1 30 c3 37 80 58 bf bd
       -0.0437636 -0.087610625 2.3268485e-05 -0.09343052
000340 f0 6b 14 bd fb 9b 7b bd 5d 9e 81 bd 80 32 9e bd
       -0.03623575 -0.06142805 -0.063290335 -0.07724476
000350 8b e7 93 bd 2b 38 64 bd 8e 4b e3 bd ea 32 24 be
       -0.07221898 -0.05571763 -0.11098395 -0.16035047
000360 5e 5a 11 be ae 66 56 bd 73 a6 1d be 20 b9 21 bd
       -0.14194629 -0.052344017 -0.15395527 -0.03948319
000370 0b 82 b4 bd 2a 96 3b bd b9 ce 9f bd 41 c4 20 bc
       -0.08813866 -0.045797504 -0.07803101 -0.009812416
000380 f2 c3 a6 bd ba 2e 00 be 7f 58 34 be d7 2c 66 bb
       -0.08142842 -0.12517825 -0.17611884 -0.0035121941
000390 1f d9 23 be 77 77 cb bb 0e 7e 63 bd b4 dc 8b bc
       -0.16000794 -0.0062093097 -0.055540137 -0.017073013
0003a0 09 9b 7a bd db bb 0c be d9 50 f1 bd c1 a5 5d bd
       -0.06118301 -0.13743536 -0.117829986 -0.054113153
0003b0 fb 5c 90 bc 6c 52 78 bd 87 3f 31 bd 1a 05 eb bd
       -0.017622462 -0.06062548 -0.043273475 -0.114755824
0003c0 33 ce ab bd 2f 5e 17 bd 7b 36 4f bd 1d ce 76 bd
       -0.08388939 -0.036955055 -0.050589066 -0.06025516
0003d0 75 67 2d bd 69 51 a2 be 23 5b 62 be 20 58 c1 bd
       -0.042334992 -0.31702736 -0.22105078 -0.09440637
0003e0 14 1e 70 bd 71 b7 bf bc 4d dd 20 be 3a db 37 be
       -0.058622435 -0.023402901 -0.1570942 -0.17954722
0003f0 a6 e6 54 bd 3a ee 2d bc 96 d6 d4 bd fe 62 a3 bd
       -0.051977776 -0.01061588 -0.103924915 -0.07977866

action_model._discrete_distribution.branches.0.weight f4 [3, 300]
000000 e3 d6 99 bb c4 e6 bb bd c0 8b f2 bb 67 c2 0c 3d
       -0.004694806 -0.091748744 -0.0074019134 0.034365084
000010 a8 56 34 bc 97 86 9d 3b 39 27 e2 bc d4 0c 1d 3c
       -0.011006989 0.004807304 -0.027606593 0.009585578
000020 ec a3 9f bc d6 ef db 3c 45 77 43 3d e7 8b b0 3c
       -0.019487344 0.026847761 0.047721166 0.021551086
000030 80 d5 ff bc c7 b7 eb bc 10 c4 1b bd ff d8 04 3d
       -0.031229734 -0.028774155 -0.038028777 0.032433506
000040 c0 e8 4b 3d ac 9f 42 bb 5d 28 4a 3d 61 22 28 bc
       0.049782515 -0.0029697223 0.0493549 -0.010262103
000050 25 a8 e0 bc ae 65 b6 bd ff 2f 93 3c d1 a4 cb bb
       -0.027423928 -0.089061126 0.017967222 -0.006214716
000060 9b 07 bb bc 92 ad c1 bc c1 d3 29 bc 15 41 25 3c
       -0.022830775 -0.023642335 -0.0103654275 0.010086318
000070 a3 d1 90 3d 0c 0f 12 bd 3a 23 d2 bc ee e7 32 bb
       0.07071235 -0.03565888 -0.025651563 -0.0027298885
000080 07 e4 12 bc 5d 95 77 3c 96 e5 37 bd 37 c3 cc bc
       -0.008965499 0.015111295 -0.044896685 -0.02499543
000090 a1 7a d1 bd 24 10 20 3d d1 34 31 bd 72 65 a5 bc
       -0.10228468 0.039077893 -0.04326326 -0.020189974
0000a0 3d d4 c2 3c af d2 e8 bc 55 12 93 bd f9 af 6e bc
       0.023782844 -0.028420774 -0.07181231 -0.014568322
0000b0 e7 21 8d 3c af e4 ba bc ac d3 31 bc 68 f2 dc bb
       0.01722808 -0.022814123 -0.010853689 -0.0067427643
0000c0 ab a5 2a bc d5 e9 20 bd fb dc 21 3d 3f 87 91 3a
       -0.010415475 -0.0392855 0.039517384 0.0011102929
0000d0 6f 93 8c 3c 11 06 40 3b 3c 4b 15 bc 71 7b 51 3d
       0.017160146 0.002930049 -0.009112176 0.051143114
0000e0 43 04 c6 3b 3a 4b 0d be 7f 80 bf bc f6 4b 10 3c
       0.0060429885 -0.13798228 -0.023376701 0.008807173
0000f0 34 97 7c 3c d2 84 0e 3b 85 11 2a bb 3d 96 e4 3c
       0.015416909 0.0021746648 -0.0025950384 0.02790367
000100 31 0f 40 3c f8 f4 e6 bc 0d c1 ea bc 1a e3 97 bc
       0.011722372 -0.028192982 -0.028656507 -0.018540908
000110 c2 c8 2e 3d 90 b7 9a 3d 93 5e f4 bd 73 2d f7 3c
       0.042671926 0.07554543 -0.11932101 0.030173039
000120 fe 9b e9 bb a7 b9 22 bd ac 30 8b 3b 39 27 a0 bc
       -0.0071291914 -0.039727833 0.0042477455 -0.019549953
000130 53 f8 8b bd 65 8e 9e bc eb d3 06 bd b5 ce 9c 3d
       -0.068344735 -0.019355008 -0.032916944 0.07656614
000140 82 61 fd bc 76 5b 08 bd 27 a2 8d bc 3a 9b 2f bb
       -0.030930284 -0.03329035 -0.017289234 -0.0026795403
000150 fe 5b fd bb 1f f1 16 3c 37 1e 10 bc c3 a0 0f 3d
       -0.0077319136 0.009212761 -0.008796266 0.035065424
000160 d8 1b cb 3b d5 71 cc bc e4 75 88 bc 32 ed bc 3c
       0.0061983876 -0.024956623 -0.016657777 0.023062322
000170 31 0e e0 bd 81 28 be bb 05 09 99 bb 31 5a 97 3d
       -0.10940207 -0.0058031683 -0.0046702647 0.073902495
000180 32 80 ee bb c9 72 7c 3b 98 8b 1e bd de 9a d3 ba
       -0.0072784657 0.0038520566 -0.038707346 -0.0016144176
000190 9c a5 31 bb 8f 4d a5 bc 8b 4b c6 bb 0e f4 a2 bd
       -0.0027106768 -0.020178584 -0.006051486 -0.07956706
0001a0 48 fc cb 3d 5e d2 86 3b 87 54 95 bb 6e 97 c5 3d
       0.09960228 0.004114433 -0.0045571956 0.096480235
0001b0 6d c3 a1 3c a6 95 1c 3d 21 3e 98 bb b9 4f 48 bc
       0.019746507 0.038228653 -0.004646078 -0.012226039
0001c0 55 6e fe 3c 4f 71 cc bd 77 8e 82 bc 49 86 a2 3c
       0.03105847 -0.099825494 -0.015937073 0.019839423
0001d0 bd c7 11 ba cb 82 a7 bd 99 e5 ab bc 29 97 04 3c
       -0.00055610744 -0.08179244 -0.020983504 0.00809268
0001e0 e5 e6 d9 3c 3b ac 9d bc 73 b4 3e bc 53 65 f4 3c
       0.026599357 -0.019247165 -0.011639702 0.029833471
0001f0 b5 2b cf bc fc 84 76 3d 9d 50 42 bc af 57 b6 bb
       -0.025289396 0.060185418 -0.01186004 -0.005564652
000200 9d 76 f0 bc 2a dc 67 bb 8b 5c 8a bc 15 e3 00 3d
       -0.029353434 -0.003537903 -0.016889831 0.031466562
000210 e7 21 c2 bc c2 3d 37 bd f6 ba b1 3c 17 c4 5e 3c
       -0.023697807 -0.04473663 0.021695595 0.013596556
000220 09 75 39 3d f3 26 97 bb d8 cf 68 bd 22 9c de bb
       0.04527763 -0.0046127974 -0.05683884 -0.006793515
000230 ef 67 98 bc cf c0 d5 bd 4e 8d 67 bd 7d 32 a8 bc
       -0.018604247 -0.10437166 -0.056531243 -0.020531887
000240 00 55 26 3d 3a 80 99 bb a3 33 e1 bd 8f c9 c2 bd
       0.040608406 -0.0046844753 -0.10996177 -0.095111005
000250 42 35 49 3b 1a ad 8a bb b8 5b 72 bc 40 22 eb 3d
       0.003070191 -0.004232061 -0.014792375 0.11481142
000260 6a a4 13 bd 1b 30 36 bd a5 8d 76 bd c9 9d 6d bc
       -0.03604547 -0.04447947 -0.060193677 -0.014502951
000270 75 29 49 3c 40 d8 80 3b c3 24 45 bc 3d e9 25 bc
       0.0122779505 0.003932029 -0.01203269 -0.010126409
000280 b1 a6 eb 3c ae 5c 6e bd 31 02 7b bc 91 22 6b 3c
       0.028766008 -0.058193855 -0.015320347 0.014351503
000290 9a 71 3c bc eb a6 b8 bb 20 b8 ad ba 7b 0f c4 bc
       -0.011501694 -0.0056351325 -0.0013253726 -0.023933163
0002a0 37 dc 9d bd 3e 63 b6 bc 6d 8e a8 bc 1e 67 81 bc
       -0.07708018 -0.02226412 -0.020575726 -0.01579624
0002b0 d6 f8 bc 3c da 64 d8 bc e4 a1 34 bc 97 cc 87 3c
       0.023067873 -0.026415277 -0.011024926 0.016577048
0002c0 3c 02 c4 bb da f2 a8 3c 12 9e f7 3c 43 3f 4b 3c
       -0.0059817117 0.020623613 0.030226741 0.0124052195
0002d0 46 56 6f bb 22 68 87 3d fe 0a 55 bc dc 1a a7 3d
       -0.0036519929 0.06611659 -0.013003109 0.0815942
0002e0 c0 c4 e9 bc af 9c dd bb f7 15 5f bc f7 1a 70 bb
       -0.0285362 -0.006763063 -0.013616077 -0.0036637166
0002f0 85 9e 45 3d 63 88 9a 3b 37 f1 87 3d 73 a7 0c bc
       0.04824688 0.0047159656 0.06637805 -0.008584845
000300 ca 21 34 bc b7 9d c1 bd 10 39 e9 bc 5b 70 f8 3c
       -0.010994384 -0.0945391 -0.028469592 0.030327013
000310 ff a0 92 3d 29 25 f3 3b 70 58 b4 bc 3f 7f 09 3b
       0.07159614 0.0074202013 -0.022014827 0.0020980386
000320 ac 44 38 bb f4 87 d5 bb c6 7d 98 3d 5b e5 8e 3b
       -0.0028117104 -0.006516451 0.074458644 0.0043608374
000330 f2 96 96 3c b8 b2 04 3d 6a f2 5e bc 00 29 25 3d
       0.018382523 0.032397002 -0.013607601 0.040322304
000340 2c bb 60 3d 68 bd 90 bc 8f c7 0e bd c3 d4 95 3d
       0.054866 -0.017668441 -0.034858283 0.07315972
000350 93 e8 d1 bb 3f c9 9d bc 20 f0 d2 bc b2 ee b2 bd
       -0.006405899 -0.019261 -0.025749266 -0.08736934
000360 f7 cb bb bd 23 a2 25 bc c7 38 1f bc a1 8f 55 bd
       -0.091697626 -0.010109457 -0.009718127 -0.05213893
000370 1e 44 3d 3c da cc 34 3d 8a 44 b7 bc 42 74 14 3d
       0.011551885 0.044140674 -0.02237155 0.036243685
000380 c2 33 f1 bc 3e 56 9c bd 5e 79 0f bc f5 18 b5 bc
       -0.029443625 -0.07633637 -0.008756964 -0.022106627
000390 43 15 47 bd 10 9a 9a 3c 08 21 7f 3c 59 1c 1e bc
       -0.04860426 0.01887229 0.01557184 -0.009650313
0003a0 6e fa 87 bd 77 a6 4e bc d7 58 9b bc 88 16 67 bc
       -0.066395625 -0.0126129305 -0.01896326 -0.014104493
0003b0 dd b9 9a ba c5 28 4a 3c 48 6e 1e 3d a4 b2 ff bc
       -0.0011804659 0.012338822 0.03867939 -0.031213112
0003c0 23 79 78 3d 0a 65 b3 3c f7 a1 9d 3c d9 f5 49 bd
       0.0606624 0.021898765 0.01924227 -0.049306724
0003d0 3d ee 99 bc e9 e7 19 bd 35 de 02 bd 7d 76 8d bd
       -0.018790359 -0.037574682 -0.031950194 -0.069073655
0003e0 b1 3d cd 39 b4 60 b7 bc 03 b4 6e bd d0 ae d3 bd
       0.0003914661 -0.022384979 -0.05827714 -0.10336077
0003f0 2c e7 be bc a7 8d 2c bc 9b 36 49 bd ce 1f 02 3c
       -0.02330359 -0.010531819 -0.04912434 0.007942153

action_model._discrete_distribution.branches.0.bias f4 [3]
000000 7e 64 00 3e 39 a7 29 bd db c8 be bd
       0.12538335 -0.04141924 -0.09315654

action_model._discrete_distribution.branches.1.weight f4 [3, 300]
000000 ee 1b 25 3c 9e d3 8b bd 07 5b 1d bd 98 eb 29 3d
       0.01007746 -0.06827472 -0.03841689 0.041484445
000010 d2 12 2e 3b 88 87 5d bd c8 11 09 bd d0 ee 6b bd
       0.002656151 -0.05408433 -0.033464223 -0.057600796
000020 e6 8a 86 3b c1 8e 59 bd 59 b2 d3 3b 50 e4 3e bd
       0.0041059135 -0.053114656 0.0064604697 -0.046604455
000030 16 a6 df 3b fe c0 71 3c 73 be 09 bd 6c 1f 8a 3b
       0.006825219 0.014755486 -0.033628892 0.0042151716
000040 dc 6e 1c 3d e1 8b e0 3a 82 e9 26 bd c7 b3 13 bd
       0.03819166 0.0017131531 -0.040750034 -0.03606012
000050 0f 62 4e bc 51 26 83 bc be ee 0d 3d c3 d6 12 bc
       -0.012596621 -0.016009482 0.03465151 -0.008962336
000060 eb 0d 1f bd 19 12 c4 3b 6f 0b aa bc a5 9e f7 bc
       -0.038831633 0.0059836027 -0.020757405 -0.030227015
000070 55 d5 04 3d 45 95 eb 3b 75 9b dc 3b 29 03 1f 3c
       0.03243001 0.007189425 0.006732399 0.009705343
000080 66 f9 84 bc 2b 80 bc 3c 8c f8 19 bc c1 b1 b8 3b
       -0.016232204 0.023010334 -0.009397637 0.0056364243
000090 fc 12 ed 3b ab 74 a2 3c bb 1d cd bb b8 c3 e4 3c
       0.007234929 0.019831022 -0.0062596477 0.027925357
0000a0 5e c5 c9 3b 9a 36 aa 3c 8e 34 34 3d 04 c3 2b 3b
       0.006157561 0.02077799 0.043995433 0.0026208768
0000b0 80 f6 52 3c e3 9b 7b 39 52 98 bf 3c c4 b0 0a bc
       0.012876153 0.00023995298 0.023388062 -0.008464996
0000c0 9e bf e4 bc df e2 8b bc 39 47 e4 3b 1f c0 7f bd
       -0.027923401 -0.017075954 0.006966498 -0.06243908
0000d0 00 c4 c3 b9 1e d2 1d bc 4c 21 38 bd e0 89 b0 bd
       -0.0003733933 -0.009632615 -0.04495363 -0.086200476
0000e0 41 55 d3 3c d5 b9 18 3d 59 4b 44 ba 79 5b bc 39
       0.025797488 0.0372866 -0.00074880343 0.00035926307
0000f0 2d ca 77 bc f9 3d 43 bd 86 7f ad bb 4d 63 81 3d
       -0.015123886 -0.047666524 -0.005294743 0.06317768
000100 80 72 23 bc df 08 dd 3c f8 30 c9 3c 6d 29 ca 3b
       -0.009976029 0.02698177 0.024559483 0.006169489
000110 de 35 99 bd 87 df b6 3b 91 8c af 3c fc b6 0f bd
       -0.074809775 0.0055808458 0.021429332 -0.035086617
000120 52 fc cb bc ba 64 19 bd 75 c9 0e 3d 21 74 29 bd
       -0.02490059 -0.037449576 0.034860093 -0.041370515
000130 49 97 69 3c ec 13 52 bc 5e b5 7d bd 0d b1 6e bd
       0.014257261 -0.012822133 -0.061940543 -0.058274318
000140 b0 01 97 bd cf 79 13 bd fc 2e 50 3b cb f7 47 3c
       -0.07373369 -0.036004838 0.0031766286 0.012205075
000150 cb f4 5f 3b b3 b9 2a bc b8 99 c4 3b 9c ea 55 bc
       0.0034173008 -0.010420251 0.00599977 -0.0130564235
000160 41 ee 3a bc 80 27 be bc 17 5b 33 bd 6e c0 a4 bc
       -0.011409343 -0.023212194 -0.043788042 -0.020111289
000170 d8 e6 b5 bc bb 61 5a bd 15 6d 20 3d d8 ca bd bd
       -0.022204801 -0.05331586 0.03916653 -0.09267205
000180 8d b0 36 3c 90 f2 76 3d f5 90 de bc f7 37 20 3d
       0.011150491 0.06028992 -0.02716873 0.039115872
000190 7c ef 92 ba d6 1c b5 3c 7a 49 29 bc 0b bf 34 bd
       -0.0011210288 0.022108477 -0.01033246 -0.044127505
0001a0 6b c7 91 3c a5 5b 25 bd 32 ea f2 bb 28 b4 17 bd
       0.017795285 -0.040370602 -0.007413172 -0.037037045
0001b0 a1 64 f2 3c 3d b6 d6 bc e1 c2 c4 bb 18 71 01 bd
       0.029589 -0.026209945 -0.0060046767 -0.031601995
0001c0 67 69 dd 3b 34 4b ff bc a4 b5 5b bb 11 51 bb bc
       0.0067569497 -0.03116379 -0.0033525014 -0.022865804
0001d0 a1 5b 76 3a 28 f7 2b 3c da bb 6a 3c 24 e7 82 3c
       0.0009397809 0.010495938 0.014327014 0.015979357
0001e0 06 39 13 bd 0c ff bd bc e3 5b ac 3c 11 8b cb 3b
       -0.035943054 -0.023192905 0.021039909 0.0062116464
0001f0 25 98 2c bc d6 09 65 bd d3 47 b7 bb 0c b7 25 bd
       -0.010534321 -0.055917583 -0.005593279 -0.04045777
000200 bd a4 7f bc 6a 2f 6d bd 9b 47 ac bc 5e bd d2 bc
       -0.0156032415 -0.057906546 -0.021030238 -0.025725063
000210 94 92 04 bd 77 b9 a8 3c 73 f3 4f bc 90 ac 1f bd
       -0.03236635 0.020596249 -0.01269232 -0.038982928
000220 46 f4 aa bd d4 4f e8 bc 4e 34 a0 bc cd 5e 4e bd
       -0.08347373 -0.028358378 -0.01955619 -0.050383378
000230 77 18 7c bb 36 d3 31 3d ad 27 21 3c 65 83 5b 3b
       -0.003846673 0.043414317 0.00983612 0.0033495065
000240 eb 1c 82 bd df 54 44 bc 27 39 4c 3d 04 70 b8 bd
       -0.06353172 -0.0119831255 0.049859192 -0.0900574
000250 0d ac a5 3c 0d 90 7c bc 22 c3 39 bc 76 86 ad 3c
       0.020223642 -0.015415204 -0.011338027 0.02118228
000260 a0 31 35 bc 08 5e 1b bc 70 ba e0 bb 20 74 53 bb
       -0.011059195 -0.009482868 -0.0068581626 -0.003226526
000270 4b 3b e5 3b a9 cf 81 3c 64 96 8d 3b 0c 1c 80 bc
       0.0069955937 0.01584609 0.0043209065 -0.015638374
000280 98 63 42 bc 00 d1 06 3d 8e 0e 8f 3c f7 b2 37 bd
       -0.011864565 0.03291416 0.017462995 -0.04484841
000290 29 49 7f bc 5b b4 83 bc 5e b9 05 3a a1 98 64 3c
       -0.015581408 -0.016077211 0.0005101169 0.013952405
0002a0 0f 96 69 bd 2a cc 14 bc 3d b7 d9 bc 0c 2b bd 3c
       -0.057027873 -0.00908188 -0.026576633 0.023091815
0002b0 50 7f 97 3d a5 02 d8 bc 11 46 54 bc eb 8d a4 bc
       0.0739733 -0.026368449 -0.012956158 -0.020087203
0002c0 d6 91 ba bc 44 1f 52 bd 2a de b8 bb 14 d5 d0 3c
       -0.022774618 -0.05129935 -0.0056417184 0.025492229
0002d0 98 32 9d 3c 35 21 4e bc c2 96 c7 bc ad 12 c2 bc
       0.019189164 -0.012581159 -0.02436388 -0.023690546
0002e0 17 89 e2 3b d3 23 b8 bb 7b 70 d3 bb d2 04 c4 3c
       0.006913315 -0.005619505 -0.0064526177 0.02392808
0002f0 7a 06 34 3d 3d 9d 28 bd 80 4e 89 bd 2b 4a 46 3d
       0.04395149 -0.04116558 -0.06704426 0.048410576
000300 62 01 82 bc 66 8c a4 bc d0 98 02 3d 3e 91 2d 3d
       -0.0158698 -0.020086478 0.031884015 0.042374842
000310 f4 a3 04 3d 98 fe fc bc a2 d1 02 bd 5f b8 32 3d
       0.03238292 -0.030883119 -0.031938203 0.04363286
000320 1a 3b a9 bb 22 2c a0 3c 7d c6 fa bc 79 d1 2c 3a
       -0.005164516 0.019552294 -0.030612225 0.0006592493
000330 62 fb b6 3c df 90 95 bc 2b c5 5a 3d 97 00 ac 3a
       0.022336666 -0.018257556 0.05341069 0.0013122734
000340 b3 ba 3b bd 03 70 2e bc 99 ce 9d 3d a3 c2 4a 3d
       -0.045832347 -0.010646823 0.07705421 0.049502026
000350 17 43 d2 bc 65 15 ed bb a2 6b 60 bd 21 ab af bc
       -0.025666757 -0.0072352164 -0.054790147 -0.021443905
000360 03 0c a1 bc 71 f9 7f bc 7c 3f bc bc d3 18 93 bb
       -0.019659048 -0.015623436 -0.02297949 -0.0044890433
000370 13 e7 a9 bc 20 27 41 3b dd 6d 2c 3c 93 4b 38 bd
       -0.020740068 0.0029472783 0.01052424 -0.04499395
000380 4b 9f 82 3b 04 de d7 bc 32 51 ba 3b ce f1 31 bd
       0.0039862744 -0.026350982 0.0056859488 -0.043443494
000390 8c bf f9 bc b5 96 74 3d 92 2c 99 bc ba f3 62 bc
       -0.030486844 0.059714038 -0.01869801 -0.013852054
0003a0 2f 5c d5 3b a4 40 88 ba 73 0a ab bc 6a 1b 33 bd
       0.0065112333 -0.0010395241 -0.020879006 -0.043727316
0003b0 a2 b3 4d 3c 9d 8e dd 3c 78 44 9b bc de 03 1f bd
       0.012555035 0.027045542 -0.018953547 -0.038822047
0003c0 19 f4 e3 bb 1e fa dc bc 75 48 20 bd 34 19 56 bc
       -0.006956589 -0.026974734 -0.0391316 -0.013067532
0003d0 fb 51 f9 bc 8e 1f 78 3c dd ad 7e bc 09 05 f8 3a
       -0.0304346 0.015144242 -0.015544382 0.0018922399
0003e0 2f 0b 9d bc 9f 4c 45 bd f3 1a ab bc a3 49 25 3d
       -0.019170372 -0.048168775 -0.020886874 0.04035343
0003f0 56 f3 06 bd 41 2f 5e 3b fe ae c0 3c 14 02 3a 3d
       -0.032946907 0.0033902677 0.023520943 0.045412138

action_model._discrete_distribution.branches.1.bias f4 [3]
000000 b5 7f d9 bb 49 17 6e 3c 3a 45 61 3c
       -0.0066375383 0.014531919 0.013749415
