results/BotControllerAgent/BotControllerAgent/BotControllerAgent-43499327.onnx (onnx, 418887 bytes, 9 tensors)

discrete_act_size_vector f4 [1, 2]
0	0x40400000	3.0
1	0x40400000	3.0

network_body._body_endoder.seq_layers.0.weight f4 [300, 35]
0	0x3da3ad63	0.07992055
1	0x3ef68d4b	0.48154673
2	0x3e3f4a8e	0.18680784
3	0x3e254ef2	0.16143396
4	0x3ce3ade9	0.027792888
5	0x3e370827	0.17874204
6	0xbd42c11c	-0.047547445
7	0xbe0400d5	-0.12890942
8	0x3e6e44af	0.23268388
9	0x3d638945	0.055550832
10	0xbed3d4c0	-0.41373253
11	0x3de83f90	0.113402486
12	0x3e0fea69	0.14054264
13	0x3dec2456	0.11530368
14	0xbe04ae6f	-0.12957166
15	0x3e190f06	0.14947137
16	0x3c76945e	0.015050022
17	0x3d9d21a7	0.07672434
18	0xbe986729	-0.29766205
19	0xbe8d11f7	-0.2755277
20	0xbd48a9d4	-0.048990086
21	0xbe708e6e	-0.23491833
22	0x3d76aa96	0.060221277
23	0xbdab83dc	-0.083747596
24	0xbdd9d3c6	-0.10636096
25	0xbddec7f7	-0.10877984
26	0x3d3995a1	0.045308713
27	0x3d3755f7	0.044759717
28	0x3b575909	0.0032859466
29	0x3ea510f2	0.3223949
30	0x3e43fc75	0.19139273
31	0xbe7bcdde	-0.24590251
32	0xbe6e2f16	-0.2326015
33	0xbdb7a673	-0.089672945
34	0xbda65fb6	-0.08123724
35	0xbc1811e4	-0.009281609
36	0xbe8536c8	-0.26018357
37	0xbd45b9d7	-0.048272934
38	0x3d8529b3	0.06502094
39	0xbd7b29a6	-0.061319016
40	0xbea363fb	-0.31912217
41	0x3e8d2e43	0.27574357
42	0xbe4bebf9	-0.19914235
43	0xbe727a2a	-0.23679414
44	0x3df54e0d	0.11977778
45	0xbe8e51e0	-0.2779684
46	0xbde0dbe0	-0.10979438
47	0xbe898053	-0.26855716
48	0x3e17b805	0.14816292
49	0xbc990407	-0.018678678
50	0xbdc39ebd	-0.09551761
51	0xbc174919	-0.009233736
52	0x3e86657d	0.26249304
53	0xbd20af2b	-0.039229553
54	0x3e0c234e	0.13685343
55	0x3dcf10c8	0.10110623
56	0x3db05c4e	0.08611356
57	0xbe512960	-0.2042594
58	0xbe5077b5	-0.20358165
59	0xbd2fa35d	-0.042880405
60	0xbdd7cbf0	-0.10536945
61	0x3e5092f8	0.20368564
62	0xbdff20c5	-0.12457422
63	0x3e8233cd	0.25430146
64	0x3d9b4a63	0.075825475
65	0xbea0e0f3	-0.31421623
66	0xbe50c5e6	-0.20387992
67	0xbe23ca94	-0.15995246
68	0x3dfbee92	0.12301363
69	0x3b67e55e	0.0035384516
70	0x3e0d4f15	0.13799699
71	0x3e55a4a4	0.20863587
72	0xbe1dce9e	-0.1541085
73	0x3d01e05c	0.031708106
74	0xbd64464b	-0.0557311
75	0x3e247f20	0.1606412
76	0x3eafdcf2	0.34348255
77	0xbe436f00	-0.19085312
78	0x3e50459a	0.20339051
79	0xbda4ca5a	-0.08046408
80	0xbc5938f9	-0.013258212
81	0x3ea37c7a	0.31930906
82	0x3e0428d5	0.12906201
83	0xbe3e8ef6	-0.18609223
84	0x3ece106a	0.40246898
85	0xbd4a683f	-0.049415823
86	0x3e3bd12b	0.1834151
87	0xbe799d0a	-0.24376312
88	0x3c90ce7d	0.017676586
89	0xbe9daf2a	-0.30797702
90	0xbe1c9364	-0.152906
91	0x3e8b58f6	0.2721631
92	0x3d6d8cd6	0.05799564
93	0xbe318efd	-0.17339702
94	0x3e311ec8	0.17296898
95	0x3e40b046	0.18817243
96	0x3e0a680a	0.1351625
97	0x3e125325	0.1428953
98	0x3e2dbceb	0.16966598
99	0xbef5b44c	-0.47989118
100	0x3e0ba51c	0.13637203
101	0xbd123c09	-0.035701785
102	0xbee6f772	-0.4511066
103	0xbeb03b37	-0.34420177
104	0x3e0780af	0.13232683
105	0xbda99e2d	-0.08282123
106	0xbe426aed	-0.18986101
107	0x3e00a9a4	0.12564713
108	0x3adaf27d	0.0016704347
109	0xbe92180a	-0.28533965
110	0x3e10b1e2	0.14130357
111	0x3e6666ef	0.22500204
112	0xbe917043	-0.2840596
113	0x3ea02c7b	0.31283936
114	0xbe4760fc	-0.1947059
115	0x3e4c26b9	0.19936647
116	0x3c5dd6cc	0.013539981
117	0x3d156c22	0.036480077
118	0xbea6559c	-0.3248719
119	0x3e4bc8bc	0.19900793
120	0xbde875f7	-0.11350625
121	0xbcdfe169	-0.027329164
122	0xbed713f4	-0.4200741
123	0x3c96e587	0.018419994
124	0xbde297bf	-0.110640995
125	0x3ce1ab2c	0.027547441
126	0x3e50acb3	0.2037838
127	0xbe0d3b9f	-0.13792275
128	0xbd079906	-0.03310492
129	0x3d95c579	0.073130555
130	0xbde88749	-0.113539286
131	0x3d97bdfe	0.07409285
132	0xbbb1bbb7	-0.0054239887
133	0x3da0eda8	0.07857829
134	0x3e947c89	0.29001263
135	0xbd6dcdcb	-0.058057588
136	0x3e3867d5	0.18008359
137	0x3e46054f	0.19337963
138	0xbeaa7386	-0.33291262
139	0x3e141a30	0.14463115
140	0x3e2fb092	0.171572
141	0x3e39c6e3	0.18142276
142	0xbe330d67	-0.17485581
143	0x3e83b009	0.25720242
144	0x3dc00bfe	0.09377287
145	0x3e183d00	0.1486702
146	0xbe9e375d	-0.30901614
147	0x3e33ac09	0.17546095
148	0x3e290eaa	0.165095
149	0xbeb153d9	-0.34634283
150	0x3d30b841	0.04314447
151	0x3b29d6e0	0.002591543
152	0x3e98117f	0.29700848
153	0x3e4f72bf	0.20258616
154	0x3e21e258	0.15809
155	0x3c9675ff	0.018366812
156	0x3e54eb13	0.20792799
157	0x3ea1372e	0.3148741
158	0xbc3ab22c	-0.011395019
159	0x3d351c57	0.04421648
160	0xbd7d39d7	-0.06182274
161	0xbdf8c7cb	-0.121474825
162	0x3e304320	0.17213106
163	0x3e5151eb	0.20441405
164	0xbcbb1db9	-0.022841321
165	0xbdee5651	-0.11637557
166	0x3e88cee6	0.2672035
167	0x3e615430	0.22004771
168	0xbe2d488b	-0.16922204
169	0x3d9a0d25	0.07522038
170	0xbe412164	-0.18860394
171	0xbd4c48e0	-0.049874187
172	0xbceb6509	-0.0287347
173	0x3e251ac2	0.16123489
174	0xbda6f8df	-0.08152937
175	0x3d0eb872	0.03484387
176	0xbe018452	-0.12648132
177	0xbed1da45	-0.4098684
178	0xbc4856ec	-0.012227755
179	0xbe21c3d7	-0.15797363
180	0xbe32d28c	-0.1746313
181	0xbdedf5be	-0.11619137
182	0xbe0a5866	-0.13510284
183	0xbe338ec1	-0.17534925
184	0x3ed90ce0	0.42392635
185	0x3e5abd4f	0.21361278
186	0x3c7a2467	0.015267468
187	0xbea05247	-0.31312773
188	0xbe81cecd	-0.2535309
189	0x3e24cc4c	0.16093558
190	0x3e352ce8	0.17692912
191	0xbe6386be	-0.22219369
192	0xbe76b636	-0.24092945
193	0xbd87f28d	-0.0663806
194	0xbc0badc2	-0.008525314
195	0x3e27cf66	0.1638771
196	0xbbc81b0d	-0.0061067403
197	0xbf1e8231	-0.61917406
198	0x3e810d14	0.2520529
199	0xbd0b2a7d	-0.033976067
200	0xbb87137c	-0.0041221958
201	0xbe555dba	-0.20836535
202	0x3e239ce6	0.15977821
203	0xbd2b79b9	-0.04186413
204	0x3e29a44d	0.16566582
205	0x3de6d08b	0.11270245
206	0xbd07480a	-0.033027686
207	0xbe239734	-0.15975648
208	0x3e1341a8	0.14380515
209	0x3ec84444	0.39114583
210	0xbdcacf31	-0.099028
211	0xbd34d140	-0.04414487
212	0xbe0c5e1c	-0.13707775
213	0xbda2d7ac	-0.079512924
214	0xbe2e687a	-0.17032042
215	0x3d890223	0.06689861
216	0xbe54a227	-0.20764981
217	0x3ed8e7eb	0.4236444
218	0xbc09cbe2	-0.008410426
219	0x3e910be1	0.28329375
220	0xbecb2c4c	-0.39682233
221	0xbd14e35b	-0.036349636
222	0xbd36397c	-0.044488415
223	0xbe3967c8	-0.18105996
224	0xbdd61e22	-0.10454966
225	0xbd511f2c	-0.05105512
226	0xbe028d05	-0.12749107
227	0xbde3e01f	-0.11126732
228	0xbb8a58a8	-0.0042219944
229	0xbdb6f44a	-0.08933313
230	0xbe393008	-0.18084729
231	0xbcb5497f	-0.022129772
232	0xbd02866d	-0.03186648
233	0xbdfbd24b	-0.122959696
234	0xbdf13549	-0.117777415
235	0xbe3dbb93	-0.18528585
236	0xbcaa1ef6	-0.020766716
237	0xbe81fba6	-0.25387305
238	0x3d82cc1e	0.063865885
239	0xbe29026e	-0.16504833
240	0xbe20edf7	-0.15715776
241	0xbcb61fc4	-0.022231944
242	0x3e4d0d16	0.20024523
243	0xbe1ea805	-0.15493782
244	0xbf1a51f8	-0.60281324
245	0xbe3c1667	-0.18367921
246	0x3e3d076c	0.18459862
247	0x3e90bfe1	0.28271392
248	0xbe3b91bd	-0.18317313
249	0xbd3240ec	-0.043518946
250	0x3df787c1	0.1208644
251	0x3ea3b6dc	0.31975448
252	0x3e2ec75e	0.1706824
253	0xbdde3e87	-0.1085177
254	0xbefee6e2	-0.49785525
255	0xbe54be47	-0.2077571

network_body._body_endoder.seq_layers.0.bias f4 [300]
0	0x3dd8ff8a	0.10595615
1	0xbcdcb918	-0.026943728
2	0x39e490cb	0.00043595428
3	0xbd69fa91	-0.057123724
4	0x3d663bbd	0.056209315
5	0x3c851685	0.01624609
6	0xbd9e04eb	-0.07715782
7	0x3cde103b	0.027107349
8	0xbdb98704	-0.09058955
9	0x3ceb68c1	0.028736474
10	0xbd82bb76	-0.063834116
11	0xbd818141	-0.06323481
12	0x3c3e6a83	0.011622074
13	0x394c31fc	0.00019473577
14	0x3d16150e	0.036641173
15	0xbcdb7f40	-0.026794076
16	0xbc5fc93d	-0.013658819
17	0x3c5e0daf	0.013553067
18	0xbd739fa0	-0.059478402
19	0xbcfe80d8	-0.031067297
20	0xbb219fc1	-0.002466187
21	0xbca0bdf1	-0.019621821
22	0xba0e9abc	-0.00054399273
23	0xbd0ca932	-0.034341045
24	0x3da9a8a3	0.08284118
25	0x3cb4dad7	0.022077007
26	0xbba9aecb	-0.0051783076
27	0x3c77483a	0.015092904
28	0xbd3c4ed9	-0.045973632
29	0x3c347131	0.011013315
30	0x39c5a415	0.0003769702
31	0xbcc15a33	-0.02360258
32	0x3c0ce5b1	0.008599685
33	0x3d890eb0	0.066922545
34	0xbd8e0fed	-0.06936631
35	0x3d27b2b4	0.04094191
36	0xbb9dd2df	-0.0048163976
37	0xbc59b2fa	-0.0132873
38	0xbd0ca41a	-0.034336187
39	0xbd7f6b66	-0.062358283
40	0xbd36c08a	-0.044617213
41	0xbde5efd2	-0.11227383
42	0xbd1cc199	-0.038270567
43	0x3c8d2814	0.017231025
44	0x3da3b269	0.079930134
45	0xbd2c9f16	-0.042143904
46	0x3ce53576	0.027979594
47	0xbcabaf39	-0.020957576
48	0xbdb9d046	-0.09072928
49	0xbc53dc53	-0.012930947
50	0xbac6a62e	-0.0015155727
51	0x3d62f55f	0.055409785
52	0xbd5c344b	-0.053760808
53	0xbd871e34	-0.06597558
54	0xbc72fb85	-0.014830475
55	0xbcf168d7	-0.029468937
56	0xbcb13e42	-0.021636132
57	0x3d04b0e9	0.032395277
58	0x3cc0b8c0	0.023525596
59	0x3d46de78	0.048552006
60	0xbcda273e	-0.02663004
61	0x3c8e22ea	0.017350633
62	0x3c8d2a11	0.017231973
63	0xbd0376d7	-0.032095756
64	0xbd4fa44d	-0.0506938
65	0x3cf77968	0.030209258
66	0x3d43c523	0.047795426
67	0xbd15cb5c	-0.03657089
68	0x3e17b7a7	0.14816152
69	0x3d04919f	0.032365438
70	0x3cc087f5	0.02350233
71	0x3c5fb43b	0.01365381
72	0xbc15dccb	-0.009146879
73	0xbbdfe7a0	-0.006833032
74	0x3c75763a	0.014981801
75	0x3da7cf32	0.08193816
76	0x3cf256b8	0.029582366
77	0x3ab2f84e	0.0013654323
78	0x3bd7500d	0.006570822
79	0xbdad1259	-0.08450765
80	0x3d0b6c9c	0.034039125
81	0xbd987e7a	-0.074459985
82	0xbb79f21a	-0.0038138689
83	0x3c9472aa	0.018121082
84	0x3cdd8fdf	0.027046142
85	0x3d1f30d6	0.038864933
86	0xbbec60f0	-0.0072137043
87	0xbc8ccb67	-0.017186834
88	0xbd9a4347	-0.075323634
89	0xbc9ffeef	-0.019530741
90	0xbd550b39	-0.052012656
91	0xbc22537f	-0.009907602
92	0xbbb92898	-0.005650591
93	0xbc133515	-0.008984824
94	0xbc67e0f1	-0.014152751
95	0xbd58d62b	-0.05293862
96	0x3cf7744a	0.030206818
97	0xbc8eea61	-0.017445745
98	0xbd57effb	-0.052719098
99	0xbd1e5f99	-0.038665388
100	0x3cac60ab	0.021042189
101	0xbd22e8ed	-0.039772917
102	0x3c5541e0	0.013016194
103	0xbe015fbc	-0.12634176
104	0x3c67e32e	0.014153285
105	0xbd14f7d4	-0.03636916
106	0x3d28f2ba	0.041247107
107	0xbd50f600	-0.051015854
108	0xbdbe800b	-0.09301766
109	0x3ccfc9dc	0.025364809
110	0x3cb97455	0.02263848
111	0x3d262aed	0.04056828
112	0x3c798277	0.015228859
113	0xbd06213f	-0.03274655
114	0x3ca5b8e0	0.020229757
115	0xbb18fc36	-0.0023343689
116	0xbd7891df	-0.06068599
117	0x3ac5fc93	0.001510518
118	0xbc6005fc	-0.013673302
119	0xbd5e3d9c	-0.054257974
120	0x3c43eb77	0.011957995
121	0x3d8216fd	0.06352041
122	0x3c9f7761	0.019466104
123	0x3cf3c81e	0.02975851
124	0x3c9866ea	0.01860376
125	0x3d322108	0.043488532
126	0x3d160e36	0.036634646
127	0xbd0b405a	-0.033996917
128	0xbd031473	-0.032001924
129	0x3d3d3c57	0.046200123
130	0xbd32da6c	-0.043665335
131	0xbde25496	-0.1105129
132	0x3cb601b8	0.022217616
133	0xbd5f0d1c	-0.05445586
134	0xbd2ca767	-0.042151835
135	0xbd447bb8	-0.04796955
136	0xbc8f163d	-0.017466659
137	0xbd87df68	-0.06634408
138	0xbc5aaf48	-0.013347454
139	0xbc80dabf	-0.015729306
140	0xbc895b71	-0.016767235
141	0x3d2aa277	0.041658845
142	0xb9c62405	-0.0003779234
143	0x3ad37c21	0.0016135016
144	0xbc1d097e	-0.009584783
145	0x3d738719	0.05945501
146	0xbcef64f1	-0.029222937
147	0x3cc3e27f	0.023911713
148	0xbb3329b7	-0.0027338096
149	0xbcf7998a	-0.03022458
150	0xbd349e93	-0.04409654
151	0x3cef564e	0.029215958
152	0x3cf41852	0.029796753
153	0xbc37e3dd	-0.01122376
154	0x3c37da7e	0.011221526
155	0xbe1c139c	-0.15241855
156	0x3986624d	0.00025631711
157	0x3cd63ec4	0.026152976
158	0xbd329592	-0.043599673
159	0x3c643f59	0.013931119
160	0x3d0afaab	0.03393046
161	0xbda0b691	-0.07847322
162	0x3dacb721	0.084333666
163	0xbc96b16e	-0.018395152
164	0xbd7b1c1b	-0.0613061
165	0xbd0e4d93	-0.03474195
166	0xbd38ed69	-0.045148287
167	0xbdb20910	-0.08693135
168	0x3b2b7be9	0.0026166386
169	0x3befae2b	0.0073144636
170	0x3bd10267	0.00637846
171	0xbd825b86	-0.06365113
172	0xbbf20450	-0.007385768
173	0xbca4eaf9	-0.020131575
174	0x3c846919	0.016163396
175	0x3caa6c14	0.020803489
176	0xbdf69833	-0.120407484
177	0x3c187ce0	0.009307116
178	0xbba7ea54	-0.0051243696
179	0x3cd4a0cf	0.025955586
180	0x3c65537d	0.013996956
181	0x3943d178	0.00018674682
182	0xbd7872c5	-0.060656328
183	0x3cfbfe3d	0.030760879
184	0xbd3cc778	-0.046088666
185	0x3d97d6ef	0.07414042
186	0xbaeb58ef	-0.0017955581
187	0x3d2fa9e0	0.042886615
188	0x3d0725f5	0.032995183
189	0x3d946a66	0.072468564
190	0xbb4fa555	-0.003168424
191	0xbe08c3c9	-0.13355936
192	0x3d160ecf	0.036635216
193	0x3d0db93b	0.034600478
194	0xbd889a2d	-0.06670032
195	0xba8075f6	-0.000980078
196	0x3d233667	0.039846804
197	0x3ca880e4	0.020569272
198	0x3d1399f6	0.0360355
199	0x3c063040	0.008190215
200	0xbd36097a	-0.04444263
201	0xbd80a198	-0.062808216
202	0xbcf08856	-0.029361885
203	0x3c718ac1	0.014742554
204	0xbc599c47	-0.013281888
205	0xbd220bc0	-0.039561987
206	0xbd4a66e5	-0.049414534
207	0xbd69ecdf	-0.057110664
208	0xbca9eb0a	-0.020741958
209	0x3ce8709b	0.028374007
210	0x3a947bb8	0.0011328375
211	0x3b168595	0.0022967805
212	0x3bd22c2c	0.006413957
213	0xbd82ed5c	-0.06392929
214	0x3d9c6b95	0.07637707
215	0xbdc64d7a	-0.09682746
216	0xbd192385	-0.03738739
217	0xbc831e62	-0.016005699
218	0xbc014e56	-0.007892212
219	0xbc216e8b	-0.009853016
220	0x3cdb8a9f	0.026799498
221	0xbceb0cb5	-0.028692583
222	0x3abf6a2e	0.0014603788
223	0x3d5e93de	0.054340236
224	0xbd3209f1	-0.043466512
225	0xbd23fd3e	-0.040036432
226	0x3c11a2c4	0.008888904
227	0xbcb51416	-0.022104304
228	0xb9cd108e	-0.0003911298
229	0x3d5f1b35	0.054469306
230	0xbcddddfc	-0.02708339
231	0xbd998fa8	-0.074981034
232	0xbcc31ac9	-0.023816483
233	0x3cc5bdbe	0.024138328
234	0x3d1a50bc	0.03767465
235	0xbdb0b2c1	-0.086278446
236	0xbbfed108	-0.0077763833
237	0xbd56f162	-0.052476294
238	0xbb3f8a73	-0.002922681
239	0xbd302fb7	-0.043014254
240	0x3d561e9d	0.05227529
241	0xbdd268ee	-0.1027392
242	0xbd84c0d0	-0.064820886
243	0x3b4d39a3	0.0031314872
244	0xba5f1759	-0.0008510254
245	0x3c259f7d	0.010108826
246	0x3bec74b4	0.0072160605
247	0xbd65dc18	-0.0561181
248	0xbda7ea84	-0.08199027
249	0x3d809ad0	0.06279528
250	0x3dd37832	0.1032566
251	0xbc67e6b2	-0.014154123
252	0x3ca8edf5	0.02062128
253	0xbd3c6f27	-0.04600444
254	0x3db3cccc	0.08779296
255	0xbdc0076b	-0.09376415

network_body._body_endoder.seq_layers.2.weight f4 [300, 300]
0	0xbe5b0e2e	-0.21392128
1	0x3e0b5a19	0.13608588
2	0xbe44623c	-0.19178098
3	0xbe699912	-0.22812298
4	0xbe14ddd9	-0.14537753
5	0xbe74efa6	-0.23919544
6	0x3d857c26	0.0651782
7	0x3e2ab0e6	0.16669044
8	0x3ac7ae2a	0.00152344
9	0x3c848868	0.016178325
10	0x3de66ad4	0.112508446
11	0x3c3e4042	0.011612
12	0x3d0c33ea	0.034229197
13	0xbe5cb1e8	-0.21552241
14	0x3dc8cc79	0.09804625
15	0xbe0399eb	-0.12851684
16	0x3dce38b4	0.10069409
17	0x3e3e3bef	0.1857755
18	0x3d81a482	0.063302055
19	0x3e29f885	0.16598709
20	0xbe032219	-0.12805976
21	0x3e8fe682	0.2810555
22	0x3e05833a	0.1303834
23	0xbcc773c8	-0.024347201
24	0xbd101f99	-0.035186384
25	0xbdb1b224	-0.08676556
26	0x3ce35638	0.027751073
27	0xbcbc3165	-0.022972772
28	0x3c606a27	0.013697184
29	0xbdaeb734	-0.08531037
30	0xbdefc0a2	-0.11706664
31	0x3dbdb5f0	0.092632174
32	0x3df1b740	0.1180253
33	0x3c229a31	0.009924457
34	0x3c3a8bc0	0.011385858
35	0xbc888682	-0.0166657
36	0xbb22f08b	-0.0024862613
37	0x3b313874	0.0027041705
38	0x3d164bd7	0.03669342
39	0xbc35e39c	-0.01110163
40	0xbcff36f6	-0.031154137
41	0x3d88375b	0.06651183
42	0x3cf1d88a	0.0295222
43	0x3dfe08db	0.12404033
44	0xbd3914ff	-0.04518604
45	0x3c9c7aa1	0.019101443
46	0xbd8bcedb	-0.06826564
47	0xbd31fcab	-0.043453854
48	0xbac647f1	-0.0015127641
49	0xbbfbb6b6	-0.007681693
50	0x3cb4d2de	0.022073206
51	0xbe5ef209	-0.21772017
52	0x3e27c5c3	0.16384034
53	0x3ab00912	0.0013430438
54	0x3d9f2142	0.07770015
55	0xbd1bd371	-0.038043443
56	0xbe269b8e	-0.16270277
57	0x3e87fdb7	0.26560757
58	0x3df6f9b2	0.12059344
59	0xbd361e76	-0.044462644
60	0xbde9a0b7	-0.11407607
61	0x3d10e477	0.03537413
62	0x3d9553eb	0.07291397
63	0xbd60405e	-0.054748885
64	0x3e14ff9f	0.14550637
65	0xbe21a6fc	-0.15786356
66	0xbe885396	-0.2662627
67	0x3d426150	0.047456086
68	0xbdaec6e4	-0.08534029
69	0x3dacef81	0.08444119
70	0x3d9f7b5a	0.07787199
71	0xbe155130	-0.14581752
72	0x3c53aa71	0.012919054
73	0xbcc0cf50	-0.023536354
74	0xbe00aa7a	-0.12565032
75	0xbe1824a3	-0.14857726
76	0x3e0beb37	0.13663946
77	0x3bb6ce33	0.00557878
78	0x3a288c2b	0.0006429578
79	0xbdeba9e3	-0.11507013
80	0xbdb6dcb8	-0.089288175
81	0xbcf7d457	-0.030252619
82	0x3d768b66	0.060191534
83	0x3e1a8936	0.15091404
84	0xbdbee513	-0.09321036
85	0x3d46d609	0.048543964
86	0x3e201db0	0.15636325
87	0x3cba029a	0.022706319
88	0xbd9c23d8	-0.07624024
89	0xbd951bb5	-0.07280675
90	0xbd5b1add	-0.053492416
91	0xbe10a500	-0.14125443
92	0xbcf165c2	-0.029467467
93	0xbdc27d2b	-0.0949653
94	0xbd171662	-0.03688658
95	0x3d028ebb	0.0318744
96	0xbe31813d	-0.17334457
97	0x3d22845a	0.039677
98	0x3d195feb	0.03744499
99	0x3e6535ac	0.22383755
100	0xbe59c7e6	-0.21267661
101	0x3dd2638d	0.10272894
102	0x3d4e9471	0.050434534
103	0xbd221b89	-0.03957704
104	0x3dd14ab7	0.10219329
105	0x3db9a460	0.09064555
106	0x3df6a070	0.1204232
107	0xbdea4098	-0.114381015
108	0x3e76a8dc	0.24087852
109	0x3d71313a	0.058884837
110	0xbc822b9f	-0.01588994
111	0x3dc67db9	0.096919484
112	0x3d9f9896	0.07792775
113	0x3e44bac4	0.1921187
114	0xbdda1d3c	-0.10650107
115	0xbd676daf	-0.056501087
116	0x3e356d30	0.17717433
117	0xbe2c0c56	-0.16801581
118	0x3d039316	0.032122694
119	0xbe16762a	-0.14693514
120	0x3e11dc0b	0.14244096
121	0xbe90f443	-0.28311357
122	0x3e6da6e9	0.23208202
123	0x3dbecb33	0.09316101
124	0x3be1121f	0.0068686153
125	0xbea0cb49	-0.31405094
126	0xbc1277c6	-0.008939689
127	0xbcc46ef8	-0.023978695
128	0x3d43a894	0.04776819
129	0x3de28377	0.11060231
130	0xbd978f50	-0.074003816
131	0xbd85bd2d	-0.06530223
132	0xbdb855b0	-0.090007186
133	0xbd903889	-0.07042033
134	0x3bcbc94a	0.006219064
135	0xbdcf7103	-0.10128977
136	0x3e713b68	0.23557818
137	0xbe1510fe	-0.14557263
138	0x3d1e9d5d	0.038724292
139	0xbd30b6a3	-0.043142926
140	0xbe0ef0df	-0.13959073
141	0xbcc29fe7	-0.023757888
142	0xbd0b358d	-0.033986617
143	0xbe622312	-0.22083691
144	0xbd04e0a3	-0.032440793
145	0xbd38fb33	-0.045161437
146	0x3ce3daa7	0.027814222
147	0x3dd1b3c2	0.10239364
148	0x3e0f9dd2	0.14025047
149	0x3d8fb69d	0.070172526
150	0xbdf0f862	-0.11766125
151	0xbd2e4323	-0.042544495
152	0x3d0869c7	0.033304002
153	0xbe20881b	-0.1567692
154	0x3d204829	0.039131317
155	0x3e7985ac	0.24367398
156	0x3e4b44d7	0.19850479
157	0x3d68e8c6	0.056862615
158	0xbe215b86	-0.1575757
159	0xbddd0e4d	-0.10793743
160	0x3db01f34	0.085997015
161	0x3e410aab	0.18851726
162	0xbd8945ee	-0.06702791
163	0x3dfb5671	0.12272347
164	0x3e098062	0.1342788
165	0xbde386a4	-0.11109665
166	0x3d023e44	0.031797662
167	0x3e4c5b2e	0.19956657
168	0x3dd43ab2	0.10362758
169	0x3dc4ab77	0.09603017
170	0xbe6c5d37	-0.23082434
171	0x3d365d53	0.044522595
172	0xbd809d30	-0.06279981
173	0xbc5eb158	-0.013592087
174	0x3d5197c9	0.051170144
175	0x3e1aa241	0.15100957
176	0x3cd35196	0.02579574
177	0xbe73c823	-0.23806815
178	0xbdd81be4	-0.10552195
179	0xbd298c44	-0.041393533
180	0xbe7f5573	-0.2493494
181	0xbc650f10	-0.013980642
182	0x3d57b8f6	0.052666627
183	0xbe003122	-0.12518743
184	0x3d15149c	0.036396608
185	0xbd52663b	-0.051367026
186	0x3c2da4be	0.01059836
187	0x3e284c3d	0.16435333
188	0xbe014b87	-0.12626468
189	0xbe6f4d94	-0.23369437
190	0xbd972c41	-0.07381488
191	0x3e1a2628	0.15053618
192	0xbda71c43	-0.08159687
193	0xba4fc7a8	-0.00079261744
194	0x3e37aae8	0.1793629
195	0xbd99c7d7	-0.075088196
196	0x3df7855e	0.12085985
197	0xbd8b6589	-0.06806476
198	0xbe047ec8	-0.12938988
199	0x3da2b0f3	0.07943907
200	0x3dae6df9	0.08517069
201	0xbe12b704	-0.14327627
202	0xbdb3845e	-0.087654814
203	0xbd630522	-0.055424817
204	0xbda03c27	-0.07823973
205	0xbbcdde63	-0.006282614
206	0x3d0ffe86	0.03515484
207	0xbdfd706b	-0.12374958
208	0x3da58672	0.08082284
209	0x3dfeb036	0.12435953
210	0x3e89b7d2	0.26898056
211	0x3d2d06fa	0.04224298
212	0x3e26bd2b	0.162831
213	0xbdd7437c	-0.105109185
214	0x3dcff7bb	0.10154673
215	0xbdc40905	-0.09572033
216	0x3e6a6215	0.22888978
217	0x3dc49119	0.09597988
218	0x3d7c457b	0.0615897
219	0x3e53aec6	0.2067214
220	0xbde32882	-0.110917106
221	0xbd9774c0	-0.07395315
222	0x3e2d6759	0.16933955
223	0xbdda09cd	-0.106464006
224	0xbe0ea29f	-0.13929223
225	0x3e60a7d5	0.21939023
226	0xbd166533	-0.036717605
227	0xbd97e4f5	-0.07416717
228	0xbe2eee62	-0.17083123
229	0xbdf26f7e	-0.11837672
230	0xbd7d87ea	-0.061897196
231	0x3e4e9cdf	0.20177029
232	0xbd9a8461	-0.075447805
233	0x3d338310	0.043826163
234	0xbbe67d28	-0.0070339628
235	0x3d8322de	0.06403135
236	0x3c34bbf3	0.011031139
237	0xbc674963	-0.014116618
238	0xbde912bd	-0.11380527
239	0xbd50f2a0	-0.051012635
240	0xbe420f08	-0.18951046
241	0x3e15a13a	0.14612284
242	0xbda69542	-0.081339374
243	0xbdaa9b62	-0.08330418
244	0x3e1c7c0b	0.15281694
245	0x3e3b93c4	0.18318087
246	0xbe3a6813	-0.18203764
247	0xbd34ba66	-0.044123076
248	0x3ddb0139	0.106935926
249	0xbda928b4	-0.08259717
250	0xbe8466b0	-0.25859594
251	0xbe03c6be	-0.12868783
252	0x3e6a2d05	0.22868736
253	0xbd75ef55	-0.060042698
254	0xbe8421e3	-0.25807104
255	0x3e7abb68	0.24485552

network_body._body_endoder.seq_layers.2.bias f4 [300]
0	0xbe0fde2f	-0.140496
1	0xbe08896c	-0.13333672
2	0xbde137ca	-0.10996969
3	0xbd4faf05	-0.05070402
4	0xbdd22d36	-0.102625296
5	0xbdad8aee	-0.08473764
6	0xbd8a1654	-0.0674254
7	0xbdc2eca5	-0.095177926
8	0xbe670042	-0.22558692
9	0xbda1472c	-0.07874903
10	0x3c697beb	0.014250736
11	0xbd2d7f45	-0.0423577
12	0xbd9418d2	-0.072312966
13	0xbdb64157	-0.08899181
14	0xbd9c9962	-0.07646443
15	0xbd260f74	-0.04054208
16	0xbd3cb954	-0.04607518
17	0xbe28ac98	-0.1647209
18	0xbd87f9b5	-0.06639425
19	0xb9db31ac	-0.00041807943
20	0xbd8a34f7	-0.067483835
21	0xbdf85c59	-0.12126989
22	0xbdb82ee6	-0.0899332
23	0xbd4f9882	-0.050682552
24	0xbe2b15bb	-0.16707508
25	0xbd8a85e7	-0.06763821
26	0xbd285098	-0.041092485
27	0xbc9c34e2	-0.019068185
28	0x3cce36b3	0.025172567
29	0xbe254f71	-0.16143586
30	0xbd2371af	-0.03990334
31	0xbcd727f1	-0.026264163
32	0xb91dbc12	-0.00015042748
33	0xbbe8734f	-0.007093824
34	0xbdc5706e	-0.09640585
35	0xbda13511	-0.0787145
36	0xbe37057e	-0.17873189
37	0xbda603b0	-0.08106172
38	0xbd9b8691	-0.07594026
39	0xbc6fc632	-0.014634656
40	0xbdca6ded	-0.09884248
41	0xbcdc83df	-0.02691835
42	0xbd46d23e	-0.048540346
43	0xbe164b1e	-0.14677092
44	0xbd92691f	-0.071489565
45	0xbdb970a4	-0.090546876
46	0xbd7e481c	-0.062080488
47	0xbd149efe	-0.03628444
48	0xbd28dfe2	-0.041229136
49	0xbaea69d5	-0.0017884324
50	0xbd288531	-0.041142646
51	0xbdc27048	-0.09494072
52	0xbe0660c7	-0.13122855
53	0xbbf86793	-0.0075807064
54	0xbe05ad42	-0.13054374
55	0xbd8d386c	-0.06895527
56	0xbdd6423f	-0.10461854
57	0xbe2bdb9c	-0.16782993
58	0xbd016d00	-0.03159809
59	0xbd304d14	-0.043042257
60	0xbca7d066	-0.020485114
61	0xbd191b64	-0.037379637
62	0xbc9b28da	-0.018940378
63	0xbb912783	-0.004429759
64	0xbd3cc3dc	-0.046085224
65	0xbd4dd0c1	-0.05024791
66	0xbdecf392	-0.11569895
67	0xbd88a021	-0.06671167
68	0xbd32d91f	-0.043664094
69	0xbd9915c8	-0.074748576
70	0xbe1496a9	-0.14510597
71	0xbe007881	-0.12545969
72	0xbdcac02f	-0.09899937
73	0xbe243f61	-0.16039802
74	0xbd8e03c9	-0.06934316
75	0xbd64bfd6	-0.05584701
76	0xbe41c23c	-0.18921751
77	0xbd2c3988	-0.042047054
78	0xbd6e4417	-0.058170404
79	0xbd258ea6	-0.040419243
80	0xbd4041b1	-0.04693765
81	0xbd751bde	-0.05984103
82	0xbd066773	-0.0328135
83	0xbd658a85	-0.056040306
84	0xbd273f08	-0.040831596
85	0xbe252e6b	-0.16130988
86	0xbd4466dd	-0.04794966
87	0xbd54549f	-0.051838513
88	0xbd6e5c69	-0.058193598
89	0xbdfbd48d	-0.122964
90	0xbd045a2f	-0.03231257
91	0xbd1df9c3	-0.03856827
92	0xbe2ef9f6	-0.1708754
93	0xbd59b654	-0.053152397
94	0xbd0e890d	-0.03479867
95	0xbd67be2e	-0.056577854
96	0xbd5e7b5a	-0.054316856
97	0xbd50545d	-0.050861705
98	0xbd240c89	-0.040051017
99	0xbd3b3372	-0.04570336
100	0xbd7f3720	-0.06230843
101	0xbd668310	-0.056277335
102	0xbd8146e5	-0.0631235
103	0xbde900cf	-0.11377107
104	0xbd5fa2db	-0.05459867
105	0xbd1b82ee	-0.03796666
106	0xbd005559	-0.031331394
107	0xbe36d5fc	-0.17855066
108	0xbd5fd7af	-0.05464905
109	0xbdaa64c8	-0.08320004
110	0xbc80422f	-0.015656559
111	0xbdb637ab	-0.088973366
112	0xbc05fee5	-0.008178447
113	0xbe2a2138	-0.16614234
114	0xbe1066cf	-0.14101718
115	0xbdfcf71e	-0.12351821
116	0xbd167e5e	-0.036741607
117	0xbd239823	-0.03994001
118	0xbd0c6cbe	-0.034283392
119	0xbd046ad2	-0.032328434
120	0xbd9e123c	-0.07718322
121	0xbd94034b	-0.072271906
122	0xbd10c9dc	-0.035348758
123	0xbd5aa406	-0.05337908
124	0xbd317812	-0.0433274
125	0xbd821d4e	-0.06353246
126	0xbd7bf390	-0.061511576
127	0xbdc316e3	-0.0952585
128	0xbe052c51	-0.13005187
129	0xbdc847b9	-0.09779305
130	0xbd507f05	-0.050902385
131	0xbccc5e03	-0.024947172
132	0xbd9238fb	-0.071397744
133	0xbd847b88	-0.06468874
134	0xbdc0af6f	-0.09408461
135	0xbda9d294	-0.08292118
136	0xbd9bf718	-0.07615489
137	0xbd8097fe	-0.0627899
138	0xbdac7e45	-0.084225215
139	0xbd2ebd35	-0.04266091
140	0xbd867423	-0.0656512
141	0xbe323676	-0.17403588
142	0xbd3701bd	-0.044679392
143	0xbe9ff145	-0.31238762
144	0xbd8d61af	-0.06903397
145	0xbcf873a9	-0.030328589
146	0xbe24c12d	-0.16089316
147	0xbde34208	-0.11096579
148	0xbd625b6d	-0.05526297
149	0xbd1fae82	-0.038984783
150	0xbdee589f	-0.11637997
151	0xbcc1d5a9	-0.023661451
152	0xbe10c465	-0.14137419
153	0xbe425c86	-0.18980607
154	0xbe6d85dd	-0.23195596
155	0xbc881c5a	-0.016615082
156	0xbd241fe3	-0.040069472
157	0xbe19f557	-0.15034996
158	0xbcb98725	-0.02264745
159	0xbdd7e418	-0.10541552
160	0x3d11150e	0.03542047
161	0xbdcd236d	-0.100165226
162	0xbdae2b86	-0.08504395
163	0xbd7572b7	-0.059923854
164	0xbda57580	-0.08079052
165	0xbd1db4b9	-0.03850243
166	0xbd252bc0	-0.040324926
167	0xbdd087b3	-0.101821326
168	0xbd9a632e	-0.07538448
169	0xbdc51441	-0.09623004
170	0xbd3bb249	-0.045824323
171	0xbd0199e7	-0.031640913
172	0xbd91e554	-0.07123819
173	0xbd871ea7	-0.06597643
174	0xbd595f49	-0.053069387
175	0xbe001f01	-0.12511827
176	0xbd5cafa2	-0.053878434
177	0xbdbe6906	-0.092973754
178	0xbd7ed679	-0.062216256
179	0xbda15384	-0.078772575
180	0xbd153afb	-0.0364332
181	0xbd9da13f	-0.07696771
182	0xbdd46f73	-0.1037282
183	0xbccd513d	-0.025063151
184	0xbd78a9a0	-0.060708642
185	0xbd3e48ff	-0.046456333
186	0xbd9de629	-0.07709915
187	0xbe95df1c	-0.2927178
188	0xbe921177	-0.2852895
189	0xbdb39ad3	-0.08769765
190	0xbd3f2798	-0.04666862
191	0xbcaae717	-0.020862145
192	0xbd80de64	-0.06292418
193	0xbdcb34a9	-0.099221535
194	0xbe09f8cc	-0.13473815
195	0xbda47457	-0.080300026
196	0xbd374122	-0.04473985
197	0xbdc23a4f	-0.09483778
198	0xbcc2ab98	-0.023763463
199	0xbd87f8e2	-0.066392675
200	0xbc962533	-0.018328285
201	0xbd757eab	-0.059935253
202	0xbd87beee	-0.06628214
203	0xbe1957c7	-0.1497489
204	0xbd3e2b7c	-0.04642819
205	0xbdb24694	-0.08704868
206	0xbbe5a2f3	-0.0070079505
207	0xbdd9493c	-0.106096715
208	0xbca55160	-0.020180404
209	0xbd73e3e2	-0.059543498
210	0xbd5ae671	-0.053442422
211	0xbd5d579b	-0.054038625
212	0xbd6f4041	-0.058410887
213	0xbd718125	-0.058961052
214	0xbdbf4fa1	-0.0934136
215	0xbe227a40	-0.15866947
216	0xbe07e503	-0.13270955
217	0xbd2815b7	-0.041036334
218	0xbe0acc07	-0.13554393
219	0xbcc0b68b	-0.023524543
220	0xbdc98ed3	-0.09841695
221	0xbceafc77	-0.028684838
222	0xbd91f6d5	-0.071271576
223	0xbbedc34f	-0.0072559486
224	0xbdb943fc	-0.0904617
225	0xbdf7c556	-0.12098186
226	0xbe366fd7	-0.17816101
227	0xbd5c7550	-0.053822815
228	0xbe1444b6	-0.14479336
229	0xbc1ab984	-0.009443644
230	0xbd4734d1	-0.048634354
231	0xbc44a3bf	-0.012001931
232	0xbd6927cb	-0.056922715
233	0xbe0631d6	-0.13104948
234	0xbdc5d365	-0.09659461
235	0xbd810a3d	-0.06300781
236	0xbd0ccaa5	-0.034372944
237	0xbd950621	-0.072765596
238	0xbca3c06e	-0.019989219
239	0xbdf12748	-0.117750704
240	0xbda265d4	-0.079295784
241	0xbd3d1948	-0.04616669
242	0xbd26a935	-0.040688712
243	0xbd48a98a	-0.04898981
244	0xbd52f932	-0.051507182
245	0xbe9a1368	-0.3009293
246	0xbe5b8b4f	-0.21439861
247	0xbdd337c2	-0.10313369
248	0xbd686936	-0.056740962
249	0xbd567d12	-0.05236537
250	0xbe24f2e4	-0.1610828
251	0xbe3df1ad	-0.18549223
252	0xbd1cdc00	-0.038295746
253	0xbc3c828f	-0.011505737
254	0xbdcadb3b	-0.09905096
255	0xbda9efea	-0.08297713

action_model._discrete_distribution.branches.0.weight f4 [3, 300]
0	0x3a2d1aa6	0.0006603397
1	0xbdb57e72	-0.08862008
2	0xbc8ba73b	-0.017047515
3	0x3d028200	0.03186226
4	0xbca917e8	-0.020641282
5	0xbbc808df	-0.006104573
6	0xbd2b3cd1	-0.041806046
7	0x3bd34066	0.006446886
8	0xbcab7bfa	-0.02093314
9	0xbbf0c966	-0.0073482273
10	0x3d741907	0.05959418
11	0x3c7449d1	0.014910177
12	0xbcecc018	-0.028900191
13	0xbd3b010b	-0.04565529
14	0xbd33d149	-0.04390076
15	0x3d227188	0.039659053
16	0x3d2e5a90	0.042566836
17	0xb9d3567c	-0.00040309492
18	0x3d2b76ca	0.041861333
19	0xbc20cdbd	-0.009814677
20	0xbcd5e417	-0.026109738
21	0xbdb5df0e	-0.08880435
22	0xbbdb7b83	-0.0066980734
23	0xba7d4338	-0.00096612005
24	0xbcdbf3a0	-0.026849568
25	0xbd135155	-0.035966236
26	0xbc1e43f4	-0.009659756
27	0xbb1aefac	-0.002364139
28	0x3d90d1b3	0.07071247
29	0xbd08a7b7	-0.03336307
30	0xbca8c0f8	-0.020599827
31	0xbbb06763	-0.0053834184
32	0xbca2947d	-0.019846195
33	0x3ca7f865	0.020504186
34	0xbd392e65	-0.04521026
35	0xbce5f964	-0.02807302
36	0xbda83d74	-0.08214846
37	0x3d1785d4	0.036992863
38	0xbd596d8a	-0.05308298
39	0xbcf6fe47	-0.030150546
40	0x3c825e1b	0.015914014
41	0xbd3fcfc1	-0.04682899
42	0xbd75b869	-0.05999032
43	0xbcaef7d7	-0.021358414
44	0x3c3109b2	0.010805534
45	0xbd058478	-0.032597035
46	0xbc955801	-0.01823044
47	0xbbead242	-0.007166178
48	0xbc56a7d9	-0.013101541
49	0xbd4e9ce1	-0.05044258
50	0x3c997d08	0.018736377
51	0x3b8756b8	0.0041302107
52	0x3cc338cb	0.023830792
53	0xbbfe89c1	-0.0077678864
54	0x3af11583	0.0018393252
55	0x3d395e3f	0.045255896
56	0x3a789dfe	0.0009483992
57	0xbe0348ca	-0.12820736
58	0xbcd3504c	-0.025795124
59	0x3b67bb81	0.0035359564
60	0x3b0153b0	0.001973372
61	0x3c1e3173	0.009655344
62	0xbad6c07c	-0.0016384269
63	0x3c7a2721	0.015268118
64	0x3c08706f	0.0083275875
65	0xbd0a76d0	-0.033804715
66	0xbcc935b8	-0.024561748
67	0xbd197daa	-0.03747336
68	0x3d3fd187	0.04683068
69	0x3d8e5a5c	0.069508284
70	0xbdcdd729	-0.10050804
71	0xbb9e8ae4	-0.0048383344
72	0xbc48a6a3	-0.012246761
73	0xbd20d212	-0.03926284
74	0xbb377f86	-0.0027999594
75	0xbc4589e1	-0.012056799
76	0xbd890e6f	-0.06692206
77	0xbcbc2a81	-0.022969486
78	0xbd27e345	-0.040988225
79	0x3d606ba1	0.054790143
80	0xbcf9cff2	-0.030494664
81	0xbcbc1b1d	-0.022962147
82	0xbcc37cdb	-0.023863247
83	0xbc4ee66a	-0.012628177
84	0x3b47c92e	0.0030484903
85	0x3c6cd705	0.0144555615
86	0xbc4bc50b	-0.012437115
87	0x3d0a5c97	0.033779707
88	0x3cc183f5	0.023622492
89	0xbd0cbf1c	-0.034361944
90	0xbc951dba	-0.018202651
91	0x3c836528	0.016039446
92	0xbdc1b4f3	-0.094583414
93	0xb9fe00a4	-0.00048447133
94	0x3c8737a4	0.016506024
95	0x3d90f6a0	0.0707829
96	0x3ca9b206	0.020714771
97	0xbc45d15f	-0.012073844
98	0xbd27c532	-0.040959544
99	0xbbf5974f	-0.007494844
100	0xbb942015	-0.004520426
101	0xbd0209d9	-0.031747673
102	0xbc349e3a	-0.011024052
103	0xbd943b45	-0.07237867
104	0x3db7746f	0.08957755
105	0xbc60ac14	-0.013712902
106	0xbcaaa370	-0.020829886
107	0x3da22a62	0.0791824
108	0x3bb5710b	0.0055371574
109	0x3c8a8512	0.016909156
110	0xbc08b442	-0.008343758
111	0xbcf906b8	-0.030398712
112	0x3ce0068b	0.02734687
113	0xbdc68fe5	-0.096954145
114	0xbcce0348	-0.025148049
115	0x3cc20c93	0.023687636
116	0x3c98e5f6	0.018664341
117	0xbdb20e4c	-0.08694133
118	0xbcfab995	-0.03060607
119	0x3a9defc8	0.001204961
120	0x3c8a7f20	0.016906321
121	0xbd01f1d4	-0.031724766
122	0xbcd05b57	-0.02543418
123	0x3c709728	0.014684476
124	0xbcaeca58	-0.02133672
125	0x3d61e32d	0.055148292
126	0xbcc27470	-0.023737162
127	0xbc3223b9	-0.010872775
128	0xbd407e39	-0.046995375
129	0xbcd99a4f	-0.026562838
130	0xbcd03750	-0.025417
131	0x3c4cf239	0.012508922
132	0xbcecc112	-0.028900657
133	0xbd026507	-0.03183463
134	0x3c6b8415	0.0143747525
135	0x3c78a1f6	0.015175333
136	0x3d17bf73	0.037047815
137	0xbc6149f2	-0.01375054
138	0xbd81e49b	-0.06342431
139	0xbcc3fb66	-0.023923587
140	0xbcedc0ee	-0.02902266
141	0xbdd649ee	-0.1046332
142	0xbd3230b9	-0.043503497
143	0xbc82c74f	-0.015964178
144	0x3ca3c125	0.01998956
145	0xbc61d394	-0.013783354
146	0xbdde17cf	-0.10844385
147	0xbda884bc	-0.08228442
148	0x3aa04aee	0.0012229362
149	0xbc3fb3c5	-0.011700575
150	0xbcf345ad	-0.02969631
151	0x3dc51b40	0.09624338
152	0xbd325ea1	-0.043547276
153	0xbd2a43ef	-0.041568693
154	0xbd5e148a	-0.054218806
155	0xbb9e62d3	-0.004833558
156	0x3c2a33ee	0.010388358
157	0x3c4db327	0.01255492
158	0xbc94c6ae	-0.018161144
159	0xbcb6a143	-0.022293692
160	0x3d416307	0.04721358
161	0xbd553678	-0.0520539
162	0xbc9f7d33	-0.01946888
163	0x39a434a4	0.00031319738
164	0xbc727d1e	-0.014800338
165	0xba937dac	-0.0011252663
166	0xbbd6c354	-0.0065540466
167	0xbcb04f12	-0.021522079
168	0xbd7aa6d2	-0.06119425
169	0xbca5b0ac	-0.020225845
170	0xbd288435	-0.041141707
171	0xbbb998f1	-0.005663984
172	0x3bae489e	0.0053187152
173	0xbd1a5e09	-0.037687335
174	0xbbe1ebc9	-0.006894563
175	0x3c245cc8	0.010031886
176	0xbc24cfa3	-0.01005927
177	0x3b3de904	0.0028978
178	0x3c90e9be	0.017689582
179	0x3a8ccc9d	0.0010742132
180	0xbc2f0b86	-0.0106839
181	0x3d1afba6	0.037837647
182	0xbcf6845a	-0.030092407
183	0x3dac0adc	0.08400509
184	0xbd0f5219	-0.034990404
185	0xbc620927	-0.013796127
186	0xbc8a40ad	-0.016876543
187	0xbb6c961c	-0.0036100214
188	0x3d297350	0.041369736
189	0x3b2108f3	0.0024571985
190	0x3d60b2cc	0.054858014
191	0xbc88a09a	-0.016678143
192	0xbc1455a4	-0.009053621
193	0xbdbd629d	-0.092473246
194	0xbce449a5	-0.027867148
195	0x3c28a68d	0.010293615
196	0x3d9270de	0.07150434
197	0xbc05b0ba	-0.008159811
198	0xbcb34da3	-0.021887606
199	0x3c71b288	0.014752038
200	0xbc166bc7	-0.00918097
201	0xbc43ee86	-0.011958724
202	0x3d4676d3	0.048453163
203	0xbc32842f	-0.010895773
204	0x3c6e6f23	0.014552864
205	0x3d02baf6	0.03191658
206	0xbc6df788	-0.014524348
207	0x3d0b97e6	0.03408041
208	0x3d278993	0.040902685
209	0xbcda3607	-0.02663709
210	0xbd2845a0	-0.041082025
211	0x3da10d6b	0.078638874
212	0xbc681c90	-0.014166966
213	0xbcbcfb1e	-0.02306896
214	0xbd48dd02	-0.049038894
215	0xbd9e2422	-0.077217355
216	0xbdc42740	-0.09577799
217	0xbca2531e	-0.019815024
218	0xb9c6e0da	-0.0003793303
219	0xbd3d4666	-0.046209715
220	0xbbed75fe	-0.007246732
221	0x3cc21434	0.023691274
222	0xbd043f56	-0.032286964
223	0x3d4382fc	0.04773234
224	0xbd02d30e	-0.03193956
225	0xbd636909	-0.05552009
226	0xbc8701a7	-0.01648028
227	0xbcaa6b0a	-0.020802993
228	0xbd65fab3	-0.05614729
229	0x3c47a546	0.0121854
230	0xbab99b0e	-0.001416059
231	0xbc7a4b28	-0.015276708
232	0xbd9b334b	-0.07578143
233	0xbc0c3dec	-0.008559685
234	0xbcb9153f	-0.022593139
235	0xbcd3b11b	-0.025841286
236	0xbaa9d8ce	-0.001295829
237	0xbb8049e6	-0.0039150594
238	0x3ca86617	0.020556493
239	0xbd01537b	-0.031573754
240	0x3d7001a9	0.058595333
241	0x3ca600f2	0.020264123
242	0x3b1ceb94	0.0023944126
243	0xbd525d08	-0.051358253
244	0xbca8c2b3	-0.020600652
245	0xbd180d63	-0.03712214
246	0xbce3629c	-0.027756982
247	0xbd5e0505	-0.054204006
248	0xbbc0c7cc	-0.0058831926
249	0xbcfda3a5	-0.03096182
250	0xbd4a926c	-0.049456045
251	0xbdce17aa	-0.10063107
252	0xbbf0ec51	-0.00735239
253	0xbc902a52	-0.017598305
254	0xbd620bf2	-0.055187173
255	0xbc2bb27f	-0.0104795685

action_model._discrete_distribution.branches.0.bias f4 [3]
0	0x3e0423b9	0.12904252
1	0xbd501e5e	-0.05081021
2	0xbdb3f12f	-0.087862365

action_model._discrete_distribution.branches.1.weight f4 [3, 300]
0	0x3bd9287c	0.0066271406
1	0xbd83e3db	-0.06439944
2	0xbd13e432	-0.036106296
3	0x3c2040fa	0.009781117
4	0x3c090249	0.008362361
5	0xbd4e8cb1	-0.050427143
6	0xbcaa25b4	-0.020769931
7	0xbd9ef3eb	-0.077613674
8	0x3c940bb9	0.018071996
9	0xbd57371f	-0.052542802
10	0xbcaa489b	-0.020786574
11	0xbd13b283	-0.036058914
12	0x3c802506	0.015642654
13	0xbb7eb0d1	-0.0038862715
14	0xbcfc2a19	-0.030781792
15	0x3c57fbb1	0.0131825665
16	0x3d22d63a	0.039755084
17	0x3c121e51	0.008918361
18	0xbd250845	-0.04029109
19	0xbd3feace	-0.046854787
20	0xbcd83c17	-0.02639584
21	0xbc046b0c	-0.008082163
22	0x3d1ed253	0.0387748
23	0xbcb59cca	-0.02216949
24	0xbcf2b449	-0.029626982
25	0x3ccbea44	0.02489198
26	0xbca78816	-0.020450633
27	0xbd1a97fb	-0.037742596
28	0x3cc6c302	0.024262909
29	0x3c5c6299	0.013451242
30	0x3ba19ec1	0.004932255
31	0x3cdc9101	0.026924612
32	0xba33b735	-0.0006855608
33	0xbc444635	-0.011979629
34	0xb99e7731	-0.00030224913
35	0x3bd5b1e0	0.0065214485
36	0x3ccd8630	0.0250884
37	0x3d094c58	0.033520073
38	0x3a39250c	0.00070627104
39	0x3c61d62b	0.013783972
40	0x3c75faa6	0.0150133725
41	0x3d1475a2	0.036244996
42	0x3cb78be0	0.022405565
43	0x3af52875	0.0018704074
44	0x3c2ea194	0.01065864
45	0x3c68da23	0.014212164
46	0x3c42870b	0.011873017
47	0x3ae3286b	0.0017330771
48	0xbd114732	-0.035468288
49	0xbc86d3af	-0.01645836
50	0xbc21df81	-0.009879948
51	0xbd74034d	-0.05957346
52	0xbca1d742	-0.019755963
53	0xbc9c12a9	-0.019051867
54	0xbd2ca9af	-0.04215401
55	0xbda1dfb7	-0.07903998
56	0x3cfc5de3	0.030806487
57	0x3cdf13aa	0.027231056
58	0xbb8f5fd6	-0.004375438
59	0x3ca9a70b	0.020709535
60	0xbc27e775	-0.010248055
61	0xbce8091c	-0.028324656
62	0xba167d14	-0.0005740684
63	0x3c9dad13	0.019247567
64	0x3c040b8b	0.008059393
65	0x3c0bf458	0.008542143
66	0x3cc37dfb	0.023863783
67	0x3c6a55fa	0.014302725
68	0xbd719ebb	-0.058989268
69	0xbb387d52	-0.0028150869
70	0x3cefef9a	0.029289056
71	0xbcaa1d45	-0.02076591
72	0xbcd5e612	-0.026110683
73	0xbcf1b830	-0.029506773
74	0x3ca5620f	0.02018836
75	0xbd335c7e	-0.04378938
76	0x3c771302	0.015080215
77	0xbbabc901	-0.0052424674
78	0xbd940d5e	-0.07229112
79	0xbd6e4c43	-0.058178198
80	0xbd62510c	-0.055253074
81	0xbcf5fa37	-0.030026538
82	0xbb6dc5b2	-0.0036281166
83	0x3c27ab3d	0.0102336975
84	0xbd198a7d	-0.03748559
85	0xbafdeaf9	-0.0019372395
86	0xbca9e457	-0.020738764
87	0xbb872456	-0.0041242046
88	0xbca3fb18	-0.020017192
89	0xbc1e3341	-0.009655775
90	0xbd05c536	-0.032658778
91	0xbbb5d338	-0.005548861
92	0x3b12f1f0	0.0022422038
93	0xbd821b1a	-0.063528255
94	0x3cf21857	0.029552622
95	0xbd9550b2	-0.07290782
96	0x3c03733f	0.008023082
97	0x3d8be5d3	0.06830945
98	0xbc716dbf	-0.014735638
99	0x3d2f36a7	0.04277673
100	0xbbfd2752	-0.0077256346
101	0x3c178059	0.009246909
102	0xbcf0ca6e	-0.029393401
103	0xbcfa40aa	-0.030548412
104	0x3c5b7a83	0.013395908
105	0xbd1e6287	-0.03866818
106	0xbc701efe	-0.014655827
107	0xbc9ff02b	-0.0195237
108	0x3d074857	0.033027973
109	0xbcb4d2ff	-0.022073267
110	0xbc2676b4	-0.010160137
111	0xbce7afb4	-0.028282024
112	0xbc2ef2d7	-0.010678015
113	0xbc4c6978	-0.012476318
114	0x3c2a3c27	0.010390318
115	0xbc7e7f2e	-0.015533252
116	0xbacc1f41	-0.0015573279
117	0x3c6d706f	0.014492138
118	0x3ce23fe2	0.027618352
119	0x3cf92c7d	0.030416721
120	0xbd6d85eb	-0.057989042
121	0xbcd60eb3	-0.026130056
122	0x3c0876a3	0.008329066
123	0x3b5425a6	0.0032371073
124	0xbd068d5c	-0.032849655
125	0xbd5ead6d	-0.05436461
126	0x3c2be205	0.010490899
127	0xbd4e02b5	-0.05029555
128	0xbaa29894	-0.0012405091
129	0xbd721ddc	-0.059110507
130	0xbc5e780a	-0.013578424
131	0xbcd7e065	-0.026352117
132	0xbd19062b	-0.037359398
133	0x3c70eda0	0.014705092
134	0xbc5e28c3	-0.013559523
135	0xbd21b880	-0.039482594
136	0xbda5074f	-0.08058035
137	0xbd20e517	-0.039280977
138	0xbcbe53d8	-0.02323334
139	0xbd521170	-0.05128616
140	0x3c383b22	0.011244567
141	0x3d3926ee	0.045203142
142	0x3bb4b9ff	0.0055153365
143	0xba4c00c4	-0.00077820965
144	0xbd8d3ab4	-0.06895962
145	0xbcf783f0	-0.03021428
146	0x3d3029e0	0.043008685
147	0xbd9b347e	-0.075783715
148	0x3ce726d9	0.028216766
149	0xbd180ae0	-0.037119746
150	0xbbb741a5	-0.0055925422
151	0x3c81bc7c	0.015836947
152	0xbc223fc4	-0.009902898
153	0x3b4b1515	0.0030987908
154	0x3b6a738b	0.0035774435
155	0x3c9f0491	0.019411357
156	0x3ce4230d	0.027848745
157	0x3ca38225	0.019959519
158	0x3cbeeae6	0.023305368
159	0xbbe28f7a	-0.0069140764
160	0xbcdf1562	-0.027231876
161	0x3d2a507f	0.041580673
162	0x3cc84ddc	0.024451189
163	0xbcd6505f	-0.02616137
164	0xbc70942a	-0.014683763
165	0xbd0c0459	-0.034183834
166	0x3c41c3a1	0.011826427
167	0x3cdfd56f	0.027323453
168	0xbd53791d	-0.051629175
169	0x3a95be00	0.0011424422
170	0xbce4407c	-0.02786278
171	0xbbbcfedf	-0.0057676877
172	0x3d8b515b	0.06802627
173	0xbcd1e709	-0.025622861
174	0xbd42e71a	-0.047583677
175	0xbbe5fd76	-0.0070187403
176	0xbc260f51	-0.010135488
177	0xbd15393d	-0.03643154
178	0xbc8cb4c2	-0.017176036
179	0x3c60b068	0.0137139335
180	0x3c585be9	0.013205507
181	0xbc754460	-0.014969915
182	0xbcd305d7	-0.02575962
183	0xbd5705b2	-0.052495666
184	0x3b878f1c	0.004136933
185	0xbaed837b	-0.0018120849
186	0x3af59a5d	0.001873802
187	0x3c5c4f08	0.013446577
188	0x3d094f8b	0.033523124
189	0xbd28ab22	-0.04117883
190	0xbdaa79f6	-0.083240435
191	0x3d813422	0.06308772
192	0xbcfa23a9	-0.030534582
193	0xbd35a9c9	-0.044351373
194	0x3ce90ddf	0.028448997
195	0x3ce95fb2	0.028488014
196	0x3cc811ed	0.02442261
197	0xbc2fa450	-0.0107203275
198	0xbcebc52f	-0.028780548
199	0x3d1a0bf9	0.037609074
200	0xbc6a5bf8	-0.014304154
201	0xbc95e19f	-0.018296061
202	0xbd16d169	-0.036820803
203	0xbabf71e5	-0.0014606087
204	0x3c864b5b	0.016393354
205	0xbc91e519	-0.017809438
206	0x3d950a7c	0.0727739
207	0x3b797229	0.003806243
208	0xbd43fb70	-0.04784721
209	0xbc00d458	-0.007863127
210	0x3db20054	0.08691469
211	0x3d677d37	0.0565159
212	0xbc5029ff	-0.012705325
213	0xbb98bc5f	-0.0046611275
214	0xbd527a29	-0.051386032
215	0xbc832d87	-0.01601292
216	0xbc949211	-0.018136056
217	0xbcf7bc4f	-0.03024116
218	0xbca13022	-0.019676272
219	0x3ce10c37	0.027471645
220	0xbcb091e2	-0.021553937
221	0x3c3c129b	0.011479045
222	0x3cb748ed	0.02237364
223	0xbd69fdd9	-0.057126854
224	0x3c379dac	0.0112070255
225	0xbd04dee2	-0.03243912
226	0x3c1cb294	0.009564061
227	0xbcac4c52	-0.021032486
228	0xbcfdfce7	-0.031004382
229	0x3d8d6830	0.06904638
230	0xbc47d075	-0.012195696
231	0xbcceb4c3	-0.025232678
232	0x3c8b2e71	0.016989918
233	0x3b2ca28e	0.0026342007
234	0xbc1b6b4b	-0.00948603
235	0xbcfaccba	-0.0306152
236	0x3ba959ff	0.005168199
237	0x3c6791ff	0.014133929
238	0xbc623ead	-0.013808888
239	0xbd081006	-0.033218406
240	0xbc43a5b7	-0.011941365
241	0xbc750855	-0.0149556
242	0xbd187d3c	-0.037228808
243	0xbc31e767	-0.010858393
244	0xbd02180b	-0.03176121
245	0x3cbf5761	0.023357095
246	0xbc51ea55	-0.012812217
247	0x3c9a7012	0.018852267
248	0xbc1bf55e	-0.009518949
249	0xbd0298cb	-0.031883996
250	0xbc045f10	-0.008079305
251	0x3d026c64	0.03184165
252	0xbd1fe0e3	-0.039032828
253	0x3ceacfab	0.028663477
254	0x3d158914	0.03650768
255	0x3d267746	0.04064109

action_model._discrete_distribution.branches.1.bias f4 [3]
0	0xbb9d5b85	-0.0048021697
1	0x3be46b7f	0.0069708223
2	0x3c9888da	0.018619943
